model_saved/2024-01-25-07-47-24/model_2024-01-25-07-47-58_epoch_7000_train_mse_1.97e-02_val_mse_2.41e-02.pt (torch, 17939 bytes, 9 tensors)

w1 f4 [8, 16]
000000 d6 89 30 be eb e4 84 3d bb d7 84 3c d5 a9 19 3c
       -0.1724008 0.06488975 0.01621615 0.00937887
000010 b3 2b cc 3e 8f 90 58 bd f6 b9 e7 3e cc 68 63 3e
       0.3987709 -0.052872237 0.45259064 0.22207946
000020 26 d5 0f 3d 63 8d 2c be dc a9 17 bf e7 5b 97 be
       0.035115384 -0.1685081 -0.5924356 -0.29562303
000030 18 c5 8b bd 37 c2 8c bc 82 23 5b 3d f6 33 42 bd
       -0.06824702 -0.017182453 0.05350066 -0.047412835
000040 29 b4 dc 3e 57 80 0a 3d 4b 81 8a bc d9 99 bc 3b
       0.431062 0.0338138 -0.016907355 0.0057556448
000050 e1 91 8d be a9 8e 3a be a4 26 1e 3f 22 ba e1 3c
       -0.2765036 -0.18218483 0.6177771 0.027554575
000060 90 af ab 3d 75 c4 ef be a9 d2 03 bf fe 21 23 3e
       0.08383095 -0.46829572 -0.51493317 0.15930936
000070 3b df 8b bc 69 92 32 bd e6 a1 73 bd 79 60 bf 3d
       -0.017074218 -0.04359666 -0.05948057 0.093445726
000080 33 0d 90 3c a1 6f a5 3c 6f 1c 10 be 71 fd b3 3a
       0.017584419 0.02019483 -0.14073347 0.0013732148
000090 3c e3 14 bf 91 ba c4 bd 72 a1 2a 3e e4 5e a5 bd
       -0.5815923 -0.09605897 0.16663149 -0.080747396
0000a0 77 ba 3f 3d de 04 43 be 9e 21 4e be a2 f3 6a 3e
       0.046808686 -0.19044825 -0.20130011 0.22944501
0000b0 22 b1 96 bd 43 c0 bb ba 4d 78 02 3c c1 43 e6 3c
       -0.07358004 -0.0014324266 0.007963252 0.02810848
0000c0 d8 c5 c5 bc 52 85 2a 3b 1f fa 05 3c 5d 87 3f 3b
       -0.02414219 0.0026019407 0.008177309 0.002922497
0000d0 2c 44 e5 3e 75 a0 e9 bd a4 e2 47 be d7 86 bc bc
       0.44778574 -0.11407558 -0.1952005 -0.023013515
0000e0 ec 64 61 3d 83 8c 2e be 78 b1 e2 3e 2c cf d7 be
       0.055027887 -0.17045788 0.44276023 -0.42150247
0000f0 bb 50 e0 bd ca 91 9b 3d f1 cb 88 bc e6 fb bf 3c
       -0.10952898 0.075961664 -0.01669881 0.023435544
000100 12 e1 b5 3d 9a be 91 3d d1 1e e9 bd a9 e9 b5 38
       0.088808194 0.071164325 -0.11382831 8.674275e-05
000110 52 bc a0 3f e4 6d 4e 3d af 87 2d ba e8 ad 18 bd
       1.2557471 0.05039777 -0.00066196447 -0.037275225
000120 67 f7 46 3d 37 3c e9 bd 76 57 a2 3d 00 83 26 bf
       0.048575785 -0.11388438 0.07926838 -0.6504364
000130 7b 53 92 3d 79 48 90 bd 19 8a 64 bc 16 d2 63 3d
       0.07144829 -0.07045073 -0.013948941 0.055620275
000140 02 48 b5 bd e5 4e a4 bd 8c 92 93 be 5e 85 c8 bb
       -0.08851625 -0.080228604 -0.28822744 -0.006119414
000150 f9 3f 77 bf 15 e0 96 be ee 3b 15 be 10 3a 01 bd
       -0.9658199 -0.29467836 -0.14573643 -0.031549513
000160 79 66 80 bd 98 39 cd be 62 ba 2f bf f9 e0 22 bf
       -0.06269545 -0.40083003 -0.6864377 -0.6362453
000170 c3 f5 8e 3d ca 2d f3 3d c3 55 ee 3d f0 5e d3 3b
       0.06980469 0.11873968 0.116374515 0.0064505264
000180 f4 26 61 bd 11 5e 8d 3c 04 08 b3 bd fc ab 8f ba
       -0.05496879 0.017256768 -0.08741763 -0.001096129
000190 43 ea 75 3e 9f 11 1b be ec d0 45 3d d0 cf 0b be
       0.24015145 -0.1514344 0.048294947 -0.13653493
0001a0 66 bb 46 3d 3c 72 24 be f1 12 b0 3e c1 b5 a8 bc
       0.04851856 -0.16059202 0.3438945 -0.02059448
0001b0 34 ce c5 bd c2 1b 88 bc 37 fa 32 3c 6a 3c af 3b
       -0.09658471 -0.016614798 0.010923914 0.005347778
0001c0 f8 1d a2 3d 02 71 77 b9 00 f3 08 bd 57 7d 09 3c
       0.07915872 -0.00023597854 -0.033434868 0.0083917
0001d0 ca e7 52 bf 21 7c ca 3d 51 50 e6 3b 17 85 49 3e
       -0.8238493 0.09886957 0.0070286174 0.19679676
0001e0 40 5f 04 3e 14 80 ab be e0 b3 8c 3c d7 80 ab 3e
       0.1292696 -0.33496153 0.017175615 0.33496734
0001f0 f5 37 30 be 40 08 04 be d5 e0 05 bd 6c 4d 82 bc
       -0.17208846 -0.12893772 -0.03268512 -0.015906058

b1 f4 [16]
000000 31 ec 31 be f4 9d 2e be a5 fd 3a 3e 0e e0 03 bc
       -0.17375256 -0.17052442 0.1826082 -0.008049024
000010 64 11 0d bf 0a 56 2b 3f 98 ce 62 3d 82 71 0c 3e
       -0.5510466 0.6692816 0.055372804 0.13715175
000020 1b ff 26 3d 28 79 bb 3e 28 d0 80 3e e3 66 0f be
       0.04077063 0.36615872 0.2515881 -0.14004092
000030 f8 39 f6 bd c4 dc 13 3f 5c 3b 11 be bc 80 01 be
       -0.120227754 0.57758737 -0.141828 -0.12646765

w2 f4 [16, 32]
000000 30 ec b5 3b da 5b 75 3c 6c bc 52 ba 39 67 cd 3c
       0.0055518374 0.014975512 -0.00080389413 0.025073634
000010 e5 0f 35 3c 8b d8 5f 3c fc 1d d6 3b c9 41 b6 ba
       0.011051153 0.013662468 0.006534336 -0.0013905104
000020 ab cc bf bd 98 05 83 bd cd f2 00 3c 6b 6b 84 bd
       -0.09365209 -0.06397551 0.007870388 -0.06465801
000030 11 ce 2e bb d2 20 08 bb c0 85 f4 bc 5b 41 d4 36
       -0.0026673118 -0.0020771516 -0.029848933 6.3257007e-06
000040 1e 25 b3 3c 5d aa cf bb b5 fc 6d bd fe 79 2c bd
       0.021868285 -0.0063374476 -0.05810233 -0.04210853
000050 c6 78 53 bc cd 43 cf ba e0 22 62 bd 9a 18 e0 bc
       -0.012907213 -0.0015813053 -0.05520904 -0.027355481
000060 65 d1 f3 bb bf ca 90 bb 33 35 34 bd c4 cc 03 3c
       -0.0074407333 -0.0044187005 -0.043996047 0.008044425
000070 46 26 1a bd 1e 4b 00 bd ca 86 16 bc a7 08 5f bc
       -0.037634157 -0.031321637 -0.00918741 -0.013612903
000080 9c 6c 6a 3b 52 13 22 3a 30 24 7a b9 46 2a 87 3a
       0.0035770303 0.00061826885 -0.00023855339 0.0010312281
000090 9b 46 be 3b 5c 78 36 39 77 bd 48 3b b0 8c 1b ba
       0.0058067567 0.0001740171 0.0030630508 -0.0005933745
0000a0 a8 13 cc bb e3 c9 46 bb fe 64 ac 3b fd 73 90 bc
       -0.006227929 -0.0030332736 0.0052610626 -0.017633433
0000b0 4f 09 b9 3a 5c df 56 ba 56 16 d9 bb 35 68 13 3b
       0.0014117154 -0.0008196735 -0.006624977 0.0022492532
0000c0 98 f1 1c 3c 4c ec 77 3a 00 55 b4 bb 1d ea b4 ba
       0.009579085 0.0009457513 -0.005503297 -0.0013802681
0000d0 06 7c fe bb 49 33 8f ba 63 74 0c bc f6 43 fa bb
       -0.0077662496 -0.0010925318 -0.008572671 -0.007637496
0000e0 32 e7 e1 3b 41 df 7d 3a 0a 22 51 bc cd f9 96 3a
       0.0068940157 0.00096844515 -0.012764463 0.0011518538
0000f0 b6 e5 a5 3b d3 38 e5 bb 91 7d 3e b7 0a 2b 3b 3b
       0.005062784 -0.0069952994 -1.1354118e-05 0.0028559589
000100 37 c5 d0 3b d4 df c7 3c 0e bc e3 ba 03 51 c5 3c
       0.006371166 0.024398722 -0.001737477 0.024086481
000110 a9 e5 0c 3c 09 08 be 3c 1e 9b 27 3c 74 50 00 bb
       0.008599677 0.02319719 0.010229854 -0.0019579204
000120 04 6b bf 3d 54 3b 38 3e ab d2 46 3c c3 e7 61 3d
       0.093465835 0.17991382 0.012135188 0.055152666
000130 b3 c1 39 bb 98 3f ca bb 98 a0 6f bd 05 f4 2d 3b
       -0.0028344213 -0.0061721317 -0.058502764 0.0026543152
000140 78 1d 26 3d 65 9c 04 bc 06 a2 04 be a6 67 07 bb
       0.040555447 -0.008093928 -0.12952432 -0.0020661145
000150 1f 6c a7 bc df dd 02 bb b0 63 06 be 87 cd 18 be
       -0.020437298 -0.0019968671 -0.13123965 -0.14922152
000160 64 12 80 3d 91 8c 35 bc e3 9a 2a bd 0d bb 5e 3c
       0.06253508 -0.011080877 -0.041651618 0.013594401
000170 fa 86 a3 bd f6 7a 26 bd 15 3e 4d bc 2d a3 94 bb
       -0.07984729 -0.04064461 -0.012527009 -0.0045360536
000180 5d 9a 8e 38 c2 9c 04 3a dd 6a 4a b6 a5 4e 69 3a
       6.79984e-05 0.0005058759 -3.0162548e-06 0.00088999636
000190 ea 87 7a b9 45 89 dc 39 27 cc 4f 39 6f 8c 11 b8
       -0.0002389249 0.00042063944 0.00019817111 -3.4701483e-05
0001a0 46 75 6c bb b1 60 55 ba d2 75 04 39 b7 ce b3 39
       -0.0036080643 -0.00081397133 0.00012632392 0.00034295555
0001b0 07 74 99 b8 24 5d 41 b8 9d 0e 8e ba 89 8f fe 37
       -7.31722e-05 -4.610153e-05 -0.0010838095 3.0345998e-05
0001c0 35 4e 26 3a fa 77 6b b8 9a da 2c bb c2 91 35 bb
       0.0006344051 -5.6140103e-05 -0.0026375414 -0.0027705287
0001d0 2e 85 c0 b9 4a 10 44 b9 bb 59 39 bb 86 2c 09 bb
       -0.0003672032 -0.00018698085 -0.0028282243 -0.002093108
0001e0 11 e5 27 bb c1 8a 26 b8 2d 5a 99 ba a4 6b 85 39
       -0.0025618712 -3.970671e-05 -0.0011699848 0.00025447935
0001f0 8d 81 47 bb 4f b5 7f ba ae 83 59 b9 cc fc ac b9
       -0.0030442209 -0.0009754495 -0.00020743787 -0.00032994745
000200 3e 97 28 bd ad dd 67 3b ce 85 4c b9 a8 88 fe 3d
       -0.04115986 0.0035379932 -0.00019504802 0.12428409
000210 2b f7 1b bb 0c 23 0d be e8 e9 48 3c 74 75 de ba
       -0.0023798447 -0.137829 0.012262799 -0.001697226
000220 f8 bc 3e be 3b 6f 00 be 16 ac 0d 3c e3 24 11 3f
       -0.18626773 -0.12542431 0.0086469855 0.5669691
000230 06 c3 e8 bd ec 79 4e 3a 62 e2 92 bd e2 b1 81 3b
       -0.11365323 0.0007876444 -0.07172085 0.003957973
000240 83 dc 85 be a7 da 86 3b ad b5 51 be 3f 40 4d 3e
       -0.261448 0.004115421 -0.2047946 0.20044039
000250 0e 92 48 3d 29 5b b8 bb a0 10 4e 3e 07 70 97 bd
       0.048967414 -0.0056261015 0.2012353 -0.073944144
000260 d9 d1 04 bf b4 fc d0 3c 52 5f c1 bb ab 43 38 bc
       -0.518827 0.025511123 -0.0059012556 -0.011246602
000270 9d aa b4 be 2f 1a 58 bd f1 25 aa 3a 9d 5e 24 3d
       -0.35286418 -0.052759346 0.0012981278 0.040129293
000280 6a 3a 3d 3e f4 6d f2 3d 5d e3 ac 3a 85 a0 51 bf
       0.18479314 0.11837378 0.0013190318 -0.8188556
000290 36 cc 3c 3d c8 1b e2 be 75 4b 7a 3d ff f4 7e bc
       0.04609319 -0.4416182 0.061107118 -0.015561341
0002a0 93 99 9e 3e 67 fa 9b 3d 92 00 33 3d 53 8d 5d be
       0.30976543 0.0761612 0.043701716 -0.21635942
0002b0 07 51 5a 3d 48 b2 08 bc 09 91 f1 be 5e 9c 25 bb
       0.05329993 -0.008343287 -0.47180966 -0.0025270204
0002c0 08 b7 1e 3f 23 d6 74 bc c3 59 1c 3d 1c 43 15 3f
       0.61998034 -0.014943632 0.03817154 0.58305526
0002d0 96 51 b6 be 45 6c 5e 3d 77 02 75 3f f9 0b c5 be
       -0.3560912 0.054302473 0.95706886 -0.38485697
0002e0 30 b2 4c be 2d c0 62 bc 87 3a 3a be 41 08 70 be
       -0.19989848 -0.013839764 -0.18186389 -0.23440649
0002f0 f9 c5 0d 3f 76 2d a9 be ce e5 5a b9 4a aa 00 be
       0.5538021 -0.33042496 -0.00020875709 -0.1256496
000300 6e 7a da 3b 86 15 54 3d 93 91 78 bb ff 30 84 3d
       0.006667427 0.05177834 -0.0037928566 0.06454658
000310 aa b9 1d 3c 13 98 a4 3d 84 85 c0 3a bc 85 b6 bb
       0.009626785 0.08036818 0.0014688228 -0.0055701416
000320 2f 84 b3 3e bf eb b0 be fc 71 4f ba cd 4c 90 be
       0.35061786 -0.3455486 -0.00079134083 -0.28183594
000330 53 35 be bc 8c 35 8b bc f0 f0 a1 3d c6 78 86 bb
       -0.023218786 -0.016993307 0.07907283 -0.004103753
000340 cf 53 01 be 62 3e 59 bc 80 5a f8 3d 75 4b 60 3d
       -0.12629627 -0.013259502 0.121266365 0.05475946
000350 d1 67 3a bd ef 13 a0 bb 7a 09 2f 3f e9 e3 6b be
       -0.045509163 -0.004885189 0.68373835 -0.2303616
000360 6f 6b 51 be 66 2d 09 bd c1 d1 bd bc 63 42 05 3d
       -0.20451139 -0.03349056 -0.023171308 0.032534014
000370 b9 91 df 3d 6b bf 93 bc 28 d3 da bc da 0e 1a bd
       0.10916466 -0.018035611 -0.026712015 -0.03761182
000380 91 52 9c 3a 33 67 27 3d b0 90 76 ba fd 93 45 3d
       0.0011926462 0.040869903 -0.00094057154 0.048236836
000390 5f 0d 12 3c 8a 99 12 3d 43 cf a4 3b f5 e4 61 bb
       0.008914321 0.035790958 0.0050295903 -0.0034468744
0003a0 1d 1f 85 bd 0b 32 19 3c 92 b0 f7 3a 4d de 83 3e
       -0.06500075 0.00935031 0.0018897227 0.2575554
0003b0 df b0 0e bc 16 57 2a bc af 1e 61 bc 13 c8 5c bb
       -0.008709162 -0.0103967395 -0.013740226 -0.003368859
0003c0 42 82 f9 bb 16 24 30 bc 2d e9 b2 bc ed 36 54 bd
       -0.007614405 -0.010750791 -0.021839703 -0.051810194
0003d0 b9 26 8a bc 94 ff 9a bb 8f 35 9d bc 23 4c 32 3b
       -0.016864168 -0.0047301743 -0.019190578 0.0027206026
0003e0 b4 2a 29 3c 1c 5e 68 bc cd e4 99 bc 36 89 9f 3c
       0.010325123 -0.014182594 -0.018785859 0.019474607
0003f0 cb 10 70 bd 9a 30 39 bd 43 ee a2 bc 0b b7 8b bc
       -0.058609765 -0.045212366 -0.019889003 -0.017055055

b2 f4 [32]
000000 d7 85 ab bc e8 d2 40 3d 20 94 98 bb ea 1f b7 3b
       -0.020937843 0.047076136 -0.0046563298 0.0055885212
000010 66 84 b0 ba 38 b1 70 3d 73 c7 a7 bb bf be df 38
       -0.0013467192 0.05876276 -0.0051202117 0.00010668998
000020 72 c7 94 bd 58 da 2a 3e f3 01 1a bb f1 0e 21 3d
       -0.07264604 0.16684854 -0.0023499697 0.03932089
000030 21 64 89 bc 55 cf 8f bb ae 34 15 bd d3 6a 98 3a
       -0.016771378 -0.0043887296 -0.036427192 0.0011628516
000040 2d 0c 0c 3e 3b 99 a8 ba 92 47 a2 bd cf 5b 76 3d
       0.1367652 -0.0012863049 -0.07923807 0.06014615
000050 45 59 41 bd a0 bc a9 bb c8 a0 33 bd f5 51 d5 3d
       -0.047204275 -0.0051799566 -0.043854505 0.10416023
000060 65 50 50 3e e9 26 48 bd 83 19 de bb c7 91 43 3d
       0.20343168 -0.048865233 -0.0067779436 0.047746446
000070 5a a8 80 bb d6 29 24 bd 02 ab 40 bc d9 9f a9 bc
       -0.003926319 -0.04007896 -0.011759521 -0.020706104

w3 f4 [32, 64]
000000 f6 ac c8 bb e1 76 48 bb 40 95 fd 39 0c f4 1e ba
       -0.006124134 -0.0030588435 0.0004836712 -0.00060635875
000010 8c 11 96 3b 32 fb 64 bc 46 1a 2b 3c 1a 85 89 bb
       0.0045797285 -0.013975905 0.010443276 -0.004196775
000020 33 54 00 3a 74 f5 ac bb a9 bc d1 3b 23 84 c1 bb
       0.0004895359 -0.0052782837 0.006400664 -0.0059056445
000030 ce 8d 1e bb 60 46 59 3b 9c 3b a4 3a 56 5c d0 3b
       -0.002419341 0.003315352 0.0012529972 0.0063586636
000040 64 a3 76 3b bc f1 db bb 88 5f 2c bc c7 da fb b8
       0.003763401 -0.0067121666 -0.010520823 -0.00012009363
000050 08 b7 b7 3b 8f 4d a3 3b e9 e0 6a 3b f0 ab 04 3b
       0.005606536 0.004983611 0.0035839623 0.0020244084
000060 d8 ae cb 3a 45 f5 c3 3b 8c bf 98 3a c2 b4 5a 3c
       0.0015539778 0.005980166 0.0011653765 0.01334876
000070 0d 11 2e bb 61 b2 29 ba 58 d6 da bb 18 80 09 bc
       -0.0026560456 -0.0006473419 -0.006678384 -0.008392356
000080 44 2e 7a 3a 9d 83 49 b9 79 3c cf bb 1c bb ea 3b
       0.0009543637 -0.00019217884 -0.0063243476 0.0071634185
000090 63 a5 d8 bb 1a fc e2 39 c2 0c a0 ba a7 2c 08 38
       -0.0066115125 0.0004329391 -0.0012210833 3.2466512e-05
0000a0 22 87 d5 ba fb 50 c9 3b 7b fa ee bb e7 7c 8a bc
       -0.0016290883 0.006143687 -0.007293043 -0.016905261
0000b0 c4 a0 a5 b9 1d d1 37 ba 45 6f 03 3c 7d 73 60 bb
       -0.00031591032 -0.00070120563 0.008022134 -0.0034248524
0000c0 6b 24 16 3a 55 84 fc b9 f2 58 6e 3c ee 04 8e 3a
       0.00057274726 -0.0004816378 0.014547573 0.0010835209
0000d0 30 3b 71 39 e8 aa 0d 3c 0a ff ac 3a 49 3e a1 b8
       0.000230056 0.008646704 0.0013198566 -7.68868e-05
0000e0 4a 4a 07 bc e0 29 87 bb 64 86 09 3b f8 b3 49 ba
       -0.008257458 -0.004124865 0.0020984644 -0.0007694359
0000f0 0b ba 39 bb b1 de d4 39 ee ec 87 39 f1 25 0a 3a
       -0.002833965 0.0004060171 0.00025925733 0.0005269936
000100 45 4f 8c 3c 98 d5 c0 b9 94 e0 0a 39 ef 86 10 b9
       0.017127642 -0.00036780233 0.00013244367 -0.00013783177
000110 ac 17 4a bd bb 9a 35 3c 54 8c bc 3c ad 1d 0d ba
       -0.04933898 0.011084254 0.023016132 -0.0005383145
000120 b2 ca cc bb b3 e5 5d bd 12 69 6b 3c 94 17 7a ba
       -0.006249749 -0.054174136 0.014368312 -0.00095402566
000130 98 cd a8 b9 f8 06 44 b9 f0 57 b7 3a 09 a5 b0 3a
       -0.00032196636 -0.00018694613 0.0013987999 0.0013476919
000140 1b 41 79 3a 1b ec 1a bc 8a 25 63 3c 07 ea c3 3a
       0.00095082977 -0.009455706 0.0138639305 0.0014947065
000150 43 26 42 ba be 11 e3 3b d9 5b 98 3a 40 e2 11 bb
       -0.0007406214 0.0069296053 0.0011624052 -0.00222601
000160 04 35 56 3c e2 c1 de 3a 49 47 cf be 5e e5 d3 3a
       0.013074163 0.0016995037 -0.40484074 0.0016166379
000170 3f d9 8c bb b2 d7 40 b8 1e ce 3b 3d b1 bb 2c 3d
       -0.0042983587 -4.597725e-05 0.045850866 0.042171184
000180 07 a4 2f 39 5a 53 40 bb a8 6b bf ba 83 88 27 3e
       0.00016750405 -0.0029346556 -0.0014604228 0.16360669
000190 bb 27 96 ba 62 42 1b 3a dd 7b dd b8 49 77 cf b6
       -0.0011455932 0.00059226726 -0.000105611725 -6.1829674e-06
0001a0 93 a8 51 bd a0 37 cb 3a 80 b1 99 bc 46 23 ed bb
       -0.051186156 0.0015504248 -0.018761396 -0.007236871
0001b0 90 d0 95 b8 c0 5e d2 ba 19 26 8a 3a 3a df 2c 3e
       -7.1437215e-05 -0.0016049966 0.0010539918 0.16882029
0001c0 03 8b 5b 39 83 d2 6e b8 db c9 e5 3b 0b 2d 25 38
       0.00020937253 -5.6939676e-05 0.0070125884 3.9381015e-05
0001d0 61 11 ca 39 b1 49 66 b9 78 5e 16 bd 6b 71 be b9
       0.0003854139 -0.00021961961 -0.036711186 -0.00036324127
0001e0 f9 43 a7 ba 1b f3 33 be 95 98 e5 39 2c e4 f4 bb
       -0.0012761346 -0.17573206 0.00043791966 -0.0074734893
0001f0 be 23 02 3e 8c 00 a7 3a 59 37 0e b7 83 a5 e5 3a
       0.12708947 0.0012741252 -8.476746e-06 0.001752064
000200 ad 01 05 3b 2c 1b 39 ba 7c 71 e6 37 59 1b 89 b8
       0.0020295188 -0.0007061239 2.7470982e-05 -6.537763e-05
000210 50 a9 93 bb 70 ae ad ba d9 64 36 3a 56 c4 b7 b9
       -0.0045062676 -0.0013250839 0.00069577765 -0.00035050762
000220 7e 93 60 b8 76 d3 d4 b9 0d b0 82 3a c8 61 99 b9
       -5.3543125e-05 -0.00040593342 0.000997068 -0.00029255287
000230 01 77 f4 b8 89 8c 08 39 19 4c 17 39 62 07 9d 39
       -0.00011656993 0.00013022324 0.00014428831 0.00029950874
000240 fe 67 22 39 6d b6 1f ba 6b dd 90 ba bc bc 3d 38
       0.00015488264 -0.0006092552 -0.0011052316 4.5236884e-05
000250 8a 54 23 3a 5a d6 cf b8 23 9d f5 39 2c 2d 5c b8
       0.0006230554 -9.910455e-05 0.00046847117 -5.2494157e-05
000260 f8 d4 37 3a 52 f4 8b 39 ef 5a 6c 3b 9d a7 14 3a
       0.0007012631 0.0002669418 0.0036064943 0.0005670728
000270 5e c8 b4 b9 26 7a 5b b8 2b a7 14 3a c6 95 8f 37
       -0.0003448156 -5.232743e-05 0.0005670662 1.7116672e-05
000280 3a 6a 76 b6 30 66 98 b7 9c 9b e5 b9 4d 4f 87 bb
       -3.6718689e-06 -1.8167397e-05 -0.00043794222 -0.0041293264
000290 10 c3 e7 b9 c5 be 2e 38 8e b4 1f b8 28 ba a3 34
       -0.00044205086 4.16625e-05 -3.807671e-05 3.0496562e-07
0002a0 2f be d1 b9 11 60 0f 3a 84 96 7c ba 58 07 18 ba
       -0.00040005284 0.0005469332 -0.00096354657 -0.0005799434
0002b0 d6 9c 3b b8 81 3e ac b8 91 59 0a b9 80 ff 0d ba
       -4.473034e-05 -8.2132414e-05 -0.00013194072 -0.00054167956
0002c0 8c 86 3c 38 a9 01 bd b8 aa 16 06 bb 0d 1e 27 38
       4.4948e-05 -9.0125315e-05 -0.0020460286 3.984389e-05
0002d0 97 01 27 37 71 6e de 39 af b1 75 b8 44 8e a8 36
       9.954346e-06 0.00042425425 -5.8578033e-05 5.023352e-06
0002e0 b8 6a c5 b9 54 c2 d9 3b a8 63 e4 38 31 6f 55 3a
       -0.0003765428 0.00664548 0.000108904496 0.0008141874
0002f0 ad 0d 3b b7 29 50 f0 38 21 4f e8 37 8f 17 47 38
       -1.1149253e-05 0.00011459023 2.7693402e-05 4.7467238e-05
000300 80 54 2d be bf 22 02 3c 45 7e bd ba 63 50 f4 3b
       -0.16926765 0.007942854 -0.0014457187 0.007455872
000310 4b 59 d3 be 5f e2 b9 bd 4c 7a c1 3d 62 fe e9 3c
       -0.41279063 -0.0907638 0.094471544 0.028563682
000320 27 d6 5f 3b ed 8c 89 bc 85 36 1d bd 96 08 9d 3b
       0.0034154744 -0.016790831 -0.038382072 0.0047922833
000330 a9 7a 23 3c ef 5e 61 bc 98 fd 88 bc 4d 1e 32 bb
       0.009977975 -0.013755544 -0.016722485 -0.0027178705
000340 3e 7a b1 3a 05 e5 84 be 09 f9 28 bd 03 9d 76 3b
       0.0013540459 -0.25955978 -0.041253123 0.0037630207
000350 a8 55 e3 3d 5d 26 3f bd 65 57 b0 3b 3b 0b 37 bc
       0.11100322 -0.046667445 0.005381512 -0.011172111
000360 05 05 b3 bd 64 6a c7 bd 21 43 38 3e d7 6b d8 bc
       -0.08741192 -0.09737089 0.17994358 -0.02641861
000370 35 18 17 bb 41 09 b5 3b 32 fe 58 3d 2a e1 c9 bd
       -0.00230552 0.005524785 0.052976795 -0.098574
000380 26 59 62 bc e9 23 e0 3c 3a 34 54 3c b9 4f 08 3f
       -0.0138152 0.027360873 0.012951905 0.5324665
000390 45 a6 ca bd 84 c3 d3 bc 70 95 6a 3c 46 94 17 b7
       -0.09894995 -0.025850065 0.014317855 -9.034824e-06
0003a0 19 3b 8a 3e 1a 12 e3 bc 2f 05 8f 3d 46 c0 51 3c
       0.26998213 -0.027718592 0.069834106 0.012802189
0003b0 9c e9 5a 3a 93 ca 92 3b 4b c1 03 be a4 56 9b be
       0.00083508505 0.004479715 -0.12866704 -0.3033954
0003c0 fc 45 7c bb 73 96 90 3b 4a 55 27 3e 4f 0f fe 3a
       -0.0038493862 0.004412466 0.16341129 0.0019383224
0003d0 aa b5 7a 3c 47 70 91 3b 07 75 79 3e 79 5a 01 3d
       0.015302101 0.0044384333 0.24361049 0.031580422
0003e0 18 77 9b b9 8c c1 9f be dd c3 52 ba 62 e3 d8 3d
       -0.00029652636 -0.31202352 -0.000804005 0.10590245
0003f0 58 5d 53 3e 81 a7 44 bb 93 bd 63 bb 96 86 ce 3d
       0.20641077 -0.0030007067 -0.0034750446 0.10084264

b3 f4 [64]
000000 d5 9a db bc aa ca eb bb 16 3f ff ba 6e d0 6c bb
       -0.026807228 -0.0071957903 -0.0019473757 -0.0036134976
000010 fb 42 48 ba 53 f9 81 bc d1 56 89 3c d2 3c 89 bc
       -0.00076393754 -0.015865957 0.01676503 -0.016752634
000020 50 56 a1 bb 4f 2d 1a 3c a3 d5 85 3c 9e cb 54 bb
       -0.0049236193 0.0094102165 0.016337221 -0.0032469998
000030 69 67 93 bb e5 5a 26 3c 8e c3 ba 3c 1b 94 bb 3b
       -0.0044984114 0.010153507 0.022798326 0.0057244427
000040 04 de 03 bb 35 f3 09 bc 7b 69 0e bc 35 a9 47 bb
       -0.0020121345 -0.0084198015 -0.008692141 -0.0030465845
000050 25 67 94 3b ae 33 dc 3c 6c 35 ea 3b 3d 42 0e 3b
       0.0045288973 0.026880112 0.0071474817 0.0021706962
000060 29 f4 5f 3c 45 c5 97 3b d3 01 14 bc 61 22 ef 3c
       0.013669052 0.0046316707 -0.009033638 0.029191198
000070 3a 02 c1 bb c1 f4 15 bb e6 5a 98 bc b9 c2 eb bc
       -0.005890158 -0.002288148 -0.018598031 -0.028779374
000080 53 3f bf 3b 9f 89 a8 3a 8b 6e e9 bb d1 1c 43 3c
       0.0058364063 0.0012858397 -0.0071237735 0.011908726
000090 58 1a 6f bc 91 f8 ee bb 6a 3c 5a bb f1 72 ca b9
       -0.014593683 -0.007292815 -0.003330017 -0.0003861408
0000a0 56 e2 38 bc 00 87 4f 3d b7 5b 2b bb f9 a5 4f bb
       -0.011284431 0.050665855 -0.0026147196 -0.003168462
0000b0 fd 90 fa 3a 22 13 01 bc 6d 25 c8 3c 20 2b e0 3b
       0.0019116696 -0.007878097 0.024431909 0.0068410784
0000c0 a4 c7 f0 39 1e ee 3d ba 28 d3 dd 3c fa 9d 0c 3b
       0.0004592511 -0.000724526 0.027078226 0.0021456466
0000d0 bd 5e 47 3a a8 6c 8e 3c 41 95 31 bb eb 53 1a 3c
       0.00076053647 0.017385796 -0.002709702 0.009419422
0000e0 a9 fa ec bb c7 2e 94 bc 47 67 c0 3b 73 32 2f ba
       -0.0072320295 -0.018088711 0.0058716866 -0.0006683238
0000f0 15 c7 95 bd 9c cf b2 bb cb b6 67 3b 79 13 0e 39
       -0.073133625 -0.005456878 0.0035356756 0.0001354943

w4 f4 [64, 8]
000000 3e 88 75 3e 9c 2e ac 3e b5 5f 45 bd b5 3d 0f 3d
       0.23977754 0.3362931 -0.048186976 0.034970958
000010 51 91 8b be ea 4b 7d be 4c 8f 10 3e 1a 77 9b bc
       -0.27259305 -0.2473599 0.14117163 -0.01897769
000020 92 a5 d2 3e b2 2c ba be bf b4 ad 3c 29 be 4d 3e
       0.41141945 -0.36362225 0.02120435 0.20092072
000030 7b 5b 81 3e a2 d2 c4 be 24 59 9a 3e ec ff b1 bb
       0.25265107 -0.3844195 0.30146134 -0.0054321196
000040 36 34 e0 bb 9c eb ab bb 62 f1 0b bb 55 2a f6 3a
       -0.0068421615 -0.0052465927 -0.0021353592 0.0018780926
000050 05 25 cc 3b 83 c0 7f 3b ed 02 f8 ba 75 7d da ba
       0.006229999 0.0039024658 -0.001892177 -0.0016669469
000060 ce 90 49 3b 85 a6 8e 3c 07 c7 e9 bb ed 6d 24 bb
       0.0030756476 0.017413387 -0.0071343216 -0.0025089935
000070 98 9c 19 b8 ac 22 88 bc b3 43 0d 3c 47 84 f4 39
       -3.6623882e-05 -0.016618095 0.008622098 0.0004663786
000080 ab 44 ec bc 3f 29 6b bf b3 36 1e be 72 46 b5 bd
       -0.028841337 -0.9185981 -0.15450554 -0.08851327
000090 20 82 c4 be 91 23 37 3f ad 1e fd 3e 47 cb 94 bd
       -0.38380527 0.71538645 0.49437466 -0.072653346
0000a0 38 82 89 3d e0 c0 8b 3d c0 f0 87 bd 73 0b 12 bd
       0.067142904 0.06823897 -0.06637716 -0.03565545
0000b0 fc 4d 49 3b 55 d2 26 bd 7d ba 90 3d c8 f2 a0 3c
       0.0030716648 -0.040727932 0.0706682 0.019647017
0000c0 10 5e 09 bf 52 54 23 bf dc 98 01 bf 96 23 d1 bc
       -0.53659153 -0.6380054 -0.5062387 -0.025529664
0000d0 ac ec 83 bd 46 07 3a 3e fb 98 97 3e 28 c1 82 3b
       -0.06441626 0.18166837 0.29608902 0.003990311
0000e0 6f ef 38 be 9b 14 83 3e 4a 75 89 be b2 44 a3 bd
       -0.18060087 0.25601658 -0.26847297 -0.07972087
0000f0 f5 e0 6f 3e 63 80 24 3f e6 ad 37 3e 29 27 3e b9
       0.23425658 0.642584 0.1793743 -0.000181344
000100 c4 c1 9b bd 3d 1d df 3d 31 80 e1 3b a6 79 98 ba
       -0.07605317 0.10894249 0.0068817367 -0.0011632934
000110 69 19 30 be 8e fd ac be ca 16 7e bc 0d 2e 73 3a
       -0.17197193 -0.33787197 -0.015508363 0.00092765765
000120 6d 3e 38 3f fd fb 14 be b6 92 40 3d c0 b9 92 bc
       0.71970254 -0.14549251 0.047014914 -0.017910838
000130 e4 e0 35 be d8 cb 97 3f c9 7f e4 3d e2 b8 12 bd
       -0.1776157 1.1859083 0.111571856 -0.03582085
000140 c8 7c 88 bc 41 77 30 3e fb 84 bc 3e 8a 3e 60 3d
       -0.016661063 0.17232992 0.36820206 0.054747142
000150 f2 0e 6c be 04 c7 f3 3e 0f d5 ad be 75 5f c5 bb
       -0.23052576 0.47612774 -0.33951613 -0.0060233423
000160 3c f9 a7 bd bd e2 5a 3e c8 1d ab 3b 98 3c b1 3a
       -0.082018346 0.21375556 0.005222056 0.0013522087
000170 07 2f ad bd c1 4f dc 3d c9 37 29 3c 44 80 06 ba
       -0.084562354 0.10757399 0.010328242 -0.00051308074
000180 6b de 23 3e 33 4a ec 3b d2 0a 30 bd af 62 05 bb
       0.16002814 0.0072109937 -0.04297907 -0.002035301
000190 40 56 35 3d ff 05 ad 3d 28 f6 13 be 73 ae 0f 3a
       0.044271708 0.08448409 -0.1444937 0.0005481012
0001a0 b7 3e 4c 3c 68 c0 d8 bd d7 31 c7 39 24 84 0e ba
       0.012466124 -0.105835736 0.0003799337 -0.00054365606
0001b0 9a 2f 01 bd 28 8e 72 bd 77 82 bd 3a 7b 9d 35 3a
       -0.031539537 -0.059217602 0.0014458437 0.00069280685
0001c0 83 b7 0a 3c 56 d5 88 bd 3e f8 a5 3b e6 41 11 3b
       0.008466604 -0.066813156 0.005064993 0.0022164523
0001d0 21 6f c5 3b 73 8f 4f bb 16 2f c4 bb 30 df 2d b9
       0.0060252105 -0.0031671196 -0.0059870584 -0.0001658171
0001e0 4d 00 2a 3b 53 b5 36 be 40 4b da bb e1 f2 16 bb
       0.002594012 -0.17842607 -0.0066618025 -0.002303295
0001f0 66 26 60 3c 06 30 e3 bd 52 3d 65 3c 1a 68 84 3a
       0.01368103 -0.11093144 0.013991671 0.0010101825
000200 1f f9 00 bc 31 59 85 bc 2e 18 2b 3c bb 57 65 3b
       -0.007871895 -0.016277881 0.010442777 0.0034994918
000210 e0 cf 8a bb 79 d0 18 3b 58 a0 49 bc b4 ac 53 ba
       -0.0042362064 0.0023317619 -0.012306295 -0.0008074746
000220 ed e1 54 bb 68 48 6f 3e 50 0f 0c 3c a8 7f ac bb
       -0.0032483295 0.23367465 0.008548573 -0.0052642412
000230 8d 19 74 bb 85 e8 8d be b4 ac 27 bc 72 35 97 3b
       -0.0037246675 -0.2771646 -0.010234047 0.0046145255
000240 78 34 43 3e be 7e b3 3e cd 75 d7 3e 70 ae db 3d
       0.19062984 0.35057634 0.42082062 0.10726631
000250 0f 8b 6b 3f 6f d3 81 3e d2 af 56 3e cc 1b 8f bc
       0.9200906 0.25356624 0.20965508 -0.01746931
000260 54 86 09 bb 42 0c 8e 3b 9c e6 06 bc 16 8e df bb
       -0.0020984607 0.0043349573 -0.0082336925 -0.006822358
000270 44 05 04 bc d2 b7 b0 3c 36 75 37 3c 59 53 4f 3b
       -0.008057896 0.021572027 0.011197379 0.0031635372
000280 eb cf 77 be 3f e1 26 3d ca c8 3b bb c8 88 75 bc
       -0.24200408 0.040742155 -0.0028653615 -0.0149862245
000290 c8 cf 17 bc a3 ff 1c 3e 40 5e 2a 3d df 75 43 3c
       -0.0092658475 0.15331893 0.04159379 0.011929958
0002a0 f0 b3 65 be 79 49 2c be 0b 10 8c 3d 4a 15 6d 3d
       -0.22431922 -0.16824903 0.068389975 0.05788163
0002b0 d4 88 77 3f 88 87 ab 3e 2b d7 3e be f6 19 43 ba
       0.9669316 0.3350184 -0.18636768 -0.0007442528
0002c0 64 dd 2f 3d 48 36 03 be 2c 6d b8 bc 79 ca 9b bc
       0.042935744 -0.12813675 -0.022512995 -0.019017445
0002d0 e1 e4 7c bb d9 94 70 3d ee e4 0e bc ff 12 36 3c
       -0.003858857 0.058735702 -0.008721573 0.011112927
0002e0 75 1c b2 3d a5 b9 86 bd 35 1e ac 3c 63 e1 20 3b
       0.08696834 -0.06578378 0.021010498 0.0024548403
0002f0 9b d2 f1 bd 95 c4 9a bd ae b4 a2 bc 0d d6 25 ba
       -0.11807748 -0.07557026 -0.019861545 -0.00063261465
000300 ce 22 f2 3d c8 b4 0c bf 5b a5 18 bd 39 f9 21 3d
       0.11823045 -0.5496335 -0.03726707 0.039544318
000310 bc e9 a6 3e ca fa 47 3e 9c 9c 15 3e 99 7a a9 bc
       0.326002 0.19529262 0.14610523 -0.020688342
000320 48 96 af bd 21 fb 99 bd b9 af 07 3d 62 c8 a3 3c
       -0.08573586 -0.07518602 0.033126567 0.01999301
000330 4f ad 8f 3e 12 77 a7 bd f1 f8 12 bd 9d ee e1 bb
       0.2806191 -0.08177008 -0.03588194 -0.0068949
000340 e2 ff ae bd 26 a2 ce 3d bb 60 d4 bd bb 9d e6 3b
       -0.085448995 0.10089521 -0.103700124 0.007037846
000350 32 1b 4e 3e b6 a8 83 bf ff bb c9 3e f5 50 58 bc
       0.20127562 -1.0285861 0.39401242 -0.013202895
000360 8b d8 9e 3d 24 44 bb be cf aa 4f 39 99 18 d3 3b
       0.07756146 -0.36575425 0.0001980469 0.0064421413
000370 73 b1 46 3e fe cc 2e be 4d b1 84 bd e6 cd 83 bb
       0.19403629 -0.17070386 -0.0647913 -0.0040223477
000380 69 ae a1 bd 8b 99 04 3e 23 37 89 3c 4a 45 94 3b
       -0.07894594 0.12949197 0.016749924 0.0045248615
000390 09 9d bc bd 72 be 51 be 80 d3 8d bc 52 86 fb ba
       -0.092096396 -0.20482805 -0.017312765 -0.0019189811
0003a0 a6 1f f3 3b bf d0 4f 3c ce 67 4a bb bb a9 a7 b9
       0.0074195443 0.012684046 -0.0030884626 -0.0003197918
0003b0 75 ec 94 b9 d4 73 cc bb 94 12 9f 3b 3a 34 e6 b9
       -0.00028404934 -0.0062393937 0.0048545096 -0.0004390793
0003c0 b4 18 90 3e d9 5a 8c bc 01 b8 f7 3d 5d 88 1d 3e
       0.28143847 -0.017133163 0.12095643 0.1538405
0003d0 b2 c2 84 3e 1e fd 27 bf 73 27 34 3f bd f6 f0 ba
       0.2592979 -0.656206 0.70372695 -0.0018384081
0003e0 e9 3b 57 bd 81 3f 77 3f b7 14 3f 3d d6 56 6c bc
       -0.05254737 0.96581274 0.046650615 -0.014425
0003f0 a1 56 30 bd f1 d6 32 3d 03 fb f0 bd 5d 65 ed ba
       -0.043051366 0.043662015 -0.11766627 -0.0018111874

b4 f4 [8]
000000 86 09 a3 bc df 95 05 bd 73 f0 e2 3c 6d a9 be 3c
       -0.019902002 -0.03261363 0.027702546 0.023274148
000010 48 13 14 bb d7 7f 26 3c 50 9c a8 bc e1 fb 6e bc
       -0.00225945 0.010162315 -0.020582348 -0.01458642

w5 f4 [8, 1]
000000 0d 56 1f 3f bc dd 42 3f 67 08 d2 be e0 dd 52 be
       0.6224068 0.7611959 -0.41022035 -0.20592451
000010 a5 12 31 3d 84 98 6a be be 41 f0 3e 24 20 e1 3d
       0.04323067 -0.22909743 0.46925157 0.109924585
