model_saved/2024-01-25-07-47-24/model_2024-01-25-07-48-08_epoch_9000_train_mse_1.81e-02_val_mse_2.42e-02.pt (torch, 17939 bytes, 9 tensors)

w1 f4 [8, 16]
00000000: 37f7 03be f4d7 113d cce0 6f3c f838 a73b
00000010: 2581 ba3e e250 4bbd 6a63 d83e 0b4d 2a3e
00000020: 198f dc3c b87e 21be 7e39 07bf b774 8dbe
00000030: 2c6e 71bd 8ca5 86bc b510 2f3d 2ace bfbc
00000040: c9b6 aa3e af04 b83c b7cc 43bc 05c3 713b
00000050: a5f8 7dbe 56b9 37be d2bf 123f 752d b43c
00000060: 75f4 9f3d 3083 debe 7f1e eebe d491 1a3e
00000070: 163c d1bc 9d13 48bd 054c 4bbd 2a7c 5e3d
00000080: d530 4f3c 08e5 253c 19c2 f1bd 8a46 313a
00000090: 8334 07bf ff64 b9bd b4c5 1f3e 22ab 7bbd
000000a0: 4c27 183d c963 37be 9031 37be c871 5e3e
000000b0: 6926 82bd 3d40 aeba 0ad3 0e3c 4f85 7b3c
000000c0: edb9 9ebc d091 d53a eaf4 fe3b 5dd2 c83a
000000d0: a45e d23e 1df6 dabd 3e94 3bbe eccd 90bc
000000e0: 43ff 313d e498 24be 01ac cd3e 47c8 cabe
000000f0: 4f23 c1bd 806a 943d 7b77 1bbc e0e7 543c
00000100: 1dea 8c3d 9d11 123d f9a2 c3bd a4f2 d738
00000110: 4655 933f 691d 3d3d 8f59 0abb 8cb5 e7bc
00000120: b139 2a3d 1ba1 d8bd d33e 943d 00d2 1cbf
00000130: fc54 7f3d 6bcb 8cbd b491 24bc 7093 f33c
00000140: 1ed1 a2bd b23b 47bd 3780 7ebe b620 90bb
00000150: ee73 63bf 34f7 8cbe e891 08be 7953 d5bc
00000160: 919d 88bd c720 c5be 82b8 1ebf 611f 1abf
00000170: 85fb 9e3d faf3 f63d 06a1 cf3d e1d8 983b
00000180: 639b 48bd c226 c33b 9ee3 94bd 564a 91ba
00000190: 1a2b 603e 23eb 0abe 71c6 443d a16c d1bd
000001a0: 938f f73c 8d9d 1dbe 9d4d a03e 97a7 94bc
000001b0: 41ef 98bd 08fc 25bc ae95 823c b06f 713b
000001c0: 0e1c 923d 8bac 6a3b 4e32 d8bc 1146 b33b
000001d0: f5d3 40bf 6e33 b03d 4964 e23a aa93 1d3e
000001e0: 00c2 f23d 5f69 9fbe bd57 4b3c 3ad6 a23e
000001f0: 5d44 29be 6035 05be 8493 f6bc e161 e4bb
-0.12887274 0.03560634 0.014640998 0.0051032268 0.36426654 -0.049637683 0.42263347 0.16630952
0.026923703 -0.15770996 -0.528221 -0.2762811 -0.05894296 -0.01643636 0.042740542 -0.023413736
0.3334258 0.02246317 -0.011950663 0.0036889922 -0.24801882 -0.17941794 0.57323945 0.021994332
0.07810298 -0.43459463 -0.46507642 0.15094692 -0.025541347 -0.04884683 -0.049633045 0.05431763
0.01264592 0.010125406 -0.11804599 0.00067625253 -0.528145 -0.090524666 0.15602762 -0.0614425
0.03714685 -0.17909159 -0.1789 0.21723092 -0.063549824 -0.0013294291 0.008717308 0.015351607
-0.019375766 0.0016294066 0.007780661 0.0015321482 0.4108783 -0.10691474 -0.18318269 -0.017676316
0.043456327 -0.16073948 0.4017029 -0.39605924 -0.09430563 0.07246876 -0.009488936 0.012994736
0.06880591 0.03566133 -0.09552569 0.00010297194 1.1510398 0.046170626 -0.002111051 -0.02828481
0.041558925 -0.105776034 0.07238545 -0.61257935 0.062336907 -0.068747364 -0.010044504 0.02973339
-0.07950042 -0.048640914 -0.24853598 -0.0043984307 -0.8884877 -0.2753235 -0.13336909 -0.02604078
-0.066706784 -0.3850157 -0.62000287 -0.6020413 0.07762817 0.120582536 0.10138135 0.004664526
-0.048976313 0.005955548 -0.07269977 -0.0011084776 0.21891442 -0.1356626 0.04804081 -0.102257974
0.030219829 -0.15392132 0.31309214 -0.01814632 -0.07467509 -0.01013089 0.015940513 0.0036840253
0.07134257 0.003580841 -0.026391175 0.005470999 -0.7532342 0.086035594 0.0017272319 0.1538836
0.11853409 -0.3113508 0.012411055 0.31804067 -0.16529985 -0.13008642 -0.030099638 -0.006969676

b1 f4 [16]
00000000: 7091 1cbe e49f eebd b609 2d3e 1252 cebb
00000010: 5930 06bf 3ef1 263f 1582 5c3d 4ece f43d
00000020: 2c63 083d ceef b53e 1baf 773e b0fd 09be
00000030: 7771 e1bd 630f 103f fb41 f6bd bdf1 b4bd
-0.15289855 -0.116515905 0.16898236 -0.0062964046 -0.5241752 0.65211856 0.053834993 0.11953412
0.033297703 0.3553452 0.24187891 -0.1347568 -0.1100797 0.5627348 -0.120243035 -0.088351704

w2 f4 [16, 32]
00000000: 830c 833b 94a3 043c 7dc1 95b9 bd4f 8c3c
00000010: 0e98 8d3b f55a 1d3c 0af6 5e3b b5f1 18ba
00000020: 75e6 bbbd 4f94 39bd 7eb7 b13b 694f 60bd
00000030: 2859 eeba b6fd 1eba 044f 90bc 44b1 5439
00000040: c451 843c b713 7abb 9887 3fbd d689 05bd
00000050: 1bc9 0dbc 6451 60ba 1fd1 54bd ed3f b3bc
00000060: 0281 00bc 002b e8ba 7825 0abd a0fe bc3b
00000070: f3d8 03bd 02a0 9bbc ebd5 b8bb be23 1dbc
00000080: 203f 033b e815 fd3a 21bb 95b8 ef68 2b3b
00000090: 70d7 9d3b acfa f53a 4fa4 fd3a 2a39 46b9
000000a0: bab8 03bc c78f a3bb 1a47 813b 9f4b 8dbc
000000b0: 568f 8939 1ae4 f9b8 8687 b7bb ac77 a23a
000000c0: 8077 033c ff4b 7938 9782 cfbb 8421 95bb
000000d0: ced6 b8bb bea2 f7b9 a810 1abc ab55 e9bb
000000e0: 5f15 513b 7881 0cba 66a2 44bc 4e3c c33a
000000f0: e37a 223b 6ffd b0bb 6f05 56ba f08b 433a
00000100: ea1e 483b 1573 1a3c d332 39b9 bf11 8d3c
00000110: a2c5 db3b 7345 533c a438 a73b 6acc 9db9
00000120: a3d1 953d ec8b fc3d 8977 023c 0b5f 323d
00000130: b11e 92ba 0d67 0dba a346 07bd d1d3 9b3a
00000140: 4ceb e63c e226 a5bb 90ed d2bd b4e0 dbbb
00000150: ef73 47bc f7f0 57ba 7130 e2bd cd22 f8bd
00000160: 13de 153d 6040 33bb e096 10bd d94a b53b
00000170: 73c8 5dbd ed81 b5bc 1672 b1bb e8a1 91bb
00000180: bde5 d738 7c32 7839 fd1d 06b7 bbfd f939
00000190: 3e89 eb37 2a01 8939 c67e c238 44e5 89b7
000001a0: 3fc4 33bb 3070 77ba 6ae2 0b39 800e 0bba
000001b0: 03f5 4ab8 d9e7 81b7 dbfe 09ba 10ae f136
000001c0: fc5a e239 febd c3b8 e9b3 b1ba b22a a1ba
000001d0: b879 77b9 35a1 f1b7 fa4a cbba ab6c 67ba
000001e0: 86dc 96ba 202a 36b8 d6ec 53ba 8343 2539
000001f0: 080c 93ba 59d1 10ba 7f36 1ab9 0464 82b9
00000200: e8a4 ecbc 7a23 a03b b63c 84b9 96e0 db3d
00000210: 521d afba ab71 d8bd 3b02 2a3c 2a72 8bba
00000220: 6c47 3abe 3397 f6bd b21c 083c 3300 0c3f
00000230: 1d74 a8bd c6be e039 d3f4 81bd 4650 513b
00000240: 8da3 70be 6266 383b 838b 47be acf7 313e
00000250: 3b3c 243d 05fb 88bb c09b 3f3e a38f 91bd
00000260: 20e4 dfbe 8a11 573c d780 f7bb deca b1bb
00000270: 5691 a2be f899 3bbd 192d 7639 b466 093d
00000280: 54b0 233e bc33 9d3d 66d5 e739 a754 39bf
00000290: 4056 353d d4c9 b8be ea22 663d 61eb 31bc
000002a0: 06a5 9b3e 22ae 963d 1129 293d d23f 5abe
000002b0: c2d0 3a3d 546d 15bb fea5 e1be 5975 16bb
000002c0: b478 173f 168e 64bc 5b5d 163d 16bf 033f
000002d0: 2d59 a9be cbf9 4e3d 6433 6e3f 3adf c0be
000002e0: ca44 3dbe 429c 95bb 8e33 35be 7e8c 34be
000002f0: 8ccf 063f 8b42 92be f857 0cba 74c2 efbd
00000300: 4e04 af3b f656 083d d54f 50ba d6fc 5b3d
00000310: 2705 003c 3ed4 643d 14a7 303b 29da fbba
00000320: 02fa a33e 962a 9dbe 288c df39 fb99 88be
00000330: 17a0 66bc 74b9 dcbb c3a2 5e3d 3f6f 31bb
00000340: d685 d0bd aed5 2ebc 6c7e d33d 9258 1f3d
00000350: 6fd5 10bd 1adb a3bb df4a 1b3f 30f9 59be
00000360: 84e6 1abe 5585 58bc cb55 c0bc 1e5d 993c
00000370: 9ca0 a13d 9535 a0bc 843d 9fbc b136 00bd
00000380: 896b a43a 08bc 603c 3ff3 0bb9 64ec f23c
00000390: 774d db3b 01d3 853c a333 753b 635c 17ba
000003a0: ac05 7fbd d567 b43b a490 f33a c8ca 6d3e
000003b0: 4c3f 83bb 1cf9 b0ba dde2 3ebc e52c f8ba
000003c0: e700 8abb a1c0 eabb 3d83 aebc 009a 16bd
000003d0: 3aba 38bc 0a07 77bb 63a2 9cbc 0215 9c3a
000003e0: 93a6 893b f15d 02bb a5e0 8cbc 9e14 b93b
000003f0: cf20 49bd a8fb e0bc bd7b 2cbc 5229 4bbc
0.0039992942 0.008095641 -0.00028563655 0.017127866 0.004321105 0.009604205 0.0034021162 -0.0005834357
-0.091748156 -0.045307454 0.0054234853 -0.05476323 -0.001818453 -0.00060650276 -0.017615803 0.00020283932
0.01615227 -0.0038158724 -0.04676017 -0.032602154 -0.008653904 -0.000855705 -0.051957246 -0.021881068
-0.007843258 -0.001771301 -0.03372714 0.0057676584 -0.03218932 -0.018997196 -0.0056407354 -0.009591041
0.002002664 0.0019308897 -7.139729e-05 0.0026155075 0.004816942 0.0018766723 0.0019351336 -0.00018904047
-0.008039648 -0.004991505 0.0039452435 -0.017247973 0.0002623747 -0.000119157325 -0.0056008724 0.0012395284
0.0080240965 5.9437003e-05 -0.006332706 -0.0045511145 -0.005640841 -0.00047232764 -0.009403385 -0.007120808
0.0031903607 -0.00053598685 -0.012001609 0.0014895292 0.0024792484 -0.0054013054 -0.0008164262 0.0007459512
0.0030536004 0.009426852 -0.00017661908 0.017220376 0.0067069093 0.012894976 0.0051031876 -0.00030097674
0.07315376 0.123313755 0.00796307 0.04354767 -0.0011148063 -0.0005394079 -0.03302635 0.0011888688
0.02818837 -0.0050400356 -0.10299218 -0.0067101363 -0.012173637 -0.00082375057 -0.11044396 -0.12116013
0.03658874 -0.0027351603 -0.035300136 0.005532604 -0.05414624 -0.02215668 -0.0054152114 -0.0044443496
0.00010294791 0.0002366993 -7.994005e-06 0.00047682025 2.8078091e-05 0.00026131544 9.274254e-05 -1.6438433e-05
-0.0027430204 -0.00094390195 0.00013340419 -0.000530459 -4.8388738e-05 -1.548596e-05 -0.00052641117 7.2026232e-06
0.00043173868 -9.3337134e-05 -0.0013557646 -0.0012296049 -0.000236011 -2.8804507e-05 -0.0015510016 -0.00088281435
-0.0011509813 -4.3431413e-05 -0.00080843025 0.00015760776 -0.0011218796 -0.00055243593 -0.00014706886 -0.0002487005
-0.028887227 0.0048870416 -0.00025222235 0.10736196 -0.0013360179 -0.105685554 0.010376508 -0.0010638882
-0.18191308 -0.12040558 0.008307623 0.54687804 -0.08225272 0.00042866747 -0.06345525 0.0031938716
-0.2349989 0.0028137197 -0.19486813 0.17379636 0.040096503 -0.0041803145 0.18711758 -0.07107475
-0.43728733 0.01312674 -0.0075532007 -0.005425795 -0.31751508 -0.045801133 0.00023477188 0.03354521
0.15985233 0.07675883 0.00044218748 -0.72394794 0.044271708 -0.36091483 0.05618564 -0.010859341
0.3039934 0.07357432 0.04129893 -0.21313408 0.045609243 -0.002280076 -0.44071954 -0.0022958128
0.59168553 -0.013949892 0.036710124 0.5146345 -0.33075848 0.05053119 0.93047166 -0.37670308
-0.18483272 -0.0045657465 -0.17695448 -0.17631719 0.5266044 -0.28566393 -0.00053536845 -0.11707011
0.0053410893 0.033286057 -0.0007946466 0.05370792 0.007813728 0.055866472 0.0026955055 -0.0019214797
0.32026678 -0.30696553 0.000426383 -0.26679978 -0.014076254 -0.006735975 0.05435444 -0.0027074364
-0.10181777 -0.010671062 0.103268474 0.038902827 -0.035359796 -0.005000484 0.6066112 -0.21286464
-0.15126997 -0.013215383 -0.02347841 0.01872116 0.07891962 -0.0195568 -0.019438513 -0.031302158
0.0012544255 0.013716705 -0.00013346689 0.029653735 0.006692584 0.016335966 0.003741481 -0.00057739596
-0.06226127 0.005505542 0.0018582535 0.23221886 -0.0040053483 -0.0013501975 -0.011650768 -0.0018934278
-0.0042115333 -0.0071640764 -0.021302814 -0.03676796 -0.011274869 -0.0037693405 -0.0191204 0.0011908116
0.0042007654 -0.001989242 -0.017196963 0.0056482097 -0.049103554 -0.027463749 -0.010527548 -0.012399988

b2 f4 [32]
00000000: c2f9 87bc de13 023d cec3 a2ba df60 343b
00000010: 6566 22bb fd7c 343d 47dd 8fbb af53 e539
00000020: 8362 88bd b40c 233e 5049 44bb ba87 263d
00000030: 2e57 40bc 8300 24bb ed37 ebbc 7583 a23a
00000040: 6ef6 f53d c9a7 56b8 785a 93bd 514a 6d3d
00000050: bff6 17bd 59f4 b1bb de67 1bbd 4bd9 cb3d
00000060: 1f11 2c3e e3f5 dcbc e24e 65bb 2e35 f33c
00000070: 3e0e abbb 1581 01bd 7fbc fcbb 94e5 85bc
-0.016598586 0.031757228 -0.0012417973 0.002752356 -0.002478027 0.04406451 -0.004390392 0.00043740633
-0.066594146 0.15922815 -0.0029950924 0.040656783 -0.011739535 -0.002502472 -0.02871319 0.0012398796
0.12009893 -5.1177838e-05 -0.0719499 0.0579322 -0.03710055 -0.00543074 -0.037940852 0.09953555
0.16803406 -0.026972717 -0.0034989645 0.029688444 -0.0052202037 -0.031617243 -0.0077129 -0.016344823

w3 f4 [32, 64]
00000000: eb1a cbbb 7197 33bb 7324 1d39 d689 56b9
00000010: 5b11 a33b 61da 79bb 932e 1f3c c9dd d3ba
00000020: d0db 9838 76db 89bb 631c bf3b 8579 28bb
00000030: 87f7 a0ba b047 2d3a 9b83 093a 6203 403b
00000040: 402a c43a d24c bcbb bb53 03bc 2880 06b9
00000050: beba 813b 3137 a63b 4f80 213b ee9f 923a
00000060: bef9 153b 550b 333b e29d 6239 b324 bb3b
00000070: a654 0abb 00ef 12b9 cde7 debb cde9 08bc
00000080: 8c4d 8e39 171b 18b9 d439 44bb 4bb6 d23b
00000090: bf30 47bb d48c 7539 72d1 b6b9 49c4 1f36
000000a0: c573 07bb 3653 fa3a 22ac 97bb 6649 4bbc
000000b0: 6260 02b9 4bd0 5cb9 bcc9 f93b bcb3 7fbb
000000c0: 5015 7739 3746 c2b8 4158 703c 2de5 bf39
000000d0: ffe8 0435 34b2 953b 634d 273a fddf 3a39
000000e0: ecef 94bb 4e07 94bb 72b1 803a 8ec8 99b9
000000f0: b1bf 4abb 2b34 fbb8 bef0 8a38 342e 0039
00000100: cbea 6f3c 5647 9e39 1655 d1b7 04ab fa38
00000110: ae4b 26bd 9691 8c3b 4a20 7b3c e8d2 693a
00000120: b429 79bb 9f02 09bd 2079 073c 6e26 8039
00000130: 7cef ae38 f432 97b9 c8c2 5a38 08fe 67b9
00000140: 2bd4 2339 fabb b4bb a93b 013c adcf 213a
00000150: 7447 49ba ded2 8e3b cfdd 8439 f855 65ba
00000160: ae23 d93b 7ef0 73b9 a9a7 a7be b47a 78ba
00000170: 9dd9 0dbb 368d aa38 107d 153d 58a0 043d
00000180: 2bf0 a238 08a9 24ba 4cc3 6e39 c9ad f23d
00000190: 1da7 8ab9 3708 9438 7a38 9838 cfe4 04b5
000001a0: c8df 0ebd 9f90 5fba b8dc 23bc e53f 86bb
000001b0: a6b9 5a38 d88d cbb9 2883 7e38 1d90 083e
000001c0: 7905 ddb8 cde2 6938 14e5 993b 8b2d b8b8
000001d0: 0b7f 9338 ba99 21ba dae1 acbc 2fc5 5db9
000001e0: edc6 d539 8aaa 0fbe 8fe3 cfb8 bdd1 87bb
000001f0: 4a29 c43d d9af ee39 3486 46b8 9c2d e739
00000200: 81e4 813a 403e 5bb9 b362 6736 1b14 00b7
00000210: 1100 15bb 8a4e 5fb9 f6d5 053a 5326 68b8
00000220: fce5 83b8 fc55 27b9 0ae1 e739 9136 35b8
00000230: 7f03 9fb7 9c48 7137 a660 d437 66cd 3b38
00000240: 5370 ff36 41a5 97b9 4c40 a6b9 ee16 32b6
00000250: 6dda 0939 dc2f 1c39 0ccd ae38 2cfb 04b6
00000260: 3f94 a539 b4cb 3c38 39ba ef3a 89c9 d838
00000270: 4016 ddb8 ee09 a5b6 836b 5738 28c9 8bb9
00000280: 37d1 55b6 de20 d4b6 0571 d5b8 4379 cfba
00000290: 2c9b b0b7 8f48 aa36 33ec aab6 a8c8 be32
000002a0: e5c6 93b9 b6eb 9938 5b7e 0eb9 f79d 3db9
000002b0: 622c feb6 159b 51b7 5262 0f39 29d6 f9b9
000002c0: f979 7e37 aa63 00b7 b103 69ba 861d c636
000002d0: 9a35 8fb4 8af7 9238 96f7 66b8 38c0 3a37
000002e0: 38e2 b1b8 800a 5e3b 52e0 8637 19ce 3539
000002f0: 9426 1fb9 2263 a8b6 3bd1 1d36 8e9a 2ab6
00000300: e56c 27be a103 fe3b be3c 83ba b0cc d13a
00000310: fec4 ccbe 9e8a 6bbd 8030 b53d 273a 453c
00000320: e4f8 5f3b c177 7bbc 619a 15bd 840b 8e3b
00000330: a2ce 063c 4f7b f5bb 5910 babb 4845 3bbb
00000340: cab9 7d3a 8d07 77be 870e 14bd bfc4 2c3b
00000350: b89d c63d 5a0a 39bd 2724 903b 32f6 1dbc
00000360: 5aeb a5bd 82d6 97bd 76df 323e 014a b0bc
00000370: 6797 f3ba 24fb 763a 5cfb 533d 6984 bebd
00000380: 4cf7 2dbc 75cc 7a3c 7928 313c 3c88 013f
00000390: 23c1 a5bd 9023 a4bc 0a15 1c3c d43f b3b5
000003a0: 7ac7 823e 4408 9fbb 8feb 803d 5c2a 453c
000003b0: 5350 193a 091d 053b acf4 fcbd f030 95be
000003c0: 7008 aeba f889 1a3a a2a7 213e a470 933a
000003d0: 78ac e33b 31a9 373b c344 653e 063a c73c
000003e0: 2903 533a a4f8 99be 941a 6eba 8046 c43d
000003f0: f48c 4a3e ec4e d6ba 67c1 d2b9 6ff8 9f3d
-0.006198277 -0.0027403499 0.00014986265 -0.00020459978 0.004976434 -0.0038124549 0.009715694 -0.001616412
7.288868e-05 -0.00420707 0.0058322414 -0.0025707197 -0.00122808 0.00066101085 0.0005245746 0.0029298891
0.0014966205 -0.0057464624 -0.008015568 -0.00012826978 0.003959029 0.0050724973 0.0024643128 0.0011186579
0.0022884454 0.0027319987 0.00021611855 0.005711162 -0.0021107583 -0.0001401268 -0.006802535 -0.008356524
0.00027142128 -0.00014505941 -0.0029941695 0.0064304224 -0.0030394045 0.00023417483 -0.00034869794 2.38071e-06
-0.002066837 0.0019098285 -0.004628674 -0.012407636 -0.00012433672 -0.0002105843 0.0076229256 -0.0039017042
0.00023563695 -9.2637194e-05 0.014669479 0.00036601108 4.9512886e-07 0.0045683626 0.0006382076 0.00017821784
-0.0045452025 -0.0045174723 0.0009818508 -0.0002933186 -0.003093701 -0.0001197833 6.6251945e-05 0.00012224243
0.014643381 0.00030189258 -2.4954363e-05 0.00011952783 -0.040599518 0.004289816 0.0153275225 0.0008919672
-0.0038019242 -0.033449765 0.008268625 0.00024442695 8.341574e-05 -0.00028838927 5.2156654e-05 -0.0002212451
0.0001562393 -0.0055155726 0.007887759 0.00061726087 -0.0007678189 0.0043586334 0.00025342262 -0.0008748467
0.006626568 -0.00023263876 -0.32745102 -0.00094787334 -0.00216446 8.132534e-05 0.036496222 0.03237948
7.769497e-05 -0.0006281291 0.00022770202 0.11849553 -0.0002644592 7.05872e-05 7.2584444e-05 -4.950679e-07
-0.034881383 -0.0008528325 -0.010001354 -0.0040969723 5.214815e-05 -0.0003882486 6.0680468e-05 0.13336225
-0.000105391206 5.5762754e-05 0.0046964977 -8.782287e-05 7.03317e-05 -0.00061645696 -0.021103788 -0.00021149659
0.00040774737 -0.14029899 -9.912915e-05 -0.004144876 0.09578188 0.00045525914 -4.7331865e-05 0.00044093735
0.0009910018 -0.00020908657 3.4479133e-06 -7.634076e-06 -0.0022735635 -0.00021296195 0.000510543 -5.5348803e-05
-6.289405e-05 -0.00015958393 0.0004422742 -4.320458e-05 -1.8955905e-05 1.4381625e-05 2.5317375e-05 4.4775566e-05
7.6126685e-06 -0.00028924088 -0.00031709892 -2.6537414e-06 0.00013146708 0.00014895148 8.3351595e-05 -1.9815734e-06
0.00031581704 4.5012406e-05 0.0018289752 0.000103372215 -0.000105422456 -4.918539e-06 5.1360123e-05 -0.0002666202
-3.1861252e-06 -6.3219186e-06 -0.00010177683 -0.0015828985 -2.1053092e-05 5.0748417e-06 -5.093892e-06 2.2210159e-08
-0.00028186213 7.339513e-05 -0.00013589246 -0.00018083291 -7.5749567e-06 -1.2493479e-05 0.0001367417 -0.00047652543
1.5167979e-05 -7.652599e-06 -0.00088887947 5.904297e-06 -2.6674826e-07 7.00793e-05 -5.5066856e-05 1.1131218e-05
-8.482154e-05 0.003388077 1.6078502e-05 0.00017338282 -0.00015177793 -5.0183307e-06 2.3516611e-06 -2.5421937e-06
-0.16350134 0.0077518974 -0.001001261 0.0016006436 -0.39994043 -0.057505243 0.08847141 0.01203779
0.003417545 -0.015348376 -0.03652418 0.004334869 0.008227976 -0.007491506 -0.0056782183 -0.002857523
0.0009678869 -0.24123974 -0.036146667 0.0026362387 0.09698051 -0.045175888 0.004398841 -0.009641217
-0.081015304 -0.07413961 0.17468056 -0.021519663 -0.001858455 0.0009421578 0.051753387 -0.09302599
-0.010618042 0.015307535 0.010812872 0.505985 -0.080934785 -0.020036489 0.0095265005 -1.3355116e-06
0.25542814 -0.0048532803 0.06294929 0.012034025 0.0005848456 0.0020311496 -0.12351355 -0.291389
-0.0013277661 0.0005895193 0.15786603 0.001124878 0.00694805 0.002802443 0.22389512 0.02431966
0.0008049482 -0.3007251 -0.000908294 0.09583759 0.19780332 -0.0016350425 -0.00040198417 0.07811057

b3 f4 [64]
00000000: a8b5 b7bc 8c00 ddba b6bd c8ba 666c 833a
00000010: ef19 94bb d11e ebbb a127 203c e654 b7bb
00000020: f4d0 56bb a1aa 313c 9044 203c 1850 883a
00000030: 5118 26ba c3af 0a3b eb3f 4d3b 44ff a1ba
00000040: b9f4 72bb f52a 7abb d8bc 39ba 647b b5ba
00000050: dc5c 263a 47a6 a13c e454 803b 0e02 a23a
00000060: 1063 d43b b24b ef38 09db b8bb 308c 903c
00000070: dc61 6dbb 5ba1 2d3a b025 52bc 6176 aebc
00000080: 07b5 f43a f5b2 873a 33d6 4039 2d48 113c
00000090: 6d2a c6bb 4d90 c0bb dc47 56ba 1aec 01b8
000000a0: ed14 dbbb 5417 fe3c 9423 beba 78bb 5aba
000000b0: fee5 c43a 72a8 0a3a cffe 933c 8d79 123c
000000c0: 6cde d9ba 6521 113a 2be7 a43c f7e9 ca39
000000d0: 64dd 25b7 b158 fb3b 3c99 6eba a00a d13b
000000e0: ab41 d53a ba8a 4fbc e8e4 f93a 06f4 4bbb
000000f0: 1ba5 7cbd cda6 45bb 0c22 84b9 e699 eab9
-0.022425488 -0.0016861125 -0.0015315327 0.0010026812 -0.004519693 -0.0071753045 0.009775073 -0.0055948375
-0.0032778354 0.010843904 0.009781972 0.0010399846 -0.0006336021 0.002116189 0.0031318616 -0.00123594
-0.0037072136 -0.0038172577 -0.000708533 -0.0013845977 0.00063462346 0.019732608 0.0039163698 0.0012360231
0.0064815357 0.000114105074 -0.0056413454 0.017644972 -0.0036221659 0.000662347 -0.012826368 -0.021296682
0.0018669673 0.0010353016 0.00018390342 0.008867306 -0.006047538 -0.005876577 -0.000817416 -3.0975883e-05
-0.006685844 0.031016983 -0.0014506453 -0.0008343975 0.0015022156 0.00052893825 0.018065838 0.008940113
-0.0016622073 0.0005536287 0.02012976 0.0003870276 -9.886313e-06 0.007670485 -0.0009101813 0.0063794404
0.0016270181 -0.012667352 0.0019065412 -0.003112079 -0.061680894 -0.0030159235 -0.0002520237 -0.0004474662

w4 f4 [64, 8]
00000000: b145 4c3e 33d5 973e dcfb 15bd 7162 7d3c
00000010: e689 4bbe e467 57be 4188 e03d 39eb 7dbb
00000020: e7b3 c83e fe9f b4be 50ca a43c 4e1f 2f3e
00000030: 4798 503e 0c40 bdbe 0d63 903e 3626 97bb
00000040: d236 c2bb 2f10 99bb d133 1bbb 4ea9 873a
00000050: 997d 633b 095e 6a3b 6910 a9ba ee04 37ba
00000060: a00b b63a 76f9 603c 3e36 61bb 022a 4eb9
00000070: 2246 60b9 02e7 54bc 8653 a33b 49d3 deb9
00000080: bb2e d8bc c279 67bf f96d 1abe dc14 acbd
00000090: 7cf0 9fbe eccb 333f 2fa0 f63e 15e1 7dbd
000000a0: 7224 443d 7569 573d 3cb2 21bd 55a7 51bc
000000b0: 1fab 6a39 3cd1 c9bc a119 3b3d f60c 1c3b
000000c0: 7f72 03bf 218c 1ebf 4c98 efbe 54a7 b2bc
000000d0: 67af 5bbd 3c32 333e 267f 8e3e 6b59 3d3b
000000e0: 9069 23be fe2a 703e 7fd8 5abe 3070 4ebd
000000f0: 826c 433e ceed 133f a531 193e f54c 15ba
00000100: 6ad3 65bd af8c ba3d b00e 423b c9fb b5ba
00000110: 0f26 febd ccd2 88be 83c5 18bc 2378 593a
00000120: ba91 2f3f f41b 12be 4b0d 3b3d 2bf1 58bc
00000130: d8cc 0abe 4a3e 923f 7595 d23d 01ad eebc
00000140: 8a18 8abc 0697 2a3e adb9 ae3e c05d 433d
00000150: 18b9 36be b7f3 ea3e 7fcd a3be 4a3a b2bb
00000160: 7f62 3bbd 660f 153e f2a6 d43a 2c19 e538
00000170: 3cf3 6ebd f965 893d 5638 823b 3a7a 3238
00000180: cc43 e63d b06b b13b 6520 a7bc 004f 48b9
00000190: cd69 113d f3e9 823d f87b aabd dbf6 31b9
000001a0: f707 ea3b c08d 86bd b996 5cba c154 09ba
000001b0: 0a67 a4bc 9946 0abd 8244 bc3a ecaa 7139
000001c0: fee9 003c df3e 7fbd 6002 833b f942 ad3a
000001d0: 539f 1d3b 8747 44bb 2b04 a3bb d1eb b838
000001e0: f24b 443b a0c6 18be cfc9 aabb 22ea dcba
000001f0: e4b4 ac3b d078 b7bd e808 2f3c 8a4d 403a
00000200: 28b1 1ebb 7090 0cbc 8c18 023b ccc4 46b9
00000210: 72bb ccba 35e8 7f3a c669 57bb f346 8c39
00000220: b01e 7bbb 6c2d 593e 94e0 fb3b 8bc7 1cbb
00000230: da10 f2ba fe5f 7cbe f77f 18bc 6e90 a23a
00000240: 929c 333e a4b5 aa3e 2e58 c33e 68cb b83d
00000250: 59e7 493f ef9c 773e 902c 413e f9f2 7bbc
00000260: 88c8 20ba f719 a53b da3d 07bc 1237 c4bb
00000270: a1f3 1fbb e485 9f3c 647b 333c 8e94 323b
00000280: b299 56be 04a1 1c3d 9282 70bb 3205 2cbc
00000290: 2655 a2bb 2089 0b3e 4524 123d b239 c73b
000002a0: 14c6 4dbe 572b 20be f021 673d 8fdb 213d
000002b0: d5bf 483f d189 9c3e 6ff0 23be 97d6 e3b9
000002c0: efd4 123d b316 d9bd e9ef 8bbc 6a35 23bc
000002d0: 634a f3ba 209c 3f3d 1f7b 6bbb a921 793b
000002e0: cc3e 473d 2c85 36bd f69a f93b 7cdc ba39
000002f0: 61f5 a4bd fa3e 3ebd 71a3 11bc 4065 eeb7
00000300: 8c46 d13d aee3 03bf b368 d7bc 6579 003d
00000310: ddeb 5f3e c835 383e 8574 f93d 4989 67bc
00000320: adf2 74bd 8a95 76bd b036 923c c758 d13b
00000330: 8f8f 5b3e 2983 69bd a886 b4bc c510 edba
00000340: 103a a4bd c075 c33d 0309 b9bd 21c1 ce3b
00000350: 3786 1c3e b7c5 77bf eff3 b53e 8aa0 15bc
00000360: d0e9 623d 5be0 9cbe 40b2 673b 5555 a63b
00000370: 882a 033e fcce 09be 796f 41bd ad9d 2abb
00000380: 3c20 73bd 9f4f d93d 662d 2b3c 7a63 003b
00000390: ed39 48bd b345 24be 70f9 43bc 97da 0cba
000003a0: 0ac8 7b3b fade 0d3c 2b3e f5b9 d171 1f3a
000003b0: 0c40 20b9 c85c 85bb 1755 e13a c0dd dbb9
000003c0: dcd1 873e a49e 84bc 00a6 dd3d 53df fd3d
000003d0: a85e 623e f0b0 1fbf 1ba6 253f 5b06 65ba
000003e0: d697 2bbd 477a 633f 9e80 053d f595 55bc
000003f0: 9995 f3bc 0a4c 1c3d 6aef c0bd 61a2 1e3b
0.1994846 0.29654846 -0.036617145 0.015465365 -0.19876823 -0.21035725 0.10963488 -0.003874494
0.39199755 -0.35278314 0.020116001 0.17101786 0.20370589 -0.36962926 0.2820057 -0.0046127094
-0.0059269452 -0.0046711187 -0.0023682008 0.0010350139 0.0034712313 0.0035761616 -0.0012898567 -0.00069816306
0.0013888963 0.013731351 -0.0034364606 -0.0001966134 -0.00021388431 -0.01299453 0.004984322 -0.0004250056
-0.02638947 -0.9042016 -0.15081014 -0.08402416 -0.31238163 0.70233035 0.48169085 -0.061982233
0.04788632 0.052590806 -0.03947662 -0.012796243 0.00022379727 -0.024635904 0.04567874 0.0023811436
-0.5134658 -0.6193257 -0.4679588 -0.021808304 -0.053634074 0.17499632 0.27831382 0.0028892409
-0.15958238 0.234539 -0.21371649 -0.05039996 0.19084361 0.57784736 0.14960344 -0.00056953664
-0.056109823 0.091088645 0.0029610805 -0.0013884242 -0.12409603 -0.26723325 -0.009324434 0.0008295795
0.68581736 -0.14268476 0.045666974 -0.013241093 -0.13554704 1.1425259 0.10282413 -0.029135229
-0.016857404 0.16659173 0.34126034 0.04769683 -0.17844045 0.45889065 -0.3199272 -0.0054390775
-0.04574823 0.14556655 0.001622407 0.000109242595 -0.058337435 0.06708903 0.003974001 4.255234e-05
0.112434 0.0054144487 -0.02040119 -0.00019102916 0.03550129 0.063922785 -0.083244264 -0.00016971996
0.0071420628 -0.065700054 -0.00084147934 -0.00052387646 -0.020068664 -0.033758733 0.0014363679 0.00023047224
0.007868288 -0.062315818 0.003998086 0.0013218812 0.0024051263 -0.002994986 -0.004974862 8.817728e-05
0.0029952493 -0.1491952 -0.0052120457 -0.0016854445 0.0052705873 -0.0895859 0.010683276 0.0007335773
-0.002421448 -0.008579358 0.0019851057 -0.00018956064 -0.0015619828 0.00097620796 -0.0032869442 0.00026755742
-0.0038317852 0.21208733 0.007686684 -0.0023922648 -0.0018468157 -0.24645993 -0.009307853 0.0012402663
0.17540196 0.33341706 0.38153213 0.09023172 0.78868634 0.24180959 0.18864655 -0.015377753
-0.0006133397 0.0050384956 -0.008254493 -0.00598801 -0.0024406689 0.019473024 0.010954712 0.002724919
-0.20957068 0.038239494 -0.003669892 -0.0104992855 -0.004953998 0.13626528 0.03567912 0.006079876
-0.20095092 -0.15641533 0.05642885 0.039516028 0.7841771 0.30573896 -0.16009687 -0.00043456696
0.0358476 -0.10600033 -0.017082172 -0.009961465 -0.0018561598 0.04677975 -0.003593154 0.0038014448
0.048643872 -0.044560596 0.0076173497 0.00035640958 -0.08054615 -0.046446778 -0.008889065 -2.841896e-05
0.10218534 -0.51519287 -0.026295042 0.03136577 0.21867318 0.17989266 0.121804275 -0.014131852
-0.059801746 -0.060201205 0.017848343 0.006388757 0.21441482 -0.05700985 -0.022036865 -0.0018086663
-0.08018887 0.095439434 -0.09034922 0.006309644 0.15285574 -0.96786064 0.3553767 -0.009132514
0.055398762 -0.3063992 0.0035354048 0.0050760903 0.12809193 -0.13457865 -0.04722545 -0.0026033923
-0.059356913 0.1061089 0.010447836 0.0019590543 -0.048883367 -0.16042213 -0.011961326 -0.00053731486
0.0038418793 0.008659119 -0.0004677636 0.00060823286 -0.00015282648 -0.0040698983 0.0017191496 -0.00041936152
0.26527297 -0.016188927 0.108226776 0.12396111 0.22106421 -0.6237936 0.6470658 -0.0008736604
-0.04189285 0.88858455 0.032593362 -0.013036241 -0.02973442 0.038158454 -0.094206646 0.0024205672

b4 f4 [8]
00000000: f65c 3abc 6241 c5bc e3d0 8b3c 7abc 313c
00000010: 39e0 583b c9d7 db3b cd36 41bc 7e85 27bb
-0.011374703 -0.024079029 0.017067378 0.010848159 0.0033092631 0.006709073 -0.011792851 -0.0025561745

w5 f4 [8, 1]
00000000: 44a4 183f a05c 353f fbd0 ccbe a6c7 4dbe
00000010: 11d9 253d d354 49be 75a3 e83e 8026 d93d
0.5962565 0.7084446 -0.4000319 -0.20095691 0.040490214 -0.19661264 0.45437208 0.106030464
