model_saved/2024-01-25-07-47-24/model_2024-01-25-07-47-24_epoch_0_train_mse_1.25e-01_val_mse_1.20e-01.pt (torch, 17455 bytes, 9 tensors)

w1 f4 [8, 16]
000000 42 c4 92 bf 39 18 76 3f fe 29 27 3e f2 8e 00 40
       -1.1466143 0.9613071 0.16324612 2.0087247
000010 e9 f4 2d 3f c0 4a c4 3e 5c c4 a2 3f 95 8e bf 3f
       0.6795183 0.3833828 1.2716174 1.4965388
000020 61 4d fa bf 6c 62 13 bf 0b 01 ca bf 05 51 2b bf
       -1.9554864 -0.57572055 -1.5781568 -0.669205
000030 bb b6 6f 3e c6 3d f4 3c 4c af db 3f 9b 00 8d bf
       0.2340955 0.029814612 1.7162871 -1.101581
000040 1e 09 04 40 2f 73 91 3e e6 bd 1a bc a3 cd 61 3f
       2.0630565 0.2840819 -0.009444689 0.882044
000050 56 e3 09 bf 4d 5e 6d be ac ee cf 3f 33 df 43 3e
       -0.5386251 -0.23180504 1.6244712 0.19128112
000060 8b 0f 43 be 0b 5b bf bf d9 cb 9c bf 13 55 94 3e
       -0.19048898 -1.4949659 -1.2249709 0.28971156
000070 63 36 60 3f f5 e7 a7 bd fe af 89 be 1d 96 99 3f
       0.8758299 -0.08198539 -0.26892084 1.1998936
000080 bd a8 5c 3e f4 29 c9 3e 5f bd 8d bf cd e8 a4 3d
       0.21548744 0.3928982 -1.1073416 0.08052216
000090 30 12 a2 bf 5d 04 03 3f bf cc 20 3f d4 dd 41 bf
       -1.26618 0.5117853 0.6281242 -0.7572911
0000a0 57 0a 62 be c4 f5 68 bf 1d b2 3f bf e4 65 12 3f
       -0.22074257 -0.9100001 -0.74881154 0.5718672
0000b0 07 ea af 3e 9f 05 2e 3e c3 7e b9 3e 1f 80 12 3f
       0.34358236 0.16994332 0.36229524 0.5722675
0000c0 a5 01 aa bf 5b 11 10 bf 5c 58 35 3e 70 10 02 3e
       -1.3281752 -0.5627648 0.17709488 0.12701583
0000d0 80 35 75 3f 32 6f 59 3f c7 bb 7d bf 19 ad bb be
       0.9578476 0.84935296 -0.9911465 -0.366555
0000e0 4c 8c 29 bf 86 65 ad bf 7d fc f3 3f d1 70 bc bf
       -0.662297 -1.3546607 1.9061428 -1.4721929
0000f0 52 2f d6 3c d8 0e 15 40 d6 ae 5e be 48 70 30 3f
       0.026145611 2.329031 -0.21746382 0.6892133
000100 0a f5 80 3f af d0 00 40 2c 42 54 bf 83 61 7d bf
       1.007478 2.012737 -0.8291347 -0.98976916
000110 93 2a 1d 40 60 b8 de 3f 45 62 23 bd a9 8b c2 be
       2.4557235 1.7400017 -0.03988864 -0.37997177
000120 ba d8 8b 3f 7e e8 f5 be 03 41 30 3e 43 d7 df bf
       1.0925515 -0.4802894 0.172123 -1.7487568
000130 46 6f 90 40 a1 76 98 bf 52 b5 79 bf db dc 9d 3f
       4.513583 -1.1911203 -0.975423 1.2333025
000140 87 87 85 be b4 83 8f bf d2 4a 9e bf 1a 7e 3c 3f
       -0.26079962 -1.1212068 -1.2366583 0.73629916
000150 93 f6 d8 bf f4 6e 83 bf 55 34 ef be 66 2c 8f be
       -1.6950248 -1.0268235 -0.46719614 -0.2796356
000160 10 c6 b2 bf d1 a6 81 bf d9 2b e1 bf 8f b9 a7 bf
       -1.3966694 -1.0129033 -1.7591506 -1.3103503
000170 05 d7 e1 3e a1 af f5 3e 7a 8a 23 3f 1c 36 a1 be
       0.4410936 0.47985557 0.63883173 -0.31486595
000180 d2 59 48 3c b8 b0 ab 3f fc 7f ac bf e4 49 1a 3f
       0.012228446 1.3413305 -1.3476558 0.60269
000190 81 b4 11 3f 48 b2 31 3f af 5a ca 3e 72 9c 16 c0
       0.5691605 0.6941266 0.3952231 -2.3532987
0001a0 c4 62 37 3e e1 1b e0 bf ba 5f f2 3f 4d b3 ec bd
       0.1790877 -1.7508508 1.8935463 -0.115576364
0001b0 2f bc 1d 3e 1f f2 de be 80 10 34 3e a1 a2 03 bf
       0.15403818 -0.435441 0.17584419 -0.51420027
0001c0 f4 e5 29 3e 2a ce 8a be dc 94 b4 bd dd 68 27 3c
       0.16591626 -0.27110416 -0.08817455 0.010217872
0001d0 18 79 c2 bf 7e 3f ac 3f fd 99 9b 3d d3 7e 97 3f
       -1.5193205 1.3456876 0.0759773 1.1835579
0001e0 55 68 9e 3f 2a 7e 92 bf e9 4e ac 3d 34 30 2c 3f
       1.237559 -1.1444752 0.084134884 0.6726105
0001f0 93 58 23 bf b2 92 43 bf b8 6c 09 3f 54 57 a8 be
       -0.6380703 -0.76395714 0.53681517 -0.32879126

b1 f4 [16]
000000 f5 3c 05 bf f7 72 88 bf c3 ea 02 3f aa b1 a9 bf
       -0.5204614 -1.0660084 0.5113947 -1.3257344
000010 66 ae 4f bf be e6 0f 40 da 8a da 3d 45 26 c0 3e
       -0.81125486 2.2484584 0.10671015 0.37529197
000020 f3 e9 45 be 15 58 3a 3f 08 2d d6 3e 41 9e 7c be
       -0.19327526 0.7279065 0.4183123 -0.24669744
000030 85 43 16 be 44 bd 0d 40 c7 fd 21 bf 74 02 3f bf
       -0.14674194 2.2146769 -0.6327786 -0.7461312

w2 f4 [16, 32]
000000 fe d4 88 bf 21 a1 b7 3e 94 67 0c bf 6e 3c cb be
       -1.069 0.3586512 -0.5484555 -0.39694542
000010 e9 c6 86 bf 36 b5 e5 be 26 31 13 3f ad 13 2d 3f
       -1.0529453 -0.44864815 0.5749687 0.6760815
000020 30 fe 92 bf 69 31 29 3f d5 fa d3 3e cf 7f 49 bf
       -1.1483822 0.6609102 0.41402307 -0.78710645
000030 8c e0 d5 3f a8 15 91 bf 8a af 02 c0 39 c6 94 3f
       1.6709151 -1.1334734 -2.041964 1.1622993
000040 92 44 13 bf 47 ba 32 be 9c c5 93 bf 63 8d 7f bf
       -0.57526505 -0.17453872 -1.154468 -0.99825114
000050 c9 cd c0 3f eb 38 36 bf 7f e5 09 40 9b bb ae 3f
       1.5062801 -0.711806 2.1546323 1.3651003
000060 aa e4 cf bf f0 11 b5 bf 70 6d e7 bd 80 73 95 bf
       -1.6241658 -1.4146099 -0.113001704 -1.1675873
000070 aa ae ef be bb 1f 07 3e c4 84 9d 3f 83 c3 82 bf
       -0.46812946 0.13195698 1.2306142 -1.0215915
000080 05 83 3d bf 94 ad e1 3f 3f a9 15 bf 05 bf c9 3d
       -0.74028045 1.7631097 -0.58461374 0.09850887
000090 d7 cc 6e be 8d a4 2c 3f b7 38 d7 bf d1 62 54 bc
       -0.23320328 0.67438585 -1.6814183 -0.012963013
0000a0 52 0b 22 bf 7b 44 3c 3f 59 5c 2d bf bf 8c 4b bf
       -0.63298523 0.7354199 -0.67719036 -0.79511636
0000b0 f1 5e 46 3e f9 eb fa 3f 82 20 1c 3f d6 11 2c 3f
       0.19372155 1.9603263 0.60987103 0.67214715
0000c0 cc 28 44 3f 17 87 0f 3f 62 aa 97 bd be 90 ee be
       0.7662475 0.56065506 -0.07405545 -0.46594805
0000d0 3a cd 03 bf 9e ca c7 3f 42 87 64 3f d3 f1 c0 3f
       -0.51485026 1.5608709 0.8926889 1.5073799
0000e0 24 2f 8a 3f b6 14 f3 bd 86 3d a4 bf e9 72 be be
       1.0795636 -0.11869185 -1.2831275 -0.37197044
0000f0 67 68 6f 3f 94 31 32 3f 9a 1c 74 3f 60 87 52 bf
       0.9351868 0.696069 0.9535614 -0.82237816
000100 1f da a6 3e 3a 16 75 be 8d 11 9d 3f 11 d1 58 be
       0.32588288 -0.2393426 1.2270981 -0.21173503
000110 59 e1 8e 3d 90 78 bb 3e 80 d2 f1 3f 50 a3 80 3f
       0.069765754 0.3661542 1.8892365 1.0049839
000120 a9 47 87 3f a3 ab 0e 40 a0 5c 0a bf 13 dc c5 3e
       1.0568744 2.2292259 -0.54047585 0.38644466
000130 66 7d 04 40 b5 9e 95 3f d1 2c 9a bf 8c ee fb 3f
       2.0701537 1.1689059 -1.2044927 1.9682174
000140 b7 05 7e 3e 52 d8 7c 3f 8b b6 b2 bf 1d cd 89 3f
       0.24806868 0.9876758 -1.3961958 1.0765721
000150 ff c0 f5 bd a3 57 99 3f b9 d8 20 bf 47 93 ad bf
       -0.11999702 1.197987 -0.6283069 -1.356057
000160 b6 16 14 3f 45 1b a0 be 6e fe 80 3f ab d7 8b bf
       0.57847154 -0.31270805 1.0077646 -1.0925192
000170 3b 01 8f bf b3 a3 7b be 11 3b 88 3f e9 21 54 3f
       -1.117225 -0.24574165 1.0643026 0.8286424
000180 4a 8d f2 3f a3 63 3c 3f e4 99 6e 3f ff 26 be be
       1.8949368 0.73589534 0.9320357 -0.37139127
000190 1f 8b 31 3d 93 6f 8e bf 7a 9e d4 3f 6a 7a a1 bf
       0.043345567 -1.11278 1.6610863 -1.2615483
0001a0 57 13 50 3f 4f 64 cb bf 7d 3a 39 bf 7b ae 93 3e
       0.8127951 -1.5889987 -0.7235487 0.28844056
0001b0 40 18 12 3f 0f e6 c5 be 20 fb 29 3f 5c 9c 31 bf
       0.5706825 -0.38652083 0.6639881 -0.6937921
0001c0 29 5f b5 bc 7c 65 45 bf 8d fa 9b bb 26 ef a4 bf
       -0.022140102 -0.7710798 -0.0047600926 -1.2885482
0001d0 70 76 cf bf d4 d2 8b bf 90 04 17 bf 80 98 40 bf
       -1.6208019 -1.0923715 -0.58991337 -0.75232697
0001e0 19 78 26 be e9 27 47 3e ee 3b f3 bf 3f 42 b7 3f
       -0.16256751 0.19448818 -1.9002664 1.4317092
0001f0 5e b8 e7 bd 65 7e 09 3f dc 5b 69 bf 77 8d 26 bf
       -0.11314462 0.5370849 -0.9115579 -0.6505961
000200 d0 5c d8 bf 05 78 a8 3f be d0 81 be ae a7 7e 3f
       -1.6903324 1.3161627 -0.2535457 0.9947461
000210 b4 cb be bd 35 34 ed bf 8b af 57 3e 43 e2 37 3f
       -0.09316197 -1.8531557 0.21063058 0.71829623
000220 56 2f 13 bf d4 f9 e1 be cf b7 74 bf 2c 92 9a 3f
       -0.57494104 -0.44135916 -0.9559297 1.2075858
000230 c6 d3 53 c0 1a 99 5d be 6f 39 ad be ce 00 03 bf
       -3.3098006 -0.21640435 -0.3383288 -0.511731
000240 3d 8b 91 bf 63 50 fc bd f0 e0 9a bf 0c 32 7c 3f
       -1.1370617 -0.1232002 -1.2099895 0.98513865
000250 5b fb c6 3e ca a9 f6 be 53 b6 39 3f cb 56 89 be
       0.38863644 -0.48176414 0.7254383 -0.2682403
000260 5b 6a d0 bf 0e 65 1d 3f 8a 61 ad 3e 60 2c 32 3d
       -1.6282457 0.6148232 0.3386348 0.04349935
000270 74 33 e6 bf 33 97 e5 be 9d b3 31 bf c8 23 0c 3f
       -1.7984452 -0.44841918 -0.69414693 0.547421
000280 f7 d9 84 3f 2e 76 38 3f 66 68 36 3f 51 ef 0f c0
       1.0379018 0.7205533 0.7125305 -2.2489817
000290 3a 66 40 3f 9d f9 da bf 49 ae 1c 3f ca dc f1 bf
       0.75155985 -1.7107426 0.6120344 -1.8895504
0002a0 19 28 08 3f c4 95 40 3e fc 1b 83 3f b4 e6 a5 be
       0.53186184 0.18807131 1.0242915 -0.32402575
0002b0 5d 6e 09 3f ab ff 38 be ec e5 87 bf 37 d5 39 3f
       0.53684026 -0.1806628 -1.0617042 0.72590965
0002c0 e9 ca 9c 3f 5e 5d 9f bf 88 18 9d 3d 1b 79 ae 3f
       1.2249423 -1.2450368 0.076706946 1.3630708
0002d0 e1 b3 57 bf 77 4c 12 3f fa 2f d7 3f 7c 86 4e bf
       -0.8425885 0.57147926 1.6811516 -0.80673957
0002e0 1a 19 97 be f4 a9 ce 3f f8 7d a1 bf 31 3d aa bf
       -0.29511338 1.6145616 -1.2616568 -1.3299924
0002f0 98 8b 97 3f ba d0 7c bf e7 47 a6 3e b9 c7 ea be
       1.1839476 -0.9875599 0.32476732 -0.458555
000300 57 79 8a 3f 0e 44 4c bf dd ad 0d bf fd 3d 3f 3d
       1.081828 -0.79791343 -0.5534342 0.046689976
000310 4f c0 a8 bf 36 77 99 3f 64 cf 26 be 26 58 b8 bf
       -1.3183688 1.1989505 -0.1629005 -1.4401901
000320 62 ac cd 3f 65 56 a4 bf d2 b7 91 be 9b 52 25 bf
       1.6068232 -1.2838866 -0.28460556 -0.6457917
000330 1f c0 d8 bf f0 6a 98 be 30 c3 78 3f 5c a5 0d be
       -1.6933631 -0.29769087 0.9717283 -0.13832611
000340 97 2d 4c bf 20 b1 94 be 46 73 ad 3f 46 bb aa 3f
       -0.79757065 -0.29041386 1.3550804 1.3338401
000350 d4 04 ed be 47 a7 77 3d 83 11 52 40 fc c7 a5 bf
       -0.46292746 0.060462262 3.2823188 -1.2951655
000360 79 5c 7f bf ca f2 b7 3d fa 5f 1a bf 51 59 91 bf
       -0.9975048 0.08981855 -0.603027 -1.1355382
000370 a0 43 a9 3f 6e a2 1c 3f 09 e2 32 3e 1c 41 44 bf
       1.3223763 0.6118535 0.17469038 -0.7666185
000380 0b b5 4b be 21 bb a7 3f 7d 3d 9e 3e ee 17 b2 be
       -0.19893281 1.3103982 0.30906287 -0.34783882
000390 c6 c6 00 3f e3 38 27 3b ee f1 3d 3f 10 5f fa bd
       0.50303304 0.0025516085 0.7419728 -0.12225163
0003a0 32 8a f3 be 41 10 8f 3f 82 3f 21 3e 5f 5a e6 3f
       -0.47566372 1.1176835 0.15746883 1.7996329
0003b0 81 1f 68 3d e4 90 55 3f 19 f8 83 3f be df 5f 3f
       0.05667067 0.8342421 1.0310088 0.8745078
0003c0 90 e8 28 bf 4f bf 58 3f 85 23 a4 3f 33 04 96 3f
       -0.6597986 0.84666914 1.282334 1.1720031
0003d0 1f 2b a0 bf d8 70 b7 3c 7f 11 f9 3e 3c a3 e7 3e
       -1.251316 0.022392675 0.4864616 0.45241725
0003e0 55 fe dc 3e 7d bb af bc f4 d0 62 be 73 13 93 bf
       0.4316279 -0.021451706 -0.22150022 -1.149031
0003f0 c4 a8 d9 be fb 0d 2a be 05 cb 35 3f 96 68 16 3e
       -0.4251157 -0.16606896 0.7101291 0.14688334

b2 f4 [32]
000000 63 7c b4 bf b5 56 2b bf f6 86 fd be 99 25 20 bf
       -1.410046 -0.6692918 -0.4951703 -0.6255737
000010 ed ed 4c bf 2c 88 9f 3f ba b1 d2 be bd 91 d3 3e
       -0.80050546 1.2463431 -0.4115122 0.41322127
000020 c8 db ce be 69 ee a6 3f 6d f6 cc be c7 99 e7 3d
       -0.40402055 1.3041507 -0.40031758 0.113086276
000030 6f 27 c5 be 7d 47 a2 bc 99 05 0f bf 8d f3 70 be
       -0.38506648 -0.019809479 -0.55867916 -0.23530407
000040 a5 ac b6 3f bb bc 7d 3d 65 3d b0 bf 75 f8 8d 3f
       1.4271437 0.061947566 -1.3768736 1.1091448
000050 c0 39 7a bf 7a 64 bf bf 2d b7 64 be 42 e6 bf 3f
       -0.9774437 -1.4952538 -0.22335501 1.4992144
000060 83 e5 8c 3f 25 9f 02 bf 98 81 20 bf a6 73 d1 3f
       1.1007541 -0.51024085 -0.62697744 1.6363418
000070 4d 11 09 3f 18 9e 86 bf 7c da 86 bf 15 cd a3 bf
       0.53542024 -1.0516996 -1.0535426 -1.2796961

w3 f4 [32, 64]
000000 ff 1d b0 3e 20 cb 66 bf 48 f1 1b bf 8f e4 af be
       0.34397885 -0.90153694 -0.6091504 -0.34354064
000010 56 38 c2 3e b9 ad ae be 85 ad 35 3f 8a 0e a8 3f
       0.37933606 -0.34116915 0.70967895 1.3129437
000020 cb 52 5e bf 5f fa 4f 3f 99 9d 7c 3f 0e 1a 17 bf
       -0.8684508 0.8124141 0.98677975 -0.5902413
000030 38 53 10 3e 06 ef 83 3e c6 55 8f bc 14 1a 5f bf
       0.14094245 0.25768298 -0.017496955 -0.8714917
000040 d5 55 82 bd 05 04 d6 bf 2a 21 c4 bf 81 4f 87 bf
       -0.063640274 -1.6719977 -1.5322621 -1.0571138
000050 87 ad 89 bf 77 d4 b6 3f 5b 62 6f be 46 e7 52 bf
       -1.0756081 1.4283589 -0.23377363 -0.82384145
000060 2e ec d8 bf e3 5f 6a 3f f7 bd ef 3e 37 94 c8 bf
       -1.6947076 0.9155256 0.4682462 -1.5670232
000070 06 d5 c6 bd 6e 35 b1 bf 7a 05 07 3d f4 1a 95 3f
       -0.097086 -1.384443 0.032964207 1.164885
000080 8a d8 06 40 ac ee bd 3e 1c 18 01 bf 9c a0 7b 3f
       2.1069665 0.37096155 -0.50427413 0.98291945
000090 3f 88 11 3f c3 5a 86 3e a1 1f 79 bf 67 33 0b c0
       0.5684852 0.2624112 -0.97313887 -2.1750124
0000a0 e9 16 56 3f 8c ee cc bf ad 6c e1 be e9 91 12 c0
       0.8362871 -1.6010299 -0.44028226 -2.2901556
0000b0 0f 46 a4 3e b2 28 1a 3e 84 48 17 be 1d 6a 68 be
       0.320847 0.15054587 -0.14773756 -0.22696729
0000c0 5e 1b ac 3e 03 15 9d bf f0 41 a7 3f 85 8c ab 3f
       0.3361463 -1.2272037 1.3066998 1.3402258
0000d0 98 3c 54 bd 28 31 d7 be 5b a9 16 be 13 b5 86 3e
       -0.0518156 -0.4202969 -0.14713041 0.26310024
0000e0 f6 87 69 3f 92 6c ef 3e 99 31 4e bf 35 e1 80 be
       0.91223085 0.4676252 -0.8054443 -0.2517182
0000f0 e3 b4 91 bf 15 e6 3e bf ae d8 a2 bd 5d 17 dd be
       -1.1383327 -0.7456983 -0.079514846 -0.43181887
000100 af 3a ef 3e bd d6 63 3f b8 7e b2 be a8 68 57 bf
       0.4672446 0.8899954 -0.34862304 -0.8414407
000110 12 ae e0 be 23 30 1a 40 84 0a 33 3f ac 26 99 bf
       -0.43882805 2.409188 0.6993792 -1.1964927
000120 ee 9a 4d 3e 96 a3 0c c0 6e 1a db 3d 1e d0 14 3f
       0.20078632 -2.1974845 0.106984004 0.5813006
000130 96 bf c1 3f 52 03 53 3f a0 a4 7e 3f 86 dc 5a be
       1.5136592 0.8242694 0.9946995 -0.21373186
000140 61 f4 1a 3f d2 b1 6a bc 9f 7f 59 3f 13 eb 93 3d
       0.6052914 -0.014324622 0.8496036 0.07222571
000150 ea 75 77 bf 0c 44 4e bf af 6e 0b bf 65 c4 d5 bf
       -0.966643 -0.8057258 -0.54465765 -1.670056
000160 08 95 0c 3f f8 a1 9f 3f c4 42 1a c0 ba 4a 26 bf
       0.54914904 1.2471304 -2.410325 -0.64957774
000170 23 6d 56 3f 58 ac b3 3e 63 d2 42 3f 90 f0 e6 3f
       0.8376028 0.35092425 0.76102275 1.8042164
000180 17 3e 01 3f 57 bb 0b c0 6f 73 85 bf 5e 3d 9e 3f
       0.50485367 -2.1833093 -1.0425853 1.2362478
000190 a3 28 d2 3d 8c 73 f0 3f 8d 3e 92 bf cb 60 9c 3f
       0.10261657 1.8785262 -1.1425339 1.2217039
0001a0 29 6a 41 bf 27 e0 23 40 30 83 67 bf 15 c4 a3 bd
       -0.7555261 2.5605562 -0.9043455 -0.07996384
0001b0 27 6f 0a 3f 21 e6 b5 be 7e c9 24 bf df 38 b6 3f
       0.54075855 -0.35527137 -0.6436995 1.4236106
0001c0 76 27 d3 be 6a 28 d5 be 80 53 2e be 3a 91 8f 3f
       -0.41241044 -0.41632396 -0.1702404 1.1216195
0001d0 0b d5 9d 3f b7 a3 9c bf 00 6c 10 bf 7e 4e a7 bf
       1.233064 -1.2237462 -0.56414795 -1.3070829
0001e0 d3 2e 53 3f 7b 29 b8 bf 5c 79 4b bf 6f 51 9a be
       0.82493323 -1.4387659 -0.79482055 -0.30140254
0001f0 7c 0b da 3f 68 8e 60 3e fe 0a 18 3f 6f 2d a0 3f
       1.7034755 0.21929324 0.5939177 1.2513865
000200 75 6a 60 bf 0c 12 73 bf 6f 5b c6 be b3 0a 8a be
       -0.8766244 -0.9494941 -0.38741633 -0.26961288
000210 ee ba 0d bf be 20 17 c0 03 ac 09 bd 0b a9 66 be
       -0.5536336 -2.3613734 -0.03361131 -0.22525422
000220 a4 59 4d 3f 5b 19 c8 bf bb ae 93 3f d1 ea e2 3f
       0.80214906 -1.5632738 1.1537699 1.772791
000230 19 af 96 3d a7 41 92 be 21 2e 34 3c 64 70 19 bf
       0.07357616 -0.28565714 0.010997326 -0.5993712
000240 31 bc d1 3e a2 c1 76 be ab 52 4a 3f a5 04 97 3f
       0.4096389 -0.24097303 0.7903239 1.1798292
000250 08 77 26 bc 23 0e 9d bf 12 c5 5d 3f 70 78 c8 3c
       -0.010160215 -1.2269939 0.8662883 0.024471492
000260 39 4f 3c bf 12 0d 86 bc dd 9b 82 3e b6 34 a3 bf
       -0.73558384 -0.016363654 0.2550954 -1.2750461
000270 66 64 f2 ba d2 27 56 3f d2 ff 81 be 12 31 35 bf
       -0.0018493056 0.8365451 -0.25390488 -0.70778
000280 8f 8a a5 3f e2 0b 9e bf 2e 76 2d c0 4c e7 ad bf
       1.293291 -1.2347376 -2.710338 -1.3586211
000290 5e f3 07 be 4e 4b 6d 3f 9e f4 3d bf 4d e2 dc 3e
       -0.13276431 0.9269303 -0.7420138 0.43141404
0002a0 73 04 0b bf 4a 70 4f bf ee 94 84 be a9 b5 a7 3e
       -0.54303664 -0.81030715 -0.25894874 0.32755783
0002b0 5a 66 09 c0 aa 18 be be 50 94 0e 3f 04 05 42 bf
       -2.146872 -0.37128192 0.55695057 -0.75788903
0002c0 71 00 01 40 a6 ab e9 bf 3f 22 b8 3e 6e 83 a7 3e
       2.015652 -1.8255508 0.35963628 0.3271746
0002d0 af 58 6d be 92 d8 7b be f3 9e 98 3f 64 4b 23 3f
       -0.23178361 -0.24594334 1.1923507 0.6378691
0002e0 b7 7c 22 3f 41 e7 da 3f 50 f8 aa be 29 31 43 be
       0.6347155 1.7101823 -0.33392572 -0.19061722
0002f0 d7 9f e2 be d2 6e d0 be ab 84 65 3d af 72 d5 3d
       -0.44262573 -0.4070955 0.056034725 0.10422265
000300 2b c2 86 bf 85 bf 64 3e d6 4d 8e be 90 d9 81 bf
       -1.0528005 0.22338684 -0.2779376 -1.014452
000310 8c 0d a2 bf 12 51 df bf f4 98 d9 3f 95 e8 33 3f
       -1.2660384 -1.7446616 1.6999803 0.70276767
000320 1b 3b 0e 3f 3d af 69 be e4 46 44 be 18 02 7c bf
       0.5555894 -0.22820754 -0.19167668 -0.98440695
000330 b4 4b b4 bf a4 f2 81 3f 1a d6 8d bf 0b aa 29 3d
       -1.4085603 1.0152173 -1.1080964 0.04142193
000340 82 d8 87 3f 70 22 bf bf 01 19 55 be 2c 68 22 bd
       1.0612948 -1.4932384 -0.2081032 -0.039650127
000350 6a cb df 3f 8a a2 b0 bf ac 1e f5 3c 58 dd a4 be
       1.7483952 -1.3799603 0.029921852 -0.32200122
000360 91 e8 9c bf b4 e5 ca bf c9 44 08 3f 89 26 85 be
       -1.2258474 -1.585135 0.5322996 -0.26005962
000370 ba 94 2f bf fe 65 cb 3f 52 fd 7f 3e a4 09 8d bf
       -0.68586314 1.58905 0.24998978 -1.1018567
000380 cc bd a7 be 6b b9 8a 3f ec d3 ea 3e 4d da c1 3f
       -0.3276199 1.0837835 0.4586481 1.5144745
000390 22 b3 77 bf 10 e6 fa bf 16 87 e5 3e 03 4b db 3e
       -0.9675771 -1.960146 0.44829625 0.42830667
0003a0 6f 36 b3 3f 40 55 8f bd 6e c9 94 3e c7 89 82 3e
       1.4000987 -0.06998682 0.2905993 0.2549574
0003b0 68 78 1a 3f 70 45 d6 be a5 3a e1 bf c7 4d 7f bf
       0.60339975 -0.41849852 -1.7596022 -0.99728054
0003c0 dd a5 10 3f 0f 2f 18 3f 03 73 8a 3f 7f 70 2f bf
       0.5650309 0.59446806 1.0816349 -0.6853103
0003d0 23 d8 f3 3f 23 71 c9 3d c7 fd 61 3f df e5 68 3f
       1.9050335 0.09836032 0.8827786 0.90975755
0003e0 6d cb 84 bf 91 9a 9b bf 63 bc 22 3f a7 65 af 3e
       -1.0374581 -1.2156545 0.63568705 0.34257242
0003f0 d1 c3 6c 3f 44 58 f3 bd 8c 12 da 3f 4d 00 94 3f
       0.9248629 -0.1188207 1.703691 1.1562592

b3 f4 [64]
000000 4e b4 8c 3e bc 38 b4 3e b8 61 f1 bf f6 6d 8e 3f
       0.27481312 0.35199535 -1.8857946 1.1127307
000010 d6 2e e6 bf fc 9a 8c bf fd 74 ad bf a9 df 7e 3e
       -1.7983043 -1.0984797 -1.3551327 0.24890007
000020 0b bf 69 3f 25 3e 22 be 7d 31 4e be 78 16 0f 40
       0.91307133 -0.15844019 -0.20136066 2.2357464
000030 db 33 f7 bf ff 91 0e bf 83 60 26 3f 69 db c3 3f
       -1.93127 -0.5569152 0.64991015 1.5301334
000040 16 e3 6a 3f 2a 89 f9 bd 94 bc 2a 3f 8d b8 67 bf
       0.91752756 -0.12184365 0.66694 -0.9051598
000050 0d 4a f1 bf 46 b4 5b be f7 d1 a6 bf 7e 0e 8d bf
       -1.8850724 -0.21455488 -1.3032826 -1.1020048
000060 8c cd f8 3e d9 af d0 bf 91 26 be 3f e5 c8 a4 bf
       0.4859432 -1.6303664 1.485552 -1.2873808
000070 16 6d 29 3f 3e 3a 9c be 78 d4 72 3f aa 61 1b 3e
       0.66182077 -0.30513185 0.9485545 0.15173975
000080 c9 1e 25 40 5b d3 bd 3f 9f b0 0d bf 92 17 6e 3f
       2.580004 1.4830126 -0.5534763 0.93004715
000090 18 5f 1c c0 93 4c ef 3e 73 6c 4c 3f 8c 17 18 c0
       -2.443304 0.4673811 0.7985298 -2.3764372
0000a0 86 25 07 be 41 7f ca 3f 73 1f 08 3f 06 cf d9 bf
       -0.13197908 1.5820085 0.5317299 -1.7016304
0000b0 d3 10 a2 3f 03 9b 5b be ac 81 a6 3d ff 9c fe 3f
       1.2661384 -0.21445851 0.08130202 1.9891661
0000c0 10 8a be be 6d c5 01 40 9b 37 94 3f 76 39 68 bf
       -0.37214708 2.027675 1.157947 -0.9071268
0000d0 14 83 bc 3f 03 be a2 be 31 3c 6b 3e 3f a8 0f 40
       1.4727502 -0.31785592 0.2297218 2.244644
0000e0 31 a6 18 3f fc 92 e6 be dc 43 73 bc 16 d4 9d 3f
       0.5962859 -0.45034015 -0.014847722 1.2330348
0000f0 bf 20 28 c0 b3 ae f4 3f fa 76 8c 3e 91 f3 44 bf
       -2.6269987 1.9115814 0.27434522 -0.7693415

w4 f4 [64, 8]
000000 15 fe 80 3f e8 3d 5d 3f eb b4 83 bf 11 8c 0d 3f
       1.007754 0.86422586 -1.0289587 0.5529185
000010 46 60 91 bf db df 42 bf 0d 6e a0 3f 10 0a 81 3e
       -1.1357505 -0.76122826 1.2533585 0.2520299
000020 00 73 47 3f a9 f1 05 bf bd 88 58 3d 36 4a 0f 40
       0.7790985 -0.5232187 0.05286478 2.2389045
000030 8d 45 30 3f bf 1b 29 bf d6 22 4d 3f b8 97 2b bf
       0.68856126 -0.6605796 0.8013128 -0.6702838
000040 42 c9 cb bf f3 71 e3 be 12 f5 af 3f b1 9e 1e be
       -1.5920794 -0.44422874 1.3746665 -0.15490223
000050 26 cf d0 3f 92 55 96 3f d3 ce 8d be 56 6a 2d 3e
       1.6313217 1.1744864 -0.27696857 0.16935095
000060 ce 3a bb bf 9a bf be 3d c1 d3 84 bf e9 8a 93 3f
       -1.4627321 0.09313889 -1.0377122 1.1526767
000070 59 8f ff be f0 08 b8 be e3 69 ad 3e 33 9f 81 bf
       -0.49914053 -0.3594432 0.33869848 -1.0126709
000080 3a 53 a1 bd d2 bf b2 bf 13 89 03 bf d0 35 78 bf
       -0.07877202 -1.3964789 -0.51381034 -0.9695711
000090 30 c4 89 bf 24 77 9a 3f 5a e0 a6 3f 63 c6 1b c0
       -1.0762997 1.2067609 1.3037217 -2.4339836
0000a0 6b 8e 10 3f ff 08 be 3e 23 34 94 3e e3 cc 73 3f
       0.5646731 0.37116238 0.28946027 0.9523451
0000b0 6b 93 b2 3f bb 06 5e be 2b ce c3 3e 3a 5b 7f 3e
       1.3951238 -0.21682255 0.3824323 0.24937144
0000c0 c8 3b 6d bf 96 13 68 bf 78 e2 bc bf c5 04 09 be
       -0.92669344 -0.90654886 -1.4756613 -0.13380726
0000d0 53 4e 15 be 82 b1 87 3e bb 66 2f 3f 78 33 ad be
       -0.1458066 0.26502615 0.6851613 -0.3382833
0000e0 46 7b c7 be ab a8 f6 3e 55 a6 b5 bf 30 97 fb bf
       -0.38961238 0.48175558 -1.4191386 -1.9655514
0000f0 31 fb 1b 3f b6 05 a1 3f c2 6d 30 3f 4b 17 32 be
       0.6093016 1.2579868 0.6891748 -0.17391698
000100 8e ea aa be b6 6f b8 3e 0e 1e 93 3d 2a e3 90 be
       -0.33382076 0.3602273 0.07183467 -0.28298312
000110 bb f6 41 bf 6a 50 a9 bf 9e f2 d3 bd 6d 3b 09 3f
       -0.75767106 -1.3227665 -0.1034901 0.536063
000120 96 99 c4 3f a0 07 5c be fd 8a 3a 3e 03 ed b4 be
       1.5359371 -0.21487284 0.18217082 -0.35337076
000130 1f f4 1d bf 6a 8b 09 40 4d 62 c4 3e bc 55 14 c0
       -0.61700624 2.1491342 0.38356248 -2.3177328
000140 88 78 19 bc 47 13 97 3e 9c 62 be 3f ff e4 50 3f
       -0.009367116 0.29506895 1.4873843 0.8159942
000150 a3 16 3d bf dd 34 50 3f 91 6d 7f bf a4 d3 94 bf
       -0.73862666 0.8133066 -0.9977656 -1.1627088
000160 9e ce 8d bf 8c 99 a6 3f 9a a2 f1 3e 73 55 c8 3d
       -1.107868 1.3015609 0.47194368 0.09781923
000170 5b 0b ef be 7c d2 61 3f f5 a4 90 3f cc 84 37 3f
       -0.4668835 0.882118 1.1300341 0.71687007
000180 ad 91 3b 3f 5e e1 d7 bc ae 3e 7f bf dd 4a 97 3e
       0.7326916 -0.02635258 -0.99705017 0.29549304
000190 f5 ca e9 3d 4c 7f b4 3e 2d 0d fe bf a3 bb 2a be
       0.11415664 0.3525337 -1.9847771 -0.1667314
0001a0 67 08 aa 3e 90 c3 66 bf c2 57 69 be f5 3c f4 be
       0.33209535 -0.90142155 -0.22787383 -0.47702757
0001b0 3e 78 7b be 28 81 49 bf cb 24 e7 3e 44 18 80 bf
       -0.24557588 -0.787127 0.45145258 -1.0007405
0001c0 9c 7f 63 3f 70 6c 46 bf 55 2b 06 bf d4 04 b7 bd
       0.8886659 -0.7750921 -0.5240987 -0.08936468
0001d0 ea 75 ae 3f b7 cb aa be 72 2a e1 3c 48 4e 1c be
       1.3629735 -0.33358547 0.02748606 -0.15264237
0001e0 aa 7a 48 be 32 e3 aa bf ce 62 ee 3d 1f 73 80 3f
       -0.19578043 -1.3350585 0.11639939 1.0035132
0001f0 f4 79 9c 3f b5 7a 8e bf d5 08 05 3f 73 f9 4e 3f
       1.2224717 -1.1131197 0.519666 0.8084938
000200 52 14 5e 3f ed 64 ff 3d 4c 56 c9 3e 70 e4 14 bf
       0.86749756 0.12470422 0.39323652 -0.5816107
000210 56 46 5e be 5b 60 f5 be 9b 3b da 3e 53 e5 e5 bf
       -0.21706519 -0.47925076 0.426236 -1.7960609
000220 1a 3d b9 3b 85 1b a3 3f e6 31 c8 3f 86 b8 6e bf
       0.005653036 1.2742773 1.5640228 -0.9325031
000230 20 81 ee be 43 e1 0d c0 f6 6d 20 bf 02 c0 68 bf
       -0.4658289 -2.216874 -0.6266779 -0.9091798
000240 23 ff c6 3e eb ba 0c 3f c8 fa 8b 3f da df 1d 3f
       0.3886653 0.54972714 1.0935907 0.61669695
000250 d1 91 f0 3f ac d1 b0 3e cc c5 0c 3f b3 d9 6f 3d
       1.87945 0.34534967 0.54989314 0.058557224
000260 2f ee 0f bf 21 93 cd bd 7c ac 2e 3f 6c 88 a3 bf
       -0.56222814 -0.10037828 0.6823194 -1.2776008
000270 12 76 e9 bf af 8e 24 3f 5d a5 33 3f 85 c0 48 bf
       -1.8239157 0.6428022 0.701742 -0.7841876
000280 6c b7 ac bf 5f f7 e2 3d e5 e7 91 3e 44 96 36 be
       -1.3493476 0.110823385 0.28497234 -0.1783076
000290 23 cd 36 be 57 c8 16 3f cd df de 3e 40 7f e4 3e
       -0.17851691 0.58899444 0.4353012 0.44628334
0002a0 67 2d 07 bf 41 8d 9f be e3 ff b2 3e c3 6d 96 3f
       -0.52803653 -0.31162456 0.3496085 1.1752247
0002b0 57 75 21 40 d2 3c 2e 3f e0 33 28 bf 53 7d 2a 3f
       2.5227869 0.68061554 -0.65704155 0.6659748
0002c0 c9 a0 3f 3e cf 09 0c bf eb 47 ca 3c 84 0f 8e 3e
       0.18713678 -0.54702467 0.024692496 0.27746212
0002d0 25 24 bb bd 83 a6 a7 3e b1 9e 33 bf 70 24 9e be
       -0.091377534 0.32744226 -0.7016402 -0.30887175
0002e0 bd c8 bb 3f b6 2b 9e be b7 6b 08 40 ec 2f cf 3f
       1.4670635 -0.30892724 2.1315744 1.61865
0002f0 40 f1 2e bf cf 20 4c bf 0f 1d 1d bf 42 c0 09 bf
       -0.6833687 -0.7973756 -0.61372465 -0.5380899
000300 48 6c e3 3e 53 a9 96 bf a9 0b 25 bf 01 16 ad 3f
       0.4441855 -1.1770424 -0.64470917 1.352234
000310 6b da 01 40 d3 c0 06 3f 5b a9 87 3f 84 b0 6a 3f
       2.0289562 0.52637976 1.0598558 0.9167559
000320 a8 97 9b be 99 f5 02 be 0a 0d ab be 95 79 62 bf
       -0.30389142 -0.12789 -0.33408386 -0.8846677
000330 fa 67 79 3f a6 c2 f6 be 5a 3e 0b 3e 64 a1 51 3f
       0.9742428 -0.4819538 0.13598004 0.8188689
000340 f6 0b 48 be ca f9 29 3e 4a ad 10 bf 49 da 9e bd
       -0.19535813 0.16599193 -0.5651442 -0.07756478
000350 38 0f 35 3f 9f d0 ff bf a0 37 b8 3f dd 9b 80 bf
       0.70726347 -1.9985541 1.4391975 -1.0047566
000360 29 30 14 3f 0c 05 8f bf 60 b2 d9 be 6f 2e 1d bf
       0.57885987 -1.1173415 -0.42518902 -0.6139898
000370 3b 8d a6 3f fc a8 4a bf 83 67 36 bf bf bb cd 3e
       1.301185 -0.791641 -0.71251696 0.401823
000380 b7 99 20 bf ee af 2e 3f 8f 9f 12 3f 46 a7 a1 3d
       -0.6273455 0.682372 0.5727472 0.07893233
000390 ec 4f d5 bf 10 43 b8 bf e1 56 1a be d7 d6 d6 3d
       -1.6665015 -1.4395466 -0.15072204 0.10490196
0003a0 d8 12 1f 3f a6 f0 10 3f 97 d2 41 3e 8b 2d fb 3d
       0.6213813 0.566172 0.1892799 0.12264546
0003b0 ef 90 9c be a5 7f a0 3f de c6 77 bf 56 f9 30 3f
       -0.30579326 1.2538954 -0.9678782 0.69130456
0003c0 dc 01 f5 3e 41 fc 0c bd 57 b6 ae 3e fe 32 92 3f
       0.4785298 -0.034420256 0.3412349 1.1421812
0003d0 cd c1 08 3f 10 21 80 bf a2 32 cf 3f cb a9 ac 3e
       0.53420717 -1.001009 1.6187327 0.33723292
0003e0 01 ef 4d be b8 d5 02 40 53 ab fa 3e 23 87 b2 bf
       -0.20110704 2.0442944 0.48958835 -1.394749
0003f0 8a 2c 62 be 50 3b 13 3e 93 e6 39 bf ef 52 9b bc
       -0.22087303 0.14378095 -0.72617453 -0.018960444

b4 f4 [8]
000000 19 c6 de bf b0 5c cf 3e 39 45 a5 be 3b d9 50 3e
       -1.7404205 0.40500402 -0.32279375 0.20395367
000010 b3 5f d7 be 9e 60 b4 3f 67 ba 89 bf 37 ca 0e bf
       -0.420652 1.4091985 -1.076001 -0.55777305

w5 f4 [8, 1]
000000 1d 63 74 3f 91 58 bc 3f 90 2c ed be 56 82 75 be
       0.95463735 1.4714528 -0.4632306 -0.239755
000010 aa 65 c1 3f 3c 9e 97 bf 28 a3 17 3f c3 6a fc 3d
       1.510915 -1.1845164 0.5923333 0.12325051
