model_saved/2024-01-25-07-47-24/model_2024-01-25-07-47-43_epoch_4000_train_mse_9.08e-02_val_mse_1.08e-01.pt (torch, 17939 bytes, 9 tensors)

w1 f4 [8, 16]
0	0xbebaabb9	-0.3645914
1	0x3e3c678b	0.18398874
2	0x3cb3a869	0.02193089
3	0x3ceaeb32	0.028676603
4	0x3eefdd9b	0.4684876
5	0x3df7c617	0.120983295
6	0x3f0b9510	0.54524326
7	0x3ed0793a	0.4071749
8	0xbdc6cbbe	-0.097068295
9	0xbe5fcd62	-0.21855691
10	0xbf344486	-0.7041706
11	0xbea6dfbc	-0.3259257
12	0x3d18e623	0.03732885
13	0x3c817459	0.01580255
14	0x3e273a16	0.16330752
15	0xbe2fe914	-0.17178756
16	0x3f411e96	0.75437295
17	0x3d8f9888	0.07011515
18	0xbcc2fc54	-0.02380196
19	0x3c4052aa	0.011738459
20	0xbeadd24d	-0.3394951
21	0xbd98a878	-0.07454008
22	0x3f3dbfee	0.74120986
23	0x3d97ba9e	0.07408641
24	0xbc902a4d	-0.017598296
25	0xbf10a4bf	-0.5650138
26	0xbf17b4ee	-0.5926045
27	0x3e3fe9fa	0.18741599
28	0x3e2dcb38	0.16972053
29	0x3a48735c	0.00076465844
30	0xbd43f938	-0.047845095
31	0x3e888d78	0.26670432
32	0x3d241d62	0.040067084
33	0x3d4dd0e2	0.050248034
34	0xbe4b9d16	-0.19884142
35	0x3c363934	0.011122037
36	0xbf336a5c	-0.70084167
37	0x3dca30b6	0.09872572
38	0x3e53a80a	0.2066957
39	0xbdf0bb52	-0.117544785
40	0xbc52c0ac	-0.012863319
41	0xbe6be09e	-0.23034903
42	0xbe75bace	-0.23997042
43	0x3e83e4af	0.2576041
44	0x3ccaefa1	0.024772467
45	0x3c952ff4	0.018211342
46	0x3bc3febe	0.0059812954
47	0x3d90bf9a	0.07067795
48	0xbe2ba042	-0.16760352
49	0xbd03e29f	-0.032198545
50	0x3a0439b4	0.0005043999
51	0x3c22c5a3	0.009934816
52	0x3f047f53	0.5175678
53	0x3de2b7fe	0.1107025
54	0xbe4a8c21	-0.19780017
55	0xbce2f98c	-0.027706884
56	0xbc5f620f	-0.013634219
57	0xbe59fa76	-0.2128695
58	0x3f0ba631	0.5455046
59	0xbef15e0d	-0.47142068
60	0x3b8be09d	0.0042687193
61	0x3de1c85e	0.11024545
62	0xbc9ce8d2	-0.019153986
63	0x3d82087f	0.06349277
64	0x3e533158	0.20624292
65	0x3e78550d	0.24251194
66	0xbe2abfec	-0.16674775
67	0x3c3ce4c2	0.0115291495
68	0x3fbc05b0	1.4689236
69	0x3eb0e7f6	0.34551972
70	0x3c11b1aa	0.008892456
71	0xbd5c929b	-0.05385075
72	0x3cb6d316	0.02231745
73	0xbe0c90d2	-0.1372712
74	0x3db27d0f	0.08715259
75	0xbf3a7709	-0.72837883
76	0x3eb83c92	0.3598371
77	0xbd8aabe0	-0.06771064
78	0xbd90783a	-0.070541814
79	0x3e1ce2dd	0.15320916
80	0xbdc4518d	-0.09585867
81	0xbe765769	-0.24056782
82	0xbed1afc8	-0.40954423
83	0x3c74f05d	0.014949885
84	0xbf92531d	-1.1431614
85	0xbeb6a9ba	-0.35676366
86	0xbe44ef1f	-0.19231842
87	0xbd894c50	-0.067040086
88	0xbdd9670a	-0.10615356
89	0xbed5e25e	-0.41774267
90	0xbf608900	-0.87709045
91	0xbf38ef93	-0.7224056
92	0x3db23e61	0.08703304
93	0x3dbeac17	0.09310167
94	0x3d9b308f	0.07577621
95	0xbd597204	-0.05308725
96	0x384b52fa	4.847625e-05
97	0x3d9eaec2	0.07748176
98	0xbde94a0a	-0.11391075
99	0x3c0a0695	0.008424421
100	0x3e9235f4	0.28556788
101	0x3d8ad6c9	0.06779248
102	0x3da03aea	0.07823737
103	0xbe49b663	-0.19698481
104	0xbba70146	-0.0050965874
105	0xbe48b087	-0.1959859
106	0x3edfc88a	0.43707687
107	0xbc5420f4	-0.01294731
108	0x3bad336f	0.0052856724
109	0xbada8463	-0.0016671534
110	0xbbf45b98	-0.007457208
111	0xbc8bb214	-0.017052688
112	0x3d573c49	0.052547727
113	0xbd1fbac1	-0.03899646
114	0xbd3aca10	-0.045602858
115	0x3c4aad04	0.012370352
116	0xbf79a221	-0.97513014
117	0x3ed1e272	0.40993077
118	0x3d5fc340	0.054629564
119	0x3eaea93c	0.3411349
120	0x3d78addf	0.06071269
121	0xbed51ef7	-0.41625187
122	0x3d838978	0.064227045
123	0x3ec2b22b	0.38026556
124	0xbdb12b93	-0.08650889
125	0xbdafccc8	-0.08583981
126	0x3d38ed63	0.045148265
127	0xbd2dd77e	-0.042441837

b1 f4 [16]
0	0xbe8501f8	-0.25978065
1	0xbeb9e638	-0.36308455
2	0x3e58c6eb	0.21169631
3	0xbc317079	-0.010830038
4	0xbf1bb884	-0.60828424
5	0x3f8ba664	1.0910153
6	0x3daf406f	0.085572116
7	0x3e4b65d0	0.19863057
8	0xbd490cbc	-0.04908441
9	0x3eb9d203	0.3629304
10	0x3e96178c	0.2931484
11	0xbe1217f8	-0.14266956
12	0xbd215e69	-0.039396677
13	0x3f22d443	0.63605136
14	0xbe4a315d	-0.19745393
15	0xbe8171de	-0.25282186

w2 f4 [16, 32]
0	0x3785863d	1.5917345e-05
1	0x3820693a	3.8244973e-05
2	0x3291772d	1.6934417e-08
3	0x38dd390c	0.00010548727
4	0xbb17a774	-0.0023140581
5	0x382b72da	4.087654e-05
6	0x39091448	0.00013072893
7	0xb23b6269	-1.09072085e-08
8	0xbc9c1138	-0.01905118
9	0x3be8bc25	0.0071025067
10	0x3a2ef42b	0.0006673957
11	0xbd45772e	-0.04820936
12	0x3901fca9	0.00012396522
13	0xb485f998	-2.4954784e-07
14	0xbb2ddace	-0.0026528123
15	0x3990a192	0.000275862
16	0x3a38b2ce	0.0007045687
17	0x398ef752	0.0002726862
18	0xbbb35bcc	-0.0054735895
19	0xbb226dd1	-0.0024784694
20	0x37832b3c	1.563655e-05
21	0xb9c80939	-0.00038153844
22	0x3c64f677	0.013974777
23	0xbb1b0532	-0.002365422
24	0xbd0fac67	-0.035076525
25	0x3587f660	1.0129988e-06
26	0xbb710e87	-0.003678234
27	0xb8d29b42	-0.00010042499
28	0xbad073c2	-0.0015903639
29	0xb9053056	-0.00012701875
30	0xb76072ad	-1.33781405e-05
31	0x399dce90	0.00030099275
32	0x3bcf7f9d	0.0063323514
33	0x39caff46	0.00038718636
34	0xb5d91ee3	-1.6176749e-06
35	0x3bc473ed	0.0059952647
36	0x3b5373a5	0.0032264974
37	0x3b3dc6e5	0.0028957662
38	0x3c0b4916	0.008501312
39	0xba0944eb	-0.0005236405
40	0xbbcd5958	-0.006266754
41	0x3c522c44	0.012827937
42	0x3c120c5f	0.008914082
43	0xbc96caab	-0.018407186
44	0x3bbf8e92	0.005845853
45	0x3895ab19	7.136743e-05
46	0xbc372b03	-0.011179688
47	0x3c02ef95	0.007991691
48	0x3c6afee7	0.014343
49	0x3bf490eb	0.0074635646
50	0xbbeca7df	-0.00722216
51	0xbbd9b6ce	-0.0066441065
52	0xbc3f9480	-0.01169312
53	0xbc2adaa5	-0.0104281055
54	0xbc2d8ec1	-0.010593117
55	0xbc240d27	-0.010012901
56	0x3c90ef0a	0.017692108
57	0x34bad3f0	3.4799405e-07
58	0xbc597325	-0.0132720815
59	0xbadccbcc	-0.0016845404
60	0xbc1e7285	-0.009670858
61	0xbbba413c	-0.005684046
62	0xbbdce08f	-0.0067406367
63	0x3c2df4fc	0.010617491
64	0x3bb7782d	0.005599043
65	0xbba163dd	-0.0049252347
66	0x361ceae1	2.338253e-06
67	0xbb5c2049	-0.003358858
68	0xbc5fa78d	-0.013650787
69	0x3c4d7afe	0.012541531
70	0x3c9d7d55	0.019224802
71	0xb92afc96	-0.00016306559
72	0x3e513b34	0.2043274
73	0x3ee3dd25	0.44504657
74	0x3c35a225	0.011086022
75	0x3dfa2fe2	0.12216164
76	0x3c4cbb34	0.012495805
77	0xb6ec1cb7	-7.036691e-06
78	0xbde3a1f8	-0.111148775
79	0x3c89a1cf	0.01680079
80	0x3d464993	0.04841001
81	0x3c1b1b77	0.009466997
82	0xbe13c76b	-0.1443154
83	0x3de01c02	0.10942842
84	0xbca03f92	-0.019561563
85	0xbc054f4d	-0.008136583
86	0xbe0c8758	-0.13723505
87	0xbe49f589	-0.1972257
88	0x3e1f1339	0.15534677
89	0x382f5b65	4.180837e-05
90	0xbc3f6e8a	-0.011684069
91	0xbcdfcc6f	-0.027319161
92	0xbe0471d5	-0.12934048
93	0xbc5d7602	-0.013516905
94	0xbb9546da	-0.0045555653
95	0x3ca3f4a7	0.02001412
96	0x3a5eb313	0.0008495312
97	0x3a763acf	0.00093929184
98	0xb565d7bd	-8.562309e-07
99	0xba12db8b	-0.00056021725
100	0xba887bd3	-0.0010412879
101	0xba8be15e	-0.0010672023
102	0x394edc86	0.00019727842
103	0xb656a262	-3.1983004e-06
104	0x3c209da4	0.009803209
105	0xbc82cb4c	-0.01596608
106	0x3943080b	0.00018599645
107	0x3c42e2a5	0.011894857
108	0x36edd2f6	7.0877095e-06
109	0xb02f45f2	-6.376403e-10
110	0x3afd1ddb	0.0019311266
111	0x3835db90	4.3358246e-05
112	0x3aa894db	0.0012861745
113	0x38824451	6.211608e-05
114	0xbb2fa6fa	-0.0026802407
115	0xbcbbfd4c	-0.02294793
116	0xbc060c27	-0.008181608
117	0xb8a5b71d	-7.9019206e-05
118	0xbc07b5a7	-0.008283055
119	0xbc1fa2eb	-0.0097434325
120	0xbc45aa75	-0.012064566
121	0x35e15aec	1.6790268e-06
122	0xbb89bcad	-0.0042034
123	0x3aa45ba1	0.0012539515
124	0xbab69746	-0.0013930581
125	0x3a93a8ff	0.0011265575
126	0xb5136ae6	-5.4917325e-07
127	0x386b128a	5.6045632e-05
128	0xbda28292	-0.079350606
129	0x3db9d995	0.090747036
130	0xbae77b3e	-0.001766063
131	0x3e52da99	0.20591201
132	0xbc08531a	-0.008320594
133	0xbe6dc083	-0.23217969
134	0x3ca73883	0.02041269
135	0xbc0fb9a2	-0.008772286
136	0xbe5397e3	-0.20663409
137	0xbe0690cb	-0.13141172
138	0x3c286385	0.010277634
139	0x3f1a4655	0.6026357
140	0xbe5b07cb	-0.21389692
141	0xb9985e28	-0.0002906185
142	0xbdd01b90	-0.10161507
143	0x3be7b335	0.0070709237
144	0xbea0eec9	-0.3143218
145	0x3c018ddd	0.007907358
146	0xbe70cefd	-0.2351646
147	0x3e857cb6	0.2607171
148	0x3d8eda85	0.06975273
149	0xbc8336d6	-0.016017359
150	0x3e601194	0.21881706
151	0xbdaaef8b	-0.083464704
152	0xbf380ef5	-0.7189782
153	0x3b27d962	0.0025611748
154	0xbbb75c2b	-0.005595704
155	0xbc190fe6	-0.009342169
156	0xbeeaadcb	-0.4583572
157	0xbdc33732	-0.09532012
158	0xbc451df6	-0.012031069
159	0x3d4bdcb4	0.049771026
160	0x3e7967fd	0.24356075
161	0x3e3df37d	0.18549915
162	0x3d1d57f5	0.03841396
163	0xbf8803e8	-1.0626192
164	0x3d444faa	0.047927536
165	0xbf2df533	-0.6795227
166	0x3d8da8d4	0.06916967
167	0xbccf9dd0	-0.025343806
168	0x3eac753b	0.3368319
169	0x3dba74b4	0.091042906
170	0x3d3e877a	0.04651592
171	0xbe5b1d46	-0.21397886
172	0x3d9c2d21	0.07625795
173	0x3b108bd2	0.0022055996
174	0xbf06bba4	-0.52630067
175	0xbb3da4d1	-0.002893735
176	0x3f2ba9b0	0.670558
177	0xbc669e2c	-0.014075797
178	0x3d5e4d27	0.054272797
179	0x3f47c1b5	0.7802995
180	0xbecf9b23	-0.40548047
181	0x3d862a11	0.06550992
182	0x3f83561c	1.0260653
183	0xbeca39b5	-0.39497152
184	0xbe6d91f2	-0.23200205
185	0x3d9fa4df	0.077951185
186	0xbe3bff37	-0.18359075
187	0xbedc6587	-0.4304621
188	0x3f20e917	0.62855667
189	0xbed5ca92	-0.4175611
190	0x3c4bd497	0.012440822
191	0xbe106832	-0.14102247
192	0x3cb46269	0.022019582
193	0xbd156202	-0.03647042
194	0x39101281	0.00013739803
195	0xbbe107a0	-0.006867364
196	0x3bf73098	0.0075436346
197	0x3d977fe6	0.073974416
198	0xbc7aa7f1	-0.015298829
199	0x3b398324	0.0028306926
200	0x3ef1b100	0.47205353
201	0xbecab057	-0.39587662
202	0xbc475700	-0.0121667385
203	0xbe9039d0	-0.28169107
204	0xbd0dac30	-0.03458804
205	0x372979f8	1.0101583e-05
206	0x3e46b15d	0.19403596
207	0xbc07fd5f	-0.0083001545
208	0xbe554dc9	-0.20830454
209	0xbc167386	-0.009182816
210	0x3e58eacb	0.21183316
211	0x3e866053	0.26245365
212	0xbd824366	-0.063605115
213	0x3c541ed8	0.012946807
214	0x3f6b540a	0.9192511
215	0xbe7c4290	-0.24634767
216	0xbebc422e	-0.3676924
217	0xb9f49f20	-0.00046657864
218	0x3bd2bda7	0.0064312997
219	0xbd2a620c	-0.04159741
220	0x3e8ae487	0.27127478
221	0x3d9b40f1	0.07580746
222	0x3c14b068	0.009075262
223	0xbd3330b1	-0.043747608
224	0xbbf7ffb1	-0.0075683226
225	0x3887f432	6.4827866e-05
226	0x36b16e04	5.2878186e-06
227	0xbc4aa90a	-0.012369404
228	0x3bdea800	0.0067949295
229	0xbb84741e	-0.0040421626
230	0xbc2a6f3e	-0.010402499
231	0x3a7c417c	0.0009622795
232	0xbc496c7f	-0.012293934
233	0x3d785615	0.06062897
234	0xbc0f1b14	-0.008734483
235	0x3eae8a0e	0.34089702
236	0xbbe3fec7	-0.006957862
237	0x3406cc40	1.2554028e-07
238	0x3d27c64c	0.040960595
239	0xbc1c650a	-0.009545574
240	0xbd32b70b	-0.043631595
241	0xbc22fd39	-0.009948068
242	0x3ceb469a	0.028720189
243	0x3d3d0e65	0.046156306
244	0xbc9776d3	-0.018489277
245	0x3c1a64eb	0.009423475
246	0x3d364eca	0.044508733
247	0x3cdec60e	0.02719405
248	0x3d1d44fb	0.038395863
249	0xb70f9d6c	-8.560117e-06
250	0x3c0c0d61	0.008548112
251	0xb7acee3b	-2.0614933e-05
252	0x3b6acba8	0.0035826955
253	0x3bb328e7	0.0054675224
254	0x3be95a83	0.0071213855
255	0xbc454962	-0.012041422

b2 f4 [32]
0	0xbcdb2838	-0.026752576
1	0xbc8a132a	-0.016854841
2	0x3a7e291d	0.00096954574
3	0xbd615e52	-0.05502159
4	0x3af2d5c5	0.0018526843
5	0x3d1ad868	0.037804037
6	0xbc50c7fd	-0.012742993
7	0x3be3e65a	0.0069549503
8	0xbd409a98	-0.047022432
9	0x3e492a25	0.19644983
10	0xbba679cd	-0.0050804378
11	0x3d5e6232	0.054292865
12	0xbc861556	-0.016367596
13	0x392a9874	0.00016269257
14	0xbcfd97bd	-0.030956144
15	0x389c446e	7.451406e-05
16	0x3e23ff8a	0.16015449
17	0x3925232a	0.00015748726
18	0xbd800b33	-0.06252136
19	0x3e2424d5	0.16029675
20	0xbd89db95	-0.06731335
21	0x3bf79ad3	0.0075562983
22	0xbc88a3c8	-0.01667966
23	0x3e00a0f1	0.12561394
24	0x3e9690cf	0.29407355
25	0xba5b2ca3	-0.00083608384
26	0x3b0de93f	0.0021653918
27	0x3d5bfdf2	0.053708978
28	0x3d779469	0.06044427
29	0xbd33a66b	-0.04385988
30	0x3c3b91f6	0.011448374
31	0xbcbf5e31	-0.023360344

w3 f4 [32, 64]
0	0x3be822ab	0.007084211
1	0x3c3ceec4	0.011531536
2	0xbaf66513	-0.0018798433
3	0xb4d2c8a8	-3.9261545e-07
4	0xbc310da9	-0.0108064795
5	0x3b1912a1	0.002335705
6	0xbc102195	-0.008797069
7	0xb7fd6226	-3.0205654e-05
8	0x3c159410	0.009129539
9	0xbc4660b1	-0.012108014
10	0xbc45272d	-0.012033266
11	0x3b93e82b	0.0045137606
12	0xbb51d31b	-0.0032016698
13	0xb9b4d2ab	-0.00034489235
14	0x364236c5	2.8940133e-06
15	0xbbb68e17	-0.0055711376
16	0x3bb9f9be	0.0056755235
17	0x3ba1c5f0	0.004936926
18	0x3bd05943	0.006358297
19	0xbb505c0e	-0.003179315
20	0xbc318516	-0.010834953
21	0xbc3394ba	-0.010960752
22	0xbc18ba0a	-0.009321699
23	0x3c126d34	0.008937169
24	0xbca2f0b4	-0.019890167
25	0x3ba5e12f	0.0050622444
26	0x3c89f4db	0.016840389
27	0xbbb8eb7a	-0.0056433054
28	0x3b990b7a	0.0046705576
29	0xb76d48b0	-1.4143225e-05
30	0x3c2cdc28	0.010550536
31	0x3c3da1d1	0.011574225
32	0x3c511503	0.012761357
33	0x3a80f2ca	0.0009837982
34	0x3bb59f27	0.005542654
35	0xbb82b1df	-0.003988489
36	0xbbfddad9	-0.007747036
37	0x3b946dc1	0.0045296852
38	0xbb1bd91f	-0.0023780537
39	0xb9d9458d	-0.00041441285
40	0x3c57b7fd	0.013166425
41	0xb6cf1a6e	-6.1721576e-06
42	0xbc4c78dc	-0.012479987
43	0xbca1b439	-0.019739257
44	0x3a4f4137	0.0007906141
45	0xb70fe8c7	-8.577662e-06
46	0xbbdcf65e	-0.0067432364
47	0x3c48cc89	0.012255796
48	0x3425ef35	1.5453845e-07
49	0xb69ede51	-4.734648e-06
50	0xbbbf3533	-0.0058351993
51	0xbb3827d1	-0.0028099904
52	0x39a45c53	0.00031349304
53	0xbbee8562	-0.007279084
54	0x3c5c1988	0.0134338215
55	0xbbba9b6f	-0.0056947987
56	0xbbeb87a3	-0.0071878
57	0x3c406297	0.011742256
58	0xbba8b465	-0.005148458
59	0xbc758254	-0.014984686
60	0x3c2f7dee	0.010711176
61	0xbb0401e4	-0.0020142728
62	0x3263d6df	1.3261995e-08
63	0xbbc379d6	-0.0059654517
64	0x3cf06d2b	0.02934893
65	0x3bc11d08	0.0058933534
66	0xb94405b3	-0.0001869414
67	0xb97a8739	-0.00023892232
68	0xbda11c62	-0.07866742
69	0x3df0e47b	0.11762329
70	0x3d108d8c	0.03529124
71	0xb92ea6bc	-0.00016656047
72	0xbc461709	-0.012090453
73	0xbe0391a1	-0.12848522
74	0x3cd7a1b2	0.02632222
75	0xbb15feb3	-0.0022887408
76	0x3b8a63c4	0.004223319
77	0x3833ac0a	4.283715e-05
78	0x3c758829	0.014986076
79	0x3b233db3	0.0024908602
80	0xbb02c948	-0.0019956399
81	0xbc81b180	-0.015831709
82	0x3d7b0862	0.06128729
83	0x3c07be95	0.008285184
84	0xbc4ded23	-0.012568745
85	0x3bc1b57e	0.005911528
86	0xb897065a	-7.201424e-05
87	0xbc5937d8	-0.013257943
88	0x3ce7daaf	0.028302519
89	0x3c06a6ea	0.008218506
90	0xbf1803dd	-0.59380895
91	0xba2970fd	-0.0006463675
92	0xbc273e57	-0.010207734
93	0x38dae191	0.00010437065
94	0x3da26785	0.07929901
95	0x3da675b4	0.08127919
96	0xbadc3921	-0.0016801694
97	0xbd2df0d4	-0.042466
98	0xbbc3da3d	-0.0059769438
99	0x3e9587bc	0.2920512
100	0x3c0463d5	0.008080442
101	0xb978054d	-0.00023653098
102	0xb910b043	-0.00013798573
103	0xb4d87dfc	-4.03248e-07
104	0xbdc525c2	-0.09626342
105	0x3b8a0e0a	0.0042130994
106	0xbd71f64b	-0.059072774
107	0xbc7a602a	-0.015281716
108	0xb9288015	-0.00016069443
109	0xbc4fdfde	-0.012687651
110	0xbb902baa	-0.0043997364
111	0x3e89e369	0.26931313
112	0xbaf07019	-0.0018343955
113	0x378fd1d1	1.7144632e-05
114	0x3ad7f1e0	0.0016475283
115	0x3a6405ee	0.00086983934
116	0x3c11007e	0.008850215
117	0xbca9da92	-0.020734105
118	0xbdc8571c	-0.0978224
119	0xbb13583d	-0.0022483014
120	0x3bdad466	0.006678152
121	0xbe848840	-0.258852
122	0x3b1fb98b	0.0024372067
123	0xbcebebea	-0.028799016
124	0x3e63200d	0.22180195
125	0x3c1c87a5	0.009553825
126	0x372ca42f	1.0290226e-05
127	0x3ccfa330	0.025346369
128	0x3c1b2f48	0.009471722
129	0x3b08af32	0.0020856378
130	0xb6e3e0e2	-6.791307e-06
131	0xb3c763fc	-9.284847e-08
132	0xbc9b50c9	-0.01895942
133	0xbb7fc4e3	-0.0039027266
134	0xbbcc3841	-0.006232292
135	0xb3bb37ed	-8.718039e-08
136	0x3b8aad1e	0.004232063
137	0xbbcaad0c	-0.0061851796
138	0xbb0c525a	-0.002141139
139	0x39057ae1	0.00012729644
140	0xb8d0e442	-9.960729e-05
141	0x31a50484	4.8026454e-09
142	0x36cf4b51	6.1778487e-06
143	0xb82e317b	-4.1530915e-05
144	0x388f0d5b	6.821259e-05
145	0x3b8adae5	0.00423752
146	0x3b30d321	0.0026981311
147	0x39c06407	0.0003669562
148	0xba8c8452	-0.0010720587
149	0xbbf27f6b	-0.0074004433
150	0xba840cb7	-0.001007459
151	0x3a2ac5a0	0.0006514434
152	0xbb40706c	-0.0029363884
153	0x37ce2b9b	2.4577419e-05
154	0x3c7d48bd	0.015459237
155	0xb83699bd	-4.353536e-05
156	0x3b176c79	0.0023105426
157	0xb43fa2c5	-1.7847476e-07
158	0x3c0b89c1	0.00851673
159	0x3bf1c1a8	0.007377822
160	0x385c1956	5.2475683e-05
161	0x37a3ff39	1.9549962e-05
162	0xbb9ff62b	-0.0048816404
163	0xbce1f9b9	-0.027584897
164	0xb953ea28	-0.00020209758
165	0x383cf6ef	4.5052668e-05
166	0xb5e3b457	-1.6965304e-06
167	0x30fa6960	1.8219843e-09
168	0x3baaa1c9	0.0052072746
169	0x31b97472	5.397447e-09
170	0xbb190196	-0.0023346893
171	0x3b5e2242	0.003389493
172	0xba16c4d1	-0.0005751374
173	0xb81ef04c	-3.789393e-05
174	0xbbee588f	-0.0072737406
175	0x3b0e26ad	0.0021690533
176	0x3a176108	0.00057746517
177	0xb8f8a7ce	-0.000118568176
178	0xbc3378a4	-0.010954056
179	0xb5d09453	-1.5540376e-06
180	0x370657c2	8.007455e-06
181	0xb92ec18d	-0.00016666036
182	0x3c13d286	0.009022361
183	0xb86131b6	-5.3690477e-05
184	0xb90b90a9	-0.00013309963
185	0x3cda51ed	0.026650393
186	0xb80aa341	-3.3053806e-05
187	0xbb46bbd2	-0.0030324352
188	0x3bd9d916	0.006648193
189	0xb8f3a806	-0.0001161844
190	0x31686376	3.381698e-09
191	0xb8a0fd27	-7.676548e-05
192	0xbe44a64f	-0.19204067
193	0xbb3952e7	-0.0028278173
194	0x38ceec99	9.866915e-05
195	0xba3d776a	-0.0007227572
196	0xbed996c3	-0.42497835
197	0xbe8f7c4f	-0.28024527
198	0x3dfded4a	0.12398775
199	0x3c21823f	0.009857713
200	0xbb28b565	-0.0025742885
201	0xbc852fde	-0.016258176
202	0xbcd93716	-0.026515525
203	0xbc421ad1	-0.011847214
204	0x3c3668d7	0.011133394
205	0x3c09c649	0.008409091
206	0xbd0624d9	-0.032749984
207	0x3c852655	0.01625363
208	0x3c1705a2	0.009217652
209	0xbe9dead3	-0.3084322
210	0xbd8fb490	-0.070168614
211	0x3c115378	0.008869998
212	0x3e217577	0.15767466
213	0xbd15a5e5	-0.036535162
214	0x3c9e8298	0.019349381
215	0xbc88a98e	-0.016682412
216	0xbdb206ec	-0.086927265
217	0xbe1c081b	-0.15237467
218	0x3e3660e6	0.17810401
219	0x397bcda2	0.0002401383
220	0xbc24f7b9	-0.010068827
221	0x3b37b09e	0.0028028856
222	0x3d26775d	0.040641177
223	0xbe017148	-0.1264087
224	0xbccf76b9	-0.025325166
225	0x3da8c63c	0.08240935
226	0x3a6ca329	0.00090269983
227	0x3f18ad5a	0.59639513
228	0xbe1e3226	-0.15448818
229	0xbd33adac	-0.0438668
230	0x3cd0d0a0	0.025490105
231	0xb2f42c4c	-2.8425482e-08
232	0x3e937fa7	0.28808329
233	0xb689247e	-4.0871664e-06
234	0x3da73e37	0.081661634
235	0x3bc4f4fb	0.0060106493
236	0xba2443ac	-0.00062661874
237	0xbcc52271	-0.024064275
238	0xbe00a741	-0.12563802
239	0xbeadddbe	-0.33958238
240	0x3b8c77da	0.0042867484
241	0x3a957e00	0.0011405349
242	0x3e44d1b8	0.19220626
243	0x3c2b61e3	0.01046035
244	0x3d9cdb79	0.076590486
245	0x3cfd1d30	0.030897707
246	0x3e8df8fa	0.27729017
247	0x3d55974a	0.052146234
248	0xbc7c07c5	-0.015382712
249	0xbeb1cbb7	-0.34725735
250	0x3be9a7d3	0.007130602
251	0x3e0c1dca	0.13683239
252	0x3e596f31	0.21233822
253	0xb9962c40	-0.00028643198
254	0x3a142c6a	0.000565237
255	0x3e2baeff	0.16765974

b3 f4 [64]
0	0xbc222d26	-0.00989846
1	0x3b922c1d	0.004460825
2	0xbbf866b7	-0.007580604
3	0xb7e0fe23	-2.6821222e-05
4	0xbcb3da9f	-0.021954833
5	0x3bb53ad7	0.005530696
6	0xbc12f61e	-0.008969812
7	0xb9b0e6b4	-0.00033741223
8	0x3bb84822	0.0056238333
9	0xbb872067	-0.0041237357
10	0xbbda1542	-0.006655366
11	0x3cc0e96c	0.023548804
12	0xbc8e23c3	-0.017351037
13	0xbaeab044	-0.0017905314
14	0x3569b2be	8.705937e-07
15	0xbc1037d4	-0.008802373
16	0x3c140923	0.0090353815
17	0x3bb8e150	0.0056420937
18	0x3c2b9d20	0.010474473
19	0xbbcb5260	-0.006204888
20	0xbcb62f22	-0.022239272
21	0x3c4e8347	0.012604541
22	0xbc4f4026	-0.0126495715
23	0x3c359a4f	0.011084153
24	0xbb87a011	-0.0041389544
25	0x3bea7f39	0.0071562794
26	0x3c3d5779	0.0115565
27	0xbc0751a5	-0.008259212
28	0x3b9d332e	0.004797361
29	0xb717ca86	-9.047455e-06
30	0x3b61eaa2	0.0034472127
31	0xbbbc4f23	-0.0057467385
32	0x3d343571	0.04399628
33	0x3b745864	0.003728413
34	0x3bfeef02	0.007779957
35	0xbbfaa112	-0.0076485956
36	0xbd3bf8e2	-0.04589165
37	0x3bbd03aa	0.005768259
38	0xbbb0c65c	-0.00539474
39	0xba934955	-0.0011237065
40	0x3b99ed24	0.004697459
41	0x36e2c84a	6.7586416e-06
42	0xbc0b9e15	-0.008521576
43	0x3c116f6a	0.008876661
44	0x3b45f052	0.0030203057
45	0xb446594c	-1.8472673e-07
46	0x3c009103	0.0078470735
47	0x3d064943	0.03278471
48	0x35552b54	7.9411734e-07
49	0x388bf1ff	6.673112e-05
50	0x3a0dbe4f	0.00054070813
51	0xbbc12b11	-0.0058950265
52	0x3aec3e93	0.001802402
53	0xbbf968a4	-0.007611351
54	0x3c31ed10	0.010859743
55	0x3bc93dde	0.0061414083
56	0xbc0ab585	-0.008466129
57	0xb98016b9	-0.00024430992
58	0x3b6e3193	0.0036345467
59	0xbc465cd6	-0.012107095
60	0xbd95bd97	-0.07311552
61	0xbaccb5de	-0.0015618165
62	0x34108a6a	1.34614e-07
63	0xbc12e7b0	-0.008966371

w4 f4 [64, 8]
0	0x3ed145ee	0.40873665
1	0x3ef7619a	0.48316652
2	0xbe32551b	-0.17415278
3	0x3b9f9656	0.0048702164
4	0xbef5de29	-0.48021057
5	0xbebd680e	-0.3699345
6	0x3e9d58be	0.30731767
7	0x3b9e9693	0.004839727
8	0x3eded2a9	0.43520096
9	0xbecb9d9c	-0.39768684
10	0x3d26e148	0.04074219
11	0x3e94d7f3	0.29071006
12	0x3ebded05	0.37094894
13	0xbecfab39	-0.4056032
14	0x3ea67506	0.32511157
15	0xbce11a3b	-0.027478328
16	0xbb773a02	-0.0037723784
17	0xbb015aed	-0.0019738034
18	0xbbf76b0a	-0.007550602
19	0xbb3ab236	-0.002848757
20	0x3cd019b9	0.02540289
21	0x3ae69002	0.0017590525
22	0x3b17fd25	0.0023191657
23	0x3b154e7e	0.002278238
24	0x3a25d62d	0.0006326165
25	0x3ca7dbcd	0.020490551
26	0xbc39cd90	-0.011340514
27	0xbbd29a2d	-0.0064270706
28	0xba0c3c9f	-0.00053496094
29	0xbcbc1c25	-0.02296264
30	0x3c4574fe	0.012051819
31	0x3b2a2b4c	0.0025965748
32	0xbcbbf9f4	-0.022946335
33	0xbf6fb770	-0.9363928
34	0xbe3237fa	-0.17404166
35	0xbde380f6	-0.11108582
36	0xbf0db061	-0.5534726
37	0x3f3bfef3	0.73435897
38	0x3f07ccba	0.5304676
39	0xbdac33d5	-0.08408324
40	0x3a1a0090	0.00058747176
41	0x3bb342b4	0.005470598
42	0x38271982	3.983966e-05
43	0x36004f53	1.911966e-06
44	0x3cf956b5	0.030436853
45	0xb9d370c1	-0.00040329064
46	0xb8f472ef	-0.00011656235
47	0x33e4c978	1.0653724e-07
48	0xbf1b6986	-0.6070789
49	0xbf322035	-0.69580394
50	0xbf0ea508	-0.5572057
51	0xbb1155c2	-0.002217636
52	0xbdcba77c	-0.099440545
53	0x3e54a802	0.20767215
54	0x3e9c805f	0.3056669
55	0xbcd200e4	-0.02563519
56	0xbe6fc0d7	-0.23413406
57	0x3e975419	0.2955635
58	0xbecd570a	-0.40105468
59	0xbe32a279	-0.17444791
60	0x3eaf0d68	0.34189916
61	0x3f49131d	0.7854479
62	0x3e794a3f	0.24344729
63	0xbc2f6201	-0.010704518
64	0xbe07b99a	-0.13254395
65	0x3e1bf3e6	0.15229759
66	0x3cbcbcbf	0.02303922
67	0x3b33d415	0.0027439643
68	0xbea14ebc	-0.31505382
69	0xbf05dd60	-0.52290916
70	0xbd159ddd	-0.036527503
71	0xbb1aab1e	-0.002360053
72	0x3f457299	0.7712799
73	0xbe28bf67	-0.16479264
74	0x3d8b7ef3	0.06811323
75	0xbc06e934	-0.008234311
76	0xbe9afaae	-0.30269378
77	0x3fa3cb4b	1.2796415
78	0x3de5fa62	0.11229397
79	0xbd9928fb	-0.074785195
80	0xbceb0c56	-0.028692406
81	0x3e3093b3	0.17243843
82	0x3ee09706	0.43865222
83	0x3db2f581	0.087382324
84	0xbec15c10	-0.3776555
85	0x3f044d60	0.51680565
86	0xbec9157a	-0.39274198
87	0xbcc419fd	-0.023938173
88	0xbe6e8d9d	-0.23296209
89	0x3ee2c777	0.44292805
90	0x3cbb43c3	0.02285946
91	0x3aa8903b	0.0012860367
92	0xbe2c0edd	-0.16802545
93	0x3e817a22	0.25288492
94	0x3d9d6f6e	0.07687269
95	0xb8c2ddff	-9.291991e-05
96	0x3e982fc6	0.29723948
97	0x3b8379fe	0.0040123453
98	0xbe17c0b8	-0.1481961
99	0x3b392c0a	0.002825501
100	0x3d87bb02	0.06627466
101	0x3e166cd6	0.14689955
102	0xbed6b11a	-0.41931993
103	0x3a19e1b9	0.0005870122
104	0x3d6425b1	0.055700008
105	0xbe78d8e3	-0.24301486
106	0xbbfe1896	-0.0077543957
107	0xba4bfed3	-0.0007781807
108	0xbd943c18	-0.072380245
109	0xbe324a66	-0.17411193
110	0x3ccea16c	0.025223456
111	0x37b8750c	2.1989013e-05
112	0x3bf7aaa9	0.007558186
113	0xbd9ff39e	-0.07810138
114	0x3c27d6aa	0.010244051
115	0x3c0a0a26	0.008425271
116	0x3cfc3eb7	0.030791624
117	0xbadd516a	-0.0016885225
118	0xbc311cdc	-0.010810103
119	0xbbaacc08	-0.0052123107
120	0x3ae7bb0a	0.0017679643
121	0xbe7d988c	-0.24765223
122	0xbc4d8568	-0.012544014
123	0xbbe7de6b	-0.007076075
124	0x3dab155c	0.08353683
125	0xbe29838c	-0.16554087
126	0x3ccd6acd	0.02507534
127	0x3b3f74fa	0.002921401
128	0x3cf08032	0.029358003
129	0x3b0c5bdd	0.002141706
130	0x3b973a3e	0.0046150973
131	0x3a084039	0.0005197558
132	0xbc977f1d	-0.01849323
133	0xbcd61ea6	-0.026137661
134	0xbb14bc0c	-0.0022695092
135	0xb93ca141	-0.00017989149
136	0xbc96cbfd	-0.018407816
137	0x3e87d44e	0.26529163
138	0x3d018d9f	0.0316292
139	0x3c364ca8	0.011126675
140	0xbd15a432	-0.036533542
141	0xbeabf565	-0.3358566
142	0xbcff8da5	-0.031195471
143	0xbbed7f3f	-0.007247835
144	0x3e6a630e	0.22889349
145	0x3ec7cbfc	0.39022815
146	0x3eff1423	0.4982005
147	0x3e10e6bc	0.14150518
148	0x3f9cfbec	1.226438
149	0x3e8c749c	0.27432716
150	0x3e859411	0.26089528
151	0xbc557684	-0.013028745
152	0xbb41d5df	-0.002957694
153	0x3babf529	0.005247731
154	0xbc37db43	-0.01122171
155	0xbc595d4a	-0.013266871
156	0xbd596d63	-0.053082835
157	0x3cc482af	0.023988096
158	0x3c70b78c	0.0146921985
159	0x3c0f6ee0	0.008754462
160	0xbeaf37c3	-0.3422223
161	0x3cc174dd	0.023615295
162	0x3d03f444	0.03221537
163	0x3c3be639	0.011468464
164	0xbd29f710	-0.041495383
165	0x3e50d928	0.20395339
166	0x3cdadf63	0.026717847
167	0xbbef314c	-0.007299578
168	0xbe874169	-0.2641709
169	0xbe3b9989	-0.18320288
170	0x3dacbe72	0.08434762
171	0x3dceed14	0.10103813
172	0x3fb6d227	1.4282883
173	0x3ec85e41	0.3913441
174	0xbe70a978	-0.23502147
175	0x3c937ff4	0.018005349
176	0x3ca6367c	0.020289652
177	0xbe5b53bd	-0.21418662
178	0x3c653f85	0.013992195
179	0x3bf67c35	0.007522131
180	0xbcbb2347	-0.02284397
181	0x3ddfe05d	0.10931466
182	0xbd94361a	-0.072368816
183	0xbb3805be	-0.0028079594
184	0x3e8d47cc	0.2759384
185	0xbdf6f645	-0.12058691
186	0x3dd6850d	0.10474596
187	0x3bb85e73	0.0056264936
188	0xbe751e31	-0.23937298
189	0xbe49009d	-0.1962914
190	0xbd7e9a36	-0.062158786
191	0xb9624015	-0.00021576912
192	0x3e3f1f02	0.18664172
193	0xbf179b99	-0.592218
194	0xbdd5b88d	-0.10435591
195	0x3c7cd92f	0.01543264
196	0x3f31fcbb	0.6952626
197	0x3e58f40b	0.21186845
198	0x3e73dc23	0.23814444
199	0x3c258d30	0.0101044625
200	0xbdb9484b	-0.09046992
201	0xbd62fc28	-0.055416256
202	0xbd094692	-0.033514567
203	0xbc23607e	-0.009971736
204	0x3eee8107	0.46582815
205	0xbe45d3c3	-0.19319062
206	0x3ccabbb8	0.024747714
207	0x3987a124	0.00025869266
208	0xbd975d4a	-0.0739084
209	0x3e064d58	0.13115442
210	0xbe239599	-0.15975036
211	0xbcb393ce	-0.021921065
212	0x3eafb213	0.34315547
213	0xbf94ea7f	-1.1634063
214	0x3f00451a	0.5010544
215	0x3bd5a7f8	0.0065202676
216	0x3e1548c7	0.14578544
217	0xbf0192f9	-0.5061489
218	0xbcb05ca3	-0.021528548
219	0x3b1c1dc5	0.0023821455
220	0x3ed6e986	0.4197504
221	0xbe8712fc	-0.2638167
222	0xbded2cc7	-0.11580806
223	0xbb2483f4	-0.0025103064
224	0xbe0111f7	-0.1260451
225	0x3e468d99	0.19389953
226	0x3cf69c32	0.030103777
227	0x3bdddbbb	0.0067705787
228	0xbe97eb00	-0.29671478
229	0xbea734f6	-0.32657593
230	0xbcd0a99b	-0.0254715
231	0xbb1a8174	-0.0023575695
232	0x3c49cad1	0.012316422
233	0x3c9426e0	0.018084943
234	0xbbf3930c	-0.007433301
235	0xbb331dc3	-0.0027330972
236	0x394dca1c	0.00019625615
237	0xbc26a468	-0.010171033
238	0x3c23234b	0.009957145
239	0x3a3d85f6	0.00072297396
240	0x3eacc027	0.3374035
241	0x3a98cdf4	0.0011658059
242	0x3df89b48	0.121389925
243	0x3e4af877	0.19821344
244	0x3eb51ce6	0.3537361
245	0xbf3ba40f	-0.7329721
246	0x3f58f620	0.84750557
247	0x3ce80d40	0.02832663
248	0xbd6cf932	-0.05785484
249	0x3f9280ea	1.1445591
250	0x3d74b1cf	0.059739884
251	0xbd4af66a	-0.049551405
252	0xbda3dd25	-0.08001164
253	0x3d375c76	0.044765912
254	0xbe1ca7a1	-0.1529832
255	0x3c048714	0.008088846

b4 f4 [8]
0	0x3c0386d7	0.008027754
1	0xbc061944	-0.008184735
2	0x3aa82745	0.0012829086
3	0xba1c413e	-0.00059606496
4	0x3b223707	0.0024752037
5	0xbc0a5f28	-0.008445539
6	0x3c1fe99c	0.009760287
7	0x3b9521da	0.0045511546

w5 f4 [8, 1]
0	0x3f310ebc	0.6916311
1	0x3f7f1302	0.9963838
2	0xbedf129e	-0.4356889
3	0xbe6e2261	-0.23255302
4	0x3d4e6771	0.05039162
5	0xbf2b6c5a	-0.66962206
6	0x3f0a1d50	0.5395098
7	0x3df61e8c	0.12017545
