model_saved/2024-01-25-07-47-24/model_2024-01-25-07-47-48_epoch_5000_train_mse_9.66e-02_val_mse_1.08e-01.pt (torch, 17939 bytes, 9 tensors)

w1 f4 [8, 16]
-0.27665856 0.1222392 0.01952688 0.019407116 0.4394202 0.08917261 0.52133846 0.33628792
-0.054371748 -0.20953621 -0.65476036 -0.31263632 0.022697113 0.0150186885 0.109903164 -0.1113732
0.5918756 0.048627786 -0.021217503 0.007996988 -0.3187634 -0.058832552 0.7093555 0.061283972
-0.00937278 -0.54234236 -0.5517256 0.1798163 0.11310737 0.00056603696 -0.032340534 0.18377656
0.026881918 0.030403564 -0.17803183 0.007680258 -0.65953606 0.063336916 0.19799063 -0.0982425
-0.006761167 -0.22133327 -0.2240517 0.24753204 0.011518447 0.017373843 0.004113992 0.04484457
-0.10158285 -0.019475598 0.0004613581 0.0068839528 0.48734745 0.06652516 -0.18988939 -0.02330424
-0.007238055 -0.20459889 0.5092271 -0.4533289 0.0004794506 0.10612798 -0.013164281 0.04046235
0.14085099 0.14942214 -0.14981365 0.008054922 1.3849828 0.2306163 0.00835255 -0.045345835
0.01405661 -0.1319887 0.08137488 -0.70101565 0.1939451 -0.06554065 -0.048927065 0.09861336
-0.075352386 -0.16756926 -0.37104884 0.010739719 -1.0828131 -0.27940032 -0.18540943 -0.057198767
-0.064985506 -0.40319872 -0.8247146 -0.6973479 0.057351675 0.08990488 0.054123756 -0.03641563
8.199626e-05 0.044799384 -0.100965895 0.0056249243 0.26728135 0.0374626 0.07452244 -0.16191578
-0.0019822267 -0.18759996 0.4051605 -0.012465836 0.00041587665 -0.0018097191 -0.0049255374 -0.010295671
0.039788198 -0.025708487 -0.041153878 0.008775347 -0.9217382 0.30501178 0.052367643 0.2883112
0.03766835 -0.4012357 0.060117822 0.36648256 -0.054838482 -0.08314658 0.031835914 -0.02775147
00000000: 31a6 8dbe 8c58 fa3d d6f6 9f3c acfb 9e3c
00000010: affb e03e 21a0 b63d 7076 053f ee2d ac3e
00000020: e9b4 5ebd a990 56be 609e 27bf de11 a0be
00000030: 4cef b93c f210 763c e914 e13d a217 e4bd
00000040: 2985 173f ee2d 473d 54d0 adbc cc05 033c
00000050: f534 a3be 67fa 70bd 5298 353f e704 7b3d
00000060: 4a90 19bc f3d6 0abf e43d 0dbf c421 383e
00000070: d6a4 e73d 1962 143a 8277 04bd ec2f 3c3e
00000080: 7837 dc3c e510 f93c fa4d 36be acaa fb3b
00000090: 5bd7 28bf c9b6 813d 0ebe 4a3e 5d33 c9bd
000000a0: c88c ddbb 30a5 62be cf6d 65be 0a79 7d3e
000000b0: deb7 3c3c 9753 8e3c abce 863b f1ae 373d
000000c0: ab0a d0bd 4a8b 9fbc 70e2 f139 c892 e13b
000000d0: 9b85 f93e 583e 883d 5d72 42be 89e8 bebc
000000e0: 352d edbb 5f82 51be b55c 023f ba1a e8be
000000f0: c55e fb39 a059 d93d ffae 57bc d9bb 253d
00000100: 3e3b 103e 1e02 193e c068 19be cbf8 033c
00000110: 1e47 b13f ae26 6c3e 22d9 083c 8ebc 39bd
00000120: b24d 663c 0c28 07be e0a7 a63d c375 33bf
00000130: 8b99 463e 2d3a 86bd bf67 48bd cdf5 c93d
00000140: 5a52 9abd 4797 2bbe 1dfa bdbe a5f5 2f3c
00000150: 9f99 8abf 8f0d 8fbe f8db 3dbe 4149 6abd
00000160: 1f17 85bd 1070 cebe 7f20 53bf 6485 32bf
00000170: 97e9 6a3d 0d20 b83d dfb0 5d3d 8e28 15bd
00000180: 68f5 ab38 8f7f 373d 35c7 cebd 4951 b83b
00000190: 1ad9 883e 6272 193d 399f 983d 40cd 25be
000001a0: 3fe8 01bb 341a 40be 3271 cf3e 813d 4cbc
000001b0: 050a da39 1934 edba 6766 a1bb 2daf 28bc
000001c0: f3f8 223d 9b9a d2bc f890 28bd 79c6 0f3c
000001d0: 09f7 6bbf 812a 9c3e 747f 563d 879d 933e
000001e0: 214a 1a3d c46e cdbe 1b3e 763d 9aa3 bb3e
000001f0: 519e 60bd c148 aabd 6066 023d 0d57 e3bc

b1 f4 [16]
-0.21975358 -0.28300777 0.20042782 -0.0090172775 -0.5902154 0.91262877 0.083606794 0.18143167
-0.03672485 0.35611808 0.28312775 -0.13995938 -0.030834664 0.6243932 -0.16374896 -0.20168678
00000000: 1507 61be 65e6 90be f33c 4d3e 34bd 13bc
00000010: 5b18 17bf 0aa2 693f 0a3a ab3d 39c9 393e
00000020: cc6c 16bd 1c55 b63e 1ff6 903e 8351 0fbe
00000030: fa98 fcbc 3cd8 1f3f cfad 27be fb86 4ebe

w2 f4 [16, 32]
7.5377946e-05 -0.00017473461 7.1485374e-05 -0.00030278097 -0.0007444533 -0.0002374694 -5.370029e-06 -8.525934e-06
-0.0113725895 0.0027757941 0.000109682245 -0.030893257 6.759321e-05 1.2348357e-07 -0.0004348113 2.8583341e-05
0.00011019213 5.3795255e-05 -0.0022342813 -0.0002791635 2.821004e-06 6.498493e-05 0.0066571855 -0.0011347443
-0.014065337 0.00012618482 -0.0015167219 -0.00015026887 0.00012764006 -1.4104679e-05 0.00022014194 3.9406397e-05
0.0031415694 -0.00035616412 0.00015030029 0.0030237802 0.0026917732 0.0007899388 0.0055263867 -9.4698735e-05
-0.0056214007 0.010931469 0.0066894456 -0.01700443 0.0028216022 7.4392256e-06 -0.007910193 0.0055304086
0.011347446 0.0052793794 -0.006194685 -0.0033163936 -0.008123847 -0.0073986803 -0.009083962 -0.008935155
0.011907492 0.00044083525 -0.011499401 -0.000641552 -0.007378422 -0.0027211937 -0.0035089392 0.0073985737
0.0021690992 -0.0022206176 0.0001017756 -0.0018829871 -0.010556031 0.00496158 0.01068331 -2.5818852e-05
0.18250489 0.35824615 0.0074882656 0.110335626 0.0045823352 1.195733e-08 -0.06972153 0.010158541
0.03524667 0.0058950274 -0.119971626 0.064174466 -0.011892241 -0.0050632134 -0.113668635 -0.17017263
0.11138544 0.0002297186 -0.009594011 -0.011154865 -0.09334953 -0.00614527 -0.0017851355 0.012212628
0.00011109959 0.00022317043 -1.6311664e-05 -6.386557e-05 -0.00022682009 -0.00015379116 2.2095568e-05 1.8103908e-06
0.0047224327 -0.0054377774 2.214593e-05 0.0062559475 -2.1503298e-05 -4.357252e-08 0.0005010512 3.089208e-06
0.00041028703 -3.809129e-06 -0.0009695722 -0.008693323 -0.0022309618 -4.928418e-05 -0.002837064 -0.0039850944
-0.0065782024 -4.0948024e-05 -0.0013506305 0.00026685893 -0.00049925904 0.00027244978 -7.891551e-05 1.6260551e-06
-0.06456847 0.048101995 -0.00024229783 0.17310818 -0.007871561 -0.17564781 0.018044233 -0.005230408
-0.20160066 -0.12558427 0.009461597 0.5898869 -0.17276756 -3.429067e-05 -0.09212416 0.0063624256
-0.2942432 0.0071684206 -0.2261733 0.21964994 0.062852934 -0.014483569 0.2106071 -0.08087258
-0.6421558 0.001270081 -0.00532133 -0.0065428186 -0.42815244 -0.07722254 -0.00993487 0.044882197
0.2212003 0.1386901 0.020677619 -0.9800893 0.046730872 -0.5950128 0.06530869 -0.0198637
0.33297718 0.08913107 0.044770088 -0.21188119 0.06895438 0.00081650406 -0.5028074 -0.0027530633
0.65011096 -0.01344075 0.053217527 0.7191001 -0.38616398 0.06258345 1.0072727 -0.38934973
-0.22000584 0.03780253 -0.18023854 -0.3569762 0.60875964 -0.37837446 0.0113520175 -0.13434915
0.0148390345 -0.016556729 -0.00021917456 -0.0045731063 0.00679552 0.043768022 -0.01210568 0.001071643
0.45090654 -0.36309144 -0.010405222 -0.27051198 -0.023134645 -4.6342348e-07 0.16116124 -0.0067938208
-0.18366103 -0.007614004 0.19676213 0.18843997 -0.052195363 0.010703185 0.85328627 -0.23243119
-0.29658484 -0.0005998727 0.005892504 -0.019234443 0.23822708 0.050833143 0.006302743 -0.03595022
-0.0041207997 0.0005041072 -0.00019420341 -0.007004431 0.0057582753 -0.0013524512 -0.0071508884 0.00021007437
-0.0116046555 0.052816607 -0.0068011954 0.31922916 -0.003697921 -4.686251e-07 0.030397667 -0.006928474
-0.0356398 -0.0073605045 0.02540959 0.026855635 -0.013472419 0.006964021 0.039332952 0.024695562
0.027218921 -0.0004976761 0.0075127278 0.00027294565 0.002600478 0.002882216 0.0040041595 -0.008794617
00000000: 3a14 9e38 f738 37b9 6bea 9538 93be 9eb9
00000010: 6a27 43ba 3501 79b9 3330 b4b6 9c0a 0fb7
00000020: 1954 3abc 19ea 353b 3505 e638 db13 fdbc
00000030: d4c0 8d38 e896 0434 63f7 e3b9 42c6 ef37
00000040: f316 e738 37a2 6138 056d 12bb b15c 92b9
00000050: 7b50 3d36 8548 8838 8524 da3b b3bb 94ba
00000060: 4d72 66bc 7b50 0439 becc c6ba 7e91 1db9
00000070: 1ed7 0539 23a3 6cb7 e7d5 6639 4c48 2538
00000080: cae2 4d3b 8abb bab9 ed99 1d39 9d2a 463b
00000090: 7668 303b e513 4f3a b116 b53b ff98 c6b8
000000a0: ba33 b8bb e719 333c 2333 db3b e04c 8bbc
000000b0: a1ea 383b 769e f936 c199 01bc 6e38 b53b
000000c0: a3ea 393c a5fe ac3b c9fc cabb da57 59bb
000000d0: e219 05bc a170 f2bb e6d4 14bc c264 12bc
000000e0: a417 433c e81f e739 fc67 3cbc d32d 28ba
000000f0: b1c6 f1bb 0e56 32bb 3bf6 65bb bc6f f23b
00000100: 7227 0e3b c887 11bb 5c70 d538 90ce f6ba
00000110: 34f3 2cbc c094 a23b 0d09 2f3c 9095 d8b7
00000120: 90e2 3a3e 0a6c b73e 2060 f53b a5f7 e13d
00000130: 6a27 963b e56c 4d32 29ca 8ebd 0270 263c
00000140: d05e 103d 132b c13b afb3 f5bd e76d 833d
00000150: add7 42bc 50e9 a5bb 1acb e8bd bc41 2ebe
00000160: 0d1e e43d 9ee0 7039 3330 1dbc e5c2 36bc
00000170: 0a2e bfbd 435e c9bb 35fb e9ba 7917 483c
00000180: 23fe e838 db02 6a39 08d5 88b7 91ef 85b8
00000190: 8ed6 6db9 0043 21b9 df59 b937 8efc f235
000001a0: a3be 9a3b 622f b2bb 06c6 b937 b1fe cc3b
000001b0: fb61 b4b7 7e24 3bb3 fa58 033a 3050 4f36
000001c0: cb1b d739 57a0 7fb6 e42a 7eba 706e 0ebc
000001d0: 5435 12bb 7cb6 4eb8 09ee 39bb 6595 82bb
000001e0: f68d d7bb 9bbf 2bb8 a407 b1ba 33e9 8b39
000001f0: b5e0 02ba 97d7 8e39 717f a5b8 d43e da35
00000200: 793c 84bd 9906 453d 5411 7eb9 4543 313e
00000210: b8f7 00bc 05dd 33be 80d1 933c d863 abbb
00000220: 6770 4ebe 2a99 00be d004 1b3c d402 173f
00000230: fbe9 30be 54d3 0fb8 97ab bcbd e57b d03b
00000240: 0ba7 96be 12e5 ea3b f999 67be eaeb 603e
00000250: 0ab9 803d 7e4c 6dbc 63a9 573e 86a0 a5bd
00000260: 5364 24bf d978 a63a 8d5e aebb 2465 d6bb
00000270: cc36 dbbe da26 9ebd ddc5 22bc 65d6 373d
00000280: 5582 623e c704 0e3e 1c64 a93c 22e7 7abf
00000290: df68 3f3d c252 18bf 90c0 853d 33b9 a2bc
000002a0: fc7b aa3e 5a8a b63d d760 373d 62f7 58be
000002b0: f437 8d3d a90a 563a fcb7 00bf bd6c 34bb
000002c0: ac6d 263f 9736 5cbc 9ffa 593d f216 383f
000002d0: 49b7 c5be c02b 803d 50ee 803f d958 c7be
000002e0: 3649 61be d3d6 1a3d 7490 38be 96c5 b6be
000002f0: acd7 1b3f 4cba c1be d0fd 393c d392 09be
00000300: 6c1f 733c faa1 87bc 39d2 65b9 ffd9 95bb
00000310: f4ac de3b 1946 333d e756 46bc 5f76 8c3a
00000320: 39dd e63e 1fe7 b9be aa7a 2abc 8c80 8abe
00000330: de84 bdbc 70cc f8b4 7407 253e b39e debb
00000340: a311 3cbe e57e f9bb 037c 493e 68f6 403e
00000350: ceca 55bd 695c 2f3c f870 5a3f 7102 6ebe
00000360: f8d9 97be c740 1dba e815 c13b 8d91 9dbc
00000370: cdf1 733e 6a36 503d 3e87 ce3b 8a40 13bd
00000380: c607 87bb 1026 043a 15a3 4bb9 6d85 e5bb
00000390: eaaf bc3b bb44 b1ba 0052 eabb 6947 5c39
000003a0: 7421 3ebc 3a56 583d 90dc debb 0172 a33e
000003b0: d258 72bb 5897 fbb4 8704 f93c 4108 e3bb
000003c0: 0afb 11bd 6330 f1bb c627 d03c 5900 dc3c
000003d0: 6cbb 5cbc 7132 e43b 971b 213d 594e ca3c
000003e0: 37fa de3c 7a76 02ba 542d f63b 251a 8f39
000003f0: c86c 2a3b 8fe3 3c3b 5335 833b 4c17 10bc

b2 f4 [32]
-0.021349937 -0.0076270853 -9.719511e-05 -0.04497302 0.0017235976 0.028029874 -0.011093816 0.0039071534
-0.04599042 0.18672027 -0.0046246606 0.052899003 -0.012971695 1.4035555e-05 -0.027813604 6.886468e-05
0.14877994 0.00012633365 -0.060067862 0.13152248 -0.05990906 0.00669261 -0.016198488 0.121275626
0.2590995 -0.0011174204 0.0019948685 0.03472287 0.055651672 -0.034659617 0.0091910465 -0.020810138
00000000: 10e6 aebc a1ec f9bb 3ad5 cbb8 a135 38bd
00000010: 57ea e13a e89e e53c d6c2 35bc 9407 803b
00000020: 7360 3cbd 9933 3f3e 778a 97bb a0ac 583d
00000030: 3b87 54bc 407a 6b37 5bd9 e3bc 726b 9038
00000040: c559 183e 6e78 0439 b809 76bd d4ad 063e
00000050: 3463 75bd af4d db3b b1b2 84bc 5b5f f83d
00000060: b1a8 843e 6876 92ba 57bc 023b 9139 0e3d
00000070: 02f3 633d 3ef7 0dbd 0b96 163c 067a aabc

w3 f4 [32, 64]
0.00647712 0.008739059 -0.0005222103 -4.7080655e-05 -0.009836522 0.000734823 -0.0075504472 4.0692694e-06
0.0075425073 -0.009860612 -0.00983808 0.002110602 -0.0017490415 -6.540096e-07 7.89225e-05 -0.0027151601
0.0029470287 0.004046571 0.004740974 -0.0010613694 -0.007598545 -0.009564652 -0.006498823 0.0059726075
-0.015657311 0.0023293225 0.015362804 -0.0024004988 0.00360557 -3.0116915e-05 0.009441655 0.010159613
0.006371321 0.00020459775 0.00272395 -0.003443209 -0.0045069107 0.0022226074 -0.00075685437 -4.9686132e-05
0.011232986 8.862939e-05 -0.0094900215 -0.015862247 0.0001508576 -5.351539e-05 -0.0059030876 0.011023091
-1.7077484e-05 -2.6427999e-05 -0.005373053 -0.0009580811 5.1806976e-05 -0.0041098422 0.0106406845 -0.002867497
-0.004024936 0.010656955 -0.0024769714 -0.011476018 0.009443146 -0.0005738705 5.9897648e-05 -0.002968214
0.025814047 0.0038854606 -4.9056238e-05 -1.525885e-05 -0.06842015 0.057114903 0.028030958 -2.6907968e-05
-0.008989733 -0.09391285 0.01931242 -0.0006705149 0.001646552 -5.5381337e-05 0.0054588993 0.0007864719
-0.0007131366 -0.011709871 0.039348464 0.0043972647 -0.007361449 0.0047580376 -9.538652e-05 -0.007081452
0.019513557 0.0026217334 -0.51677155 -0.00027816207 -0.0068584774 3.164618e-05 0.06727282 0.066902
-0.0005415878 -0.016285937 -0.0019702504 0.23654833 0.003493805 -4.0520372e-05 -1.6982725e-05 -7.062749e-06
-0.07547307 0.00085816346 -0.03863414 -0.010803267 -3.11719e-05 -0.0056747617 -0.0036654298 0.22975686
-0.00047803132 1.8465698e-05 0.0013979565 0.00014817853 0.0027477678 -0.008815676 -0.068266906 -0.00080161437
0.0027054686 -0.22375818 0.00076379266 -0.019111918 0.18341254 0.004204831 -2.643692e-05 0.009549137
0.0065587508 0.00061777455 -1.9835699e-07 -5.7090715e-06 -0.012786704 -0.0008544839 -0.0032706812 7.958598e-07
0.0018547215 -0.0025500497 -0.00088590366 -2.552507e-06 -4.984697e-06 1.2706563e-05 8.227307e-06 9.737444e-06
1.6592458e-06 0.0018264779 0.0007587183 5.8699323e-05 -0.00021334126 -0.00413913 -0.0001963558 0.00010754787
-0.0010275121 -3.55781e-06 0.010465153 2.3278333e-05 0.0007580487 -4.440946e-06 0.005339367 0.00424376
-6.316921e-06 2.830057e-06 -0.0011159935 -0.015296291 -1.4593893e-05 -9.4262405e-06 -1.9200027e-06 1.4852168e-06
0.0026248547 1.5707115e-05 -0.00070641824 0.0012839125 -8.35265e-05 -9.056805e-06 -0.0041708304 0.0013680307
7.9597834e-05 -1.3738092e-05 -0.007946332 4.6828072e-06 2.8653312e-06 9.540451e-06 0.0032936544 3.5790881e-06
-1.1545598e-05 0.017731722 5.446594e-06 -0.0009449773 0.0038847264 -1.1190469e-05 6.3483376e-06 1.4660342e-06
-0.18809149 -0.0026009341 7.251637e-05 -8.603091e-05 -0.41576815 -0.2115204 0.11955593 0.004466931
-0.0024237684 -0.015523472 -0.025342222 -0.009822274 0.0096025765 0.005095122 -0.013906456 0.013624571
0.007866522 -0.2942895 -0.065375306 0.00678563 0.1447076 -0.0354262 0.017681563 -0.015105266
-0.08208651 -0.12618843 0.1743219 7.478389e-05 -0.009429696 0.00072528765 0.039666202 -0.12251014
-0.021351304 0.055705875 0.00080775266 0.57692766 -0.13543582 -0.03693409 0.019247483 -6.0951497e-05
0.27736622 -0.0005107336 0.07637344 0.0057352297 -0.00042480254 -0.012156644 -0.12186249 -0.33113128
0.0014567578 0.00029546767 0.18872687 0.008048315 0.04538839 0.0268699 0.2621292 0.044131506
-0.01334479 -0.3393584 0.005945462 0.128219 0.20612875 -0.00021181836 -6.1739374e-05 0.14153576
00000000: 053e d43b 452e 0f3c f1e4 08ba 7878 45b8
00000010: 5d29 21bc 23a1 403a be69 f7bb c28a 8836
00000020: 2327 f73b 688e 21bc e62f 21bc 0752 0a3b
00000030: 1840 e5ba 338f 2fb5 3283 a538 d4f0 31bb
00000040: f022 413b 1999 843b 2c5a 9b3b a61d 8bba
00000050: 37fd f8bb 0fb5 1cbc 14f4 d4bb ddb5 c33b
00000060: c343 80bc 8ca7 183b 45b4 7b3c b051 1dbb
00000070: 6d4b 6c3b 95a3 fcb7 2cb1 1a3c 8174 263c
00000080: 84c6 d03b 4a89 5639 4c84 323b 76a7 61bb
00000090: b5ae 93bb 2aa9 113b a367 46ba 1466 50b8
000000a0: 8f0a 383c 8bde b938 097c 1bbc 8bf1 81bc
000000b0: 872f 1e39 b675 60b8 b06e c1bb 329a 343c
000000c0: 9e41 8fb7 b2b1 ddb7 6f10 b0bb bc27 7bba
000000d0: 514b 5938 dbab 86bb 4456 2e3c 9eec 3bbb
000000e0: 9ce3 83bb 829a 2e3c af54 22bb e805 3cbc
000000f0: 6db7 1a3c cc6f 16ba 9c3a 7b38 5e86 42bb
00000100: fb77 d33c 36a3 7e3b bcc1 4db8 2200 80b7
00000110: dd1f 8cbd 51f1 693d 2ea1 e53c 6cb8 e1b7
00000120: ac49 13bc 6155 c0bd 1535 9e3c 7ec5 2fba
00000130: 1ed1 d73a 4249 68b8 91e0 b23b 3c2b 4e3a
00000140: c9f1 3aba c2da 3fbc db2b 213d ee16 903b
00000150: 4f38 f1bb 50e9 9b3b 3f0a c8b8 860b e8bb
00000160: e5da 9f3c 63d1 2b3b 244b 04bf 48d6 91b9
00000170: 14bd e0bb d4bb 0438 55c6 893d ea03 893d
00000180: 58f9 0dba 166a 85bc 511f 01bb ba39 723e
00000190: 52f8 643b 6bf4 29b8 2076 8eb7 8dfc ecb6
000001a0: a091 9abd 60f6 603a d53e 1ebd 3000 31bc
000001b0: 93be 02b8 5af3 b9bb b537 70bb 6245 6b3e
000001c0: 47a0 fab9 c9e6 9a37 a33b b73a 5f60 1b39
000001d0: e513 343b a06f 10bc 85cf 8bbd 6e23 52ba
000001e0: 3b4e 313b dd20 65be 4239 483a 9990 9cbc
000001f0: 7fd0 3b3e aec8 893b dac4 ddb7 fc73 1c3c
00000200: caea d63b 26f2 213a f4fb 54b4 8d90 bfb6
00000210: 537f 51bc 72ff 5fba ed58 56bb 12a3 5535
00000220: 201a f33a bc1e 27bb fd3b 68ba bd4b 2bb6
00000230: 3942 a7b6 462e 5537 0408 0a37 015e 2337
00000240: 40b3 de35 6e66 ef3a b9e4 463a eb33 7638
00000250: 5cb4 5fb9 8aa1 87bb dce4 4db9 538b e138
00000260: 96ad 86ba b6c2 6eb6 0876 2b3c d745 c337
00000270: cab7 463a 7003 95b6 dbf5 ae3b 3d0f 8b3b
00000280: f0f5 d3b6 02ec 3d36 8746 92ba 4b9d 7abc
00000290: 4bd8 74b7 6525 1eb7 65d9 00b6 a957 c735
000002a0: c105 2c3b c6c2 8337 ed2e 39ba f448 a83a
000002b0: f32a afb8 aef2 17b7 76ab 88bb 7e4f b33a
000002c0: c3ed a638 a87c 66b7 5531 02bc 0221 9d36
000002d0: 044a 4036 ed0f 2037 5ada 573b 4430 7036
000002e0: f7b3 41b7 1e42 913c e3c1 b636 5ab8 77ba
000002f0: e596 7e3b b3be 3bb7 ce03 d536 8dc4 c435
00000300: 0e9b 40be 6f74 2abb ee13 9838 7e6b b4b8
00000310: 90df d4be ce98 58be bdd9 f43d 555f 923b
00000320: 16d8 1ebb 2956 7ebc 7e9a cfbc 9aed 20bc
00000330: 2054 1d3c fbf4 a63b e7d7 63bc 9839 5f3c
00000340: 96e2 003c 1dad 96be 7de3 85bd fd59 de3b
00000350: 3b2e 143e 101b 11bd edd8 903c 147c 77bc
00000360: f91c a8bd 8a37 01be 7181 323e 4cd5 9c38
00000370: 037f 1abc 3b21 3e3a 0779 223d 99e6 fabd
00000380: eee8 aebc d82b 643d 5dbf 533a 88b1 133f
00000390: b0af 0abe 3348 17bd e6ac 9d3c 2ca6 7fb8
000003a0: f202 8e3e c0e2 05ba ae69 9c3d 98ee bb3b
000003b0: 08b8 deb9 a92c 47bc 0b93 f9bd 0a8a a9be
000003c0: aef0 be3a 00e9 9a39 9e41 413e 14dd 033c
000003d0: 2de9 393d 441e dc3c cc35 863e 3dc3 343d
000003e0: 1ba4 5abc 62c0 adbe 26d2 c23b d74b 033e
000003f0: 6a13 533e 8f1b 5eb9 137a 81b8 c0ee 103e

b3 f4 [64]
-0.009534011 0.003649184 -0.003402119 -0.00021796161 -0.020605307 0.002678165 -0.007998816 -2.02434e-05
0.0049125166 -0.0035112957 -0.005705823 0.014648161 -0.011883879 -0.00032441432 0.00052869506 -0.0055359676
0.005978992 0.0048881336 0.00861783 -0.0031233078 -0.017703561 0.011739568 -0.009980307 0.00857512
-0.003432183 0.0043697315 0.010775142 -0.0046375506 0.0040046102 -0.00019142337 0.003055609 -0.0054896562
0.028451463 0.0013943848 0.0049062935 -0.006874288 -0.03269792 0.003609956 -0.002645208 -0.00015665093
0.0041315644 0.00053616 -0.0071562515 0.0076322346 0.0010695759 -0.00043904182 0.0073905853 0.030595493
-9.6933276e-05 -0.00010024641 0.000708311 -0.0029782085 0.0005328699 -0.005145852 0.009297779 0.0040734457
-0.0058944784 -0.00037462488 0.0023768952 -0.010163358 -0.06784974 -0.0007103035 0.00041549368 -0.0057462878
00000000: 8a34 1cbc 2627 6f3b 16f6 5ebb a08c 64b9
00000010: 76cc a8bc 2784 2f3b 770d 03bc 5fd0 a9b7
00000020: 2df9 a03b c41d 66bb eaf7 babb d7fe 6f3c
00000030: 9ab4 42bc 2716 aab9 2098 0a3a 1067 b5bb
00000040: 6ceb c33b a32c a03b cd31 0d3c 69b0 4cbb
00000050: 0f07 91bc 5157 403c 7184 23bc a97e 0c3c
00000060: 7aee 60bb f72f 8f3b 398a 303c 98f6 97bb
00000070: 1b39 833b d2b8 48b9 9d40 483b 93e2 b3bb
00000080: 0b13 e93c cac3 b63a f9c4 a03b b541 e1bb
00000090: 41ee 05bd 0395 6c3b 3a5b 2dbb aa42 24b9
000000a0: 1362 873b 178d 0c3a fd7e eabb d317 fa3b
000000b0: 0331 8c3a 322f e6b9 b92c f23b 66a3 fa3c
000000c0: a848 cbb8 623b d2b8 f2ad 393a 0c2e 43bb
000000d0: 4bb0 0b3a 899e a8bb b655 183c 8a7a 853b
000000e0: 7826 c1bb 4d69 c4b9 afc5 1b3b 3784 26bc
000000f0: cef4 8abd a933 3aba 9ed6 d939 5b4b bcbb

w4 f4 [64, 8]
0.3585536 0.4425843 -0.13809256 0.0034715266 -0.39039823 -0.33167657 0.25619414 0.0018631126
0.42205358 -0.38946262 0.03848146 0.26077136 0.3221446 -0.39535755 0.31156215 -0.022672867
-0.0036468694 -0.0019567702 -0.0069062817 -0.0023678294 0.016337823 0.0017259603 0.0021250986 0.0016703547
0.0005358188 0.018201513 -0.008297906 -0.003454027 -0.00013566184 -0.019807745 0.009424918 0.0008842717
-0.022722837 -0.9276935 -0.16965863 -0.10561546 -0.4846028 0.7258522 0.5200874 -0.07726968
0.0010801117 0.0030668168 -0.0009961987 -0.000662155 0.012160314 -0.0008190593 0.0010413615 0.0005326363
-0.5893891 -0.6821553 -0.52926856 -0.0021582926 -0.0878608 0.20255367 0.29361126 -0.021300877
-0.21518448 0.27938372 -0.34577152 -0.12995034 0.2987166 0.7321227 0.21660015 -0.006383594
-0.10995761 0.13434854 0.01660387 0.0014657223 -0.2541471 -0.44752818 -0.02820953 -0.0007885834
0.748771 -0.1614081 0.06447067 -0.007579338 -0.2518943 1.2481202 0.10789156 -0.06222838
-0.027752446 0.16916658 0.41628993 0.0786727 -0.31835267 0.5041696 -0.37685508 -0.019891912
-0.15836193 0.34379372 0.010477295 0.00037862593 -0.1315101 0.18515985 0.041308608 -8.839865e-05
0.2361323 0.0035078926 -0.092067 0.0010656933 0.05731846 0.12203319 -0.29029205 0.00015756597
0.0349013 -0.17898902 -0.0030061922 -0.0001724635 -0.053795084 -0.11945951 0.011916076 4.0258416e-05
0.0071344604 -0.07468975 0.009060864 0.006627062 0.016597262 -0.001640499 -0.009806706 -0.003436307
0.0014731461 -0.22085348 -0.00925333 -0.0038601963 0.043334648 -0.1434826 0.019746553 0.001011156
0.016804017 0.0012500098 0.0020209777 0.0003143114 -0.010044541 -0.016428076 -0.0013215818 -0.00016266345
-0.01669913 0.2494768 0.0267817 0.007952405 -0.018961217 -0.31103587 -0.02734974 -0.0040446757
0.21980385 0.3797782 0.46352544 0.12256693 1.1085011 0.26509762 0.24659415 -0.010095977
-0.0028351035 0.0049466905 -0.009876626 -0.010374876 -0.028067172 0.022720814 0.013293568 0.0057171686
-0.31235516 0.022314712 0.027331308 0.008224008 -0.028327968 0.18898118 0.02365366 -0.0040956032
-0.24571855 -0.17456396 0.074266665 0.07840196 1.2437999 0.3683938 -0.21253957 0.01151156
0.017303098 -0.19139142 0.010270474 0.0040339436 -0.015609327 0.09499212 -0.05723057 -0.0008861355
0.1881205 -0.093209065 0.053377297 0.0015272732 -0.18596728 -0.14237285 -0.03643064 -7.585177e-05
0.17392169 -0.5650527 -0.09213563 0.012111514 0.53560287 0.19983847 0.21594101 0.0065394985
-0.0684126 -0.046282373 -0.01867435 -0.0031713687 0.39024964 -0.15405169 0.015620792 -7.050884e-05
-0.07057174 0.12689598 -0.14666764 -0.018389663 0.2862613 -1.1177315 0.46865907 0.004745292
0.121580034 -0.44752073 -0.015801527 0.0010304581 0.319744 -0.22660854 -0.0895591 -0.00063470856
-0.10393587 0.17038211 0.021446785 0.0034727047 -0.19517809 -0.27805787 -0.019513572 -0.0007539379
0.009291915 0.0149799045 -0.00451851 -0.0010068545 1.5171658e-05 -0.008041567 0.0067319986 0.00011852958
0.3240014 0.0010170918 0.11323249 0.17235743 0.31823134 -0.70874274 0.8014139 0.02205516
-0.05330507 1.0805094 0.05158161 -0.03644737 -0.06387778 0.041828457 -0.13603355 0.0045925505
00000000: 5694 b73e 699a e23e 2368 0dbe 8d82 633b
00000010: 47e2 c7be 83d1 a9be e12b 833e af33 f43a
00000020: 6817 d83e a567 c7be bc9e 1d3d d383 853e
00000030: 23f0 a43e 4e6c cabe 1385 9f3e 73bc b9bc
00000040: 5100 6fbb 283d 00bb 174e e2bb 962d 1bbb
00000050: e6d6 853c 9e39 e23a 3d45 0b3b ceef da3a
00000060: 3176 0c3a 571b 953c f1f3 07bc f55c 62bb
00000070: 7340 0eb9 da43 a2bc f96a 1a3c 78ce 673a
00000080: 3e25 babc 527d 6dbf feba 2dbe eb4c d8bd
00000090: dc1d f8be 73d1 393f 7324 053f 913f 9ebd
000000a0: 8992 8d3a a6fc 483b e292 82ba 7894 2dba
000000b0: 0e3c 473c 24b6 56ba 4b7e 883a 9ea0 0b3a
000000c0: 34e2 16bf bba1 2ebf 257e 07bf 2472 0dbb
000000d0: 5df0 b3bd 3b6a 4f3e 3754 963e 2d7f aebc
000000e0: 5259 5cbe 620b 8f3e f708 b1be b411 05be
000000f0: 62f1 983e 656c 3b3f 6ecc 5d3e 782d d1bb
00000100: 7531 e1bd aa92 093e d704 883c 7b1d c03a
00000110: 921f 82be 6a22 e5be ac17 e7bc f0b8 4eba
00000120: 75af 3f3f 2a48 25be 3309 843d 185c f8bb
00000130: 4af8 80be 67c2 9f3f 40f6 dc3d 30e3 7ebd
00000140: 1959 e3bc 013a 2d3e f423 d53e 271f a13d
00000150: 1fff a2be 4211 013f 26f3 c0be 5df4 a2bc
00000160: a129 22be bb05 b03e f6a8 2b3c 5082 c639
00000170: 95aa 06be 8b9a 3d3e 3733 293d aa62 b9b8
00000180: aacc 713e ace4 653b a08d bcbd bcae 8b3a
00000190: c3c6 6a3d 8aec f93d 29a1 94be 4b38 2539
000001a0: aaf4 0e3d e648 37be 8903 45bb 51d7 34b9
000001b0: 3c58 5cbd 30a7 f4bd a53b 433c 25db 2838
000001c0: 31c8 e93b f1f6 98bd 0574 143c d327 d93b
000001d0: fbf6 873c 0306 d7ba 4eac 20bc aa33 61bb
000001e0: 9516 c13a 6a27 62be 479b 17bc 59fb 7cbb
000001f0: ac7f 313d 1aed 12be 86c3 a13c c488 843a
00000200: 94a8 893c 5ed7 a33a 6172 043b 29ca a439
00000210: dc91 24bc 2c94 86bc ed38 adba a390 2ab9
00000220: 9dcc 88bc d976 7f3e 4c65 db3c ce4a 023c
00000230: 8e54 9bbc 1840 9fbe 900c e0bc 3389 84bb
00000240: 4314 613e 4a72 c23e 3553 ed3e 5f04 fb3d
00000250: 5de3 8d3f e0ba 873e 2d83 7c3e 9969 25bc
00000260: 25cd 39bb d917 a23b 92d1 21bc 62fb 29bc
00000270: 20ed e5bc 0021 ba3c 44cd 593c 1657 bb3b
00000280: 04ed 9fbe 58cd b63c e8e5 df3c fdbd 063c
00000290: 0e10 e8bc 4884 413e 52c5 c13c 6934 86bb
000002a0: a59d 7bbe e5c0 32be 1f19 983d 3591 a03d
000002b0: d634 9f3f 1d9e bc3e f9a3 59be fb9a 3c3c
000002c0: 3abf 8d3c 1dfc 43be 7d45 283c 2c2f 843b
000002d0: 43be 7fbc 3b8b c23d 9a6a 6abd 8c4b 68ba
000002e0: a9a2 403e 65e4 bebd 27a2 5a3d c92e c83a
000002f0: 356e 3ebe 30ca 11be 4b38 15bd 9c12 9fb8
00000300: 8718 323e 4ba7 10bf 9bb1 bcbd 5f6f 463c
00000310: 451d 093f 75a2 4c3e a41f 5d3e 4a49 d63b
00000320: e81b 8cbd 9692 3dbd f3fa 98bc bdd6 4fbb
00000330: cdce c73e babf 1dbe 5aee 7f3c 25de 93b8
00000340: eb87 90bd 05f1 013e 0b30 16be eba5 96bc
00000350: d790 923e d311 8fbf 15f4 ef3e 657e 9b3b
00000360: f4fe f83d 7021 e5be 3472 81bc 7010 873a
00000370: 7cb5 a33e 120c 68be c36a b7bd 9262 26ba
00000380: 54dc d4bd a678 2e3e 2bb1 af3c 5196 633b
00000390: c4dc 47be 9a5d 8ebe edda 9fbc eaa3 45ba
000003a0: 1e3d 183c 466e 753c 0210 94bb 6ef8 83ba
000003b0: c689 7e37 c7c0 03bc 1998 dc3b 1593 f838
000003c0: 83e3 a53e f04f 853a 70e6 e73d 777e 303e
000003d0: 38ef a23e 2a70 35bf 7629 4d3f 06ad b43c
000003e0: 6b56 5abd 224e 8a3f 3d47 533d d649 15bd
000003f0: 5bd2 82bd 5154 2b3d 614c 0bbe 1b7d 963b

b4 f4 [8]
0.0069467835 -0.0077601783 0.0012623745 -0.00017246041 0.0007013753 -0.0075176917 0.008090346 0.002045795
00000000: d8a1 e33b 1849 febb 4276 a53a 7dd6 34b9
00000010: 80dc 373a f856 f6bb 5f8d 043c bf12 063b

w5 f4 [8, 1]
0.677728 0.954031 -0.42764688 -0.22844678 0.0500201 -0.5861726 0.52682704 0.11788903
00000000: 957f 2d3f 603b 743f 88f4 dabe f4ed 69be
00000010: e0e1 4c3d 680f 16bf 23de 063f ce6f f13d
