model_saved/2024-01-25-07-47-24/model_2024-01-25-07-47-53_epoch_6000_train_mse_1.89e-02_val_mse_2.42e-02.pt (torch, 17939 bytes, 9 tensors)

w1 f4 [8, 16]
00000000: 9b01 51be fe65 b93d 2e4c 823c e238 613c
00000010: 234a d63e e540 5ebd c176 f13e ff5a 863e
00000020: 17c1 2b3d aa46 34be 3044 22bf 32bd 9dbe
00000030: ed35 98bd 3219 88bc 97db 733d 9fc6 93bd
00000040: 5298 fe3e 63e5 2b3d 19e2 b3bc c827 f33b
00000050: 1290 97be c699 3abe 6288 253f 5c86 fd3c
00000060: f410 b03d 0b52 fbbe 6ec3 0bbf 1697 273e
00000070: ac86 0dbc f37d 1bbd 87b8 82bd 3de1 023e
00000080: a77e a93c 4f70 e83c aebe 20be e432 213b
00000090: 0fc8 1dbf 0819 cabd 3921 323e 3e70 c1bd
000000a0: 0436 5e3d 4527 4bbe 4b72 5dbe 4bbe 713e
000000b0: 1a7f a3bd 370e b3b9 26ca c03b b6d9 1d3d
000000c0: 3ed9 e1bc 786a cd3a 1c51 ec3b 7896 983b
000000d0: 2f29 f03e 6e5b f1bd 2996 4ebe f88c dabc
000000e0: 552f 833d e574 35be 1548 ef3e fa07 e0be
000000f0: 14c0 f4bd 4ab7 a13d d6a9 c3bc 0221 013d
00000100: 369a d13d a929 d73d a828 02be 4a59 cc39
00000110: 0ed0 a83f f363 5b3d 9321 933a 22ee 32bd
00000120: 4be7 5c3d 5c81 f5bd b181 a93d 3487 2cbf
00000130: bdd2 9e3d f609 90bd d9b3 8fbc d3af a13d
00000140: efbe b9bd f31d dfbd 5720 a1be 15c3 d4bb
00000150: 1de0 81bf 0af6 9cbe 5011 1dbe d9db 0dbd
00000160: eaf7 67bd 0cf8 d1be 5cc9 3abf 9b52 28bf
00000170: 7308 7c3d d8fd ef3d d9ec f73d 76ab a63b
00000180: d3b6 6fbd f929 de3c eca2 c9bd d76a 8eb9
00000190: d8db 803e 63f5 23be 1686 493d eff9 24be
000001a0: d78e 803d a77e 29be 645b b93e 1471 bbbc
000001b0: cebc e3bd bfff 9fbc ce82 7c3b 94b5 823b
000001c0: bc48 a63d b58a c2bb b26e 22bd 50df 303c
000001d0: 637a 5ebf 45c7 dc3d c292 403c e0e2 673e
000001e0: 2e75 0a3e bfb7 b3be 3092 a43c d05e b03e
000001f0: ef1d 32be 2b43 01be 6bbf 04bd 8fd5 ccbc
-0.20410769 0.090526566 0.015905466 0.013746472 0.41853437 -0.054261107 0.47160915 0.262413
0.04193219 -0.17605081 -0.63385296 -0.30808407 -0.074321605 -0.016613577 0.05953559 -0.07215618
0.49725586 0.041966807 -0.021958398 0.007420514 -0.29602104 -0.18222722 0.6466123 0.030947857
0.085969836 -0.4908603 -0.5459508 0.16366228 -0.008638065 -0.03796191 -0.06382852 0.12781234
0.020690275 0.028373865 -0.15697739 0.0024596984 -0.6163339 -0.098680556 0.17395486 -0.094452366
0.054250732 -0.19839199 -0.2162563 0.23607747 -0.07983227 -0.0003415213 0.005883473 0.038537703
-0.02756941 0.0015671989 0.0072118174 0.004656609 0.4690642 -0.11785017 -0.20174469 -0.026678547
0.06405512 -0.17720373 0.46734682 -0.43756086 -0.119506985 0.07896288 -0.023884695 0.03152562
0.102344915 0.10505993 -0.12710822 0.00038976438 1.3188493 0.053562116 0.0011225216 -0.043684132
0.053931516 -0.11987564 0.0827669 -0.67393804 0.07755039 -0.0703315 -0.017541813 0.07894864
-0.09069621 -0.10894384 -0.31469986 -0.006492982 -1.0146519 -0.30656463 -0.15338635 -0.03463349
-0.056632914 -0.41009557 -0.729635 -0.65751046 0.061531495 0.11718339 0.12105722 0.0050863577
-0.058523964 0.027119623 -0.09845528 -0.00027163952 0.25167727 -0.16011576 0.04920014 -0.16110967
0.062772445 -0.1655222 0.36202538 -0.022881068 -0.11119996 -0.019531129 0.0038530114 0.003988931
0.08119342 -0.0059369453 -0.03965635 0.010795429 -0.869055 0.10780195 0.01175374 0.2264514
0.13521263 -0.35101125 0.020089239 0.34447336 -0.17394231 -0.12623279 -0.032409113 -0.025004176

b1 f4 [16]
00000000: faaa 41be d5e4 5bbe dc0d 423e d679 13bc
00000010: 219f 11bf 2754 2e3f 0458 6c3d 56dd 173e
00000020: af85 393d 4bdf bd3e e8a5 833e 5d59 13be
00000030: a384 ffbd 5f9c 163f 45bf 1fbe 57a9 20be
-0.18912879 -0.21474011 0.189506 -0.009001216 -0.56883436 0.68097156 0.057701126 0.14830527
0.045293506 0.37084422 0.25712514 -0.14389558 -0.1247647 0.58832353 -0.15600307 -0.15689598

w2 f4 [16, 32]
00000000: f080 1d3c 71e4 ef3c a103 35bb 5f5d 193d
00000010: 85ee 953c d173 d43c fd44 483c fccd 95bb
00000020: f7c8 b4bd d46a a3bd b911 3d3c 9b21 8ebd
00000030: 9e05 9fbb b9f6 2cbc 20e5 34bd e32e 18ba
00000040: dfbc ec3c be10 40bc 9ff8 83bd f521 5cbd
00000050: e073 a5bc 18c2 1fbb 5975 5ebd 6534 eabc
00000060: f6e9 f9bb d572 45bc 8203 4abd 4faa 7c3c
00000070: 8cd3 34bd b66c 51bd 05b4 8ebc 641d 9cbc
00000080: e388 ae3b 136d 8bbb bb51 e3ba 18b1 1cba
00000090: 9f5a c63b 89f2 30bb 6d41 893b 1e0c e1ba
000000a0: 47a9 abbb 17a5 80ba 99ae cb3b 3f0a 90bc
000000b0: 2e5e 323b 73e4 a2bb 5bc0 f8bb a466 573b
000000c0: e1aa 2e3c e2cc ff3a 4e5c a6bb 2518 df3a
000000d0: a68f 16bc c641 07bb be97 03bc b634 02bc
000000e0: 7059 1d3c 912e 343c 8bd3 53bc 1e18 d3b9
000000f0: 37c9 ac3b 81f1 10bc b31f 593a 0baf 923b
00000100: 45b1 183c 35cc 2a3d f365 1fbc 499b e43c
00000110: ee87 0d3c 03df 023d 84d4 713c 1210 1ebc
00000120: a728 e03d 25e7 673e 426a 743c 298b 843d
00000130: d747 b0bb 2f20 eabc 5636 a3bd 318e 903b
00000140: 3a88 483d d2c5 21bc f58f 15be c94f 913b
00000150: 47c9 d6bc 460a 71bb 0ec2 12be 1e4e 2bbe
00000160: 9d1b ad3d 4ed0 c8bc 1321 32bd 7463 c23c
00000170: 8cb3 cebd eba5 62bd 45c2 a5bc be9b 41bb
00000180: ca7e a038 1d69 cb3a 12a1 9739 7e1b 1b3b
00000190: c860 64ba c8be a83a b04b 533a 6282 5db9
000001a0: 7183 b4bb ce6f b9ba 60e8 b839 6bb6 613a
000001b0: 7440 dab9 032a 1bb9 6540 28bb 4dd7 5c39
000001c0: 643e b63a 40c6 9338 c5e1 bebb 0ea6 c3bb
000001d0: 3cf5 76ba 48a6 a6ba 3fb1 cfbb 81a5 89bb
000001e0: d5c0 8abb c01b bcb8 db04 28bb 93e6 513a
000001f0: 14f3 06bc 80d2 19bb 7564 5eba 726f a5ba
00000200: 64df 4dbd 3424 273b 0fdc b638 473d 0b3e
00000210: 5e16 6dbb f40a 24be 3dcf 633c 25e9 1bbb
00000220: f939 42be 2107 03be 42da 103c 153c 143f
00000230: 91b3 0cbe 2805 2a3a 33fe 9fbd e854 993b
00000240: 5837 8ebe 0696 a93b c291 58be cd18 5e3e
00000250: 77b9 613d acd1 efbb 7b47 563e 2b51 9bbd
00000260: 78d8 12bf ed8d 1d3d a634 9bbb 512a 82bc
00000270: 799e c1be c7ae 6fbd 3298 aa3a a5d4 323d
00000280: 2d6a 4d3e 92f3 183e 9704 3e3b f04e 61bf
00000290: 1e2e 413d 2664 febe 1ab9 823d 7d05 9abc
000002a0: 4eb7 a03e 7324 a03d d65e 383d 1838 5fbe
000002b0: f6b4 6f3d 70f2 80bc 01c4 fabe b2bc 31bb
000002c0: b0f4 223f e70a 7dbc 487a 223d 7dcb 203f
000002d0: 731b bebe 5b99 683d 532c 793f 0a5d c7be
000002e0: 74ca 55be 6496 cdbc cfcf 3cbe 12c0 8dbe
000002f0: f93b 123f 59f1 b6be 1a17 223a 5984 05be
00000300: 862c e33b 8f7b 843d 79dc 22bc 017e 8f3d
00000310: 290c 343c e92f ca3d f96c 8aba b9dd 1bbc
00000320: 9f48 be3e 63ef bcbe 4df2 04bb b1af 94be
00000330: 5a83 f9bc 7708 e1bc fb1d cf3d 646b b1bb
00000340: b023 13be 245b 74bc 9726 0a3e 0305 8a3d
00000350: 4779 56bd 4ad0 67bb f1e2 3b3f 9eef 75be
00000360: 9060 78be fecf 6dbd 07e5 b3bc 0fae 383d
00000370: 242b 0a3e 2785 4fbc ffc3 f4bc fcdd 23bd
00000380: 2270 aa39 c8ff 9d3d 4b4d e6bb 0c7b 803d
00000390: bce6 2d3c db7d 683d 39d1 a23b 2190 2dbc
000003a0: ec86 84bd ad39 533c 440c d13a c128 8c3e
000003b0: 0910 5cbc af93 15bd e368 47bc d434 9ebb
000003c0: 44f2 32bc d687 5dbc ba10 a7bc 06b3 7dbd
000003d0: b8bd acbc fb84 95bb fdde 91bc 03de 913b
000003e0: 07d1 893c 6a7e 3fbd b501 9cbc 0723 313d
000003f0: f42f 7bbd 1ac2 6abd 6072 e1bc 199b 9dbc
0.009613261 0.029283734 -0.0027620571 0.03744256 0.018302212 0.025934132 0.012223479 -0.0045716744
-0.088273935 -0.0797936 0.01153987 -0.069400035 -0.0048529645 -0.01055687 -0.044163823 -0.00058053265
0.028898655 -0.011722742 -0.06443905 -0.05374332 -0.020196855 -0.0024377163 -0.05431113 -0.028589437
-0.0076267673 -0.012051304 -0.04931975 0.015421464 -0.04414706 -0.051129065 -0.017419824 -0.019056983
0.0053263768 -0.004254946 -0.0017343083 -0.0005977317 0.0060532833 -0.002700003 0.0041887076 -0.0017169749
-0.0052386853 -0.0009814826 0.006215882 -0.01758301 0.002721678 -0.004971081 -0.00759129 0.0032867575
0.010660858 0.0019516016 -0.0050769215 0.0017020745 -0.009189522 -0.002063857 -0.008031784 -0.007947138
0.009603843 0.01099743 -0.012928854 -0.00040263025 0.00527301 -0.0088466415 0.00082826166 0.004476433
0.009319608 0.041698653 -0.009728896 0.027906077 0.008638365 0.03195096 0.01476014 -0.009647386
0.10945254 0.22646768 0.014917912 0.06471855 -0.0053796577 -0.0285798 -0.07969348 0.004411482
0.04895804 -0.009873824 -0.14605696 0.00443456 -0.026219023 -0.0036779805 -0.14331838 -0.16729018
0.084525324 -0.02451339 -0.043488573 0.023729064 -0.100928396 -0.055334013 -0.020234236 -0.0029542292
7.653011e-05 0.0015518997 0.0002892097 0.002366751 -0.00087119313 0.001287424 0.00080602895 -0.00021124774
-0.005508833 -0.00141477 0.00035268348 0.0008610251 -0.00041628222 -0.00014797602 -0.0025673148 0.00021061041
0.0013904092 7.046433e-05 -0.0058252537 -0.005970723 -0.0009420698 -0.0012714351 -0.006338268 -0.004200638
-0.004234413 -8.9697074e-05 -0.002563766 0.00080070755 -0.008236665 -0.0023471415 -0.0008483597 -0.0012621714
-0.05026187 0.0025503756 8.7194254e-05 0.13597594 -0.0036176662 -0.16019803 0.01390439 -0.0023790088
-0.18967427 -0.12795688 0.008841099 0.5790418 -0.13740374 0.00064857537 -0.078121565 0.004679311
-0.277766 0.005175355 -0.21149352 0.21689148 0.055108514 -0.007318696 0.20925705 -0.07583841
-0.57361555 0.03846543 -0.004736501 -0.015889319 -0.37816218 -0.05851629 0.0013015328 0.043659825
0.20060034 0.14936665 0.0028994435 -0.88011074 0.04716312 -0.49685782 0.063829616 -0.018801445
0.3138985 0.07819452 0.045012318 -0.21798742 0.058522187 -0.015740603 -0.48977664 -0.0027120528
0.63654613 -0.015444494 0.039667398 0.628105 -0.37130317 0.056786876 0.9733326 -0.3893817
-0.20878011 -0.025096126 -0.18438648 -0.276856 0.5712276 -0.3573101 0.0006183252 -0.13038768
0.006932798 0.064688794 -0.00994026 0.07006455 0.010989227 0.098724194 -0.0010561041 -0.009513312
0.3716478 -0.36901388 -0.0020286024 -0.29040292 -0.030458141 -0.027469857 0.1011314 -0.0054144133
-0.14369082 -0.014914308 0.13491283 0.06739237 -0.052361753 -0.0035371953 0.7339316 -0.24017188
-0.24255586 -0.058059685 -0.021959795 0.04508787 0.1349302 -0.012666023 -0.029878614 -0.040006623
0.00032508472 0.07714802 -0.007028257 0.06273469 0.010614093 0.05676065 0.004968789 -0.010593445
-0.06471047 0.012892169 0.001594909 0.27374843 -0.013431557 -0.036517795 -0.012171003 -0.004828075
-0.010922018 -0.013521155 -0.020393718 -0.06193831 -0.021086559 -0.0045629716 -0.017806524 0.0044515147
0.016823305 -0.046751417 -0.019043783 0.043246295 -0.06132503 -0.057314016 -0.027520359 -0.019238995

b2 f4 [32]
00000000: c303 c9bc dcd0 6a3d 7471 17bc 18af c53b
00000010: 06f7 4d38 47b7 8b3d beb5 d2bb 8be7 3839
00000020: d2f7 97bd 53c2 2f3e 9e59 0abb 186e 1e3d
00000030: 058e a1bc c098 acbb 7919 20bd ce01 513a
00000040: 6714 163e ea59 10bb 0ed7 a7bd a0e6 803d
00000050: 17e9 5cbd 4930 80bb 5baa 3cbd d312 dc3d
00000060: 8374 6a3e 2aa9 8ebd 5e6c 0abc c0c1 7a3d
00000070: a516 113b 435a 32bd 1388 55bc 6890 b4bc
-0.024537927 0.05732809 -0.009243358 0.0060328357 4.9105867e-05 0.06822067 -0.0064303568 0.00017633864
-0.07420315 0.17163973 -0.0021110545 0.038679212 -0.01972104 -0.0052672327 -0.039086793 0.0007972986
0.1465622 -0.002202625 -0.08195315 0.06293988 -0.05393323 -0.003912006 -0.0460609 0.10745778
0.22896008 -0.06965859 -0.008448688 0.06121993 0.0022138741 -0.04354311 -0.013032931 -0.022041515

w3 f4 [32, 64]
00000000: a9a5 b8bb 9558 3dbb c156 8f3a 19d5 66bb
00000010: 7696 7c3b bbc0 ffbc 018c 283c 38d6 8fbc
00000020: 4f47 823a 6228 c5bb b5d4 cb3b e094 1abc
00000030: 939a 67bb 8a75 453c b3b5 ea3b a642 223c
00000040: f31a c93b a845 e4bb 17db 41bc f444 9eb7
00000050: 5b9c d53b a9ce 8f3b c58e 8a3b e0c9 3b3b
00000060: 4e8a b439 d657 133c bac6 0f3b 0615 b53c
00000070: 7970 3bbb 2383 85bb 8e6c c6bb 3cbb fcbb
00000080: cff2 f73a 995d c6b7 3f37 1ebc 2771 ef3b
00000090: 237a 25bc cd30 063a 4e33 2ebb fa47 3539
000000a0: 7b30 71ba 969b e53c 38b0 1abc fd12 a4bc
000000b0: 9b9e 53ba d49f 9bbb 2781 fe3b 205c 2bbb
000000c0: 3aec 043b d3ca 65bb 8892 613c af44 0d3b
000000d0: 41c4 c73a 3235 4a3c 4a65 073b 4f2e 27ba
000000e0: 5b0b 3fbc a650 5ebb 17d3 523b 82d9 b2ba
000000f0: 231e 16bb 8356 013b 9c10 763a e9cc 933a
00000100: abf2 993c ec5e 78ba a1b6 063a b0f3 b8ba
00000110: d895 62bd 4142 a33c b476 eb3c 400e f6bb
00000120: b72c 07bc 0915 92bd eba3 9e3c e1a5 6bbb
00000130: 5333 7fba de75 4f3b 51e7 793b a977 923b
00000140: a2b9 213b b86d 4fbc 64a2 a13c d1d3 263b
00000150: 32ea 38ba 8114 103c cfdf 0e3b 39ae 7bbb
00000160: a573 993c 9e4b c43b dd2b eabe 79b6 013c
00000170: 9dd9 ccbb aec1 95ba a0cc 563d 8903 4a3d
00000180: 0a88 9a39 1bd0 e0bb f4f9 9cbb 4ca5 493e
00000190: efb1 24bb 8046 d23a 4635 69ba 981b 65b9
000001a0: a35b 82bd d4ae 173c 17ad ddbc 42f2 22bc
000001b0: b2f0 05ba 3c72 5cbb 726a e53a 441f 463e
000001c0: 31a9 883a 881b 8cba 0a8c 0a3c 2d55 0c3a
000001d0: f278 8a3a 358d c739 727c 4ebd 117f 14ba
000001e0: ce09 79bb e3be 4cbe 7978 cc3a f340 2dbc
000001f0: 144b 193e f2b1 1f3b 2c53 3b3a f2cf 823b
00000200: 1c3e 673b e631 83ba f153 0c39 8da7 98b9
00000210: 8177 ecbb 9e89 5abb 1de7 d7b8 36a9 1fba
00000220: 5fe9 8439 8447 1bba 46c9 693a 0e84 2bba
00000230: bca6 63b9 4374 083a 9ed3 7f39 6a1d 4f3a
00000240: 3d6f 553a 4286 ceb9 2f23 cfba 3606 9b39
00000250: 3fae 9a3a 8867 98ba 62f2 8f3a f5e9 86b9
00000260: 49e6 9139 a1aa 22ba 9ec7 bd3b 5f51 cc39
00000270: 0a07 f8b9 cdf4 8ab9 4250 f43a 5bc5 b23a
00000280: 34d6 d638 8e93 bc38 3f37 3bba c029 f6bb
00000290: 1fde 2bbb 6d6d a8b8 ec35 c6b7 c85d be36
000002a0: 34c2 aa38 4cf2 dd3a b315 3bbb 0683 6bba
000002b0: 98d5 04b9 d517 68b9 fbdb 9bba 0da3 b438
000002c0: a79f f9b8 e9bb a5b9 7539 84bb 9dc1 1d39
000002d0: 37fe 3f39 f9bd 883a c5da 9439 163c 29ba
000002e0: ca17 8bb9 6661 293c aef3 a139 7ed9 ea3a
000002f0: f595 373a 94f0 8f3a f9d2 4239 1a74 393a
00000300: 0969 31be d2af f53b b584 d7ba df49 923c
00000310: fae6 d6be 4a67 f7bd 52b4 ca3d 3897 303d
00000320: 592d 4f3b d4d5 91bc 5aa6 1ebd fc4f 883b
00000330: 2e3b 323c 8a11 91bc c6fa f9bc eebc d9ba
00000340: fada 043b b4e6 8abe 37e6 39bd ff11 963b
00000350: eee6 f63d fadc 3fbd c173 d13b 1d45 47bc
00000360: b256 b9bd 9abc e6bd 7cde 3a3e a7a8 e1bc
00000370: d4bf 3abb 6909 783c cdea 583d a29e d2bd
00000380: dfee 83bc 4701 1c3d 9c8d 5c3c da7c 0c3f
00000390: 6442 e4bd 15bc f3bc 5b3d 923c 774a 9ab9
000003a0: 9170 8e3e 317e dfbd fde8 973d d0a0 543c
000003b0: 18c5 673a 960e d63b db2f 06be 8c53 9fbe
000003c0: eec1 cbbb 7a0e 663c dab3 2b3e 942f 393b
000003d0: 7ed5 c53c 6687 d23b d4cc 823e f508 173d
000003e0: 3fa7 03bb 0f84 a3be 1b3d c0b9 e447 e63d
000003f0: b418 583e 324a 8ebb 8b8a 57bc d824 ef3d
-0.0056349826 -0.002889191 0.0010935889 -0.003522223 0.003854183 -0.03121983 0.010287286 -0.017558202
0.0009939465 -0.006016777 0.006220425 -0.009434909 -0.0035339936 0.012051949 0.0071627735 0.009903586
0.006137246 -0.0069663115 -0.01183202 -1.8867177e-05 0.006518883 0.0043886495 0.0042284452 0.0028654262
0.0003443532 0.00899311 0.0021938519 0.022104751 -0.0028600974 -0.0040744706 -0.006055421 -0.0077127498
0.0018916967 -2.3647024e-05 -0.009656726 0.00730719 -0.01009992 0.0005118966 -0.0026580873 0.00017288318
-0.00092006446 0.02802829 -0.009441428 -0.020028586 -0.0008072645 -0.0047492776 0.007766861 -0.002614744
0.0020282404 -0.003506352 0.013767846 0.0021555831 0.0015240983 0.012341784 0.0020659738 -0.0006377445
-0.011660422 -0.0033922582 0.0032169276 -0.0013645145 -0.0022906146 0.0019735403 0.000938663 0.0011276278
0.01879247 -0.00094745937 0.0005138908 -0.001411071 -0.055318683 0.019929053 0.028743125 -0.007509023
-0.008250407 -0.071329184 0.019365272 -0.0035957026 -0.0009735126 0.0031655948 0.003813226 0.004469831
0.0024677296 -0.012660436 0.019730754 0.0025455842 -0.0007053941 0.008793951 0.002180088 -0.0038403405
0.018731901 0.0059904596 -0.4573659 0.00791704 -0.0062515275 -0.0011425519 0.05244124 0.049319778
0.00029474526 -0.0068607456 -0.004790539 0.19691962 -0.002513047 0.0016042739 -0.0008896183 -0.00021849421
-0.063651346 0.009257991 -0.027060075 -0.009945454 -0.0005109414 -0.0033637425 0.0017503037 0.19347864
0.00104264 -0.0010689357 0.0084562395 0.00053532684 0.0010564609 0.00038061445 -0.05041165 -0.00056646863
-0.0038000229 -0.19994693 0.0015599868 -0.010574567 0.14970046 0.0024367538 0.00071458775 0.003992074
0.0035284823 -0.0010009378 0.00013382711 -0.00029116534 -0.0072163944 -0.0033346186 -0.00010295047 -0.0006090583
0.00025350877 -0.00059234374 0.00089182367 -0.000654281 -0.0002171052 0.00052053126 0.00024397529 0.00079008064
0.0008141881 -0.00039391412 -0.0015803332 0.0002956853 0.0011801197 -0.0011627534 0.001098227 -0.00025732783
0.0002782813 -0.0006205235 0.0057916185 0.00038970538 -0.0004730749 -0.00026503802 0.0018639641 0.0013639139
0.000102442136 8.992023e-05 -0.0007141716 -0.007512301 -0.0026224924 -8.0312464e-05 -2.3628549e-05 5.673359e-06
8.142405e-05 0.0016933172 -0.002854687 -0.00089840626 -0.00012668071 -0.00022134122 -0.0011891121 8.6134394e-05
-0.00011902983 -0.00031611256 -0.0040351697 0.00015044813 0.00018309882 0.0010432593 0.00028391756 -0.0006455792
-0.0002652987 0.010338163 0.00030889869 0.0017917601 0.00070032413 0.0010981732 0.00018579875 0.00070744904
-0.17325224 0.007497766 -0.0016442748 0.01785749 -0.41973096 -0.12080248 0.098976746 0.043112963
0.0031612723 -0.017802157 -0.038732864 0.0041599255 0.010878367 -0.017708559 -0.030515086 -0.0016612092
0.0020272122 -0.27129138 -0.045385566 0.004579782 0.12055765 -0.0468416 0.006391973 -0.012162474
-0.09049739 -0.11266442 0.18248934 -0.02754624 -0.0028495686 0.015138962 0.0529583 -0.10284163
-0.016105114 0.038087156 0.013461497 0.5487801 -0.111454755 -0.02975277 0.017851522 -0.0002942865
0.27820256 -0.10912741 0.07417486 0.012977794 0.000884132 0.0065325005 -0.13104193 -0.3111843
-0.0062181866 0.014041537 0.16767827 0.0028257119 0.024149653 0.006424832 0.25546896 0.036873776
-0.00200887 -0.3193669 -0.0003666662 0.11244181 0.21103173 -0.004342341 -0.01315559 0.11676949

b3 f4 [64]
00000000: 3c09 e8bc e808 29bc 8a15 03bb e25e 78bc
00000010: 82e6 a739 9d54 b7bc 9cc5 9d3c 757f c7bc
00000020: b91d b4bb 0c18 0a3c 6697 9a3c f987 cabb
00000030: 1b0d 04bc ffb3 9b3c c849 533d b96d 393c
00000040: fead be3a ca30 2fbc f872 56bc a6bc 61bb
00000050: 8475 d03b 515a f63c 2a7a 123c 2e8b 423b
00000060: 7cc1 863c f570 da3b 1054 23bc edf3 0f3d
00000070: d138 e5bb be16 39bc 6f9e a8bc 2860 00bd
00000080: 670b 313c 0ad3 263b 1d09 4bbc d190 523c
00000090: 0d1f c1bc 4a38 f7bb ac47 babb 7677 efba
000000a0: 542f 58bc ff7b 853d 1144 96bb c1d5 99bb
000000b0: 8091 0d3b d7aa 06bd d77c dd3c 5efb eb3b
000000c0: 8475 853b afd5 a5bb 7d8f ef3c add8 643b
000000d0: def1 773b 9f22 c13c 9968 6abb 7cb6 253c
000000e0: 16b6 4ebc 4b9e a6bc 1acf 133c e8d7 c23a
000000f0: 7ffd a2bd 6416 77bb c7a7 cf3c a61f d43a
-0.028324716 -0.010317065 -0.0020001852 -0.015159341 0.00032024464 -0.022379214 0.019259267 -0.024352768
-0.0054967073 0.008428585 0.01887102 -0.00618076 -0.008059765 0.019006727 0.051584035 0.011317664
0.0014547703 -0.010692785 -0.013088934 -0.0034444719 0.006361665 0.030072363 0.008940259 0.0029685008
0.016449682 0.0066662976 -0.0099687725 0.035144735 -0.0069952984 -0.011296926 -0.02058336 -0.0313417
0.010805941 0.002545538 -0.0123923095 0.01285191 -0.023574376 -0.007544552 -0.0056848135 -0.0018269855
-0.013194878 0.06517791 -0.004585751 -0.004694671 0.0021601617 -0.03287777 0.027037067 0.007201596
0.004072847 -0.0050608735 0.029243225 0.0034919188 0.0037833373 0.023576079 -0.0035767911 0.010114308
-0.012616655 -0.020339152 0.009021545 0.001486537 -0.07958507 -0.0037702555 0.025348557 0.0016183748

w4 f4 [64, 8]
00000000: bcc4 8a3e a0fa ba3e 69c5 7ebd a008 453d
00000010: d329 a7be 90c7 8bbe ac63 2c3e 7648 0cbd
00000020: 8d46 d83e edbc bdbe 01b9 b93c 64ac 623e
00000030: 065d 923e 4632 c9be 8202 a03e abf9 ddbb
00000040: 38a5 f0bb 39df b4bb 5327 09bb a53f 193b
00000050: 1173 103c 8733 853b e9ee 0dbb bd64 1abb
00000060: ec16 a33b 1140 a73c f1da 34bc 1abd cabb
00000070: 0216 983a 0165 9ebc 080c 473c 9339 5b3b
00000080: 77b3 f4bc 6835 6dbf 5a0c 21be 7e2b bcbd
00000090: 4924 ddbe 040d 393f f69b 003f 3bb2 a1bd
000000a0: 379f a53d 4d05 a13d 86a2 b4bd 4559 7bbd
000000b0: 1ae8 023c defd 5bbd c0cc b73d eca9 5e3d
000000c0: ef35 0dbf 506c 26bf 3736 07bf cbf3 d7bc
000000d0: 1234 93bd 8089 3e3e 0865 9c3e caaa 593b
000000e0: 339b 46be 44db 893e 80b4 9cbe 1423 d4bd
000000f0: c0f7 863e 15e0 2e3f 40d8 4b3e 00f9 8239
00000100: 5e0f b9bd 2b8c f73d a991 263c c35a 71ba
00000110: 897a 54be 6e05 c6be 7c65 a6bc 5453 933a
00000120: c645 3d3f d13d 17be bf48 473d 195b a4bc
00000130: 38bb 54be 6c1e 9b3f d1ce ed3d 8946 29bd
00000140: 49f2 8abc 7388 333e 0542 c53e 288b 753d
00000150: 5ddb 88be b417 f93e 2029 b4be de28 e4bb
00000160: 587b e8bd 3e0a 893e 9ae1 073c 35eb 233b
00000170: 6d57 d6bd a831 103e c0ca 9f3c 4aff adba
00000180: f6ce 483e 696d 0b3c f59e 86bd b335 a8bb
00000190: 88f3 4d3d 2529 cb3d 8566 4bbe d0ac 6d3b
000001a0: 0ead 7f3c b5e8 0fbe aef1 c23b dc90 8c3b
000001b0: 84ed 27bd 189d a6bd f1cc b4ba 93fa d5ba
000001c0: 5024 0e3c 9dbd 8ebd e20e c43b 2325 4d3b
000001d0: 2e5e 273c 6dc1 51bb 66eb dfbb a56b 22ba
000001e0: fbcc eb3a acd6 4abe be64 efbb 7074 1fbb
000001f0: 5f82 c23c 405b 00be 026c 833c 326b 4c3a
00000200: c00c 58bc 412c b8bc 84ef b83c e5a5 753c
00000210: 5115 f2bb 7c47 5c3b 4c5a bfbc 0893 e4bb
00000220: b332 4fbb 01a8 7c3e 0eca 1d3c 0235 e8bb
00000230: 29b1 c2bb 21c0 97be 002c 39bc 9e5a 003c
00000240: b45f 4d3e 8e00 b93e eeb8 e33e ec1f f23d
00000250: 45b8 803f 4251 853e 2692 643e 71f6 95bc
00000260: 25f8 4fbb 2173 7a3b c30c 05bc 6a11 f2bb
00000270: 9a2a 78bc fd8f bb3c e1b2 383c 9ef5 603b
00000280: 4d35 87be 47d8 283d 7a19 4eba 0c07 8cbc
00000290: 9fe3 5dbc 7476 283e 64fd 343d 683c 883c
000002a0: 654e 74be d048 33be 4b5b 9b3d 2a80 923d
000002b0: afa3 8b3f bcb7 b43e 24c9 4fbe 3b30 f7b9
000002c0: 43fb 3c3d ac9f 13be 7d0e cbbc 9fab dbbc
000002d0: 0ca2 c3bb 8334 8a3d 69a3 6dbc eea9 b03c
000002e0: f76e f93d 801e a8bd ea05 193d ba7a ec3b
000002f0: 89b2 16be 8f0c cdbd 9e04 00bd efcf 7bbb
00000300: 6216 053e a1b5 11bf fa9c 3ebd 584c 333d
00000310: 6431 d23e f814 513e ed80 273e d6e9 cabc
00000320: b4eb d5bd 6bab acbd 7559 413d 9e87 313d
00000330: d8ca a73e 56f5 cebd 7995 3fbd e169 e9bc
00000340: 574b b3bd ba49 d73d 3e8b e8bd 7396 c83b
00000350: 4bbf 713e ab67 88bf 45b0 d63e c301 78bc
00000360: 52b7 bf3d c575 cfbe 8c92 2fbb 5141 043c
00000370: 1158 7c3e 325e 48be d990 a0bd b910 d9bb
00000380: 40b2 bdbd 7110 153e 14cf b03c 8388 e83b
00000390: a3c1 07be 7a92 71be 9550 acbc fcc9 86bb
000003a0: b056 3d3c 08fb 873c 3d29 f1bb a4e5 80bb
000003b0: 6b81 463a 0625 08bc 7fb6 143c 7a2b 0d3b
000003c0: 819f 953e 9397 89bc bab6 023e 87f4 303e
000003d0: 619d 913e 450e 2dbf 7b60 3d3f 8fa7 acba
000003e0: fb4b 6fbd 4dd3 813f 225f 613d c1ab 8bbc
000003f0: 1f29 59bd 1ca8 3f3d 3636 07be 7c70 a2bb
0.2710322 0.36519337 -0.062199984 0.04810393 -0.32649097 -0.27300692 0.16834897 -0.03424879
0.42241326 -0.370582 0.022671225 0.22136074 0.28586596 -0.39296168 0.31251913 -0.0067741475
-0.0073439144 -0.0055197743 -0.002092798 0.0023383882 0.0088164965 0.0040649804 -0.0021657294 -0.002355858
0.0049770977 0.020416291 -0.011038528 -0.0061870934 0.0011603239 -0.019335272 0.012148865 0.0033451065
-0.029870732 -0.92659616 -0.15727368 -0.09187983 -0.43191746 0.72285485 0.5023798 -0.07895323
0.080870084 0.07862339 -0.088200614 -0.06136443 0.007989908 -0.053708903 0.089746 0.05436127
-0.5516042 -0.6500902 -0.528171 -0.026361367 -0.07187666 0.1860714 0.3054583 0.003321337
-0.19395141 0.269251 -0.3060646 -0.10358253 0.26360893 0.6831067 0.19906712 0.00024981052
-0.09036134 0.12087282 0.010166564 -0.0009206945 -0.20749868 -0.38676018 -0.020312063 0.0011240044
0.7393459 -0.14769675 0.04865336 -0.02006297 -0.20774543 1.2118659 0.11611713 -0.041327033
-0.016961234 0.1753252 0.3852693 0.059947163 -0.2672986 0.48650897 -0.35187626 -0.0069628796
-0.11351651 0.26765627 0.008293534 0.002501202 -0.10465894 0.14081442 0.019505858 -0.0013274935
0.196102 0.008509972 -0.065732874 -0.0051333546 0.050281078 0.09919957 -0.19863327 0.0036266334
0.015605224 -0.14053614 0.0059492206 0.0042897295 -0.040997997 -0.08135432 -0.0013793987 -0.0016325287
0.00867565 -0.069697596 0.0059832195 0.0031302653 0.010215325 -0.003200616 -0.0068334816 -0.000619585
0.0017990166 -0.19808453 -0.0073057106 -0.0024330877 0.023743806 -0.12534809 0.016042713 0.0007797956
-0.013186634 -0.02248204 0.022575147 0.014993166 -0.007387795 0.0033611944 -0.023358487 -0.0069755353
-0.0031615912 0.24673463 0.009630693 -0.007086397 -0.0059415293 -0.2963877 -0.011301994 0.007834105
0.20056039 0.36133236 0.44477028 0.11822495 1.0056235 0.26038557 0.22321376 -0.018305989
-0.00317336 0.0038215595 -0.008120718 -0.00738733 -0.015146876 0.022895807 0.011273117 0.0034326087
-0.26407853 0.041221883 -0.00078620727 -0.017093204 -0.013543039 0.16451436 0.044186965 0.016630366
-0.2385803 -0.17508245 0.07585772 0.071533516 1.0909327 0.35296428 -0.20291573 -0.00047147446
0.04613806 -0.14416379 -0.024787182 -0.026815234 -0.005970245 0.06748297 -0.014504292 0.021565404
0.12179368 -0.082089424 0.037359156 0.0072167786 -0.14716543 -0.10012161 -0.031254403 -0.0038423499
0.1299682 -0.5691777 -0.046536423 0.04377398 0.41053307 0.20418155 0.16357775 -0.024769705
-0.104453474 -0.08431133 0.047204453 0.043342225 0.32771945 -0.10105388 -0.046773408 -0.02849287
-0.08754604 0.10512109 -0.11354683 0.0061214506 0.23608129 -1.0656637 0.41931358 -0.015137139
0.093611374 -0.4051954 -0.002679023 0.008072213 0.2464297 -0.19567183 -0.078401275 -0.006624308
-0.09262514 0.14557053 0.021583118 0.0070963516 -0.1325746 -0.23591033 -0.021034518 -0.004113434
0.011556312 0.016599193 -0.0073596523 -0.0039336253 0.00075723854 -0.008309608 0.009076714 0.0021540807
0.29223254 -0.016795909 0.12765017 0.1728078 0.28440383 -0.675999 0.7397534 -0.0013172495
-0.05842207 1.0142609 0.055022366 -0.017049672 -0.05301773 0.04679118 -0.13204274 -0.004957257

b4 f4 [8]
00000000: 068a bebc 17bd 12bd 5edb 043d d4bb f73c
00000010: 495e 38bc b132 3b3c 8099 c4bc ac9f c2bc
-0.023259174 -0.03582486 0.032435767 0.03024093 -0.011252948 0.01142566 -0.023998976 -0.023757778

w5 f4 [8, 1]
00000000: e1b5 233f 9f38 4d3f 593e d5be 4dcf 56be
00000010: 441e 393d 8af2 85be 9eec f53e e078 e63d
0.639494 0.8016452 -0.4164913 -0.20977516 0.04519488 -0.26161605 0.48032087 0.11253524
