model_saved/2024-01-25-07-47-24/model_2024-01-25-07-48-03_epoch_8000_train_mse_1.82e-02_val_mse_2.42e-02.pt (torch, 17939 bytes, 9 tensors)

w1 f4 [8, 16]
000000 d3 d3 17 be f9 e2 41 3d 48 0e 7e 3c 80 5d dd 3b
       -0.14826898 0.0473356 0.015506335 0.006755531
000010 ad cc c2 3e 49 ce 50 bd 09 89 df 3e 8c 3f 43 3e
       0.3804678 -0.05097798 0.43659237 0.1906721
000020 b3 e4 f5 3c 62 a9 26 be b9 ae 0e bf cb fe 91 be
       0.030016279 -0.16275552 -0.55735356 -0.28514704
000030 44 75 80 bd bc b5 88 bc 71 b3 44 3d 9d 87 05 bd
       -0.06272367 -0.01668822 0.04802269 -0.032600034
000040 81 0d c1 3e f2 2b e0 3c ea a1 63 bc 03 39 95 3b
       0.37705615 0.027364705 -0.013893584 0.0045539155
000050 a1 8a 85 be 2b 72 39 be d6 f5 17 3f 4c 24 c9 3c
       -0.26082328 -0.18109958 0.5935949 0.02455344
000060 af 15 a6 3d 1e 54 e6 be ed e9 f9 be 2a b2 1e 3e
       0.081096046 -0.4498605 -0.48811284 0.15497652
000070 85 e5 b6 bc 73 2a 40 bd 4b f9 5e bd 8e d7 8f 3d
       -0.02232624 -0.046915483 -0.054436963 0.07023536
000080 75 da 70 3c ad 1b 68 3c 17 37 03 be db 19 6f 3a
       0.014700522 0.014166755 -0.12813984 0.0009120979
000090 30 74 0d bf 4c b5 be bd 8e bf 24 3e 4a 40 8f bd
       -0.55255413 -0.093119234 0.16088697 -0.06994684
0000a0 2b 9a 28 3d cd b5 3c be d5 7b 41 be 05 6b 64 3e
       0.04116265 -0.18428726 -0.18894894 0.2230645
0000b0 27 28 8b bd 37 09 be ba 61 dc 0f 3c e2 a1 a8 3c
       -0.06794768 -0.0014498596 0.00878057 0.020585004
0000c0 1d 05 ad bc fd 35 1b 3b 95 ea 05 3c 43 09 08 3b
       -0.021120602 0.0023683303 0.0081736045 0.0020757474
0000d0 d5 43 db 3e ab 6c e2 bd d6 8d 41 be 8a ca a3 bc
       0.4282519 -0.11055883 -0.18901762 -0.01999404
0000e0 14 7e 47 3d 16 f3 28 be 4b 62 d7 3e 11 c9 d0 be
       0.04870422 -0.1649898 0.4206718 -0.40778401
0000f0 ad fc cf bd c4 0d 97 3d 63 4e 4d bc f1 09 8e 3c
       -0.10155616 0.073756725 -0.012530896 0.017338725
000100 52 82 9f 3d 49 12 4b 3d 8e 31 d4 bd bb 14 af 38
       0.077885285 0.049577985 -0.10361014 8.3485116e-05
000110 05 92 99 3f e7 63 44 3d 05 32 d7 ba 2c ed 03 bd
       1.1997687 0.047946837 -0.0016418105 -0.032208607
000120 fe 2e 37 3d 32 df df bd b0 eb 9a 3d 8c 4e 21 bf
       0.04472255 -0.10931243 0.07564485 -0.6301048
000130 33 d1 87 3d 80 fd 8e bd b1 17 40 bc 0d 31 24 3d
       0.066316985 -0.06981945 -0.0117243985 0.04008584
000140 c0 ad ac bd 80 78 7b bd a5 74 88 be 97 b3 aa bb
       -0.08431578 -0.061394215 -0.26651493 -0.005209397
000150 ab 90 6c bf b3 89 91 be f4 60 0e be 42 49 ea bc
       -0.92408246 -0.2842537 -0.13904172 -0.028599385
000160 86 56 86 bd c2 f6 c8 be c4 78 26 bf 13 2d 1e bf
       -0.06559472 -0.3925076 -0.65028024 -0.6178753
000170 0f 22 99 3d 7b 8c f5 3d 54 4f df 3d eb 47 bc 3b
       0.07477199 0.11989685 0.109038025 0.005745878
000180 e0 2f 55 bd 45 b8 29 3c 94 32 a2 bd eb 8f 9b ba
       -0.05204761 0.010358875 -0.07919803 -0.0011868452
000190 8f 7e 6a 3e 92 69 12 be bd 3b 45 3d 92 3a f0 bd
       0.22899841 -0.14298084 0.048152674 -0.117299214
0001a0 dd df 1a 3d f8 c7 20 be 5a bd a7 3e 1c bf 9c bc
       0.03781115 -0.15701282 0.3276165 -0.019134097
0001b0 94 8a ac bd e4 23 57 bc 79 4d 6e 3c 62 2d 9a 3b
       -0.08424869 -0.013131116 0.014544838 0.004705117
0001c0 b9 2e 9a 3d f0 81 17 3b 66 5e f0 bc e2 d1 da 3b
       0.07528443 0.002311822 -0.029341888 0.006677852
0001d0 57 1e 49 bf 1f 38 bc 3d b0 92 82 3b cc 13 31 3e
       -0.7856192 0.09190392 0.0039847717 0.17292708
0001e0 28 e3 fc 3d ec eb a4 be fd bd 70 3c 78 f2 a6 3e
       0.12348014 -0.32211244 0.014693734 0.32606864
0001f0 9a bc 2c be 14 ed 04 be 03 e9 00 bd 7e f6 29 bc
       -0.16868821 -0.12981063 -0.031472217 -0.01037371

b1 f4 [16]
000000 6a fc 25 be 9d 87 0e be fa ba 33 3e 50 4f e8 bb
       -0.1620957 -0.1391892 0.17551795 -0.007089533
000010 c6 52 09 bf 3e ed 28 3f d0 74 5e 3d f8 ab 02 3e
       -0.5364193 0.65987 0.05431062 0.12760913
000020 bb 79 16 3d 19 b0 b8 3e d7 64 7c 3e c4 62 0c be
       0.036737185 0.36071852 0.24647842 -0.13709551
000030 98 a6 eb bd d0 c1 11 3f 38 14 05 be 78 fe d5 bd
       -0.115063846 0.5693636 -0.12995994 -0.10448927

w2 f4 [16, 32]
000000 43 64 9b 3b 64 0a 31 3c c0 c7 f1 b9 12 14 a7 3c
       0.0047421767 0.0108057 -0.00046115927 0.020395312
000010 3c d6 de 3b d2 6f 37 3c e0 70 96 3b 2b 24 68 ba
       0.006800441 0.011196094 0.0045910925 -0.0008855487
000020 34 f4 c1 bd 5d 03 5c bd 61 c1 d4 3b 47 8e 75 bd
       -0.09470406 -0.053714145 0.006492779 -0.05995014
000030 85 76 0e bb 7b 2e 86 ba df 4c bb bc 5d 8b 1c 39
       -0.0021738124 -0.0010237241 -0.022863803 0.00014929236
000040 81 4e 99 3c 35 88 9c bb 7e c5 57 bd 50 c2 16 bd
       0.018714191 -0.0047769793 -0.052678578 -0.036806405
000050 03 94 2a bc 67 c4 95 ba 5e 9e 5f bd ae 2e cc bc
       -0.010411265 -0.001142633 -0.05459439 -0.024924602
000060 13 f6 fe bb 71 ea 30 bb 88 dd 1f bd c6 89 db 3b
       -0.007780799 -0.0026995207 -0.039029628 0.0066997735
000070 73 4f 0f bd a9 fa c5 bc 20 f9 ed bb 2f f0 3b bc
       -0.034987878 -0.024167376 -0.007262364 -0.011470838
000080 d1 6f 29 3b 89 a0 ea 3a d9 f8 e0 b8 3d d1 05 3b
       0.0025854001 0.0017900626 -0.00010727504 0.0020418905
000090 57 58 ae 3b 4c e3 b4 3a 84 2b 1c 3b 5e 13 99 b9
       0.0053205895 0.001380065 0.0023829648 -0.00029196864
0000a0 73 35 ec bb 40 70 8b bb ea 21 94 3b ae 46 8f bc
       -0.00720852 -0.0042553246 0.0045206444 -0.017489757
0000b0 f9 0f 31 3a 8c 3f 6d b9 d7 ef c6 bb 6e a2 d5 3a
       0.0006754394 -0.00022625754 -0.0060710716 0.0016299018
0000c0 fc ec 0e 3c 20 f3 c9 39 90 91 c3 bb b8 f3 5a bb
       0.008723494 0.0003851885 -0.00596828 -0.0033409428
0000d0 f5 72 d7 bb 7f 47 30 ba 1f 42 14 bc d7 84 f1 bb
       -0.0065749832 -0.0006724521 -0.009048968 -0.007370572
0000e0 0b 36 9c 3b d9 42 f3 b9 74 8a 4b bc 9f 00 c0 3a
       0.0047671846 -0.00046398377 -0.0124231465 0.0014648623
0000f0 8c d3 7b 3b 9c 86 c6 bb 01 b1 0e ba 36 62 d3 3a
       0.0038425652 -0.006058527 -0.0005443246 0.0016127292
000100 c8 e6 8f 3b 7a 2c 74 3c 42 ef f6 b9 39 8b a7 3c
       0.004391525 0.014903182 -0.00047099037 0.020452129
000110 a5 2f fc 3b 2e 88 8c 3c b0 85 ea 3b cd 53 2d ba
       0.0076961094 0.01715478 0.00715705 -0.00066119136
000120 1c 5e a7 3d 1e 82 16 3e 13 e7 20 3c 78 3c 46 3d
       0.08172247 0.14698073 0.009820717 0.04839751
000130 9b 23 e0 ba b3 c6 d6 ba 26 9e 32 bd 41 9f e1 3a
       -0.0017100455 -0.0016386121 -0.043607853 0.0017213599
000140 69 0a 0a 3d 42 0e d2 bb e7 ec eb bd 92 57 af bb
       0.033701334 -0.006410391 -0.11519795 -0.0053510154
000150 e0 00 81 bc b9 c3 a0 ba 4d 3a f6 bd 90 1e 09 be
       -0.015747488 -0.0012265361 -0.12022839 -0.13390565
000160 35 58 41 3d c8 b6 ae bb 3b 35 1e bd 74 4d 0a 3c
       0.04720326 -0.005331848 -0.038624983 0.008441318
000170 b8 4e 85 bd 1b 08 f5 bc da 25 05 bc bd a9 9d bb
       -0.06509155 -0.029911092 -0.0081267 -0.004811494
000180 a9 e1 cb 38 2f 45 a1 39 4f 31 36 b7 5a ef 16 3a
       9.721827e-05 0.0003075986 -1.0859526e-05 0.0005757712
000190 38 f5 d6 b7 7f a4 98 39 f4 70 fa 38 6c bb bc b7
       -2.5624977e-05 0.00029114258 0.00011941968 -2.2498622e-05
0001a0 c7 3c 46 bb ee c3 6b ba 70 96 0d 39 75 2f 55 b9
       -0.0030248628 -0.00089937344 0.0001350285 -0.00020330942
0001b0 82 97 66 b8 26 cb d0 b7 80 3b 35 ba e2 e6 27 37
       -5.4977376e-05 -2.489013e-05 -0.0006913468 1.0007732e-05
0001c0 c3 40 fc 39 ef 90 c4 b8 fa 90 e0 ba 83 54 db ba
       0.00048113437 -9.373004e-05 -0.001713305 -0.001673356
0001d0 be bb 8b b9 14 38 68 b8 8b 3d f6 ba be 9c a6 ba
       -0.00026652025 -5.5365337e-05 -0.0018786652 -0.0012711508
0001e0 43 41 d9 ba e5 6f 5c b8 2a 5d 6e ba 9d f9 37 39
       -0.0016575236 -5.2556297e-05 -0.0009092862 0.00017545228
0001f0 04 e6 cf ba 11 23 31 ba 2d 91 38 b9 fe e8 8e b9
       -0.0015861397 -0.00067572395 -0.0001760169 -0.00027257943
000200 e6 c8 0b bd dd 32 95 3b fe 7c 96 b9 d6 bb eb 3d
       -0.03412714 0.0045531825 -0.00028703356 0.11510436
000210 81 ef de ba f4 53 f5 bd d6 d7 37 3c ef 80 b0 ba
       -0.0017008634 -0.119789034 0.011220893 -0.001346616
000220 a3 6d 3c be a0 ee fb bd 3b 78 0b 3c 6d 61 0e 3f
       -0.18401198 -0.123013735 0.008512552 0.5561741
000230 df 3e c4 bd d5 06 16 3a 75 c9 89 bd 70 d7 65 3b
       -0.09582304 0.0005723064 -0.06727878 0.0035071038
000240 11 0c 7d be b7 83 5a 3b 3c 54 4c be 8d 4f 3e 3e
       -0.24711634 0.0033342668 -0.19954008 0.18585034
000250 af 1d 34 3d ed 02 9b bb 2f 40 46 3e e4 5e 94 bd
       0.04397362 -0.0047305734 0.19360422 -0.072446615
000260 e8 b5 f2 be 0d 05 92 3c 15 81 e3 bb 42 9b fd bb
       -0.47404408 0.017824674 -0.006942878 -0.0077394554
000270 70 b5 aa be 7f ed 48 bd 91 d6 32 3a e0 b0 15 3d
       -0.3334155 -0.04905462 0.0006822134 0.036545634
000280 39 60 2f 3e 8d b8 c1 3d 62 39 3b 3a c7 69 44 bf
       0.1712655 0.094590284 0.00071420346 -0.76723903
000290 c9 d0 38 3d 31 3d cb be 71 a9 6f 3d d6 84 53 bc
       0.045120988 -0.39695123 0.0585112 -0.0129100885
0002a0 07 f5 9c 3e 91 f7 98 3d e6 dc 2d 3d cd db 5b be
       0.3065569 0.074690945 0.042446993 -0.21470566
0002b0 34 f6 48 3d 4e 03 8d bb 52 21 e9 be 15 fb 1c bb
       0.049062923 -0.0043033725 -0.45533234 -0.0023953367
0002c0 84 e0 1a 3f 71 73 6c bc 0f aa 18 3d de af 0b 3f
       0.60498834 -0.01443182 0.037271556 0.5456523
0002d0 56 65 af be c8 07 56 3d 5d 5e 71 3f 9f dc c2 be
       -0.34257 0.052253515 0.9428461 -0.38058946
0002e0 92 81 44 be 4b 69 00 bc 36 a3 37 be 8d 7b 4e be
       -0.19190052 -0.007837604 -0.17933354 -0.20164318
0002f0 5c 01 0a 3f 1e de 9c be c2 f4 ff b9 27 1b f8 bd
       0.53908324 -0.30638212 -0.0004881975 -0.12114554
000300 22 92 c2 3b 66 70 28 3d 3e ff d0 ba c8 89 70 3d
       0.0059378305 0.041122817 -0.0015945209 0.05872515
000310 b3 77 0c 3c 37 c2 87 3d 9b 60 1a 3b c4 80 4f bb
       0.00857346 0.066288404 0.0023556117 -0.0031662444
000320 8b 0d ab 3e 31 3a a6 be 11 d1 a5 b8 7a 31 8c be
       0.3340877 -0.32466272 -7.906755e-05 -0.27381498
000330 4f 60 92 bc b7 a8 2b bc 03 76 84 3d be 9e 56 bb
       -0.01786819 -0.0104772365 0.064678214 -0.0032748426
000340 56 e4 e6 bd a7 91 41 bc ed dd e3 3d 09 d4 3b 3d
       -0.112740204 -0.011814511 0.11126313 0.04585651
000350 6d 05 23 bd 1b 31 a8 bb 7e 54 24 3f 73 64 62 be
       -0.039800096 -0.005132807 0.64191425 -0.22108631
000360 6e b7 32 be 16 25 a7 bc ce e6 bf bc 4c ca c5 3c
       -0.17452785 -0.020403426 -0.023425486 0.024144314
000370 cf d4 bb 3d 4b db 9e bc e0 92 ba bc 1b 95 0c bd
       0.091714494 -0.019391676 -0.022775114 -0.034321886
000380 ab 31 aa 3a f6 21 bb 3c 2c 53 8e b9 b9 19 19 3d
       0.0012984773 0.022843342 -0.00027146318 0.037378047
000390 22 1f fa 3b e1 cd c0 3c e3 19 90 3b f8 7d a8 ba
       0.007633106 0.02353567 0.004397617 -0.0012854924
0003a0 d7 a3 82 bd 20 0c ea 3b 3a 11 fa 3a 42 ba 79 3e
       -0.06378906 0.0071425587 0.001907862 0.24387458
0003b0 46 a1 bd bb da 7b 60 bb c0 8b 53 bc 8a 2a 22 bb
       -0.0057870476 -0.0034253509 -0.012911737 -0.0024744594
0003c0 57 9c b7 bb 18 24 0e bc 29 75 b2 bc e2 42 31 bd
       -0.005603354 -0.008675598 -0.021784382 -0.043276675
0003d0 f5 2d 5f bc 12 dd 8c bb 0e 50 9e bc 4f 0a ea 3a
       -0.013621797 -0.0042988146 -0.019325282 0.0017855855
0003e0 60 47 d6 3b 0d 3a a0 bb 78 7c 93 bc 7f c5 20 3c
       0.0065392703 -0.0048897327 -0.018003687 0.009812712
0003f0 0a a0 5c bd 2a 3c 0f bd d4 26 6a bc 74 2c 6e bc
       -0.053863563 -0.034969486 -0.014291484 -0.014536966

b2 f4 [32]
000000 50 ea 96 bc 88 b3 1d 3d 19 d8 1b bb 4d 42 8c 3b
       -0.018422276 0.038501292 -0.0023779927 0.0042803646
000010 e3 17 09 bb a0 c1 4f 3d d8 f5 96 bb d6 cb 98 39
       -0.0020918779 0.050721765 -0.0046069436 0.0002914357
000020 82 f9 8e bd a2 ac 26 3e e9 65 2f bb a5 ee 23 3d
       -0.069811836 0.16276792 -0.0026763624 0.04002251
000030 96 21 66 bc 01 33 5a bb f1 1f 05 bd e3 e8 a4 3a
       -0.014046093 -0.003329456 -0.032501165 0.0012581613
000040 0b f0 02 3e f5 f5 1a ba 9c e5 9a bd 52 69 70 3d
       0.12786882 -0.0005911284 -0.07563326 0.05869419
000050 16 94 2a bd f7 0b b4 bb ac bf 27 bd 79 1a d0 3d
       -0.041645132 -0.0054945904 -0.040954277 0.10161299
000060 53 fd 3b 3e e3 14 12 bd 70 8a a5 bb 64 81 19 3d
       0.18358354 -0.03566445 -0.0050519034 0.037476912
000070 96 36 b9 bb 6d 5d 12 bd d0 ce 1e bc 3a 00 98 bc
       -0.005652259 -0.03573363 -0.009692863 -0.018554796

w3 f4 [32, 64]
000000 7c 64 cc bb 4f a7 40 bb 7d ea 82 39 dc b2 a8 b9
       -0.0062375646 -0.0029396599 0.0002497024 -0.00032176718
000010 bb b9 9f 3b 22 7c e2 bb 5c 43 26 3c 52 4c 18 bb
       0.0048744357 -0.0069117704 0.010147896 -0.002323885
000020 c1 38 6b 39 69 93 99 bb 0f 58 ca 3b 5d 9a 79 bb
       0.00022432489 -0.004686762 0.006175048 -0.0038086392
000030 01 07 de ba 84 2a a8 3a 3a 7e 3f 3a bc 2f 8a 3b
       -0.0016939343 0.0012830053 0.0007304881 0.004217116
000040 5c df 18 3b da 6e cc bb 7b 56 16 bc b4 22 0f b9
       0.0023326492 -0.0062388005 -0.009175892 -0.0001365047
000050 a8 2b 9a 3b e1 cc a7 3b 89 5e 42 3b d9 df c1 3a
       0.0047049113 0.005120859 0.0029658398 0.0014791443
000060 87 24 08 3b 89 60 82 3b 1c 19 18 3a a2 ca 0a 3c
       0.0020773725 0.003978793 0.00058020814 0.008471163
000070 09 af 1b bb 0c 36 84 b9 2c 07 e0 bb 99 1b 0b bc
       -0.0023755452 -0.0002521727 -0.0068367925 -0.0084904665
000080 bf 5c 02 3a a9 38 3b b9 a4 88 8b bb 2b 4c df 3b
       0.00049729267 -0.00017854817 -0.004258232 0.0068145
000090 6b 90 90 bb 27 4a aa 39 47 17 22 ba 5b 5a fe 36
       -0.004411747 0.00032480175 -0.0006183278 7.5803086e-06
0000a0 fe ff fd ba d0 b5 41 3b 2f 33 bc bb 55 b2 6b bc
       -0.001937866 0.0029557832 -0.0057434062 -0.014385779
0000b0 4a 9e 38 b9 8c c9 a4 b9 84 3f 01 3c e1 f5 76 bb
       -0.00017606575 -0.00031430682 0.007888678 -0.0037683176
0000c0 03 c7 b4 39 15 6d 3a b9 c4 6a 71 3c e4 10 1d 3a
       0.0003448055 -0.00017778979 0.014734928 0.00059915916
0000d0 18 20 0d 38 cd 80 ca 3b 5e 6a 6b 3a 85 8d fe 38
       3.364691e-05 0.006179905 0.00089803885 0.00012138024
0000e0 f4 0c c5 bb 61 c6 90 bb e3 27 b8 3a 2a 1c f4 b9
       -0.006013507 -0.00441818 0.0014049973 -0.0004656029
0000f0 b3 0d 47 bb 5e 0a 8e b7 e7 0f f5 38 34 df 82 39
       -0.0030373156 -1.6932547e-05 0.000116854724 0.00024961832
000100 7d 27 81 3c d9 02 0c 38 62 af 69 37 b7 4c ba 38
       0.0157659 3.3381253e-05 1.3928717e-05 8.8834604e-05
000110 8e 4b 36 bd 31 b0 d9 3b c9 bd 98 3c 88 6e 35 3a
       -0.04450565 0.006643318 0.018645184 0.00069210725
000120 37 04 9e bb cb 4a 2c bd d1 10 31 3c 73 0f 6c b8
       -0.00482228 -0.042063516 0.010807232 -5.6281173e-05
000130 42 7e 25 b8 6b d0 b1 b9 af 48 e9 39 46 af 58 39
       -3.9456652e-05 -0.00033915354 0.00044495377 0.0002066466
000140 5b 72 c7 39 c0 92 ea bb a5 66 27 3c e5 f2 73 3a
       0.0003804144 -0.0071586072 0.010217343 0.00093059085
000150 b8 75 48 ba 03 62 b3 3b 1a f1 18 3a 8f e5 b1 ba
       -0.0007646936 0.0054743304 0.0005834267 -0.0013572442
000160 54 5c 17 3c 30 ad 83 39 1e 62 b9 be 4e c1 b3 b9
       0.009238321 0.00025115302 -0.3620767 -0.00034285564
000170 f2 90 45 bb 93 0b aa 38 c5 6f 26 3d e2 25 16 3d
       -0.0030146209 8.1083876e-05 0.040633935 0.03665722
000180 da 15 e9 38 1c c0 ad ba 2a 12 76 b9 42 62 0d 3e
       0.00011114376 -0.0013256106 -0.00023467155 0.13807014
000190 27 5e 0d ba a7 44 61 39 91 62 4a 38 b6 d6 5e b5
       -0.0005392753 0.00021483247 4.825235e-05 -8.301389e-07
0001a0 c6 77 2b bd a0 e0 c8 b9 af 77 5c bc 62 42 b0 bb
       -0.04186227 -0.0003831433 -0.013456269 -0.005379007
0001b0 4e d1 d7 37 ce e7 4d ba 16 28 01 3a 3a ad 18 3e
       2.5727462e-05 -0.0007854671 0.0004926933 0.1490983
0001c0 29 ac 13 b8 f6 8b 6b 38 70 84 bc 3b 7b 05 90 b8
       -3.5207868e-05 5.6158715e-05 0.0057530925 -6.867476e-05
0001d0 ad f7 22 39 7f 45 02 ba 55 d1 e0 bc 72 40 8d b9
       0.0001554179 -0.0004969462 -0.027443567 -0.0002694163
0001e0 06 72 08 b9 21 db 1f be 6e 1f 2f 38 57 27 b3 bb
       -0.00013012448 -0.15610935 4.1752523e-05 -0.005467336
0001f0 0f 3a e0 3d 5d b6 3e 3a d6 50 73 b8 30 6a 5c 3a
       0.10948574 0.0007275099 -5.8011e-05 0.0008408157
000200 1d b7 b1 3a fb 50 ce b9 71 36 23 37 44 b8 be b7
       0.00135586 -0.00039351717 9.728233e-06 -2.273557e-05
000210 fd 2a 4b bb 53 ae 08 ba 19 4a 2f 3a 38 31 1b b9
       -0.0031000965 -0.00052139646 0.00066867616 -0.00014800287
000220 02 1d ab b8 82 c4 87 b9 d3 21 36 3a 11 4c ee b8
       -8.1593185e-05 -0.00025895616 0.0006947789 -0.00011362893
000230 7e f4 4b b8 97 3a 39 38 2a a9 82 38 8f 8a f5 38
       -4.8626673e-05 4.4162003e-05 6.230392e-05 0.00011708319
000240 10 75 10 38 5d d9 e9 b9 c2 08 1f ba 82 24 3f 36
       3.44413e-05 -0.0004460317 -0.00060666737 2.8482468e-06
000250 83 e7 96 39 b1 fc 06 39 b1 e8 4b 39 94 5f 33 b7
       0.0002878272 0.0001287337 0.00019446273 -1.0691485e-05
000260 55 13 06 3a 1b f9 ff 38 e6 f2 22 3b 78 8e 86 39
       0.0005114575 0.00012205747 0.0024864017 0.0002566462
000270 c8 22 4c b9 b5 50 85 b7 9c 59 37 39 2c 4c 87 b9
       -0.00019467913 -1.5892418e-05 0.00017485622 -0.0002580596
000280 03 60 ca b6 b0 25 64 b7 ef c3 61 b9 69 ef 21 bb
       -6.0312464e-06 -1.3598634e-05 -0.00021530663 -0.002470935
000290 a5 4e bf b8 73 da 95 37 2d 21 72 b7 07 be 99 33
       -9.1222384e-05 1.7863907e-05 -1.4432048e-05 7.1591835e-08
0002a0 32 02 c6 b9 d8 09 57 39 7d ae b5 b9 45 b1 aa b9
       -0.0003776714 0.00020507665 -0.00034653014 -0.00032557003
0002b0 36 59 96 b7 fc 23 04 b8 36 27 e0 38 9e f8 14 ba
       -1.7922936e-05 -3.1504766e-05 0.00010688456 -0.0005682799
0002c0 d0 eb 04 38 6b f9 d3 b7 fa 07 a5 ba ec f1 83 37
       3.169087e-05 -2.5269304e-05 -0.0012590878 1.572907e-05
0002d0 f0 44 5a 34 89 09 34 39 65 68 a5 b8 60 3a ba 37
       2.0327911e-07 0.0001716969 -7.887258e-05 2.220011e-05
0002e0 af 1c 49 b9 78 53 97 3b 21 2d 30 38 af 2d c1 39
       -0.00019179539 0.0046181045 4.20037e-05 0.00036845866
0002f0 a5 93 1e b9 1b 94 8a 36 c1 f6 06 37 d6 57 cb b5
       -0.00015123056 4.1299622e-06 8.044474e-06 -1.5150242e-06
000300 47 18 2a be 28 1f 02 3c 6b bc 9e ba cd 94 5b 3b
       -0.16610824 0.007941999 -0.0012110596 0.003350544
000310 5a eb cf be e4 80 91 bd cd 95 ba 3d 81 3a 98 3c
       -0.40609246 -0.07104662 0.091106035 0.018582584
000320 28 a8 62 3b 83 ec 82 bc 30 b8 19 bd 4b 79 99 3b
       0.0034585092 -0.015981918 -0.03752917 0.0046836487
000330 cb 6a 14 3c 81 8d 26 bc d6 a8 1c bc 17 7a 41 bb
       0.009058665 -0.010165573 -0.009561738 -0.0029522234
000340 f7 f5 8f 3a 5c a5 7f be 53 fe 1c bd 7e 41 4d 3b
       0.0010983337 -0.24965423 -0.03832848 0.0031319554
000350 2e 8b d3 3d fc 6c 3c bd 46 df 9c 3b 64 65 29 bc
       0.10329281 -0.046002373 0.0047873585 -0.010339115
000360 10 4f ac bd fb 1d ad bd 77 81 35 3e e4 1b c5 bc
       -0.084135175 -0.08452984 0.17725168 -0.02406115
000370 7a 6d 04 bb 01 ec 0f 3b ef e3 56 3d ec 78 c3 bd
       -0.0020206855 0.0021960738 0.05246347 -0.095445484
000380 d7 ef 44 bc 31 4a a5 3c b7 4f 43 3c 41 ae 04 3f
       -0.012020073 0.020176979 0.011920861 0.5182839
000390 78 39 b6 bd 64 67 b9 bc 9f cf 3d 3c 83 d9 64 b6
       -0.0889768 -0.022632308 0.011585145 -3.4101256e-06
0003a0 4e 4e 86 3e da ff 32 bc c3 61 87 3d 1c c4 4b 3c
       0.26231617 -0.010925258 0.066104434 0.012436893
0003b0 b9 64 3b 3a 20 58 45 3b 8c 13 01 be 23 03 98 be
       0.0007148493 0.003011234 -0.12605113 -0.29689893
0003c0 47 85 15 bb 97 88 c9 3a 3e 21 24 3e 69 a0 bb 3a
       -0.0022815035 0.001537579 0.16028306 0.0014314774
0003d0 70 70 25 3c bc ec 5d 3b 55 a9 6e 3e 82 3a e1 3c
       0.010097608 0.0033863029 0.23306783 0.027493719
0003e0 04 1b 02 3a 2f a0 9c be 04 7e 71 ba a9 b3 cd 3d
       0.0004963132 -0.3059096 -0.0009212198 0.10044033
0003f0 54 c5 4e 3e e5 98 0d bb 9a 83 90 ba b1 90 b4 3d
       0.20192462 -0.0021606025 -0.0011025548 0.0881666

b3 f4 [64]
000000 40 04 ca bc f6 03 8b bb b4 21 e4 ba 95 f8 1a b9
       -0.02466023 -0.0042424155 -0.0017405064 -0.00014779188
000010 f4 89 27 bb fb 8a 31 bc dd b0 5a 3c b9 89 2b bc
       -0.0025564404 -0.010836358 0.013347832 -0.010469847
000020 c9 82 86 bb ee 0e 27 3c 0a 21 56 3c 2e d2 4d ba
       -0.0041049463 0.010196431 0.013069401 -0.00078514486
000030 d6 64 0d bb 86 6c a5 3b d7 5f 1d 3c f7 94 d4 3a
       -0.0021574995 0.0050483374 0.0096053695 0.0016218711
000040 0f 6c 5e bb 9b ff c4 bb 99 7b 91 bb 7f 86 10 bb
       -0.003393892 -0.006011916 -0.004439783 -0.0022052822
000050 4e bf 22 3b d7 4e be 3c b3 35 b1 3b 5e aa d4 3a
       0.0024833265 0.023230953 0.005408013 0.001622509
000060 34 1a 25 3c 0a e8 0d 3b 8e 0c f3 bb 84 f9 bc 3c
       0.010077048 0.0021653199 -0.007417268 0.023068197
000070 d8 1e 9a bb 83 63 95 37 f4 56 81 bc 14 ed cd bc
       -0.004703384 1.7808523e-05 -0.015788533 -0.025137462
000080 88 7d 53 3b 26 6a 85 3a e6 ba 3e bb 10 fc 2a 3c
       0.0032270867 0.001017873 -0.00291031 0.010436073
000090 49 ee 16 bc 55 49 da bb 84 49 e9 ba 25 55 ce b8
       -0.009212085 -0.006661574 -0.0017798399 -9.838705e-05
0000a0 f5 06 13 bc 1c b6 21 3d f8 02 e3 ba 23 af f4 ba
       -0.008973827 0.039480314 -0.001731961 -0.0018667917
0000b0 cb 66 d9 3a 15 cc c0 ba 9f fe ad 3c 7e 3b fb 3b
       0.0016586421 -0.0014709259 0.021239577 0.007667004
0000c0 f5 50 83 ba f1 64 a6 39 c1 b5 c2 3c 04 1e 92 3a
       -0.0010018634 0.00031737195 0.023768308 0.0011147861
0000d0 cc 42 cf 38 7b c1 44 3c b6 41 e6 ba a6 0b 02 3c
       9.882971e-05 0.01200902 -0.0017567191 0.0079373475
0000e0 39 4f 1c bb 56 a6 7b bc e9 57 69 3b e1 5e 0d bb
       -0.0023850931 -0.015359482 0.0035605377 -0.0021571445
0000f0 ff 5d 89 bd 14 5e 91 bb 94 30 a9 39 ea 75 b8 b9
       -0.067073815 -0.004436264 0.00032270385 -0.00035183068

w4 f4 [64, 8]
000000 04 3f 5e 3e 8a e6 a0 3e fb 94 27 bd 22 a1 c2 3c
       0.21703726 0.31425887 -0.040913563 0.023758475
000010 2a 71 6c be be 66 68 be b6 a8 fb 3d 15 11 1b bc
       -0.23090044 -0.22695443 0.122880384 -0.009464522
000020 77 64 cd 3e ff 31 b7 be 6f 11 a8 3c 44 e2 3c 3e
       0.4011571 -0.35780331 0.020516125 0.18445688
000030 5b 01 67 3e aa d0 c0 be cc 12 95 3e 04 ee 9f bb
       0.22559111 -0.37659198 0.29115903 -0.0048806686
000040 1f d0 cf bb dd b9 a1 bb 3d 90 14 bb 39 61 b8 3a
       -0.0063419486 -0.0049354867 -0.002266898 0.001406706
000050 b7 cd 95 3b 59 49 74 3b 3a 02 cd ba ae 0e 90 ba
       0.0045716423 0.0037275164 -0.0015640922 -0.0010990703
000060 c4 0a 02 3b 97 38 7a 3c e8 6a 9d bb a3 c6 62 ba
       0.0019842843 0.015272281 -0.004804004 -0.0008650815
000070 3c 9a 7e b9 0f 9e 6e bc 34 53 d1 3b dd be a6 b9
       -0.00024280784 -0.014564051 0.0063880924 -0.00031804192
000080 15 ec e1 bc 5e 39 69 bf 21 24 1c be a8 34 b0 bd
       -0.027578393 -0.9110316 -0.15248157 -0.086037934
000090 17 55 b0 be 3d 60 35 3f e3 a5 f9 3e 40 09 89 bd
       -0.34439918 0.7084997 0.48759374 -0.066912174
0000a0 97 8e 66 3d 96 00 74 3d 0e 8f 4f bd 82 19 ad bc
       0.056288328 0.05957087 -0.050673537 -0.021130327
0000b0 90 af 8b 3a e7 61 00 bd 10 ab 66 3d f1 9b ea 3b
       0.001065718 -0.031343367 0.05631548 0.007159703
0000c0 7f 2a 06 bf af bf 20 bf 53 d1 f8 be b4 ad c2 bc
       -0.52408594 -0.62792486 -0.48597202 -0.023764469
0000d0 b7 68 6f bd 41 54 36 3e 6d db 92 3e 68 3d 6c 3b
       -0.058449473 0.17805578 0.28683034 0.0036047343
0000e0 45 53 2d be 50 4d 7a 3e 73 c4 73 be df 36 80 bd
       -0.16926296 0.24443555 -0.23805408 -0.06260466
0000f0 db 56 57 3e 07 90 1b 3f 81 e6 26 3e e4 08 fe b9
       0.21029226 0.60766643 0.16298868 -0.0004845328
000100 18 c7 84 bd 03 0b cb 3d 91 58 95 3b 93 bd ad ba
       -0.064832866 0.0991421 0.004557677 -0.001325535
000110 b6 4f 14 be d9 e5 98 be 52 89 43 bc 9c 47 65 3a
       -0.14483532 -0.2986286 -0.011934595 0.00087463274
000120 fc a1 33 3f ac 6e 13 be a8 69 3d 3d f1 b1 7c bc
       0.70169044 -0.14397687 0.04624334 -0.015423284
000130 3f bf 1d be 71 d8 94 3f 99 06 db 3d 67 39 03 bd
       -0.15404986 1.1628553 0.10694618 -0.032037165
000140 1c ac 88 bc 2b 6d 2d 3e fd 10 b5 3e 49 00 50 3d
       -0.01668363 0.16936176 0.35364524 0.050781522
000150 89 41 4e be 7b 13 ef 3e 50 6c a8 be 16 7d b7 bb
       -0.20142187 0.4669455 -0.32895136 -0.005599628
000160 e0 cb 77 bd 37 a9 32 3e 87 28 48 3b 45 1e 1b 3a
       -0.060497165 0.17447363 0.0030541734 0.0005917291
000170 5e 75 8e bd 0d ee ab 3d 53 eb c5 3b ac 7c 34 b9
       -0.0695598 0.08395014 0.0060400157 -0.00017212582
000180 23 11 08 3e e3 c8 ca 3b 37 02 ee bc eb f7 3e ba
       0.13287787 0.0061884983 -0.02905379 -0.00072848675
000190 0d 6f 21 3d 9e 68 95 3d c9 5b dd bd 55 e8 8f b8
       0.039412547 0.07295345 -0.10808522 -6.8620466e-05
0001a0 d6 2c 1b 3c 21 56 a8 bd c2 77 56 ba ae 13 55 ba
       0.009471139 -0.08219553 -0.00081812975 -0.00081282377
0001b0 85 94 cb bc 29 a6 34 bd 4d df e5 3a 78 87 f2 39
       -0.024851093 -0.044103775 0.0017537862 0.0004625877
0001c0 b8 06 06 3c 4f d7 83 bd 27 4e 91 3b 54 69 d9 3a
       0.008180313 -0.06437551 0.0044343653 0.0016587176
0001d0 2e f5 73 3b 62 6b 4a bb 9c c5 b0 bb e5 92 f1 37
       0.0037224996 -0.003088676 -0.0053946506 2.8797842e-05
0001e0 8f 21 41 3b 71 34 26 be a0 12 c3 bb 37 5e 05 bb
       0.0029469465 -0.16230942 -0.005953148 -0.0020350346
0001f0 90 b4 07 3c 24 12 cb bd 1a 47 48 3c f8 ba 73 3a
       0.008282796 -0.099155694 0.012223983 0.0009297575
000200 84 90 92 bb b0 3c 40 bc 0c a7 9a 3b c3 aa 24 3a
       -0.004472794 -0.011733219 0.0047196206 0.0006281549
000210 3a 1c 25 bb ea bc c7 3a 5f 47 d2 bb 75 1b b3 38
       -0.0025193826 0.0015238796 -0.0064171995 8.5404994e-05
000220 15 1f 66 bb a1 72 63 3e 26 c5 02 3c 45 17 71 bb
       -0.0035113741 0.22211696 0.007981574 -0.0036787551
000230 02 dc 24 bb de 6a 85 be db fa 1d bc 32 22 28 3b
       -0.002515555 -0.26058096 -0.009642328 0.0025655148
000240 b1 a0 3a 3e 65 ba ae 3e 79 ba cc 3e 2b de c8 3d
       0.18225361 0.34126583 0.39986017 0.09808
000250 22 2e 59 3f 76 4f 7d 3e db e6 4a 3e 77 43 87 bc
       0.8483602 0.24737343 0.19814627 -0.016511662
000260 73 82 a4 ba c3 5b 9b 3b 45 b0 07 bc ff ec d0 bb
       -0.0012551084 0.0047411635 -0.008281772 -0.0063759084
000270 44 f8 8f bb 32 65 a7 3c bc cf 35 3c 49 5b 40 3b
       -0.0043936092 0.020433996 0.011096891 0.0029351285
000280 f3 83 65 be 11 30 22 3d 3f 87 6b bb e4 0b 4f bc
       -0.22413616 0.03959662 -0.0035938767 -0.012637112
000290 30 1d d9 bb 32 7a 13 3e c0 14 1e 3d ea 57 0b 3c
       -0.006625794 0.14402083 0.038594007 0.008504847
0002a0 61 d2 58 be 9a d7 25 be 3f 68 7d 3d c2 2d 42 3d
       -0.21174003 -0.16195527 0.061866995 0.04740692
0002b0 68 b0 5d 3f 51 7a a3 3e 77 3a 30 be 92 47 20 ba
       0.865973 0.31929258 -0.17209803 -0.00061141804
0002c0 44 23 21 3d 46 fd ec bd fe ed a1 bc 98 0b 60 bc
       0.039340273 -0.115717456 -0.019766804 -0.013674639
0002d0 c5 eb 2a bb 17 0a 55 3d 75 ba b1 bb f6 58 ce 3b
       -0.002608047 0.052011576 -0.0054238387 0.006297226
0002e0 83 17 83 3d f8 a7 5b bd 6b 8b 4a 3c 5a 3e 72 3a
       0.06400969 -0.053626984 0.012362341 0.00092408585
0002f0 2c b9 c5 bd 71 82 6f bd ab da 55 bc 19 aa 1d b9
       -0.09654459 -0.058474008 -0.013052623 -0.00015036053
000300 08 a9 df 3d 8c 10 08 bf 6f 80 fc bc a9 75 10 3d
       0.10920912 -0.5315025 -0.03082296 0.03526846
000310 87 3f 87 3e c5 a0 3f 3e 28 ac 07 3e dd 07 8c bc
       0.26415655 0.18713672 0.13249266 -0.017093593
000320 5e cb 91 bd 11 8b 89 bd 6f 0c c5 3c 6d 73 2f 3c
       -0.07118867 -0.06715978 0.02405378 0.010708672
000330 25 63 79 3e ec 53 8a bd 67 27 e5 bc 93 8a 46 bb
       0.24354227 -0.06754288 -0.02797289 -0.0030295
000340 4a b6 a9 bd b5 46 c8 3d 97 f8 c4 bd 8e ae e2 3b
       -0.08286722 0.09779111 -0.09617727 0.006917781
000350 5d 43 32 3e 7d ff 7e bf 38 f1 be 3e 30 c5 35 bc
       0.1740851 -0.99608594 0.3729341 -0.011094376
000360 6f 20 85 3d ae 9d aa be 18 ca 14 3b 5f 3b b9 3b
       0.06500327 -0.33323425 0.0022703465 0.0056528295
000370 85 ad 1f 3e 45 3a 1a be 16 7d 60 bd 98 93 4a bb
       0.15593536 -0.1506129 -0.05480679 -0.0030910727
000380 68 48 8b bd 49 af ee 3d d0 14 57 3c b2 25 41 3b
       -0.0680092 0.11654527 0.013127521 0.002947193
000390 bc 26 87 bd f9 67 38 be b3 82 6a bc a9 8c 81 ba
       -0.06599185 -0.18008412 -0.014313388 -0.0009883839
0003a0 1d bc a8 3b 43 13 28 3c 1d c3 a2 ba 94 58 0f 3a
       0.005149378 0.010258499 -0.0012417767 0.0005468216
0003b0 48 8d 85 b9 78 db a1 bb fe 8c 35 3b 58 18 1e ba
       -0.00025473 -0.004939493 0.0027702446 -0.0006030849
0003c0 1c 93 8b 3e ee a3 89 bc c6 27 ea 3d 86 e0 0c 3e
       0.27260673 -0.0168018 0.114333674 0.13757524
0003d0 c6 1a 74 3e 50 8d 23 bf f3 4e 2c 3f 6b df c5 ba
       0.23838338 -0.638875 0.67307967 -0.0015096491
0003e0 e7 b9 3f bd 6d 9d 6c 3f b2 84 1f 3d e4 2e 5d bc
       -0.04680815 0.9242771 0.038944907 -0.013499949
0003f0 3b 3f 11 bd 72 bc 26 3d 9e ca d6 bd b0 15 44 3a
       -0.035460692 0.04070706 -0.10487865 0.00074800383

b4 f4 [8]
000000 5c 95 80 bc 8c eb e8 bc 38 f3 b6 3c d8 72 88 3c
       -0.01569622 -0.02843263 0.022332773 0.016656324
000010 11 49 c7 3a b7 95 0a 3c e3 21 85 bc 18 8e fb bb
       0.0015204271 0.008458546 -0.01625151 -0.007676851

w5 f4 [8, 1]
000000 35 a9 1b 3f 09 48 3b 3f 01 43 cf be a7 06 50 be
       0.60805064 0.7315679 -0.40480807 -0.20315038
000010 0f 8d 2a 3d 8e 4e 56 be c7 fd eb 3e 35 c2 dc 3d
       0.04163843 -0.20928404 0.46092054 0.107792296
