model_saved/2024-01-25-07-47-24/model_2024-01-25-07-48-13_epoch_10000_train_mse_1.90e-02_val_mse_2.42e-02.pt (torch, 17951 bytes, 9 tensors)

w1 f4 [8, 16]
-0.113875195 0.027617348 0.013773419 0.003994211 0.35024276 -0.048416544 0.41076782 0.14736328
0.024641208 -0.15350777 -0.503912 -0.26880214 -0.05584702 -0.01609489 0.038388226 -0.017534588
0.2988329 0.018864721 -0.010606429 0.0030679088 -0.23749733 -0.1777115 0.55604833 0.019895976
0.07540211 -0.42179427 -0.4456556 0.14734402 -0.027782632 -0.050132878 -0.045574415 0.043282095
0.01126978 0.0075042397 -0.10988618 0.00054043 -0.5077007 -0.08840993 0.15184623 -0.05476833
0.034316417 -0.17461905 -0.1707636 0.21207094 -0.060241528 -0.0012930837 0.008246876 0.011763312
-0.017668942 0.0010849874 0.007360679 0.0011896316 0.3958739 -0.1039328 -0.17820977 -0.015822023
0.039708097 -0.1570351 0.3853125 -0.3860951 -0.08873199 0.071235225 -0.0076539773 0.009963748
0.061554648 0.026592026 -0.08903802 0.000117536634 1.1093419 0.044758413 -0.0023705992 -0.025233256
0.03906727 -0.10289993 0.069489926 -0.5976092 0.059049636 -0.067642234 -0.008854525 0.02276623
-0.07494045 -0.039839685 -0.23369461 -0.0037627842 -0.85838103 -0.26771185 -0.12859458 -0.023909142
-0.06691774 -0.3784202 -0.5947348 -0.5885041 0.079289176 0.120969824 0.0943973 0.0036603294
-0.046051163 0.0032052875 -0.06747439 -0.0010031918 0.21011116 -0.12950352 0.047877956 -0.09054006
0.024790311 -0.15119599 0.3004423 -0.01744658 -0.06727177 -0.0076896083 0.01623784 0.0027648944
0.067460015 0.0041459673 -0.024208624 0.004588422 -0.7259906 0.08127026 9.206716e-05 0.13873537
0.11411446 -0.30242673 0.010535307 0.310984 -0.16188076 -0.12990403 -0.028623907 -0.0048248116
00000000: 6637 e9bd c73d e23c e8a9 613c dfe1 823b
00000010: 0553 b33e 6d50 46bd 2950 d23e 66e6 163e
00000020: 5cdc c93c 2431 1dbe 6000 01bf 6fa0 89be
00000030: d8bf 64bd 6ed9 83bc f93c 1d3d b2a4 8fbc
00000040: a000 993e 308a 9a3c 96c6 2dbc f80e 493b
00000050: 8032 73be 01fa 35be 2f59 0e3f e3fc a23c
00000060: 6c6c 9a3d 6bf5 d7be f92c e4be 5ae1 163e
00000070: 6798 e3bc 2258 4dbd 3dac 3abd 9148 313d
00000080: e2a4 383c 20e6 f53b 010c e1bd a5ab 0d3a
00000090: acf8 01bf 4410 b5bd 947d 1b3e c254 60bd
000000a0: 5f8f 0c3d 56cf 32be a7dc 2ebe 2029 593e
000000b0: d2bf 76bd b07c a9ba e81d 073c e8ba 403c
000000c0: 75be 90bc 2336 8e3a da31 f13b 6aed 9b3a
000000d0: fcaf ca3e b8da d4bd 9f7c 36be 309d 81bc
000000e0: f5a4 223d cfcd 20be ae47 c53e 42ae c5be
000000f0: 1eb9 b5bd c6e3 913d 37ce fabb fd3e 233c
00000100: ba20 7c3d 85d7 d93c 9159 b6bd 007e f638
00000110: eafe 8d3f 9954 373d 0e5c 1bbb f9b5 cebc
00000120: 0005 203d 33bd d2bd bc50 8e3d ebfc 18bf
00000130: 08de 713d 0388 8abd 9212 11bc 3f80 ba3c
00000140: 617a 99bd f02e 23bd a44d 6fbe 0b99 76bb
00000150: dcbe 5bbf 8711 89be 4cae 03be 1bdd c3bc
00000160: 2b0c 89bd 4bc0 c1be 8a40 18bf 34a8 16bf
00000170: 5d62 a23d 07bf f73d 5f53 c13d 23e2 6f3b
00000180: 25a0 3cbd cd0f 523b 0330 8abd 887d 83ba
00000190: 6127 573e 929c 04be ad1b 443d 116d b9bd
000001a0: 0d15 cb3c 1fd3 1abe 93d3 993e 21ec 8ebc
000001b0: c8c5 89bd 1cf9 fbbb 3805 853c 3b33 353b
000001c0: 7a28 8a3d e5da 873b 2a51 c6bc 795a 963b
000001d0: 85da 39bf 0671 a63d 2e14 c138 a510 0e3e
000001e0: d8b4 e93d add7 9abe 489c 2c3c 4b39 9f3e
000001f0: 12c4 25be 9005 05be af7c eabc 7419 9ebb

b1 f4 [16]
-0.14536262 -0.099837825 0.16325983 -0.0056637544 -0.51388025 0.64556056 0.053578973 0.112805605
0.030565973 0.3504667 0.23774607 -0.13286151 -0.105753995 0.5571626 -0.11244747 -0.076363266
00000000: f0d9 14be c677 ccbd 962d 273e 0497 b9bb
00000010: a88d 03bf 7543 253f a075 5b3d a006 e73d
00000020: 7e65 fa3c 5f70 b33e b573 733e d90c 08be
00000030: 8d95 d8bd 35a2 0e3f dc4a e6bd 5864 9cbd

w2 f4 [16, 32]
0.0032878134 0.0062131337 -0.00018173958 0.0147837745 0.002891879 0.008329819 0.002608186 -0.00037356408
-0.087800354 -0.03902392 0.00458906 -0.050135627 -0.0015381441 -0.0003802767 -0.013854194 0.00022110708
0.014141451 -0.0031291144 -0.041702084 -0.029368207 -0.007315675 -0.00067838817 -0.049039252 -0.019188719
-0.007750806 -0.0012063718 -0.029245256 0.0049861185 -0.029774118 -0.01517639 -0.0043232418 -0.008040934
0.0016103084 0.0017178635 -4.8787322e-05 0.0028306658 0.0043640616 0.0019886063 0.0016102956 -0.00013336627
-0.008614216 -0.0053663 0.0034817173 -0.016931474 4.398128e-05 -7.987924e-05 -0.005112074 0.0009824535
0.0074079423 -0.00011950229 -0.0065206815 -0.0051397034 -0.0048906743 -0.00036556576 -0.009564007 -0.006869187
0.0020955058 -0.0004115524 -0.011521741 0.0013745526 0.0013587923 -0.0047332617 -0.0008964313 0.00020386395
0.002203089 0.006271978 -8.816952e-05 0.014627426 0.005847113 0.009969505 0.0037613683 -0.00017101156
0.06668554 0.10592873 0.0065519614 0.03992092 -0.00078946823 -0.00022534172 -0.025647508 0.0008686748
0.023919985 -0.0040178983 -0.09296884 -0.007177954 -0.0095946845 -0.0006000551 -0.10213855 -0.110768884
0.029172871 -0.0015190186 -0.03225664 0.0038604112 -0.046025574 -0.016809734 -0.0037690352 -0.0039396817
9.4288574e-05 0.00018736071 -5.5765536e-06 0.00041185902 3.4591554e-05 0.00023524786 7.2703006e-05 -1.1763171e-05
-0.0025016083 -0.00090003136 0.000117795564 -0.0006777438 -4.111773e-05 -9.712556e-06 -0.00041481596 6.568163e-06
0.0003881406 -8.0591344e-05 -0.0011376573 -0.0009959523 -0.00020915613 -1.9331412e-05 -0.0013568994 -0.00066153944
-0.0008510671 -3.1593147e-05 -0.00070888374 0.00014177078 -0.0009153872 -0.00045555888 -0.00011484811 -0.00021235259
-0.024912253 0.0050013685 -0.00021442186 0.10102087 -0.0011230786 -0.09456179 0.009713063 -0.0008696056
-0.18014333 -0.11799964 0.008108767 0.5388683 -0.07192448 0.00030860808 -0.060274694 0.0029655392
-0.22478811 0.002429291 -0.19087267 0.16374889 0.03699887 -0.003823521 0.18153131 -0.06989061
-0.4073365 0.010080648 -0.007978619 -0.0037791755 -0.30457318 -0.04313947 -0.00013092557 0.031029303
0.15035418 0.06357936 0.00030351113 -0.68787974 0.043543663 -0.33192447 0.05417346 -0.009300995
0.3018852 0.07267778 0.040287882 -0.21171504 0.042792164 -0.0012631494 -0.42808262 -0.0022180763
0.58011025 -0.013522282 0.0363262 0.48896915 -0.3206163 0.04908038 0.9197805 -0.37326282
-0.17871746 -0.0027657235 -0.17482251 -0.15670344 0.5160322 -0.26827067 -0.00050134753 -0.113509424
0.00483624 0.027507445 -0.00046270326 0.0494555 0.007242807 0.048075467 0.0027683626 -0.0012493526
0.30883008 -0.29204124 0.00076379476 -0.26070482 -0.0113775255 -0.00453752 0.046863887 -0.0023048932
-0.09308884 -0.009744344 0.096911 0.03354251 -0.031861376 -0.0047348966 0.57715935 -0.20570904
-0.13326095 -0.009063564 -0.023351375 0.0150933005 0.069428444 -0.019111278 -0.016734382 -0.028668249
0.0011203662 0.008757258 -8.020173e-05 0.0240221 0.005981042 0.011859802 0.003156773 -0.00029920394
-0.060536757 0.004413608 0.0017522699 0.22246403 -0.0028770294 -0.0006233731 -0.010308806 -0.0015048091
-0.0033000193 -0.0060298294 -0.020555882 -0.03164218 -0.009503317 -0.0032784434 -0.018626953 0.00084020605
0.002788 -0.000945039 -0.01635542 0.0036036896 -0.044697974 -0.021905098 -0.007948034 -0.01062586
00000000: 5b78 573b 8b97 cb3b 5991 3eb9 a537 723c
00000010: ae85 3d3b cb79 083c 1aee 2a3b ecda c3b9
00000020: acd0 b3bd 8cd7 1fbd d35f 963b 045b 4dbd
00000030: 8d9b c9ba e05f c7b9 b4fc 62bc fbd8 6739
00000040: 8bb1 673c d411 4dbb cecf 2abd 9895 f0bc
00000050: 54b8 efbb dcd5 31ba 62dd 48bd a931 9dbc
00000060: 79fa fdbb 1f1f 9eba bf93 efbc 9862 a33b
00000070: dae8 f3bc 65a6 78bc fba9 8dbb 1fbe 03bc
00000080: fc10 d33a ef29 e13a fda0 4cb8 b182 393b
00000090: 6700 8f3b 4753 023b 8e10 d33a 3cd8 0bb9
000000a0: a422 0dbc cad7 afbb 862d 643b e0b3 8abc
000000b0: 8a78 3838 d784 a7b8 2f83 a7bb abc5 803a
000000c0: 53be f23b 4e9d fab8 71ab d5bb f56a a8bb
000000d0: f341 a0bb 68a9 bfb9 5ab2 1cbc eb16 e1bb
000000e0: c154 093b a1c5 d7b9 afc5 3cbc 552a b43a
000000f0: 8119 b23a 7a19 9bbb 7cfe 6aba 50c4 5539
00000100: b361 103b 2a85 cd3b a7e7 b8b8 dfa7 6f3c
00000110: 2499 bf3b 2257 233c 4a81 763b 9151 33b9
00000120: 6e92 883d 29f1 d83d d6b1 d63b 1e84 233d
00000130: 51f4 4eba b549 6cb9 b91a d2bc c7b7 633a
00000140: d8f3 c33c 93a8 83bb 7266 bebd 0b35 ebbb
00000150: 0633 1dbc 044d 1dba 042e d1bd ccda e2bd
00000160: f2fb ee3c ce19 c7ba 8a1f 04bd f4fe 7c3b
00000170: 5085 3cbd 91b4 89bc eb01 77bb 7218 81bb
00000180: cbbc c538 4276 4439 3b1e bbb6 c8ee d739
00000190: 6616 1138 deac 7639 2178 9838 6f5a 45b7
000001a0: 06f2 23bb 15f0 6bba 0309 f738 9eaa 31ba
000001b0: d475 2cb8 1cf3 22b7 a87b d9b9 1764 dc36
000001c0: 597f cb39 2603 a9b8 721d 95ba 9d8a 82ba
000001d0: ec50 5bb9 e429 a2b7 fdd9 b1ba 296b 2dba
000001e0: 251a 5fba e282 04b8 62d4 39ba 4ea8 1439
000001f0: 98f6 6fba 14d8 eeb9 9cda f0b8 f7aa 5eb9
00000200: c814 ccbc 85e2 a33b 6ed6 60b9 08e4 ce3d
00000210: 4434 93ba 9da9 c1bd 8a23 1f3c 3ef6 63ba
00000220: 7e77 38be cca9 f1bd a2da 043c 46f3 093f
00000230: 244d 93bd adcc a139 99e2 76bd 7e59 423b
00000240: db2e 66be bd34 1f3b 2074 43be caad 273e
00000250: 218c 173d 0a94 7abb 58e3 393e cf22 8fbd
00000260: 698e d0be 4d29 253c c1b8 02bc 0bac 77bb
00000270: 04f1 9bbe 03b3 30bd 1149 09b9 2a31 fe3c
00000280: 72f6 193e e535 823d 9320 9f39 e318 30bf
00000290: d75a 323d 01f2 a9be fde4 5d3d 3363 18bc
000002a0: b290 9a3e 17d8 943d e804 253d d4cb 58be
000002b0: d646 2f3d 4390 a5ba a52d dbbe 255d 11bb
000002c0: 1b82 143f 908c 5dbc c8ca 143d 2a5a fa3e
000002d0: d227 a4be 8208 493d bc76 6b3f 4e1c bfbe
000002e0: b601 37be 2441 35bb ac04 33be de76 20be
000002f0: b01a 043f c65a 89be dd6c 03ba a177 e8bd
00000300: 5279 9e3b 4b57 e13c fb96 f2b9 da91 4a3d
00000310: 1255 ed3b c8ea 443d 6b6d 353b 51c1 a3ba
00000320: fa1e 9e3e 6e86 95be 6639 483a 1a7b 85be
00000330: cd68 3abc 7aaf 94bb 59f4 3f3d b10d 17bb
00000340: 5da5 bebd bea6 1fbc 4679 c63d df63 093d
00000350: 1381 02bd 3127 9bbb b7c0 133f 64a5 52be
00000360: 8f75 08be 587f 14bc 624b bfbc e449 773c
00000370: 8030 8e3d 418f 9cbc 8b16 89bc add9 eabc
00000380: 40d9 923a 9a7a 0f3c fa31 a8b8 ffc9 c43c
00000390: 9efc c33b 9d4f 423c dde1 4e3b 79de 9cb9
000003a0: 64f5 77bd 07a0 903b 6cac e53a 9ccd 633e
000003b0: 8b8c 3cbb dc69 23ba 44e6 28bc 043d c5ba
000003c0: 2345 58bb e095 c5bb cf64 a8bc 3b9b 01bd
000003d0: cdb3 1bbc 27db 56bb 8d97 98bc 4641 5c3a
000003e0: e1b6 363b 7ebc 77ba cdfb 85bc e12b 6c3b
000003f0: 3915 37bd 5272 b3bc 7938 02bc 1618 2ebc

b2 f4 [32]
-0.015169588 0.026693288 -0.0006645404 0.0013937342 -0.00266079 0.038753957 -0.004258955 0.0005003594
-0.06361046 0.15602644 -0.0032363008 0.041113365 -0.009903504 -0.0019132228 -0.025590772 0.0011793302
0.11356875 0.00033688196 -0.0686745 0.057349257 -0.033492766 -0.0052315337 -0.03525269 0.0977622
0.15571249 -0.021144908 -0.0022739228 0.023913642 -0.0040166993 -0.028208932 -0.0061342926 -0.014438843
00000000: dd89 78bc e2ab da3c 8d34 2eba f6ad b63a
00000010: a660 2ebb 78bc 1e3d b48e 8bbb 8d2a 033a
00000020: 3346 82bd 65c5 1f3e 1e18 54bb 7d66 283d
00000030: 4e42 22bc 1bc5 faba bda3 d1bc c193 9a3a
00000040: bc96 e83d 889f b039 37a5 8cbd 0ee7 6a3d
00000050: b62f 09bd 496d abbb 2065 10bd 8c37 c83d
00000060: 1873 1f3e 1638 adbc 1806 15bb 8be6 c33c
00000070: 849e 83bb 6b16 e7bc 2d02 c9bb e690 6cbc

w3 f4 [32, 64]
-0.006076198 -0.002512334 9.869292e-05 -0.0001343416 0.0049581975 -0.0022916861 0.009228381 -0.0011518245
-9.690957e-06 -0.0038074206 0.0054478506 -0.0018054284 -0.00091747113 0.0003946634 0.00038212427 0.0021162177
0.001000376 -0.005280041 -0.0070349574 -0.00011135921 0.0033566987 0.0049226223 0.0020677873 0.0008749021
0.0023138726 0.0019317713 -2.1845719e-07 0.004033097 -0.0018769687 -8.6159045e-05 -0.0066565657 -0.008095369
0.00015817543 -0.000112388014 -0.0021829007 0.0060543464 -0.0021715295 0.00016390697 -0.00021444648 9.800805e-07
-0.0020858785 0.0013040706 -0.003829156 -0.010863618 -9.477091e-05 -0.00015056127 0.007298108 -0.0039069364
0.00016216323 -5.3811378e-05 0.014448564 0.000240446 -4.7716517e-06 0.0034825567 0.00047795256 0.00017818922
-0.0035345063 -0.0044987323 0.0007110389 -0.00019586994 -0.0030611574 -0.00012840472 3.7873735e-05 6.490126e-05
0.01367788 0.0004328605 -3.2447006e-05 0.00010008389 -0.03739729 0.002925967 0.012895781 0.0007716884
-0.0030848002 -0.027304081 0.006515818 0.00029721792 0.00011871972 -0.00020116105 -9.078081e-05 -0.00033229182
7.038658e-05 -0.0043795477 0.006285986 0.00043323313 -0.00071913184 0.0035680733 8.3571955e-05 -0.0005958486
0.004907653 -0.00033401168 -0.29963145 -0.0009923085 -0.0016115475 6.0003455e-05 0.033154666 0.028973818
5.3647924e-05 -0.00031396508 0.00035049586 0.103527606 -0.00014330765 2.241512e-05 6.2736326e-05 -2.9442307e-07
-0.02969322 -0.0008193578 -0.007698453 -0.0032217863 5.2270203e-05 -0.00019554261 -0.00020731021 0.120803036
-0.00010856768 3.9503964e-05 0.003927538 -7.675024e-05 3.5810768e-05 -0.0006089917 -0.016732048 -0.0001632169
0.0005886157 -0.1276894 -0.00013009984 -0.0032431462 0.08508315 0.00030598845 -3.1397303e-05 0.00024911945
0.0007700515 -0.00011118739 1.1529188e-06 -2.6117418e-06 -0.0017519691 -9.1489026e-05 0.00036892848 -2.0228399e-05
-4.283462e-05 -9.810192e-05 0.00027825037 -1.6274678e-05 -7.0501565e-06 5.2129544e-06 9.944829e-06 1.6583312e-05
1.1942952e-06 -0.00018391777 -0.00016568841 -2.1693e-06 6.1025785e-05 0.00012297375 3.728901e-05 -2.7420114e-07
0.00018731915 1.5884405e-05 0.0014132753 3.9927803e-05 -5.7754816e-05 -1.5802799e-06 1.48242225e-05 -0.00021787648
-1.5547015e-06 -2.627097e-06 -4.8286645e-05 -0.0010781415 -4.756875e-06 8.188395e-07 -1.8217631e-06 8.879805e-09
-0.00019910674 2.5353389e-05 -5.9424237e-05 -0.00010331865 -3.2381793e-06 -5.0047115e-06 0.00011670547 -0.00037944893
6.646148e-06 -2.5063898e-06 -0.0006903514 2.1897024e-06 -1.5339434e-07 2.8410548e-05 -3.4073586e-05 4.998324e-06
-3.5158235e-05 0.0025991427 6.0332686e-06 8.627395e-05 -0.00012333105 -3.3956228e-06 7.8034185e-07 -1.1770516e-06
-0.1613283 0.007485746 -0.00082941644 0.00079072727 -0.39445516 -0.047958292 0.086375095 0.0077798823
0.003342698 -0.014854148 -0.035516266 0.0039335145 0.007516152 -0.005600922 -0.0034662432 -0.0026374855
0.00088396895 -0.23412961 -0.034481443 0.002246306 0.09181102 -0.044330195 0.004130535 -0.009061086
-0.07819255 -0.06587678 0.17233932 -0.019172467 -0.0017629074 0.00042255086 0.05099308 -0.091114305
-0.009523494 0.011965476 0.009786508 0.49542648 -0.074451916 -0.017972266 0.007988531 -5.163012e-07
0.2493887 -0.002000437 0.06030993 0.011648585 0.00046651764 0.0013830985 -0.12118587 -0.28672078
-0.0007550459 0.00023906255 0.15596041 0.0009324512 0.0049910997 0.0024794533 0.21604611 0.021848494
0.00085347315 -0.29632944 -0.0008436965 0.09197513 0.1941357 -0.001303547 -0.00015758738 0.070168026
00000000: d81a c7bb f8a5 24bb 5cf9 ce38 0cde 0cb9
00000010: 6078 a23b 1d30 16bb a332 173c d1f8 96ba
00000020: 5896 22b7 eb85 79bb e283 b23b 20a4 ecba
00000030: 7282 70ba d3ea ce39 da57 c839 3eb0 0a3b
00000040: 0c1f 833a 3204 adbb 8085 e6bb 8589 e9b8
00000050: 0ffc 5b3b f34d a13b b783 073b b059 653a
00000060: 57a4 173b 7d33 fd3a 0e91 6ab4 1228 843b
00000070: 9e04 f6ba 49b0 b4b8 521f dabb 70a2 04bc
00000080: e5db 2539 dbb1 ebb8 ff0e 0fbb 8a63 c63b
00000090: 3850 0ebb 71de 2b39 0add 60b9 4f8b 8335
000000a0: 3cb3 08bb 59ed aa3a 94f2 7abb 51fd 31bc
000000b0: bfbf c6b8 fcdf 1db9 f824 ef3b c205 80bb
000000c0: 5c0a 2a39 87b3 61b8 abb9 6c3c 3b20 7c39
000000d0: 2d1c a0b6 9b3b 643b b595 fa39 4ed8 3a39
000000e0: 2da3 67bb 1a6a 93bb 0365 3a3a 7062 4db9
000000f0: b39d 48bb 61a4 06b9 9dda 1e38 991b 8838
00000100: 3019 603c 8ef1 e239 b517 08b8 21e4 d138
00000110: e72d 19bd 95c1 3f3b d348 533c 224b 4a3a
00000120: 5c2a 4abb cfac dfbc a582 d53b ead3 9b39
00000130: 2af9 f838 c2ee 52b9 9461 beb8 7437 aeb9
00000140: 829c 9338 4f82 8fbb acfa cd3b 9123 e339
00000150: 1f84 3cba 56d6 693b 5a43 af38 b932 1cba
00000160: 61d0 a03b 4a1e afb9 4b69 99be 5910 82ba
00000170: 903a d3ba 38ac 7b38 30cd 073d 805a ed3c
00000180: 0504 6138 ae9b a4b9 c2c2 b739 4806 d43d
00000190: db44 16b9 1b08 bc37 4f91 8338 3311 9eb4
000001a0: 323f f3bc 2cca 56ba 4e43 fcbb 9b24 53bb
000001b0: b43c 5b38 920a 4db9 6961 59b9 9567 f73d
000001c0: d4ae e3b8 0fb1 2538 94b2 803b f9f4 a0b8
000001d0: 8533 1638 bea4 1fba a611 89bc 3425 2bb9
000001e0: 554d 1a3a 03c1 02be 696b 08b9 f78a 54bb
000001f0: 1340 ae3d 136d a039 99b0 03b8 3f9c 8239
00000200: 48dd 493a 472d e9b8 fdbd 9a35 6245 2fb6
00000210: 54a2 e5ba ccdd bfb8 be6c c139 28b0 a9b7
00000220: 53a9 33b8 11bc cdb8 22e2 9139 9b85 88b7
00000230: 6290 ecb6 f0ea ae36 b7d8 2637 641c 8b37
00000240: ac4b a035 0dda 40b9 a5bc 2db9 4a94 11b6
00000250: f0f5 7f38 84f2 0039 c566 1c38 eb35 93b4
00000260: 1a6b 4439 803f 8537 a63d b93a 2778 2738
00000270: c33d 72b8 011a d4b5 8db5 7837 c675 64b9
00000280: 23ab d0b5 2f4d 30b6 6487 4ab8 6d50 8dba
00000290: 3f9d 9fb6 39ce 5b35 4e83 f4b5 cc8d 1832
000002a0: 4fc7 50b9 fdad d437 4a3e 79b8 c7ac d8b8
000002b0: 7f4f 59b6 25ee a7b6 c6bf f438 c6f0 c6b9
000002c0: fa01 df36 7333 28b6 b3f8 34ba cdf2 1236
000002d0: b7b4 24b4 3053 ee37 3cea 0eb8 47b7 a736
000002e0: de76 13b8 6156 2a3b 6271 ca36 f9ed b438
000002f0: 6d52 01b9 5be0 63b6 af78 5135 2ffb 9db5
00000300: 3f33 25be fd4a f53b 326d 59ba cf48 4f3a
00000310: 07f6 c9be ea6f 44bd 6de5 b03d 62ee fe3b
00000320: 2b11 5b3b d05e 73bc 8179 11bd b6e4 803b
00000330: 0e4a f63b f087 b7bb e929 63bb aad9 2cbb
00000340: 27ba 673a acbf 6fbe 6a3c 0dbd c336 133b
00000350: 6b07 bc3d 9493 35bd 7059 873b f374 14bc
00000360: 6a23 a0bd 68ea 86bd b879 303e 940f 9dbc
00000370: 5b11 e7ba d189 dd39 1fde 503d 239a babd
00000380: 6e08 1cbc d80a 443c 9757 203c 8aa8 fd3e
00000390: 3f7a 98bd 933a 93bc 54e2 023c f397 0ab5
000003a0: c05f 7f3e c319 03bb 8c07 773d b5d9 3e3c
000003b0: f096 f439 1649 b53a 4c30 f8bd 11cd 92be
000003c0: 46ee 45ba ddac 7a39 16b4 1f3e be6f 743a
000003d0: 618c a33b 537e 223b 313b 5d3e 9dfb b23c
000003e0: 9dbb 5f3a 7eb8 97be 842b 5dba 755d bc3d
000003f0: 82cb 463e c7db aaba 0a3e 25b9 41b4 8f3d

b3 f4 [64]
-0.020458719 0.0002858293 -0.001332853 0.0013156018 -0.006241493 -0.004690289 0.006645446 -0.0021634265
-0.0025794094 0.011284756 0.006978313 0.00216706 0.00029486537 0.0005128353 -5.497416e-05 -0.0029996927
-0.0035353934 -0.0020672556 0.002183064 -0.00075099897 -0.0007831689 0.016791884 0.0027668264 0.00096056616
0.0034562803 -0.0012587697 -0.004067892 0.0133592775 -0.002753369 0.00078181946 -0.010216371 -0.01790286
0.0011392868 0.0010588864 0.0021835545 0.00748235 -0.0042132684 -0.0050634653 -0.00026331109 -1.2584967e-05
-0.0047378903 0.024840362 -0.0014310429 -8.849107e-05 0.0013772841 0.0011747779 0.01533828 0.010153164
-0.0018239768 0.0005451083 0.0168323 -6.3250685e-05 -5.2729542e-06 0.004463655 -0.0002604506 0.0050600753
0.004518049 -0.010377672 0.00081135554 -0.0036526253 -0.05716117 -0.0018642846 -0.000325262 -0.0004256496
00000000: 0b99 a7bc 5cdb 9539 20b3 aeba 4570 ac3a
00000010: 7085 ccbb ffb0 99bb 0bc2 d93b 46c8 0dbb
00000020: 4f0b 29bb b2e3 383c 55aa e43b 3c05 0e3b
00000030: 2998 9a39 cb6f 063a 0e94 66b8 7e96 44bb
00000040: 0fb2 67bb cb7a 07bb bc11 0f3b b0de 44ba
00000050: 934d 4dba 228f 893c a553 353b 81ce 7b3a
00000060: c382 623b 4dfd a4ba f44b 85bb dfe0 5a3c
00000070: de71 34bb 04f3 4c3a 9162 27bc 05a9 92bc
00000080: 1f54 953a 55ca 8a3a f719 0f3b 802e f53b
00000090: 750f 8abb 6deb a5bb 040d 8ab9 0624 53b7
000000a0: 4e40 9bbb 047e cb3c d591 bbba 4894 b9b8
000000b0: fc85 b43a 01fb 993a 694d 7b3c 7559 263c
000000c0: 8112 efba 99e5 0e3a e4e3 893c 74a5 84b8
000000d0: 55ee b0b6 da43 923b 168d 88b9 fdce a53b
000000e0: 240c 943b 1c07 2abc 26b1 543a e260 6fbb
000000f0: d521 6abd 035b f4ba ed87 aab9 b929 dfb9

w4 f4 [64, 8]
0.18585514 0.28227732 -0.03407967 0.009404276 -0.17402802 -0.19689247 0.0999305 -0.00048670638
0.38401908 -0.3484519 0.019845506 0.16005138 0.18611974 -0.36355805 0.27407455 -0.0044599944
-0.0055959867 -0.0044591185 -0.0024298318 0.00076016376 0.0027254624 0.0034508393 -0.0010773097 -0.0004270643
0.0010634165 0.012590486 -0.0026156956 4.9531827e-05 -0.00015278872 -0.011780484 0.004078094 -0.0003573241
-0.025336597 -0.8981837 -0.14939219 -0.08234742 -0.28653902 0.6969121 0.47657463 -0.05784529
0.041494872 0.047108177 -0.031554125 -0.00797376 -0.00011983611 -0.019870162 0.037887927 0.00050310424
-0.50441986 -0.61196333 -0.45236754 -0.01997852 -0.049743492 0.1723894 0.27079466 0.0021511128
-0.15138765 0.2262023 -0.19437447 -0.041676015 0.17515972 0.55266947 0.13877846 -0.0005217416
-0.049358405 0.08450741 0.0018758364 -0.0013866499 -0.10824399 -0.24222982 -0.007429002 0.0007777884
0.6720601 -0.14157017 0.0452036 -0.011400847 -0.12106009 1.124853 0.0992482 -0.02687969
-0.017039323 0.16414371 0.33073857 0.04521226 -0.16033095 0.45189765 -0.31221384 -0.005354805
-0.035578717 0.12414035 0.00072013796 -0.00016346664 -0.049925596 0.054984547 0.0029266272 0.00014882242
0.097018175 0.0048327846 -0.014922371 1.8089486e-05 0.032369368 0.0568662 -0.06606964 -0.00015602604
0.005417812 -0.05402735 -0.00059102057 -0.0002632376 -0.016620332 -0.026610252 0.0010195909 9.360472e-05
0.0075587723 -0.060587812 0.0036972968 0.0011227598 0.001621926 -0.002899624 -0.004677434 8.202e-05
0.00289343 -0.13857216 -0.0045293304 -0.001350317 0.0035274774 -0.08186806 0.009389612 0.0005399483
-0.0011611017 -0.006377032 0.00062493444 -0.0004399113 -0.001009673 0.000605718 -0.0015692953 0.00029689216
-0.004050397 0.20360799 0.0074192965 -0.0014979037 -0.0014264879 -0.2346117 -0.009010133 0.00046786558
0.1697416 0.3267836 0.36584926 0.083704695 0.73945874 0.23693752 0.18077993 -0.014306595
-0.00014393321 0.0052384287 -0.008159408 -0.005631822 -0.0013754623 0.01867416 0.010772608 0.002521104
-0.19765835 0.03692168 -0.003498271 -0.008754339 -0.003859384 0.12981157 0.033100966 0.004421468
-0.19182877 -0.15163185 0.05196241 0.03358168 0.7183095 0.29421547 -0.15012887 -0.0002761825
0.03279744 -0.09827958 -0.014808311 -0.0074540293 -0.0013831633 0.04266061 -0.0025128117 0.0024543498
0.03817031 -0.037819237 0.0049518174 0.00014331067 -0.06862274 -0.037894312 -0.0063169305 1.1888452e-06
0.096599504 -0.50093997 -0.02299363 0.028083153 0.18505035 0.17362936 0.11330264 -0.011853153
-0.05111734 -0.054472744 0.013706922 0.0042389752 0.1915847 -0.049120337 -0.01777349 -0.0012722577
-0.07769495 0.09357333 -0.08572515 0.005587874 0.13629109 -0.9436297 0.34075537 -0.0075021517
0.04799383 -0.2844876 0.004352653 0.004683465 0.1076347 -0.121817335 -0.04151306 -0.0023306143
-0.052575093 0.09770811 0.0084913 0.0013412104 -0.03748507 -0.14484704 -0.010157995 -0.00030610705
0.0030450013 0.007547107 -0.00015221405 0.0004882181 -8.68522e-05 -0.0034611647 0.0011670039 -0.00026031
0.25908527 -0.015550025 0.102918305 0.11284986 0.20681901 -0.6107955 0.6250615 -0.0002620487
-0.037771296 0.858253 0.027454913 -0.012785187 -0.02540832 0.036000334 -0.085431375 0.0034931295
00000000: cf50 3e3e a786 903e 2097 0bbd 6414 1a3c
00000010: 6734 32be 2e9e 49be 5da8 cc3d a02c ffb9
00000020: 269e c43e 4a68 b2be 0b93 a23c 82e4 233e
00000030: 2c96 3e3e 4824 babe 8053 8c3e 2525 92bb
00000040: 8a5e b7bb cc1d 92bb d03d 1fbb ba45 473a
00000050: ac9d 323b 7a27 623b 8434 8dba 9ae7 dfb9
00000060: 5662 8b3a 5348 4e3c 176c 2bbb 65c0 4f38
00000070: e935 20b9 ee02 41bc 88a1 853b 3b57 bbb9
00000080: b28e cfbc 5eef 65bf 44fa 18be c4a5 a8bd
00000090: 3eb5 92be d568 323f 9701 f43e 2fef 6cbd
000000a0: 87f6 293d 81f4 403d e63e 01bd 60a4 02bc
000000b0: 8650 fbb8 c0c6 a2bc 5f30 1b3d c1e2 033a
000000c0: a921 01bf a1a9 1cbf b89c e7be fea9 a3bc
000000d0: d5bf 4bbd d986 303e 99a5 8a3e aff9 0c3b
000000e0: 5d05 1bbe 93a1 673e 1a0a 47be 78b4 2abd
000000f0: 125d 333e bf7b 0d3f f11b 0e3e 7cc5 08ba
00000100: 0a2c 4abd 3912 ad3d a0de f53a 40c0 b5ba
00000110: 06af ddbd 180b 78be fc6e f3bb 7fe4 4b3a
00000120: 210c 2c3f c5f7 10be 6927 393d 9eca 3abc
00000130: 5aee f7bd 2ffb 8f3f a442 cb3d cc32 dcbc
00000140: 0d96 8bbc 4a15 283e 9156 a93e 7e30 393d
00000150: cc2d 24be 215f e73e 7eda 9fbe 5c77 afbb
00000160: fdba 11bd 4c3d fe3d a4c7 3c3a 3e68 2bb9
00000170: c87e 4cbd 7a37 613d a8cc 3f3b 370d 1c39
00000180: 77b1 c63d 565c 9e3b f67c 74bc e0be 9737
00000190: be95 043d 88ec 683d 854f 87bd ec9a 23b9
000001a0: e787 b13b c84b 5dbd b8ee 1aba 2703 8ab9
000001b0: 5d27 88bc befd d9bc cba3 853a a74d c438
000001c0: 94af f73b ed2a 78bd 594e 723b 9129 933a
000001d0: ce96 d43a 9e07 3ebb 2945 99bb 2702 ac38
000001e0: b39f 3d3b dce5 0dbe c76a 94bb 1ffd b0ba
000001f0: 402d 673b 71aa a7bd e3d6 193c 518b 0d3a
00000200: 1c30 98ba 6cf6 d0bb a4d2 233a e5a3 e6b9
00000210: 0157 84ba 0cc9 1e3a d0b0 cdba 31a8 9b39
00000220: 31b9 84bb 9d7e 503e 921d f33b 4f55 c4ba
00000230: fef8 baba 0d3e 70be 3d9f 13bc db4b f539
00000240: bed0 2d3e 2e50 a73e 9850 bb3e 5e6d ab3d
00000250: 2b4d 3d3f c09f 723e 601e 393e 3566 6abc
00000260: c7ec 16b9 20a7 ab3b 0aaf 05bc 268b b8bb
00000270: db48 b4ba 8dfa 983c 987f 303c 1b39 253b
00000280: f366 4abe 303b 173d 4043 65bb 5c6e 0fbc
00000290: b8ed 7cbb 53ed 043e e194 073d f6e1 903b
000002a0: c36e 44be 6145 1bbe 89d6 543d f28c 093d
000002b0: 22e3 373f 69a3 963e 62bb 19be 96cc 90b9
000002c0: 9c56 063d ce46 c9bd 8f9e 72bc ee40 f4bb
000002d0: 424b b5ba e4bc 2e3d fcad 24bb 28d9 203b
000002e0: 7958 1c3d 58e8 1abd db42 a23b aa45 1639
000002f0: 148a 8cbd 1137 1bbd 41fe cebb 6990 9f35
00000300: f6d5 c53d 9a3d 00bf 235d bcbc a40e e63c
00000310: d77d 3d3e e5cb 313e 370b e83d ba33 42bc
00000320: 6a60 51bd d01e 5fbd ff92 603c 1ae7 8a3b
00000330: c82e 443e 6832 49bd b699 91bc e2c1 a6ba
00000340: 881e 9fbd 60a3 bf3d ab90 afbd 7c1a b73b
00000350: e48f 0b3e b791 71bf 7d77 ae3e 9cd4 f5bb
00000360: 2e95 443d 5ca8 91be b3a0 8e3b c177 993b
00000370: 956f dc3d 5e7b f9bd 9909 2abd 38bd 18bb
00000380: fb58 57bd 311b c83d 181f 0b3c 8ecb af3a
00000390: f289 19bd c852 14be b86d 26bc fe7c a0b9
000003a0: a58e 473b b94d f73b a69b 1fb9 86f7 ff39
000003b0: 6b24 b6b8 b5d4 62bb 27f6 983a 377a 88b9
000003c0: d3a6 843e 88c5 7ebc d5c6 d23d d41d e73d
000003d0: 5dc8 533e 185d 1cbf 0804 203f 9563 89b9
000003e0: 13b6 1abd 78b6 5b3f 20e9 e03c f678 51bc
000003f0: 1c25 d0bc 1675 133d a5f6 aebd fdec 643b

b4 f4 [8]
-0.0075891125 -0.020214336 0.012553412 0.0062500057 0.0040406412 0.0051890817 -0.007888356 0.00094287255
00000000: 17ae f8bb 8998 a5bc d3ac 4d3c d9cc cc3b
00000010: 5b67 843b 2c09 aa3b 2a3e 01bc 1b2b 773a

w5 f4 [8, 1]
0.5864564 0.69000196 -0.39587367 -0.19916886 0.039607763 -0.1876533 0.4490248 0.10457738
00000000: 0222 163f f8a3 303f f4af cabe ecf2 4bbe
00000010: c03b 223d 3028 40be 94e6 e53e aa2c d63d
