model_saved/2024-01-25-07-47-24/model_2024-01-25-07-47-28_epoch_1000_train_mse_9.44e-02_val_mse_1.08e-01.pt (torch, 17939 bytes, 9 tensors)

w1 f4 [8, 16]
00000000: 7a7e 63bf 02d5 283f bfd3 c73d f5ee b43e
00000010: 28e3 193f 5f74 993e 52b3 663f d262 7d3f
00000020: 89d9 59bf aca3 c1be fc40 99bf 4dfd 04bf
00000030: f890 193e 52b9 723c 6f54 673f 158c 3dbf
00000040: ba57 d43f da9b 4d3e 91cb 10bc a179 793d
00000050: aaa0 f4be 9b2a 38be 14c5 973f 4919 0a3e
00000060: bc5c b7bd cac7 7fbf b2e3 76bf 317a 723e
00000070: 083b 1b3f 5d34 10bd 7e2e 24be 7ed4 5b3f
00000080: e0c3 1b3e 3608 6a3e 205e 0dbf 26d2 2c3b
00000090: 4dea 85bf 0035 b63e c980 c53e ae24 d6be
000000a0: 8895 91bd f100 00bf e45d 00bf a585 ce3e
000000b0: 11cb 3c3e f7ff 4f3d 8481 0c3e 4c65 a53e
000000c0: bd43 57bf 2729 92be f775 933d f1ee 863a
000000d0: 9468 423f 2a2d 073f 1013 06bf 03e7 2dbe
000000e0: 8709 12be d081 1bbf ead3 933f e0f4 70bf
000000f0: 040a 233c 2498 1c3f f7fb 8dbd d032 ad3e
00000100: ff48 373f 774f 9b3f f47d dbbe c4e0 43bd
00000110: d189 0340 3145 9c3f 4fb9 b4bc c8b5 5abe
00000120: 3eb8 ba3e 8a93 8abe 6aed f73d 4ccc 9fbf
00000130: 4b98 2540 796e bebe b241 cabe 9139 373f
00000140: 2ee4 52be 11bf 4fbf 80d9 50bf 1ac8 943d
00000150: af56 c1bf 1367 50bf ebbd aebe a01b 44be
00000160: 8630 2cbf b607 32bf af50 b1bf bf12 87bf
00000170: 8012 9b3e fac8 663e 2c41 bb3e bf13 62be
00000180: 1666 183c cb1e 1a3f c6ba f3be 9398 353b
00000190: b6cc dd3e 7bd5 ca3e 091f 403e 07e3 7abf
000001a0: 926d ef3c 60d1 2dbf 4a20 863f ac00 87bd
000001b0: b3c5 783d f33e 88bd 6253 333d aba7 61be
000001c0: 2f6c 083e e7a9 42be de5f 6cbd 015c aa3a
000001d0: 6c05 aabf ffff 843f 5c14 6c3d bc42 483f
000001e0: d353 0c3f 80d7 3ebf 4569 8b3d 9b88 073f
000001f0: ed13 d7be dab1 a3be 5118 8e3e 48a6 5ebe
-0.8886486 0.65950024 0.09757184 0.3533856 0.6011224 0.29971597 0.9011737 0.9897891
-0.8509756 -0.37820184 -1.1972957 -0.51949006 0.14996707 0.014814692 0.9036321 -0.74041873
1.6589272 0.20078984 -0.0088375965 0.06090701 -0.47778827 -0.17985003 1.1857018 0.13486208
-0.089532346 -0.9991423 -0.96441185 0.23679425 0.6063695 -0.035206188 -0.1603336 0.8587111
0.15211439 0.22854695 -0.5522175 0.0026370375 -1.0462128 0.3558731 0.38574818 -0.4182486
-0.07108599 -0.50001436 -0.50143266 0.40336338 0.18436839 0.050781216 0.13721281 0.32303846
-0.84087735 -0.28547022 0.072002344 0.0010294599 0.75940824 0.5280329 -0.5237284 -0.16982655
-0.14261447 -0.60744953 1.1549046 -0.9412365 0.009951118 0.6116965 -0.06932824 0.3382783
0.7159576 1.2133626 -0.42869532 -0.047821775 2.0552866 1.2208616 -0.022061018 -0.21358407
0.3646869 -0.27065688 0.1210583 -1.2484221 2.5874202 -0.3719366 -0.39503247 0.71572214
-0.20594856 -0.8115092 -0.8158188 0.07264729 -1.5104579 -0.8140728 -0.3412927 -0.19151163
-0.6726154 -0.69543016 -1.3852748 -1.0552596 0.30287552 0.22537604 0.3657316 -0.22077845
0.009301683 0.60203236 -0.47603434 0.002770935 0.43320245 0.39615998 0.18761839 -0.98002666
0.029227052 -0.67897606 1.0478604 -0.06591925 0.060735416 -0.066526316 0.043780692 -0.22036617
0.13322519 -0.19010125 -0.057708614 0.001299739 -1.3282905 1.0390624 0.057636604 0.7822683
0.54815406 -0.74547577 0.06807188 0.5294282 -0.4200739 -0.31971627 0.27752927 -0.21743119

b1 f4 [16]
00000000: 2bee e2be f554 5abf 8938 c23e 389f 91be
00000010: e1e9 3ebf e1e3 f53f 75be b83d cd3f 973e
00000020: 82cc f4bd 7547 0e3f cf8c b73e 3692 55be
00000030: 916a f0bd 1efa a53f c5e5 ddbe f9dc 15bf
-0.44322333 -0.85285884 0.37933758 -0.28441787 -0.7457562 1.9210168 0.09020702 0.29540864
-0.11953069 0.55577785 0.35849616 -0.20856556 -0.11739076 1.2966955 -0.43339363 -0.585403

w2 f4 [16, 32]
00000000: 7005 39bd e6b9 1f3d 69b8 fcba 565d 68bd
00000010: d32a 7abc 23d9 4dbd 9dfd 113b 53bb 423a
00000020: b8b2 6fbe 5bb1 203e e932 b338 a435 a0be
00000030: f6f3 223e 7926 a8bc 2c20 e4be 4c9a a13c
00000040: 9f38 e7bd eaef 38b1 16a4 e0bd 1223 84be
00000050: 91ab 803e 7585 28bb 62f3 0c3f 9ca8 3d3e
00000060: 6a90 35bf 9d47 babd 5766 92b9 bef8 01be
00000070: d8fb 89bd a3c5 953c 8301 e03c 5b61 13bd
00000080: bba2 25bb a667 433e 1fca 32b9 785d 8b3a
00000090: 13d5 1cb0 c71d bc3b 8d8a 04be ea68 afa7
000000a0: 39bb 70bc f465 cc3c 31ae 97b9 c5d2 bcbd
000000b0: ffaa 0236 323f 673e dcca 073c 1c10 1639
000000c0: cbf9 983c 84ec 7037 59cb 85b9 2359 9fbc
000000d0: 9d77 dbbb b1f9 bb3d 3311 073d a086 ee3d
000000e0: 658d 1e3e 6070 bfb5 8284 18bd 262d f6ba
000000f0: 2fbd b23c f4bd 0d3c 2606 823b 440b 86bb
00000100: b89e a93d 2eab debd 8dab 113e e8c4 d2bd
00000110: 4a4d 1e3b 8f58 2b3e 6c3a ac3e 25a3 063d
00000120: 7be6 173f 16ce a83f 8837 9fbc 0a24 8c3e
00000130: eb23 f63e 2c35 6c3d 3e74 1ebf b229 853e
00000140: f5ec 0e3e 5610 8d3c 57b3 13bf ad94 283f
00000150: a9b6 81bd 6a4f d43d 9aac b8be 5430 23bf
00000160: db93 dc3e 4360 69bd cec3 e93d d106 f6be
00000170: aaee 0dbf a549 f2bd 0d06 a63c b5d9 413e
00000180: 30b5 a83e b54e 2d3e 66d1 fe3c f1d3 d0bd
00000190: 206f a938 2f95 81be 9d80 373e 2f46 22bd
000001a0: e0e4 8e3e c6f5 19bf 1f66 8ebb 3734 233e
000001b0: a684 9b3c 183d e7b9 0348 4c3e b883 6eba
000001c0: 5582 18bc 045d 09bb 7996 d438 2174 07bf
000001d0: 06b2 febe afb2 12bd d7dc 58be 5b27 4abe
000001e0: da4b c6bd 63e9 053c 88fc 7dbe 7a6b a13e
000001f0: 8347 07bd fd6f 163e 8f14 a0bb 86d7 36bd
00000200: 0a3d 15bf 4cd5 313f 8739 35bd 0d38 103f
00000210: 5298 cebb c168 7cbf a61e 1b3d 02d0 c23c
00000220: 95d7 b9be 60f8 92be cebf 96bd cf8d 6b3f
00000230: b9a3 9ebf 4dd0 18bc 7a6a 48be f4b6 23bb
00000240: bce4 34bf e29e 41ba b493 17bf cb27 293f
00000250: de1f 663e 9e7c 54bd 2f7d eb3e 8b85 19be
00000260: d64f a3bf 5017 1f3e 6f56 6f3d 7042 a53c
00000270: 38d3 83bf 2038 80be 55c5 ebbb 4743 2f3e
00000280: e331 1f3f 508d 093f 4eb1 a33e a474 ddbf
00000290: f025 5e3e a926 a3bf 7d57 8c3e a04c e0be
000002a0: 0774 dd3e bd82 1a3e 60f2 983e e741 90be
000002b0: 7c7c 8f3e 4872 23bd 34b5 54bf eaca 8c3d
000002c0: dbd7 7a3f b6a1 0abe 54c1 703d 93b5 913f
000002d0: 6329 27bf f26e 553e 70ff ae3f de66 1bbf
000002e0: 8c3e 89be c4c7 593f 1c4e 10bf 6b9e 7abf
000002f0: b694 683f 7469 42bf fc18 e03c 4383 89be
00000300: e30a ad3e 242f cbbe 1306 a8bd 762e b93c
00000310: 66de eabd 4da3 193f 1402 cfbc d749 e4bd
00000320: a6c5 763f d907 50bf f4f6 82bc 9a35 f5be
00000330: 4d25 bfbe 5d85 2bbc 6233 0b3f 51a4 dab9
00000340: 9f54 f4be 094c a8ba 9f95 1e3f faba 5d3f
00000350: e345 83be 2316 bd3b 2525 ff3f e2f6 2dbf
00000360: eaf3 44bf ae65 aa3c 70f9 afbd f1b6 0fbf
00000370: c656 383f 4833 a73e 40a2 3d3a 120f 5dbe
00000380: 77fc 49bc 5b85 763e c70c 863b 68f8 a9bd
00000390: bf93 203a 556f 81ba 1fe1 653c 1292 beb7
000003a0: 5a3f 15be 2360 c93e 925a 4039 bc48 663f
000003b0: 0f44 d93a 1cad 8a3b a543 8c3e 7656 473b
000003c0: 4a64 49be 6b86 1e3b 3ceb 493e 4d8b d83e
000003d0: 0de1 aabe c933 e038 dc7e 1f3e 9076 c93d
000003e0: 0d19 6c3e 6702 dab9 383d 20bb 1947 6dbe
000003f0: a2cc d0bd 4a94 24bd 8243 7e3a 3e26 f13b
-0.0451712 0.038995646 -0.0019281033 -0.056729637 -0.015268999 -0.050255906 0.002227641 0.0007428426
-0.2340802 0.15692656 8.544868e-05 -0.31290925 0.15913376 -0.020526158 -0.44555795 0.019726895
-0.112900965 -2.69119e-09 -0.10968797 -0.25808007 0.25130895 -0.0025714312 0.5505887 0.1852135
-0.70923483 -0.090956904 -0.0002792354 -0.12692544 -0.067374885 0.018282717 0.02734447 -0.035981517
-0.0025273997 0.19082507 -0.00017050699 0.0010632714 -5.7055266e-10 0.0057408544 -0.12943478 -4.8686005e-15
-0.014693075 0.024950959 -0.00028930747 -0.092198886 1.9471042e-06 0.22582701 0.008288112 0.00014311116
0.018673798 1.4360183e-05 -0.00025519243 -0.019451683 -0.0066976086 0.09178484 0.032975387 0.116467714
0.15483625 -1.4263314e-06 -0.037235744 -0.0018781766 0.021818725 0.008651245 0.003968018 -0.0040906984
0.08282226 -0.10872494 0.14225598 -0.10291463 0.0024154955 0.16733001 0.33638322 0.03287043
0.5933606 1.3187892 -0.019435659 0.27371246 0.48074278 0.057667896 -0.6189612 0.26008373
0.1395758 0.017219704 -0.57695526 0.6585186 -0.06333668 0.103667095 -0.36069185 -0.6374562
0.43081555 -0.056976568 0.114143 -0.48052076 -0.554423 -0.11830453 0.020266557 0.18930705
0.32950735 0.16924556 0.031105708 -0.101966746 8.0792466e-05 -0.2530913 0.17920156 -0.039617714
0.27908993 -0.60140646 -0.00434567 0.15937887 0.01898415 -0.00044105272 0.19949345 -0.0009098607
-0.009308417 -0.0020959983 0.000101369755 -0.52911574 -0.49745196 -0.035814937 -0.21177994 -0.19741575
-0.09682436 0.0081733195 -0.24803364 0.3152731 -0.033027183 0.14691158 -0.0048852633 -0.044639133
-0.58296263 0.6946609 -0.044244315 0.56335527 -0.006304779 -0.9859734 0.037871026 0.023780826
-0.3629729 -0.2870512 -0.073608026 0.9201326 -1.2393714 -0.0093270065 -0.19571868 -0.0024980875
-0.7066152 -0.0007386041 -0.5920975 0.66076344 0.22473094 -0.051876657 0.45993945 -0.14992349
-1.2758739 0.15536237 0.05843204 0.020173281 -1.0298834 -0.2504282 -0.0071951547 0.17115508
0.62185496 0.5373125 0.3197121 -1.7301221 0.2169416 -1.2746173 0.27410498 -0.4380846
0.43252584 0.15088935 0.29872417 -0.2817528 0.28024662 -0.03990391 -0.83088994 0.0687464
0.9798562 -0.1353825 0.058778122 1.1383537 -0.65297526 0.20843104 1.3671703 -0.6070384
-0.26805532 0.85070443 -0.56369185 -0.97897977 0.90851915 -0.7594216 0.027355663 -0.26857957
0.33797368 -0.39684403 -0.082042836 0.022605162 -0.114682004 0.600148 -0.025269546 -0.11146896
0.9639534 -0.81261975 -0.015986897 -0.47892457 -0.37333146 -0.010468808 0.5437528 -0.00041702625
-0.4772081 -0.0012840043 0.61947054 0.8661343 -0.25639257 0.005770461 1.9933211 -0.6795484
-0.76934683 0.020800438 -0.08592498 -0.5613852 0.72007406 0.32656312 0.0007233955 -0.2158778
-0.012328259 0.24074309 0.0040908786 -0.08299333 0.00061255315 -0.0009875098 0.014030724 -2.2717784e-05
-0.14574948 0.3933116 0.00018344287 0.89954734 0.0016576069 0.004232062 0.2739536 0.0030416525
-0.19667163 0.0024189006 0.19718641 0.42293778 -0.33374825 0.00010690798 0.15575737 0.09837067
0.23056431 -0.0004158199 -0.0024450552 -0.23171653 -0.101952806 -0.040180482 0.00096993905 0.007359295

b2 f4 [32]
00000000: fd10 4ebe 1b7f 58be c855 aabc 80ba 66be
00000010: 7691 51bc 1f77 ce3e e01b 90bc f76d a83a
00000020: 08b4 31be dd08 1e3f 74ad 3ebb 53c0 943d
00000030: 55dd f3bc c780 4fb8 a12c 5bbe 7e81 d5b7
00000040: 845d 1d3f e561 b336 5c77 cabe 7921 0b3f
00000050: 50d8 bfbe a99f 03be 78b3 c7bd 8586 003f
00000060: 7528 363f ba08 34bd eb73 cfbc 3104 fd3e
00000070: 66eb 463e f93f bebe 355d 66bc 3b64 20be
-0.20123668 -0.21142237 -0.020792857 -0.22532082 -0.012791028 0.40325257 -0.017591417 0.0012850155
-0.17353833 0.61732274 -0.0029095085 0.072632454 -0.029768625 -4.947258e-05 -0.21403743 -2.5451878e-05
0.6147082 5.346012e-06 -0.3954419 0.5434795 -0.3746972 -0.12853874 -0.09751028 0.5020526
0.7115548 -0.043953635 -0.025323829 0.4941726 0.19425735 -0.37158182 -0.014060308 -0.15663235

w3 f4 [32, 64]
00000000: eced 103c db1e 7ebc f999 8bbb 270f 65b9
00000010: 146a 393d bbec bcbc 13b3 e33b 8ecf 463d
00000020: 6daa 7fbb cea9 c93c 480e 933d 3983 09b8
00000030: f9db 5c2d 1dce 4d27 874c 76b9 4174 f3bb
00000040: fe2a 13b8 ace9 53be f401 3dbe e03a c1bd
00000050: 5228 f0bc 8515 903d 093c 6bba 3822 40bb
00000060: 724e 32be 7523 a63c a4cd 793d 9725 07be
00000070: b39f c7b4 50b8 6dbd 409e f33a 53f2 2d3d
00000080: 261d 9b3e 7aa1 2f3c 263a d4ba 15f0 213e
00000090: b5ec ea3c 5494 4236 c7d0 53bc e11b a3be
000000a0: ea7c 0e3d fcc7 cdbd 0f2f a8bc 97b8 ddbe
000000b0: 3e7c 003a e7d5 033c 1637 18ba 4d12 bdbc
000000c0: da4e 0e3b 9899 05bd 5060 c03d 706f 203d
000000d0: 07e1 12ba f43d 0ebc ef9b 95bc 3423 333a
000000e0: 02e4 413c 5072 033d ee9d 87ba 5e90 07bd
000000f0: 3d1b b9bd 39c5 03bd a4cf 7db6 f406 38bc
00000100: 1063 453e afab 6a3e ca55 d2bd 3539 1fbe
00000110: 8f91 83be 46e6 9f3f cfd8 393e 031e 4ebe
00000120: d548 eb3b 1b27 61bf 4f17 663d 4e70 063b
00000130: 7877 cd3d 54db 9e3a fbd9 cb3e 1749 f0bc
00000140: 70c3 cf3d 38b4 0abc 6072 dc3e 97af 303d
00000150: 5a7e 97be 8762 0dbe cfa2 13be 5245 80be
00000160: 4576 273e fbad e03e f6e9 babf e417 3cbe
00000170: 95f3 293d 6b2d 433d fd3f b73e fd99 193f
00000180: b5d3 c13d 7ad8 6abf cea5 63be 89c7 463f
00000190: 1ab6 4d3d 3614 8d3e ecfd 72be 7bd1 bc3c
000001a0: 7a62 b5be ca2f 1c3f e1a3 ddbe 25f7 ccbc
000001b0: 9ec5 d33d be0d 32be 60d4 2dbe ffaf 503f
000001c0: 0350 ffbd e605 65bd e81e 8bbd d17c ea3c
000001d0: 7482 da3e 7673 fabe 159d afbe 202b 9cbe
000001e0: d617 1a3e 471f 40bf 1aa3 0dbb a96d 38be
000001f0: bf08 5b3f fbb3 d93d a169 633d eff1 043f
00000200: 6bac 8cbd 26e4 efbc be89 47bc ebcf 04bb
00000210: 0ff5 fcbd 11cd 15bf 56ef 2cba f065 bbba
00000220: 7160 593b 160b 44be 75b5 233e 3e0f 1d3e
00000230: 197d 2731 247e ccaa 2133 1d3a 5fe0 32bb
00000240: d6c8 223b 9fe0 ccbc 8bcd ec3d 4f86 663e
00000250: 98a7 7eb9 ca62 4ebd 04e6 c63c cb13 eb37
00000260: f267 b5bc bc7c 6eba 2541 7b3d 1cfc a2bd
00000270: 0f52 2434 035c 163c 32f1 f0bc e2cf dbbc
00000280: 3d5c 893d b9a1 f5bd 8e2b 2bbf bf64 bbbe
00000290: 1e7b 76bc 97d8 013c b56a 39bc 9452 0f33
000002a0: 6b3f 7bbd fad2 86bb 7c2c 00bd fdac 283c
000002b0: 99e0 b6be d17f 3ebd 01ec 3a3c 5b3d 1bbe
000002c0: 8d17 a73e 8959 52be 0fb2 e13c b0a9 e833
000002d0: abc3 2cbc 0bed 8dbc 8d7a 933e 0980 123c
000002e0: b57e bf3b 4bd7 a33e 9129 55b1 7468 38bd
000002f0: c8cf 75bd e8ac 48bd 152c 5a38 8039 0f3c
00000300: 2dd0 ffbe 01d8 8c3d a6cb c9bd 867d 7abe
00000310: bbdf 4fbf 484e 7dbf 62b1 093f 4580 273e
00000320: 3a44 0f3d 5cbc cfbd 5e00 d7bd 5529 c9bc
00000330: fdaa bcbd 2b60 e73b 5cd1 01bf 5a56 de3b
00000340: 2247 743e 72e9 42bf fd3f f6bd 0902 aebc
00000350: 444a 203f 7cca 9ebe 1db3 3b3c 1737 33bd
00000360: 8fc7 dfbe 9742 24bf 50e9 b13e f00c bcbd
00000370: 0272 7bbd dc0f 983e e410 053e 09a7 d8be
00000380: 7a61 a3bd b9c1 073f 0586 023e 6f12 833f
00000390: 0df4 02bf 1569 b5be 038a ee3d 732b 6334
000003a0: 5305 3e3f 1c2a aabb ab86 223e 1182 b83d
000003b0: d863 1a3e fc3e 6bbe 26f7 15bf a3c1 1fbf
000003c0: 2798 523e 4cd4 da3d a902 023f c369 84bb
000003d0: 1f85 493f c349 423d 9652 133f 9e0f 833e
000003e0: 4fb7 83be 537b 34bf fd53 803a a446 693e
000003f0: c176 033f c627 79bd ae2f 983e cc5d 0d3f
0.0088457875 -0.015510286 -0.0042602983 -0.00021844787 0.04526718 -0.0230621 0.0069488375 0.048537783
-0.0039011494 0.024617102 0.07180458 -3.2785556e-05 1.2554396e-11 2.85612e-15 -0.00023488897 -0.00742963
-3.508757e-05 -0.20694607 -0.18457776 -0.09435058 -0.029316101 0.070353545 -0.00089734845 -0.002931727
-0.17412737 0.02028058 0.06098713 -0.13197933 -3.7182835e-07 -0.058037102 0.0018586591 0.042467427
0.30295676 0.010719651 -0.0016191646 0.1581424 0.028677324 2.899459e-06 -0.012928194 -0.31857207
0.034787096 -0.100479096 -0.020530252 -0.43304893 0.0004901326 0.008046604 -0.0005806548 -0.023080016
0.002171448 -0.03261718 0.0939337 0.039168775 -0.00056029897 -0.008681763 -0.018262831 0.0006833554
0.011834146 0.03209144 -0.0010346749 -0.033096664 -0.090383984 -0.032170508 -3.78208e-06 -0.0112321265
0.1927607 0.22917055 -0.10270269 -0.15549167 -0.2569699 1.2492149 0.18149112 -0.20128636
0.007180313 -0.87950295 0.056174573 0.0020513716 0.100325525 0.0012119808 0.39814743 -0.029331727
0.101446986 -0.008465819 0.4305601 0.043136206 -0.29588586 -0.13807116 -0.14417575 -0.25052887
0.1635371 0.43882737 -1.4602649 -0.18368489 0.041492064 0.047650736 0.35791007 0.6000059
0.09464208 -0.9173657 -0.22231218 0.77648216 0.050222494 0.27554482 -0.23729676 0.023049107
-0.35426694 0.6101042 -0.43289092 -0.025020191 0.10340427 -0.17388055 -0.16975546 0.8151855
-0.12466433 -0.05591383 -0.06793004 0.02862397 0.42677653 -0.48916215 -0.34299532 -0.30501652
0.15048155 -0.75047725 -0.0021612109 -0.18010582 0.8556022 0.10630032 0.055520657 0.5193166
-0.068688236 -0.029283594 -0.012178836 -0.002026553 -0.12351429 -0.5851603 -0.0006596943 -0.0014297348
0.0033169056 -0.19144854 0.15987189 0.15337846 2.4372808e-09 -3.6325207e-13 0.00059966935 -0.002729438
0.0024838946 -0.025009451 0.11562642 0.22512172 -0.00024285761 -0.05038718 0.024279602 2.80234e-05
-0.022144292 -0.00090975664 0.061341424 -0.07958242 1.5303543e-07 0.009177211 -0.029411886 -0.026832525
0.06707046 -0.11993737 -0.66863334 -0.366003 -0.015044002 0.007925174 -0.011316945 3.3369886e-08
-0.061339777 -0.004114506 -0.031292424 0.01029515 -0.3571823 -0.046508614 0.011408807 -0.15160124
0.32635155 -0.20541967 0.027550725 1.0834208e-07 -0.010544698 -0.017324945 0.28804436 0.008941659
0.005843962 0.32000193 -3.1019207e-09 -0.04502149 -0.06001261 -0.04899302 5.2016305e-05 0.008741736
-0.49963513 0.06877137 -0.09853296 -0.24461946 -0.8120076 -0.9894757 0.5378629 0.16357525
0.034977175 -0.101433486 -0.10498117 -0.024555841 -0.09212301 0.0070610247 -0.5071008 0.0067851963
0.2385526 -0.7613746 -0.120239235 -0.021241205 0.6261332 -0.31013858 0.011456278 -0.04375371
-0.4370694 -0.6416411 0.34748316 -0.09182155 -0.061388023 0.296996 0.12994725 -0.42314938
-0.079775766 0.5302997 0.12746437 1.024 -0.5115364 -0.35431734 0.116474174 2.1156829e-07
0.74226874 -0.005193008 0.15871684 0.09009183 0.1507715 -0.22973245 -0.58580244 -0.6240484
0.20565854 0.10685024 0.5078531 -0.004040928 0.7871875 0.047433626 0.5754789 0.25597852
-0.2572579 -0.7050068 0.0009790655 0.22780854 0.5135308 -0.060828947 0.29723877 0.5522125

b3 f4 [64]
00000000: 7386 ad39 e535 8e37 47f4 4fbe 3536 943c
00000010: 6def 5abe 199c 17bd b688 4dbd de80 ef34
00000020: 860d 4a3b 2454 08b9 5fe8 9aba f83c b43e
00000030: 09bb 55be 4b26 b7b6 5cf8 f83a fb71 a73d
00000040: 8692 923b dde0 abb9 a702 b33b 11b3 acbc
00000050: ee0e 50be bbb5 26b5 de81 2abd b4b8 5abc
00000060: 52e0 2e39 edca 02be 617f fa3d d48c 35bd
00000070: bc5c 7039 2c03 bcb4 f0b7 7a3c a808 eb37
00000080: 9313 0c3f 0149 b53d f815 66b9 f2c6 233d
00000090: 67cd fabe c3b7 a136 1027 1f3b 8d6d d9be
000000a0: 3b19 f3b9 fc53 c43d 97ab 3c3b 8a1c 15be
000000b0: c992 163d 1f61 85ba 4504 5d36 b76f 913e
000000c0: 19ba b7b8 b74b 853e 0444 0b3d 9e76 38bb
000000d0: e912 a13d 7f1d 89b9 8616 af3b 3c91 bd3e
000000e0: 22dc 8f39 5cde 87bb bd1b 0000 b584 9a3d
000000f0: 7130 1ebf 770a 7a3e 1662 b932 f822 99bb
0.00033097304 1.6952816e-05 -0.20308028 0.018092254 -0.21380396 -0.0370141 -0.050179206 4.4610982e-07
0.0030830815 -0.00013001316 -0.001181852 0.35202765 -0.2087213 -5.458283e-06 0.0018994915 0.08176037
0.0044730334 -0.00032783198 0.0054629627 -0.02108148 -0.20318195 -6.210427e-07 -0.041627757 -0.013349701
0.00016677499 -0.12772723 0.12231327 -0.044323757 0.0002292273 -3.5020037e-07 0.015302643 2.8018214e-05
0.5471737 0.08851815 -0.00021942693 0.03998465 -0.48984835 4.8195666e-06 0.0024284758 -0.42466393
-0.0004636737 0.09586331 0.00287888 -0.14561668 0.03676108 -0.0010176039 3.2934051e-06 0.28405544
-8.7607834e-05 0.26034328 0.03400041 -0.0028146873 0.07864935 -0.00026152653 0.005343261 0.37024868
0.00027439097 -0.0041463803 9.95e-42 0.07544843 -0.61792666 0.24418055 2.1581439e-08 -0.004673358

w4 f4 [64, 8]
00000000: 3814 3f3f 5a8e 353f 1ee6 0ebf e5eb 2c3e
00000010: 7405 72bf d88c 18bf 97eb 463f fa71 cb3c
00000020: bce7 213f 24fd ecbe 776c 1b3d 9558 7b3f
00000030: cb03 1a3f 439a 0ebf 6e35 133f 0189 0bbe
00000040: 34d4 3fbe c888 95bd 7005 903d 05ee 05b6
00000050: e6de 9e3e 48b6 003e e309 41bb f1f2 ba2e
00000060: 1ca0 64be fd19 d73c ebaf 20bd 3afd dc3c
00000070: 9370 16be 746f 9abd 3e58 723c 410c 0cbc
00000080: ce6b 6ebd e95a 98bf a1f3 a0be db10 bcbe
00000090: af8f 6bbf f965 7d3f da40 623f af3d 25bf
000000a0: 33cf 1b3e 0122 243e e945 9f3c d965 a43c
000000b0: 2b5f 1b3f e45d 9dbd 3dc2 3b3d 0535 c536
000000c0: 1cb4 47bf 4ef2 4fbf 5406 83bf 588d 82bd
000000d0: a0cf 09be 927a 6f3e 8512 033f 308b afbd
000000e0: dc3d a6be fc66 d73e f360 73bf 6915 6bbf
000000f0: 11f3 083f af2d 8a3f a245 003f 69e4 20bd
00000100: 2908 7fbe 56f1 943e 64ef 263d d547 a7bd
00000110: a1b6 20bf 21c5 83bf 865f 87bd 7c78 4d3d
00000120: 81d8 963f 98fa 3dbe 31d9 de3d ccc4 fabd
00000130: 65df 06bf 78ce de3f 4bc6 7d3e e260 0abf
00000140: 2b14 34bc 9bbf 7d3e e48b 653f 2fc0 9c3e
00000150: be00 23bf 40de 2b3f b4a4 2cbf 4eec 29be
00000160: 68ce 46bf bff9 843f 27b9 673e e2db b93c
00000170: 103f bdbe 3326 293f f5d2 233f 4ab6 303d
00000180: 053b 193f 9474 99bc c47a 26bf 9bda 013e
00000190: 63c4 d53d 477b 963e be9b b5bf aaaa 03bd
000001a0: 7dd5 5a3e 52ef 2fbf a7d7 bdbd cf92 b3bd
000001b0: 7839 44be 2538 0ebf d08a 663e 2f29 36bd
000001c0: 8836 3a3e eced 8abe 5087 a1bc 1fb3 06b9
000001d0: 75ef ff3e 83c7 b9bd 2f8a e73a 59a7 87b4
000001e0: dddb 99bd 4e22 3bbf 22df 843c 8bb8 2a3d
000001f0: d557 2d3f 36d9 05bf 145e ea3d 4cf6 943b
00000200: 0c33 b93e 8231 8a3d 4f7c 823d b3ea 9abc
00000210: 3ed6 02be 19f3 6fbe 794e d33d 54a7 35be
00000220: 03e8 3637 ea89 323f 0680 7a3e 5116 0ebd
00000230: b174 85be c928 88bf 4152 0cbe da8d 04bc
00000240: 8ae4 a93e c4d3 fd3e 4d12 503f ecad b13e
00000250: c6ea da3f c680 9f3e 57c9 dc3e 23cd 8d3c
00000260: 9983 05be 5fca 1abd feed 0c3d d870 53bd
00000270: c757 3bbf 34b8 4a3e 2dfe 833d b1ff 0cbb
00000280: 6f12 48bf afd6 a33d 4f0d bb3d a97c a5bc
00000290: dc24 febd 9829 c13e 1525 393e 4360 c03b
000002a0: 2aed dbbe e435 8abe b302 6b3e 1665 093f
000002b0: 2fb3 0e40 6693 133f e50c f3be ed61 103e
000002c0: ce3a d83d 8678 c6be ad82 1f3c cc64 003d
000002d0: f75d 8cbd 898b 5b3e 2b45 95be 58e8 84bb
000002e0: 31be 823f 5563 76be 6fb8 823f bd99 ca3e
000002f0: c23b 0abf 4c1c 19bf 1138 aebe 21cb 06bd
00000300: c151 9e3e aff0 6bbf 3b77 99be a554 a23e
00000310: ec7c cd3f a3fe c53e ffdb 143f a076 473d
00000320: 13bb 74be 55bf e5bd 4ed9 47be 9be0 a4be
00000330: f374 533f bd34 c7be 58c8 b23d 50ae ee3d
00000340: 6296 16be abbb 133e c068 aabe c0be eebc
00000350: bbaa 1a3f 7dcd cfbf 3b7f 723f 3afb 0ebe
00000360: f93c ca3e 3081 5dbf 5f66 44be 0c2c 03be
00000370: 6c97 823f 2bd8 14bf 5335 c2be 997b 973c
00000380: be9e b1be 7be4 eb3e 8678 2a3e 73e2 f83b
00000390: 9050 92bf 9f04 64bf 4a61 72bd 8918 783a
000003a0: b7c6 cb3c 2d02 913d 364c 7c39 76fd 8134
000003b0: 0741 26bd e286 f23d babf a8bc 8438 8539
000003c0: ebae d43e 8fe6 dabc 2600 7c3e 94e5 1f3f
000003d0: 3ad1 fa3e f5dc 63bf ff90 a23f a944 d63d
000003e0: 1f5d 11be 9149 d43f 13e1 7e3e ffd2 bebe
000003f0: ef44 34be 892a db3d 2b7d dbbe 0006 93ba
0.74640226 0.70920336 -0.5581988 0.16886862 -0.9453957 -0.5958991 0.7770323 0.024834622
0.63244224 -0.4628688 0.037945237 0.9818204 0.6016204 -0.55704135 0.575034 -0.13626482
-0.18733293 -0.073014796 0.07032287 -1.995709e-06 0.31029433 0.12569535 -0.0029455356 8.501456e-11
-0.22326702 0.02625751 -0.03923027 0.026976217 -0.14691381 -0.07540789 0.014791546 -0.008547843
-0.05820828 -1.1902744 -0.31435874 -0.3673161 -0.9201612 0.9898372 0.88380206 -0.64547247
0.15215759 0.16028596 0.019442515 0.020068096 0.6069209 -0.07683924 0.045839537 5.87723e-06
-0.780092 -0.812291 -1.0236306 -0.063746154 -0.13458109 0.233866 0.51200134 -0.0857147
-0.3246907 0.42070758 -0.9506981 -0.91829544 0.5349589 1.0795192 0.5010625 -0.03928033
-0.24905457 0.29090375 0.040755644 -0.08167998 -0.6277867 -1.0294534 -0.066100165 0.05016373
1.1784822 -0.18552625 0.1088127 -0.12244567 -0.52684623 1.7406759 0.24782674 -0.5405408
-0.010991137 0.24780123 0.8966658 0.30615374 -0.6367301 0.67136 -0.6743882 -0.1659405
-0.776587 1.0388716 0.22629224 0.022687856 -0.36962175 0.6607391 0.6399377 0.043142594
0.5985568 -0.018732347 -0.65031075 0.12681048 0.104378484 0.29390928 -1.4188154 -0.03214518
0.21370502 -0.6872455 -0.09269648 -0.08768236 -0.19162548 -0.5555442 0.2251389 -0.04447287
0.18184865 -0.27134645 -0.019717842 -0.00012845964 0.4998738 -0.09071257 0.0017665083 -2.526747e-07
-0.07512639 -0.7309922 0.01621968 0.0416799 0.67712146 -0.5228456 0.11443725 0.0045459624
0.36171758 0.06747724 0.06371366 -0.018910741 -0.1277704 -0.23432578 0.10317702 -0.17739612
1.0902065e-05 0.6974169 0.244629 -0.03468925 -0.2606559 -1.0637447 -0.13703252 -0.008090461
0.33182174 0.49575627 0.81277925 0.34703004 1.7102897 0.31152934 0.4312236 0.01730973
-0.13038482 -0.037790652 0.034406655 -0.051621288 -0.7318081 0.1979683 0.064449646 -0.0021514709
-0.7815313 0.07999932 0.09133398 -0.020201044 -0.12409374 0.37727046 0.18080552 0.0058708503
-0.4295438 -0.2699424 0.22950248 0.5366987 2.2296865 0.5764679 -0.47470775 0.14099856
0.10558091 -0.38763827 0.009735745 0.031346127 -0.0685386 0.21439947 -0.29154333 -0.004056018
1.0214292 -0.2406133 1.0212535 0.39570418 -0.53997433 -0.598088 -0.3402715 -0.032908563
0.30921748 -0.9216413 -0.29973778 0.31705204 1.6053748 0.38670835 0.5814819 0.048697114
-0.23899488 -0.11218134 -0.19516489 -0.3220261 0.82600325 -0.38907424 0.08729619 0.11654341
-0.14705804 0.14427058 -0.33283043 -0.029143691 0.60416764 -1.6234585 0.9472539 -0.13963023
0.39499643 -0.8652525 -0.19179676 -0.12809771 1.020246 -0.58142346 -0.37931308 0.018491553
-0.34691423 0.46072754 0.16647539 0.007595354 -1.1430836 -0.8906955 -0.059174813 0.0009464105
0.024875028 0.07080493 0.00024060984 2.421254e-07 -0.04058936 0.11842133 -0.020599235 0.00025409844
0.41539702 -0.026721267 0.24609432 0.62459683 0.48987752 -0.8900903 1.2700499 0.10462315
-0.14195679 1.6584951 0.24890547 -0.37270352 -0.17604421 0.10701472 -0.42868933 -0.0011216998

b4 f4 [8]
00000000: 3786 15be 25ad 9137 94b1 c6af 75ca 4422
00000010: 1166 35b8 02c8 743d 186e 39bc 0df3 e4b6
-0.1460198 1.7365974e-05 -3.6142167e-10 2.6670133e-18 -4.324882e-05 0.059761055 -0.011317752 -6.8232243e-06

w5 f4 [8, 1]
00000000: a9e0 5a3f 738d a73f b123 e6be 1d30 6dbe
00000010: a46c 6b3e a147 86bf 9310 113f 3e11 013e
0.85499054 1.3090042 -0.44949105 -0.23162885 0.22990662 -1.049061 0.56665915 0.12604234
