model_saved/2024-01-25-07-49-50/final.onnx (onnx, 82470 bytes, 15 tensors)

mlp.0.weight f4 [8, 8]
0	0x800002cd	-1.005e-42
1	0x000050ab	2.8938e-41
2	0x800092ab	-5.2615e-41
3	0x800080fd	-4.6272e-41
4	0x8000aaf0	-6.1321e-41
5	0x800073ef	-4.1589e-41
6	0x8000941d	-5.3133e-41
7	0x0000652d	3.6295e-41
8	0x3b577b83	0.0032880015
9	0xbaa604d4	-0.0012666234
10	0xb81c0801	-3.7200753e-05
11	0x358742c8	1.007772e-06
12	0xb50da06e	-5.276005e-07
13	0xb5d9217b	-1.6177504e-06
14	0xb6d92f9b	-6.472646e-06
15	0x3618ae21	2.2751121e-06
16	0xbc88cf33	-0.016700363
17	0x3d68d255	0.056841213
18	0x3c8fb31e	0.017541464
19	0x39c287d1	0.00037103755
20	0x3a06b3fa	0.0005138513
21	0x3a0c0eaf	0.0005342764
22	0x3abea51b	0.0014545055
23	0x3826c0b9	3.975697e-05
24	0xbc5a927b	-0.013340588
25	0x3d26ccdf	0.040722724
26	0x3c4d669a	0.012536669
27	0x3983784f	0.00025075904
28	0x39bcfc00	0.0003604591
29	0x39c7493b	0.000380108
30	0x3a885cd8	0.0010403646
31	0x37a84958	2.0061314e-05
32	0x3dced6e8	0.10099584
33	0xbd5001d2	-0.050782986
34	0x3b4b1e1e	0.0030993293
35	0x39027f9a	0.00012445301
36	0x38b61019	8.681435e-05
37	0x387b3988	5.9896644e-05
38	0x380b4192	3.320125e-05
39	0x38909dc3	6.8958405e-05
40	0xbd954f0f	-0.0729047
41	0x3e40c5e8	0.18825495
42	0x3d74159c	0.05959092
43	0x3a8f23fc	0.0010920758
44	0x3acebeb0	0.0015773382
45	0x3ad8d30f	0.0016542393
46	0x3b9d6bdb	0.004804117
47	0xb76e852b	-1.4216911e-05
48	0x3d931fd4	0.07183805
49	0x3ead39ec	0.33833253
50	0x3e23e3a3	0.16004805
51	0x3b07dc0c	0.0020730523
52	0x3b488909	0.0030599257
53	0x3b53945c	0.0032284474
54	0x3c209ee8	0.009803511
55	0xb8ba8076	-8.893099e-05
56	0xbc72fca7	-0.014830745
57	0x3db4f0ff	0.08835029
58	0x3ce6a331	0.028153988
59	0x3a079dfc	0.0005173383
60	0x3a41ff36	0.0007400395
61	0x3a4af146	0.0007741641
62	0x3b11d246	0.0022250577
63	0xb783d7c4	-1.571689e-05

mlp.0.bias f4 [8]
0	0x000078e3	4.3366e-41
1	0xb5e8166b	-1.7291871e-06
2	0x3986a44b	0.0002568088
3	0x392dfa34	0.00016591774
4	0xb7890d7d	-1.6337954e-05
5	0x3a3c72e3	0.00071887503
6	0x3ab07330	0.0013462063
7	0x39a8f365	0.000322248

mlp.3.weight f4 [16, 8]
0	0x0000a869	6.0414e-41
1	0xb8e709f9	-0.00011016796
2	0x3bcf6378	0.0063289963
3	0x3b94fce3	0.004546748
4	0xbb660614	-0.0035098838
5	0x3cae411e	0.021271285
6	0x3d2a4764	0.04157199
7	0x3c21103b	0.00983053
8	0x00002d26	1.6196e-41
9	0xb5aa414a	-1.2684989e-06
10	0x38cbeb1c	9.723587e-05
11	0x388583b1	6.366464e-05
12	0xb84fa5b7	-4.950698e-05
13	0x3998dfd9	0.0002915848
14	0x3a25ac1f	0.00063198985
15	0x390d0373	0.00013448093
16	0x80007c46	-4.4581e-41
17	0xb915cee9	-0.00014286827
18	0x3be8cac9	0.007104252
19	0x3ba775f1	0.0051104953
20	0xbb92cf5e	-0.0044802865
21	0x3cc4e3f7	0.024034483
22	0x3d5964b1	0.053074542
23	0x3c37c4ec	0.011216383
24	0x00008699	4.8285e-41
25	0x35e66069	1.7164394e-06
26	0xb8752ed1	-5.8456153e-05
27	0xb832ddaf	-4.2644966e-05
28	0x3a54a4cd	0.00081117154
29	0xb95bbe9e	-0.00020956478
30	0x393d8c31	0.0001807667
31	0xb978f5ec	-0.00023742736
32	0x00003149	1.768e-41
33	0x00009b2c	5.5665e-41
34	0x80004842	-2.5921e-41
35	0x0000142c	7.236e-42
36	0x000046ce	2.54e-41
37	0x80002ba9	-1.5662e-41
38	0x00001878	8.778e-42
39	0x00007eba	4.5461e-41
40	0x80001366	-6.959e-42
41	0x80003ef6	-2.2586e-41
42	0x000075b7	4.2228e-41
43	0x8000567e	-3.1028e-41
44	0x80001c36	-1.012e-41
45	0x00004c45	2.736e-41
46	0x80001782	-8.433e-42
47	0x8000ad05	-6.2068e-41
48	0x00009e03	5.6684e-41
49	0xb65c1d92	-3.2799767e-06
50	0x3954da52	0.00020299226
51	0x3941b548	0.00018473447
52	0xb8eae4bd	-0.00011200595
53	0x3a3e8759	0.0007268093
54	0x3ad29c72	0.0016068353
55	0x399c48d7	0.0002980891
56	0x8000095d	-3.359e-42
57	0xb9ea2d59	-0.00044665745
58	0x3cb12b84	0.021627195
59	0x3c7e3c97	0.015517375
60	0xbc4ca9dc	-0.0124916695
61	0x3d95f863	0.07322767
62	0x3e1b7f59	0.15185298
63	0x3d098f8f	0.033584174
64	0x0000663e	3.6678e-41
65	0x80001944	-9.064e-42
66	0x00007bda	4.443e-41
67	0x0000833d	4.708e-41
68	0x8000aadd	-6.1294e-41
69	0x800057a0	-3.1434e-41
70	0x00007e7c	4.5374e-41
71	0x80002094	-1.1687e-41
72	0x800045d3	-2.5048e-41
73	0xba7515dd	-0.0009349266
74	0x3d13df64	0.036101714
75	0x3cd41951	0.025890978
76	0xbca1784f	-0.019710688
77	0x3dfaac9f	0.12239956
78	0x3e7c9c2e	0.24668953
79	0x3d6a0886	0.057137035
80	0x80008d8e	-5.078e-41
81	0x00001c63	1.0183e-41
82	0x800016c0	-8.161e-42
83	0x00008401	4.7354e-41
84	0x8000984f	-5.4638e-41
85	0x00009760	5.4303e-41
86	0x000014d1	7.468e-42
87	0x80008f1d	-5.134e-41
88	0x80008d08	-5.0592e-41
89	0xba8d52a9	-0.0010782081
90	0x3d1f1ce8	0.038845927
91	0x3ce455d3	0.027872955
92	0xbd05483c	-0.03253959
93	0x3e070b57	0.1318792
94	0x3e8b354a	0.27189094
95	0x3d772907	0.06034186
96	0x000031d1	1.7871e-41
97	0x8000316b	-1.7728e-41
98	0x00001725	8.303e-42
99	0x8000210a	-1.1852e-41
100	0x000008e5	3.191e-42
101	0x0ba4f88a	6.354446e-32
102	0xb14bf45e	-2.9679295e-09
103	0x1bd6d320	3.5539767e-22
104	0x000051cf	2.9347e-41
105	0x80007f7d	-4.5734e-41
106	0x000072df	4.1208e-41
107	0x00001339	6.896e-42
108	0x8000546b	-3.0283e-41
109	0x0000471c	2.5509e-41
110	0x80001770	-8.408e-42
111	0x00009d26	5.6374e-41
112	0x00007025	4.023e-41
113	0x00002754	1.4108e-41
114	0x80004a26	-2.66e-41
115	0x000076cc	4.2616e-41
116	0x8000a746	-6.0006e-41
117	0x80001c34	-1.0117e-41
118	0x994ddb98	-1.0642598e-23
119	0x800042c2	-2.3948e-41
120	0x00004537	2.483e-41
121	0xb98ce6be	-0.00026874797
122	0x3c552e56	0.013011536
123	0x3c1939bb	0.009352143
124	0xbc026964	-0.007959697
125	0x3d34ff6e	0.04418891
126	0x3dbdfa9c	0.092763156
127	0x3ca79ad8	0.020459577

mlp.3.bias f4 [16]
0	0x39c64cf0	0.00037822826
1	0x36b51bbd	5.3974495e-06
2	0x39d50f84	0.00040638086
3	0xb65a4953	-3.2527212e-06
4	0x00000639	2.232e-42
5	0x0000a588	5.9381e-41
6	0x3747d665	1.1911242e-05
7	0x3aa2d6c5	0.0012423625
8	0x000012cb	6.742e-42
9	0x3b011e9e	0.0019702087
10	0x80008d67	-5.0726e-41
11	0x3b0a0742	0.0021061455
12	0x00000f54	5.499e-42
13	0x00009cdf	5.6275e-41
14	0x80008fe9	-5.1625e-41
15	0x3a44e4e8	0.00075109163

mlp.6.weight f4 [32, 16]
0	0x800037a0	-1.9954e-41
1	0x000024df	1.3227e-41
2	0x000072bd	4.116e-41
3	0x00003bc5	2.1441e-41
4	0x00001bc4	9.96e-42
5	0x00001d61	1.0539e-41
6	0x000032a3	1.8165e-41
7	0x00008e29	5.0997e-41
8	0x00001fbb	1.1383e-41
9	0x00006c99	3.8957e-41
10	0x8000481f	-2.5872e-41
11	0x00004231	2.3745e-41
12	0x80000aa2	-3.814e-42
13	0x8000495e	-2.6319e-41
14	0x000066dd	3.69e-41
15	0x00002003	1.1484e-41
16	0x3bf47be5	0.0074610584
17	0x38d9d914	0.000103878
18	0x3c108ad4	0.008822162
19	0xb78c5410	-1.6728445e-05
20	0x800054ea	-3.0461e-41
21	0x00007542	4.2064e-41
22	0x39804433	0.00024464875
23	0x3ce87143	0.02837432
24	0x800020c1	-1.175e-41
25	0x3d34f9c4	0.044183508
26	0x00008bb3	5.0115e-41
27	0x3d43a736	0.047766887
28	0x000029b1	1.4956e-41
29	0x80008ab4	-4.9757e-41
30	0x8000a1fd	-5.811e-41
31	0x3c8241b1	0.015900465
32	0x3d15d04c	0.0365756
33	0x39eaef30	0.00044810167
34	0x3d163650	0.03667289
35	0xb99228a5	-0.00027877573
36	0x80004aa3	-2.6775e-41
37	0x00000a4f	3.698e-42
38	0x3a849294	0.0010114484
39	0x3dc1f81a	0.0947115
40	0x8000914d	-5.2124e-41
41	0x3e43a5f3	0.19106273
42	0x800053e9	-3.0101e-41
43	0x3e459e80	0.19298744
44	0x8000ad6f	-6.2216e-41
45	0x00005f6a	3.4228e-41
46	0x8000a48d	-5.903e-41
47	0x3d8c654a	0.06855257
48	0x3c3702ff	0.011170148
49	0x39233754	0.00015565503
50	0x3c5924b1	0.013253377
51	0xb7e406a3	-2.7182808e-05
52	0x80002e3b	-1.6584e-41
53	0x0000cb9d	7.3043e-41
54	0x39bf550a	0.00036493718
55	0x3d318bbe	0.04334616
56	0x00006b40	3.8474e-41
57	0x3d863519	0.06553096
58	0x000061fb	3.5149e-41
59	0x3d93a811	0.072097905
60	0x00001bff	1.0043e-41
61	0x00005147	2.9157e-41
62	0x0000a6e1	5.9865e-41
63	0x3cc3ebbd	0.02391612
64	0x362334e1	2.4319672e-06
65	0x3315a23b	3.4839314e-08
66	0x3648cbc4	2.992093e-06
67	0xb1b8e038	-5.3805955e-09
68	0x00001202	6.46e-42
69	0x80008594	-4.7919e-41
70	0x33b10e69	8.244826e-08
71	0x37e83ff9	2.7686345e-05
72	0x8000bc41	-6.7533e-41
73	0x370ded67	8.459529e-06
74	0x00000eed	5.354e-42
75	0x377716f4	1.4727691e-05
76	0x8000915d	-5.2147e-41
77	0x000048cd	2.6116e-41
78	0x80009823	-5.4576e-41
79	0x36aea9b2	5.2053592e-06
80	0x80007ecc	-4.5486e-41
81	0x8000a29d	-5.8335e-41
82	0x80007102	-4.054e-41
83	0x00005a24	3.2336e-41
84	0x800052c2	-2.9688e-41
85	0x8000684f	-3.7419e-41
86	0x80005cdb	-3.331e-41
87	0x80006b54	-3.8502e-41
88	0x80006fba	-4.008e-41
89	0x80007834	-4.3121e-41
90	0x00004f92	2.8544e-41
91	0x00009773	5.433e-41
92	0x800047c6	-2.5747e-41
93	0x00007786	4.2877e-41
94	0x00005180	2.9237e-41
95	0x8000542e	-3.0198e-41
96	0x80000f19	-5.416e-42
97	0x0000677b	3.7122e-41
98	0x00007db7	4.5098e-41
99	0x80004fa3	-2.8568e-41
100	0x8000823d	-4.672e-41
101	0x80001ec1	-1.1032e-41
102	0x80008ca2	-5.045e-41
103	0x00006f2c	3.9881e-41
104	0x00004175	2.3482e-41
105	0x00002545	1.337e-41
106	0x800054e6	-3.0456e-41
107	0x00006bd3	3.868e-41
108	0x80002606	-1.364e-41
109	0x80009a92	-5.545e-41
110	0x00006863	3.7447e-41
111	0x00008b5f	4.9997e-41
112	0x37bb6d71	2.23431e-05
113	0x34a895d4	3.1401453e-07
114	0x37df28a4	2.6602596e-05
115	0xb312f8fb	-3.421972e-08
116	0x80009903	-5.489e-41
117	0x0000aa89	6.1176e-41
118	0x354974a0	7.5048047e-07
119	0x38afcf30	8.383242e-05
120	0x80009505	-5.3458e-41
121	0x390d0ca7	0.00013451521
122	0x800031f7	-1.7924e-41
123	0x3917c601	0.00014474244
124	0x0000669f	3.6814e-41
125	0x00004d52	2.7737e-41
126	0x0000621b	3.5194e-41
127	0x38464ce2	4.727848e-05
128	0x3bda12af	0.0066550593
129	0x38b1b84b	8.474345e-05
130	0x3be78028	0.007064838
131	0xb7b1de8d	-2.1203678e-05
132	0x80003950	-2.056e-41
133	0x0000704b	4.0283e-41
134	0x394caa5b	0.00019518418
135	0x3cee15e0	0.029063165
136	0x80004d0c	-2.7639e-41
137	0x3cffef93	0.031242168
138	0x0000842b	4.7413e-41
139	0x3d2632ac	0.04057567
140	0x00009c4c	5.6069e-41
141	0x000043b7	2.4292e-41
142	0x00006549	3.6334e-41
143	0x3c51439c	0.012772467
144	0x36e8b86e	6.9356092e-06
145	0x33d04cf2	9.699751e-08
146	0x370a1a1e	8.231522e-06
147	0xb232f9b6	-1.0417741e-08
148	0x00007949	4.3509e-41
149	0x00009d1b	5.6359e-41
150	0x3477e5e0	2.3087296e-07
151	0x37e5f2ad	2.7411932e-05
152	0x80007997	-4.3618e-41
153	0x383118cf	4.2223193e-05
154	0x80002d61	-1.6279e-41
155	0x383b8b49	4.4713994e-05
156	0x80001e84	-1.0947e-41
157	0x800066c9	-3.6872e-41
158	0x80003ba8	-2.14e-41
159	0x3774ceec	1.4591711e-05
160	0x000045ca	2.5036e-41
161	0x0000454c	2.4859e-41
162	0x00007adb	4.4072e-41
163	0x8000054b	-1.899e-42
164	0x00005cbc	3.3267e-41
165	0x00005ecb	3.4005e-41
166	0x8000a726	-5.9962e-41
167	0x0000586c	3.172e-41
168	0x0000115e	6.23e-42
169	0x0000449a	2.461e-41
170	0x000044c0	2.4663e-41
171	0x80004f83	-2.8523e-41
172	0x00004bf5	2.7248e-41
173	0x00004e21	2.8027e-41
174	0x00009ebb	5.6942e-41
175	0x80009f58	-5.7162e-41
176	0x800067f9	-3.7298e-41
177	0x80003ef8	-2.2589e-41
178	0x0000922c	5.2437e-41
179	0x000072ba	4.1156e-41
180	0x800004e3	-1.753e-42
181	0x00004e20	2.8026e-41
182	0x00003a36	2.0882e-41
183	0x800097af	-5.4414e-41
184	0x80007a96	-4.3976e-41
185	0x80003aac	-2.1048e-41
186	0x0000af76	6.2944e-41
187	0x0000924e	5.2484e-41
188	0x0000abed	6.1675e-41
189	0x80006cb1	-3.8991e-41
190	0x800076ff	-4.2688e-41
191	0x80001b13	-9.712e-42
192	0x1f65a305	4.8627483e-20
193	0x0000054a	1.897e-42
194	0x00002a03	1.5071e-41
195	0x80009ed0	-5.6971e-41
196	0x00008b3d	4.9949e-41
197	0x80009f3d	-5.7124e-41
198	0x00009b4a	5.5707e-41
199	0xa67688d4	-8.553383e-16
200	0x800039fe	-2.0804e-41
201	0x25675ff8	2.0068572e-16
202	0x00000436	1.51e-42
203	0xa2aee6e3	-4.7407255e-18
204	0x800043c2	-2.4307e-41
205	0x8000b852	-6.6122e-41
206	0x80007290	-4.1097e-41
207	0x8164eb2b	-4.204571e-38
208	0x3c24b34e	0.010052515
209	0x390c6cdc	0.00013391994
210	0x3c383771	0.011243687
211	0xb8082e7f	-3.246823e-05
212	0x80008b38	-4.9942e-41
213	0x80001bc3	-9.959e-42
214	0x39a27eaf	0.00030993434
215	0x3d1151ec	0.035478517
216	0x00003bb8	2.1423e-41
217	0x3d6fa41c	0.058506116
218	0x80004ebc	-2.8245e-41
219	0x3d7a703a	0.061142184
220	0x00008a94	4.9712e-41
221	0x80002b42	-1.5518e-41
222	0x00001897	8.821e-42
223	0x3ca6ddcf	0.020369438
224	0x80000d41	-4.755e-42
225	0x8000594c	-3.2034e-41
226	0x80001b81	-9.867e-42
227	0x8000659f	-3.6455e-41
228	0x800091bf	-5.2284e-41
229	0x80009e69	-5.6827e-41
230	0x000077b9	4.2948e-41
231	0x80005805	-3.1575e-41
232	0x00008ddf	5.0894e-41
233	0x8000174b	-8.356e-42
234	0x80004e96	-2.8191e-41
235	0x0000847f	4.753e-41
236	0x0000407b	2.3131e-41
237	0x000051da	2.9363e-41
238	0x80009e54	-5.6797e-41
239	0x800048b7	-2.6085e-41
240	0x3643dc9c	2.9185676e-06
241	0x332ec7d0	4.069426e-08
242	0x36670923	3.4427e-06
243	0xb18d45f6	-4.1115937e-09
244	0x00008c09	5.0235e-41
245	0x8000a8fa	-6.0617e-41
246	0x33d0bc30	9.719986e-08
247	0x37415569	1.15235825e-05
248	0x0000615b	3.4925e-41
249	0x37932c05	1.7544264e-05
250	0x80003bcc	-2.1451e-41
251	0x379f1f59	1.8968874e-05
252	0x00004ea5	2.8212e-41
253	0x00001ac0	9.596e-42
254	0x80008dc3	-5.0855e-41
255	0x36cd9ed9	6.1279684e-06

mlp.6.bias f4 [32]
0	0x8000a741	-6e-41
1	0x3a994c8e	0.0011695789
2	0x3b93f7e0	0.004515633
3	0x3ae2ec8d	0.0017312929
4	0x34e236f3	4.213576e-07
5	0x800051d3	-2.9353e-41
6	0x80002d99	-1.6357e-41
7	0x367f747e	3.8065768e-06
8	0x3a7196fa	0.00092159177
9	0x359f2cc0	1.1859447e-06
10	0x80005d9a	-3.3578e-41
11	0x8000016e	-5.13e-43
12	0x80008b06	-4.9872e-41
13	0x3abfb274	0.0014625327
14	0x0000ae36	6.2495e-41
15	0x35004f75	4.779934e-07
16	0x3b936052	0.0044975663
17	0x800075f2	-4.2311e-41
18	0x800007c8	-2.791e-42
19	0x0000b9e9	6.6692e-41
20	0x800013bd	-7.081e-42
21	0x35186877	5.677643e-07
22	0x39ce7992	0.0003938196
23	0x3a0095a4	0.00049051107
24	0x33fd7cee	1.1803955e-07
25	0x3a5db96b	0.00084581104
26	0x000093cd	5.3021e-41
27	0x00006040	3.4528e-41
28	0x800072b2	-4.1145e-41
29	0x23956c91	1.6200592e-17
30	0x0000624f	3.5266e-41
31	0x38a7c75d	8.000315e-05

mlp.9.weight f4 [64, 32]
0	0x000014ce	7.463e-42
1	0x0067bf93	9.52778e-39
2	0x897ac51c	-3.0185336e-33
3	0x00009bcb	5.5888e-41
4	0x800042f7	-2.4022e-41
5	0x80005162	-2.9195e-41
6	0x800049eb	-2.6517e-41
7	0x000029d1	1.5001e-41
8	0x80006ebc	-3.9724e-41
9	0x000004a9	1.672e-42
10	0x0000a19a	5.7972e-41
11	0x8000a88f	-6.0467e-41
12	0x000042f9	2.4025e-41
13	0x80003954	-2.0565e-41
14	0x00005a7f	3.2464e-41
15	0x0000846a	4.7501e-41
16	0x8000a3e1	-5.8789e-41
17	0x8000504e	-2.8808e-41
18	0x8000686d	-3.7461e-41
19	0x00006bad	3.8627e-41
20	0x000088b5	4.9041e-41
21	0x8000751c	-4.2011e-41
22	0x80000990	-3.43e-42
23	0x80009b16	-5.5634e-41
24	0x80007194	-4.0744e-41
25	0x80009b82	-5.5786e-41
26	0x80005a0e	-3.2306e-41
27	0x00000eb0	5.269e-42
28	0x00000a45	3.684e-42
29	0x00009d47	5.642e-41
30	0x80001924	-9.019e-42
31	0x80000407	-1.445e-42
32	0x00005080	2.8878e-41
33	0xaf66bbd2	-2.0985105e-10
34	0xb291942f	-1.6947608e-08
35	0xacf772a0	-7.032888e-12
36	0x0000634d	3.5622e-41
37	0x00001625	7.944e-42
38	0x8000995a	-5.5012e-41
39	0x955509df	-4.3022794e-26
40	0x1ca43125	1.0865313e-21
41	0x86673edc	-4.3492453e-35
42	0x80007940	-4.3496e-41
43	0x800092b7	-5.2631e-41
44	0x0000aa53	6.1101e-41
45	0x28cc8ba4	2.270911e-14
46	0x00003757	1.9852e-41
47	0x82959257	-2.1977577e-37
48	0x2d583933	1.2290879e-11
49	0x80006049	-3.454e-41
50	0x8000aef4	-6.2761e-41
51	0x000069f2	3.8006e-41
52	0x80004776	-2.5635e-41
53	0x00006147	3.4897e-41
54	0x2af126b2	4.283705e-13
55	0x16311256	1.4303732e-25
56	0x00000dba	4.924e-42
57	0x144cf8cf	1.0348437e-26
58	0x000077a6	4.2922e-41
59	0x80008bf7	-5.021e-41
60	0x00006e00	3.946e-41
61	0x80002edd	-1.6811e-41
62	0x00001187	6.288e-42
63	0x1405fa51	6.76415e-27
64	0x00009135	5.209e-41
65	0x3d131a2a	0.035913624
66	0x3e133079	0.1437396
67	0x3d5cafb5	0.053878505
68	0x3753494e	1.2593648e-05
69	0x0000186c	8.761e-42
70	0x0000c914	7.2133e-41
71	0x38e4bc9f	0.000109070206
72	0x3cee77bf	0.029109834
73	0x380d960d	3.3756765e-05
74	0x80008f20	-5.1344e-41
75	0x80001eaf	-1.1007e-41
76	0xa1864c18	-9.100335e-19
77	0x3d3d4577	0.046208825
78	0x80001da5	-1.0634e-41
79	0x376defa7	1.4182099e-05
80	0x3e129cae	0.14317581
81	0x000032b0	1.8183e-41
82	0x80005d56	-3.3483e-41
83	0x00000c03	4.309e-42
84	0x00000169	5.06e-43
85	0x378cae35	1.6770422e-05
86	0x3c3d7a4b	0.011564801
87	0x3c757374	0.014981139
88	0x366aab5c	3.4968461e-06
89	0x3cd9be11	0.026579889
90	0x0000203e	1.1566e-41
91	0x0000532b	2.9835e-41
92	0x800062c8	-3.5436e-41
93	0x25c81f2f	3.47156e-16
94	0x0000d526	7.6463e-41
95	0x3b18974d	0.0023283542
96	0x00001588	7.724e-42
97	0x3ac44c4d	0.0014976353
98	0x3bcd96e7	0.0062740925
99	0x3b11a534	0.0022223713
100	0x350c589d	5.2283013e-07
101	0x80001596	-7.744e-42
102	0x8000a7bd	-6.0173e-41
103	0x369450d9	4.4201556e-06
104	0x3a9af061	0.0011820906
105	0x35b94597	1.3803827e-06
106	0x00003e3a	2.2323e-41
107	0x00006ae0	3.834e-41
108	0x1989de33	1.4255214e-23
109	0x3af61ce6	0.0018776923
110	0x00001c6b	1.0194e-41
111	0x351b8b62	5.794483e-07
112	0x3bc3a45b	0.0059705204
113	0x80008fa4	-5.1529e-41
114	0x0000291d	1.4749e-41
115	0x80005b18	-3.2678e-41
116	0x000021dd	1.2148e-41
117	0x353a438b	6.938869e-07
118	0x39f62bc9	0.000469534
119	0x3a1e6171	0.00060417416
120	0x341b4a0b	1.4462437e-07
121	0x3a8ca528	0.0010730373
122	0x80005189	-2.925e-41
123	0x80003abc	-2.107e-41
124	0x8000ab8d	-6.1541e-41
125	0x23823e21	1.4120941e-17
126	0x80001fb1	-1.1369e-41
127	0x38c570b2	9.414683e-05
128	0x800004e3	-1.753e-42
129	0x390eb38a	0.00013609059
130	0x3a186ae5	0.00058142684
131	0x3953882f	0.0002017326
132	0x334d9e23	4.7874106e-08
133	0x00005791	3.1413e-41
134	0x00006728	3.7005e-41
135	0x34d5fc9a	3.9858134e-07
136	0x38e16f8a	0.00010749612
137	0x3405c83c	1.2459435e-07
138	0x00005681	3.1032e-41
139	0x00008dc0	5.085e-41
140	0x000082a5	4.6866e-41
141	0x3932f4ff	0.00017066671
142	0x8000aead	-6.2662e-41
143	0x336163e7	5.2477755e-08
144	0x3a0e5ba8	0.0005430528
145	0x0000aabd	6.125e-41
146	0x80007585	-4.2158e-41
147	0x8000b560	-6.5065e-41
148	0x00004836	2.5904e-41
149	0x33882acd	6.340779e-08
150	0x383189da	4.2328473e-05
151	0x38665324	5.4913704e-05
152	0x3262faa8	1.3211924e-08
153	0x38cd157c	9.7791635e-05
154	0x800062d9	-3.546e-41
155	0x8000315d	-1.7708e-41
156	0x80004458	-2.4517e-41
157	0x21bfba09	1.2991907e-18
158	0x80005ca0	-3.3228e-41
159	0x370f023e	8.523986e-06
160	0x80008cc3	-5.0496e-41
161	0x80004bd3	-2.72e-41
162	0x0000031f	1.12e-42
163	0x000064fe	3.6229e-41
164	0x00000bc7	4.225e-42
165	0x00001be2	1.0002e-41
166	0x0000a182	5.7938e-41
167	0x00002901	1.471e-41
168	0x00003ed2	2.2536e-41
169	0x00009366	5.2877e-41
170	0x800051bc	-2.9321e-41
171	0x0000aa3c	6.1069e-41
172	0x80004be8	-2.723e-41
173	0x0000a593	5.9397e-41
174	0x80005a28	-3.2342e-41
175	0x000094f8	5.344e-41
176	0x800024d9	-1.3218e-41
177	0x00008ea8	5.1175e-41
178	0x80000697	-2.364e-42
179	0x80004869	-2.5976e-41
180	0x0000300a	1.7233e-41
181	0x000045ee	2.5086e-41
182	0x000010d8	6.042e-42
183	0x00009f13	5.7065e-41
184	0x000044a2	2.4621e-41
185	0x8000035f	-1.21e-42
186	0x80004250	-2.3788e-41
187	0x800074fe	-4.1969e-41
188	0x8000742a	-4.1672e-41
189	0x0000a14c	5.7862e-41
190	0x800088d8	-4.909e-41
191	0x80009c9b	-5.618e-41
192	0x80002dac	-1.6384e-41
193	0x8000a662	-5.9687e-41
194	0x800001f1	-6.96e-43
195	0x8000a49b	-5.905e-41
196	0x000027cb	1.4275e-41
197	0x0000703d	4.0264e-41
198	0x00000a3e	3.674e-42
199	0x00006959	3.7792e-41
200	0x80008074	-4.608e-41
201	0x00007b76	4.429e-41
202	0x80003587	-1.9202e-41
203	0x00006d8b	3.9297e-41
204	0x00005923	3.1976e-41
205	0x00007fb6	4.5814e-41
206	0x800043fb	-2.4387e-41
207	0x0000913e	5.2103e-41
208	0x00000db3	4.914e-42
209	0x80003d21	-2.1929e-41
210	0x00007ea3	4.5429e-41
211	0x0000df8b	8.0192e-41
212	0x80005dc8	-3.3642e-41
213	0x80000c64	-4.445e-42
214	0x8000a48d	-5.903e-41
215	0x0000b23b	6.3937e-41
216	0x00001699	8.107e-42
217	0x80003f69	-2.2747e-41
218	0x800038e7	-2.0413e-41
219	0x00001fde	1.1432e-41
220	0x8000b2bc	-6.4118e-41
221	0x00000697	2.364e-42
222	0x800004c0	-1.704e-42
223	0x00000baf	4.191e-42
224	0x0000535a	2.9901e-41
225	0x382aa0d0	4.0680927e-05
226	0x3934e2b3	0.0001725059
227	0x387c0e32	6.0094702e-05
228	0x32751535	1.4265699e-08
229	0x00000f53	5.497e-42
230	0x0000573a	3.1291e-41
231	0x33feb79d	1.1861196e-07
232	0x38064edc	3.2021533e-05
233	0x331f93cb	3.715449e-08
234	0x0000129c	6.676e-42
235	0x80000c2f	-4.37e-42
236	0x804a2f9c	-6.812906e-39
237	0x385500b2	5.0783805e-05
238	0x0000239f	1.2778e-41
239	0x3286403b	1.5628862e-08
240	0x39292f7f	0.0001613479
241	0x0000b614	6.5317e-41
242	0x0000aad0	6.1276e-41
243	0x800089ed	-4.9478e-41
244	0x800010da	-6.045e-42
245	0x32a223e6	1.8875607e-08
246	0x375364f6	1.2600087e-05
247	0x37893ea2	1.6360838e-05
248	0x318799e3	3.946512e-09
249	0x37f49f0a	2.9161125e-05
250	0x80003610	-1.9394e-41
251	0x80004a2f	-2.6612e-41
252	0x0000b3f8	6.456e-41
253	0x20e3d388	3.8595275e-19
254	0x80005521	-3.0538e-41
255	0x362a4134	2.5369927e-06

mlp.9.bias f4 [64]
0	0x800060ee	-3.4772e-41
1	0x000018a0	8.834e-42
2	0x3bf70591	0.0075385054
3	0x39aa89ad	0.00032527503
4	0x37fe5a72	3.0321276e-05
5	0x8000461d	-2.5152e-41
6	0x80005f5f	-3.4213e-41
7	0x3719dc2d	9.170774e-06
8	0x3588b68a	1.0185915e-06
9	0x3bb4f2b0	0.0055220947
10	0x32519e3c	1.22013795e-08
11	0x80006325	-3.5566e-41
12	0x800001e6	-6.81e-43
13	0x80004e19	-2.8016e-41
14	0x30395608	6.7424866e-10
15	0x3b9111c5	0.004427167
16	0x80003ba2	-2.1392e-41
17	0x3abb35e8	0.0014283033
18	0x00004a7a	2.6717e-41
19	0x000064db	3.618e-41
20	0x8000454f	-2.4863e-41
21	0x3afc089b	0.0019228639
22	0x000029f8	1.5056e-41
23	0x3212a96d	8.5368415e-09
24	0x347b0b8d	2.3380399e-07
25	0x8000691d	-3.7708e-41
26	0x800074e4	-4.1932e-41
27	0x3081b024	9.436047e-10
28	0x80009f09	-5.7051e-41
29	0x00002ccb	1.6069e-41
30	0x8000841d	-4.7393e-41
31	0x38d754c0	0.00010267785
32	0x2dd19c2e	2.3829907e-11
33	0x0000a784	6.0093e-41
34	0x3a60f0ce	0.00085808046
35	0x3529bb94	6.323037e-07
36	0x3b76df82	0.0037669842
37	0x3bfffaea	0.0078118937
38	0x000028f1	1.4687e-41
39	0x15c8bc44	8.107639e-26
40	0x00006dca	3.9385e-41
41	0x19c91866	2.0792767e-23
42	0x1f3272d7	3.778796e-20
43	0x80002a22	-1.5114e-41
44	0x00001d2c	1.0465e-41
45	0x800025cf	-1.3563e-41
46	0x800009d9	-3.533e-42
47	0x0000b018	6.317e-41
48	0x00009435	5.3167e-41
49	0x339bd5f6	7.256669e-08
50	0x00002bf8	1.5773e-41
51	0x3a3684c4	0.00069625326
52	0x3b916cef	0.0044380347
53	0x80001b2d	-9.749e-42
54	0x3a072dbd	0.0005156657
55	0x800031b8	-1.7836e-41
56	0x3b53a926	0.0032296865
57	0x3b2b31c8	0.0026122201
58	0x00002112	1.1863e-41
59	0x0ec2bd8f	4.800723e-30
60	0x80005616	-3.0882e-41
61	0x80009dde	-5.6632e-41
62	0x2b1fdfc6	5.6798696e-13
63	0x3b675948	0.0035301019

mlp.12.weight f4 [128, 64]
0	0x80007811	-4.3072e-41
1	0x00007554	4.209e-41
2	0x80003a93	-2.1012e-41
3	0x800044f6	-2.4739e-41
4	0x00005c3e	3.309e-41
5	0x80009b35	-5.5678e-41
6	0x80002998	-1.4921e-41
7	0x80004ca5	-2.7495e-41
8	0x0000aa0b	6.1e-41
9	0x00005bef	3.298e-41
10	0x000095cd	5.3738e-41
11	0x80004900	-2.6187e-41
12	0x0000b078	6.3305e-41
13	0x00007796	4.29e-41
14	0x80008258	-4.6759e-41
15	0x80000e2c	-5.084e-42
16	0x0000622f	3.5222e-41
17	0x80002e15	-1.6531e-41
18	0x000028e0	1.4663e-41
19	0x0000b4bd	6.4837e-41
20	0x0000a1d7	5.8057e-41
21	0x00002dca	1.6426e-41
22	0x80003048	-1.732e-41
23	0x80006979	-3.7836e-41
24	0x800054f1	-3.0471e-41
25	0x800006af	-2.398e-42
26	0x0000c61a	7.1065e-41
27	0x000068e3	3.7626e-41
28	0x8000350e	-1.9032e-41
29	0x0000af46	6.2876e-41
30	0x000006ca	2.435e-42
31	0x000023ef	1.289e-41
32	0x000003ea	1.404e-42
33	0x00000bfe	4.302e-42
34	0x80001057	-5.862e-42
35	0x00006670	3.6748e-41
36	0x00006dd3	3.9398e-41
37	0x8000867a	-4.8241e-41
38	0x0000863a	4.8151e-41
39	0x00009ddb	5.6628e-41
40	0x000086b6	4.8325e-41
41	0x800057e8	-3.1535e-41
42	0x8000df4f	-8.0108e-41
43	0x800019dc	-9.277e-42
44	0x0000b1f3	6.3836e-41
45	0x00002e02	1.6504e-41
46	0x0000a4a2	5.9059e-41
47	0x00004738	2.5548e-41
48	0x80006fcc	-4.0105e-41
49	0x800050fa	-2.9049e-41
50	0x800070a7	-4.0412e-41
51	0x00008734	4.8502e-41
52	0x80002e7f	-1.668e-41
53	0x0000b042	6.323e-41
54	0x00003b69	2.1312e-41
55	0x800016b1	-8.14e-42
56	0x0000ae58	6.2543e-41
57	0x8000b043	-6.3231e-41
58	0x0000629c	3.5374e-41
59	0x000051e7	2.9381e-41
60	0x00007223	4.0945e-41
61	0x0000a392	5.8678e-41
62	0x00002b05	1.5432e-41
63	0x00006181	3.4978e-41
64	0x80003dc0	-2.2152e-41
65	0x800085f4	-4.8053e-41
66	0xa1469f6a	-6.729599e-19
67	0x8d64871a	-7.0420547e-31
68	0x80006fa5	-4.005e-41
69	0x80008529	-4.7769e-41
70	0x8000b13e	-6.3583e-41
71	0x801b84e4	-2.52723e-39
72	0x88b48d6d	-1.0866605e-33
73	0x9d8d23b9	-3.7359326e-21
74	0x800010b9	-5.999e-42
75	0x8000343c	-1.8738e-41
76	0x0000350d	1.9031e-41
77	0x00001f78	1.1289e-41
78	0x000058dc	3.1877e-41
79	0x9c23616c	-5.405809e-22
80	0x80009887	-5.4717e-41
81	0x989c9f5c	-4.0485967e-24
82	0x80002684	-1.3817e-41
83	0x80004f00	-2.834e-41
84	0x00004d1e	2.7664e-41
85	0x99540908	-1.0961967e-23
86	0x00000881	3.05e-42
87	0x00009454	5.321e-41
88	0x80007e33	-4.5272e-41
89	0x0000b6ba	6.555e-41
90	0x00009f16	5.7069e-41
91	0x00007463	4.1752e-41
92	0x000072e3	4.1214e-41
93	0x8000ae84	-6.2604e-41
94	0x00008ba9	5.01e-41
95	0x800006ca	-2.435e-42
96	0x00000490	1.637e-42
97	0x80006745	-3.7046e-41
98	0x8322edeb	-4.7880638e-37
99	0x88d7e1c3	-1.2992918e-33
100	0x941e927d	-8.005851e-27
101	0xa1ccf01b	-1.3887133e-18
102	0x00008be3	5.0182e-41
103	0x80008ee0	-5.1254e-41
104	0x80001edb	-1.1069e-41
105	0x00005ac4	3.256e-41
106	0x8000722f	-4.0961e-41
107	0x8000abec	-6.1674e-41
108	0x000062b2	3.5405e-41
109	0x0000c6a7	7.1263e-41
110	0x80008cd6	-5.0522e-41
111	0x80006382	-3.5697e-41
112	0x000028ea	1.4677e-41
113	0x00004330	2.4102e-41
114	0x80006bc4	-3.8659e-41
115	0x9985d936	-1.3839608e-23
116	0x94c7e573	-2.0184367e-26
117	0x800015e0	-7.847e-42
118	0x80e56f02	-2.1070151e-38
119	0x000008f3	3.21e-42
120	0x9750713b	-6.735134e-25
121	0x98e337cb	-5.873446e-24
122	0x00002200	1.2197e-41
123	0x00007c64	4.4623e-41
124	0x80002263	-1.2336e-41
125	0x00002565	1.3415e-41
126	0x800019d8	-9.271e-42
127	0x96c0e19f	-3.116166e-25
128	0x00007fd9	4.5863e-41
129	0x80003d6f	-2.2038e-41
130	0x00001515	7.563e-42
131	0x80005640	-3.094e-41
132	0x00009fd7	5.734e-41
133	0x80001f2a	-1.118e-41
134	0x80005d7e	-3.3539e-41
135	0x00009c53	5.6079e-41
136	0x8000b441	-6.4663e-41
137	0x800033d5	-1.8594e-41
138	0x80008b80	-5.0043e-41
139	0x00009624	5.386e-41
140	0x80000f88	-5.572e-42
141	0x800029f4	-1.505e-41
142	0x0000848b	4.7547e-41
143	0x8000021f	-7.61e-43
144	0x80000b85	-4.132e-42
145	0x80006c89	-3.8935e-41
146	0x00004e4b	2.8086e-41
147	0x800019b9	-9.228e-42
148	0x0000385d	2.022e-41
149	0x80008c3d	-5.0308e-41
150	0x000044c8	2.4674e-41
151	0x800016e8	-8.217e-42
152	0x00001070	5.897e-42
153	0x0000a6a9	5.9786e-41
154	0x0000158d	7.731e-42
155	0x0000a815	6.0296e-41
156	0x800074da	-4.1918e-41
157	0x800032b5	-1.819e-41
158	0x8000153a	-7.615e-42
159	0x80003a5f	-2.094e-41
160	0x0000413b	2.34e-41
161	0x80008981	-4.9327e-41
162	0x00002847	1.4449e-41
163	0x800048a9	-2.6066e-41
164	0x80002d30	-1.621e-41
165	0x80001bc7	-9.965e-42
166	0x00009612	5.3835e-41
167	0x800047ae	-2.5714e-41
168	0x00004fd8	2.8643e-41
169	0x80000e6a	-5.171e-42
170	0x8000650b	-3.6247e-41
171	0x800039c9	-2.073e-41
172	0x00005fce	3.4368e-41
173	0x8000920e	-5.2395e-41
174	0x00005062	2.8836e-41
175	0x80005c9d	-3.3223e-41
176	0x00008713	4.8455e-41
177	0x80003aa6	-2.1039e-41
178	0x8000016a	-5.07e-43
179	0x80001ef5	-1.1105e-41
180	0x0000616e	3.4951e-41
181	0x8000675d	-3.708e-41
182	0x00004863	2.5967e-41
183	0x80003171	-1.7736e-41
184	0x00009965	5.5028e-41
185	0x000025cd	1.356e-41
186	0x0000a5de	5.9502e-41
187	0x800056b0	-3.1098e-41
188	0x00004926	2.6241e-41
189	0x00012e72	1.08497e-40
190	0x8000163b	-7.975e-42
191	0x80008855	-4.8907e-41
192	0x80008e8f	-5.114e-41
193	0x80008be8	-5.0189e-41
194	0x8000a1f1	-5.8094e-41
195	0x000021b6	1.2093e-41
196	0x80001920	-9.013e-42
197	0x000011b4	6.35e-42
198	0x000075e5	4.2293e-41
199	0x00005fd3	3.4375e-41
200	0x00005ccc	3.3289e-41
201	0x800052a1	-2.9642e-41
202	0x8000ad06	-6.2069e-41
203	0x000023e0	1.287e-41
204	0x8000951e	-5.3493e-41
205	0x80008326	-4.7047e-41
206	0x000006f1	2.49e-42
207	0x80006a0a	-3.804e-41
208	0x80009d2e	-5.6385e-41
209	0x80001159	-6.223e-42
210	0x0000521d	2.9457e-41
211	0x80007c6f	-4.4638e-41
212	0x0000539b	2.9992e-41
213	0x00007445	4.171e-41
214	0x8000b2c5	-6.413e-41
215	0x00003d78	2.2051e-41
216	0x80008d9a	-5.0797e-41
217	0x80000c13	-4.331e-42
218	0x80008b3a	-4.9945e-41
219	0x00003f3d	2.2686e-41
220	0x8000212a	-1.1897e-41
221	0x80006ecc	-3.9746e-41
222	0x8000852a	-4.777e-41
223	0x80009a00	-5.5245e-41
224	0x0000a0e0	5.7711e-41
225	0x80009d42	-5.6413e-41
226	0x80002faf	-1.7106e-41
227	0x8000ac6a	-6.185e-41
228	0x0000192a	9.027e-42
229	0x000076a5	4.2562e-41
230	0x0000474e	2.558e-41
231	0x80003166	-1.7721e-41
232	0x800005a9	-2.03e-42
233	0x8000adb1	-6.2309e-41
234	0x80009a3c	-5.5329e-41
235	0x80002916	-1.4739e-41
236	0x80001581	-7.714e-42
237	0x80005424	-3.0184e-41
238	0x80003f3e	-2.2687e-41
239	0x800098d5	-5.4826e-41
240	0x0000a219	5.815e-41
241	0x00008f1d	5.134e-41
242	0x00004540	2.4842e-41
243	0x80000e50	-5.134e-42
244	0x80003260	-1.8071e-41
245	0x000069b3	3.7918e-41
246	0x800038ea	-2.0417e-41
247	0x8000a4a0	-5.9056e-41
248	0x800055d2	-3.0787e-41
249	0x80000278	-8.86e-43
250	0x8000a52d	-5.9254e-41
251	0x00002cb3	1.6035e-41
252	0x80009a5c	-5.5374e-41
253	0x0000a2de	5.8426e-41
254	0x000035d4	1.931e-41
255	0x00008160	4.6411e-41

mlp.12.bias f4 [128]
0	0x00007001	4.018e-41
1	0x00005833	3.164e-41
2	0x00006797	3.7161e-41
3	0x00005e34	3.3794e-41
4	0x38fef596	0.00012157408
5	0x80008010	-4.594e-41
6	0x3bb817f8	0.0056180917
7	0x3bef2c29	0.0072989655
8	0x800029b5	-1.4962e-41
9	0x3bf67e1a	0.0075223567
10	0x8000a65f	-5.9683e-41
11	0x80009b4b	-5.5709e-41
12	0x00005d9b	3.358e-41
13	0x3bd64e38	0.006540086
14	0x2224cab7	2.233346e-18
15	0x3c346de5	0.011012529
16	0x000017f3	8.591e-42
17	0x80001582	-7.716e-42
18	0x0000629a	3.5372e-41
19	0x80004c0b	-2.7279e-41
20	0x25847892	2.2980052e-16
21	0x80007449	-4.1715e-41
22	0x80004d3c	-2.7706e-41
23	0x18959eb4	3.8675846e-24
24	0x00005c96	3.3214e-41
25	0x3c0fb332	0.008770751
26	0x8000903b	-5.174e-41
27	0x00000105	3.66e-43
28	0x30265c64	6.0521743e-10
29	0x38b3313d	8.5445565e-05
30	0x3927873a	0.00015976737
31	0x80002a6c	-1.5218e-41
32	0x0000955c	5.358e-41
33	0x3b86a3a3	0.0041088625
34	0x0000afd4	6.3075e-41
35	0x32bc3c7d	2.1913587e-08
36	0x80009f86	-5.7226e-41
37	0x3b72b205	0.0037032377
38	0x00007b06	4.4132e-41
39	0x80002943	-1.4802e-41
40	0x80000a97	-3.799e-42
41	0x80005c86	-3.3191e-41
42	0x2e2e2177	3.9592742e-11
43	0x000013a8	7.051e-42
44	0x390a7d51	0.0001320739
45	0x3b06fcf6	0.0020597554
46	0x2f65f34c	2.0913865e-10
47	0x108cfb1f	5.5607177e-29
48	0x800043a7	-2.4269e-41
49	0x00002b3b	1.5508e-41
50	0x001944f4	2.320623e-39
51	0x80009e49	-5.6782e-41
52	0x00004942	2.628e-41
53	0x80002a3e	-1.5154e-41
54	0x3c2bf2f7	0.010494939
55	0x362cf52e	2.577271e-06
56	0x8000a5da	-5.9496e-41
57	0x80005118	-2.9091e-41
58	0x3bda2aec	0.0066579487
59	0x00008936	4.9222e-41
60	0x80001a37	-9.404e-42
61	0x323f6348	1.1140237e-08
62	0x8000894b	-4.9251e-41
63	0x3480e71a	2.4010006e-07
64	0x39fd23f9	0.00048282722
65	0x80007646	-4.2429e-41
66	0x3c126883	0.00893605
67	0x80002f4e	-1.697e-41
68	0x80009623	-5.3859e-41
69	0x3ae4b61f	0.0017449296
70	0x3c5cf688	0.013486512
71	0x8000934f	-5.2844e-41
72	0x800033a7	-1.853e-41
73	0x80004ebc	-2.8245e-41
74	0x8000626c	-3.5307e-41
75	0x80008e7e	-5.1117e-41
76	0x00008b73	5.0025e-41
77	0x38beccda	9.0980626e-05
78	0x800083f1	-4.7332e-41
79	0x80002694	-1.3839e-41
80	0x3b3f9278	0.002923159
81	0x0000ae58	6.2543e-41
82	0x0000820a	4.6649e-41
83	0x80000a20	-3.632e-42
84	0x800048fb	-2.618e-41
85	0x8000a01a	-5.7434e-41
86	0x0c211309	1.2408717e-31
87	0x395fab29	0.000213307
88	0x00005238	2.9495e-41
89	0x3b9606f1	0.004578464
90	0x3c3323b1	0.010933802
91	0x93f83540	-6.265651e-27
92	0x80009e57	-5.6802e-41
93	0x000076f9	4.268e-41
94	0x800062ff	-3.5513e-41
95	0x8000ad3b	-6.2143e-41
96	0x80002753	-1.4107e-41
97	0x8000841b	-4.739e-41
98	0x00004d3d	2.7708e-41
99	0x00002003	1.1484e-41
100	0x00007ac5	4.4041e-41
101	0x1b3ada85	1.5456167e-22
102	0x800026b8	-1.389e-41
103	0x378e6ec0	1.6979291e-05
104	0x80000b59	-4.071e-42
105	0x800083e4	-4.7313e-41
106	0x8000cb1c	-7.2862e-41
107	0x8000221d	-1.2238e-41
108	0x0000605e	3.457e-41
109	0x3b1aee36	0.002364052
110	0x1539b664	3.7504333e-26
111	0x2400be77	2.7916906e-17
112	0x000035a1	1.9238e-41
113	0x00006442	3.5966e-41
114	0x0000501b	2.8736e-41
115	0x3ab0808a	0.0013466042
116	0x00009bde	5.5915e-41
117	0x00008d8d	5.0779e-41
118	0x36605422	3.3427573e-06
119	0x3c25b1b2	0.010113167
120	0x0000502b	2.8759e-41
121	0x00004370	2.4192e-41
122	0x0000897a	4.9317e-41
123	0x3c0a8b70	0.008456096
124	0x00001619	7.927e-42
125	0x8000a7ed	-6.024e-41
126	0x00001513	7.56e-42
127	0x00001743	8.345e-42

mlp.15.weight f4 [64, 128]
0	0x00004655	2.523e-41
1	0x16802b47	2.0706827e-25
2	0x00006d35	3.9176e-41
3	0x0000165c	8.021e-42
4	0x39d2aff9	0.0004018543
5	0x00000dca	4.947e-42
6	0x3ca19917	0.01972632
7	0x3cd322d7	0.025773449
8	0x000018d9	8.914e-42
9	0x3cd9bb18	0.026578471
10	0x00008a8e	4.9704e-41
11	0x00003f18	2.2634e-41
12	0x0000176b	8.401e-42
13	0x3cbcace9	0.023031669
14	0x230e7328	7.722221e-18
15	0x3d208348	0.0391877
16	0x0000262d	1.3695e-41
17	0x02871411	1.9847985e-37
18	0x0000acb0	6.1949e-41
19	0x8000179f	-8.474e-42
20	0x264fd748	7.210931e-16
21	0x8000a266	-5.8258e-41
22	0x80003e43	-2.2335e-41
23	0x197fc81e	1.3223604e-23
24	0x00009909	5.4899e-41
25	0x3cfea7cd	0.031085873
26	0x80007108	-4.0548e-41
27	0x8000329c	-1.8155e-41
28	0x31032ed2	1.9089623e-09
29	0x399573d4	0.00028505793
30	0x3a0c0270	0.00053409394
31	0x800026cf	-1.3922e-41
32	0x0000504e	2.8808e-41
33	0x3c6a7a0a	0.014311323
34	0x8b184c15	-2.9331373e-32
35	0x3391bb8e	6.786205e-08
36	0x80002bcd	-1.5713e-41
37	0x3c50c596	0.012742421
38	0x0000a7f3	6.0249e-41
39	0x8000242f	-1.298e-41
40	0x00004bee	2.7238e-41
41	0x000080c8	4.6198e-41
42	0x2f0af2c3	1.2637273e-10
43	0x8000898e	-4.9345e-41
44	0x39e81539	0.000442663
45	0x3be8e460	0.0071073025
46	0x303e6c9b	6.9275935e-10
47	0x1159d7dd	1.71848e-28
48	0x0000a2fb	5.8466e-41
49	0x80001541	-7.624e-42
50	0x00588d0c	8.132122e-39
51	0x00007c71	4.4641e-41
52	0x00001f7d	1.1296e-41
53	0x80003fd6	-2.29e-41
54	0x3d18e86f	0.03733104
55	0x3708b0e0	8.147414e-06
56	0x800079c6	-4.3684e-41
57	0x8000844a	-4.7456e-41
58	0x3cc027d8	0.023456499
59	0x000075db	4.2279e-41
60	0x000066d7	3.6892e-41
61	0x33171175	3.5173304e-08
62	0x15b5e3f6	7.3464977e-26
63	0x35476ef7	7.429475e-07
64	0x3ad6a034	0.0016374649
65	0x800090b2	-5.1907e-41
66	0x3d01c397	0.03168067
67	0x8000631c	-3.5554e-41
68	0x0000760e	4.235e-41
69	0x3bc50ddd	0.0060136155
70	0x3d454eb6	0.048170768
71	0x00005127	2.9112e-41
72	0x000078ed	4.338e-41
73	0x00000080	1.8e-43
74	0x00000373	1.237e-42
75	0x00000a5c	3.716e-42
76	0x00006c05	3.875e-41
77	0x399ee0fb	0.00030303732
78	0x911b66ad	-1.2258983e-28
79	0x800049bb	-2.645e-41
80	0x3c267dfd	0.010161874
81	0x00009876	5.4693e-41
82	0x00004692	2.5316e-41
83	0x00000845	2.967e-42
84	0x000083dd	4.7304e-41
85	0x0000caa6	7.2697e-41
86	0x0d0b3094	4.2891156e-31
87	0x3a3a1a7e	0.00070992846
88	0x00002ad9	1.5371e-41
89	0x3c8301e2	0.015992109
90	0x3d1f6837	0.038917746
91	0x0e8a4434	3.4085304e-30
92	0x80001e6c	-1.0913e-41
93	0x0141fa9d	3.5628308e-38
94	0x00001188	6.289e-42
95	0x80000c66	-4.448e-42
96	0x038a8187	8.140649e-37
97	0x800071ed	-4.0869e-41
98	0x0000b9fb	6.6717e-41
99	0x8000bc13	-6.7468e-41
100	0x0000af12	6.2803e-41
101	0x1c2bd3ca	5.6852885e-22
102	0x800059b8	-3.2185e-41
103	0x3869b274	5.5717726e-05
104	0x80005a10	-3.2308e-41
105	0x000028f3	1.469e-41
106	0x00007549	4.2074e-41
107	0x8000a6f9	-5.9899e-41
108	0x000004d6	1.735e-42
109	0x3c05589e	0.008138804
110	0x1625d484	1.3395652e-25
111	0x24cab522	8.7910386e-17
112	0x80009c21	-5.6008e-41
113	0x0000501c	2.8738e-41
114	0x80004ed6	-2.8281e-41
115	0x3b965830	0.0045881495
116	0x00009fd5	5.7337e-41
117	0x00008b2c	4.9925e-41
118	0x373639dd	1.0861518e-05
119	0x3d133869	0.03594247
120	0x00006a75	3.819e-41
121	0x00006ff2	4.0158e-41
122	0x80006457	-3.5995e-41
123	0x3cf55956	0.029949825
124	0x000079a9	4.3643e-41
125	0x00008847	4.8887e-41
126	0x8000a14e	-5.7865e-41
127	0x000007d6	2.811e-42
128	0x00007db3	4.5092e-41
129	0x800037fb	-2.0082e-41
130	0x0000193a	9.05e-42
131	0x800004c8	-1.715e-42
132	0x80006311	-3.5538e-41
133	0x800034d9	-1.8958e-41
134	0x0000236c	1.2707e-41
135	0x0000478c	2.5666e-41
136	0x000059ef	3.2262e-41
137	0x000045de	2.5064e-41
138	0x00009984	5.5071e-41
139	0x80008d5b	-5.0709e-41
140	0x00009317	5.2766e-41
141	0x8000718a	-4.073e-41
142	0x0000221c	1.2236e-41
143	0x8000517b	-2.923e-41
144	0x0000afc5	6.3054e-41
145	0x80007c14	-4.4511e-41
146	0x00008e7c	5.1114e-41
147	0x8000976b	-5.4319e-41
148	0x8000a505	-5.9198e-41
149	0x80009bcc	-5.589e-41
150	0x80001df5	-1.0747e-41
151	0x0000480f	2.585e-41
152	0x00004176	2.3483e-41
153	0x00004708	2.5481e-41
154	0x00007b4a	4.4228e-41
155	0x00001bec	1.0016e-41
156	0x80002b9e	-1.5647e-41
157	0x000016b5	8.146e-42
158	0x80001d5e	-1.0535e-41
159	0x80003308	-1.8307e-41
160	0x000026d0	1.3923e-41
161	0x8000878e	-4.8628e-41
162	0x000025cc	1.3559e-41
163	0x000099dc	5.5194e-41
164	0x8000009c	-2.19e-43
165	0x8000a1cd	-5.8043e-41
166	0x000068ad	3.755e-41
167	0x80003243	-1.803e-41
168	0x800030f1	-1.7557e-41
169	0x000036f9	1.972e-41
170	0x0000760d	4.2349e-41
171	0x00009979	5.5056e-41
172	0x800034c6	-1.8932e-41
173	0x00003df7	2.2229e-41
174	0x00005967	3.2072e-41
175	0x80007198	-4.075e-41
176	0x800002a6	-9.5e-43
177	0x00002902	1.4711e-41
178	0x00004511	2.4776e-41
179	0x000046d0	2.5403e-41
180	0x80008b8e	-5.0063e-41
181	0x000043de	2.4346e-41
182	0x80008547	-4.7811e-41
183	0x0000489e	2.605e-41
184	0x800020d6	-1.178e-41
185	0x80006798	-3.7162e-41
186	0x8000417b	-2.349e-41
187	0x800020f4	-1.1821e-41
188	0x00002ae1	1.5382e-41
189	0x80006746	-3.7048e-41
190	0x8000347a	-1.8825e-41
191	0x800032ad	-1.8179e-41
192	0x80004574	-2.4915e-41
193	0x80000002	-3e-45
194	0x80008648	-4.8171e-41
195	0x000096e5	5.4131e-41
196	0x000096f0	5.4146e-41
197	0x000032c4	1.8211e-41
198	0x80002205	-1.2204e-41
199	0x00000345	1.173e-42
200	0x80003af6	-2.1151e-41
201	0x80005fa7	-3.4314e-41
202	0x00008a96	4.9715e-41
203	0x00007b1b	4.4162e-41
204	0x80005df3	-3.3703e-41
205	0x80006e88	-3.9651e-41
206	0x8000a29a	-5.833e-41
207	0x80001b80	-9.865e-42
208	0x8000aaff	-6.1342e-41
209	0x00004efb	2.8333e-41
210	0x000036bc	1.9635e-41
211	0x80006bf1	-3.8722e-41
212	0x8000a492	-5.9037e-41
213	0x8000764e	-4.244e-41
214	0x80006f65	-3.9961e-41
215	0x80006209	-3.5168e-41
216	0x80009cde	-5.6273e-41
217	0x800048bc	-2.6092e-41
218	0x80000f97	-5.593e-42
219	0x80003a97	-2.1018e-41
220	0x80005066	-2.8842e-41
221	0x00001de1	1.0719e-41
222	0x00000377	1.243e-42
223	0x0000341a	1.869e-41
224	0x0000887e	4.8964e-41
225	0x00007b6f	4.428e-41
226	0x00006df8	3.945e-41
227	0x000062c6	3.5433e-41
228	0x800065df	-3.6544e-41
229	0x0000a3c3	5.8747e-41
230	0x80002525	-1.3325e-41
231	0x00002bdc	1.5734e-41
232	0x0000a3c6	5.8751e-41
233	0x800086e1	-4.8385e-41
234	0x000076f0	4.2667e-41
235	0x00004eee	2.8315e-41
236	0x80004b61	-2.7041e-41
237	0x8000643c	-3.5957e-41
238	0x00008eda	5.1245e-41
239	0x00001cb8	1.0302e-41
240	0x000117f6	1.00431e-40
241	0x0000aa92	6.1189e-41
242	0x80000f53	-5.497e-42
243	0x80000ad1	-3.88e-42
244	0x00005a4b	3.2391e-41
245	0x0000c06f	6.9032e-41
246	0x8000181b	-8.647e-42
247	0x8000590a	-3.1941e-41
248	0x0000969a	5.4026e-41
249	0x000087b3	4.868e-41
250	0x800005b8	-2.052e-42
251	0x8000a279	-5.8284e-41
252	0x0000bb06	6.7091e-41
253	0x800085b6	-4.7966e-41
254	0x00005615	3.088e-41
255	0x0000430d	2.4053e-41

mlp.15.bias f4 [64]
0	0x3ca5e445	0.020250449
1	0x00000853	2.986e-42
2	0x3c46b7d9	0.012128794
3	0x3a0359c4	0.00050106295
4	0x800080e1	-4.6233e-41
5	0x3c429216	0.01187565
6	0x80000900	-3.229e-42
7	0x80003f4a	-2.2704e-41
8	0x00008473	4.7514e-41
9	0x00009f47	5.7138e-41
10	0x000088b1	4.9036e-41
11	0x235a1665	1.1822546e-17
12	0x369357f5	4.391181e-06
13	0x000090c7	5.1936e-41
14	0x00009e53	5.6796e-41
15	0x3cd04d21	0.025427403
16	0x80001d78	-1.0571e-41
17	0x3bf1b8fe	0.007376789
18	0x0000644c	3.598e-41
19	0x8000929a	-5.2591e-41
20	0x00008c28	5.0279e-41
21	0x80002f13	-1.6887e-41
22	0x0000a1d6	5.8056e-41
23	0x1bc03097	3.1795136e-22
24	0x1f9bedbb	6.6038345e-20
25	0x8000a428	-5.8888e-41
26	0x0000238d	1.2753e-41
27	0x3ce7adef	0.02828118
28	0x00004db8	2.788e-41
29	0x800062c1	-3.5426e-41
30	0x00002ac5	1.5343e-41
31	0x80007102	-4.054e-41
32	0x80008948	-4.9247e-41
33	0x00004958	2.6311e-41
34	0x80006db5	-3.9355e-41
35	0x00009bdc	5.5912e-41
36	0x80000804	-2.875e-42
37	0x000087b4	4.8681e-41
38	0x00003858	2.0212e-41
39	0x8000a43f	-5.892e-41
40	0x8000237c	-1.273e-41
41	0x00008f08	5.131e-41
42	0x3cd8b52a	0.026453573
43	0x3c995a32	0.018719766
44	0x00009ed2	5.6974e-41
45	0x0000321c	1.7976e-41
46	0x3c4f3747	0.0126474565
47	0x80000fe9	-5.707e-42
48	0x31dbf170	6.401187e-09
49	0x3ae5329d	0.0017486397
50	0x80005056	-2.8819e-41
51	0x80009449	-5.3195e-41
52	0x21f9cd16	1.6927182e-18
53	0x00002416	1.2945e-41
54	0x3cb21c6d	0.02174207
55	0x80001ac7	-9.606e-42
56	0x00004212	2.3702e-41
57	0x3b17e828	0.0023179147
58	0x3d1bec0e	0.038066916
59	0x00003bee	2.1499e-41
60	0x000063bb	3.5777e-41
61	0x3813a8a2	3.5204583e-05
62	0x80000b1a	-3.982e-42
63	0x3c8ae546	0.01695503

mlp.18.weight f4 [8, 64]
0	0x8000465f	-2.5244e-41
1	0x00009d82	5.6503e-41
2	0x00001fec	1.1451e-41
3	0x00004bfd	2.726e-41
4	0x8000aaa8	-6.122e-41
5	0x00009c85	5.6149e-41
6	0x0000aac8	6.1265e-41
7	0x800053d4	-3.0072e-41
8	0x0000068f	2.353e-42
9	0x000022ed	1.2529e-41
10	0x80009476	-5.3258e-41
11	0x80007d34	-4.4914e-41
12	0x80004a67	-2.669e-41
13	0x80003cbb	-2.1786e-41
14	0x80000756	-2.632e-42
15	0x8000599a	-3.2143e-41
16	0x80003c52	-2.1639e-41
17	0x00007153	4.0653e-41
18	0x800004b6	-1.69e-42
19	0x8000af03	-6.2782e-41
20	0x000054bc	3.0397e-41
21	0x00008abb	4.9767e-41
22	0x00003be7	2.1489e-41
23	0x0000a157	5.7878e-41
24	0x00005d2c	3.3424e-41
25	0x80002870	-1.4506e-41
26	0x8000108b	-5.934e-42
27	0x8000299e	-1.493e-41
28	0x0000a8f5	6.061e-41
29	0x00006a5a	3.8152e-41
30	0x8000a2b8	-5.8372e-41
31	0x80003b78	-2.1333e-41
32	0x00001dad	1.0646e-41
33	0x80008c64	-5.0363e-41
34	0x000052c3	2.969e-41
35	0x0000a06a	5.7546e-41
36	0x80000388	-1.267e-42
37	0x80000f49	-5.483e-42
38	0x80007b91	-4.4327e-41
39	0x800041f9	-2.3667e-41
40	0x80002d9d	-1.6363e-41
41	0x000049c4	2.6462e-41
42	0x800069b7	-3.7923e-41
43	0x0000529d	2.9636e-41
44	0x8000afc9	-6.306e-41
45	0x00006e4b	3.9566e-41
46	0x000063aa	3.5753e-41
47	0x00000fd2	5.675e-42
48	0x0000b2e2	6.4171e-41
49	0x0000491a	2.6224e-41
50	0x8000abcf	-6.1633e-41
51	0x00000cc0	4.574e-42
52	0x00008871	4.8946e-41
53	0x80008005	-4.5925e-41
54	0x800077a8	-4.2925e-41
55	0x00000b9e	4.167e-42
56	0x0000ac54	6.182e-41
57	0x000055d5	3.0791e-41
58	0x8000adbd	-6.2326e-41
59	0x00001006	5.748e-42
60	0x00003ab4	2.1059e-41
61	0x0000590f	3.1948e-41
62	0x80002319	-1.259e-41
63	0x80000182	-5.41e-43
64	0x3d89507e	0.06704806
65	0x00003ee6	2.2564e-41
66	0x3d315cdd	0.043301452
67	0x3adc57a2	0.0016810785
68	0x00000304	1.082e-42
69	0x3d29f0b4	0.041489318
70	0x8000685a	-3.7434e-41
71	0x06d36d5f	7.9530085e-35
72	0x8000739f	-4.1477e-41
73	0x00001285	6.644e-42
74	0x26a1822e	1.1206904e-15
75	0x246e9172	5.173122e-17
76	0x374b4e48	1.2117969e-05
77	0x0000a76e	6.0062e-41
78	0x0000e0cc	8.0642e-41
79	0x3db69841	0.08915759
80	0x00007a61	4.3901e-41
81	0x3ccf8062	0.025329772
82	0x8001850d	-1.39565e-40
83	0x0000a6b7	5.9806e-41
84	0x80003d4d	-2.199e-41
85	0x000015cb	7.818e-42
86	0x80009ef5	-5.7023e-41
87	0x1cad369d	1.1462297e-21
88	0x20a1af62	2.739052e-19
89	0x00009ee5	5.7e-41
90	0x80000d1c	-4.703e-42
91	0x3dd26f47	0.10275131
92	0x80001a57	-9.449e-42
93	0x00004bb8	2.7163e-41
94	0x94d7483a	-2.173794e-26
95	0x0000686a	3.7457e-41
96	0xb495c453	-2.7896257e-07
97	0x80003857	-2.0211e-41
98	0x000009b8	3.486e-42
99	0x0000ea18	8.3977e-41
100	0x00001fc0	1.139e-41
101	0x8000041b	-1.473e-42
102	0x00005a9e	3.2507e-41
103	0x00008b84	5.0049e-41
104	0x2e6d4cf3	5.3955906e-11
105	0x80009f1d	-5.7079e-41
106	0x3dbd3675	0.092389025
107	0x3d8530bb	0.06503435
108	0x80003287	-1.8126e-41
109	0x00004283	2.386e-41
110	0x3d471650	0.048605263
111	0x000007e0	2.825e-42
112	0x32b1329c	2.0628526e-08
113	0x3bbc8450	0.0057530776
114	0x80000126	-4.12e-43
115	0x00000736	2.587e-42
116	0x22d71434	5.8297258e-18
117	0x9363d0fe	-2.875447e-27
118	0x3dab56ca	0.08366163
119	0x800006e9	-2.479e-42
120	0x000073be	4.152e-41
121	0x3bf988f2	0.007615202
122	0x3e12657b	0.14296524
123	0x00005afa	3.2636e-41
124	0x8b51e117	-4.0421275e-32
125	0x38cdfc9d	9.8222146e-05
126	0x00008e40	5.103e-41
127	0x3d780588	0.06055215
128	0x2c133dd3	2.0924276e-12
129	0x800086a7	-4.8304e-41
130	0x2bc68ed3	1.4108388e-12
131	0x2950459b	4.624565e-14
132	0x00004b5a	2.7031e-41
133	0x2ba4adb3	1.1701112e-12
134	0x00009bf4	5.5945e-41
135	0x80007c34	-4.4556e-41
136	0x00005798	3.1423e-41
137	0x80001bc6	-9.963e-42
138	0x2086861d	2.2789232e-19
139	0x12d7e606	1.3625113e-27
140	0x2611b0ef	5.054677e-16
141	0x80008130	-4.6344e-41
142	0x000094ae	5.3336e-41
143	0x2c302e56	2.5036826e-12
144	0x800081a4	-4.6506e-41
145	0x2dd3489c	2.4020168e-11
146	0x80008429	-4.741e-41
147	0x800049b8	-2.6445e-41
148	0x00007a3a	4.3847e-41
149	0x000079b5	4.366e-41
150	0x8000c367	-7.0097e-41
151	0x0b2f5448	3.376718e-32
152	0x0f2122d9	7.944624e-30
153	0x80004a6c	-2.6698e-41
154	0x80007cff	-4.484e-41
155	0x2c5e61df	3.1602427e-12
156	0x00002012	1.1505e-41
157	0x00006668	3.6736e-41
158	0x00003545	1.911e-41
159	0x016f22e9	4.3922414e-38
160	0x2e80290e	5.828059e-11
161	0x00005d22	3.341e-41
162	0x8000a185	-5.7942e-41
163	0x00003751	1.9844e-41
164	0x8000a7ea	-6.0236e-41
165	0x000088cc	4.9073e-41
166	0x00008f6f	5.1454e-41
167	0x00000658	2.276e-42
168	0x891b7489	-1.871224e-33
169	0x12bcd0a3	1.1915901e-27
170	0x2c353d01	2.575551e-12
171	0x2bff40fa	1.8136874e-12
172	0x8000a600	-5.955e-41
173	0x00004d8b	2.7817e-41
174	0x2bb02c33	1.251782e-12
175	0x80006642	-3.6683e-41
176	0xa40da801	-3.0716806e-17
177	0x2a829a2d	2.319962e-13
178	0x8000812d	-4.634e-41
179	0x00001629	7.95e-42
180	0x1b8b7f9b	2.3078084e-22
181	0x8000233e	-1.2643e-41
182	0x2c1fc24c	2.2703115e-12
183	0x00005eaa	3.3959e-41
184	0x80004d4e	-2.7732e-41
185	0x2a6df3ef	2.113446e-13
186	0x2c8b4bf7	3.9590514e-12
187	0x80003eff	-2.2599e-41
188	0x1d3c95cb	2.4959034e-21
189	0xb184673c	-3.853442e-09
190	0x80005014	-2.8727e-41
191	0x2be71945	1.6420551e-12
192	0x3c86a54a	0.016436238
193	0x80009dfe	-5.6677e-41
194	0x3c1f7568	0.009732582
195	0x39c39e7b	0.00037311375
196	0x00009d0f	5.6342e-41
197	0x3c1b70de	0.009487359
198	0x80003b63	-2.1304e-41
199	0x0000a2df	5.8427e-41
200	0x00004dda	2.7928e-41
201	0x00006bc8	3.8665e-41
202	0x00008cfb	5.0574e-41
203	0x23a0f75a	1.7451992e-17
204	0x3641c28f	2.887249e-06
205	0x00001450	7.287e-42
206	0x000029ad	1.495e-41
207	0x3cab774f	0.020930914
208	0x00000b51	4.06e-42
209	0x3bbc22e9	0.0057414663
210	0x800052b5	-2.967e-41
211	0x00005423	3.0183e-41
212	0x8000b672	-6.5449e-41
213	0x000022b6	1.2452e-41
214	0x00009bc2	5.5875e-41
215	0x1bf3d91a	4.0341276e-22
216	0x1faf018e	7.4117955e-20
217	0x80005d90	-3.3564e-41
218	0x00009c88	5.6153e-41
219	0x3cbfdf2b	0.023421844
220	0x80004bf0	-2.7241e-41
221	0x00001e23	1.0811e-41
222	0x8339dedd	-5.462245e-37
223	0x00000ac2	3.859e-42
224	0x80c5c24b	-1.8161292e-38
225	0x800034dd	-1.8964e-41
226	0x800033dc	-1.8604e-41
227	0x80005710	-3.1232e-41
228	0x80007274	-4.1058e-41
229	0x0000079b	2.728e-42
230	0x80001b2b	-9.746e-42
231	0x8000403b	-2.3042e-41
232	0x1f4c31a6	4.323975e-20
233	0x00003a3d	2.0892e-41
234	0x3cb2dd29	0.021833973
235	0x3c79009e	0.015197901
236	0x0000894f	4.9257e-41
237	0x00005560	3.0627e-41
238	0x3c277ef0	0.010223135
239	0x80005bc1	-3.2915e-41
240	0x31e436fd	6.641925e-09
241	0x3aadaa66	0.0013249635
242	0x00006116	3.4828e-41
243	0x00008044	4.6013e-41
244	0x220e0cc1	1.925134e-18
245	0x00003b72	2.1325e-41
246	0x3c9343f3	0.017976737
247	0x000061bc	3.506e-41
248	0x00008a7e	4.9682e-41
249	0x3ae3b741	0.001737334
250	0x3d045b7e	0.032313816
251	0x80007e11	-4.5224e-41
252	0x8000a250	-5.8227e-41
253	0x37d9bf30	2.5957444e-05
254	0x000080e9	4.6244e-41
255	0x3c615843	0.013753953

mlp.18.bias f4 [8]
0	0x00001fdb	1.1428e-41
1	0x3db9e595	0.090769924
2	0x2c4fb96f	2.9519406e-12
3	0x3cb47ff3	0.022033667
4	0x3dfe436e	0.12415205
5	0x24e50651	9.932362e-17
6	0x000091e7	5.234e-41
7	0x3909e4c3	0.00013150559

mlp.21.weight f4 [1, 8]
0	0x80009527	-5.3506e-41
1	0xbe91b49e	-0.28458112
2	0xad0fdedc	-8.178094e-12
3	0xbd8a1991	-0.06743158
4	0xbec928c5	-0.39288917
5	0x390e3673	0.00013562459
6	0x00003f3a	2.2681e-41
7	0xb9c1c228	-0.00036956486
