model_saved/2024-01-25-07-49-50/model_2024-01-25-07-50-36_epoch_7000_train_mse_1.97e-02_val_mse_1.99e-02.pt (torch, 88323 bytes, 15 tensors)

mlp.0.weight f4 [8, 8]
00000000: e33b 0080 3478 0000 6d3b 0080 2097 0000
00000010: 0614 0100 e181 0080 de05 0080 2496 0000
00000020: e17a 983c 9356 3dbc b62d 7f39 255d 6138
00000030: 32c4 3d38 c86c 1238 cd06 cd37 67c7 e737
00000040: c39c 55bd cef4 923d c8ff 853c 1712 90ba
00000050: 23ae 30ba 08a2 03ba 454a 5a3a 7bf4 85ba
00000060: 43f9 18bd 6503 533d cfc7 3d3c 7e20 34ba
00000070: 2418 e1b9 8e7f b3b9 f617 223a e897 17ba
00000080: 10e1 2c3e 5819 bbbd 0335 393c c87c 1b3a
00000090: 0352 fc39 6ba2 ba39 8041 8039 1e1c a939
000000a0: 6aca 06be 3850 3e3e f74f 633d 2eb5 01bb
000000b0: 2901 58ba 594e dbb9 1f1c 643b e36e baba
000000c0: a3d0 e03d e2ab a53e ed5c 3e3e 9811 37bb
000000d0: ba47 c2b9 87ef e639 c3db 223c 8437 27bb
000000e0: 54a9 83bc 5945 b53d 1a97 033d 7342 51ba
000000f0: f5e8 92b9 7723 02b9 82ed fb3a 30b3 18ba
-2.1483e-41 4.3121e-41 -2.1318e-41 5.4213e-41 9.9019e-41 -4.6592e-41 -2.105e-42 5.386e-41
0.01861328 -0.011556285 0.00024335724 5.3730928e-05 4.5243833e-05 3.4910423e-05 2.4441071e-05 2.76302e-05
-0.052151453 0.07175599 0.016357318 -0.0010991719 -0.00067398156 -0.0005021398 0.0008327107 -0.0010219956
-0.03734709 0.05151691 0.011583283 -0.0006871297 -0.0004293333 -0.00034236576 0.000618338 -0.00057828287
0.1688273 -0.09135693 0.011304143 0.00059313746 0.0004812629 0.00035597695 0.00024462864 0.0003225514
-0.13163152 0.18585289 0.055496182 -0.001979183 -0.0008239919 -0.0004182931 0.00348068 -0.0014223721
0.10977294 0.323577 0.18590136 -0.002793407 -0.00037056004 0.0004404748 0.009940091 -0.0025515268
-0.016071953 0.08851118 0.032126524 -0.0007982619 -0.00028020857 -0.00012410978 0.0019220563 -0.0005825041

mlp.0.bias f4 [8]
00000000: d034 0000 5f08 87b4 449c 33b9 dbc8 1736
00000010: 39c9 1ab7 76d9 cf39 fcfa d13a a7bc 8639
1.8946e-41 -2.51518e-07 -0.00017128984 2.2617667e-06 -9.225966e-06 0.00039644138 0.0016020234 0.0002569903

mlp.3.weight f4 [16, 8]
00000000: 294b 0000 aaab fdb9 6ade 103c 76fa d03b
00000010: d9c5 91bb 90a9 cd3c d811 623d 89f3 373c
00000020: 7e6f 0080 dc6e 60b7 5858 ba38 c4e0 e638
00000030: ab10 08b9 a68e ef39 074e ad3a 5d10 7039
00000040: e25c 0080 3646 24ba 02d9 263c 6f6f f53b
00000050: bf56 01bc 8330 ef3c fcaf 873d 978a 543c
00000060: 7c03 0080 9dec 2538 bec8 0eba f1c5 d8b9
00000070: 371d 173c eabf e0ba cead bb3a 87dd d0ba
00000080: dd43 0000 e99b 0080 8846 0080 a395 0080
00000090: a982 0000 f778 0000 bc1d 0080 072d 0000
000000a0: 1f70 0080 9709 0080 9c62 0080 0ea6 0000
000000b0: 5f95 0000 4d6d 0080 f75e 0000 7c05 0080
000000c0: 1248 0000 df9f bfb7 1ec9 8739 b85b b4b8
000000d0: 3250 5fb9 0d1f fb39 529b 483b ff00 c439
000000e0: 380a 0080 05ff b7ba a1eb ea3c e536 a83c
000000f0: 36f6 21bc 4fb5 a13d 1ec4 383e 104f 0f3d
00000100: 3a47 0000 ad78 0000 e633 0080 3d83 0000
00000110: 8bb3 0000 d35b 0000 f77b 0000 f1d5 0000
00000120: f72c 0000 58d2 1bbb e1b7 463d e713 0e3d
00000130: 3578 62bc 5d00 093e 4eb4 863e 3d20 813d
00000140: b171 0080 656f 0080 cc4e 0000 4b77 0180
00000150: fcb3 0000 d134 0080 812a 0080 0597 0080
00000160: f551 0000 a871 75bb 283a 573d baf5 193d
00000170: 6163 6cbd e309 153e eccd 943e 0752 7d3d
00000180: de42 0080 4092 0080 0192 0080 fdb5 0080
00000190: d63b 0000 1792 3e21 6467 92b4 9784 9629
000001a0: b983 0000 a056 0000 fa2b 0100 69d0 0080
000001b0: de46 0000 bd8c 0000 ef95 0000 162f 0000
000001c0: 6d2c 0000 4d49 0000 4d64 0080 d3aa 0000
000001d0: 582c 0000 d32e 0000 24ab 47a7 3b63 0080
000001e0: 3e79 0000 ee61 80ba 682f 953c 2c03 573c
000001f0: c63a 1fbc 11c8 503d 8cdd e33d 57c0 b23c
2.6962e-41 -0.0004838382 0.00884209 0.0063775135 -0.004448634 0.025105268 0.0551928 0.011227497
-3.9996e-41 -1.3377252e-05 8.8856264e-05 0.000110091205 -0.0001297618 0.00045691914 0.0013222106 0.0002289428
-3.332e-41 -0.0006266566 0.010183575 0.0074900906 -0.007894217 0.029197937 0.06625363 0.0129724955
-1.25e-42 3.955943e-05 -0.0005446783 -0.00041346208 0.009223274 -0.0017147039 0.0014318766 -0.0015935161
2.4345e-41 -5.593e-41 -2.5302e-41 -5.368e-41 4.6872e-41 4.3394e-41 -1.0667e-41 1.6153e-41
-4.0221e-41 -3.44e-42 -3.5374e-41 5.9569e-41 5.3584e-41 -3.921e-41 3.4067e-41 -1.967e-42
2.5854e-41 -2.284342e-05 0.0002589905 -8.600153e-05 -0.00021296812 0.00047897585 0.0030610156 0.00037384775
-3.666e-42 -0.0014037794 0.02867681 0.020533988 -0.009885361 0.0789591 0.18043563 0.03498751
2.5551e-41 4.329e-41 -1.8618e-41 4.708e-41 6.4408e-41 3.294e-41 4.447e-41 7.6748e-41
1.613e-41 -0.0023776498 0.048515204 0.03468695 -0.013822605 0.13379045 0.26309437 0.06304977
-4.0785e-41 -3.9961e-41 2.8267e-41 -1.3463e-40 6.4566e-41 -1.8947e-41 -1.5248e-41 -5.4176e-41
2.94e-41 -0.0037451778 0.052545696 0.03758786 -0.057711963 0.14554553 0.29063356 0.061845805
-2.3987e-41 -5.2465e-41 -5.2376e-41 -6.5285e-41 2.1465e-41 6.456785e-19 -2.7269846e-07 6.684339e-14
4.7253e-41 3.1075e-41 1.07611e-40 -7.4763e-41 2.5422e-41 5.0487e-41 5.3786e-41 1.6891e-41
1.5937e-41 2.6295e-41 -3.5981e-41 6.128e-41 1.5908e-41 1.6797e-41 -2.7709573e-15 -3.5597e-41
4.3494e-41 -0.000979481 0.018211082 0.013123315 -0.0097186025 0.05097205 0.11126241 0.02182023

mlp.3.bias f4 [16]
00000000: 1a1f 9b39 2a82 6836 ce7b d339 d787 cdb7
00000010: 2f05 0080 0543 0000 a776 0537 cc9e 913a
00000020: 9e30 0000 a915 0d3b e91b 0000 b6cd 193b
00000030: 0851 0000 5db1 0080 8269 0000 9d9b 353a
0.00029587076 3.464646e-06 0.00040337298 -2.450116e-05 -1.86e-42 2.4042e-41 7.955044e-06 0.0011109947
1.744e-41 0.0021527803 1.0012e-41 0.002346856 2.9069e-41 -6.3626e-41 3.7849e-41 0.000692779

mlp.6.weight f4 [32, 16]
00000000: 3330 0000 7c0e 0080 d18c 0080 b660 0080
00000010: 2cc9 0000 e73f 0080 f7a7 0080 59e2 0080
00000020: f34b 0100 094e 0080 620d 0080 c549 0080
00000030: dc0d 0000 d397 0000 a002 0080 a218 0000
00000040: 3e2e 3f3c 8fe0 4639 62c5 3b3c 2418 1ab9
00000050: 4ab1 0080 9837 0080 ca50 b539 98d7 1e3d
00000060: b78b 0000 475c 563d b922 0080 0582 603d
00000070: 0d88 0000 7519 0080 a741 0080 8bc7 a63c
00000080: b47f 513d b69f 713a 811d 3f3d d7f7 d4ba
00000090: e7aa 0080 506f 0080 67bd f63a 032e ac3d
000000a0: 0b9e 0080 61e3 583e 51ac 0080 064b 4e3e
000000b0: 0ae1 8818 bf0e 0280 4240 0000 45fa b13d
000000c0: e008 783c 0039 9339 f305 8b3c 52a3 72b9
000000d0: b121 0000 3660 0500 e357 053a 0600 753d
000000e0: 4d85 0080 aece 953d 6e6e 0000 7ea6 a93d
000000f0: fe11 0000 a73d 0000 ec39 0000 5fb5 f23c
00000100: c5d1 aa37 b62d d631 87f7 c635 849c 84b4
00000110: fe29 0080 d8d0 0080 887c 0bb3 0607 263a
00000120: 91d1 0180 43f0 76b9 7688 0080 862d 9cb8
00000130: 9a1f 0080 a266 0000 15aa 0000 e410 c735
00000140: f6a3 0000 5c39 0080 bb80 0000 d840 0000
00000150: 23bc 0000 8a6d 0080 1ea3 0080 ff04 0080
00000160: 991f 0000 4327 0080 5c02 0080 4b53 0000
00000170: 7d09 0000 d842 0080 5923 0000 1b50 0000
00000180: 3802 0080 7581 0080 aab3 0080 4f79 0080
00000190: d5a3 0080 79b7 0080 c929 0080 e331 0000
000001a0: e7d3 0080 a170 0000 fcc3 0000 4fb2 0000
000001b0: 53af 0080 7e09 0000 2707 0080 6194 0080
000001c0: 59eb 8338 239f 7635 7ff1 7838 0445 adb5
000001d0: 620e 0080 b425 0000 e09e e035 daea 8e39
000001e0: 8c0d 0080 ad0e b339 3d79 0080 9638 b639
000001f0: f282 0000 d275 0000 b9bd 0000 1d54 e738
00000200: 0d54 3e3c b70f 2439 7d85 143c 06d1 9fb9
00000210: 0005 0000 af86 0000 fbec 8b39 9ef4 4a3d
00000220: 623a 0080 8545 b43c 1559 0000 5ccf 623d
00000230: ef01 0080 25a7 0400 d12b 0000 23ee 823c
00000240: 3f08 a237 ee01 9b34 56d3 9c37 465e 0cb5
00000250: 11aa 0100 3494 0080 a203 0d35 a1e4 4139
00000260: 3a84 0000 56b5 ca38 b6bf 0000 33b5 dc38
00000270: 5a22 0080 f455 0000 6c27 0000 b25d 1638
00000280: e83e 0080 25b6 0080 071e 0080 80b3 0080
00000290: 3f10 0000 429e 0080 3577 0000 c88c 0000
000002a0: 21b7 0080 2b5f 0000 5354 0000 384f 0000
000002b0: a706 0080 746b 0080 ddc4 0080 9456 0000
000002c0: 8a3e 0000 653e 0080 7824 0000 6163 0000
000002d0: c558 0080 2ab2 0000 6acf 0000 d662 0000
000002e0: ee20 0000 bf88 0080 a45a 0080 ea1b 0000
000002f0: 053b 0080 4374 0000 b24c 0000 863a 0080
00000300: 7014 9b2b 8269 0080 f7db 0400 339c 118b
00000310: 49d5 0000 3587 0000 39ac 0000 7096 3faf
00000320: 28b5 0000 9c0b bc2e bf8c 0080 77c1 83ad
00000330: 481d 0080 dd38 0100 1b53 0000 be65 8699
00000340: d221 833c 9c09 7f39 4098 673c ca74 e6b9
00000350: 790e 0000 737c 0000 44bc e039 9b63 243d
00000360: c604 0000 26af 913d 2184 0000 f51f 8d3d
00000370: 620e 0080 4d14 0000 bc6c 0080 1745 d23c
00000380: bb10 0000 4f3a 0080 a68a 0000 2057 0080
00000390: 5144 0000 4018 0000 84a5 0000 60c7 0080
000003a0: 0cae 0000 c158 0000 0f89 0080 ac55 0080
000003b0: f133 0080 10a2 0000 294f 0080 a161 0000
000003c0: 3cea 4637 f033 1234 5d7d 2137 2b24 99b4
000003d0: de03 0000 1814 0000 37af 7c34 aaa1 0839
000003e0: 9585 0080 60bd 4c37 1d5d 0080 a4a8 8838
000003f0: 1c3e 0080 4b84 0080 7113 0000 5524 9837
1.729e-41 -5.196e-42 -5.0515e-41 -3.4693e-41 7.2167e-41 -2.2924e-41 -6.0254e-41 -8.1198e-41
1.19081e-40 -2.7994e-41 -4.801e-42 -2.6464e-41 4.972e-42 5.4464e-41 -9.42e-43 8.837e-42
0.01166874 0.00018966406 0.011460634 -0.00014695578 -6.36e-41 -1.9943e-41 0.00034583203 0.038779825
5.012e-41 0.052334096 -1.2456e-41 0.054811496 4.8806e-41 -9.132e-42 -2.3552e-41 0.020358821
0.051147178 0.0009217219 0.046658996 -0.0016248178 -6.1308e-41 -3.9931e-41 0.0018824757 0.084072135
-5.6695e-41 0.21180488 -6.1815e-41 0.20145807 3.5382407e-24 -1.88961e-40 2.3051e-41 0.08690313
0.015138835 0.00028080493 0.01697061 -0.0002313976 1.2086e-41 4.93691e-40 0.00050866435 0.059814475
-4.782e-41 0.07314812 3.9615e-41 0.08283709 6.454e-42 2.2117e-41 2.0778e-41 0.0296275
2.036326e-05 6.2334164e-09 1.482419e-06 -2.4700796e-07 -1.5064e-41 -7.4919e-41 -3.247672e-08 0.0006333444
-1.67014e-40 -0.00023549893 -4.8953e-41 -7.447139e-05 -1.1337e-41 3.6818e-41 6.1014e-41 1.4831571e-06
5.8818e-41 -2.0577e-41 4.618e-41 2.3262e-41 6.7491e-41 -3.9295e-41 -5.8515e-41 -1.792e-42
1.1335e-41 -1.4084e-41 -8.46e-43 2.988e-41 3.404e-42 -2.3979e-41 1.268e-41 2.8736e-41
-7.96e-43 -4.644e-41 -6.4451e-41 -4.3517e-41 -5.8772e-41 -6.5818e-41 -1.499e-41 1.7896e-41
-7.6016e-41 4.0404e-41 7.0306e-41 6.3965e-41 -6.2894e-41 3.405e-42 -2.566e-42 -5.3228e-41
6.290404e-05 9.1873716e-07 5.935272e-05 -1.2909591e-06 -5.16e-42 1.3525e-41 1.6735539e-06 0.0002725933
-4.86e-42 0.00034152475 -4.3492e-41 0.00034755905 4.6974e-41 4.2266e-41 6.806e-41 0.00011030606
0.011616719 0.00015646113 0.009065029 -0.00030482578 1.794e-42 4.8315e-41 0.0002668871 0.04954969
-2.0944e-41 0.022005806 3.1957e-41 0.055373535 -6.94e-43 4.27302e-40 1.5718e-41 0.015982693
1.9315745e-05 2.8872404e-07 1.869506e-05 -5.229125e-07 1.52844e-40 -5.3165e-41 5.253188e-07 0.00018491085
4.7434e-41 9.665887e-05 6.8773e-41 0.000105241685 -1.2323e-41 3.0834e-41 1.4142e-41 3.5850047e-05
-2.2567e-41 -6.5341e-41 -1.0772e-41 -6.4392e-41 5.828e-42 -5.6772e-41 4.2763e-41 5.0503e-41
-6.5694e-41 3.414e-41 3.025e-41 2.8418e-41 -2.386e-42 -3.8547e-41 -7.0621e-41 3.1058e-41
2.2435e-41 -2.2383e-41 1.3083e-41 3.565e-41 -3.1845e-41 6.3913e-41 7.4406e-41 3.5456e-41
1.1813e-41 -4.9055e-41 -3.2516e-41 1.0014e-41 -2.1172e-41 4.1707e-41 2.7513e-41 -2.0994e-41
1.1019085e-12 -3.7849e-41 4.4625e-40 -2.8043495e-32 7.6512e-41 4.8503e-41 6.1782e-41 -1.7424795e-10
6.4987e-41 8.5513124e-11 -5.049e-41 -1.4978891e-11 -1.0504e-41 1.12234e-40 2.9813e-41 -1.3896369e-23
0.016007338 0.00024322275 0.01413542 -0.00043956033 5.192e-42 4.4644e-41 0.00042864878 0.040134054
1.712e-42 0.07113485 4.7399e-41 0.06890861 -5.16e-42 7.283e-42 -3.9007e-41 0.02566771
6.002e-42 -2.0917e-41 4.9738e-41 -3.1255e-41 2.4507e-41 8.699e-42 5.9376e-41 -7.1522e-41
6.2436e-41 3.1839e-41 -4.9167e-41 -3.0733e-41 -1.8633e-41 5.8137e-41 -2.8397e-41 3.5023e-41
1.1856257e-05 1.3616204e-07 9.625536e-06 -2.8524786e-07 1.387e-42 7.208e-42 2.3533072e-07 0.00013030195
-4.792e-41 1.220344e-05 -3.3403e-41 6.516397e-05 -2.228e-41 -4.7458e-41 6.974e-42 1.813673e-05

mlp.6.bias f4 [32]
00000000: ea7e 0000 07ca 933a f7a4 9f3b 7629 e13a
00000010: 0b48 fd33 a584 0080 6ab5 0000 7031 8236
00000020: 70f9 7e3a f889 9535 e88f 0000 4016 0080
00000030: 6664 0000 be1e c43a 83a9 0080 0d4f 4d35
00000040: a2f8 993b b624 0080 aa3f 0000 a1af 0080
00000050: dc16 0000 4e8c 8434 81fd aa39 004c fa39
00000060: 365d 5f34 93ec 693a 05cb 0080 229b 0000
00000070: ffad 0080 a9d9 27ac 3e22 0000 43cc 9838
4.5528e-41 0.0011275419 0.0048719603 0.0017178494 1.1794335e-07 -4.7584e-41 6.5079e-41 3.880057e-06
0.00097265 1.1141519e-06 5.1624e-41 -7.982e-42 3.6016e-41 0.0014962775 -6.081e-41 7.6483485e-07
0.004698829 -1.317e-41 2.2838e-41 -6.3004e-41 8.2e-42 2.4689e-07 0.00032613802 0.0004774034
2.0802403e-07 0.0008923497 -7.283e-41 5.5651e-41 -6.2418e-41 -2.3852953e-12 1.2284e-41 7.2859715e-05

mlp.9.weight f4 [64, 32]
00000000: eaed 0080 582c a418 19b9 419e 76a1 1411
00000010: d233 0000 cd7f 0080 54b2 0000 7540 0080
00000020: f79e 0000 1f5e 0000 208e 0000 44cd 0080
00000030: 8d58 0000 a26d 0080 3893 0380 abad 0000
00000040: ae1f ef88 6025 0080 4f35 0000 8b21 0180
00000050: 9c7f 0000 de5b 0080 af7b db08 b871 0080
00000060: 704d 0000 690a 0080 d678 0000 f100 0000
00000070: f965 0080 770b 0180 445a 0080 ef2a 0080
00000080: 4153 0080 647b ceb4 2c79 a8b6 b013 8cb3
00000090: 6054 0080 e14e 0080 8299 0000 85f4 6aa5
000000a0: 6e0f 102a 174a 699c 3639 0000 69d1 0000
000000b0: 82ac 2615 0827 6e31 4012 0000 ad60 579a
000000c0: d044 5e33 3e7c 0000 380e 0080 13b5 0080
000000d0: e689 0080 30e4 0780 bd22 5c32 7539 0c26
000000e0: c171 9704 469c 2f25 63b7 0000 0f56 0080
000000f0: e0b4 0000 5e2e 0080 3472 0000 5b5c 9124
00000100: 5954 0100 15ef 2a3d 99ff 163e f17d 793d
00000110: 31ca c137 b945 0080 fc64 0080 b6ce 9139
00000120: 909c 103d 936d cc38 090d 0080 8970 0080
00000130: e3d0 d2ac 63e9 603d 37a3 0000 3114 5338
00000140: 1032 183e 7366 0000 d8f4 0080 884f 0000
00000150: 59a5 0000 ba4b fb37 28ed 863c 094a ae3c
00000160: bb83 e737 2519 0b3d 0708 0080 8cb8 0000
00000170: 7eb5 0000 6f13 f02e 7aa9 0080 702b 953b
00000180: 9730 0080 ac3e 153b 8584 253c 6f1b 6b3b
00000190: 3f6b 9235 e071 0000 3234 0000 3b4b 5f37
000001a0: bdb4 f23a 3d96 9f36 da8c 0000 fccd 0000
000001b0: 665d 2028 2dab 403b 7615 0080 7de0 1f36
000001c0: 009e 1b3c cfd2 0000 0855 0000 7b8f 0000
000001d0: 530f 0080 93a6 c335 d57e 763a 4b80 8a3a
000001e0: c053 b135 9a3c dd3a 9c3c 0000 397f 0000
000001f0: 5303 0080 765b af2c 63a1 0080 6b48 6839
00000200: a21e 0080 b5cd bb39 69bb d33a 01cd f439
00000210: 89ae fd33 4194 0080 79d0 0080 37e3 cf35
00000220: d36d 7439 3458 0d35 001c 0000 3443 0000
00000230: 8dd6 0a92 26e0 c539 0362 0000 8d3c 9034
00000240: 8aa4 a63a 1fc7 0080 9238 0000 87ea 0000
00000250: 2916 0080 a844 2e34 ceb0 e638 7b6b 0839
00000260: a89a 2634 cf0f 5d39 858a 0080 f78c 0000
00000270: 3751 0080 902a 032b ec93 0080 a579 df37
00000280: 9cab 0080 d9f4 0080 6edc 0000 520b 0080
00000290: 8a45 0000 47db 0080 732c 0080 e2a2 0080
000002a0: a940 0080 3b26 0080 e8ad 0080 54d3 0080
000002b0: d514 0080 baa3 0080 86a4 0000 d09c 0000
000002c0: c409 0000 9900 0000 b273 0000 4299 0000
000002d0: ddb8 0080 ca66 0080 138d 0080 9e87 0000
000002e0: e329 0080 d481 0000 be95 0080 2c38 0080
000002f0: 9531 0080 ca7d 0000 79a7 0080 1982 0000
00000300: 0873 0100 1e93 0080 3f91 0000 8da5 0000
00000310: 446e 0000 d814 0000 0aab 0080 7d50 0000
00000320: d752 0000 fece 0080 4aba 0000 9d38 0000
00000330: 75a2 0080 1582 0180 a7c7 0000 7e16 0080
00000340: a887 0000 6982 0080 c0a2 0080 3667 0200
00000350: 403d 0000 2bec 0100 635c 0000 8000 0000
00000360: d10b 0000 2c26 0100 d34e 0080 8906 0180
00000370: 81bd 0000 580f 0080 ae07 0080 3293 0080
00000380: 81cb 0000 588a 0c39 7015 223a 550c 3439
00000390: 8bb1 3233 e9ab 0000 0237 0000 a9bd 1435
000003a0: 3358 ae38 6bac 5334 8a46 0080 8a0a 0100
000003b0: 13b9 a798 8717 0e39 6979 0000 2953 d133
000003c0: 1025 ea39 d314 0180 e6e9 0080 06dc 0000
000003d0: 2a57 0080 7571 7a33 820f 2638 56cb 4238
000003e0: 37ba 6333 a710 9c38 533e 0080 e48a 0000
000003f0: eea8 0000 339c 432a 6060 0000 6f71 1f37
-8.5347e-41 4.2437782e-24 -1.0255612e-20 1.1724895e-28 1.859e-41 -4.5846e-41 6.3972e-41 -2.3123e-41
5.7026e-41 3.3764e-41 5.0985e-41 -7.3635e-41 3.1766e-41 -3.9329e-41 -3.28319e-40 6.23e-41
-1.4391737e-33 -1.3408e-41 1.9124e-41 -1.03868e-40 4.5778e-41 -3.2956e-41 1.3209661e-33 -4.0795e-41
2.778e-41 -3.734e-42 4.3348e-41 3.38e-43 -3.6581e-41 -9.5948e-41 -3.2381e-41 -1.5402e-41
-2.9866e-41 -3.8460269e-07 -5.0208964e-06 -6.522839e-08 -3.0268e-41 -2.8296e-41 5.5068e-41 -2.0379111e-16
1.2795122e-13 -7.718899e-22 2.0523e-41 7.5122e-41 3.3659518e-26 3.4655745e-09 6.547e-42 -4.4539052e-23
5.1750987e-08 4.457e-41 -5.101e-42 -6.4957e-41 -4.9469e-41 -7.24707e-40 1.2813584e-08 4.8650126e-16
3.5604396e-36 1.5231778e-16 6.5787e-41 -3.0872e-41 6.4886e-41 -1.6633e-41 4.0968e-41 6.304018e-17
1.22094e-40 0.041731913 0.1474594 0.060911123 2.3101546e-05 -2.5012e-41 -3.6226e-41 0.00027810567
0.03530556 9.747888e-05 -4.676e-42 -4.037e-41 -5.99175e-12 0.054910075 5.855e-41 5.0325125e-05
0.14862847 3.6752e-41 -8.7833e-41 2.853e-41 5.9316e-41 2.9956795e-05 0.016470507 0.021275537
2.7598688e-05 0.033959527 -2.88e-42 6.6203e-41 6.5107e-41 1.09173885e-10 -6.0797e-41 0.0045522973
-1.7431e-41 0.002277295 0.010102396 0.0035874506 1.090906e-06 4.085e-41 1.8724e-41 1.3309352e-05
0.0018516999 4.7560593e-06 5.0528e-41 7.3893e-41 8.902037e-15 0.0029398904 -7.699e-42 2.3823516e-06
0.009498119 7.5624e-41 3.0503e-41 5.1471e-41 -5.497e-42 1.4577112e-06 0.0009403055 0.0010566799
1.3211902e-06 0.0016879023 2.1743e-41 4.5639e-41 -1.193e-42 4.9839534e-12 -5.7895e-41 0.00022152222
-1.0989e-41 0.00035820683 0.0016153875 0.00046692046 1.1812978e-07 -5.3183e-41 -7.4786e-41 1.548883e-06
0.00023310566 5.2654946e-07 1.0045e-41 2.4108e-41 -4.3809576e-28 0.00037741772 3.516e-41 2.6866147e-07
0.0012713831 -7.1431e-41 2.0294e-41 8.4133e-41 -7.95e-42 1.622999e-07 0.00011000187 0.0001301001
1.5516218e-07 0.00021082092 -4.9691e-41 5.0569e-41 -2.9134e-41 4.6599617e-13 -5.3064e-41 2.6640317e-05
-6.1562e-41 -8.7835e-41 7.9075e-41 -4.061e-42 2.4946e-41 -7.8662e-41 -1.5945e-41 -5.8431e-41
-2.3196e-41 -1.3715e-41 -6.2386e-41 -7.581e-41 -7.473e-42 -5.8734e-41 5.902e-41 5.6254e-41
3.503e-42 2.14e-43 4.1504e-41 5.4979e-41 -6.6316e-41 -3.6874e-41 -5.0608e-41 4.865e-41
-1.5026e-41 4.6574e-41 -5.3717e-41 -2.015e-41 -1.7787e-41 4.5125e-41 -6.0078e-41 4.667e-41
1.33101e-40 -5.2776e-41 5.2104e-41 5.9388e-41 3.9556e-41 7.477e-42 -6.1357e-41 2.8874e-41
2.9717e-41 -7.4255e-41 6.6828e-41 2.0309e-41 -5.8279e-41 -1.385e-40 7.1622e-41 -8.069e-42
4.8664e-41 -4.6782e-41 -5.8384e-41 2.20696e-40 2.1972e-41 1.76557e-40 3.3142e-41 1.8e-43
4.239e-42 1.05529e-40 -2.8277e-41 -9.418e-41 6.7981e-41 -5.504e-42 -2.755e-42 -5.2804e-41
7.3003e-41 0.00013402977 0.0006183004 0.00017170732 4.160533e-08 6.167e-41 1.9733e-41 5.541029e-07
8.313395e-05 1.9713632e-07 -2.5305e-41 9.5616e-41 -4.3355365e-24 0.0001355094 4.3554e-41 9.747448e-08
0.00044659572 -9.9306e-41 -8.3907e-41 7.893e-41 -3.1269e-41 5.831085e-08 3.9591927e-05 4.6442576e-05
5.3021918e-08 7.4417614e-05 -2.2358e-41 4.9825e-41 6.06e-41 1.7373672e-13 3.4573e-41 9.503549e-06

mlp.9.bias f4 [64]
00000000: ad42 0000 2772 0000 270f f73b 460a bf39
00000010: 26f4 2f38 d1b6 0000 fc01 0000 16e0 6537
00000020: b184 dd35 3265 b23b 21d7 0f33 8d7e 0080
00000030: 9a2a 0000 cf25 0000 5cd2 f930 531a 8e3b
00000040: 5a95 0080 aaa4 bb3a d837 0080 adb7 0000
00000050: 996c 0000 fd21 f93a b42e 0000 00af e932
00000060: 5774 fb34 aa52 0080 6db0 0000 6902 a830
00000070: 5ac0 0080 9091 0080 03b8 0080 dea0 0939
00000080: 4f4e 02ae ffc4 0000 c4c6 6e3a 8079 9835
00000090: d165 703b bc79 003c e63b 0000 1c62 39a2
000000a0: 105f 0080 8e92 63a4 171f 85a7 e5d1 0100
000000b0: bd3d 0000 ed0d 0080 4774 0080 a0ab 0000
000000c0: a549 0000 c446 5c34 a388 0080 5718 3a3a
000000d0: ba35 8e3b 5f5c 0000 62b8 113a 578e 0000
000000e0: b791 4e3b f989 273b 186d 0b80 2d71 ae9f
000000f0: 7d24 0000 09a2 0080 8326 99ad b688 613b
2.3919e-41 4.095e-41 0.007539648 0.00036438013 4.1950632e-05 6.5582e-41 7.12e-43 1.3701638e-05
1.6504401e-06 0.0054441923 3.349044e-08 -4.5398e-41 1.5283e-41 1.3563e-41 1.8176922e-09 0.004336634
-5.3577e-41 0.0014316041 -2.0033e-41 6.589e-41 3.8957e-41 0.0019007322 1.6754e-41 2.720435e-08
4.6837042e-07 -2.9654e-41 6.329e-41 1.2224294e-09 -6.9003e-41 -5.2218e-41 -6.6011e-41 0.00013125266
-2.962813e-11 7.0669e-41 0.0009108598 1.1360244e-06 0.003668178 0.007841524 2.1488e-41 -2.5124114e-18
-3.4102e-41 -4.9346915e-17 -3.6948623e-15 1.67131e-40 2.2148e-41 -4.996e-42 -4.1712e-41 6.1567e-41
2.6419e-41 2.0514841e-07 -4.9016e-41 0.0007098964 0.004339901 3.3137e-41 0.0005558786 5.1062e-41
0.0031519958 0.0025564416 -1.049326e-39 -7.38791e-20 1.309e-41 -5.8127e-41 -1.7411189e-11 0.0034413761

mlp.12.weight f4 [128, 64]
00000000: 0069 0080 c27f 0000 1677 0480 b70f 0080
00000010: 7d24 0000 7fd8 0000 7603 0000 4d0e 0000
00000020: 084e 0000 fac3 0280 5319 0080 ee68 0000
00000030: c4bd 0000 3c6e 0000 c29c 0080 21f6 0280
00000040: 4258 0000 20fa 0080 e2bf 0080 beb0 0000
00000050: e1a2 0080 3fec 0180 679d 0000 796e 0000
00000060: ac8e 0000 c36d 0100 7d68 0000 b824 0100
00000070: f125 0080 c21f 0000 d0ba 0080 bc74 0080
00000080: 7561 0080 92b8 0000 d925 0100 4d8d 0080
00000090: 06d2 0300 a094 0380 6228 0080 c3f4 0000
000000a0: 4ff0 0000 3f49 0000 eb75 0280 1b2b 0080
000000b0: ef4f 0180 4300 0000 7da8 0080 6663 0000
000000c0: a3b9 0080 27b8 0000 ae04 0080 4145 0000
000000d0: 58f5 0500 a620 0080 dbeb 0000 14be 0000
000000e0: 8e9f 0180 96c2 0080 0eb4 0000 b13a 0080
000000f0: 1a29 0100 c451 0000 a35c 0000 7c3a 0380
00000100: 0784 0080 1088 0080 8f9d ecad c082 68a9
00000110: 7575 ffa1 2abc 0000 17d7 0000 3bb9 8fa5
00000120: d9d2 18a6 5367 37ad c9c5 7ba1 100e 0080
00000130: 6b82 0080 893d 0000 984b a598 1c81 ecac
00000140: 14a7 0080 3869 d7ab 71de 0180 deef 0000
00000150: ad5c 0100 0989 17ac 234e 0080 9758 8494
00000160: c8e7 e7a1 bf9d 0180 84cf 0000 7941 7e9b
00000170: 6441 0000 5760 0080 bb34 0080 4195 39a6
00000180: 42e9 a997 f760 0180 f239 40a8 e0c3 dda5
00000190: 5256 a5ab 684c 02ae a7ef 0000 761e 0080
000001a0: e058 0000 704c 0000 0fd5 0285 5a87 0080
000001b0: 3a7c 0000 b7f7 0000 8548 0080 e40b 0080
000001c0: c4f0 ef02 86ed ed95 ea03 0100 7b74 9eab
000001d0: 7c60 d5ab cc64 0000 300b aca7 d770 0080
000001e0: 6d11 0fac 6527 2bac 066c 0000 149b 0000
000001f0: ab98 0000 2452 0180 c9e6 4197 2d1d 08ac
00000200: f584 0080 66aa 0080 ab44 0080 77b7 0080
00000210: 9ab3 0080 581a 0180 3801 0000 3148 0080
00000220: a039 0180 d719 0000 c782 0080 9b5a 0000
00000230: e9ba 0000 16bb 0000 af43 0000 8296 0080
00000240: 7a37 0080 66fb 0000 4110 0000 133b 0080
00000250: c258 0080 3173 0080 34dc 0000 e574 0080
00000260: ae62 0000 7e27 0080 9cd1 0080 706d 0080
00000270: 5560 0080 2341 0080 450a 0180 9d2c 0000
00000280: dba9 0000 5c29 0080 5e3a 0080 b6d1 0000
00000290: b257 0080 c409 0080 85f2 0000 1763 0080
000002a0: af10 0000 7617 0000 2070 0000 336c 0080
000002b0: 46b3 0100 2302 0000 5b42 0080 1933 0080
000002c0: ca8e 0080 44ec 0080 89d0 0080 73a8 0000
000002d0: 0ca7 0000 c39e 0000 929a 0000 c162 0000
000002e0: 16c8 0000 9b27 0000 ebf9 0180 506d 0000
000002f0: a1b7 0000 c747 0200 7a39 0080 4013 0080
00000300: eb7d 0080 9144 0080 5928 0000 fc3c 0080
00000310: a515 0000 3131 0000 506a 0080 082b 0000
00000320: f869 0080 550d 0080 6024 0000 832b 0080
00000330: e95f 0000 6a69 0080 8ead 0000 b579 0080
00000340: 7ca0 0000 cc5e 0000 7d8c 0100 be92 0080
00000350: 53af 0080 2424 0080 39ed 0000 b7a6 0080
00000360: 4c39 0000 3f1d 0080 3827 0000 b18b 0080
00000370: c09b 0080 a217 0080 fa28 0080 a423 0080
00000380: 8daf 0080 48cf 0080 c52b 0080 fe74 0000
00000390: 1f43 0080 a377 0080 0e50 0080 88b1 0000
000003a0: 1f84 0000 9fb0 0000 0268 0080 c292 0000
000003b0: cd5a 0080 9a89 0080 40ba 0080 7689 0080
000003c0: 8425 0080 fbc2 0080 9b76 0000 b3ac 0080
000003d0: 37a7 0080 3a0c 0080 9549 0080 4dc2 0000
000003e0: eaa6 0000 535e 0000 34bc 0080 01c9 0080
000003f0: 68b3 0080 ffae 0000 aea2 0080 578e 0000
-3.7667e-41 4.5831e-41 -4.10062e-40 -5.637e-42 1.309e-41 7.7664e-41 1.242e-42 5.13e-42
2.7992e-41 -2.53974e-40 -9.085e-42 3.7642e-41 6.8075e-41 3.9545e-41 -5.6234e-41 -2.71965e-40
3.1661e-41 -8.9728e-41 -6.8835e-41 6.3403e-41 -5.843e-41 -1.76585e-40 5.6465e-41 3.963e-41
5.1181e-41 1.3121e-40 3.7483e-41 1.05008e-40 -1.3611e-41 1.1393e-41 -6.7016e-41 -4.1876e-41
-3.4961e-41 6.6211e-41 1.05413e-40 -5.0689e-41 3.50849e-40 -3.28823e-40 -1.4487e-41 8.7804e-41
8.6206e-41 2.6276e-41 -2.25972e-40 -1.5463e-41 -1.2051e-40 9.4e-44 -6.0442e-41 3.5657e-41
-6.6594e-41 6.6061e-41 -1.679e-42 2.4844e-41 5.4719e-40 -1.1712e-41 8.4609e-41 6.8187e-41
-1.49073e-40 -6.9804e-41 6.4591e-41 -2.1055e-41 1.0658e-40 2.9332e-41 3.3232e-41 -2.96487e-40
-4.7362e-41 -4.881e-41 -2.6900064e-11 -5.1627756e-14 -1.7310563e-18 6.75e-41 7.716e-41 -2.4932063e-16
-5.3021346e-16 -1.0425288e-11 -8.5303874e-19 -5.045e-42 -4.6785e-41 2.2075e-41 -4.272783e-24 -6.7218574e-12
-5.9936e-41 -1.5305873e-12 -1.71632e-40 8.6048e-41 1.25081e-40 -2.153446e-12 -2.803e-41 -1.3363536e-26
-1.5714521e-18 -1.48424e-40 7.4443e-41 -2.1031543e-22 2.3458e-41 -3.456e-41 -1.8916e-41 -6.4387045e-16
-1.0980252e-24 -1.2662e-40 -1.0670706e-14 -3.847012e-16 -1.1747914e-12 -2.962644e-11 8.5971e-41 -1.0927e-41
3.1882e-41 2.742e-41 -6.151703e-36 -4.8555e-41 4.4564e-41 8.8863e-41 -2.6015e-41 -4.266e-42
3.5256086e-37 -9.6098284e-26 9.324e-41 -1.1258905e-12 -1.516134e-12 3.6159e-41 -4.775172e-15 -4.048e-41
-2.0331195e-12 -2.432243e-12 3.8752e-41 5.5632e-41 5.4767e-41 -1.21302e-40 -6.2652955e-25 -1.9342958e-12
-4.7696e-41 -6.1127e-41 -2.4633e-41 -6.5815e-41 -6.4429e-41 -1.01286e-40 4.37e-43 -2.5897e-41
-1.12507e-40 9.27e-42 -4.6914e-41 3.2503e-41 6.7051e-41 6.7114e-41 2.428e-41 -5.3992e-41
-1.9901e-41 9.0185e-41 5.831e-42 -2.1192e-41 -3.184e-41 -4.1323e-41 7.8994e-41 -4.1934e-41
3.54e-41 -1.4167e-41 -7.5194e-41 -3.9259e-41 -3.4557e-41 -2.3367e-41 -9.552e-41 1.6004e-41
6.0933e-41 -1.4837e-41 -2.0938e-41 7.523e-41 -3.1459e-41 -3.503e-42 8.7e-41 -3.5547e-41
5.985e-42 8.416e-42 4.0223e-41 -3.8815e-41 1.56147e-40 7.67e-43 -2.3804e-41 -1.833e-41
-5.1223e-41 -8.4756e-41 -7.4808e-41 6.0428e-41 5.9925e-41 5.6953e-41 5.545e-41 3.5426e-41
7.1777e-41 1.4208e-41 -1.81489e-40 3.9214e-41 6.5874e-41 2.0942e-40 -2.0619e-41 -6.906e-42
-4.5171e-41 -2.4597e-41 1.4474e-41 -2.1877e-41 7.765e-42 1.7647e-41 -3.8138e-41 1.5437e-41
-3.8014e-41 -4.783e-42 1.3049e-41 -1.5609e-41 3.4406e-41 -3.7815e-41 6.226e-41 -4.366e-41
5.7571e-41 3.4007e-41 1.42233e-40 -5.2641e-41 -6.2894e-41 -1.2965e-41 8.51e-41 -5.9806e-41
2.0554e-41 -1.0492e-41 1.4069e-41 -5.0112e-41 -5.5873e-41 -8.478e-42 -1.47e-41 -1.2785e-41
-6.2976e-41 -7.4359e-41 -1.5702e-41 4.1969e-41 -2.4079e-41 -4.2918e-41 -2.8718e-41 6.3686e-41
4.7396e-41 6.336e-41 -3.7311e-41 5.2647e-41 -3.2573e-41 -4.9362e-41 -6.6814e-41 -4.9312e-41
-1.3458e-41 -6.9946e-41 4.2548e-41 -6.1953e-41 -5.9985e-41 -4.386e-42 -2.6396e-41 6.9702e-41
5.9877e-41 3.3837e-41 -6.7515e-41 -7.2107e-41 -6.4359e-41 6.2777e-41 -5.8358e-41 5.1062e-41

mlp.12.bias f4 [128]
00000000: 1eba 0080 bc9b 0380 e3b5 0080 181d 0000
00000010: 89e2 3639 b14c 0180 043b b63b 4352 e93b
00000020: c56c 0000 bf8b f03b cb2f 6c80 ad9c 0080
00000030: 159d 0080 2ecd d13b bfe7 68a6 2595 2c3c
00000040: 281a 0180 02bd 5091 ad04 0080 40c7 0080
00000050: 5aff 4629 0f59 0000 02b2 0000 5c26 b6a2
00000060: 2c32 0000 e0af 0a3c 134f 548d 9811 0080
00000070: 135e a631 68e9 0b39 7bdf 6e39 3406 0000
00000080: c01f 0080 8d44 873b 0901 0080 d695 df33
00000090: 9096 0080 4268 6e3b f060 0080 21a9 0080
000000a0: b41c 0000 0dc2 0080 0914 1b30 5ea8 0080
000000b0: 62da 4e39 32e0 113b f57d 1c31 df5a 879c
000000c0: 49c5 0000 d360 0000 6702 ab93 27f7 0000
000000d0: 0f94 0000 a931 0480 faed 243c 64be be36
000000e0: ec9a 0080 9880 0080 4082 d53b 5b7b 0080
000000f0: 675b 0000 04f0 7733 0562 0000 e9fb 4e35
00000100: 4b2f 1f3a 261d 0080 b0ac 0d3c 9652 0080
00000110: 5b8c 0000 25b1 fb3a 18ef 513c fa12 0080
00000120: 8019 0000 07cc 0000 4a64 0080 6001 0000
00000130: 6686 0080 d253 1639 56ae 0000 5e8d 1d80
00000140: 92d3 473b 6154 0080 0d80 0000 aa5e 0100
00000150: eb82 0080 701b 0000 8ba8 719b a4f1 9539
00000160: 000f 0100 1c45 953b 8a55 2b3c 70df df9a
00000170: fcab 0080 819b 0080 2e17 0000 f00f 0080
00000180: 822e b6a2 bc9a 0000 0739 0000 3f10 0100
00000190: 4107 0100 b945 f7a4 ce74 0180 a8e4 0a38
000001a0: ee2a 0080 00a2 0080 ee92 0080 77a3 0000
000001b0: ca53 0080 db12 213b 9c5e 74a1 e860 1528
000001c0: 931c 0000 75aa 0080 894f 0000 c2be c23a
000001d0: bba1 0200 2f80 0080 3f5f 0a37 a82d 1f3c
000001e0: 1e59 0180 42a9 0080 fc7a 0080 2e67 063c
000001f0: 226f 0000 137a 0080 c571 1a84 cb43 0080
-6.6766e-41 -3.31373e-40 -6.5249e-41 1.0437e-41 0.00017441263 -1.19347e-40 0.0055612344 0.007120402
3.9019e-41 0.007340878 -9.935378e-39 -5.6205e-41 -5.635e-41 0.006402633 -8.0805244e-16 0.010533606
-1.01219e-40 -1.6466549e-28 -1.677e-42 -7.1477e-41 4.4186314e-14 3.1948e-41 6.3857e-41 -4.9371813e-18
1.7998e-41 0.008464783 -6.5422726e-31 -6.311e-42 4.841931e-09 0.00013343024 0.00022780702 2.225e-42
-1.139e-41 0.004128045 -3.71e-43 1.0411502e-07 -5.4012e-41 0.003637806 -3.4775e-41 -6.0672e-41
1.0297e-41 -6.9612e-41 5.6417143e-10 -6.0399e-41 0.00019727045 0.0022258875 2.2772586e-09 -8.95704e-22
7.0773e-41 3.4734e-41 -4.3168838e-27 8.8662e-41 5.3113e-41 -3.85157e-40 0.010066504 5.6846056e-06
-5.5575e-41 -4.6131e-41 0.006515771 -4.4252e-41 3.2789e-41 5.7727462e-08 3.5163e-41 7.710756e-07
0.0006072416 -1.0456e-41 0.008647129 -2.9626e-41 5.035e-41 0.0019202573 0.012813352 -6.808e-42
9.148e-42 7.3191e-41 -3.5977e-41 4.93e-43 -4.8213e-41 0.0001433634 6.254e-41 -2.713942e-39
0.0030491096 -3.027e-41 4.5936e-41 1.25795e-40 -4.6965e-41 9.843e-42 -1.9989512e-22 0.0002859953
9.7216e-41 0.0045553576 0.010457406 -9.259162e-23 -6.1696e-41 -5.5784e-41 8.315e-42 -5.717e-42
-4.938044e-18 5.5508e-41 2.0458e-41 9.7663e-41 9.4438e-41 -1.0723729e-16 -1.33737e-40 3.3114717e-05
-1.54e-41 -5.8115e-41 -5.2708e-41 5.864e-41 -3.0058e-41 0.002457789 -8.279563e-19 8.292175e-15
1.025e-41 -6.1148e-41 2.8532e-41 0.0014857876 2.41689e-40 -4.5984e-41 8.247617e-06 0.009715475
-1.23805e-40 -6.0718e-41 -4.4118e-41 0.008203311 3.9867e-41 -4.3792e-41 -1.8154853e-36 -2.432e-41

mlp.15.weight f4 [64, 128]
00000000: ee4e 0000 62fe b427 284e 0200 b51b 0000
00000010: 2f28 613a 6c15 0100 8f02 bf3c cff7 ef3c
00000020: 2deb 0080 0a35 f73c f732 2780 ec6f 0080
00000030: 4170 0000 39d6 d93c 1edf 3e29 b5d5 2c3d
00000040: 2ea6 0080 2874 461e adb7 0080 13cc 0080
00000050: 720d 9d2a becd 0000 a10b 0080 b7c6 4723
00000060: 6eed 0000 913f 0d3d 722b 0c8d 9287 0000
00000070: e210 1633 e87c 303a c39b 933a 9f60 0000
00000080: c809 0280 c32b 913c b464 5180 9294 3735
00000090: 7e63 0000 f2fb 7d3c 80a3 0080 7f1b 0100
000000a0: 9329 0080 e769 0080 9d0b 9531 48ab 0080
000000b0: 7522 803a 5e81 213c fc3e 9532 c315 121d
000000c0: 2e61 0000 b64c 0080 77d6 d312 db92 0000
000000d0: 0d12 0000 b5da 0a00 dd2b 263d b8fc fe37
000000e0: 4c63 0780 bf2d 0080 d14f dd3c 7c2b 0080
000000f0: 459e 0080 2677 c434 7aef 6a18 e8af 8f36
00000100: bf84 3c3b 2e97 0000 61dc 0f3d 4c41 0080
00000110: c95b 0080 32b5 0c3c 9ea8 503d e00a 0180
00000120: 2b9d 0080 e924 0080 6176 0080 0878 0080
00000130: 7bb9 0080 70eb 3c3a b467 a5a2 aa5f 1880
00000140: 34a9 5a3c 6101 0080 921c 6d84 3103 0000
00000150: 0124 0180 d938 0000 86c2 691b 6c21 b43a
00000160: da38 0780 4039 9f3c 63ca 2c3d 105e 8b23
00000170: e8ac 0000 7b17 4a19 a91d 0080 8729 0080
00000180: 82f7 152a 0254 0080 670b 0880 767b 0180
00000190: 578f 0080 21eb 3f25 b963 0580 f1bb 3539
000001a0: 0704 0200 c7bd 0080 a3cf 0000 fe58 0080
000001b0: 3290 0080 0631 313c 1465 7d21 9b67 8f29
000001c0: e032 0080 a021 8506 a40f 0100 9bf7 da3b
000001d0: 44f7 0180 16ab 0000 c835 4538 4c9d 203d
000001e0: b341 1100 611b 0200 0e44 b907 dd2f 093d
000001f0: 5c14 0080 ef32 0400 a9bb 4580 fb33 0000
00000200: 49bc 0000 d58f 0080 e07e 0000 0665 0000
00000210: 29b7 0080 baab 0180 7e07 0180 51c6 0080
00000220: 2bb9 0000 aca5 0080 c06d 0080 621f 0080
00000230: 1068 0000 59b1 0080 ce29 0080 89ab 0080
00000240: d94f 0080 e92f 0080 c692 0000 1070 0080
00000250: aec7 0080 2634 0100 981f 0080 edbf 0000
00000260: 8668 0000 ebf2 0080 fd1a 0000 2a01 0000
00000270: 4e9b 0080 822c 0000 dfbf 0080 5a9a 0080
00000280: 29d3 0000 839a 0080 907e 0000 2b95 0080
00000290: 5d9d 0080 5a96 0080 5dc0 0080 f1af 0080
000002a0: f3ba 0080 aafa 0000 0420 0080 b563 0000
000002b0: be9b 0000 c5bb 0080 b285 0080 9e07 0080
000002c0: e582 0080 f7a0 0100 c66d 0000 9557 0080
000002d0: 9b7e 0000 8bfb 0000 0da5 0080 2d7c 0080
000002e0: e588 0080 f237 0080 dcb9 0080 09c3 0000
000002f0: 161c 0100 3d2a 0080 a73b 0000 83b1 0080
00000300: 3721 0080 818b 0000 8d18 0180 c69e 0080
00000310: 7134 0000 ba7e 0080 28ed 0080 8251 0300
00000320: fbd8 0080 42d2 0000 e37b 0000 6d8c 0000
00000330: aba2 0080 1264 0080 7725 0000 b036 0000
00000340: df55 0080 bb9c 0100 b868 0000 1381 0080
00000350: d891 0080 0ea5 0000 aec1 0080 6123 0080
00000360: 4e11 0000 e694 0080 f8ac 0080 0249 0000
00000370: 8fb6 0000 5cbe 0080 f691 0000 eb10 0080
00000380: 48c4 0080 0a2c 0080 a18c 0080 c514 0000
00000390: 13e4 0000 8157 0000 c6e1 0180 9c0d 0080
000003a0: 99b9 0080 c0a7 0080 4230 0100 c17f 0000
000003b0: 999e 0000 5f43 0080 c6c1 0080 8f3a 0080
000003c0: b555 0180 3498 0080 e986 0080 7c31 0080
000003d0: f81e 0080 3d7a 0180 dd77 0080 e6aa 0180
000003e0: ae54 0000 e94f 0080 365f 0080 d73d 0180
000003f0: 7f42 0180 044f 0080 8a64 0000 9fb7 0000
2.8315e-41 5.023584e-15 2.11708e-40 9.94e-42 0.00085890567 9.952e-41 0.02331665 0.029292969
-8.4365e-41 0.030176658 -3.599867e-39 -4.015e-41 4.0269e-41 0.026591407 4.2381998e-14 0.042195994
-5.9614e-41 1.0506053e-20 -6.589e-41 -7.3208e-41 2.7898132e-13 7.3806e-41 -4.172e-42 1.0829891e-17
8.5174e-41 0.03448445 -4.3193126e-31 4.8633e-41 3.493995e-08 0.00067324797 0.001126163 3.4661e-41
-1.8718e-40 0.017721063 -7.4748e-39 6.838901e-07 3.5691e-41 0.015501963 -5.8653e-41 1.01699e-40
-1.4914e-41 -3.799e-41 4.337791e-09 -6.1444e-41 0.0009775894 0.009857504 1.7374525e-08 1.933419e-21
3.4862e-41 -2.7519e-41 1.3368842e-27 5.2682e-41 6.475e-42 9.96812e-40 0.040569175 3.039684e-05
-6.7847e-40 -1.641e-41 0.027015598 -1.5599e-41 -5.6776e-41 3.6594537e-07 3.0364696e-24 4.2822103e-06
0.0028765646 5.4233e-41 0.03512228 -2.3424e-41 -3.2926e-41 0.008588122 0.050942056 -9.5737e-41
-5.6381e-41 -1.3241e-41 -4.2466e-41 -4.3059e-41 -6.6538e-41 0.0007206714 -4.483314e-18 -2.23837e-39
0.013346005 -4.95e-43 -2.7872335e-36 1.145e-42 -1.04751e-40 2.0393e-41 1.9336162e-22 0.0013742871
-6.63243e-40 0.019436479 0.0421852 1.5110247e-17 6.2027e-41 1.0447897e-23 -1.064e-41 -1.4897e-41
1.331973e-13 -3.0136e-41 -7.38774e-40 -1.36125e-40 -5.142e-41 1.6646274e-16 -4.94951e-40 0.00017331519
1.85116e-40 -6.8079e-41 7.4486e-41 -3.1924e-41 -5.1728e-41 0.010814911 8.585351e-19 6.3684484e-14
-1.825e-41 5.0078447e-35 9.7446e-41 0.006682349 -1.80538e-40 6.1374e-41 4.7018548e-05 0.03921251
1.584772e-39 1.93493e-40 2.7875705e-34 0.03349291 -7.304e-42 3.85614e-40 -6.403969e-39 1.8647e-41
6.7544e-41 -5.1597e-41 4.5514e-41 3.624e-41 -6.5705e-41 -1.5344e-40 -9.4523e-41 -7.1143e-41
6.6426e-41 -5.9432e-41 -3.9371e-41 -1.1258e-41 3.733e-41 -6.362e-41 -1.4997e-41 -6.1535e-41
-2.8644e-41 -1.7187e-41 5.2652e-41 -4.02e-41 -7.1632e-41 1.10543e-40 -1.1334e-41 6.885e-41
3.7496e-41 -8.7143e-41 9.682e-42 4.18e-43 -5.5713e-41 1.5966e-41 -6.883e-41 -5.5371e-41
7.575e-41 -5.5428e-41 4.5402e-41 -5.3511e-41 -5.6451e-41 -5.3936e-41 -6.9007e-41 -6.3116e-41
-6.7065e-41 8.9921e-41 -1.1485e-41 3.5768e-41 5.587e-41 -6.7359e-41 -4.7961e-41 -2.733e-42
-4.6956e-41 1.49579e-40 3.9379e-41 -3.1419e-41 4.5417e-41 9.0237e-41 -5.9209e-41 -4.4546e-41
-4.9109e-41 -2.007e-41 -6.6674e-41 6.9965e-41 1.01911e-40 -1.5152e-41 2.1399e-41 -6.3679e-41
-1.1915e-41 5.0045e-41 -1.00643e-40 -5.6957e-41 1.8812e-41 -4.5461e-41 -8.5076e-41 3.04746e-40
-7.7838e-41 7.5426e-41 4.4442e-41 5.0375e-41 -5.8354e-41 -3.5898e-41 1.344e-41 1.9618e-41
-3.0805e-41 1.4806e-40 3.7566e-41 -4.6303e-41 -5.2319e-41 5.921e-41 -6.9479e-41 -1.2692e-41
6.208e-42 -5.3415e-41 -6.205e-41 2.619e-41 6.549e-41 -6.8288e-41 5.2361e-41 -6.069e-42
-7.0412e-41 -1.5798e-41 -5.0448e-41 7.451e-42 8.1818e-41 3.139e-41 -1.72828e-40 -4.882e-42
-6.658e-41 -6.0177e-41 1.09147e-40 4.583e-41 5.6894e-41 -2.4168e-41 -6.9513e-41 -2.1007e-41
-1.22581e-40 -5.46e-41 -4.8397e-41 -1.7752e-41 -1.111e-41 -1.35686e-40 -4.2999e-41 -1.53142e-40
3.0377e-41 -2.8666e-41 -3.4155e-41 -1.1402e-40 -1.1569e-40 -2.8345e-41 3.6067e-41 6.5871e-41

mlp.15.bias f4 [64]
00000000: 9602 9c3c cb6a 0080 aa36 463c 6ab1 263a
00000010: 01c8 0080 f84d 403c 306b 0000 0645 4389
00000020: 05a2 0080 301c 0000 94d2 73a8 db0f d2aa
00000030: 8248 2637 0d95 0000 a43a 0080 e53a c43c
00000040: b023 0080 1a55 ef3b 4388 0080 3c84 0000
00000050: 7f9d 0080 5564 3d00 5982 0080 6df1 aba5
00000060: d6d1 00a9 f7c3 0000 14af 0000 949d dc3c
00000070: a82a 0080 a6a2 0000 0046 0080 4e00 0000
00000080: 6e68 0080 617f 0080 6ba0 0080 9ac0 0491
00000090: e115 0080 b809 0080 8432 0000 fbf5 0080
000000a0: 308b 0000 dd34 0080 459f cb3c 0d0e 943c
000000b0: 3f26 0000 3f87 0000 3924 4c3c ba43 0080
000000c0: 0b8d ad33 0f88 093b 6764 0080 274b 0000
000000d0: db52 37a9 4b6b 0080 7ebe a93c 76c1 0900
000000e0: 3a6a 8c91 46ae 1f3b 916c 113d f655 0000
000000f0: e977 0080 dec7 6c38 9a05 0080 2829 863c
0.019044202 -3.831e-41 0.012097994 0.0006358834 -7.1748e-41 0.011737339 3.8452e-41 -2.3504726e-33
-5.8122e-41 1.0112e-41 -1.3534872e-14 -3.7314496e-13 9.911253e-06 5.347e-41 -2.1036e-41 0.023953864
-1.2802e-41 0.007303846 -4.8881e-41 4.7437e-41 -5.6499e-41 5.637958e-39 -4.676e-41 -2.9827368e-16
-2.8603713e-14 7.0299e-41 6.2806e-41 0.026930608 -1.5302e-41 5.8347e-41 -2.5111e-41 1.1e-43
-3.7462e-41 -4.5695e-41 -5.7547e-41 -1.0472314e-28 -7.849e-42 -3.486e-42 1.8122e-41 -8.8241e-41
4.9931e-41 -1.8964e-41 0.024856219 0.018073106 1.372e-41 4.8517e-41 0.012459808 -2.4296e-41
8.081596e-08 0.0020985638 -3.6018e-41 2.696e-41 -4.070603e-14 -3.849e-41 0.020720717 8.9592e-40
-2.2153573e-28 0.002436535 0.035503928 3.0837e-41 -4.3016e-41 5.6452925e-05 -2.01e-42 0.016377047

mlp.18.weight f4 [8, 64]
00000000: 2506 0000 372f 0000 733f 0000 8f57 0080
00000010: 3bdf 0100 0b01 0080 8793 0000 f0ae 0080
00000020: 66f1 0000 04b5 0080 4e0e 0080 ece9 0080
00000030: b6a4 0000 6cd7 0080 421c 0000 e428 0080
00000040: 7df1 0000 509f 0000 4a0f 0000 d636 0080
00000050: f45f 0080 307f 0000 4827 0080 a20d 0100
00000060: 649e 0000 31ca 0000 163d 0000 7d1b 0080
00000070: dfc0 0180 6544 0080 0bb8 0000 ab46 0000
00000080: 2e9e 0000 cd37 0080 e67b 0080 6775 0000
00000090: 844a 0180 2727 0000 7db0 0000 82be 0080
000000a0: 7065 0080 3cb1 0000 fe33 0080 a65f 0000
000000b0: e581 0080 9d20 0280 f03f 0080 9917 0000
000000c0: b3a4 0080 de4b 0080 baa9 0080 600c 0080
000000d0: ed7d 0000 f157 0180 cb32 0080 4795 0000
000000e0: e044 0000 1041 0000 644f 0180 831a 0000
000000f0: d99f 0000 2b03 0080 9142 0000 bc21 0000
00000100: 5fb8 823d 2e37 0080 27f3 583d f792 783b
00000110: e30e 0080 4854 423d f680 0080 269f 6219
00000120: 39d5 0080 df33 0000 968a ca31 3861 a9aa
00000130: b9e7 afb7 0837 dc87 c2a9 0000 b1d4 bd3d
00000140: 760c 0000 339c f83c 5fda e68c 3020 0000
00000150: 652e 0480 7780 5087 670d 0080 4874 22a5
00000160: d995 47a8 527d 0000 775e 0080 8db9 e83d
00000170: aaaf 0080 a881 0000 ca16 80a6 cb90 0000
00000180: 847a 1eb8 5e5f 4613 2d4c 0080 52d2 bf90
00000190: d73a 0000 70b8 0080 d2a1 0080 ef9a 0080
000001a0: 149a 7933 5190 0000 e886 c23d ada9 8b3d
000001b0: fe32 0000 7e32 0080 2014 863d bc95 0080
000001c0: 157e 82b2 bbb8 fa3b 2e9c 0080 f6b6 0000
000001d0: fa81 1f27 2814 5ba4 00a3 cb3d eb36 2300
000001e0: a8b6 6091 fd37 273c d63c 1f3e 746b 0080
000001f0: b162 7f9f c55c 41b8 3535 0000 0560 8c3d
00000200: 1353 21b1 19b4 0000 fe6b a3b0 7744 aeae
00000210: d89e 0000 ffbb 52b0 343a 0080 eaa7 0080
00000220: b312 0080 48d4 0000 5c98 ba2b 5bf9 059f
00000230: 231e 3eac f269 0000 c21b 0000 e68c f9b0
00000240: 48fb 0000 c376 1434 67cc 0000 1a67 0080
00000250: a884 0000 705c 0000 6acc 0180 b525 b21c
00000260: f4d7 161d 85bb 0000 4461 0080 7abd 16b1
00000270: 7d28 0000 f1b7 0080 add1 0180 d35a 4e19
00000280: f668 8833 fe57 0000 5aa5 0080 a7a1 6c84
00000290: 2315 0080 6167 0000 a16c 0100 ef5f 0080
000002a0: 2b06 28a0 f67b d623 6162 ddb0 1f7b a4b0
000002b0: 5b9a 0000 7f24 2907 a5b5 9fb0 06ad 0080
000002c0: 98bd 54ae a830 bfaf f4bf 0000 3941 0000
000002d0: 0767 0c29 1f87 0180 9a3c 35b1 1a91 0180
000002e0: 955e c484 821b 5caf 0bc0 7fb1 d937 0000
000002f0: e386 ec29 b24a c4b5 14c5 0080 ca59 8cb0
00000300: 5bff 9a3c 4999 0180 7942 433c 46ce 173a
00000310: 2b4a 0080 9045 3b3c 41cb 0000 ba84 0000
00000320: d364 0080 89d8 0000 93ec 0000 311d d2ab
00000330: ac54 8536 5742 3e83 a748 0080 ae34 c53c
00000340: 6516 0080 8a23 dd3b a733 0000 d442 0080
00000350: b24d 0300 bb8b c685 5c60 0000 7476 7da6
00000360: cb29 192a 555c 0000 3eba 0000 a8c5 e43c
00000370: 6961 0080 8506 0000 bd86 9ba1 1116 0000
00000380: 7f75 ada7 8bc5 0b02 0b9c 0000 2dd2 4a90
00000390: 57b6 0000 5e28 0000 549e 0000 ff9c 0000
000003a0: a49f 672e e7b7 0080 9583 d13c a5ee 933c
000003b0: b069 0080 c32f 0080 aefe 4f3c 2f90 0000
000003c0: 25e3 13b4 d04a ef3a 602a 0000 b73b 0000
000003d0: 3cb9 e6aa be87 0000 dc40 b13c 9d3b 0080
000003e0: b278 0292 23ff 0d3b e83b 1c3d 8570 0000
000003f0: b7ae 0000 039d 7337 b13b 0080 4a0c 863c
2.204e-42 1.6937e-41 2.2761e-41 -3.141e-41 1.71915e-40 -3.74e-43 5.2923e-41 -6.2756e-41
8.6597e-41 -6.4936e-41 -5.132e-42 -8.3915e-41 5.9087e-41 -7.7279e-41 1.0137e-41 -1.4669e-41
8.663e-41 5.715e-41 5.485e-42 -1.9671e-41 -3.4421e-41 4.5626e-41 -1.4091e-41 9.6726e-41
5.682e-41 7.2533e-41 2.1914e-41 -9.861e-42 -1.61025e-40 -2.4535e-41 6.6022e-41 2.5351e-41
5.6744e-41 -2.0018e-41 -4.4446e-41 4.2116e-41 -1.18567e-40 1.4045e-41 6.3312e-41 -6.8341e-41
-3.6389e-41 6.358e-41 -1.8651e-41 3.4312e-41 -4.6597e-41 -1.9537e-40 -2.2936e-41 8.465e-42
-5.9083e-41 -2.7216e-41 -6.0886e-41 -4.44e-42 4.5174e-41 -1.23383e-40 -1.8221e-41 5.355e-41
2.4708e-41 2.334e-41 -1.20315e-40 9.51e-42 5.7343e-41 -1.136e-42 2.388e-41 1.2102e-41
0.06382822 -1.9795e-41 0.052966263 0.0037929395 -5.34e-42 0.047443658 -4.6262e-41 1.1716066e-23
-7.649e-41 1.8608e-41 5.894729e-09 -3.008789e-13 -2.096953e-05 -3.3134265e-34 6.0898e-41 0.09269083
4.47e-42 0.03034792 -3.5568538e-31 1.1547e-41 -3.83985e-40 -1.5685933e-34 -4.808e-42 -1.4090658e-16
-1.1079212e-14 4.4956e-41 -3.3888e-41 0.11363516 -6.3016e-41 4.6512e-41 -8.887961e-16 5.1942e-41
-3.7784237e-05 2.5038133e-27 -2.7327e-41 -7.5660266e-29 2.1108e-41 -6.6164e-41 -5.805e-41 -5.558e-41
5.8114964e-08 5.1771e-41 0.094983876 0.068194725 1.8293e-41 -1.8113e-41 0.06546807 -5.3715e-41
-1.5191327e-08 0.007651416 -5.6027e-41 6.5634e-41 2.2136143e-15 -4.7505128e-17 0.09943199 3.233943e-39
-1.772677e-28 0.01020622 0.15550551 -3.8547e-41 -5.4079986e-20 -4.6101184e-05 1.9087e-41 0.06854252
-2.3475806e-09 6.4607e-41 -1.1890504e-09 -7.924766e-11 5.6982e-41 -7.6664713e-10 -2.088e-41 -6.0236e-41
-6.708e-42 7.6152e-41 1.3258383e-12 -2.8370108e-20 -2.7017353e-12 3.8006e-41 9.958e-42 -1.815718e-09
9.0143e-41 1.382678e-07 7.3326e-41 -3.6986e-41 4.7588e-41 3.316e-41 -1.65165e-40 1.1788799e-21
1.996398e-21 6.727e-41 -3.4892e-41 -2.1935578e-09 1.4524e-41 -6.5986e-41 -1.67053e-40 1.0668292e-23
6.352086e-08 3.1566e-41 -5.9317e-41 -2.7815894e-36 -7.582e-42 3.7085e-41 1.30804e-40 -3.4414e-41
-1.4232194e-19 2.3254426e-17 -1.6107827e-09 -1.1967564e-09 5.5372e-41 1.2724872e-34 -1.1620399e-09 -6.2069e-41
-4.8371612e-11 -3.477727e-10 6.886e-41 2.3397e-41 3.1175607e-14 -1.40308e-40 -2.6373415e-09 -1.43888e-40
-4.616624e-36 -2.0018656e-10 -3.7216548e-09 2.0034e-41 1.05039045e-13 -1.4624877e-06 -7.0698e-41 -1.021186e-09
0.018920591 -1.46824e-40 0.011917704 0.000579093 -2.6606e-41 0.011430159 7.2914e-41 4.7613e-41
-3.6169e-41 7.7678e-41 8.4867e-41 -1.49295e-12 3.973566e-06 -5.5912136e-37 -2.6063e-41 0.024072971
-8.034e-42 0.0067486214 1.853e-41 -2.3973e-41 3.03378e-40 -1.867116e-35 3.4567e-41 -8.793754e-16
1.360363e-13 3.3122e-41 6.6811e-41 0.027926281 -3.4944e-41 2.339e-42 -1.0538873e-18 7.916e-42
-4.8144535e-15 1.0268799e-37 5.5978e-41 -3.999939e-29 6.5411e-41 1.4481e-41 5.6797e-41 5.632e-41
5.266511e-11 -6.5972e-41 0.025575439 0.01805813 -3.7914e-41 -1.7134e-41 0.012694998 5.1723e-41
-1.3773077e-07 0.0018256549 1.5201e-41 2.1422e-41 -4.098474e-13 4.8695e-41 0.021637373 -2.1385e-41
-4.1169536e-28 0.0021666966 0.03814307 4.0364e-41 6.2676e-41 1.4520486e-05 -2.1413e-41 0.016363282

mlp.18.bias f4 [8]
00000000: 2359 0080 6522 a93d fcf7 9db0 d020 b03c
00000010: e182 e73d 00f9 d82e ae00 0000 3073 2f39
-3.1976e-41 0.08258513 -1.1493735e-09 0.021500021 0.1130426 9.866774e-11 2.44e-43 0.00016732211

mlp.21.weight f4 [1, 8]
00000000: 4283 0500 e921 92be c8f1 edb0 ee22 9abd
00000010: 5e35 c9be 3cbe fd3a 851b 0000 d909 47ba
5.06264e-40 -0.28541496 -1.7312738e-09 -0.075261936 -0.39298528 0.0019359062 9.872e-42 -0.0007592715
