model_saved/2024-01-25-07-49-50/model_2024-01-25-07-51-51_epoch_17000_train_mse_1.98e-02_val_mse_2.00e-02.pt (torch, 88343 bytes, 15 tensors)

mlp.0.weight f4 [8, 8]
000000 ec 44 00 80 c4 08 00 80 f5 76 00 00 6d 83 00 80
       -2.4725e-41 -3.145e-42 4.2674e-41 -4.7147e-41
000010 9f 9f 00 80 ed 62 00 00 c7 b1 00 80 c3 81 00 00
       -5.7261e-41 3.5488e-41 -6.3774e-41 4.655e-41
000020 17 93 6a 3b 51 06 b6 ba a9 4d e5 b7 5f cf aa 36
       0.0035793239 -0.001388738 -2.733509e-05 5.090536e-06
000030 0f 7d 80 36 bc 85 12 36 55 ee a9 b6 28 d4 52 36
       3.829256e-06 2.183354e-06 -5.064338e-06 3.141593e-06
000040 07 e9 95 bc 4b b3 69 3d 37 cf 8e 3c 75 3d 45 39
       -0.018299593 0.057055753 0.017432792 0.00018810279
000050 e4 dc a5 39 82 38 ba 39 9c 33 ab 3a 74 18 d3 b8
       0.0003163583 0.00035518786 0.0013061645 -0.00010065819
000060 e5 61 6e bc 73 60 27 3d 73 fb 4b 3c 62 fb 22 39
       -0.014549707 0.040863466 0.012450087 0.00015543171
000070 dd e3 79 39 0a c4 87 39 1b 60 76 3a 1c 90 70 b8
       0.00023831376 0.00025895267 0.0009398476 -5.735467e-05
000080 10 17 d4 3d c3 ea 55 bd 0b 2b 5a 3b 89 62 12 39
       0.10355961 -0.05222584 0.0033289816 0.00013960352
000090 92 33 da 38 13 b2 96 38 f7 1a 31 38 d5 7e af 38
       0.00010404656 7.185726e-05 4.22252e-05 8.3682746e-05
0000a0 6b 93 9a bd d7 d5 40 3e a4 81 73 3d 3c d3 62 3a
       -0.07547649 0.18831573 0.059449807 0.0008652692
0000b0 c2 db ad 3a eb 31 bd 3a 88 13 98 3b 35 fe 12 b9
       0.0013264345 0.0014434432 0.004641 -0.00014018345
0000c0 65 e6 95 3d 40 01 ad 3e f1 eb 24 3e 87 da fa 3a
       0.07319335 0.33790016 0.1610563 0.0019138613
0000d0 44 79 3d 3b f4 48 49 3b 54 4e 1f 3c af 7b 6c b9
       0.0028911391 0.003071365 0.009723265 -0.0002255279
0000e0 d0 b7 78 bc ca 23 b5 3d 45 a2 e6 3c 3b 74 ca 39
       -0.015180543 0.08844717 0.028153548 0.0003861504
0000f0 51 82 1c 3a 59 50 2b 3a 14 6c 0b 3b 50 5e 64 b8
       0.00059703464 0.0006535105 0.0021274136 -5.444727e-05

mlp.0.bias f4 [8]
000000 ab 7b 00 80 1d 7d 84 b3 74 96 af 38 7e 57 c1 38
       -4.4364e-41 -6.169487e-08 8.372674e-05 9.219254e-05
000010 8e 2d 0f b5 53 8f 0c 3a 33 d9 a3 3a 91 ba 87 39
       -5.333794e-07 0.0005361933 0.0012500643 0.0002588821

mlp.3.weight f4 [16, 8]
000000 ab 40 00 80 5e ff 04 b9 f5 e0 c9 3b 94 2e 91 3b
       -2.3198e-41 -0.00012683633 0.00616085 0.0044306014
000010 87 14 73 bb 28 e2 ad 3c dd 81 2b 3d 22 03 21 3c
       -0.0037091093 0.021226004 0.041871894 0.009827407
000020 e1 3e 00 00 45 10 d3 b5 ea 7e 91 38 9b 83 6f 38
       2.2557e-41 -1.572546e-06 6.9377784e-05 5.7104608e-05
000030 b2 9d 60 b8 f9 cb 8e 39 dd 47 29 3a 34 b5 0d 39
       -5.3552627e-05 0.00027236322 0.0006457547 0.00013514311
000040 79 1e 00 00 42 ed 29 b9 d5 01 e4 3b c3 da a5 3b
       1.0932e-41 -0.00016205481 0.006958226 0.005061479
000050 7b 54 99 bb 5a 09 c5 3c 8c 18 5b 3d 09 3f 38 3c
       -0.0046792603 0.02405231 0.053490207 0.0112454975
000060 2c aa 00 00 56 52 0d 36 fd 61 81 b8 a6 56 40 b8
       6.1046e-41 2.1058563e-06 -6.169451e-05 -4.5857065e-05
000070 b8 94 6f 3a 48 e8 6f b9 46 cc 51 39 44 15 89 b9
       0.0009139287 -0.00022879348 0.00020007891 -0.0002614652
000080 2f 52 00 00 6f 53 00 00 c7 78 00 00 9f 9b 00 80
       2.9482e-41 2.993e-41 4.3327e-41 -5.5826e-41
000090 e9 19 00 80 53 36 00 00 93 a1 00 80 1e 48 00 00
       -9.295e-42 1.9488e-41 -5.7962e-41 2.5871e-41
0000a0 10 77 00 80 33 03 00 80 77 09 00 00 9f ab 00 80
       -4.2712e-41 -1.148e-42 3.395e-42 -6.1566e-41
0000b0 e9 82 00 80 8c 91 00 80 40 0e 00 00 6d 90 00 00
       -4.6962e-41 -5.2212e-41 5.112e-42 5.181e-41
0000c0 d6 26 00 00 d9 cf 7f b6 e4 e5 36 39 d2 c6 94 38
       1.3932e-41 -3.8118944e-06 0.00017442513 7.094223e-05
0000d0 25 4e f9 b8 fe b5 0b 3a 6e e2 d6 3a 80 cc 9b 39
       -0.00011887801 0.0005329548 0.0016394386 0.00029716268
0000e0 a1 68 00 80 a8 92 02 ba 90 ab b0 3c 52 1e 7d 3c
       -3.7534e-41 -0.000498096 0.021566182 0.015449123
0000f0 8a 6a 52 bc 2a 3b 96 3d 6e 63 1c 3e bb 98 09 3d
       -0.012842784 0.073355034 0.15272304 0.03359292
000100 31 19 00 00 58 5c 00 80 52 43 00 80 3d 83 00 00
       9.037e-42 -3.3127e-41 -2.415e-41 4.708e-41
000110 94 21 00 80 79 ac 00 00 d2 89 00 00 90 6a 00 00
       -1.2046e-41 6.1872e-41 4.944e-41 3.8227e-41
000120 d1 08 00 00 1e 49 85 ba a4 37 14 3d ff 7e d4 3c
       3.163e-42 -0.0010168885 0.036185876 0.025939463
000130 82 18 a3 bc 01 54 fb 3d 9e 3c 7d 3e b0 a3 6a 3d
       -0.019909147 0.12271882 0.24730155 0.05728501
000140 26 46 00 80 70 43 00 00 39 4d 00 80 eb 75 00 00
       -2.5165e-41 2.4192e-41 -2.7702e-41 4.2301e-41
000150 86 97 00 00 ca 4d 00 00 1f a7 00 80 e5 73 00 80
       5.4356e-41 2.7905e-41 -5.9952e-41 -4.1575e-41
000160 2b 0b 00 00 d8 a0 99 ba ed 96 1f 3d b8 f9 e4 3c
       4.006e-42 -0.0011720909 0.038962293 0.027951106
000170 8f 25 09 bd 11 6e 07 3e 4f 93 8b 3e 04 6e 77 3d
       -0.033483084 0.13225581 0.27260825 0.060407653
000180 80 8b 00 00 e3 85 00 00 56 7f 00 00 ae 6b 00 80
       5.0043e-41 4.803e-41 4.568e-41 -3.8628e-41
000190 1a 71 00 80 af 28 b0 0c 65 5d 7e b1 bc ad 87 1c
       -4.0573e-41 2.714158e-31 -3.7014953e-09 8.97846e-22
0001a0 83 02 00 80 d2 7d 00 80 a8 86 00 80 6a 93 00 00
       -9.01e-43 -4.5136e-41 -4.8306e-41 5.2882e-41
0001b0 f7 93 00 00 4b 1e 00 80 31 08 00 00 4c 56 00 80
       5.308e-41 -1.0867e-41 2.939e-42 -3.0957e-41
0001c0 1a 82 00 80 77 38 00 80 10 84 00 00 36 93 00 80
       -4.6672e-41 -2.0256e-41 4.7375e-41 -5.281e-41
0001d0 8c 18 00 00 4b 35 00 00 43 13 04 9a f5 63 00 80
       8.806e-42 1.9118e-41 -2.731252e-23 -3.5858e-41
0001e0 3b 28 00 80 63 40 9e b9 72 92 53 3c 49 28 18 3c
       -1.4432e-41 -0.0003018408 0.012913333 0.0092869485
0001f0 82 f0 06 bc 7d 7a 35 3d fa 33 bf 3d 98 f9 a7 3c
       -0.0082360525 0.044306267 0.093360856 0.020504758

mlp.3.bias f4 [16]
000000 78 ba 99 39 cd 7e 73 36 e7 a4 b7 39 e2 ca 4d b6
       0.00029321364 3.628363e-06 0.00035027342 -3.0665474e-06
000010 78 7c 00 80 8b 2c 00 00 d5 f3 0e 37 d2 e2 89 3a
       -4.4651e-41 1.5979e-41 8.520631e-06 0.0010519868
000020 16 38 00 00 dc 85 ef 3a bc 8d 00 00 9e 28 01 3b
       2.012e-41 0.0018274146 5.0845e-41 0.0019708048
000030 c6 9d 00 80 9a aa 00 80 0f af 00 80 ce c8 25 3a
       -5.6598e-41 -6.12e-41 -6.2799e-41 0.0006324173

mlp.6.weight f4 [32, 16]
000000 83 1a 00 80 0e 13 00 00 1b 72 00 80 08 10 00 00
       -9.51e-42 6.836e-42 -4.0933e-41 5.751e-42
000010 cf 23 00 00 0e a9 00 00 7c a1 00 80 8f 64 00 80
       1.2846e-41 6.0645e-41 -5.793e-41 -3.6074e-41
000020 5b 33 00 00 fd 39 00 00 f4 96 00 00 89 4f 00 80
       1.8423e-41 2.0802e-41 5.4152e-41 -2.8532e-41
000030 99 4a 00 00 44 78 00 80 04 b1 00 00 10 41 00 00
       2.676e-41 -4.3143e-41 6.3501e-41 2.334e-41
000040 78 56 f6 3b 9f ee d7 38 15 f7 0f 3c ae 4f a3 b7
       0.007517632 0.000102964455 0.008786936 -1.9468218e-05
000050 49 2a 00 80 e6 94 00 80 aa 60 79 39 03 8c ea 3c
       -1.5169e-41 -5.3415e-41 0.000237825 0.028631216
000060 ae 93 00 80 b2 c3 35 3d c1 6b 00 80 ce 54 44 3d
       -5.2977e-41 0.044376083 -3.8655e-41 0.04793244
000070 00 59 00 80 16 86 00 00 31 74 00 80 c6 9f 82 3c
       -3.1927e-41 4.8101e-41 -4.1682e-41 0.015945327
000080 3e a8 17 3d a3 09 ee 39 3f ce 16 3d 64 88 a0 b9
       0.037025683 0.00045402077 0.036817785 -0.00030619197
000090 f9 3f 00 00 bc 59 00 80 e8 4e 84 3a 06 58 c1 3d
       2.2949e-41 -3.219e-41 0.0010094317 0.09440617
0000a0 b0 84 00 80 dc 5b 44 3e 88 6b 00 80 19 e1 45 3e
       -4.76e-41 0.19175667 -3.8575e-41 0.19324149
0000b0 70 7b 00 00 09 9f 00 00 5a 3e 00 00 fe 50 8d 3d
       4.4281e-41 5.7051e-41 2.2368e-41 0.06900214
0000c0 38 3e 38 3c da 4b 22 39 aa e8 58 3c 5e d1 03 b8
       0.011245303 0.00015477781 0.013239065 -3.1427822e-05
0000d0 aa 0b 00 00 e7 33 00 80 f7 97 ba 39 f3 3e 33 3d
       4.184e-42 -1.8619e-41 0.00035589907 0.043761205
0000e0 51 99 00 80 0d 9e 86 3d 4a 6c 00 00 3a 31 94 3d
       -5.5e-41 0.065731145 3.8847e-41 0.07235952
0000f0 ac 8c 00 00 db 15 00 00 0d 46 00 80 bb 96 c4 3c
       5.0464e-41 7.84e-42 -2.513e-41 0.023997655
000100 3b 2e 23 36 ed c4 10 33 d2 57 3d 36 e4 ab e6 b1
       2.4315802e-06 3.3706716e-08 2.8214313e-06 -6.7134227e-09
000110 f8 76 00 00 4b 8c 00 80 a7 0a a7 33 5a de 02 38
       4.2678e-41 -5.0328e-41 7.778481e-08 3.1201496e-05
000120 4e 2a 00 80 cb 2d f3 36 46 52 00 80 43 43 72 37
       -1.5176e-41 7.2472953e-06 -2.9514e-41 1.4439985e-05
000130 1f 77 00 00 58 3d 00 80 bc 03 00 80 45 24 ab 36
       4.2733e-41 -2.2006e-41 -1.34e-42 5.1004195e-06
000140 04 29 00 80 cc a4 00 80 8c 06 00 80 c2 9d 00 00
       -1.4714e-41 -5.9118e-41 -2.349e-42 5.6593e-41
000150 29 a1 00 80 0a 93 00 80 b3 6b 00 00 01 2a 00 00
       -5.7813e-41 -5.2748e-41 3.8635e-41 1.5068e-41
000160 9f 28 00 00 06 4f 00 80 5c 97 00 00 4a 0e 00 00
       1.4572e-41 -2.8348e-41 5.4298e-41 5.126e-42
000170 b6 0c 00 00 0b 75 00 80 19 ab 00 80 1f 3c 00 00
       4.56e-42 -4.1987e-41 -6.1378e-41 2.1567e-41
000180 48 8f 00 80 30 04 00 80 76 4b 00 00 a4 29 00 00
       -5.14e-41 -1.502e-42 2.707e-41 1.4938e-41
000190 27 59 00 00 97 48 00 80 9f 9b 00 80 27 89 00 80
       3.1982e-41 -2.604e-41 -5.5826e-41 -4.9201e-41
0001a0 fa bb 00 00 23 b0 00 80 28 92 00 00 69 52 00 80
       6.7433e-41 -6.3186e-41 5.2431e-41 -2.9563e-41
0001b0 bd 08 00 00 62 99 00 80 12 2d 00 00 62 3d 00 80
       3.135e-42 -5.5023e-41 1.6168e-41 -2.202e-41
0001c0 a1 40 be 37 49 28 a3 34 d1 b4 d9 37 79 5d 38 b3
       2.267986e-05 3.0390427e-07 2.5952615e-05 -4.292585e-08
0001d0 89 46 00 00 18 34 00 80 b0 06 41 35 f9 8d b3 38
       2.5303e-41 -1.8688e-41 7.1907834e-07 8.5618296e-05
0001e0 ec 32 00 00 1c 66 0f 39 b9 3d 00 00 82 cd 19 39
       1.8267e-41 0.00013675581 2.2142e-41 0.00014667775
0001f0 49 5f 00 80 84 88 00 80 19 22 00 00 86 da 45 38
       -3.4182e-41 -4.8973e-41 1.2232e-41 4.7171976e-05
000200 73 48 dd 3b 3e 45 b2 38 59 3d e6 3b c2 0d cd b7
       0.0067530214 8.500599e-05 0.007026356 -2.444431e-05
000210 4d 8c 00 80 14 33 00 80 26 4c 49 39 64 91 f2 3c
       -5.033e-41 -1.8323e-41 0.00019197221 0.029610343
000220 a9 5d 00 80 b5 5d fe 3c 4b 45 00 80 ca 70 27 3d
       -3.3599e-41 0.031050542 -2.4858e-41 0.04087905
000230 91 11 00 00 34 7c 00 80 4f 51 00 00 a4 c5 51 3c
       6.302e-42 -4.4556e-41 2.9168e-41 0.012803469
000240 21 7c ec 36 9c 2b c9 33 d9 58 05 37 31 46 63 b2
       7.0477986e-06 9.3677244e-08 7.948104e-06 -1.3229099e-08
000250 3f 1c 00 00 89 16 00 80 61 24 6f 34 2a 5a ed 37
       1.0133e-41 -8.084e-42 2.2271844e-07 2.8294588e-05
000260 cb 16 00 00 01 78 34 38 dd 20 00 00 ed 12 3e 38
       8.177e-42 4.3027107e-05 1.1789e-41 4.5317156e-05
000270 67 8c 00 80 fa 9a 00 00 d1 9d 00 00 b8 ea 73 37
       -5.0367e-41 5.5595e-41 5.6614e-41 1.4538578e-05
000280 15 63 00 00 23 a4 00 00 2c 14 00 80 04 3c 00 80
       3.5544e-41 5.8881e-41 -7.236e-42 -2.153e-41
000290 d7 43 00 00 66 15 00 00 37 42 00 00 c9 3c 00 00
       2.4336e-41 7.676e-42 2.3753e-41 2.1806e-41
0002a0 4c a3 00 80 f9 6b 00 00 a8 0a 00 80 e9 1b 00 00
       -5.858e-41 3.8733e-41 -3.823e-42 1.0012e-41
0002b0 b9 08 00 80 fa 74 00 00 5d 19 00 80 16 71 00 80
       -3.129e-42 4.1963e-41 -9.099e-42 -4.0568e-41
0002c0 ee 4d 00 80 1d 0b 00 00 5a 12 00 00 4e 45 00 00
       -2.7956e-41 3.987e-42 6.583e-42 2.4862e-41
0002d0 bb 4d 00 80 24 95 00 80 30 7b 00 80 f1 28 00 80
       -2.7884e-41 -5.3502e-41 -4.4191e-41 -1.4687e-41
0002e0 e5 9e 00 00 ff 5c 00 00 dc 25 00 80 46 9a 00 80
       5.7e-41 3.3361e-41 -1.3581e-41 -5.5343e-41
0002f0 5b 5d 00 00 b0 9b 00 80 52 3d 00 80 30 2d 00 00
       3.349e-41 -5.585e-41 -2.1998e-41 1.621e-41
000300 aa ea 02 20 4e 94 00 00 68 79 00 80 5a 9e 00 00
       1.1089072e-19 5.3202e-41 -4.3552e-41 5.6806e-41
000310 b2 8c 00 00 08 8f 00 00 d3 38 00 80 50 af df a6
       5.0472e-41 5.131e-41 -2.0385e-41 -1.5521252e-15
000320 7d 8c 00 80 97 96 d9 25 a6 28 00 80 ad 44 35 a3
       -5.0398e-41 3.7745543e-16 -1.4582e-41 -9.826572e-18
000330 db 6b 00 80 7b de 00 00 d9 55 00 80 85 7c 90 82
       -3.8691e-41 7.9811e-41 -3.0796e-41 -2.123037e-37
000340 82 88 26 3c 8d 9e 0c 39 ac 9f 37 3c 6c 67 1c b8
       0.010164382 0.00013410505 0.011207502 -3.7289617e-05
000350 c7 5c 00 00 eb 3d 00 00 4e 81 9f 39 e4 08 12 3d
       3.3282e-41 2.2212e-41 0.00030423183 0.03565301
000360 ed 8d 00 00 07 f5 70 3d ab 28 00 80 91 2d 7b 3d
       5.0913e-41 0.058827426 -1.4589e-41 0.061322752
000370 2b 01 00 00 b4 51 00 00 fc b0 00 00 d0 62 a7 3c
       4.19e-43 2.931e-41 6.349e-41 0.02043286
000380 23 1f 00 80 16 2e 00 00 10 7a 00 80 51 68 00 00
       -1.117e-41 1.6533e-41 -4.3788e-41 3.7422e-41
000390 0b 3e 00 80 03 aa 00 80 d6 9b 00 80 ea 48 00 80
       -2.2257e-41 -6.0989e-41 -5.5903e-41 -2.6157e-41
0003a0 36 97 00 00 2d 91 00 80 e1 a4 00 80 84 49 00 00
       5.4244e-41 -5.2079e-41 -5.9147e-41 2.6372e-41
0003b0 9b 38 00 00 a6 55 00 00 bd a3 00 80 b5 88 00 00
       2.0306e-41 3.0725e-41 -5.8738e-41 4.9041e-41
0003c0 74 80 47 36 56 10 28 33 0d d8 61 36 87 be b6 b1
       2.972808e-06 3.9130406e-08 3.365337e-06 -5.3185576e-09
0003d0 6c 4b 00 00 fc 18 00 80 3c 35 c7 33 04 7c 48 37
       2.7056e-41 -8.963e-42 9.276343e-08 1.1949804e-05
0003e0 fc 86 00 80 fc ec 95 37 aa 3f 00 80 f2 ed a1 37
       -4.8423e-41 1.7872539e-05 -2.2838e-41 1.9303498e-05
0003f0 47 42 00 00 fd 38 00 00 c1 0f 00 00 28 68 cd 36
       2.3776e-41 2.0444e-41 5.651e-42 6.1216015e-06

mlp.6.bias f4 [32]
000000 70 44 00 80 bc 5c 85 3a 24 3e 8d 3b a6 eb c9 3a
       -2.4551e-41 0.0010174732 0.0043103863 0.0015405312
000010 96 50 ab 34 3b 7e 00 00 3a 4b 00 80 9e f6 37 36
       3.1909866e-07 4.5283e-41 -2.6986e-41 2.7412675e-06
000020 6e 0d 5b 3a e3 12 60 35 d4 3b 00 00 2c 01 00 80
       0.0008356188 8.3473986e-07 2.1462e-41 -4.2e-43
000030 d2 39 00 00 7b c1 ad 3a 3b a7 00 00 4e ae c8 34
       2.0742e-41 0.0013256514 5.9991e-41 3.7379726e-07
000040 f0 0f 8b 3b 59 82 00 00 33 1d 00 00 54 87 00 00
       0.0042438433 4.676e-41 1.0475e-41 4.8547e-41
000050 59 79 00 80 28 61 e4 34 c4 ec 9e 39 a1 40 d7 39
       -4.3531e-41 4.2539e-07 0.00030312513 0.00041056148
000060 fa c6 bb 33 e5 2c 46 3a 3c 43 00 80 a0 3f 00 00
       8.74406e-08 0.00075597904 -2.4119e-41 2.2824e-41
000070 87 9e 00 80 ee 7c d1 23 7e 5e 00 00 a5 17 7a 38
       -5.6869e-41 2.2712735e-17 3.3897e-41 5.9626665e-05

mlp.9.weight f4 [64, 32]
000000 b4 63 00 00 b9 4d 85 01 1b 0c 7e 8a f8 74 00 80
       3.5767e-41 4.896801e-38 -1.2231932e-32 -4.196e-41
000010 3a 97 00 00 44 05 00 00 0f 47 00 00 55 3f 00 00
       5.425e-41 1.889e-42 2.5491e-41 2.2719e-41
000020 0d 9e 00 80 04 3c 00 80 43 74 00 80 aa b1 00 00
       -5.6698e-41 -2.153e-41 -4.1707e-41 6.3734e-41
000030 f6 45 00 80 fd 48 00 80 d5 b5 00 80 6f 30 00 00
       -2.5097e-41 -2.6183e-41 -6.5229e-41 1.7375e-41
000040 81 af 00 00 d4 0d 00 00 1a 8c 00 80 fe 81 00 00
       6.2959e-41 4.96e-42 -5.0259e-41 4.6632e-41
000050 02 b2 00 80 9b 79 00 00 55 0b 00 00 4c 78 00 80
       -6.3857e-41 4.3624e-41 4.065e-42 -4.3154e-41
000060 a3 26 00 00 15 88 00 00 87 15 00 00 34 b3 00 80
       1.386e-41 4.8817e-41 7.723e-42 -6.4286e-41
000070 da 99 00 80 7f 04 00 80 2e 21 00 00 49 67 00 80
       -5.5192e-41 -1.613e-42 1.1903e-41 -3.7052e-41
000080 6b 9e 00 80 c0 7b a6 af e4 3a c0 b2 f9 34 41 ad
       -5.683e-41 -3.0283154e-10 -2.2378522e-08 -1.0982542e-11
000090 b2 2b 00 00 ce 71 00 80 17 1d 00 00 16 3e 1d 96
       1.5675e-41 -4.0825e-41 1.0435e-41 -1.270195e-25
0000a0 99 c1 4a 1d 5b a1 7d 87 55 96 00 00 5e 96 00 80
       2.6834565e-21 -1.9081023e-34 5.3929e-41 -5.3942e-41
0000b0 fd 70 00 80 73 00 37 29 4c 1e 00 80 a4 61 b8 83
       -4.0533e-41 4.0634552e-14 -1.0868e-41 -1.0836965e-36
0000c0 1c 76 a2 2d df 5e 00 80 53 57 00 80 04 4a 00 00
       1.8469719e-11 -3.4033e-41 -3.1326e-41 2.6552e-41
0000d0 a0 75 00 00 7b 9a 00 80 59 53 47 2b 69 9f 00 17
       4.2196e-41 -5.5417e-41 7.081467e-13 4.1560235e-25
0000e0 f1 30 00 00 4a cb 1f 15 87 a7 00 00 0c 4d 00 00
       1.7557e-41 3.227016e-26 6.0097e-41 2.7639e-41
0000f0 e2 18 00 00 4c 41 00 80 65 9a 00 00 73 57 cc 14
       8.926e-42 -2.3424e-41 5.5386e-41 2.0633229e-26
000100 d1 68 00 80 20 9e 13 3d d4 45 13 3e 8a 5b 5d 3d
       -3.7601e-41 0.03603947 0.14382106 0.054042377
000110 59 60 51 37 37 1c 00 00 e2 40 00 80 05 e9 e7 38
       1.2479803e-05 1.0122e-41 -2.3276e-41 0.000110583416
000120 67 16 ef 3c 1d 44 0f 38 82 0a 00 00 88 38 00 80
       0.029185487 3.4157292e-05 3.77e-42 -2.028e-41
000130 5a 3a 10 a2 c0 d6 3d 3d 2a a5 00 00 b7 0a 71 37
       -1.954653e-18 0.04634738 5.925e-41 1.4367214e-05
000140 1f c0 12 3e 9e 48 00 80 f9 64 00 00 60 9b 00 00
       0.14331101 -2.605e-41 3.6222e-41 5.5738e-41
000150 0a 8c 00 00 1a 2d 8c 37 47 f4 3e 3c 2a cc 76 3c
       5.0237e-41 1.6710303e-05 0.01165492 0.015063325
000160 a7 1c 6c 36 99 81 da 3c 48 3b 00 80 80 0f 00 80
       3.5183418e-06 0.026673125 -2.1266e-41 -5.56e-42
000170 2c 3f 00 80 94 3f 61 26 53 0d 00 00 d5 21 1a 3b
       -2.2662e-41 7.814872e-16 4.78e-42 0.00235187
000180 2c 44 00 00 97 7b c5 3a 2c 47 cf 3b cc 39 12 3b
       2.4455e-41 0.001506674 0.006325623 0.0022312282
000190 75 94 08 35 f6 34 00 80 66 02 00 00 37 04 95 36
       5.087998e-07 -1.8999e-41 8.6e-43 4.4410367e-06
0001a0 97 fc 99 3a a8 b1 b9 35 c6 82 00 00 af ab 00 00
       0.0011748251 1.3835279e-06 4.6913e-41 6.1588e-41
0001b0 81 8c 38 1a 46 ea f5 3a 11 1a 00 80 01 96 1b 35
       3.8163806e-23 0.0018761836 -9.351e-42 5.7960284e-07
0001c0 84 58 c4 3b 11 c7 00 00 df 6a 00 00 a0 4d 00 00
       0.005991997 7.1412e-41 3.8338e-41 2.7847e-41
0001d0 4d 9c 00 80 04 cc 36 35 0b a8 f7 39 0a 3e 1d 3a
       -5.607e-41 6.8097165e-07 0.00047236713 0.0005998319
0001e0 6d 50 18 34 50 c3 8a 3a dc a2 00 00 62 b8 00 80
       1.4185362e-07 0.0010586772 5.8423e-41 -6.6144e-41
0001f0 7a 06 00 80 40 ad 09 24 7a 70 00 00 2b 54 c5 38
       -2.323e-42 2.9853888e-17 4.0349e-41 9.4093695e-05
000200 ed 5a 00 80 f9 dd 0f 39 7c b9 1a 3a da 7f 54 39
       -3.2618e-41 0.00013720234 0.0005902273 0.00020265524
000210 8a f7 43 33 00 55 00 80 9b 27 00 00 63 21 d5 34
       4.562711e-08 -3.0492e-41 1.4208e-41 3.9698634e-07
000220 6c e9 de 38 8a a4 03 34 4a 29 00 00 8b 21 00 00
       0.00010629263 1.2260185e-07 1.4812e-41 1.2033e-41
000230 49 a9 00 80 07 8a 32 39 39 9a 00 80 ae 37 5e 33
       -6.0728e-41 0.00017026822 -5.5325e-41 5.1739043e-08
000240 26 0f 0f 3a 32 0d 00 80 78 85 00 00 6d c0 00 00
       0.00054572744 -4.734e-42 4.788e-41 6.903e-41
000250 ca 30 00 00 4b f6 82 33 d4 4c 32 38 30 f6 62 38
       1.7502e-41 6.098397e-08 4.251006e-05 5.411188e-05
000260 3b 99 5a 32 ca 0f c9 38 00 49 00 00 85 3a 00 80
       1.2724111e-08 9.587368e-05 2.6187e-41 -2.0993e-41
000270 6a 2d 00 80 4d 43 3b 22 a3 4f 00 80 43 da 0d 37
       -1.6291e-41 2.5378855e-18 -2.8568e-41 8.455073e-06
000280 9e 70 00 80 5d 12 00 80 fa 27 00 80 78 12 00 80
       -4.04e-41 -6.588e-42 -1.4341e-41 -6.625e-42
000290 54 58 00 80 0e 16 00 00 48 74 00 80 96 3a 00 80
       -3.1686e-41 7.912e-42 -4.1714e-41 -2.1017e-41
0002a0 35 3f 00 80 47 77 00 00 11 7e 00 80 9a bd 00 80
       -2.2674e-41 4.2789e-41 -4.5224e-41 -6.8016e-41
0002b0 dc 4a 00 80 8c 1f 00 00 f3 7b 00 00 28 31 00 80
       -2.6854e-41 1.1317e-41 4.4465e-41 -1.7634e-41
0002c0 be 72 00 00 1a 0d 00 80 75 1c 00 00 52 27 00 80
       4.1162e-41 -4.7e-42 1.0208e-41 -1.4105e-41
0002d0 17 84 00 80 96 73 00 80 04 69 00 80 76 27 00 00
       -4.7385e-41 -4.1464e-41 -3.7673e-41 1.4156e-41
0002e0 e2 ac 00 00 d2 3c 00 00 5f 2a 00 00 cc 1d 00 80
       6.2019e-41 2.1818e-41 1.52e-41 -1.0689e-41
0002f0 f5 0d 00 80 e5 32 00 00 83 1e 00 00 21 73 00 00
       -5.007e-42 1.8258e-41 1.0946e-41 4.13e-41
000300 a6 92 00 80 f8 63 00 80 5a 58 00 80 0c 75 00 80
       -5.2608e-41 -3.5862e-41 -3.1695e-41 -4.1989e-41
000310 79 3e 00 00 7e 26 00 00 14 a3 00 80 88 18 00 80
       2.2411e-41 1.3808e-41 -5.8501e-41 -8.8e-42
000320 fe 2a 00 00 34 9a 00 00 ec 52 00 00 48 ca 00 80
       1.5423e-41 5.5318e-41 2.9747e-41 -7.2565e-41
000330 58 53 00 00 a5 d8 00 80 95 05 00 00 28 82 00 80
       2.9898e-41 -7.7717e-41 2.002e-42 -4.6691e-41
000340 a0 2b 00 00 96 3c 00 00 c9 53 00 00 ec 46 01 00
       1.565e-41 2.1734e-41 3.0056e-41 1.17277e-40
000350 8a b3 00 00 d6 55 00 80 0e 36 00 00 09 7b 00 00
       6.4406e-41 -3.0792e-41 1.9391e-41 4.4137e-41
000360 68 8b 00 80 8c 0d 00 00 4e 99 00 80 8e 6d 01 80
       -5.001e-41 4.86e-42 -5.4995e-41 -1.31136e-40
000370 4d 36 00 80 90 0a 00 00 bd b3 00 80 e9 3a 00 80
       -1.948e-41 3.789e-42 -6.4478e-41 -2.1133e-41
000380 8f 5c 00 80 77 81 2c 38 ed 14 38 39 cf 93 7d 38
       -3.3204e-41 4.112857e-05 0.00017555403 6.0457558e-05
000390 98 1a 69 32 99 51 00 00 0b a9 00 80 1f 9b fd 33
       1.3568432e-08 2.9272e-41 -6.0641e-41 1.1809447e-07
0003a0 e1 79 04 38 3b 3b 1e 33 39 49 00 80 d3 10 00 00
       3.158476e-05 3.684111e-08 -2.6267e-41 6.035e-42
0003b0 3f 50 42 81 ed 62 54 38 2b 17 00 80 d2 ad 84 32
       -3.5689746e-38 5.063687e-05 -8.311e-42 1.5445867e-08
0003c0 9e 24 2a 39 5d 5b 00 80 49 b8 00 00 06 c2 00 00
       0.00016226104 -3.2775e-41 6.6109e-41 6.9602e-41
0003d0 e4 70 00 80 bf 31 9c 32 0c 88 54 37 90 f2 86 37
       -4.0498e-41 1.8183412e-08 1.2667861e-05 1.6086997e-05
0003e0 2e fe 80 31 05 a2 ee 37 ca 50 00 80 3d a3 00 80
       3.754187e-09 2.8447257e-05 -2.8982e-41 -5.8559e-41
0003f0 19 1b 00 00 b3 39 60 21 01 79 00 00 72 a4 28 36
       9.721e-42 7.5970516e-19 4.3408e-41 2.512967e-06

mlp.9.bias f4 [64]
000000 fc 94 00 80 36 99 00 80 c4 ca eb 3b 6e 9a 96 39
       -5.3446e-41 -5.4962e-41 0.0071958024 0.0002872529
000010 65 bc d5 37 05 1e 00 80 57 02 00 00 1b 10 f9 36
       2.5479307e-05 -1.0769e-41 8.4e-43 7.422653e-06
000020 a7 ac 40 35 21 1c aa 3b 2a 0d 21 32 0e 8b 00 80
       7.1776816e-07 0.0051913415 9.374427e-09 -4.9883e-41
000030 68 04 00 80 ca 84 00 00 bc fd 09 30 cc d9 86 3b
       -1.58e-42 4.7636e-41 5.020089e-10 0.004115319
000040 21 67 00 00 82 b2 a5 3a 50 3a 00 00 02 8b 00 80
       3.6996e-41 0.00126417 2.0919e-41 -4.9867e-41
000050 6c 1b 00 00 81 90 e1 3a 73 48 00 80 2b af e0 31
       9.837e-42 0.0017209203 -2.599e-41 6.5391723e-09
000060 85 93 43 34 5b 21 00 00 ed 6d 00 80 68 bb 31 30
       1.8214457e-07 1.1966e-41 -3.9434e-41 6.4658545e-10
000070 02 8c 00 80 11 9f 00 80 e9 73 00 00 49 13 b5 38
       -5.0225e-41 -5.7062e-41 4.1581e-41 8.634345e-05
000080 09 98 91 2d 78 35 00 00 62 c4 4a 3a d9 5c f1 34
       1.6552109e-11 1.9181e-41 0.0007734952 4.4957304e-07
000090 e7 1b 63 3b 66 c3 f4 3b cf 5a 00 80 3f b6 35 15
       0.0034654082 0.0074695824 -3.2576e-41 3.6696426e-26
0000a0 8e 4d 00 80 d4 45 87 19 04 2e 9a 1e 43 91 00 80
       -2.7821e-41 1.3986876e-23 1.6324416e-20 -5.211e-41
0000b0 51 5d 00 80 41 06 00 00 9c 72 00 80 7e 9b 00 80
       -3.3476e-41 2.243e-42 -4.1114e-41 -5.578e-41
0000c0 05 9c 00 00 54 00 72 33 68 56 00 80 9b 4e 1b 3a
       5.5969e-41 5.6345314e-08 -3.0997e-41 0.0005924494
0000d0 ed 13 87 3b 94 ae 00 80 09 93 e9 39 86 49 00 80
       0.0041222484 -6.2627e-41 0.00044550773 -2.6375e-41
0000e0 e6 dd 41 3b 16 f0 1a 3b 0b 18 00 00 ae 7a 5b 8e
       0.0029581725 0.0023641638 8.625e-42 -2.7052902e-30
0000f0 81 b1 00 80 8d 8a 00 80 f2 55 cc 2a 82 b0 54 3b
       -6.3676e-41 -4.9703e-41 3.6297316e-13 0.003245384

mlp.12.weight f4 [128, 64]
000000 9a 6d 00 80 26 82 00 80 af 11 00 80 0c 20 00 00
       -3.9318e-41 -4.6688e-41 -6.344e-42 1.1496e-41
000010 94 6d 00 00 80 4a 00 00 fc 99 00 80 62 30 00 00
       3.9309e-41 2.6726e-41 -5.5239e-41 1.7356e-41
000020 5e 38 00 80 c6 95 00 80 dd 37 00 00 44 28 00 80
       -2.0221e-41 -5.3729e-41 2.004e-41 -1.4445e-41
000030 f5 49 00 00 a3 1c 00 80 83 39 00 00 08 85 00 80
       2.6531e-41 -1.0273e-41 2.0631e-41 -4.7723e-41
000040 99 54 00 80 b5 0f 00 80 e9 9a 00 80 3f bb 00 00
       -3.0348e-41 -5.635e-42 -5.5571e-41 6.7171e-41
000050 45 45 00 80 e2 a8 00 00 de 65 00 00 be 87 00 00
       -2.4849e-41 6.0584e-41 3.6543e-41 4.8695e-41
000060 c4 80 00 00 d6 11 00 00 1d 08 00 80 ea cd 00 80
       4.6192e-41 6.398e-42 -2.91e-42 -7.3868e-41
000070 56 b2 00 00 bd 52 00 00 ae df 00 00 a8 5e 00 00
       6.3975e-41 2.9681e-41 8.0241e-41 3.3956e-41
000080 2e 48 00 80 8b 6f 00 00 a2 03 00 80 18 93 00 80
       -2.5893e-41 4.0014e-41 -1.303e-42 -5.2767e-41
000090 95 c6 00 00 1b 3d 00 00 46 93 00 00 78 bc 00 80
       7.1238e-41 2.192e-41 5.2832e-41 -6.761e-41
0000a0 d4 a8 00 00 c0 a3 00 80 50 be 00 00 5b 5f 00 00
       6.0564e-41 -5.8742e-41 6.8271e-41 3.4207e-41
0000b0 4a 0f 00 80 81 5d 00 80 fc b4 00 00 b4 8d 00 00
       -5.485e-42 -3.3543e-41 6.4925e-41 5.0834e-41
0000c0 0c 67 00 00 6a a0 00 00 8f 84 00 80 62 8f 00 80
       3.6966e-41 5.7546e-41 -4.7553e-41 -5.1436e-41
0000d0 4a 60 00 00 67 56 00 80 f9 74 00 80 20 9c 00 80
       3.4542e-41 -3.0995e-41 -4.1962e-41 -5.6007e-41
0000e0 b4 45 00 80 6b 70 00 00 d2 7f 00 80 27 43 00 00
       -2.5005e-41 4.0328e-41 -4.5853e-41 2.409e-41
0000f0 1a 92 00 80 b2 1b 00 80 74 ad 00 00 a7 97 00 80
       -5.2411e-41 -9.935e-42 6.2223e-41 -5.4403e-41
000100 c6 a9 00 00 fb 7e 00 80 d7 c7 e8 a1 26 b7 ba 8e
       6.0903e-41 -4.5552e-41 -1.5773829e-18 -4.6028906e-30
000110 72 95 00 80 b9 30 00 00 9f 38 00 80 88 23 33 81
       -5.3611e-41 1.7478e-41 -2.0312e-41 -3.29026e-38
000120 3a 7c 21 8a 5f 18 4b 9e dc 52 00 00 af 94 00 80
       -7.7752324e-33 -1.075177e-20 2.9724e-41 -5.3338e-41
000130 fb 88 00 80 39 82 00 00 68 13 00 00 0a ad fc 9c
       -4.914e-41 4.6715e-41 6.962e-42 -1.6720691e-21
000140 55 46 00 80 b4 c4 8e 99 b1 b1 00 80 21 71 00 00
       -2.523e-41 -1.4761904e-23 -6.3744e-41 4.0583e-41
000150 01 d6 00 80 ab 48 3b 9a 76 79 00 80 3a 8c 00 80
       -7.677e-41 -3.8729394e-23 -4.3572e-41 -5.0304e-41
000160 c8 5e 00 00 5b 93 00 00 d7 67 00 80 42 9a 00 00
       3.4001e-41 5.2861e-41 -3.7251e-41 5.5337e-41
000170 a7 5d 00 00 f4 56 00 80 6b 27 00 00 ca 20 07 80
       3.3596e-41 -3.1193e-41 1.414e-41 -6.54611e-40
000180 4a 4d 00 00 6f d1 00 00 8b aa f2 84 45 89 3c 8a
       2.7726e-41 7.513e-41 -5.7050546e-36 -9.077688e-33
000190 23 79 40 95 6d fd 68 a2 b0 92 00 80 13 82 00 00
       -3.886965e-26 -3.1576025e-18 -5.2622e-41 4.6662e-41
0001a0 1a 12 00 00 1e 25 00 00 99 39 00 80 9a 36 00 80
       6.494e-42 1.3315e-41 -2.0662e-41 -1.9587e-41
0001b0 08 69 00 80 ae 56 01 80 21 1d 00 00 a4 3c 00 80
       -3.7678e-41 -1.2293e-40 1.045e-41 -2.1754e-41
0001c0 23 05 00 00 cd 2a 00 80 b2 14 00 00 79 9e 62 9a
       1.843e-42 -1.5354e-41 7.424e-42 -4.6863718e-23
0001d0 af f6 ea 95 d4 aa 00 80 2d d9 be 82 cd 41 00 80
       -9.4901045e-26 -6.1282e-41 -2.8042644e-37 -2.3605e-41
0001e0 5c f8 51 98 77 07 d0 99 76 6b 00 80 61 1a 00 80
       -2.7138006e-24 -2.1509711e-23 -3.855e-41 -9.463e-42
0001f0 de 1f 00 00 a9 bc 00 00 38 18 00 80 c4 24 c9 97
       1.1432e-41 6.7679e-41 -8.688e-42 -1.29986015e-24
000200 09 55 00 80 26 82 00 80 15 15 00 00 17 6c 00 80
       -3.0505e-41 -4.6688e-41 7.563e-42 -3.8775e-41
000210 fb 9a 00 80 70 5a 00 80 3f 5a 00 00 46 42 00 80
       -5.5597e-41 -3.2443e-41 3.2374e-41 -2.3774e-41
000220 11 c1 00 00 77 d8 00 00 5e 60 01 00 db 3a 00 00
       6.9259e-41 7.7653e-41 1.26406e-40 2.1113e-41
000230 e1 b0 00 80 6b 04 00 80 ef 75 00 80 04 57 00 80
       -6.3452e-41 -1.585e-42 -4.2307e-41 -3.1215e-41
000240 63 71 00 80 e2 a2 00 80 9b 76 00 80 c0 46 00 80
       -4.0675e-41 -5.8431e-41 -4.2548e-41 -2.538e-41
000250 30 b2 00 80 72 52 00 80 61 10 00 00 1d 58 00 00
       -6.3922e-41 -2.9576e-41 5.876e-42 3.1609e-41
000260 62 20 00 00 0b 75 00 80 e2 13 00 00 56 1b 00 80
       1.1617e-41 -4.1987e-41 7.133e-42 -9.806e-42
000270 b2 a2 00 00 26 55 00 00 ff 31 00 00 bf b2 00 80
       5.8364e-41 3.0546e-41 1.7935e-41 -6.4122e-41
000280 73 79 00 80 58 93 00 00 3e 54 00 80 36 a0 00 80
       -4.3568e-41 5.2857e-41 -3.022e-41 -5.7473e-41
000290 0d 03 00 80 e7 7e 00 80 f0 53 00 80 dd a5 00 80
       -1.094e-42 -4.5524e-41 -3.0111e-41 -5.95e-41
0002a0 e7 79 00 80 8b 0d 00 00 5f 43 00 80 77 58 00 00
       -4.373e-41 4.858e-42 -2.4168e-41 3.1735e-41
0002b0 ea 64 00 00 ae 64 00 00 1a 5b 00 80 42 27 00 80
       3.6201e-41 3.6117e-41 -3.2681e-41 -1.4083e-41
0002c0 1c 6d 00 00 20 9c 00 80 f4 b3 00 80 18 98 00 80
       3.9141e-41 -5.6007e-41 -6.4555e-41 -5.4561e-41
0002d0 a7 91 00 80 e7 a3 00 00 40 3f 00 80 4e 6f 00 80
       -5.225e-41 5.8797e-41 -2.269e-41 -3.9929e-41
0002e0 8c 99 00 80 29 38 00 00 2f d5 00 00 06 b9 00 00
       -5.5082e-41 2.0146e-41 7.6476e-41 6.6374e-41
0002f0 f5 4a 00 80 42 7f 01 80 06 4a 00 80 ee 55 00 80
       -2.689e-41 -1.37487e-40 -2.6555e-41 -3.0826e-41
000300 a7 58 00 80 cd 65 00 00 ab 09 00 80 73 8d 00 80
       -3.1802e-41 3.6519e-41 -3.468e-42 -5.0742e-41
000310 07 53 00 80 17 61 00 00 cb 9e 00 80 88 0f 00 00
       -2.9785e-41 3.4829e-41 -5.6964e-41 5.572e-42
000320 d1 2e 00 80 dd 57 00 80 ee 60 00 80 8c 77 00 80
       -1.6795e-41 -3.152e-41 -3.4772e-41 -4.2885e-41
000330 82 52 00 80 d8 5e 00 80 d2 86 00 80 2e 1b 00 00
       -2.9598e-41 -3.4024e-41 -4.8364e-41 9.75e-42
000340 1d 3e 00 00 64 34 00 00 ce d5 00 00 ea 82 00 00
       2.2282e-41 1.8794e-41 7.6699e-41 4.6963e-41
000350 4d 2a 00 80 5a ac 00 80 48 82 00 00 a5 80 00 80
       -1.5175e-41 -6.1828e-41 4.6736e-41 -4.6149e-41
000360 d2 a7 00 80 67 76 00 80 64 42 00 80 fa 25 00 80
       -6.0203e-41 -4.2475e-41 -2.3816e-41 -1.3623e-41
000370 a6 5e 00 00 bd 90 00 80 04 2f 00 00 a6 2f 00 80
       3.3953e-41 -5.1922e-41 1.6866e-41 -1.7093e-41
000380 6f 24 00 00 ef 63 00 00 8e 2e 00 80 1c 3d 00 80
       1.307e-41 3.585e-41 -1.67e-41 -2.1922e-41
000390 6b 00 00 80 04 ae 00 00 69 d3 00 80 1c 22 00 80
       -1.5e-43 6.2425e-41 -7.584e-41 -1.2236e-41
0003a0 e6 65 00 00 9d 05 00 80 bd 6f 00 00 60 95 00 80
       3.6554e-41 -2.014e-42 4.0084e-41 -5.3586e-41
0003b0 37 80 00 00 43 2b 00 00 0f 78 00 00 05 50 00 80
       4.5995e-41 1.552e-41 4.3069e-41 -2.8706e-41
0003c0 29 9f 00 80 db 5f 00 00 f7 25 00 80 c3 53 00 80
       -5.7096e-41 3.4386e-41 -1.3619e-41 -3.0048e-41
0003d0 c7 91 00 80 90 45 00 80 d7 8b 00 80 da 3d 00 00
       -5.2295e-41 -2.4954e-41 -5.0165e-41 2.2188e-41
0003e0 ce 72 00 00 28 12 00 80 c0 74 00 00 76 63 00 80
       4.1184e-41 -6.513e-42 4.1882e-41 -3.568e-41
0003f0 65 37 00 00 d9 64 00 80 84 ae 00 00 70 82 00 00
       1.9872e-41 -3.6177e-41 6.2604e-41 4.6792e-41

mlp.12.bias f4 [128]
000000 af 4f 00 00 e9 3e 00 00 ab 00 00 80 f1 95 00 80
       2.8585e-41 2.2568e-41 -2.4e-43 -5.3789e-41
000010 9b cf d5 38 6f 3a 00 00 0b c2 ac 3b 0c f2 e2 3b
       0.00010195301 2.0962e-41 0.005272155 0.006925827
000020 4a 80 00 00 52 35 ea 3b 08 54 00 80 bf 27 00 80
       4.6021e-41 0.0071474696 -3.0145e-41 -1.4258e-41
000030 68 2e 00 00 4d 5a ca 3b 40 4c 09 22 4c 0e 2e 3c
       1.6647e-41 0.0061753155 1.8607329e-18 0.010623526
000040 43 30 00 80 df a9 00 80 99 57 00 00 35 5b 00 80
       -1.7313e-41 -6.0938e-41 3.1424e-41 -3.2719e-41
000050 54 a8 41 25 ae a8 00 80 93 5a 00 00 e3 bb 64 18
       1.6797113e-16 -6.0511e-41 3.2492e-41 2.9563168e-24
000060 d5 41 00 00 a7 65 09 3c 29 08 00 80 1b 54 00 80
       2.3616e-41 0.008386052 -2.927e-42 -3.0171e-41
000070 62 bd f4 2f 4a 73 97 38 c4 8f 0e 39 f2 51 00 80
       4.4517906e-10 7.221715e-05 0.00013595732 -2.9396e-41
000080 b5 33 00 80 d9 02 79 3b b4 01 00 80 8d 6e 87 32
       -1.8549e-41 0.0037996082 -6.11e-43 1.5766341e-08
000090 06 8d 00 00 56 28 5e 3b 55 87 00 00 da 9c 00 00
       5.059e-41 0.0033898554 4.8548e-41 5.6268e-41
0000a0 90 9c 00 80 e1 b4 00 80 96 05 02 2e 96 97 00 00
       -5.6164e-41 -6.4887e-41 2.956354e-11 5.4379e-41
0000b0 11 67 ec 38 c1 0e f5 3a 83 49 36 2f 09 e7 29 10
       0.000112725545 0.0018696414 1.657892e-10 3.3507356e-29
0000c0 ab 4e 00 00 e8 3d 00 00 20 18 16 00 52 03 00 80
       2.8221e-41 2.2208e-41 2.029035e-39 -1.191e-42
0000d0 8f 57 00 00 cc 66 00 00 09 97 25 3c 9b 60 05 36
       3.141e-41 3.6877e-41 0.01010681 1.9874776e-06
0000e0 f7 3b 00 00 c7 42 00 80 55 2b ce 3b f3 0f 00 00
       2.1511e-41 -2.3955e-41 0.0062917867 5.722e-42
0000f0 70 2e 00 00 5d 3b 0f 32 f4 ac 00 00 4a 20 3e 34
       1.6659e-41 8.337193e-09 6.2044e-41 1.7706876e-07
000100 9e 77 dd 39 5b 7b 00 80 7d 1d 0c 3c ab 58 00 80
       0.00042241527 -4.4252e-41 0.008551952 -3.1808e-41
000110 6b 89 00 80 56 cb ce 3a 0a 8e 56 3c c1 ab 00 00
       -4.9296e-41 0.0015777152 0.013095388 6.1614e-41
000120 3d 94 00 80 de a7 00 80 7a 19 00 00 cb 55 00 80
       -5.3178e-41 -6.022e-41 9.139e-42 -3.0777e-41
000130 d0 74 00 80 f2 08 a1 38 5e 09 00 00 2c ab 00 80
       -4.1904e-41 7.6787444e-05 3.36e-42 -6.1405e-41
000140 99 dd 2f 3b aa 5a 00 80 12 39 00 00 e1 6b 00 00
       0.0026834963 -3.2524e-41 2.0473e-41 3.87e-41
000150 0d 2e 00 80 25 75 00 00 95 be 03 0c 7b 51 3e 39
       -1.652e-41 4.2024e-41 1.0149224e-31 0.00018150166
000160 37 9a 00 80 ab 5e 8b 3b 99 c4 2c 3c ac 40 12 9b
       -5.5322e-41 0.0042532287 0.010544919 -1.2097734e-22
000170 72 71 00 00 de 0b 00 00 18 ab 00 00 1c 2a 00 00
       4.0697e-41 4.257e-42 6.1377e-41 1.5106e-41
000180 b7 40 00 00 45 a1 00 80 16 b0 00 80 eb 90 00 80
       2.3215e-41 -5.7853e-41 -6.3168e-41 -5.1987e-41
000190 32 bd 00 00 85 c5 18 1b 9e 0d 00 80 4a 8d 69 37
       6.787e-41 1.2636967e-22 -4.885e-42 1.3920779e-05
0001a0 5a 8d 00 00 a4 4f 00 00 c4 28 00 80 18 7c 00 80
       5.0707e-41 2.857e-41 -1.4624e-41 -4.4516e-41
0001b0 91 13 00 80 9f 88 0c 3b aa 3c 0e 15 b8 d0 bb 23
       -7.019e-42 0.0021443737 2.8724527e-26 2.0362976e-17
0001c0 7d 8a 00 00 6b 1d 00 00 20 7e 00 80 c8 3e 9d 3a
       4.968e-41 1.0553e-41 -4.5245e-41 0.001199686
0001d0 90 6d 00 80 6b 38 00 80 8c a1 32 36 d9 58 1f 3c
       -3.9304e-41 -2.0239e-41 2.66181e-06 0.009725773
0001e0 fe 48 00 80 b0 12 00 00 c1 a8 00 80 92 46 04 3c
       -2.6185e-41 6.704e-42 -6.0537e-41 0.008073466
0001f0 5d 85 00 80 b0 d2 00 80 8d 88 00 00 62 04 00 00
       -4.7842e-41 -7.558e-41 4.8985e-41 1.572e-42

mlp.15.weight f4 [64, 128]
000000 ab 81 00 80 4a b6 4c 17 be 74 00 80 fc ad 00 00
       -4.6516e-41 6.6146036e-25 -4.1879e-41 6.2414e-41
000010 e6 56 d1 39 17 24 00 00 e7 31 a1 3c 52 aa d2 3c
       0.0003992833 1.2947e-41 0.019677116 0.02571598
000020 f0 97 00 00 d6 43 d9 3c ea 2f 00 80 3e 80 00 00
       5.4505e-41 0.026521605 -1.7188e-41 4.6005e-41
000030 8e 3d 00 00 f7 40 bc 3c cc ab 0b 23 a6 41 20 3d
       2.2082e-41 0.022980196 7.5715845e-18 0.039125107
000040 00 9e 00 80 55 93 26 04 1d 64 00 00 f6 57 00 80
       -5.668e-41 1.9580858e-36 3.5914e-41 -3.1554e-41
000050 4d af 4f 26 53 25 00 80 37 52 00 80 88 d6 78 19
       7.205513e-16 -1.339e-41 -2.9493e-41 1.2864624e-23
000060 f7 08 00 80 68 2b fe 3c dc 54 00 80 dd 01 00 80
       -3.216e-42 0.031026557 -3.0442e-41 -6.68e-43
000070 59 60 02 31 20 b5 94 39 8e 57 0b 3a f1 37 00 00
       1.8972257e-09 0.00028363708 0.0005315476 2.0068e-41
000080 fa 80 00 00 7c da 69 3c 78 eb 07 8d 15 c1 90 33
       4.6268e-41 0.014273282 -4.188352e-31 6.740644e-08
000090 7f 34 00 00 7f f4 4f 3c 99 ac 00 80 d2 9c 00 80
       1.8832e-41 0.01269257 -6.1916e-41 -5.6257e-41
0000a0 c3 61 00 00 40 ac 00 80 90 c2 09 2f 6b 28 00 00
       3.507e-41 -6.1792e-41 1.25292e-10 1.4499e-41
0000b0 06 c9 e6 39 06 0c e8 3b dc f0 3b 30 7e ab 5e 11
       0.00044018793 0.0070815114 6.8372485e-10 1.7565557e-28
0000c0 14 29 00 80 04 8c 00 00 13 24 63 00 f2 22 00 80
       -1.4736e-41 5.0228e-41 9.104655e-39 -1.2536e-41
0000d0 07 7c 00 80 92 9a 00 00 04 a7 18 3d fc 9c 07 37
       -4.4493e-41 5.545e-41 0.037268654 8.083178e-06
0000e0 a2 84 00 00 ec 82 00 00 50 bc bf 3c a7 98 00 80
       4.758e-41 4.6966e-41 0.023405224 -5.4761e-41
0000f0 06 5c 00 00 ef 05 16 33 24 fa e8 16 d0 e8 45 35
       3.3012e-41 3.4929993e-08 3.7639482e-25 7.3727006e-07
000100 93 98 d5 3a 77 19 00 00 67 84 01 3d 81 20 00 80
       0.0016296081 9.135e-42 0.03162041 -1.166e-41
000110 e4 01 00 80 d0 52 c4 3b c7 10 45 3d 00 6e 00 00
       -6.78e-43 0.0059913173 0.048111703 3.946e-41
000120 72 32 00 00 8c 69 00 00 34 69 00 80 3a 51 00 00
       1.8096e-41 3.7863e-41 -3.774e-41 2.9139e-41
000130 db 45 00 00 7b 05 9e 39 b2 2a fd 91 5b 17 00 80
       2.506e-41 0.00030140192 -3.9942675e-28 -8.378e-42
000140 11 f0 25 3c a4 49 00 80 16 19 00 80 5c 55 00 00
       0.010128037 -2.6417e-41 -8.999e-42 3.0621e-41
000150 aa 65 00 80 13 83 01 80 7e 1e 12 0d 70 d4 38 3a
       -3.647e-41 -1.38856e-40 4.5026427e-31 0.00070506986
000160 0d 3a 00 80 5d a6 82 3c 87 2b 1f 3d 4f b0 0c 10
       -2.0825e-41 0.015948469 0.03885987 2.7745955e-29
000170 a8 20 00 00 fa 7f 73 02 9f 59 00 00 27 a6 00 80
       1.1715e-41 1.7889548e-37 3.215e-41 -5.9604e-41
000180 53 b4 62 05 b3 67 00 00 a0 72 00 00 3a 59 00 00
       1.0659589e-35 3.72e-41 4.112e-41 3.2008e-41
000190 95 ab 00 00 80 9c 23 1c 99 00 01 80 c4 0b 68 38
       6.1552e-41 5.4134447e-22 -9.205e-41 5.5324068e-05
0001a0 3a 42 00 80 0f 94 00 80 8b af 00 80 dd bd 00 80
       -2.3758e-41 -5.3113e-41 -6.2973e-41 -6.811e-41
0001b0 cf 90 00 80 26 e3 04 3c d7 43 26 16 dc fb ca 24
       -5.1948e-41 0.008110797 1.343078e-25 8.80302e-17
0001c0 fe 01 00 80 dc 68 00 80 20 02 00 00 17 a6 95 3b
       -7.15e-43 -3.7616e-41 7.62e-43 0.0045669186
0001d0 d2 52 00 00 1b 57 00 00 57 6a 35 37 c5 f7 12 3d
       2.971e-41 3.1248e-41 1.08132e-05 0.035880823
0001e0 ff 51 00 00 7e a1 00 00 33 78 00 00 73 dd f4 3c
       2.9415e-41 5.7932e-41 4.312e-41 0.029890751
0001f0 a6 63 00 00 3a 97 00 00 6c 01 00 00 25 b1 00 80
       3.5747e-41 5.425e-41 5.1e-43 -6.3547e-41
000200 50 2b 00 80 01 33 00 00 52 8f 00 00 cc 11 00 80
       -1.5538e-41 1.8297e-41 5.1414e-41 -6.384e-42
000210 7c a9 00 80 7c b1 00 80 b2 82 00 00 a9 28 00 00
       -6.08e-41 -6.367e-41 4.6885e-41 1.4586e-41
000220 30 41 00 00 3e 11 00 00 5d 08 00 80 98 b5 00 80
       2.3385e-41 6.185e-42 -3e-42 -6.5144e-41
000230 6f 00 00 00 19 4c 00 80 f4 81 00 00 ea 78 00 80
       1.56e-43 -2.7299e-41 4.6618e-41 -4.3376e-41
000240 84 9d 00 00 fb b1 00 00 73 38 00 00 a6 ac 00 80
       5.6506e-41 6.3847e-41 2.025e-41 -6.1935e-41
000250 5e 2a 00 00 80 a8 00 80 e1 3a 00 00 b5 82 00 80
       1.5198e-41 -6.0446e-41 2.1122e-41 -4.6889e-41
000260 84 4c 00 00 68 42 00 80 22 7a 00 80 d0 52 00 00
       2.7449e-41 -2.3822e-41 -4.3813e-41 2.9708e-41
000270 41 7c 00 00 a3 7a 00 80 f8 29 00 00 f7 0e 00 80
       4.4574e-41 -4.3994e-41 1.5056e-41 -5.368e-42
000280 de b4 00 00 d7 85 00 80 85 34 00 80 e7 23 00 80
       6.4883e-41 -4.8013e-41 -1.884e-41 -1.288e-41
000290 1b 8a 00 80 58 76 00 80 31 b3 00 80 9d 1f 00 80
       -4.9543e-41 -4.2454e-41 -6.4282e-41 -1.1341e-41
0002a0 a8 81 00 00 74 65 00 80 7e 2e 00 80 3f 7f 00 80
       4.6512e-41 -3.6395e-41 -1.6678e-41 -4.5647e-41
0002b0 83 af 00 00 8c 99 00 80 37 87 00 00 37 87 00 80
       6.2962e-41 -5.5082e-41 4.8506e-41 -4.8506e-41
0002c0 6c 5d 00 00 0f ef 00 80 fd 08 00 80 45 e3 00 80
       3.3513e-41 -8.5758e-41 -3.224e-42 -8.1529e-41
0002d0 04 8c 00 00 41 83 00 80 ab 66 00 80 d9 9e 00 80
       5.0228e-41 -4.7085e-41 -3.683e-41 -5.6984e-41
0002e0 bf bc 00 00 33 93 00 80 50 9a 00 80 47 63 00 80
       6.771e-41 -5.2805e-41 -5.5357e-41 -3.5614e-41
0002f0 6e 6a 00 80 39 51 00 00 92 1c 00 00 0f 7e 00 80
       -3.818e-41 2.9137e-41 1.0249e-41 -4.5221e-41
000300 86 31 00 00 5a 68 00 80 af 7b 00 80 d1 bb 00 00
       1.7766e-41 -3.7434e-41 -4.437e-41 6.7376e-41
000310 0d 7f 00 80 2a a3 00 80 b6 1e 00 00 8a ee 00 00
       -4.5577e-41 -5.8532e-41 1.1017e-41 8.5572e-41
000320 46 2b 00 80 8d b3 00 00 84 46 00 00 9d 16 00 80
       -1.5524e-41 6.441e-41 2.5296e-41 -8.112e-42
000330 19 3c 00 00 f7 8c 00 80 fa 90 00 80 8a 39 00 80
       2.1559e-41 -5.0569e-41 -5.2008e-41 -2.0641e-41
000340 24 97 00 80 95 5e 00 80 dc 0f 00 00 75 8e 00 80
       -5.4219e-41 -3.393e-41 5.689e-42 -5.1104e-41
000350 b1 16 00 00 da 16 00 00 c9 01 00 80 fa 2f 00 80
       8.14e-42 8.198e-42 -6.4e-43 -1.7211e-41
000360 60 c3 00 80 96 39 00 80 4d 9c 00 80 80 10 00 80
       -7.0087e-41 -2.0658e-41 -5.607e-41 -5.919e-42
000370 99 65 00 80 09 8a 00 00 94 66 00 80 3c f9 00 80
       -3.6446e-41 4.9518e-41 -3.6798e-41 -8.9408e-41
000380 4c 98 00 80 5c 75 00 00 5e 75 00 00 f9 24 00 00
       -5.4634e-41 4.21e-41 4.2103e-41 1.3263e-41
000390 4f 2e 00 00 0f b0 00 80 8e 55 00 80 c4 a7 00 80
       1.6612e-41 -6.3158e-41 -3.0691e-41 -6.0183e-41
0003a0 e2 96 00 80 ad a0 00 80 2b 56 00 80 cf 73 00 00
       -5.4127e-41 -5.764e-41 -3.0911e-41 4.1544e-41
0003b0 4f 8f 00 80 2e 27 00 00 0b 5e 00 80 59 79 00 80
       -5.141e-41 1.4055e-41 -3.3736e-41 -4.3531e-41
0003c0 b9 e3 00 80 66 42 00 00 6f 24 00 80 d1 0a 00 80
       -8.1691e-41 2.3819e-41 -1.307e-41 -3.88e-42
0003d0 07 8c 00 80 cd da 00 80 f6 39 00 80 80 45 00 80
       -5.0232e-41 -7.8491e-41 -2.0792e-41 -2.4932e-41
0003e0 7b 49 00 00 5d 07 00 00 55 85 00 00 82 ab 00 80
       2.636e-41 2.641e-42 4.783e-41 -6.1525e-41
0003f0 47 29 00 80 6c 40 00 80 9f 35 00 00 93 77 00 80
       -1.4808e-41 -2.311e-41 1.9236e-41 -4.2895e-41

mlp.15.bias f4 [64]
000000 b3 98 a2 3c f1 5e 00 80 a7 80 40 3c c5 19 e7 39
       0.019848203 -3.4059e-41 0.011749423 0.00044078953
000010 7e bd 00 00 86 41 3c 3c 12 73 00 00 f8 47 00 80
       6.7977e-41 0.011490231 4.128e-41 -2.5818e-41
000020 e9 49 00 00 e7 6c 00 80 be 06 00 00 75 c7 37 23
       2.6514e-41 -3.9067e-41 2.419e-42 9.9626865e-18
000030 66 c4 52 36 b6 48 00 00 8b a5 00 00 81 06 cd 3c
       3.1406757e-06 2.6084e-41 5.9386e-41 0.025027515
000040 c0 0f 00 80 53 27 e5 3b e2 7d 00 80 c3 4f 00 80
       -5.65e-42 0.006993213 -4.5158e-41 -2.8613e-41
000050 54 5f 00 80 0e af 00 80 e6 62 00 80 46 f0 ba 1b
       -3.4197e-41 -6.2798e-41 -3.5478e-41 3.0926392e-22
000060 3c 12 7b 1f 63 66 00 00 6e 89 00 00 c0 80 e4 3c
       5.31664e-20 3.673e-41 4.93e-41 0.027893424
000070 0a 09 00 80 a3 7a 00 80 f4 a4 00 80 22 3e 00 00
       -3.243e-42 -4.3994e-41 -5.9174e-41 2.2289e-41
000080 0a 32 00 80 ea 8d 00 80 5b 08 00 80 8b 7a 00 00
       -1.795e-41 -5.0909e-41 -2.997e-42 4.396e-41
000090 48 cd 00 00 5e 1f 00 00 b1 6e 00 00 b0 56 00 00
       7.3641e-41 1.1252e-41 3.9709e-41 3.1098e-41
0000a0 4d 41 00 00 d0 0b 00 80 f2 68 d5 3c 4a 34 96 3c
       2.3426e-41 -4.238e-42 0.026051018 0.01833548
0000b0 1a 97 00 00 31 51 00 00 b1 df 48 3c ff 9b 00 00
       5.4205e-41 2.9126e-41 0.012260363 5.5961e-41
0000c0 5b 59 ca 31 9e b4 d0 3a f9 21 00 80 d2 23 00 00
       5.8891323e-09 0.0015922969 -1.2187e-41 1.285e-41
0000d0 2b 74 eb 21 39 64 00 80 75 e5 ae 3c 67 17 00 80
       1.5954969e-18 -3.5953e-41 0.021349648 -8.395e-42
0000e0 3f 1e 00 00 fd 1b 09 3b 1e 31 1a 3d 6e 87 00 00
       1.085e-41 0.0020921223 0.037644498 4.8583e-41
0000f0 c8 84 00 00 59 a9 ff 37 9a 78 00 00 41 b7 87 3c
       4.7633e-41 3.0477227e-05 4.3264e-41 0.016566874

mlp.18.weight f4 [8, 64]
000000 05 75 00 00 16 23 00 80 12 96 00 80 0e 0d 00 80
       4.1979e-41 -1.2586e-41 -5.3835e-41 -4.683e-42
000010 35 87 00 80 f2 a0 00 80 4c 0a 00 00 16 3d 00 00
       -4.8503e-41 -5.7736e-41 3.694e-42 2.1914e-41
000020 1e 56 00 80 b2 40 00 00 f9 31 00 80 fe 6f 00 80
       -3.0893e-41 2.3208e-41 -1.7927e-41 -4.0175e-41
000030 ba 1a 00 00 29 1a 00 00 92 b3 00 80 05 7b 00 00
       9.588e-42 9.384e-42 -6.4418e-41 4.4131e-41
000040 69 09 00 80 ed ad 00 00 d2 00 00 80 74 17 00 00
       -3.376e-42 6.2393e-41 -2.94e-43 8.413e-42
000050 5f 04 00 80 7c 27 00 00 55 5d 00 00 d8 68 00 00
       -1.568e-42 1.4164e-41 3.3481e-41 3.7611e-41
000060 37 06 00 00 5f 89 00 00 1b b2 00 00 04 77 00 00
       2.23e-42 4.928e-41 6.3892e-41 4.2695e-41
000070 80 09 00 80 fa 49 00 80 c4 0e 00 00 cd 05 00 00
       -3.408e-42 -2.6538e-41 5.297e-42 2.081e-42
000080 89 2a 00 00 91 69 00 00 b0 8f 00 00 47 64 00 00
       1.5259e-41 3.787e-41 5.1545e-41 3.5973e-41
000090 16 9d 00 00 8f 87 00 00 95 42 00 80 86 b2 00 80
       5.6352e-41 4.8629e-41 -2.3885e-41 -6.4042e-41
0000a0 19 14 00 00 d0 32 00 80 2e 85 00 00 05 67 00 00
       7.21e-42 -1.8228e-41 4.7776e-41 3.6956e-41
0000b0 56 62 00 00 6c 7a 00 80 3d 3f 00 00 ce a3 00 80
       3.5276e-41 -4.3917e-41 2.2686e-41 -5.8762e-41
0000c0 a0 51 00 80 2c 48 00 00 57 0f 00 80 ac 88 00 00
       -2.9282e-41 2.589e-41 -5.503e-42 4.9029e-41
0000d0 f3 59 00 80 a8 44 00 00 40 71 00 00 fd 61 00 80
       -3.2268e-41 2.4629e-41 4.0626e-41 -3.5152e-41
0000e0 24 58 00 00 b8 0e 00 80 05 4d 00 00 a2 b1 00 00
       3.1619e-41 -5.28e-42 2.763e-41 6.3723e-41
0000f0 29 58 00 80 cf 4e 00 00 1c 8e 00 00 22 6e 00 00
       -3.1626e-41 2.8271e-41 5.0979e-41 3.9508e-41
000100 28 12 89 3d af 91 00 80 61 21 32 3d 7b 42 de 3a
       0.06692916 -5.2261e-41 0.043488864 0.0016957069
000110 6c 5f 00 00 e3 60 2a 3d e2 7a 00 00 23 ad 0b 08
       3.4231e-41 0.041596305 4.4082e-41 4.203231e-34
000120 aa 11 00 80 4a 20 00 00 f9 92 2b 27 91 c2 37 24
       -6.337e-42 1.1583e-41 2.3810691e-15 3.9846604e-17
000130 1a 45 49 37 92 d0 00 00 b0 3d 00 00 5e c9 b6 3d
       1.1996623e-05 7.4821e-41 2.213e-41 0.089251265
000140 3a 3d 00 80 2f 0b d0 3c 6f 3c 0b 80 2b 7e 00 00
       -2.1964e-41 0.025395958 -1.03187e-39 4.526e-41
000150 13 93 00 80 cb a2 00 00 ed 2f 00 00 71 7b a2 1c
       -5.276e-41 5.8399e-41 1.7193e-41 1.075217e-21
000160 51 5f 91 20 23 4f 00 80 2c 19 00 00 11 10 d3 3d
       2.462703e-19 -2.8389e-41 9.03e-42 0.10305799
000170 5c a9 00 00 ec 6a 00 00 4c 3a be 95 4d 05 00 80
       6.0755e-41 3.8356e-41 -7.6832365e-26 -1.902e-42
000180 8d 5a be b4 2a 80 00 00 77 88 00 00 e2 5a 00 00
       -3.5456142e-07 4.5977e-41 4.8954e-41 3.2603e-41
000190 c3 31 00 00 f1 48 00 00 88 af 00 00 da 83 00 00
       1.7851e-41 2.6166e-41 6.2969e-41 4.73e-41
0001a0 49 d8 a6 2e d6 5e 00 80 7e 5b bd 3d be 54 85 3d
       7.587226e-11 -3.4021e-41 0.092459664 0.06510304
0001b0 f8 09 00 80 71 8a 00 80 1e b9 48 3d 72 5f 00 00
       -3.576e-42 -4.9663e-41 0.049004667 3.424e-41
0001c0 b2 96 b1 32 26 e5 bc 3b d8 0d 00 00 57 94 00 80
       2.067404e-08 0.0057646213 4.966e-42 -5.3214e-41
0001d0 f2 75 ca 22 68 98 32 94 ec 49 ac 3d 7f 05 00 80
       5.487709e-18 -9.01676e-27 0.08412537 -1.972e-42
0001e0 f8 7c 00 00 4d 11 fa 3b 11 d8 12 3e 22 51 00 80
       4.483e-41 0.007631457 0.14340235 -2.9105e-41
0001f0 9b 4e 4b 8c 1c 33 c9 38 57 00 00 80 1d c7 78 3d
       -1.5662206e-31 9.593947e-05 -1.22e-43 0.060736764
000200 83 1c 20 2c 7a 41 00 00 fe 02 55 2b 82 4a 5b 29
       2.2753195e-12 2.3489e-41 7.5676954e-13 4.8692394e-14
000210 56 0e 00 80 45 02 94 2b 8a 6b 00 80 77 7f 00 00
       -5.143e-42 1.0516662e-12 -3.8578e-41 4.5726e-41
000220 32 a9 00 00 69 5d 00 00 91 9b 0f 21 0e 27 f4 12
       6.0696e-41 3.3509e-41 4.8656175e-19 1.5408193e-27
000230 ff 0b 96 24 07 a6 00 00 6e 07 00 80 12 80 38 2c
       6.507245e-17 5.956e-41 -2.665e-42 2.6219066e-12
000240 8e 15 00 80 3f d1 1f 2e a3 17 00 00 51 34 00 00
       -7.732e-42 3.6338262e-11 8.479e-42 1.8768e-41
000250 37 4e 00 00 ac 35 00 00 3b eb 00 00 86 d2 5b 0b
       2.8058e-41 1.9254e-41 8.4385e-41 4.2336246e-32
000260 f4 82 43 0f 35 1a 00 00 fb 17 00 00 cc f3 14 2c
       9.639463e-30 9.401e-42 8.603e-42 2.11674e-12
000270 b6 7c 00 80 de 8a 00 00 f5 25 00 80 64 b8 94 02
       -4.4738e-41 4.9816e-41 -1.3616e-41 2.185248e-37
000280 6c 52 b4 2e b3 a1 00 80 16 3f 00 80 04 9a 00 00
       8.2000934e-11 -5.8007e-41 -2.2631e-41 5.525e-41
000290 bb 80 00 80 43 44 00 80 db 6c 00 00 19 31 00 00
       -4.618e-41 -2.4488e-41 3.905e-41 1.7613e-41
0002a0 de d5 36 8a d0 36 95 13 ba a8 37 2c 9c 37 01 2c
       -8.803205e-33 3.7666937e-27 2.6099526e-12 1.8362872e-12
0002b0 a4 01 00 80 43 37 00 80 f0 89 bb 2b 08 82 00 80
       -5.89e-43 -1.9824e-41 1.3325435e-12 -4.6646e-41
0002c0 e2 23 8f a4 85 48 de 28 12 b1 00 80 c7 aa 00 80
       -6.207715e-17 2.4678401e-14 -6.3521e-41 -6.1263e-41
0002d0 f6 68 2d 1c 07 be 00 00 7b 34 2e 2c 42 55 00 00
       5.7376557e-22 6.8169e-41 2.475602e-12 3.0585e-41
0002e0 9b 7d 00 00 f7 a4 6c 2a 93 fc 96 2c c1 a8 00 80
       4.5059e-41 2.1018244e-13 4.291298e-12 -6.0537e-41
0002f0 53 91 dd 1d d1 f4 b0 b1 41 78 00 80 c0 64 e1 2b
       5.8648475e-21 -5.1501066e-09 -4.3139e-41 1.6015175e-12
000300 8a bc 86 3c 6a 33 00 00 fb 39 1f 3c 8e 12 c1 39
       0.016447324 1.8444e-41 0.009718413 0.00036825653
000310 6d 00 00 00 0d 2d 1b 3c 63 3b 00 80 80 14 00 00
       1.53e-43 0.00947119 -2.1304e-41 7.354e-42
000320 ab 95 00 00 d5 02 00 80 93 7c 00 80 89 bb 3a a3
       5.3691e-41 -1.016e-42 -4.4689e-41 -1.0122792e-17
000330 5d bf 3a 36 36 18 00 00 92 25 00 00 2a ca ab 3c
       2.7827548e-06 8.685e-42 1.3478e-41 0.020970423
000340 16 6d 00 80 63 66 bb 3b cb 90 00 80 fc 73 00 80
       -3.9133e-41 0.0057189926 -5.1942e-41 -4.1607e-41
000350 07 03 00 80 07 2f 00 00 1a 4d 00 00 94 8b 7e 9a
       -1.086e-42 1.687e-41 2.7659e-41 -5.263872e-23
000360 b6 f1 99 1f a6 6e 00 80 1f 73 00 00 30 3b c0 3c
       6.51979e-20 -3.9693e-41 4.1298e-41 0.023465723
000370 62 47 00 80 78 88 00 00 e4 3c 30 86 ce 0e 00 00
       -2.5607e-41 4.8956e-41 -3.3146656e-35 5.311e-42
000380 8d c5 a5 82 69 0f 00 00 7d 90 00 00 06 53 00 80
       -2.435796e-37 5.528e-42 5.1833e-41 -2.9783e-41
000390 59 71 00 80 68 7f 00 00 0b 02 00 00 5a 78 00 80
       -4.0661e-41 4.5705e-41 7.33e-43 -4.3174e-41
0003a0 27 26 0d 20 68 92 00 00 bc 3f b3 3c b1 f8 78 3c
       1.1955788e-19 5.252e-41 0.021880977 0.015196011
0003b0 ca b2 00 80 71 5a 00 80 d0 9e 27 3c 4f 72 00 00
       -6.4137e-41 -3.2444e-41 0.010230735 4.1006e-41
0003c0 cc 3a 0d 31 26 a9 ab 3a 26 24 00 80 f7 03 00 80
       2.0551623e-09 0.0013096675 -1.2968e-41 -1.422e-42
0003d0 ac 13 e3 a1 f1 a6 00 80 65 af 93 3c c9 91 00 80
       -1.5387325e-18 -5.9887e-41 0.01802797 -5.2298e-41
0003e0 75 3f 00 80 f9 96 e1 3a d9 e7 04 3d b4 81 00 00
       -2.2764e-41 0.0017211131 0.03244767 4.6529e-41
0003f0 29 7e 00 00 b8 62 c3 37 e5 a2 00 80 70 73 61 3c
       4.5258e-41 2.3291781e-05 -5.8436e-41 0.013760433

mlp.18.bias f4 [8]
000000 5a 05 00 00 79 8c b8 3d 89 66 66 2c c0 79 b1 3c
       1.92e-42 0.09011168 3.2741884e-12 0.0216645
000010 27 a5 fc 3d 91 68 60 25 42 3e 00 00 cf 30 e2 38
       0.12336188 1.9464331e-16 2.2334e-41 0.00010785611

mlp.21.weight f4 [1, 8]
000000 0a 57 00 80 31 c5 91 be 02 dd 18 ad c4 a0 8a bd
       -3.1224e-41 -0.28470758 -8.689273e-12 -0.06768945
000010 bf 34 c9 be 1a f3 21 39 14 1c 00 80 b6 e3 c3 b9
       -0.39298055 0.00015444719 -1.0073e-41 -0.00037362956
