model_saved/2024-01-25-07-49-50/model_2024-01-25-07-50-44_epoch_8000_train_mse_2.03e-02_val_mse_1.99e-02.pt (torch, 88323 bytes, 15 tensors)

mlp.0.weight f4 [8, 8]
000000 f0 7e 00 00 57 29 00 00 6a 9e 00 80 5c 24 00 80
       4.5537e-41 1.483e-41 -5.6828e-41 -1.3043e-41
000010 fb 45 00 00 6a 37 00 00 4e bc 00 00 03 82 00 80
       2.5104e-41 1.9879e-41 6.7551e-41 -4.664e-41
000020 d1 67 5f 3c 35 0e ff bb 93 94 4f 39 f6 5e 3f 38
       0.013635592 -0.007783676 0.00019796407 4.5626388e-05
000030 81 f8 34 38 7d 72 13 38 3b 70 c8 37 cc f9 b3 37
       4.314678e-05 3.5154157e-05 2.389412e-05 2.1454784e-05
000040 8f b3 45 bd c6 a4 87 3d e1 66 7c 3c b6 22 08 ba
       -0.048266944 0.06623225 0.015405388 -0.00051931606
000050 31 6a 8c b9 4e b9 d2 b8 a0 c8 5c 3a 0a 2c 2f ba
       -0.00026782 -0.00010048096 0.00084222294 -0.00066822825
000060 fd 3c 0e bd cd 72 43 3d 67 70 34 3c c6 4b b0 b9
       -0.03472613 0.047716904 0.011013127 -0.00033625792
000070 76 c8 31 b9 31 a1 85 b8 90 d8 21 3a c6 26 c2 b9
       -0.00016954713 -6.3719584e-05 0.0006173933 -0.00037031452
000080 bd b7 1d 3e 85 90 a9 bd d5 c6 10 3c f5 43 de 39
       0.15402122 -0.08279518 0.008836468 0.00042393772
000090 30 f1 c0 39 6d 89 8e 39 90 a2 3f 39 16 cf 7c 39
       0.00036800792 0.0002718674 0.00018275739 0.00024109738
0000a0 8b 69 f8 bd a8 9a 3e 3e 4a 3a 64 3d bb 0e 3e ba
       -0.12129506 0.18613684 0.05571965 -0.000725012
0000b0 d7 c3 ea 38 12 b3 ff 39 62 e7 89 3b 50 05 7a ba
       0.000111944675 0.00048770808 0.004208491 -0.0009537535
0000c0 f9 2d d3 3d 86 b4 a7 3e da 4d 39 3e 56 29 b0 ba
       0.10311503 0.32754916 0.18096104 -0.0013440053
0000d0 79 91 22 3a 6a 4a b6 3a 79 40 24 3c cb e9 de ba
       0.00062014867 0.0013907675 0.010025137 -0.0017006932
0000e0 a4 70 7e bc 55 be b6 3d 25 3e fc 3c 99 be ac b9
       -0.015529785 0.08923022 0.030791352 -0.00032948403
0000f0 fb 70 38 38 5a d9 63 39 77 ed 03 3b ff bb ce b9
       4.397424e-05 0.00021729377 0.0020130554 -0.0003943145

mlp.0.bias f4 [8]
000000 1b 77 00 80 89 b9 e9 36 1f ad 96 b8 f5 b5 22 38
       -4.2727e-41 6.9655403e-06 -7.184804e-05 3.879327e-05
000010 67 84 3d 37 c1 2e 08 3a 02 20 c9 3a b4 77 8b 39
       1.1296105e-05 0.0005194955 0.0015344622 0.00026601332

mlp.3.weight f4 [16, 8]
000000 c4 ad 00 80 8b b9 d7 b9 1e c6 03 3c 69 bf be 3b
       -6.2335e-41 -0.00041146236 0.00804284 0.0058211577
000010 50 74 92 bb b8 d8 c4 3c 92 71 54 3d 8f 01 35 3c
       -0.004469432 0.02402912 0.05186612 0.011047735
000020 9d 2a 00 00 f0 5a 1d b7 67 08 07 39 b2 a9 ce 38
       1.5287e-41 -9.379102e-06 0.00012877733 9.854454e-05
000030 c7 e3 e7 b8 87 85 d2 39 9e 37 94 3a fa 8d 55 39
       -0.00011057365 0.00040153807 0.0011308079 0.00020366153
000040 ae 18 00 80 fc e4 09 ba 08 c4 15 3c 64 fc dc 3b
       -8.853e-42 -0.00052602566 0.009140976 0.0067439545
000050 19 da df bb 1e 4d e1 3c 1d 10 82 3d 65 30 4e 3c
       -0.006831419 0.027502593 0.063507296 0.01258478
000060 57 5b 00 80 84 22 d3 37 9d 64 bf b9 e5 93 90 b9
       -3.2767e-41 2.5169233e-05 -0.00036505322 -0.0002757601
000070 57 bc c6 3b 2d 22 9c ba 2c 02 81 3a b0 23 9b ba
       0.0060649323 -0.0011912041 0.0009842566 -0.0011836197
000080 71 56 00 00 3b 4d 00 00 52 ac 00 00 cb 87 00 80
       3.101e-41 2.7705e-41 6.1817e-41 -4.8713e-41
000090 b8 67 00 80 c1 96 00 00 c7 5d 00 80 5f 0a 00 00
       -3.7207e-41 5.408e-41 -3.3641e-41 3.72e-42
0000a0 93 7f 00 80 ac af 00 80 1f 7b 00 80 1b 25 00 80
       -4.5765e-41 -6.3019e-41 -4.4168e-41 -1.3311e-41
0000b0 ee a5 00 00 14 68 00 80 ba 97 00 00 31 66 00 00
       5.9524e-41 -3.7336e-41 5.4429e-41 3.666e-41
0000c0 9f c1 00 80 1e 7e 91 b7 d0 be 83 39 d9 8a f0 38
       -6.9458e-41 -1.7344075e-05 0.00025128433 0.00011469954
0000d0 41 f5 51 b9 21 c7 2d 3a 54 c1 2f 3b f4 5b c1 39
       -0.00020023157 0.0006629099 0.0026818113 0.0003688034
0000e0 44 15 00 80 6a 21 a6 ba 71 d5 d9 3c ef 6e 9c 3c
       -7.629e-42 -0.0012674753 0.026591035 0.019095866
0000f0 b2 86 38 bc 12 da 9d 3d b8 a2 32 3e 06 0f 0f 3d
       -0.011262583 0.07707609 0.17444885 0.034926437
000100 83 50 00 80 8a 3f 00 00 10 98 00 00 3d 83 00 00
       -2.8882e-41 2.2794e-41 5.455e-41 4.708e-41
000110 78 42 00 80 81 01 00 00 ff 20 00 80 2a 19 00 00
       -2.3844e-41 5.4e-43 -1.1837e-41 9.027e-42
000120 39 5c 00 80 71 35 0e bb 17 48 38 3d f1 2d 04 3d
       -3.3083e-41 -0.0021699334 0.044990625 0.032270376
000130 85 fb 7d bc ad 44 05 3e 8e 4a 85 3e 94 81 7c 3d
       -0.015501861 0.13014479 0.26033443 0.061647013
000140 6e b3 00 80 fa 1b 00 80 d3 3d 00 00 2b 40 01 00
       -6.4367e-41 -1.0036e-41 2.2178e-41 1.14855e-40
000150 c4 1d 00 00 9f 47 00 80 9b 5e 00 00 76 15 00 00
       1.0678e-41 -2.5693e-41 3.3938e-41 7.699e-42
000160 9b 36 00 00 29 d7 43 bb 9d 57 47 3d 1c 16 0f 3d
       1.9589e-41 -0.0029882884 0.04866754 0.034933195
000170 8f 06 50 bd fc a5 10 3e 9c 29 93 3e ff 25 7d 3d
       -0.050787505 0.14125818 0.28742683 0.061803814
000180 de 3a 00 00 03 06 00 80 53 a3 00 80 cc 89 00 80
       2.1118e-41 -2.157e-42 -5.859e-41 -4.9432e-41
000190 43 10 00 00 72 21 8d 1d d5 09 07 b4 5a e7 36 27
       5.834e-42 3.735697e-21 -1.2576432e-07 2.538299e-15
0001a0 75 45 00 80 73 b2 00 00 b2 04 01 00 4b 67 00 00
       -2.4916e-41 6.4016e-41 9.352e-41 3.7055e-41
0001b0 45 9b 00 00 c4 07 00 00 68 b1 00 00 c9 85 00 80
       5.57e-41 2.786e-42 6.3641e-41 -4.7993e-41
0001c0 85 73 00 80 8d 00 00 00 2d a5 00 80 d6 2d 00 80
       -4.144e-41 1.98e-43 -5.9254e-41 -1.6443e-41
0001d0 10 3a 00 00 9b 8e 00 00 66 68 e5 a4 d4 83 00 00
       2.0829e-41 5.1157e-41 -9.948978e-17 4.7291e-41
0001e0 b5 83 00 00 0b a9 60 ba 0c 39 88 3c d3 fb 44 3c
       4.7248e-41 -0.0008570111 0.016628765 0.01202293
0001f0 fe 37 1a bc 9e a2 48 3d fa 3f dc 3d 5d 30 b3 3c
       -0.009412764 0.04898321 0.1075439 0.021873647

mlp.3.bias f4 [16]
000000 20 9a a1 39 69 6c 87 36 75 57 cf 39 51 48 8d b7
       0.00030823145 4.035934e-06 0.00039547277 -1.6842185e-05
000010 eb 72 00 80 5a 74 00 80 b8 39 13 37 41 26 93 3a
       -4.1225e-41 -4.1739e-41 8.7753215e-06 0.001122661
000020 d9 65 00 00 31 79 09 3b db 5b 00 80 63 3d 15 3b
       3.6536e-41 0.0020976777 -3.2952e-41 0.0022772185
000030 4c a8 00 00 eb b0 00 80 22 14 00 80 1e 23 36 3a
       6.0374e-41 -6.3466e-41 -7.222e-42 0.0006947982

mlp.6.weight f4 [32, 16]
000000 77 9f 00 80 6b 8a 00 00 c0 56 00 80 50 32 00 00
       -5.7205e-41 4.9655e-41 -3.112e-41 1.8049e-41
000010 ab 17 00 80 ad 95 00 80 dd 0b 00 80 19 d9 00 80
       -8.49e-42 -5.3694e-41 -4.256e-42 -7.788e-41
000020 b6 ac 00 00 d3 43 00 80 9d 00 00 00 d7 a1 00 00
       6.1957e-41 -2.4331e-41 2.2e-43 5.8057e-41
000030 2e a7 00 00 b6 52 00 00 2a 0c 00 00 49 80 00 80
       5.9973e-41 2.9671e-41 4.364e-42 -4.602e-41
000040 8c 72 29 3c 45 23 2c 39 77 52 31 3c 79 af e3 b8
       0.0103422515 0.00016416337 0.010822884 -0.00010856888
000050 84 04 00 00 34 a6 00 80 64 4f a2 39 6e a3 14 3d
       1.62e-42 -5.9622e-41 0.00030958198 0.03628867
000060 46 3e 00 80 41 a5 4f 3d e7 1c 00 00 44 13 5c 3d
       -2.234e-41 0.050694708 1.0368e-41 0.05372931
000070 5a 3c 00 00 49 7c 00 80 09 44 00 00 b7 36 9e 3c
       2.165e-41 -4.4585e-41 2.4406e-41 0.0193132
000080 ba 2a 44 3d 80 04 4b 3a 54 c9 34 3d f2 f7 9d ba
       0.04789231 0.0007744506 0.044137314 -0.0012052043
000090 2c 64 00 00 86 ea 00 80 f0 43 cd 3a 27 67 b2 3d
       3.5935e-41 -8.4131e-41 0.0015660506 0.08711081
0000a0 15 78 00 00 9c b8 54 3e 6a 13 00 00 35 1e 4d 3e
       4.3077e-41 0.20773548 6.964e-42 0.20031054
0000b0 5a 22 8b 13 b1 58 01 80 dd 9d 00 00 20 04 a9 3d
       3.5122406e-27 -1.23652e-40 5.663e-41 0.0825274
0000c0 c1 b2 68 3c bd 35 80 39 2f fa 83 3c db cf 30 b9
       0.0142027745 0.000244541 0.016110508 -0.000168621
0000d0 3d 28 00 00 b8 9c 00 00 13 21 f1 39 d5 8d 64 3d
       1.4435e-41 5.622e-41 0.00045991744 0.055799324
0000e0 e7 10 00 80 2d 53 93 3d 2b 56 00 00 f5 95 a5 3d
       -6.063e-42 0.07193599 3.0911e-41 0.08085243
0000f0 a5 01 00 00 27 09 00 00 9a 31 00 80 c5 e3 e8 3c
       5.9e-43 3.283e-42 -1.7794e-41 0.028428921
000100 5f 42 12 37 e2 4a f9 32 08 88 22 36 15 33 0f b4
       8.717731e-06 2.9021468e-08 2.4219062e-06 -1.3336496e-07
000110 a9 ae 00 80 e3 b3 00 80 bd 56 eb 32 8e 8a b8 39
       -6.2656e-41 -6.4531e-41 2.7397045e-08 0.00035198446
000120 2e 15 02 00 75 a9 f4 b8 c4 1b 00 80 bf 45 c5 b7
       1.91269e-40 -0.000116663905 -9.96e-42 -2.3516708e-05
000130 3e 73 00 00 fc 9a 00 00 84 28 00 80 41 5f 88 36
       4.1341e-41 5.5598e-41 -1.4534e-41 4.064205e-06
000140 26 2e 00 00 2b a2 00 80 ab b6 00 00 23 74 00 80
       1.6555e-41 -5.8175e-41 6.5529e-41 -4.1662e-41
000150 e7 2c 00 80 13 08 00 00 16 b8 00 80 cf 2a 00 00
       -1.6108e-41 2.896e-42 -6.6038e-41 1.5357e-41
000160 35 a0 00 80 c1 0a 00 80 ec 38 00 80 d5 9c 00 00
       -5.7471e-41 -3.858e-42 -2.042e-41 5.6261e-41
000170 05 a8 00 80 75 2d 00 00 4c 5e 00 80 d4 7e 00 80
       -6.0274e-41 1.6307e-41 -3.3827e-41 -4.5497e-41
000180 a7 7f 00 00 e6 7d 00 00 e5 b1 00 80 7c 65 00 00
       4.5793e-41 4.5164e-41 -6.3817e-41 3.6406e-41
000190 a1 7b 00 80 80 b0 00 80 e8 04 00 80 83 78 00 80
       -4.435e-41 -6.3316e-41 -1.76e-42 -4.3231e-41
0001a0 44 95 00 80 18 57 00 00 9c c0 00 00 f3 0e 00 80
       -5.3546e-41 3.1243e-41 6.9095e-41 -5.363e-42
0001b0 9f 16 00 80 26 1c 00 00 9f 13 00 00 38 a8 00 80
       -8.115e-42 1.0098e-41 7.039e-42 -6.0346e-41
0001c0 e0 e0 4a 38 a2 43 39 35 a3 c6 49 38 53 75 36 b5
       4.8369984e-05 6.901629e-07 4.810713e-05 -6.797101e-07
0001d0 01 8b 00 00 19 09 00 00 1d 52 ad 35 66 6f 50 39
       4.9865e-41 3.264e-42 1.2913403e-06 0.00019877925
0001e0 28 34 01 00 90 8a 8f 39 a9 5f 00 00 c0 3a 95 39
       1.10546e-40 0.00027378323 3.4316e-41 0.00028463267
0001f0 c9 b9 00 80 4f 42 00 80 c7 12 00 00 9a ee ba 38
       -6.6647e-41 -2.3787e-41 6.736e-42 8.913614e-05
000200 c6 16 27 3c e5 c6 0f 39 78 07 0c 3c 68 1b 43 b9
       0.010198301 0.00013711637 0.008546703 -0.00018606859
000210 52 96 00 00 de 92 00 80 98 6d 82 39 62 d5 35 3d
       5.3925e-41 -5.2686e-41 0.00024877186 0.04439295
000220 eb 9f 00 00 0d 19 ce 3c ee 01 00 80 a7 05 53 3d
       5.7368e-41 0.02515843 -6.92e-43 0.051519062
000230 6b a5 00 80 2d 83 01 80 e7 76 00 00 40 5c 7a 3c
       -5.9341e-41 -1.38892e-40 4.2654e-41 0.015280783
000240 82 40 81 37 1f 07 68 34 34 45 7c 37 8e ce 8a b4
       1.5408037e-05 2.1609274e-07 1.5036483e-05 -2.585479e-07
000250 76 84 01 00 dc 5d 00 80 4c 40 db 34 b5 4f e4 38
       1.39354e-40 -3.367e-41 4.083871e-07 0.00010886734
000260 86 74 00 80 f9 8b b0 38 df c3 00 00 4a 4d bc 38
       -4.1801e-41 8.418406e-05 7.0265e-41 8.978935e-05
000270 66 0a 00 00 76 37 00 80 14 45 00 00 9e 61 f0 37
       3.73e-42 -1.9896e-41 2.478e-41 2.8655686e-05
000280 58 5b 01 00 f3 a0 00 00 ec 05 00 80 28 c2 00 00
       1.24603e-40 5.7738e-41 -2.124e-42 6.965e-41
000290 a2 7c 00 80 80 8f 00 80 49 a1 00 80 89 19 00 00
       -4.471e-41 -5.1478e-41 -5.7858e-41 9.16e-42
0002a0 27 5e 00 80 e7 62 00 80 33 83 00 80 17 2d 00 80
       -3.3775e-41 -3.548e-41 -4.7065e-41 -1.6175e-41
0002b0 99 d2 00 00 04 36 00 80 cd 49 00 80 ba 92 00 00
       7.5548e-41 -1.9377e-41 -2.6475e-41 5.2636e-41
0002c0 c5 38 00 00 5d 75 00 00 6d 68 00 80 11 39 00 80
       2.0365e-41 4.2102e-41 -3.7461e-41 -2.0472e-41
0002d0 3c 12 00 80 fd a0 00 80 d2 12 00 00 4b 71 00 80
       -6.541e-42 -5.7752e-41 6.751e-42 -4.0642e-41
0002e0 8c 3f 00 80 39 44 00 00 2d 11 00 80 79 7d 00 80
       -2.2796e-41 2.4474e-41 -6.162e-42 -4.5011e-41
0002f0 80 91 00 00 54 ad 00 00 d3 0d 00 00 3d 6d 00 00
       5.2196e-41 6.2178e-41 4.959e-42 3.9187e-41
000300 cb a8 87 29 d6 48 00 80 a4 43 00 00 dd 99 3a 85
       6.024485e-14 -2.6129e-41 2.4265e-41 -8.773938e-36
000310 28 19 00 80 49 7d 00 80 c8 17 00 00 a6 72 bc ad
       -9.024e-42 -4.4944e-41 8.531e-42 -2.142404e-11
000320 19 33 00 80 40 ee 22 2d f6 b2 00 00 5c c6 a1 ab
       -1.833e-41 9.261536e-12 6.4199e-41 -1.1494794e-12
000330 c0 22 00 80 f7 1b 01 00 5a 1c 00 00 75 df 59 95
       -1.2466e-41 1.01867e-40 1.017e-41 -4.3999078e-26
000340 28 4e 6a 3c 63 6a 5f 39 45 3e 5c 3c b3 99 8c b9
       0.01430086 0.0002130657 0.013442581 -0.00026817396
000350 01 2c 00 00 0b cf 00 80 f5 65 ce 39 e3 c8 21 3d
       1.5786e-41 -7.4273e-41 0.00039367346 0.03949822
000360 aa c0 00 00 b4 d4 8b 3d d8 9f 00 00 3d 4a 8a 3d
       6.9115e-41 0.06827679 5.7341e-41 0.06752441
000370 70 ad 00 80 f2 77 00 80 79 6c 00 00 90 69 c7 3c
       -6.2218e-41 -4.3028e-41 3.8913e-41 0.024342328
000380 4b 43 00 00 6c 53 00 00 ff 23 00 80 a2 a1 00 00
       2.414e-41 2.9926e-41 -1.2913e-41 5.7983e-41
000390 d2 4a 00 00 85 ab 00 80 c1 b7 00 80 2d 8b 00 80
       2.684e-41 -6.153e-41 -6.5918e-41 -4.9927e-41
0003a0 40 7b 00 80 e2 ac 00 00 ed e3 00 00 e3 5d 00 80
       -4.4214e-41 6.2019e-41 8.1764e-41 -3.368e-41
0003b0 38 a7 00 80 94 05 00 00 a1 97 00 80 ea 82 00 00
       -5.9987e-41 2.001e-42 -5.4394e-41 4.6963e-41
0003c0 30 29 06 37 67 2a d1 33 a1 10 f3 36 a5 c4 0a b4
       7.996612e-06 9.740034e-08 7.2439e-06 -1.292379e-07
0003d0 84 68 00 80 b6 55 00 80 e6 74 3c 34 c3 5d 8b 38
       -3.7493e-41 -3.0747e-41 1.7551392e-07 6.645501e-05
0003e0 af 0b 00 80 da e6 dd 37 55 43 00 00 6a b0 47 38
       -4.191e-42 2.6452752e-05 2.4154e-41 4.7609596e-05
0003f0 8c 03 00 80 2b 26 00 00 d6 86 00 80 f8 97 64 37
       -1.272e-42 1.3692e-41 -4.837e-41 1.3625242e-05

mlp.6.bias f4 [32]
000000 39 c8 00 00 dd 97 92 3a e0 78 9c 3b 88 9b de 3a
       7.1826e-41 0.0011184175 0.0047751516 0.0016983608
000010 b9 05 8c 34 d7 5a 00 80 df 33 00 80 76 37 80 36
       2.6081196e-07 -3.2587e-41 -1.8608e-41 3.8211538e-06
000020 f8 6f 77 3a 55 b4 9c 35 a4 67 00 00 5f a8 00 80
       0.0009438987 1.1675389e-06 3.7179e-41 -6.04e-41
000030 14 37 00 80 63 9a c0 3a ff 46 00 80 29 25 32 35
       -1.9758e-41 0.0014694448 -2.5469e-41 6.636424e-07
000040 bb 05 98 3b 9b 1b 00 80 a8 a8 00 80 43 0d 01 00
       0.004639355 -9.903e-42 -6.0502e-41 9.6593e-41
000050 08 1d 00 80 94 63 d2 34 e3 fc ad 39 ee 6e f5 39
       -1.0414e-41 3.9188e-07 0.00033185547 0.0004681269
000060 f2 c6 4d 34 5f 5a 62 3a f1 31 00 00 6c 80 00 80
       1.9164489e-07 0.0008634682 1.7916e-41 -4.6069e-41
000070 31 1e 00 80 8c 5d bc 28 50 a8 00 80 9c 05 99 38
       -1.083e-41 2.0912762e-14 -6.0379e-41 7.296653e-05

mlp.9.weight f4 [64, 32]
000000 2e 02 01 00 2d e4 7c 14 7c 66 ad 9a 61 ec f6 0b
       9.2617e-41 1.27677484e-26 -7.1716695e-23 9.5111417e-32
000010 e1 ca 00 00 65 8f 00 00 55 17 00 80 94 61 00 00
       7.2779e-41 5.144e-41 -8.37e-42 3.5004e-41
000020 c4 28 00 80 b3 af 00 00 4a d0 00 80 0f 5f 00 80
       -1.4624e-41 6.3029e-41 -7.472e-41 -3.41e-41
000030 c9 af 00 00 69 12 00 00 b9 7b 01 00 e6 03 00 00
       6.306e-41 6.604e-42 1.36219e-40 1.398e-42
000040 25 d0 e6 82 4a 2d 00 00 ff 87 00 80 06 2a 01 00
       -3.3914932e-37 1.6247e-41 -4.8786e-41 1.0691e-40
000050 38 7b 00 00 d7 01 00 80 5f dd 06 03 f3 a5 00 80
       4.4203e-41 -6.6e-43 3.9633182e-37 -5.9531e-41
000060 6a 62 00 80 57 88 00 00 d4 5d 00 00 e9 51 00 80
       -3.5304e-41 4.891e-41 3.3659e-41 -2.9384e-41
000070 d9 93 00 80 ac 25 01 80 73 1c 00 80 f3 68 00 80
       -5.3038e-41 -1.0535e-40 -1.0206e-41 -3.7649e-41
000080 1c 80 00 80 8d 02 e4 b3 1e 49 fe b5 18 39 6a b2
       -4.5957e-41 -1.0617541e-07 -1.8945755e-06 -1.3633574e-08
000090 9f 87 00 00 59 0b 00 00 52 9c 00 00 ff b3 a3 a2
       4.8652e-41 4.071e-42 5.6077e-41 -4.4371817e-18
0000a0 21 c3 bd 27 64 df 9c 98 ac 55 00 80 a9 d0 00 00
       5.2669597e-15 -4.055062e-24 -3.0733e-41 7.4853e-41
0000b0 5c 73 81 10 8c 2b f6 2f 22 50 00 80 8d 00 3e 96
       5.105927e-29 4.477808e-10 -2.8746e-41 -1.5348252e-25
0000c0 ce cc 54 32 f3 4e 00 00 28 ed 00 80 48 27 00 80
       1.2386591e-08 2.8322e-41 -8.5076e-41 -1.4091e-41
0000d0 16 80 00 00 59 3f 00 80 ac 86 16 31 f6 e3 4e 23
       4.5949e-41 -2.2725e-41 2.1904425e-09 1.1215555e-17
0000e0 d3 2f 02 00 c2 3a 49 22 22 8a 00 00 72 13 00 80
       2.00827e-40 2.7271686e-18 4.9553e-41 -6.976e-42
0000f0 ce 30 00 00 4b 05 00 00 6e 2c 00 80 1a 3c b4 21
       1.7508e-41 1.899e-42 -1.5938e-41 1.2213183e-18
000100 ae b5 02 80 0e b7 26 3d 7c e9 16 3e c1 28 75 3d
       -2.48845e-40 0.04070192 0.14737505 0.05985332
000110 b3 b8 b6 37 c7 6d 01 80 34 8c 00 00 56 72 68 39
       2.1782098e-05 -1.31216e-40 5.0295e-41 0.00022167838
000120 b3 5d 0b 3d bc 70 9e 38 ee 24 00 00 12 0c 00 00
       0.034024905 7.5550255e-05 1.3248e-41 4.33e-42
000130 89 21 e4 aa 31 c3 58 3d 0d 2b 00 00 8c c5 19 38
       -4.0524206e-13 0.052920524 1.5444e-41 3.6662022e-05
000140 b9 b1 17 3e a9 29 00 00 94 6b 00 80 10 36 00 00
       0.1481389 1.4945e-41 -3.8592e-41 1.9394e-41
000150 f8 b0 00 80 b3 3f ec 37 fc 60 7a 3c 2e a6 a1 3c
       -6.3484e-41 2.8163055e-05 0.015281912 0.019732561
000160 4f 59 87 37 e8 57 04 3d b4 4d 00 00 93 81 00 80
       1.6134842e-05 0.032310396 2.7875e-41 -4.6482e-41
000170 05 53 00 00 84 bf 91 2d 44 26 02 00 16 0a 7f 3b
       2.9782e-41 1.6569641e-11 1.97398e-40 0.0038915924
000180 1d 03 00 80 1a 83 09 3b d9 05 14 3c 59 b3 50 3b
       -1.117e-42 0.0020982684 0.009034597 0.003184518
000190 bc 54 83 35 76 2e 00 80 6c 2b 00 00 6b f0 26 37
       9.784922e-07 -1.6667e-41 1.5577e-41 9.950348e-06
0001a0 ce 74 d6 3a 0f 65 66 36 96 63 00 00 04 bf 00 00
       0.0016361715 3.4331495e-06 3.5725e-41 6.8523e-41
0001b0 52 76 9e 25 d8 d2 2a 3b 05 b5 00 80 2e 52 da 35
       2.7488808e-16 0.0026065614 -6.4938e-41 1.6266183e-06
0001c0 c2 7e 09 3c cb 33 00 80 50 cd 00 00 25 56 00 00
       0.008392038 -1.858e-41 7.3652e-41 3.0903e-41
0001d0 44 9d 00 80 62 6f ac 35 6f 17 4b 3a 56 cb 6d 3a
       -5.6416e-41 1.2847415e-06 0.00077473273 0.0009071132
0001e0 c3 2c 3f 35 d5 3c c2 3a 99 49 00 00 a2 32 00 00
       7.121818e-07 0.0014819155 2.6402e-41 1.8164e-41
0001f0 78 50 00 80 b4 f8 6e 2b 29 30 00 00 bf e9 38 39
       -2.8867e-41 8.489973e-13 1.7277e-41 0.00017634685
000200 80 2a 00 80 5a b2 8f 39 87 3b a3 3a 1c 14 c5 39
       -1.5246e-41 0.00027407968 0.0012453654 0.0003758975
000210 d1 0d d9 33 0d 56 00 00 ff ae 00 00 01 29 8e 35
       1.0107363e-07 3.0869e-41 6.2777e-41 1.0591758e-06
000220 c1 d5 42 39 84 ac bb 34 1c 37 00 80 d5 e5 00 80
       0.00018580911 3.4956986e-07 -1.977e-41 -8.2448e-41
000230 97 67 12 8d d0 c1 9e 39 f8 7f 00 00 16 71 35 34
       -4.5114415e-31 0.0003028051 4.5907e-41 1.6898079e-07
000240 c6 0a 84 3a 29 da 00 80 fc 10 00 80 27 75 00 00
       0.0010074012 -7.8261e-41 -6.093e-42 4.2026e-41
000250 f3 39 00 00 a6 dd 0f 34 04 12 b3 38 82 d1 d3 38
       2.0788e-41 1.3398548e-07 8.538741e-05 0.00010100288
000260 ad be a2 33 0a 23 2f 39 2a 90 00 00 e4 7f 00 00
       7.5783966e-08 0.00016702354 5.1716e-41 4.5879e-41
000270 a4 23 01 00 30 70 e0 29 e0 17 00 00 a4 a6 a1 37
       1.04621e-40 9.96706e-14 8.565e-42 1.9270294e-05
000280 22 b6 00 80 50 32 00 80 d2 72 00 00 2d 53 00 00
       -6.5337e-41 -1.8049e-41 4.119e-41 2.9838e-41
000290 46 ad 00 80 1a c1 00 80 04 a6 00 80 fc 23 00 00
       -6.2159e-41 -6.9272e-41 -5.9555e-41 1.2909e-41
0002a0 11 12 00 80 3d 3c 00 80 66 96 00 80 8e 04 00 00
       -6.481e-42 -2.161e-41 -5.3953e-41 1.634e-42
0002b0 dd 92 00 00 cd 3b 00 80 0b 0e 00 00 92 70 00 00
       5.2685e-41 -2.1452e-41 5.038e-42 4.0383e-41
0002c0 8d 82 00 00 94 53 00 80 96 aa 00 00 c9 b4 00 00
       4.6833e-41 -2.9982e-41 6.1195e-41 6.4853e-41
0002d0 d5 a5 00 00 d0 7b 00 00 2b 26 00 80 27 13 00 00
       5.949e-41 4.4416e-41 -1.3692e-41 6.87e-42
0002e0 a3 71 00 00 6e 05 00 80 c2 67 00 80 71 8d 00 00
       4.0765e-41 -1.948e-42 -3.7221e-41 5.074e-41
0002f0 25 2f 00 00 b0 18 00 80 af 2a 00 80 6d 9b 00 80
       1.6912e-41 -8.856e-42 -1.5312e-41 -5.5756e-41
000300 1f 7f 00 80 81 e3 00 00 db b6 00 00 7d 74 00 80
       -4.5602e-41 8.1613e-41 6.5596e-41 -4.1788e-41
000310 d7 b3 00 00 6a bd 00 00 e3 b2 00 00 7b 9b 00 00
       6.4514e-41 6.7949e-41 6.4172e-41 5.5776e-41
000320 dc a6 00 00 64 05 00 00 17 74 00 00 79 0c 01 80
       5.9858e-41 1.934e-42 4.1645e-41 -9.631e-41
000330 ea 64 00 00 d2 dc 02 00 9b d9 00 80 b3 60 00 80
       3.6201e-41 2.62886e-40 -7.8062e-41 -3.4689e-41
000340 22 cb 00 00 2d 67 00 00 79 b2 00 80 f2 0b 01 80
       7.287e-41 3.7012e-41 -6.4024e-41 -9.612e-41
000350 92 37 00 00 ea 84 01 80 e8 84 00 80 1f 51 00 80
       1.9935e-41 -1.39516e-40 -4.7678e-41 -2.9101e-41
000360 e9 2d 00 80 ea 9b 00 80 65 5a 00 80 67 8e 01 80
       -1.647e-41 -5.5931e-41 -3.2427e-41 -1.4292e-40
000370 65 18 00 80 19 0d 00 00 a7 2b 00 80 e5 6e 00 00
       -8.751e-42 4.699e-42 -1.566e-41 3.9781e-41
000380 07 7e 00 00 52 81 ca 38 ab 4e e8 39 cc dc 08 39
       4.521e-41 9.6561984e-05 0.000443091 0.00013052224
000390 3b a5 12 33 3d 06 00 80 5e 92 00 00 37 56 c1 34
       3.414355e-08 -2.238e-42 5.2507e-41 3.601178e-07
0003a0 36 06 84 38 50 e6 04 34 4d 36 00 00 94 74 00 80
       6.2954074e-05 1.2377245e-07 1.948e-41 -4.182e-41
0003b0 1e f6 72 94 08 80 d8 38 b9 a9 00 80 59 0f 7a 33
       -1.2266416e-26 0.0001032353 -6.0885e-41 5.822162e-08
0003c0 68 a2 b2 39 0e 16 00 80 d4 cc 00 00 9c c6 00 00
       0.00034071808 -7.912e-42 7.3478e-41 7.1248e-41
0003d0 aa c7 00 80 b2 01 45 33 d6 f8 f5 37 1f c4 0f 38
       -7.1626e-41 4.586918e-08 2.932215e-05 3.427651e-05
0003e0 2e 60 d5 32 74 a2 6b 38 08 62 00 80 03 a9 00 80
       2.4840201e-08 5.6179662e-05 -3.5167e-41 -6.063e-41
0003f0 17 da 00 80 b8 aa 1b 29 31 47 00 80 2c 42 db 36
       -7.8236e-41 3.456499e-14 -2.5539e-41 6.534412e-06

mlp.9.bias f4 [64]
000000 9b 26 00 80 a9 98 00 00 80 35 f7 3b bc 68 b2 39
       -1.3849e-41 5.4764e-41 0.0075442195 0.0003402884
000010 a0 36 18 38 d6 c5 00 00 a8 a6 00 80 a5 32 43 37
       3.6290498e-05 7.097e-41 -5.9785e-41 1.1634697e-05
000020 3a f1 bc 35 20 6a b2 3b d8 7a d7 32 1d 9f 00 80
       1.4077298e-06 0.00544478 2.5085157e-08 -5.7079e-41
000030 28 12 00 80 6d 60 00 00 79 6a c6 30 f5 d6 8d 3b
       -6.513e-42 3.4591e-41 1.4436657e-09 0.0043286034
000040 3b 3e 00 00 77 09 b7 3a 5d 31 00 80 a8 45 00 00
       2.2324e-41 0.0013964613 -1.7708e-41 2.4988e-41
000050 11 2e 00 80 4f f2 f4 3a 44 57 00 80 4b 89 bb 32
       -1.6526e-41 0.0018687936 -3.1305e-41 2.1832099e-08
000060 a4 e3 c9 34 b0 7f 00 00 36 5d 00 80 03 bf 11 31
       3.7604798e-07 4.5806e-41 -3.3438e-41 2.1208855e-09
000070 53 64 00 80 31 60 00 80 49 17 00 80 4c ad f5 38
       -3.599e-41 -3.4507e-41 -8.353e-42 0.000117147894
000080 03 ca e0 2e da 0d 00 80 9f af 64 3a 32 aa 7a 35
       1.0222225e-10 -4.969e-42 0.00087236793 9.3379924e-07
000090 20 a5 6f 3b 9b 7c 00 3c f4 60 00 80 fb 63 11 9f
       0.0036566928 0.007842208 -3.478e-41 -3.0787646e-20
0000a0 a6 24 00 00 1e be a3 a1 f5 bd 03 a5 2f 6e 01 00
       1.3147e-41 -1.1095633e-18 -1.1426799e-16 1.31362e-40
0000b0 8a 68 00 80 52 b0 00 00 ee 15 00 00 4f b0 00 80
       -3.7502e-41 6.3252e-41 7.867e-42 -6.3248e-41
0000c0 30 70 00 80 7e 5b 24 34 fe 2a 00 80 f3 05 33 3a
       -4.0245e-41 1.5306975e-07 -1.5423e-41 0.00068291946
0000d0 83 08 8e 3b 8f 1e 00 00 50 db 09 3a 13 44 00 00
       0.004334511 1.0962e-41 0.00052588154 2.442e-41
0000e0 ef 6a 4d 3b 36 dc 25 3b 34 11 c4 81 76 0c 47 9c
       0.0031344255 0.0025308258 -7.2023714e-38 -6.585968e-22
0000f0 9c 6d 00 80 f6 9e 00 80 50 70 0b 2c d7 9b 60 3b
       -3.932e-41 -5.7024e-41 1.9815434e-12 0.0034272575

mlp.12.weight f4 [128, 64]
000000 1a 72 00 80 46 a9 00 00 16 83 01 80 ca b6 00 80
       -4.0932e-41 6.0724e-41 -1.3886e-40 -6.5572e-41
000010 9a 85 00 00 85 c1 00 00 be 6d 00 00 a5 6a 00 00
       4.7927e-41 6.9422e-41 3.9368e-41 3.8257e-41
000020 1e b7 00 00 48 17 01 00 6e 2d 00 00 b2 74 00 80
       6.569e-41 1.00187e-40 1.6297e-41 -4.1862e-41
000030 74 03 00 00 e5 a7 00 00 cf 52 00 80 5d cb 00 80
       1.239e-42 6.0229e-41 -2.9706e-41 -7.2953e-41
000040 40 d6 00 00 c3 23 00 80 66 23 00 80 3c 18 01 80
       7.6858e-41 -1.2829e-41 -1.2699e-41 -1.00529e-40
000050 5f 83 00 80 c0 58 00 00 53 0f 00 80 44 41 00 80
       -4.7127e-41 3.1838e-41 -5.497e-42 -2.3413e-41
000060 57 78 00 80 aa b6 00 00 fe 60 00 00 79 f2 00 80
       -4.317e-41 6.5528e-41 3.4794e-41 -8.6983e-41
000070 52 4f 00 00 93 ba 00 80 cc a9 00 80 84 70 00 80
       2.8455e-41 -6.693e-41 -6.0912e-41 -4.0363e-41
000080 65 67 00 00 1f 32 00 00 a0 46 00 80 e8 19 00 80
       3.7091e-41 1.798e-41 -2.5335e-41 -9.293e-42
000090 6d 04 00 80 32 c7 01 80 9a 1e 01 00 b3 44 00 00
       -1.588e-42 -1.63293e-40 1.02813e-40 2.4645e-41
0000a0 63 b4 00 00 64 1f 01 00 4b 19 03 00 df 04 00 00
       6.471e-41 1.03096e-40 2.8458e-40 1.747e-42
0000b0 7b 1a 01 00 f6 6f 00 80 66 23 00 00 fa 1e 00 00
       1.01335e-40 -4.0164e-41 1.2699e-41 1.1112e-41
0000c0 0a 92 00 80 f2 cb 00 00 d0 3c 00 80 3c 37 01 80
       -5.2389e-41 7.3162e-41 -2.1815e-41 -1.1165e-40
0000d0 13 c4 00 80 7d 2c 00 80 e1 5a 00 80 d3 b1 00 00
       -7.0338e-41 -1.596e-41 -3.2601e-41 6.3791e-41
0000e0 11 a2 00 80 77 68 00 80 93 56 00 00 62 32 00 00
       -5.8138e-41 -3.7475e-41 3.1057e-41 1.8074e-41
0000f0 32 bc 00 80 12 54 00 80 7e 93 00 00 8a 3c 00 00
       -6.7512e-41 -3.0159e-41 5.291e-41 2.1717e-41
000100 0f 11 00 80 d7 95 00 00 b6 b6 bb ab 60 ad 93 a4
       -6.12e-42 5.3752e-41 -1.3337862e-12 -6.4044796e-17
000110 34 5d 97 97 48 95 00 00 a4 ce 00 00 17 0a fb 9e
       -9.781674e-25 5.3552e-41 7.4129e-41 -2.6579832e-20
000120 78 ab 0b a1 33 ff 8b aa 86 6a 85 9a f9 b7 00 00
       -4.732197e-19 -2.486844e-13 -5.517961e-23 6.5997e-41
000130 ec 24 00 80 82 7b 00 00 c5 98 60 8b 6f 81 0b aa
       -1.3245e-41 4.4306e-41 -4.3255762e-32 -1.2390586e-13
000140 76 8b 00 00 e5 ea 8c a8 14 8b 01 00 c4 d9 00 00
       5.0029e-41 -1.5644992e-14 1.41727e-40 7.812e-41
000150 6d 0d 00 80 7a 01 de a8 d0 0c 00 80 08 e4 0e 82
       -4.816e-42 -2.4647592e-14 -4.596e-42 -1.0497954e-37
000160 b2 63 c9 99 54 79 01 80 32 1f 00 80 64 33 1f 90
       -2.082318e-23 -1.3536e-40 -1.1191e-41 -3.139681e-29
000170 0f 8d 00 00 4a 6b 00 00 d2 0d 01 00 46 a4 06 9f
       5.0602e-41 3.8488e-41 9.6793e-41 -2.8511488e-20
000180 3c 33 57 8a 5b 37 01 00 de ef d8 a1 e3 0d dd a0
       -1.03615096e-32 1.11693e-40 -1.4700222e-18 -3.7448046e-19
000190 21 3f 9a a7 94 57 e6 ab 3c 5a 00 80 64 06 00 80
       -4.281203e-15 -1.6366791e-12 -3.237e-41 -2.293e-42
0001a0 54 81 00 00 fc 40 00 80 d8 42 00 80 4a 5e 00 00
       4.6394e-41 -2.3312e-41 -2.3979e-41 3.3825e-41
0001b0 c7 20 00 80 ad e2 00 00 ca 04 00 00 ba 71 00 00
       -1.1758e-41 8.1316e-41 1.718e-42 4.0797e-41
0001c0 84 0f 00 80 e8 c7 cb 83 15 ee 00 80 ed 29 87 a8
       -5.566e-42 -1.1977164e-36 -8.5408e-41 -1.5006193e-14
0001d0 f1 8a df a7 54 5b 00 00 79 85 01 a1 0c 17 00 00
       -6.2045574e-15 3.2762e-41 -4.388355e-19 8.268e-42
0001e0 61 b4 82 a8 14 6f dc a8 62 34 00 80 c7 38 00 00
       -1.4511126e-14 -2.4473079e-14 -1.8791e-41 2.0368e-41
0001f0 78 8a 00 00 82 2b 00 80 a1 40 37 8b 1d 8c 5b a8
       4.9673e-41 -1.5608e-41 -3.529314e-32 -1.2187324e-14
000200 73 b9 00 00 e5 bb 00 00 f6 29 00 80 94 79 00 00
       6.6527e-41 6.7404e-41 -1.5053e-41 4.3614e-41
000210 e4 5b 00 00 43 38 00 00 c8 03 00 80 86 4e 00 80
       3.2964e-41 2.0183e-41 -1.356e-42 -2.8169e-41
000220 73 d6 00 00 cf 33 00 80 9b 3f 02 80 9a b5 00 80
       7.693e-41 -1.8585e-41 -2.06488e-40 -6.5146e-41
000230 76 63 00 80 74 3b 00 00 8a 30 00 80 19 0b 00 00
       -3.568e-41 2.1328e-41 -1.7413e-41 3.981e-42
000240 24 1e 00 00 14 0d 00 80 de a8 00 80 70 97 00 00
       1.0812e-41 -4.692e-42 -6.0578e-41 5.4326e-41
000250 d0 16 00 80 3d 72 00 00 10 70 00 00 5a bd 00 80
       -8.184e-42 4.0981e-41 4.02e-41 -6.7927e-41
000260 e2 b3 00 80 7a 45 00 00 cd 6e 00 80 3b b6 00 80
       -6.453e-41 2.4923e-41 -3.9748e-41 -6.5372e-41
000270 17 4e 00 00 2c b3 00 80 9f 6b 00 00 b1 51 00 00
       2.8013e-41 -6.4275e-41 3.8607e-41 2.9305e-41
000280 ff aa 00 80 c7 67 00 00 29 24 00 00 20 d7 00 00
       -6.1342e-41 3.7228e-41 1.2972e-41 7.7172e-41
000290 7b 4f 00 00 6d 7e 00 80 4a 55 00 00 8e 3e 00 00
       2.8512e-41 -4.5353e-41 3.0596e-41 2.244e-41
0002a0 67 09 00 00 3a 83 00 80 da 32 00 00 ec ba 00 00
       3.373e-42 -4.7075e-41 1.8242e-41 6.7055e-41
0002b0 63 88 01 00 09 3d 00 00 a4 58 00 00 8e 04 00 80
       1.40762e-40 2.1895e-41 3.1798e-41 -1.634e-42
0002c0 41 c2 00 80 12 25 00 00 6d 85 00 00 06 43 00 00
       -6.9685e-41 1.3298e-41 4.7864e-41 2.4043e-41
0002d0 cd b8 00 80 3e 61 00 00 3c 5a 00 80 5f c5 00 00
       -6.6294e-41 3.4884e-41 -3.237e-41 7.0803e-41
0002e0 54 36 00 00 61 91 00 00 ed cb 01 80 60 05 00 80
       1.9489e-41 5.2152e-41 -1.6499e-40 -1.928e-42
0002f0 4d a8 00 00 39 7b 04 00 ad 21 00 80 6e 7c 00 80
       6.0375e-41 4.11546e-40 -1.208e-41 -4.4637e-41
000300 75 60 00 00 76 91 00 80 81 af 00 80 12 51 00 80
       3.4602e-41 -5.2182e-41 -6.2959e-41 -2.9083e-41
000310 07 82 00 00 e4 43 00 00 6a 9c 00 00 12 46 00 80
       4.6645e-41 2.4355e-41 5.6111e-41 -2.5136e-41
000320 73 0a 00 00 af 7d 00 80 3d 02 00 80 86 bd 00 00
       3.748e-42 -4.5087e-41 -8.03e-43 6.7988e-41
000330 1d 90 00 80 ef 32 00 80 a4 84 00 80 a5 ad 00 80
       -5.1698e-41 -1.8272e-41 -4.7582e-41 -6.2292e-41
000340 3b 51 00 00 22 30 00 80 ed 81 01 80 d0 d6 00 80
       2.914e-41 -1.7267e-41 -1.38444e-40 -7.706e-41
000350 8f 5d 00 00 fc 2d 00 80 83 d5 00 80 3a b6 00 80
       3.3562e-41 -1.6496e-41 -7.6594e-41 -6.537e-41
000360 3d 61 00 80 a0 17 00 00 5e c4 00 00 9a b7 00 00
       -3.4883e-41 8.475e-42 7.0443e-41 6.5864e-41
000370 8c 61 00 00 41 b9 00 80 99 7d 00 80 3d 80 00 00
       3.4993e-41 -6.6457e-41 -4.5056e-41 4.6003e-41
000380 a7 38 00 00 48 27 00 00 db a6 00 80 4d 85 00 00
       2.0323e-41 1.4091e-41 -5.9856e-41 4.782e-41
000390 af 93 00 00 a3 84 00 80 b5 47 00 80 a7 33 00 80
       5.2979e-41 -4.7581e-41 -2.5724e-41 -1.853e-41
0003a0 f7 d1 00 00 34 5f 00 00 d6 62 00 80 ad 9d 00 80
       7.5321e-41 3.4152e-41 -3.5456e-41 -5.6563e-41
0003b0 db 22 00 00 83 a0 00 00 5d bb 00 80 38 34 00 00
       1.2504e-41 5.7581e-41 -6.7213e-41 1.8733e-41
0003c0 ef 37 00 80 11 6b 00 00 cf a3 00 80 3e 1a 00 80
       -2.0065e-41 3.8408e-41 -5.8763e-41 -9.414e-42
0003d0 d1 85 00 80 ac a4 00 80 f0 79 00 80 9e bd 00 00
       -4.8004e-41 -5.9073e-41 -4.3743e-41 6.8022e-41
0003e0 d6 5f 00 80 94 08 00 00 30 4f 00 80 72 c0 00 00
       -3.438e-41 3.077e-42 -2.8407e-41 6.9036e-41
0003f0 ce 75 00 80 b4 7b 00 00 25 6c 00 00 48 44 00 00
       -4.226e-41 4.4376e-41 3.8795e-41 2.4495e-41

mlp.12.bias f4 [128]
000000 a2 72 00 80 46 17 00 00 b9 70 00 00 06 0a 00 80
       -4.1123e-41 8.349e-42 4.0437e-41 -3.596e-42
000010 a5 1d 1e 39 8b 3d 02 80 c5 12 b6 3b 98 c2 ea 3b
       0.00015079098 -2.05748e-40 0.0055564367 0.0071643107
000020 ae e8 00 00 d2 20 f2 3b 78 35 00 00 f2 0b 00 00
       8.347e-41 0.0073891664 1.9181e-41 4.285e-42
000030 e4 0a 00 80 1e ab d2 3b 40 53 8d 25 86 5e 2f 3c
       -3.907e-42 0.00642909 2.4516013e-16 0.0107036885
000040 e7 75 00 80 de 30 00 00 39 d8 00 00 86 76 00 80
       -4.2295e-41 1.753e-41 7.7566e-41 -4.2518e-41
000050 e0 34 33 28 21 04 00 80 f9 57 00 80 fa 61 a7 9f
       9.9479615e-15 -1.481e-42 -3.1559e-41 -7.088934e-20
000060 cd 38 00 00 60 41 0c 3c b8 02 c1 87 b3 2b 00 80
       2.0376e-41 0.0085605085 -2.904101e-34 -1.5676e-41
000070 09 0e 2d 31 17 6a ec 38 6f c7 4f 39 80 21 00 00
       2.5182791e-09 0.00011273118 0.00019815353 1.2018e-41
000080 37 3e 00 00 4e 0c 86 3b 7d 8d 00 80 7a bd 85 33
       2.2318e-41 0.0040908223 -5.0756e-41 6.227761e-08
000090 a2 f7 00 00 bc 41 6d 3b a8 27 00 80 53 09 00 00
       8.8834e-41 0.003620251 -1.4226e-41 3.345e-42
0000a0 11 a4 00 00 8b c1 00 80 49 23 8a 2f d3 17 00 80
       5.8856e-41 -6.943e-41 2.5127125e-10 -8.547e-42
0000b0 b1 85 31 39 0f 9d 0c 3b 7d 93 95 30 b7 7c ad 98
       0.0001692984 0.002145592 1.0883096e-09 -4.484538e-24
0000c0 2a a5 00 80 0e 82 00 80 cb 38 07 8f 89 e0 00 00
       -5.925e-41 -4.6655e-41 -6.666952e-30 8.0548e-41
0000d0 1e 24 00 00 ba 2c 0b 80 24 58 27 3c e5 61 8e 36
       1.2956e-41 -1.026235e-39 0.010213885 4.243326e-06
0000e0 fc 21 00 00 bd 3d 00 00 a1 78 d6 3b e7 24 00 80
       1.2191e-41 2.2148e-41 0.006545142 -1.3238e-41
0000f0 90 22 00 80 14 f3 10 33 c3 3c 00 80 4d b0 09 35
       -1.2399e-41 3.374869e-08 -2.1797e-41 5.129303e-07
000100 8b e2 10 3a ae 5b 00 80 f2 34 0f 3c 87 7c 00 80
       0.00055269216 -3.2888e-41 0.0087406505 -4.4672e-41
000110 ad 06 00 00 49 f5 f0 3a bc 18 56 3c 9a 79 00 80
       2.395e-42 0.0018383648 0.013067421 -4.3622e-41
000120 4d 0a 00 00 9d 0f 00 80 b3 0b 00 80 f0 41 00 80
       3.695e-42 -5.601e-42 -4.197e-42 -2.3654e-41
000130 61 6b 00 80 eb 3d fd 38 a3 f9 86 8e 57 56 00 00
       -3.852e-41 0.00012075513 -3.327394e-30 3.0973e-41
000140 ff 3e 43 3b db 30 00 00 4e 2a 00 00 c3 51 00 80
       0.0029792187 1.7526e-41 1.5176e-41 -2.933e-41
000150 d4 76 00 80 de 09 00 80 8c 7a a1 97 17 ce 84 39
       -4.2627e-41 -3.54e-42 -1.0435316e-24 0.0002533055
000160 23 6f 00 00 a3 80 94 3b 4b 1c 2e 3c db f2 1c 9e
       3.9868e-41 0.0045319363 0.010626863 -8.3087926e-21
000170 a1 5c 00 00 7c aa 00 80 2f c2 00 00 ea 23 00 80
       3.3229e-41 -6.1158e-41 6.966e-41 -1.2884e-41
000180 87 3f 00 00 a0 34 00 00 dd a8 00 80 c3 80 00 80
       2.279e-41 1.8878e-41 -6.0577e-41 -4.6191e-41
000190 ec 07 01 00 e9 e8 71 a2 ee 14 00 80 6a 0c da 37
       9.4677e-41 -3.2784892e-18 -7.508e-42 2.5993406e-05
0001a0 3a de 00 80 6a b7 00 80 2f 44 03 00 76 5e 00 80
       -7.972e-41 -6.5797e-41 2.99966e-40 -3.3886e-41
0001b0 44 8d 00 80 73 1e 1d 3b a9 1f 7a 9e 6f 08 f3 26
       -5.0677e-41 0.0023974448 -1.3241437e-20 1.6863798e-15
0001c0 d8 19 00 00 93 81 00 80 d5 82 00 80 e4 87 b9 3a
       9.271e-42 -4.6482e-41 -4.6934e-41 0.0014154878
0001d0 a5 44 00 80 2d 6d 00 00 04 91 c9 36 14 65 21 3c
       -2.4625e-41 3.9165e-41 6.007149e-06 0.009850759
0001e0 5b 18 00 00 06 b4 00 00 df 2d 00 80 72 b0 07 3c
       8.737e-42 6.458e-41 -1.6455e-41 0.008281814
0001f0 49 92 00 00 0a 93 01 80 5a 99 07 80 67 14 00 00
       5.2477e-41 -1.44583e-40 -6.9786e-40 7.319e-42

mlp.15.weight f4 [64, 128]
000000 71 8e 00 80 51 42 be 24 89 e2 00 80 e3 60 00 00
       -5.1098e-41 8.251171e-17 -8.1266e-41 3.4756e-41
000010 66 28 37 3a ff ff 00 80 0c 98 b8 3c e0 68 ea 3c
       0.0006986916 -9.1834e-41 0.02253344 0.028614461
000020 a7 b2 00 80 d4 79 f1 3c 48 5a 00 00 77 33 00 00
       -6.4088e-41 0.029477037 3.2387e-41 1.8462e-41
000030 b2 92 00 00 98 c2 d3 3c 5f 27 9e 27 3b 3d 2b 3d
       5.2624e-41 0.025849625 4.3896496e-15 0.04180644
000040 c8 26 00 80 ad 32 60 18 84 ef 00 00 fc 8a 00 00
       -1.3912e-41 2.8976906e-24 8.5922e-41 4.9858e-41
000050 f8 bb 74 29 16 9f 00 80 07 66 00 80 5c c1 ea 20
       5.434192e-14 -5.7069e-41 -3.66e-41 3.9769096e-19
000060 8b 56 00 80 cc cd 0a 3d 99 71 48 87 9d 59 01 80
       -3.1046e-41 0.03388767 -1.5079711e-34 -1.23983e-40
000070 6d 23 83 32 e1 f1 0b 3a c6 c8 71 3a 0c a3 00 80
       1.5266517e-08 0.0005338472 0.0009223338 -5.849e-41
000080 05 22 01 00 6c 67 8a 3c 7f 35 00 80 46 8d be 34
       1.0404e-40 0.016895019 -1.9191e-41 3.5493048e-07
000090 3d 07 00 80 37 b6 72 3c d3 06 00 80 68 75 01 80
       -2.597e-42 0.014813951 -2.448e-42 -1.33953e-40
0000a0 f3 10 00 80 e5 80 00 80 fc e2 d8 30 a5 4a 00 80
       -6.08e-42 -4.6239e-41 1.5780581e-09 -2.6777e-41
0000b0 ee 2e 4f 3a 96 3d 15 3c be ce ee 31 8a 14 17 1a
       0.00079034164 0.0091089215 6.9502155e-09 3.124266e-23
0000c0 29 57 00 80 97 32 00 80 20 72 f4 0e 24 88 00 80
       -3.1267e-41 -1.8148e-41 6.0260542e-30 -4.8838e-41
0000d0 54 6f 00 80 10 b8 37 00 21 2a 24 3d 4e 6e af 37
       -3.9937e-41 5.116981e-39 0.04007924 2.091299e-05
0000e0 42 78 00 80 d7 2c 00 80 49 55 d7 3c 09 5d 00 00
       -4.314e-41 -1.6086e-41 0.026285784 3.3375e-41
0000f0 36 67 00 80 6d b7 49 34 df 71 34 14 90 33 2e 36
       -3.7025e-41 1.8786314e-07 9.110135e-27 2.5958034e-06
000100 61 dc 22 3b 61 37 00 00 97 6b 0d 3d 06 65 01 00
       0.0024850594 1.9866e-41 0.034526434 1.28076e-40
000110 a8 10 00 80 4a fd 00 3c 7b 9d 4f 3d 03 c6 00 80
       -5.975e-42 0.007872889 0.050687294 -7.1033e-41
000120 a9 38 00 80 12 41 00 00 8c 32 00 00 0d 8b 00 80
       -2.0326e-41 2.3343e-41 1.8133e-41 -4.9882e-41
000130 71 31 00 80 06 6e 15 3a d5 fa a1 9f 5e 0b 00 80
       -1.7736e-41 0.00057002937 -6.860112e-20 -4.078e-42
000140 99 4f 4d 3c b9 be 00 80 20 af 02 80 7f 01 00 80
       0.012531185 -6.8418e-41 -2.46494e-40 -5.37e-43
000150 01 d3 00 80 df f2 02 80 be 7e 23 18 73 d0 96 3a
       -7.5694e-41 -2.70797e-40 2.1131245e-24 0.0011506215
000160 16 a1 00 80 71 a2 98 3c 07 b6 2a 3d df 19 82 22
       -5.7787e-41 0.018632146 0.0416775 3.5263963e-18
000170 5d 50 00 80 81 3d 27 15 23 03 01 80 7d 5e 00 80
       -2.8829e-41 3.37739e-26 -9.2961e-41 -3.3896e-41
000180 6e fc 6e 23 13 18 00 80 57 1b 0b 80 e4 2b 00 80
       1.295546e-17 -8.636e-42 -1.019998e-39 -1.5745e-41
000190 4c a9 00 00 01 9c 2c 23 90 bb 02 00 88 b9 04 39
       6.0732e-41 9.357174e-18 2.50956e-40 0.00012657617
0001a0 10 f6 00 00 73 b0 00 00 bd aa 00 80 76 83 01 80
       8.827e-41 6.3298e-41 -6.125e-41 -1.38995e-40
0001b0 7c 2e 00 80 52 88 25 3c df 8f f9 1e e1 10 38 28
       -1.6675e-41 0.010103302 2.6423404e-20 1.0217712e-14
0001c0 a2 1b 00 80 cc bb 5c 00 6b 51 05 80 c4 48 c7 3b
       -9.913e-42 8.516234e-39 -4.88385e-40 0.0060816724
0001d0 52 9b 02 80 d4 6b 00 80 92 2a 03 38 14 82 1e 3d
       -2.3939e-40 -3.8681e-41 3.127248e-05 0.03869827
0001e0 56 30 00 00 45 88 00 80 0c 39 93 01 9d 8b 06 3d
       1.734e-41 -4.8884e-41 5.408113e-38 0.03284799
0001f0 b9 4b 00 00 4a a6 00 80 1d 21 03 00 2b bc 00 80
       2.7164e-41 -5.9653e-41 2.87385e-40 -6.7502e-41
000200 9c 40 00 80 dc 58 00 80 7d 2b 00 00 6f ff 00 80
       -2.3177e-41 -3.1877e-41 1.56e-41 -9.1632e-41
000210 65 0f 00 80 17 86 01 80 3c 69 00 80 0d ae 00 80
       -5.523e-42 -1.39938e-40 -3.7751e-41 -6.2438e-41
000220 7c 1e 00 00 82 9b 00 80 95 12 00 00 86 36 00 80
       1.0936e-41 -5.5786e-41 6.666e-42 -1.956e-41
000230 db bc 00 00 57 b7 00 80 86 a9 00 80 fe 95 00 80
       6.7749e-41 -6.577e-41 -6.0814e-41 -5.3807e-41
000240 a7 6f 00 00 44 5d 00 00 0a 3c 00 00 82 e4 00 80
       4.0053e-41 3.3457e-41 2.1538e-41 -8.1973e-41
000250 3d 7d 00 80 f6 92 01 80 3e 5a 00 00 46 34 00 00
       -4.4927e-41 -1.44555e-40 3.2373e-41 1.8752e-41
000260 f2 9c 00 00 a1 94 00 80 c2 a7 00 80 b9 85 00 80
       5.6301e-41 -5.3318e-41 -6.018e-41 -4.797e-41
000270 49 48 00 80 0e 51 00 00 b2 ab 00 00 47 43 00 80
       -2.5931e-41 2.9077e-41 6.1593e-41 -2.4135e-41
000280 36 a8 00 80 47 50 00 80 bd 72 00 00 2b 72 00 80
       -6.0343e-41 -2.8798e-41 4.116e-41 -4.0956e-41
000290 d0 bc 00 80 3b 78 00 80 f1 95 00 80 7e ad 00 00
       -6.7733e-41 -4.313e-41 -5.3789e-41 6.2237e-41
0002a0 08 12 00 00 50 4c 00 00 3e c2 00 80 be 33 00 80
       6.468e-42 2.7376e-41 -6.9681e-41 -1.8562e-41
0002b0 97 47 00 00 cd 3e 00 00 ca 66 00 80 60 4f 00 00
       2.5682e-41 2.2529e-41 -3.6874e-41 2.8474e-41
0002c0 74 cd 00 00 14 04 01 80 41 23 00 80 c4 4f 00 80
       7.3703e-41 -9.3298e-41 -1.2647e-41 -2.8615e-41
0002d0 9d 13 01 80 bb ef 00 80 e0 af 00 80 e1 38 00 80
       -9.8871e-41 -8.5999e-41 -6.3092e-41 -2.0404e-41
0002e0 1f 3d 00 80 6c 8b 00 00 14 ad 00 80 f2 0c 00 80
       -2.1926e-41 5.0015e-41 -6.2089e-41 -4.644e-42
0002f0 4a 75 00 80 49 d5 00 00 61 26 00 80 a3 60 00 80
       -4.2075e-41 7.6512e-41 -1.3768e-41 -3.4667e-41
000300 f1 9e 00 80 b1 9e 00 00 e7 62 01 80 2a 90 00 80
       -5.7017e-41 5.6928e-41 -1.27315e-40 -5.1716e-41
000310 a5 1b 00 80 b0 93 00 80 b6 d9 00 80 01 86 00 00
       -9.917e-42 -5.298e-41 -7.81e-41 4.8072e-41
000320 08 c0 00 80 4f d0 00 00 f3 b8 00 80 bd ba 00 80
       -6.8888e-41 7.4727e-41 -6.6347e-41 -6.6989e-41
000330 2b 83 00 80 c0 ab 00 00 d2 94 00 00 df 56 00 00
       -4.7054e-41 6.1612e-41 5.3387e-41 3.1163e-41
000340 26 54 00 80 2f eb 01 00 25 c1 00 80 f8 a1 00 00
       -3.0187e-41 1.76203e-40 -6.9287e-41 5.8103e-41
000350 f2 28 00 00 8f 96 00 00 5b 10 00 00 ce 10 00 00
       1.4688e-41 5.401e-41 5.867e-42 6.028e-42
000360 4e 78 00 00 43 89 00 80 a8 9b 00 80 e1 9f 00 80
       4.3157e-41 -4.924e-41 -5.5839e-41 -5.7354e-41
000370 b7 93 00 00 41 76 00 00 2b 69 00 80 65 39 02 00
       5.299e-41 4.2422e-41 -3.7727e-41 2.0426e-40
000380 9f be 00 00 a9 27 00 80 ee b9 00 00 ef 2a 00 80
       6.8382e-41 -1.4227e-41 6.6699e-41 -1.5402e-41
000390 0f 61 00 00 33 7e 00 80 9c 4a 02 00 18 55 00 00
       3.4818e-41 -4.5272e-41 2.10436e-40 3.0526e-41
0003a0 b6 ea 00 80 79 80 00 80 a4 4d 01 00 cf 87 00 80
       -8.4198e-41 -4.6087e-41 1.19688e-40 -4.8719e-41
0003b0 08 6b 00 80 6b 49 00 80 84 94 00 80 d7 72 00 80
       -3.8396e-41 -2.6337e-41 -5.3277e-41 -4.1197e-41
0003c0 cb 39 01 80 9e 85 00 00 27 91 00 00 94 ab 00 00
       -1.12568e-40 4.7933e-41 5.2071e-41 6.155e-41
0003d0 81 11 00 00 5b d7 01 00 1d 1b 00 00 cd d1 00 80
       6.279e-42 1.6909e-40 9.726e-42 -7.5262e-41
0003e0 56 ce 00 80 5f 57 00 00 df 92 00 00 4f a5 00 80
       -7.402e-41 3.1343e-41 5.2687e-41 -5.9302e-41
0003f0 12 0a 01 00 c3 67 00 80 e5 49 00 80 93 45 00 00
       9.5448e-41 -3.7223e-41 -2.6508e-41 2.4959e-41

mlp.15.bias f4 [64]
000000 41 b2 9f 3c 6d 80 00 80 f3 c1 47 3c d7 d7 18 3a
       0.019494178 -4.607e-41 0.012192237 0.00058305025
000010 49 4b 00 80 02 33 42 3c 01 08 00 80 ae a3 00 00
       -2.7007e-41 0.0118529815 -2.871e-42 5.8717e-41
000020 95 3b 00 80 d1 5c 00 80 f6 c8 08 93 73 31 3d a9
       -2.1374e-41 -3.3296e-41 -1.7264695e-27 -4.200932e-14
000030 a2 f8 f4 36 71 72 00 80 ae 3c 00 80 ae c8 c8 3c
       7.3007113e-06 -4.1054e-41 -2.1768e-41 0.024509754
000040 b0 60 00 80 9d 8c f0 3b fa 59 00 80 f8 62 00 00
       -3.4685e-41 0.007340981 -3.2278e-41 3.5503e-41
000050 62 bd 00 80 c3 60 00 80 cb 05 00 80 52 df 64 a3
       -6.7938e-41 -3.4712e-41 -2.078e-42 -1.2407195e-17
000060 1d f4 2c a7 77 82 00 00 3c ac 00 80 e1 32 e1 3c
       -2.400213e-15 4.6802e-41 -6.1786e-41 0.027490081
000070 00 8a 00 80 28 c5 00 80 09 c4 00 80 b2 a6 00 80
       -4.9505e-41 -7.0726e-41 -7.0324e-41 -5.9799e-41
000080 3f 0e 00 00 bc bf 00 00 6b a0 00 80 be a3 70 8c
       5.11e-42 6.8781e-41 -5.7547e-41 -1.8538202e-31
000090 23 36 01 80 fe 33 00 80 c9 37 00 80 a2 6d 00 80
       -1.11256e-40 -1.8651e-41 -2.0012e-41 -3.9329e-41
0000a0 ed b4 00 80 c9 b0 00 80 9d 70 d0 3c 69 b0 96 3c
       -6.4904e-41 -6.3419e-41 0.025444323 0.018394666
0000b0 dc 08 00 00 8e 3b 00 80 d7 42 4e 3c 19 37 00 00
       3.178e-42 -2.1364e-41 0.012589178 1.9765e-41
0000c0 ba 97 26 33 4f 39 02 3b 91 37 00 00 b7 9f 00 80
       3.878788e-08 0.0019870584 1.9933e-41 -5.7295e-41
0000d0 09 e8 55 a7 37 98 00 00 f4 2a ad 3c a9 d8 00 00
       -2.9685475e-15 5.4604e-41 0.021138646 7.7723e-41
0000e0 b1 45 f5 8c d7 f7 1b 3b 91 ea 14 3d 7c 35 00 00
       -3.779017e-31 0.0023798847 0.036356512 1.9187e-41
0000f0 a7 51 00 00 41 79 4a 38 f8 79 00 00 bd 6c 88 3c
       2.9291e-41 4.827348e-05 4.3754e-41 0.016653413

mlp.18.weight f4 [8, 64]
000000 77 11 00 80 cf 2a 00 00 91 9b 00 80 42 18 00 80
       -6.265e-42 1.5357e-41 -5.5807e-41 -8.702e-42
000010 55 04 02 00 70 0b 00 00 f4 55 00 00 21 85 00 00
       1.85225e-40 4.103e-42 3.0834e-41 4.7758e-41
000020 ff e9 00 00 d1 88 00 00 ae d7 00 80 9c 03 00 00
       8.3942e-41 4.908e-41 -7.7371e-41 1.295e-42
000030 26 b3 00 00 28 65 00 80 08 5e 00 00 1a 6b 00 80
       6.4266e-41 -3.6288e-41 3.3732e-41 -3.8421e-41
000040 18 f5 00 00 2a 3b 00 80 d3 58 00 80 6b 8c 00 80
       8.7923e-41 -2.1224e-41 -3.1864e-41 -5.0372e-41
000050 29 5e 00 00 2c 00 00 80 b6 9a 00 80 e9 f4 00 00
       3.3778e-41 -6.2e-44 -5.55e-41 8.7857e-41
000060 55 aa 00 00 0f 42 00 80 38 b7 00 00 bc 47 00 80
       6.1104e-41 -2.3697e-41 6.5727e-41 -2.5733e-41
000070 64 14 01 00 87 b5 00 80 61 35 00 00 e3 54 00 80
       9.915e-41 -6.512e-41 1.9149e-41 -3.0452e-41
000080 09 a7 00 00 c8 8c 00 00 e0 70 00 00 c5 22 00 00
       5.9921e-41 5.0503e-41 4.0492e-41 1.2473e-41
000090 20 c8 01 00 12 43 00 00 82 1b 00 80 c0 19 00 80
       1.63627e-40 2.406e-41 -9.868e-42 -9.237e-42
0000a0 a8 7e 00 80 b3 18 00 00 10 79 00 80 d1 1c 00 00
       -4.5436e-41 8.86e-42 -4.3429e-41 1.0337e-41
0000b0 82 26 00 00 cc 57 00 80 42 0b 00 80 e9 4c 00 00
       1.3814e-41 -3.1496e-41 -4.039e-42 2.759e-41
0000c0 d0 02 00 00 31 2b 00 80 c2 29 00 80 16 85 00 80
       1.009e-42 -1.5494e-41 -1.498e-41 -4.7742e-41
0000d0 55 b7 00 00 ff 38 01 80 7b 5a 00 80 d3 74 00 00
       6.5767e-41 -1.12282e-40 -3.2458e-41 4.1909e-41
0000e0 e8 b8 00 80 d4 17 00 00 fe 97 00 80 f6 c2 00 80
       -6.6332e-41 8.548e-42 -5.4525e-41 -6.9939e-41
0000f0 2b 89 00 80 e7 ae 00 00 cf 1d 00 00 37 6b 00 00
       -4.9207e-41 6.2743e-41 1.0693e-41 3.8461e-41
000100 98 49 85 3d c7 54 00 80 c0 8a 4f 3d 7a d6 44 3b
       0.065081775 -3.0412e-41 0.05066943 0.0030035065
000110 7f 44 00 00 55 3f 3d 3d ee 2a 00 00 0d 8f 1b 15
       2.4572e-41 0.046202976 1.54e-41 3.1414848e-26
000120 4d 2a 00 80 c1 cb 00 80 90 cf e3 2f 96 be 91 a8
       -1.5175e-41 -7.3093e-41 4.1438541e-10 -1.6180887e-14
000130 15 92 25 36 ec c7 54 80 da aa 00 80 ff 39 bd 3d
       2.4671947e-06 -7.7859e-39 -6.129e-41 0.092395775
000140 09 3a 00 00 38 52 ee 3c 55 ca 1b 87 1c 77 00 80
       2.0819e-41 0.02909194 -1.1720364e-34 -4.2728e-41
000150 90 9d 00 80 e9 77 0f 81 04 62 00 00 53 27 d9 a1
       -5.6523e-41 -2.6350983e-38 3.5161e-41 -1.4714901e-18
000160 2d a8 92 a5 a2 66 01 80 20 2f 00 80 0b b9 e4 3d
       -2.5440923e-16 -1.28653e-40 -1.6905e-41 0.11168107
000170 da 1b 00 00 c8 3a 00 00 b0 63 3b a3 54 8f 00 00
       9.991e-42 2.1087e-41 -1.01584e-17 5.1416e-41
000180 47 c5 88 b7 88 1c fb 0d 28 14 00 00 76 73 32 8c
       -1.6304328e-05 1.5475938e-30 7.23e-42 -1.3747366e-31
000190 65 09 00 00 28 14 00 80 5f 39 00 00 c0 5b 00 80
       3.37e-42 -7.23e-42 2.0581e-41 -3.2914e-41
0001a0 ff f7 96 32 71 a8 00 00 56 72 c2 3d d8 4f 8b 3d
       1.7575074e-08 6.0425e-41 0.09494464 0.06802338
0001b0 20 58 00 00 01 95 00 80 28 03 7b 3d 5c 5c 00 80
       3.1613e-41 -5.3453e-41 0.061282307 -3.3132e-41
0001c0 97 9b 59 33 05 8d ec 3b ff de 00 00 0a 6a 00 00
       5.0665758e-08 0.0072189593 7.9996e-41 3.804e-41
0001d0 b2 ec 9c 26 9c 15 76 a1 78 ba c4 3d 34 8d 00 00
       1.0888831e-15 -8.337664e-19 0.096058786 5.0654e-41
0001e0 6a 33 15 8d eb fd 1a 3c 0e 0a 1d 3e ed b9 00 00
       -4.5976057e-31 0.009459953 0.15335867 6.6698e-41
0001f0 a5 48 06 9c 59 bc cf 37 e7 69 00 00 90 0a 89 3d
       -4.443077e-22 2.476403e-05 3.799e-41 0.06691468
000200 12 a4 de af 7e a3 00 00 96 25 25 af d9 03 58 ad
       -4.0498144e-10 5.865e-41 -1.5020016e-10 -1.2279033e-11
000210 be 7d 00 80 de 6e 0a af 3b 3d 00 80 b7 3a 00 00
       -4.5108e-41 -1.2590415e-10 -2.1965e-41 2.1063e-41
000220 39 aa 00 00 d8 c4 00 00 17 44 ce 29 16 55 69 9c
       6.1064e-41 7.0614e-41 9.1600494e-14 -7.7203204e-22
000230 e5 8f 85 aa bc 14 00 00 7d 1f 00 80 89 99 a6 af
       -2.3725393e-13 7.438e-42 -1.1296e-41 -3.0304317e-10
000240 40 15 00 00 cc 80 05 33 90 43 00 00 4e 8c 00 00
       7.623e-42 3.1083616e-08 2.4237e-41 5.0332e-41
000250 30 34 00 80 d8 e2 00 80 6c f6 01 80 1f b2 db 18
       -1.8721e-41 -8.1376e-41 -1.80235e-40 5.679003e-24
000260 d2 b3 19 9a 89 2e 00 00 23 3a 00 80 09 83 a4 af
       -3.1784916e-23 1.6694e-41 -2.0856e-41 -2.9924532e-10
000270 5d c9 00 00 48 44 00 00 75 08 01 00 02 6e 30 15
       7.2236e-41 2.4495e-41 9.487e-41 3.5629698e-26
000280 65 ad a4 32 41 08 00 00 cf 7d 00 00 fc 80 0c 80
       1.9170963e-08 2.961e-42 4.5132e-41 -1.148297e-39
000290 fc b8 00 00 b7 2d 00 80 ab 48 01 00 75 5e 00 00
       6.636e-41 -1.64e-41 1.17904e-40 3.3885e-41
0002a0 19 a6 2f 9c 77 18 ea 20 9e f8 92 af 21 76 5a af
       -5.811732e-22 3.9657331e-19 -2.6733898e-10 -1.9868952e-10
0002b0 59 61 00 80 99 f3 fa 00 6d 3c 56 af f7 a7 00 80
       -3.4922e-41 2.304626e-38 -1.9484654e-10 -6.0254e-41
0002c0 bc c6 93 ac 91 44 38 ae 35 b9 00 80 52 1c 00 80
       -4.2000552e-12 -4.1897655e-11 -6.644e-41 -1.016e-41
0002d0 44 9f b4 26 ec 67 00 00 37 7f f8 af 50 8e 00 00
       1.2533178e-15 3.728e-41 -4.520133e-10 5.1052e-41
0002e0 a2 15 15 80 e6 0d 11 ae 09 c4 2d b0 08 6b 00 80
       -1.936306e-39 -3.2981527e-11 -6.3215616e-10 -3.8396e-41
0002f0 c3 fc b9 27 98 fa 0d b5 66 5f 00 00 51 93 3c af
       5.162186e-15 -5.2891255e-07 3.4223e-41 -1.7150838e-10
000300 53 4b 97 3c 05 73 01 80 b2 32 3b 3c 45 a4 04 3a
       0.018468535 -1.33097e-40 0.011425661 0.00050598785
000310 6f 50 00 80 46 17 34 3c 6b 74 00 00 92 8c 00 00
       -2.8854e-41 0.010991877 4.1763e-41 5.0427e-41
000320 31 a3 00 80 8f 9a 00 80 c0 69 00 80 c2 36 a8 a9
       -5.8542e-41 -5.5445e-41 -3.7936e-41 -7.470198e-14
000330 eb 62 79 36 39 9c 00 80 b6 2f 00 80 91 88 c1 3c
       3.716147e-06 -5.6042e-41 -1.7115e-41 0.02362469
000340 3c 63 00 80 2d 3b d5 3b c9 93 00 80 f4 ad 00 00
       -3.5599e-41 0.0065072984 -5.3015e-41 6.2403e-41
000350 b7 c8 01 80 46 5b 04 80 91 73 00 00 1b e9 07 a4
       -1.63838e-40 -4.00085e-40 4.1457e-41 -2.9470907e-17
000360 4b 9a 24 a8 46 4d 01 80 12 b6 00 80 ad de dd 3c
       -9.137286e-15 -1.19556e-40 -6.5315e-41 0.02708372
000370 ce 43 00 80 96 22 00 00 5a fa c6 96 26 52 00 00
       -2.4324e-41 1.2407e-41 -3.214662e-25 2.947e-41
000380 8d 21 fe a0 72 c2 98 00 87 65 00 80 88 4f 15 8c
       -4.3051476e-19 1.4028749e-38 -3.6421e-41 -1.1502476e-31
000390 79 6a 00 80 12 41 00 00 2f 0b 00 00 cd 92 00 80
       -3.8195e-41 2.3343e-41 4.012e-42 -5.2662e-41
0003a0 5e fa cb 2b 39 bc 00 00 39 e3 cb 3c 29 39 8f 3c
       1.4493508e-12 6.7522e-41 0.024888622 0.01748331
0003b0 1b a5 01 00 a1 7d 00 80 9e 4b 46 3c 3a 72 00 00
       1.51064e-40 -4.5067e-41 0.0121029895 4.0977e-41
0003c0 2a e8 0a b3 61 ca da 3a aa 79 00 80 7d 26 00 00
       -3.234178e-08 0.0016692394 -4.3645e-41 1.3807e-41
0003d0 6d 1e 1f a8 96 27 00 00 cf 17 ab 3c 57 a1 00 80
       -8.832871e-15 1.4201e-41 0.020885376 -5.7878e-41
0003e0 5a 12 34 8c 41 4a 05 3b da 16 18 3d bd 8e 00 00
       -1.3872218e-31 0.0020338448 0.037131168 5.1205e-41
0003f0 bc 27 00 80 17 8c 8e 37 e7 19 00 80 e6 c5 81 3c
       -1.4254e-41 1.6992954e-05 -9.292e-42 0.015841436

mlp.18.bias f4 [8]
000000 b9 2b 00 00 9e fb ac 3d fe e8 3a af 9a 10 b3 3c
       1.5685e-41 0.0844643 -1.6999377e-10 0.021858502
000010 b8 72 ec 3d a5 88 22 2d 4e 99 00 00 e4 e3 1c 39
       0.11545318 9.238975e-12 5.4995e-41 0.00014962215

mlp.21.weight f4 [1, 8]
000000 b8 70 00 80 95 7b 92 be 5b 7a 1a b0 51 a9 97 bd
       -4.0436e-41 -0.2860991 -5.619875e-10 -0.074053414
000010 e7 a0 c9 be b5 fc a0 3a b8 56 00 00 ad c1 25 ba
       -0.3938057 0.0012282344 3.1109e-41 -0.00063231104
