model_saved/2024-01-25-07-49-50/model_2024-01-25-07-52-05_epoch_19000_train_mse_2.00e-02_val_mse_2.00e-02.pt (torch, 88343 bytes, 15 tensors)

mlp.0.weight f4 [8, 8]
3.079e-41 1.3874e-41 2.1619e-41 5.1231e-41 3.5695e-41 1.8333e-41 2.5995e-41 2.2348e-41
0.0033631248 -0.0012938267 -3.1963365e-05 3.9197753e-06 2.2392849e-06 1.0260086e-06 -3.0677752e-06 3.0314438e-06
-0.01723568 0.05682043 0.017439278 0.0002536238 0.0003969695 0.00042368798 0.0013339719 -6.47509e-05
-0.013731597 0.0407076 0.012464422 0.00018693441 0.00028795222 0.00030533093 0.0009588796 -3.4773344e-05
0.101669215 -0.051128376 0.003178282 0.00015507056 0.000118582284 8.587311e-05 5.821725e-05 8.109046e-05
-0.07371829 0.18818443 0.05946865 0.0009277349 0.0014170497 0.0015175425 0.004669679 -9.45574e-05
0.07209426 0.3381683 0.16025057 0.0019602259 0.0029481146 0.0031325505 0.009726352 -0.00017554802
-0.015004891 0.08832401 0.028102146 0.0004238927 0.00065074774 0.00069704745 0.0021466615 -4.0674957e-05
00000000: d455 0000 ad26 0000 443c 0000 d08e 0000
00000010: 8163 0000 1b33 0000 7748 0000 4c3e 0000
00000020: df67 5c3b 9f95 a9ba 6710 06b8 9d86 8336
00000030: 9f46 1636 63b5 8935 fadf 4db6 cf6f 4b36
00000040: d731 8dbc 8abc 683d d1dc 8e3c cff8 8439
00000050: 5820 d039 7022 de39 abd8 ae3a e0ca 87b8
00000060: 7efa 60bc 03bd 263d 9337 4c3c d303 4439
00000070: 4bf8 9639 d314 a039 525d 7b3a 98d9 11b8
00000080: f337 d03d fd6b 51bd b94a 503b 709a 2239
00000090: 61af f838 c616 b438 4c2e 7438 1c0f aa38
000000a0: 9df9 96bd 6bb3 403e 6695 733d 3c33 733a
000000b0: 4cbc b93a 47e8 c63a 1b04 993b 1e4d c6b8
000000c0: 28a6 933d 6524 ad3e ba18 243e 2277 003b
000000d0: 2835 413b 7a4b 4d3b 475b 1f3c 5013 38b9
000000e0: 13d7 75bc 38e3 b43d 7936 e63c ea3d de39
000000f0: f196 2a3a 10ba 363a 01af 0c3b 679a 2ab8

mlp.0.bias f4 [8]
-3.0445e-41 -4.2177814e-07 0.00012385822 0.000106170366 2.791835e-06 0.00056236517 0.0012609272 0.00026733146
00000000: de54 0080 bf70 e2b4 f0df 0139 c8a7 de38
00000010: 5c5b 3b36 b06b 133a b245 a53a 9f28 8c39

mlp.3.weight f4 [16, 8]
4.3666e-41 -0.00011733454 0.006181016 0.0044454434 -0.0035915964 0.021145152 0.041586537 0.009784655
-4.2798e-41 -1.4793717e-06 7.3528245e-05 5.8019912e-05 -5.1016857e-05 0.00027600452 0.0006342995 0.00013384549
4.727e-41 -0.00014963163 0.0069754547 0.0050540543 -0.0045496128 0.0239558 0.053147506 0.011200549
9.492e-42 1.8249091e-06 -5.791418e-05 -4.279431e-05 0.00083652674 -0.00021276849 0.00018579756 -0.00024320405
1.3392e-41 1.9663e-41 5.6719e-41 6.957e-42 -3.325e-41 -3.0066e-41 -5.2969e-41 -5.5786e-41
6.1858e-41 -5.1596e-41 5.612e-42 3.6163e-41 -1.2672e-41 -6.2688e-41 1.6659e-41 2.3676e-41
-5.8975e-41 -3.5278836e-06 0.0001800749 9.5890864e-05 -0.00011461011 0.00056710193 0.0016133235 0.0002966412
-6.29e-43 -0.00046436282 0.021489464 0.015404217 -0.012631087 0.0731186 0.15197726 0.03351494
-6.132e-41 -2.342e-41 3.4351e-41 4.708e-41 -1.707e-41 -6.0802e-41 3.0796e-41 1.4576e-41
1.021e-41 -0.0009598113 0.036001693 0.02581227 -0.019803308 0.12234311 0.24676855 0.057119273
4.0673e-41 5.0737e-41 1.6642e-41 -3.8191e-41 -1.0916e-41 -4.333e-42 -5.016e-41 2.4471e-41
6.009e-42 -0.0011059645 0.038755454 0.027804991 -0.03281776 0.13184051 0.27199918 0.06030548
3.3435e-41 5.3993e-41 -4.731e-41 2.6457e-41 1.5767e-41 9.2245473e-32 -3.1411396e-09 4.508695e-22
2.8882e-41 -3.807e-41 1.1928e-41 -3.0233e-41 -2.4973e-41 -1.991e-41 -2.2073e-41 -3.7677e-41
-4.6883e-41 -5.9615e-41 4.2375e-41 5.415e-41 2.2554e-41 -1.6612e-41 -1.3556152e-23 2.3732e-41
1.1751e-41 -0.0002801256 0.01287954 0.00926206 -0.008059986 0.04410115 0.09285444 0.020427763
00000000: b979 0000 8011 f6b8 1f8a ca3b 15ab 913b
00000010: fd60 6bbb 9938 ad3c a556 2a3d d14f 203c
00000020: 4e77 0080 d38e c6b5 2d33 9a38 685a 7338
00000030: effa 55b8 b3b4 9039 1e47 263a e058 0c39
00000040: c583 0000 6fe6 1cb9 5b92 e43b 7b9c a53b
00000050: eb14 95bb f43e c43c 33b1 593d 8282 373c
00000060: 761a 0000 66ef f435 e1e8 72b8 0a7e 33b8
00000070: 5c4a 5b3a 9b1a 5fb9 a7d2 4239 9704 7fb9
00000080: 5525 0000 d036 0000 1c9e 0000 6513 0000
00000090: b05c 0080 d053 0080 a893 0080 829b 0080
000000a0: 6fac 0000 d48f 0080 a50f 0000 cf64 0000
000000b0: 5323 0080 c0ae 0080 702e 0000 0042 0000
000000c0: 66a4 0080 94c0 6cb6 7dd2 3c39 0419 c938
000000d0: d65a f0b8 91a9 143a 2776 d33a 8286 9b39
000000e0: c101 0080 b975 f3b9 ac0a b03c f861 7c3c
000000f0: 9ef2 4ebc 34bf 953d ed9f 1b3e f646 093d
00000100: efaa 0080 4941 0080 c25f 0000 3d83 0000
00000110: 962f 0080 7ea9 0080 d955 0000 a228 0000
00000120: 761c 0000 d99b 7bba 8376 133d 4174 d33c
00000130: 8c3a a2bc 068f fa3d e5b0 7c3e e6f5 693d
00000140: 6171 0000 6f8d 0000 642e 0000 766a 0080
00000150: 6e1e 0080 140c 0080 d38b 0080 3744 0000
00000160: c010 0000 03f6 90ba 0abe 1e3d 4bc7 e33c
00000170: ea6b 06bd 3301 073e 7a43 8b3e e102 773d
00000180: 345d 0000 8396 0000 e283 0080 c049 0000
00000190: f42b 0000 a27b ef0b 83db 57b1 5744 081c
000001a0: 8350 0000 206a 0080 4021 0000 4754 0080
000001b0: 9d45 0080 8037 0080 883d 0080 0769 0080
000001c0: b182 0080 2fa6 0080 2076 0000 f396 0000
000001d0: df3e 0000 4f2e 0080 681b 8399 2842 0000
000001e0: c220 0000 d2dd 92b9 b504 533c e5bf 173c
000001f0: 080e 04bc 68a3 343d 782a be3d 2058 a73c

mlp.3.bias f4 [16]
0.00030451157 3.903491e-06 0.0003577457 -2.9495866e-06 1.5793e-41 -5.153e-41 9.086942e-06 0.001076957
-1.4013e-41 0.0018474985 -2.4897e-41 0.0019901032 -4.3414e-41 -3.8876e-41 -1.3876e-41 0.00064759655
00000000: daa6 9f39 bbfa 8236 d18f bb39 83f1 45b6
00000010: 062c 0000 a58f 0080 1e74 1837 ae28 8d3a
00000020: 1027 0080 c327 f23a 6745 0080 646c 023b
00000030: 0579 0080 5f6c 0080 ae26 0080 78c3 293a

mlp.6.weight f4 [32, 16]
4.075e-41 3.3193e-41 -5.028e-42 5.6202e-41 -8.67e-43 -6.1587e-41 -6.1832e-41 1.107e-42
-3.5013e-41 -3.435e-42 5.262e-41 -3.4249e-41 2.9859e-41 2.7122e-41 -4.3306e-41 -1.1121e-41
0.0074552437 0.00010250357 0.008749024 -1.7540891e-05 -1.5787e-41 -2.5543e-41 0.00024059784 0.028399847
-5.1188e-41 0.04416801 2.3634e-41 0.047726013 -4.8338e-41 3.1175e-41 -3.7804e-41 0.015854498
0.036663543 0.0004481459 0.03662004 -0.00028578925 -3.3605e-41 3.2636e-41 0.0010077696 0.094582014
2.1675e-41 0.19115037 3.094e-41 0.19293131 -3.6245e-41 -4.285e-42 3.4322e-41 0.06858208
0.011162877 0.00015395846 0.0131762065 -2.8411709e-05 -7.34e-42 4.3671e-41 0.00035962785 0.043399256
-1.093e-42 0.06549847 -4.4338e-41 0.07206347 4.1198e-41 -2.7789e-41 3.0538e-41 0.023866223
2.4199983e-06 3.4041207e-08 2.8677987e-06 -5.777576e-09 -4.6244e-41 -4.9704e-41 8.014729e-08 2.8507508e-05
-7.2534e-41 8.123607e-06 -1.3637e-41 1.4593293e-05 3.0208e-41 -1.2205e-41 5.0288e-41 5.1290285e-06
3.3767e-41 1.4387e-41 5.0703e-41 -4.5493e-41 -1.076e-41 3.5646e-41 -7.528e-42 2.8508e-41
-4.2738e-41 5.3399e-41 2.1789e-41 -5.8457e-41 2.9091e-41 -1.7452e-41 -6.0201e-41 1.2114e-41
2.6936e-41 -3.0649e-41 -3.6937e-41 -5.1374e-41 4.6791e-41 -2.6752e-41 6.122e-42 -1.3216e-41
-8.39e-42 2.88e-42 2.3019e-41 -5.4038e-41 4.843e-41 6.3175e-41 -3.5887e-41 -4.7355e-41
2.2298187e-05 3.032687e-07 2.5826761e-05 -3.751239e-08 3.0422e-41 4.5916e-41 7.286405e-07 8.394679e-05
-2.8406e-41 0.00013450602 1.3176e-41 0.00014448196 -1.4838e-41 -4.59e-42 6.002e-42 4.6687797e-05
0.006670087 8.429925e-05 0.0070051844 -2.207364e-05 -5.4435e-41 -5.8204e-41 0.0001932721 0.02917991
-3.5023e-41 0.03115763 3.4681e-41 0.040599898 1.823e-41 -3.2273e-41 -2.3578e-41 0.012740287
6.925085e-06 9.3618034e-08 7.934252e-06 -1.1505088e-08 3.4833e-41 -1.8115e-41 2.253113e-07 2.753561e-05
2.7503e-41 4.2262862e-05 -3.4634e-41 4.4629916e-05 3.7003e-41 7.63e-42 -5.61e-42 1.4400883e-05
2.5107e-41 2.0626e-41 -6.25e-42 -2.1387e-41 -3.436e-41 -5.9708e-41 5.618e-41 -4.4135e-41
-1.8005e-41 2.7763e-41 2.5153e-41 -2.639e-41 -7.61e-41 2.4227e-41 5.2022e-41 6.3039e-41
-9.895e-42 1.915e-41 4.0995e-41 -2.0912e-41 2.0257e-41 -6.164e-42 -6.836e-42 1.3622e-41
4.3325e-41 2.866e-42 5.8775e-41 -3.3054e-41 -3.7808e-41 -3.574e-41 1.4086e-41 6.429e-42
6.00901e-20 -4.9823e-41 5.4592e-41 -3.6903e-41 2.9832e-41 -3.0333e-41 1.3967e-41 -9.967534e-16
2.2908e-41 2.3602647e-16 -9.78e-43 -5.7164273e-18 4.4494e-41 -5.189e-41 4.9822e-41 -6.3725e-38
0.01006387 0.00013307824 0.011165904 -3.3770702e-05 2.778e-41 -3.6193e-41 0.00030656415 0.03548893
-9.18e-43 0.058529925 9.07e-43 0.061108213 2.4506e-41 1.6776e-41 -5.0302e-41 0.020328525
5.1608e-41 1.2121e-41 1.7362e-41 6.74e-43 -5.855e-42 5.3958e-41 5.888e-42 -6.2681e-41
-1.1181e-41 -4.3332e-41 4.062e-41 5.8302e-41 -4.8228e-41 -3.3246e-41 6.31e-41 5.1075e-41
2.9153025e-06 3.913589e-08 3.3483173e-06 -4.6273136e-09 5.801e-42 -5.8897e-41 9.417544e-08 1.1583879e-05
-9.784e-42 1.7552195e-05 3.9077e-41 1.8955116e-05 2.9706e-41 -8.935e-42 -2.9018e-41 6.054267e-06
00000000: 9871 0000 875c 0000 040e 0080 ab9c 0000
00000010: 6b02 0080 aeab 0080 5dac 0080 1603 0000
00000020: 9a61 0080 9309 0080 af92 0000 795f 0080
00000030: 3c53 0000 9b4b 0000 b878 0080 001f 0080
00000040: 1e4b f43b 2ff7 d638 1158 0f3c c724 93b7
00000050: 022c 0080 3447 0080 fe48 7c39 cca6 e83c
00000060: b18e 0080 84e9 343d e241 0000 5a7c 433d
00000070: bf86 0080 e756 0000 6269 0080 4be1 813c
00000080: 832c 163d 20f5 ea39 e5fe 153d fcd5 95b9
00000090: ad5d 0080 fa5a 0000 2317 843a 37b4 c13d
000000a0: 6c3c 0000 ecbc 433e 4056 0000 c98f 453e
000000b0: 0965 0080 f20b 0080 ad5f 0000 c374 8c3d
000000c0: 80e4 363c e96f 2139 04e1 573c ae55 eeb7
000000d0: 7614 0080 bd79 0000 6f8c bc39 6bc3 313d
000000e0: 0c03 0080 1024 863d 997b 0080 0396 933d
000000f0: d872 0000 774d 0080 2155 0000 1983 c33c
00000100: 4167 2236 b434 1233 6874 4036 1984 c6b1
00000110: e980 0080 8e8a 0080 701d ac33 6823 ef37
00000120: 32ca 0080 a04a 0837 0426 0080 b7d5 7437
00000130: 3554 0000 0622 0080 2f8c 0000 051a ac36
00000140: 215e 0000 1b28 0000 578d 0000 d17e 0080
00000150: ff1d 0080 5e63 0000 fc14 0080 784f 0000
00000160: 2377 0080 db94 0000 bd3c 0000 f4a2 0080
00000170: 1851 0000 a630 0080 d1a7 0080 c521 0000
00000180: 164b 0000 7055 0080 f766 0080 368f 0080
00000190: 6f82 0000 934a 0080 1111 0000 d724 0080
000001a0: 6317 0080 0708 0000 2b40 0000 a396 0080
000001b0: 0187 0000 1bb0 0000 0a64 0080 0284 0080
000001c0: fe0c bb37 efd0 a234 8ca6 d837 4f1d 21b3
000001d0: ce54 0000 ff7f 0000 cb97 4335 970c b038
000001e0: 2f4f 0080 2f0a 0d39 bb24 0000 1580 1739
000001f0: 5d29 0080 cc0c 0080 bb10 0000 a4d2 4338
00000200: bf90 da3b d1c9 b038 bf8b e53b c82a b9b7
00000210: be97 0080 40a2 0080 16a9 4a39 b50a ef3c
00000220: a161 0080 493e ff3c ad60 0000 144c 263d
00000230: d132 0000 f759 0080 ba41 0080 a3bc 503c
00000240: 075e e836 0f0b c933 5a1d 0537 eaa7 45b2
00000250: 1a61 0000 7f32 0080 19ed 7134 46fc e637
00000260: ab4c 0000 6743 3138 8c60 0080 0231 3b38
00000270: 2667 0000 4515 0000 a30f 0080 529b 7137
00000280: fd45 0000 7f39 0000 6c11 0080 9e3b 0080
00000290: c85f 0080 71a6 0080 9b9c 0000 087b 0080
000002a0: 3132 0080 644d 0000 1e46 0000 9149 0080
000002b0: 23d4 0080 8943 0000 0491 0000 baaf 0000
000002c0: 951b 0080 6235 0000 4772 0000 4b3a 0080
000002d0: 7838 0000 2f11 0080 0e13 0080 f925 0000
000002e0: c678 0000 fd07 0000 d7a3 0000 245c 0080
000002f0: 6569 0080 a163 0080 4427 0000 ec11 0000
00000300: 3de2 8d1f e38a 0080 2e98 0000 df66 0080
00000310: 2953 0000 8e54 0080 ef26 0000 b6a5 8fa6
00000320: dc3f 0000 5c0f 8825 ba02 0080 21e6 d2a2
00000330: 087c 0000 a690 0080 e28a 0000 d879 ad81
00000340: eee2 243c eb8a 0b39 32f1 363c 04a5 0db8
00000350: 704d 0000 e464 0080 58ba a039 d75c 113d
00000360: 8f02 0080 13bd 6f3d 8702 0000 9b4c 7a3d
00000370: 5044 0000 c42e 0000 398c 0080 0288 a63c
00000380: dd8f 0000 ca21 0000 6630 0000 e101 0000
00000390: 5210 0080 6a96 0000 6a10 0000 bbae 0080
000003a0: 2b1f 0080 cb78 0080 3b71 0000 86a2 0000
000003b0: 7186 0080 ad5c 0080 e6af 0000 608e 0000
000003c0: 84a4 4336 5e16 2833 a7b3 6036 48fe 9eb1
000003d0: 2c10 0000 2ea4 0080 7f3d ca33 6258 4237
000003e0: 461b 0080 0d3d 9337 ee6c 0000 cd01 9f37
000003f0: cf52 0000 e818 0080 e450 0080 c225 cb36

mlp.6.bias f4 [32]
5.7376e-41 0.0010379495 0.004344448 0.0015672415 3.3670818e-07 -5.0616e-41 1.942e-42 2.8907248e-06
0.0008487362 8.8641497e-07 -5.5846e-41 4.088e-42 -2.213e-42 0.0013461036 -9.659e-42 3.8683712e-07
0.004286285 -2.7065e-41 -1.6565e-41 -1.46e-43 3.8694e-41 4.4847778e-07 0.00031549105 0.00042133592
9.206644e-08 0.0007690864 -4.8251e-41 -3.4878e-41 -6.1552e-41 1.5783594e-17 4.2354e-41 6.247838e-05
00000000: f19f 0000 ce0b 883a df5b 8e3b e66b cd3a
00000010: d2c4 b434 198d 0080 6a05 0000 46fe 4136
00000020: b97d 5e3a f9f1 6d35 ad9b 0080 650b 0000
00000030: 2b06 0080 be6f b03a ed1a 0080 7dae cf34
00000040: f773 8c3b 724b 0080 2d2e 0080 6800 0080
00000050: dd6b 0000 51c6 f034 7e68 a539 c0e6 dc39
00000060: 10b6 c533 849c 493a 8186 0080 3a61 0080
00000070: 95ab 0080 f593 9123 1176 0000 d306 8338

mlp.9.weight f4 [64, 32]
5.1344e-41 1.4518053e-38 -4.323125e-33 4.092e-41 -4.4714e-41 -4.783e-41 -5.83e-42 4.4537e-41
-1.7344e-41 6.0934e-41 2.2866e-41 -4.0936e-41 4.658e-42 2.3542e-41 -8.2682e-41 -2.08e-42
-3.3644e-41 -3.6529e-41 -4.8342e-41 -2.7526e-41 -4.0535e-41 -2.256e-42 -3.6095e-41 1.976e-42
2.3208e-41 4.3552e-41 -1.8447e-41 -4.4128e-41 -8.362e-42 -3.4272e-41 -4.9965e-41 -5.0887e-41
-4.3331e-41 -2.3057649e-10 -1.8201606e-08 -7.88568e-12 -9.998e-42 5.3109e-41 -4.3143e-41 -5.680771e-26
1.3704225e-21 -6.3571986e-35 -3.0156e-41 -5.2735e-41 3.5255e-41 2.6368466e-14 6.0155e-41 -3.310174e-37
1.3645912e-11 6.1207e-41 5.612e-42 -1.476e-41 -5.5196e-41 4.9111e-41 4.873884e-13 1.8809476e-25
-3.3453e-41 1.3857342e-26 -2.5644e-41 -4.2372e-41 -4.8313e-41 3.9556e-41 -3.8892e-41 9.006606e-27
2.637e-41 0.03587488 0.14362581 0.05382151 1.2375323e-05 -4.1724e-41 5.4509e-41 0.00010883061
0.029045338 3.3597134e-05 -4.2011e-41 4.1087e-41 -1.1074003e-18 0.046147093 -6.2858e-41 1.4103866e-05
0.1430715 2.3155e-41 2.197e-42 -9.792e-42 -1.1181e-41 1.654964e-05 0.011558065 0.0149474805
3.4416319e-06 0.026519386 1.1566e-41 -3.2e-44 -3.696e-41 4.140455e-16 -3.71e-42 0.0023226466
-2.5834e-41 0.0014953001 0.00627357 0.0022166432 5.077301e-07 -3.5411e-41 -4.808e-42 4.387136e-06
0.0011716828 1.3662664e-06 4.434e-41 -6.2024e-41 1.8355903e-23 0.0018680696 3.1284e-41 5.719749e-07
0.0059575317 -3.6345e-41 -4.1336e-41 6.2791e-41 3.5241e-41 6.781569e-07 0.00046823247 0.0005976162
1.3995762e-07 0.0010578791 3.66e-43 -6.575e-41 5.8003e-41 1.5828836e-17 -5.4543e-41 9.329393e-05
2.886e-41 0.00013575777 0.00058185094 0.00020093189 4.576778e-08 3.8752e-41 6.426e-41 3.9324766e-07
0.000106085274 1.2179393e-07 -4.0521e-41 -6.372e-42 1.9365e-41 0.00016938637 6.799e-42 5.129012e-08
0.0005412659 -3.0401e-41 -4.971e-41 6.8672e-41 -5.4963e-41 6.1055e-08 4.211478e-05 5.400521e-05
1.26113155e-08 9.592348e-05 -5.3507e-41 6.894e-42 -2.2677e-41 1.3671186e-18 6.168e-41 8.4002895e-06
4.1174e-41 1.3733e-41 3.6693e-41 3.6305e-41 2.1238e-41 4.8199e-41 4.7753e-41 1.9764e-41
-5.862e-41 -5.7336e-41 -2.123e-42 -2.3332e-41 2.355e-41 1.4575e-41 -4.3118e-41 -4.6386e-41
6.0819e-41 -1.139e-42 1.0598e-41 -3.0202e-41 -4.8006e-41 1.5423e-41 5.9499e-41 5.916e-42
-2.3801e-41 -1.4743e-41 -4.7001e-41 1.1981e-41 1.778e-41 4.6976e-41 -4.7584e-41 3.4583e-41
-2.053e-42 -1.794e-42 1.5114e-41 6.29e-43 -2.0479e-41 -3.5656e-41 -3.9518e-41 -4.3835e-41
-3.4119e-41 -3.5058e-41 4.8538e-41 1.2047e-41 6.262e-41 8.3307e-41 2.812e-42 -1.6275e-41
-3.2629e-41 -5.8112e-41 4.2769e-41 1.04729e-40 3.9679e-41 5.8647e-41 -3.8096e-41 -6.824e-42
6.0902e-41 -5.9676e-41 4.3757e-41 5.0822e-41 -2.685e-42 5.8728e-41 1.2574e-41 5.561e-41
-2.1828e-41 4.0587372e-05 0.00017263355 5.982572e-05 1.3597419e-08 -4.6453e-41 -4.1994e-41 1.1684948e-07
3.1506683e-05 3.6458975e-08 1.9308e-41 -2.5246e-41 -1.0436117e-38 5.031908e-05 -6.1677e-41 1.528027e-08
0.00016068447 1.1627e-41 5.26e-41 -4.6958e-41 -4.6684e-41 1.8172475e-08 1.2528146e-05 1.6044383e-05
3.7250965e-09 2.846419e-05 2.5286e-41 -2.9864e-41 2.759e-42 4.0790222e-19 5.499e-41 2.4945955e-06
00000000: 208f 0000 6d16 9e00 5a93 b389 1172 0000
00000010: a57c 0080 5585 0080 4010 0080 277c 0000
00000020: 5930 0080 dca9 0000 be3f 0000 1d72 0080
00000030: fc0c 0000 a041 0000 7ce6 0080 cc05 0080
00000040: c95d 0080 d465 0080 c286 0080 bb4c 0080
00000050: ff70 0080 4a06 0080 9e64 0080 8205 0000
00000060: b240 0000 6879 0000 6c33 0080 037b 0080
00000070: 4f17 0080 895f 0080 488b 0080 da8d 0080
00000080: ca78 0080 8385 7daf c159 9cb2 f2b9 0aad
00000090: df1b 0080 0c94 0000 4478 0080 2aa6 8c95
000000a0: a717 cf1c da00 a986 1054 0080 0193 0080
000000b0: 4762 0000 8b81 ed28 b0a7 0000 5d47 e182
000000c0: b90f 702d 9faa 0000 a50f 0000 2529 0080
000000d0: dd99 0080 e788 0000 0930 092b 9cd9 6816
000000e0: 415d 0080 893c 8914 7c47 0080 1e76 0080
000000f0: ad86 0080 446e 0000 6a6c 0080 eb64 3214
00000100: 8249 0000 8af1 123d a512 133e f273 5c3d
00000110: 9c9f 4f37 4f74 0080 f397 0000 fd3b e438
00000120: 7df0 ed3c a6ea 0c38 1c75 0080 8972 0000
00000130: 676c a3a1 bc04 3d3d 39af 0080 a59f 6c37
00000140: 5681 123e 8c40 0000 2006 0000 4c1b 0080
00000150: 2b1f 0080 15d4 8a37 0a5e 3d3c 47e6 743c
00000160: c9f6 6636 2f3f d93c 3e20 0000 1700 0080
00000170: 0867 0080 55ae ee25 580a 0080 8b37 183b
00000180: 0448 0080 f2fd c33a 8592 cd3b 1a45 113b
00000190: f24a 0835 b662 0080 670d 0080 3635 9336
000001a0: 2793 993a 8e60 b735 9a7b 0000 e6ac 0080
000001b0: 0487 b119 04da f43a 3557 0000 d189 1935
000001c0: 6637 c33b 5165 0080 3a73 0080 09af 0000
000001d0: 3d62 0000 960a 3635 197d f539 58a9 1c3a
000001e0: 4247 1634 88a8 8a3a 0501 0000 49b7 0080
000001f0: b0a1 0000 c8fe 9123 0b98 0080 cca6 c338
00000200: 7350 0000 335a 0e39 5b87 183a 3eb1 5239
00000210: 3592 4433 066c 0000 21b3 0000 8c1f d334
00000220: 197a de38 76c6 0234 f570 0080 c311 0080
00000230: fb35 0000 4f9d 3139 f412 0000 154a 5c33
00000240: bde3 0d3a bf54 0080 928a 0080 6ebf 0000
00000250: 3799 0080 571d 8333 67a4 3038 a783 6238
00000260: 27a9 5832 872a c938 2895 0080 3813 0000
00000270: 373f 0080 48c0 c921 f0ab 0000 f8ee 0c37
00000280: c772 0000 4826 0000 4966 0000 3465 0000
00000290: 343b 0000 5c86 0000 1e85 0000 1837 0000
000002a0: 69a3 0080 d49f 0080 eb05 0080 0a41 0080
000002b0: a641 0000 a128 0000 3278 0080 4e81 0080
000002c0: 8aa9 0000 2d03 0080 8b1d 0000 3154 0080
000002d0: d285 0080 fe2a 0000 dca5 0000 7e10 0000
000002e0: 5942 0080 1929 0080 0583 0080 6621 0000
000002f0: 9031 0000 f382 0000 a584 0080 6760 0000
00000300: b905 0080 0005 0080 222a 0000 c101 0000
00000310: 1639 0080 6563 0080 296e 0080 327a 0080
00000320: 1c5f 0080 ba61 0080 4e87 0000 9521 0000
00000330: 8fae 0000 3ae8 0000 d707 0000 5e2d 0080
00000340: f55a 0080 fea1 0080 3977 0000 f123 0100
00000350: 9c6e 0000 7ca3 0000 326a 0080 0613 0080
00000360: c5a9 0000 5aa6 0080 fa79 0000 ac8d 0000
00000370: 7c07 0080 b6a3 0000 0d23 0000 059b 0000
00000380: d93c 0080 5c3c 2a38 f704 3539 61ed 7a38
00000390: 159a 6932 7e81 0080 1075 0080 aeee fa33
000003a0: 0b26 0438 1197 1c33 d335 0000 6046 0080
000003b0: a6a3 7180 b30d 5338 eeab 0080 ab41 8332
000003c0: 697d 2839 6920 0000 a192 0000 e682 0080
000003d0: 2382 0080 b219 9c32 fa2f 5237 0d97 8637
000003e0: 97fc 7f31 62c6 ee37 7d46 0000 4053 0080
000003f0: b107 0000 71c8 f020 4a99 0000 d368 2736

mlp.9.bias f4 [64]
4.2714e-41 4.046e-42 0.0072590634 0.00029362133 2.6247619e-05 -5.9194e-41 -5.098e-41 7.686053e-06
7.62878e-07 0.005251505 9.795667e-09 -5.518e-42 1.2584e-41 -6.0197e-41 5.296384e-10 0.0041704257
-6.2376e-41 0.0012897048 1.1449e-41 6.666e-42 1.2408e-41 0.0017530058 3.4908e-41 6.8476114e-09
1.9022245e-07 3.544e-42 5.3444e-41 6.946044e-10 1.9761e-41 1.8238e-41 -3.7842e-41 8.876724e-05
1.7662946e-11 -4.917e-42 0.0007882682 4.7636337e-07 0.0035171122 0.0075324415 -6.089e-42 4.55995e-26
4.6761e-41 1.4805252e-23 2.0906848e-20 -2.5932e-41 -1.0868e-41 6.554e-42 2.4684e-41 3.6274e-41
1.1153e-41 5.8793486e-08 3.6983e-41 0.0006073354 0.004177957 3.4176e-41 0.00045612353 -4.6683e-41
0.003004214 0.0024047203 1.4624e-41 9.737691e-31 -5.228e-41 -1.382e-41 3.9645316e-13 0.0032943955
00000000: 1277 0000 470b 0000 70dd ed3b 30f1 9939
00000010: 552e dc37 02a5 0080 1d8e 0080 59f3 0037
00000020: 94c8 4c35 d114 ac3b cd49 2832 620f 0080
00000030: 1423 0000 cea7 0080 fd95 1130 11a8 883b
00000040: e1ad 0080 500b a93a ea1f 0000 9512 0000
00000050: 9722 0000 1dc5 e53a 4f61 0000 3a48 eb31
00000060: f33f 4c34 e109 0000 fb94 0000 70ee 3e30
00000070: 1637 0000 d732 0000 7d69 0080 8d28 ba38
00000080: 6b5d 9b2d b50d 0080 c9a3 4e3a e2be ff34
00000090: 5a7f 663b b3d2 f63b f910 0080 3ccc 6115
000000a0: 5a82 0000 0730 8f19 a875 c51e 4a48 0080
000000b0: 4c1e 0080 4512 0000 cf44 0000 1e65 0000
000000c0: 171f 0000 1f84 7c33 1867 0000 9735 1f3a
000000d0: 3ee7 883b 455f 0000 dd23 ef39 2282 0080
000000e0: 59e2 443b 8398 1d3b c428 0000 c900 9e0d
000000f0: bc91 0080 8626 0080 ec2e df2a c9e6 573b

mlp.12.weight f4 [128, 64]
5.3666e-41 -3.0781e-41 2.0699e-41 6.1081e-41 3.1173e-41 -6.9946e-41 -6.1598e-41 -1.508e-41
-5.9991e-41 -3.1501e-41 -2.7734e-41 5.46e-41 -2.8487e-41 1.0088e-41 -2.9256e-41 1.6258e-41
-1.9381e-41 3.3851e-41 -4.4019e-41 -6.4276e-41 -1.7008e-41 -1.1884e-41 3.741e-42 1.9314e-41
-8.98e-43 -9.827e-42 -4.0982e-41 -3.771e-41 -5.7826e-41 -3.4681e-41 -1.9166e-41 2.75e-41
-5.0036e-41 -2.4213e-41 -1.0414e-41 3.2475e-41 -7.1821e-41 2.651e-42 -5.2786e-41 3.5292e-41
-2.7025e-41 2.156e-41 -7.0635e-41 -1.3318e-41 -1.957e-41 7.791e-42 -1.7442e-41 5.9009e-41
8.448e-42 -3.529e-41 -2.6022e-41 -7.358e-42 4.321e-41 -4.2234e-41 -2.7998e-41 -2.0065e-41
5.8957e-41 1.9806e-41 -3.5136e-41 -3.4225e-41 -3.408e-42 -2.989e-42 3.9985e-41 6.0777e-41
-5.3402e-41 -1.3871e-41 -8.374777e-19 -1.1401767e-30 1.6227e-41 -4.7323e-41 2.484e-41 -4.913083e-39
-1.8007194e-33 -4.900737e-21 -4.4595e-41 -4.4235e-41 -5.185e-42 4.1099e-41 -3.9316e-41 -7.2236975e-22
-1.949e-42 -5.643359e-24 -4.0072e-41 -6.1502e-41 -3.3197e-41 -1.5156893e-23 -4.9675e-41 -2.3353e-41
-3.6797e-41 -1.16e-43 -4.808e-42 -1.947e-41 -3.97e-43 -3.3254e-41 -2.5019e-41 -4.2061e-41
5.3134e-41 6.8019e-41 -9.043046e-37 -2.139947e-33 -1.2010258e-26 -1.7147789e-18 2.9871e-41 1.3646e-41
-1.9247e-41 -5.7201e-41 5.4195e-41 7.131e-42 2.418e-41 -8.5579e-41 5.918e-42 -5.7809e-41
-2.1842e-41 7.072e-42 6.4973e-41 -1.8928364e-23 -3.0031824e-26 3.542e-41 -4.0962395e-38 -5.3583e-41
-9.631961e-25 -8.1962546e-24 1.555e-42 8.99e-42 -6.1304e-41 -8.761e-42 5.5692e-41 -4.496241e-25
4.641e-42 -7.915e-42 7.563e-42 3.4137e-41 -4.9251e-41 -6.5365e-41 -1.1257e-41 -7.62e-43
4.2466e-41 2.6804e-41 9.6447e-41 5.9265e-41 9.082e-42 -6.0012e-41 4.3454e-41 -5.408e-42
1.3978e-41 -4.1222e-41 -1.0494e-41 -4.9431e-41 3.5638e-41 5.3043e-41 1.7495e-41 -1.1233e-41
1.9868e-41 1.39e-41 -5.4271e-41 -5.3049e-41 3.6722e-41 -4.7643e-41 -5.1667e-41 6.627e-42
2.62e-43 1.1498e-41 -5.717e-41 -3.0163e-41 3.67e-43 5.382e-41 -1.7883e-41 -7.62e-43
1.5648e-41 -2.8763e-41 4.397e-42 5.9234e-41 -2.0769e-41 1.1834e-41 -5.2986e-41 -9.5e-44
2.7408e-41 3.7438e-41 1.9066e-41 3.692e-42 -1.7753e-41 6.205e-42 -2.7615e-41 2.3577e-41
-4.2129e-41 3.4962e-41 2.632e-41 3.2028e-41 -2.2667e-41 1.15143e-40 -6.913e-42 2.2089e-41
3.442e-41 5.8986e-41 1.3549e-41 1.401e-41 2.5878e-41 7.029e-42 -5.9935e-41 6.2843e-41
-6.1545e-41 -1.4847e-41 -4.9368e-41 4.843e-41 5.8347e-41 3.9797e-41 7.242e-42 3.9354e-41
1.1495e-41 2.3175e-41 -5.5978e-41 -3.5772e-41 -5.4648e-41 4.6473e-41 -1.2982e-41 2.5836e-41
-1.2542e-41 -2.8896e-41 1.1578e-41 1.3162e-41 -1.1565e-41 -5.8434e-41 -6.254e-41 -5.6603e-41
-4.2581e-41 4.471e-41 -4.8676e-41 1.3139e-41 -3.5744e-41 -1.7247e-41 -5.985e-42 4.6546e-41
-5.2039e-41 -3.3094e-41 4.2415e-41 1.8273e-41 4.2431e-41 -2.7704e-41 5.142e-41 3.5566e-41
-3.2751e-41 4.814e-41 -5.8096e-41 -5.0015e-41 2.8938e-41 5.951e-42 3.6546e-41 6.2125e-41
-1.111e-42 -3.1225e-41 -5.86e-42 3.4054e-41 -5.0894e-41 4.3519e-41 2.3e-41 2.2306e-41
00000000: 9995 0000 ce55 0080 b339 0000 45aa 0000
00000010: e656 0000 fbc2 0080 b6ab 0080 092a 0080
00000020: 3ba7 0080 d057 0080 504d 0080 3498 0000
00000030: 694f 0080 1f1c 0000 8e51 0080 522d 0000
00000040: 0736 0080 5d5e 0000 b57a 0080 2db3 0080
00000050: 692f 0080 2121 0080 6e0a 0000 d735 0000
00000060: 8102 0080 651b 0080 3e72 0080 1f69 0080
00000070: 32a1 0080 ad60 0080 6d35 0080 a94c 0000
00000080: 7b8b 0080 7f43 0080 081d 0080 875a 0000
00000090: 35c8 0080 6407 0000 2593 0080 6162 0000
000000a0: 564b 0080 1a3c 0000 e7c4 0080 2025 0080
000000b0: 8e36 0080 b815 0000 9f30 0080 7ea4 0000
000000c0: 8d17 0000 6062 0080 8a48 0080 8314 0080
000000d0: 7478 0000 bb75 0080 0c4e 0080 ef37 0080
000000e0: 59a4 0000 3637 0000 f261 0080 685f 0080
000000f0: 8009 0080 5508 0080 766f 0000 6ca9 0000
00000100: dd94 0080 ab26 0080 072e 77a1 1601 b98d
00000110: 3c2d 0000 eb83 0080 3e45 0000 ad7f 3580
00000120: 1199 1589 0525 b99d 507c 0080 4f7b 0080
00000130: 740e 0080 9172 0000 996d 0080 a752 5a9c
00000140: 6f05 0080 1f51 da98 b46f 0080 71ab 0080
00000150: 8a5c 0080 a696 9299 798a 0080 1941 0080
00000160: 9366 0080 5300 0080 670d 0080 4636 0080
00000170: 1b01 0080 b35c 0080 be45 0080 4075 0080
00000180: 1e94 0000 9cbd 0000 05dc 9983 a4c7 3189
00000190: 3ee3 6d94 840e fda1 4553 0000 0a26 0000
000001a0: a735 0080 749f 0080 1397 0000 e113 0000
000001b0: 6743 0000 8fee 0080 7f10 0000 26a1 0080
000001c0: e33c 0080 b713 0000 1eb5 0000 5c10 b799
000001d0: dcb5 1495 bd62 0000 3f05 5f81 5e95 0080
000001e0: 210c 9597 e389 1e99 5604 0000 0f19 0000
000001f0: e4aa 0080 6c18 0080 3f9b 0000 e426 0b97
00000200: f00c 0000 1016 0080 1515 0000 295f 0000
00000210: 4b89 0080 36b6 0080 611f 0080 2002 0080
00000220: 6176 0000 b84a 0000 db0c 0100 35a5 0000
00000230: 5119 0000 4aa7 0080 2279 0000 130f 0080
00000240: f726 0000 e972 0080 411d 0080 cb89 0080
00000250: 5863 0000 dd93 0000 c530 0000 501f 0080
00000260: 6237 0000 bf26 0000 4997 0080 e193 0080
00000270: 5e66 0000 cf84 0080 0790 0080 7912 0000
00000280: bb00 0000 0d20 0000 5e9f 0080 1554 0080
00000290: 0601 0000 0796 0000 da31 0080 2002 0080
000002a0: 9f2b 0000 2e50 0080 420c 0000 1fa5 0000
000002b0: e539 0080 fd20 0000 b493 0080 4400 0080
000002c0: 674c 0000 5d68 0000 2635 0000 4b0a 0000
000002d0: 7d31 0080 4c11 0000 fb4c 0080 b941 0000
000002e0: 7075 0080 7661 0000 5f49 0000 4859 0000
000002f0: 303f 0080 f940 0100 4513 0080 933d 0000
00000300: f35f 0000 6ea4 0000 c525 0000 0e27 0000
00000310: 2348 0000 9813 0000 13a7 0080 2eaf 0000
00000320: 90ab 0080 6329 0080 9e89 0080 0187 0000
00000330: a6a2 0000 f06e 0000 3014 0000 b46d 0000
00000340: 0b20 0000 9a40 0000 0b9c 0080 b863 0080
00000350: 5698 0080 8c81 0000 3024 0080 0548 0000
00000360: f622 0080 8d50 0080 4620 0000 b124 0000
00000370: 3d20 0080 e4a2 0080 56ae 0080 c99d 0080
00000380: b376 0080 a27c 0000 b087 0080 a024 0000
00000390: a463 0080 1430 0080 af10 0080 c081 0000
000003a0: 1091 0080 415c 0080 3c76 0000 f032 0000
000003b0: 4876 0000 3a4d 0080 578f 0000 2563 0000
000003c0: 4c5b 0080 3286 0000 f3a1 0080 6c8b 0080
000003d0: ab50 0000 9710 0000 e065 0000 2ead 0000
000003e0: 1903 0080 0b57 0080 5610 0080 ee5e 0000
000003f0: df8d 0080 5079 0000 1d40 0000 2e3e 0000

mlp.12.bias f4 [128]
-5.7525e-41 -2.8755e-41 -5.5124e-41 -3.8736e-41 0.00010457057 -1.0639e-41 0.005334723 0.006996068
-4.8037e-41 0.007218151 7.58e-42 4.0673e-41 5.7124e-41 0.006242695 1.8751878e-18 0.010698438
-6.4506e-41 1.7585e-41 -3.9969e-41 7.83e-42 1.7415904e-16 5.1202e-41 -1.1722e-41 2.9723585e-24
-6.288e-41 0.008459713 8.572e-42 -2.9183e-41 4.6602033e-10 7.397833e-05 0.00013916334 1.6802e-41
-3.032e-42 0.003852201 -5.8096e-41 1.6607116e-08 1.9507e-41 0.0034409512 -6.2666e-41 4.111e-42
3.692e-41 -1.3867e-41 3.080877e-11 5.6063e-41 0.000115340255 0.0018996233 1.7117362e-10 3.6098165e-29
-4.2532e-41 6.0374e-41 1.808818e-39 2.4647e-41 4.2136e-41 -5.35e-43 0.010181728 2.065493e-06
-5.5997e-41 2.227e-41 0.0063595604 1.8201e-41 5.985e-42 8.700828e-09 -1.3326e-41 1.8555461e-07
0.00043099315 4.4006e-41 0.008625468 -3.3285e-41 -3.6898e-41 0.0016037608 0.013170227 4.1714e-41
-4.3266e-41 -7.745e-42 -5.3737e-41 4.6719e-41 2.7648e-41 7.8672216e-05 -2.6751e-41 -5.5154e-41
0.00272338 -1.0115e-41 4.127e-42 4.0995e-41 3.3718e-41 -4.79e-42 9.659082e-32 0.00018582055
-2.2858e-41 0.00430987 0.0106197065 -7.840047e-26 -4.7786e-41 5.433e-42 2.4262e-41 5.3822e-41
6.062e-41 4.162e-41 -2.3728e-41 -3.8382e-41 -2.1499e-41 1.2650138e-22 -2.6164e-41 1.431784e-05
-1.2016e-41 -1.9358e-41 3.219e-41 -1.5194e-41 -5.8203e-41 0.002178949 2.8724234e-26 2.1102622e-17
5.8934e-41 -2.828e-42 4.011e-41 0.0012215053 1.8454e-41 3.5359e-41 2.7494493e-06 0.0098004
4.0604e-41 -1.5602e-41 -3.0637e-41 0.008146455 3.7572e-41 -5.253e-41 1.1229e-41 6.164e-41
00000000: 5ba0 0080 2850 0080 aa99 0080 fb6b 0080
00000010: e64c db38 a81d 0080 e6ce ae3b 463f e53b
00000020: e885 0080 3d86 ec3b 2115 0000 6171 0000
00000030: 3d9f 0000 858f cc3b 4c5d 0a22 8048 2f3c
00000040: d1b3 0080 0531 0000 6b6f 0080 d415 0000
00000050: adca 4825 bb8e 0000 ad20 0080 a0f9 6518
00000060: 49af 0080 9c9a 0a3c e517 0000 5a51 0080
00000070: 4419 0030 d024 9b38 60ec 1139 d62e 0000
00000080: 7408 0080 3575 7c3b f3a1 0080 6fa7 8e32
00000090: 6136 0000 9581 613b b0ae 0080 760b 0000
000000a0: eb66 0000 a826 0080 977f 072e 489c 0000
000000b0: d4e2 f138 c8fc f83a 1735 3c2f 190a 3710
000000c0: 9076 0080 4ca8 0000 40b2 1300 b544 0000
000000d0: 7575 0000 7e01 0080 43d1 263c e69c 0a36
000000e0: 199c 0080 143e 0000 dc63 d03b bd32 0000
000000f0: af10 0000 a57a 1532 2625 0080 dd3c 4734
00000100: ecf6 e139 ac7a 0000 d651 0d3c c95c 0080
00000110: db66 0080 4835 d23a f0c7 573c 4874 0000
00000120: 9c78 0080 9715 0080 cc95 0080 3c82 0000
00000130: 124d 0000 d3fc a438 924a 0080 bf99 0080
00000140: bc7a 323b 321c 0080 810b 0000 4772 0000
00000150: fe5d 0000 5a0d 0080 9cc3 fa0b d3d8 4239
00000160: b83f 0080 cf39 8d3b 47fe 2d3c 341c c295
00000170: 3585 0080 250f 0000 a243 0000 0996 0000
00000180: fca8 0000 0574 0000 2542 0080 fe6a 0080
00000190: ee3b 0080 48ee 181b ef48 0080 a836 7037
000001a0: 7f21 0080 f635 0080 bc59 0000 5b2a 0080
000001b0: 3fa2 0080 b3cc 0e3b 4b3c 0e15 28a3 c223
000001c0: 49a4 0000 e207 0080 cf6f 0000 eb1a a03a
000001d0: 7133 0000 9162 0000 2e83 3836 db91 203c
000001e0: 3071 0000 7e2b 0080 6755 0080 b578 053c
000001f0: bc68 0000 6f92 0080 4d1f 0000 d4ab 0000

mlp.15.weight f4 [64, 128]
-6.4142e-41 2.7899976e-25 -3.3414e-41 -5.8444e-41 0.0003973184 -6.411e-42 0.019620504 0.025648806
6.1025e-41 0.026452525 -4.6136e-41 -5.4454e-41 -4.385e-42 0.022917874 7.265195e-18 0.039039664
-1.4005e-41 3.5714737e-37 7.315e-42 -1.0182e-41 7.0007273e-16 -5.4326e-41 -5.2935e-41 1.194514e-23
5.4393e-41 0.030951146 1.3069e-41 -1.4017e-41 1.8692896e-09 0.00028184903 0.0005285166 -3.0908e-41
2.6427e-41 0.014228601 -5.802897e-32 6.6664555e-08 -3.648e-41 0.0126629295 -3.8272e-41 -4.5857e-41
-2.0888e-41 -1.3964e-41 1.2313911e-10 5.0335e-41 0.000437616 0.00705512 6.7277783e-10 1.6057933e-28
-3.07e-42 2.211e-42 7.357305e-39 1.3081e-41 9.917e-42 -5.161e-42 0.037184134 8.035292e-06
-5.3916e-41 2.7471e-41 0.023341946 -5.4611e-41 -1.5596e-41 3.4524753e-08 1.1174271e-25 7.3192007e-07
0.0016216646 -5.867e-42 0.031543724 -3.8387e-41 -5.7711e-41 0.0059677092 0.04801381 2.8226e-41
3.8192e-41 -5.8012e-41 4.4756e-41 -4.9882e-41 3.953e-41 0.00029954693 -1.6601597e-28 2.356e-41
0.010092083 5.642e-42 -1.1132e-41 1.9976e-41 -1.2553e-41 5.1159e-41 3.9189689e-31 0.0007019914
-3.1032e-41 0.015900254 0.03877304 5.8382922e-30 -5.9826e-41 5.3924246e-38 -2.1546e-41 -3.311e-42
1.5751583e-36 -4.0869e-41 7.8995e-41 -6.67e-41 4.3523e-41 5.0090335e-22 2.7344e-41 5.495049e-05
3.4961e-41 4.476e-42 -2.8348e-41 4.2478e-41 1.7103e-41 0.008083622 1.197203e-25 8.523407e-17
9.427e-42 6.2882e-41 -5.0099e-41 0.0045506265 -7.2788e-41 -2.9422e-41 1.0713725e-05 0.035798553
1.448e-41 7.2062e-41 -5.5966e-41 0.029815976 -5.501e-41 -2.987e-41 2.0146e-41 -4.7697e-41
-1.1344e-41 -3.3906e-41 1.5665e-41 -3.3225e-41 2.933e-41 1.4473e-41 -1.1173e-41 3.7361e-41
2.6399e-41 3.7692e-41 -6.101e-41 -3.1215e-41 7.788e-42 2.7554e-41 -2.59e-43 -4.336e-42
2.6021e-41 3.7182e-41 -2.0131e-41 -8.5e-44 4.5782e-41 -5.5835e-41 1.1173e-41 3.4661e-41
-4.4189e-41 2.9846e-41 3.6257e-41 4.1075e-41 4.1114e-41 5.153e-42 3.7263e-41 2.8773e-41
-2.777e-41 -1.2204e-41 3.9922e-41 3.3e-43 3.3698e-41 -3.5905e-41 -3.6392e-41 5.118e-42
2.4488e-41 2.7126e-41 -2.877e-42 3.7364e-41 5.2275e-41 -1.6652e-41 -5.0585e-41 -3.6111e-41
1.753e-41 5.3192e-41 5.718e-41 4.6788e-41 5.5546e-41 3.6539e-41 -4.0084e-41 -3.0554e-41
-3.5713e-41 3.3228e-41 5.175e-42 2.2297e-41 -2.2091e-41 5.3937e-41 -2.7433e-41 -3.22e-41
-5.925e-42 3.8026e-41 -5.1428e-41 -6.4505e-41 -4.9448e-41 -6.1467e-41 5.572e-42 -5.6114e-41
-2.6281e-41 3.3312e-41 -3.828e-41 -9.628e-42 2.9475e-41 2.5987e-41 -4.8516e-41 -1.0092e-41
9.91e-43 -1.177e-41 1.2292e-41 1.1713e-41 -3.802e-42 -1.2127e-41 -4.0203e-41 4.08e-43
-2.9888e-41 -6.499e-42 2.3403e-41 5.5592e-41 -2.6173e-41 4.4643e-41 -2.2873e-41 -4.899e-41
-1.7955e-41 6.8403e-41 -8.758e-42 -2.626e-41 1.7959e-41 -5.8315e-41 -7.735e-42 1.1988e-41
-2.017e-41 2.99e-41 6.914e-42 -6.3447e-41 6.1101e-41 3.5992e-41 2.3187e-41 -2.9562e-41
1.06347e-40 2.2098e-41 -5.1957e-41 -3.88e-42 4.4444e-41 4.7093e-41 6.048e-41 -6.1272e-41
-7.43e-42 6.2432e-41 3.5765e-41 -3.0393e-41 5.6364e-41 -1.2732e-41 -3.7245e-41 -1.6664e-41
00000000: cdb2 0080 47b1 ac16 255d 0080 eba2 0080
00000010: 2c4f d039 df11 0080 2ebb a03c 721d d23c
00000020: 1daa 0000 f7b2 d83c 9c80 0080 cc97 0080
00000030: 390c 0080 44be bb3c ea04 0623 0ee8 1f3d
00000040: 0a27 0080 d90f f302 6414 0000 621c 0080
00000050: 40c8 4926 7097 0080 9093 0080 780d 6719
00000060: a097 0000 428d fd3c 6e24 0000 1327 0080
00000070: e474 0031 23c5 9339 268c 0a3a 2956 0080
00000080: ab49 0000 141f 693c dea6 968b 3a29 8f33
00000090: b165 0080 2d78 4f3c b06a 0080 d57f 0080
000000a0: 3a3a 0080 ed26 0080 9464 072f 508c 0000
000000b0: d36f e539 a32e e73b 88ee 3830 f98e 4b11
000000c0: 8f08 0080 2a06 0000 2c1d 5000 7724 0000
000000d0: a51b 0000 630e 0080 644e 183d 51cf 0637
000000e0: 4c96 0080 944c 0000 9c37 bf3c 3c98 0080
000000f0: 7a2b 0080 5e48 1433 ae54 0a16 2a79 4435
00000100: 098e d43a 5b10 0080 fe33 013d 026b 0080
00000110: e0a0 0080 c68c c33b 21aa 443d af4e 0000
00000120: 776a 0000 b7a1 0080 c37c 0000 0d8b 0080
00000130: 326e 0000 820c 9d39 4373 5291 ad41 0000
00000140: 4459 253c ba0f 0000 081f 0080 af37 0000
00000150: fe22 0080 9c8e 0000 0a5b fe0c d805 383a
00000160: 8156 0080 4041 823c 7bd0 1e3d 4bd4 ec0e
00000170: c5a6 0080 b7cb 9201 103c 0080 3b09 0080
00000180: e9ff 0504 ed71 0080 35dc 0000 efb9 0080
00000190: 5379 0000 8563 171c 394c 0000 a47a 6638
000001a0: 7561 0000 7a0c 0000 064f 0080 6976 0000
000001b0: ad2f 0000 2b71 043c e134 1416 5089 c424
000001c0: 471a 0000 4aaf 0000 a88b 0080 6c1d 953b
000001d0: e7ca 0080 0452 0080 19bf 3337 81a1 123d
000001e0: 5d28 0000 e1c8 0000 039c 0080 a240 f43c
000001f0: 5899 0080 4453 0080 2938 0000 f684 0080
00000200: 9f1f 0080 845e 0080 ab2b 0000 9e5c 0080
00000210: c351 0000 5828 0000 251f 0080 2668 0000
00000220: 9749 0000 1269 0000 12aa 0080 0457 0080
00000230: b615 0000 cf4c 0000 b900 0080 160c 0080
00000240: 8948 0000 a667 0000 1e38 0080 3d00 0080
00000250: 9f7f 0000 a59b 0080 251f 0000 9f60 0000
00000260: 2e7b 0080 3353 0000 1265 0000 8072 0000
00000270: 9c72 0000 5d0e 0000 e067 0000 3550 0000
00000280: 694d 0080 0522 0080 496f 0000 eb00 0000
00000290: f05d 0000 1764 0080 7265 0080 440e 0000
000002a0: 4344 0000 9e4b 0000 0508 0080 2868 0000
000002b0: b991 0000 6b2e 0080 038d 0080 aa64 0080
000002c0: de30 0000 4794 0000 659f 0000 6d82 0000
000002d0: d79a 0000 db65 0000 bd6f 0080 2c55 0080
000002e0: 8e63 0080 a05c 0000 6d0e 0000 283e 0000
000002f0: 953d 0080 5b96 0000 794c 0080 c359 0080
00000300: 8410 0080 006a 0000 5c8f 0080 d0b3 0080
00000310: d789 0080 58ab 0080 880f 0000 6c9c 0080
00000320: 4349 0080 dc5c 0000 b66a 0080 d71a 0080
00000330: 2a52 0000 7148 0000 3e87 0080 221c 0080
00000340: c302 0000 cf20 0080 4422 0000 a720 0000
00000350: 990a 0080 ce21 0080 1270 0080 2301 0000
00000360: 5153 0080 1e12 0080 3d41 0000 f89a 0000
00000370: f648 0080 727c 0000 c33f 0080 9088 0080
00000380: 0d32 0080 aebe 0000 6a18 0080 3449 0080
00000390: 1032 0000 8fa2 0080 9015 0080 6b21 0000
000003a0: 3a38 0080 5953 0000 4613 0000 ddb0 0080
000003b0: 53aa 0000 5564 0000 a340 0000 6852 0080
000003c0: 7428 0100 9a3d 0000 d690 0080 d10a 0080
000003d0: e47b 0000 4783 0000 98a8 0000 cdaa 0080
000003e0: b614 0080 09ae 0000 b363 0000 b954 0080
000003f0: 1f9d 0000 7e23 0080 d367 0080 742e 0080

mlp.15.bias f4 [64]
0.019926423 3.6631e-41 0.011812239 0.00044791307 1.3516e-41 0.011556175 -1.1607e-41 4.2784e-41
3.9458e-41 3.9557e-41 -6.1569e-41 1.07736825e-17 3.3068081e-06 -3.77e-42 -1.6845e-41 0.025104988
2.8019e-41 0.0070593352 -5.1002e-41 6.0835e-41 1.7823e-41 4.054e-42 -8.049e-42 2.9089623e-22
5.8445377e-20 -3.2102e-41 4.6777e-41 0.027962737 4.5591e-41 -5.9439e-41 -3.2397e-41 4.0898e-41
-5.7323e-41 -4.0768e-41 -6.1472e-41 4.1476e-41 -2.5183e-41 -2.5707e-41 -3.4775e-41 -2.41e-41
-4.0541e-41 -2.7685e-41 0.026130551 0.01840101 -6.1886e-41 -3.4964e-41 0.012326411 -3.0042e-41
5.8890843e-09 0.0016120824 -4.1179e-41 3.2548e-41 1.5681898e-18 -2.1259e-41 0.0214211 3.1116e-41
-2.2679e-41 0.0021235247 0.037739895 4.3494e-41 -2.5882e-41 3.105147e-05 -6.558e-42 0.01663462
00000000: bd3c a33c 1d66 0000 1f88 413c e0d5 ea39
00000010: ad25 0000 1c56 3d3c 5b20 0080 4477 0000
00000020: fe6d 0000 456e 0000 a1ab 0080 47bd 4623
00000030: 88ea 5d36 820a 0080 f52e 0080 faa8 cd3c
00000040: 1b4e 0000 ff51 e73b 2c8e 0080 95a9 0000
00000050: af31 0000 4d0b 0000 7016 0080 03d6 af1b
00000060: 1000 8a1f 7d59 0080 6582 0000 1c12 e53c
00000070: 177f 0000 b1a5 0080 4f5a 0080 0272 0000
00000080: cb9f 0080 a571 0080 5cab 0080 9e73 0000
00000090: 3346 0080 a947 0080 f060 0080 2e43 0080
000000a0: 0371 0080 2d4d 0080 bd0f d63c b7bd 963c
000000b0: 83ac 0080 7761 0080 b7f4 493c bf53 0080
000000c0: ef58 ca31 824c d33a ca72 0080 bb5a 0000
000000d0: 896c e721 433b 0080 4d7b af3c bd56 0000
000000e0: 383f 0080 d52a 0b3b 2695 1a3d 3e79 0000
000000f0: 2648 0080 433d 0238 4812 0080 5445 883c

mlp.18.weight f4 [8, 64]
4.3705e-41 5.9805e-41 -4.2727e-41 -8.7e-44 -7.072e-41 -4.8058e-41 2.83e-43 9.394e-42
4.5437e-41 -4.6048e-41 -2.82e-43 -2.7456e-41 -4.7381e-41 5.8626e-41 1.9463e-41 4.402e-41
-4.3457e-41 2.1489e-41 -3.7785e-41 -9.299e-42 -5.0721e-41 -5.232e-41 -3.7587e-41 6.052e-41
-4.561e-41 -3.7803e-41 5.3045e-41 4.3866e-41 -3.8752e-41 4.3317e-41 5.775e-41 2.7011e-41
5.4205e-41 -1.1458e-41 -6.2475e-41 -4.0391e-41 -7.1392e-41 6.137e-41 2.2372e-41 -1.1449e-41
4.9551e-41 3.0847e-41 4.4814e-41 3.7034e-41 4.345e-41 -4.479e-42 8.779e-42 4.2726e-41
4.632e-41 -1.0514e-41 1.4377e-41 7.962e-42 -4.5015e-41 -8.021e-42 4.4847e-41 4.855e-42
5.4494e-41 5.6056e-41 3.7352e-41 -5.7246e-41 -1.8231e-41 4.951e-42 1.02e-41 2.9814e-41
0.066956915 -2.3868e-41 0.04329167 0.0016802044 -3.9952e-41 0.041463602 -5.455e-42 1.2193565e-34
-4.2602e-41 -2.7255e-41 1.359938e-15 4.0488658e-17 1.2027637e-05 8.2189e-41 -4.7585e-41 0.08910832
1.8763e-41 0.025314724 -1.7941e-40 -1.1611e-41 9.18e-43 -8.111e-42 -1.082e-41 1.0080762e-21
2.386776e-19 1.5491e-41 2.2382e-41 0.102732144 4.8552e-41 5.3293e-41 -3.0059677e-26 3.3466e-41
-2.9668112e-07 -5.7275e-41 -1.6273e-41 5.4024e-41 9.711e-42 5.2414e-41 4.5977e-41 5.6282e-41
5.8891836e-11 -1.176e-42 0.092332505 0.06497689 1.0661e-41 -5.9356e-41 0.048658606 1.4163e-41
2.0441675e-08 0.0057411743 4.2993e-41 -3.5011e-41 5.392912e-18 -3.8559563e-27 0.08372003 4.984e-42
6.1615e-41 0.007605046 0.14299215 -2.9632e-41 -5.7229407e-32 9.727677e-05 5.2776e-41 0.060536902
2.1064326e-12 -2.4569e-41 8.7362105e-13 4.592089e-14 3.8646e-41 1.0346464e-12 2.6026e-41 -2.97e-42
-3.2474e-41 -1.2968e-41 2.7689065e-19 1.357475e-27 1.878269e-16 2.4376e-41 -1.7808e-41 2.4723262e-12
3.5925e-41 2.6700054e-11 -5.2905e-41 2.6252e-41 -3.928e-42 4.727e-41 2.481e-41 3.4675558e-32
8.101309e-30 -5.6307e-41 -3.0021e-41 2.242816e-12 2.64e-42 4.7164e-41 -6.0423e-41 6.6316624e-38
6.362167e-11 -6.1238e-41 3.7139e-41 -2.9361e-41 2.0507e-41 -3.4492e-41 1.635e-42 -1.7738e-41
-2.7845744e-33 1.60121055e-27 2.4935416e-12 1.7553293e-12 -1.706e-41 -6.621e-42 1.2471517e-12 1.0856e-41
-3.6827878e-17 8.1539796e-14 5.011e-42 5.4617e-41 2.9157612e-22 -5.1736e-41 2.2877713e-12 -5.7529e-41
-6.1636e-41 2.0309272e-13 3.976e-12 -3.4812e-41 3.1080663e-21 -4.1514236e-09 -1.7177e-41 1.5479169e-12
0.016390402 -1.487e-41 0.009683866 0.00036850802 -4.5692e-41 0.009441658 -2.1304e-41 -1.9622e-41
-2.6305e-41 -4.7156e-41 -2.7708e-41 -1.4428484e-18 2.8204256e-06 4.4749e-41 3.198e-42 0.020882666
3.3966e-41 0.0057112924 -2.967e-41 -4.1029e-41 3.4138e-41 -4.2845e-41 6.411e-42 8.854291e-23
-1.7349788e-19 2.5397e-41 -5.7659e-41 0.02335495 -5.8478e-41 -2.6078e-41 -1.5657821e-36 2.8935e-41
-3.538248e-38 3.352e-41 2.9143e-41 3.126e-41 1.3412e-41 -3.6316e-41 4.5886e-41 2.273e-42
5.6141446e-20 -4.027e-42 0.02178619 0.015137623 9.25e-43 2.3533e-41 0.010188164 -1.5864e-41
3.162036e-09 0.0013101447 8.593e-42 -2.7391e-41 -5.230927e-19 6.2299e-41 0.017942991 1.67e-43
7.682e-42 0.00172274 0.032280292 5.1529e-41 2.79e-41 2.4115026e-05 7.049e-42 0.013706944
00000000: d579 0000 b6a6 0000 1b77 0080 3e00 0080
00000010: 23c5 0080 f785 0080 ca00 0000 301a 0000
00000020: a97e 0000 5d80 0080 c900 0080 894c 0080
00000030: 1484 0080 6da3 0000 4136 0000 b67a 0000
00000040: 2479 0080 e73b 0000 5469 0080 ec19 0080
00000050: 648d 0080 d991 0080 c768 0080 b5a8 0000
00000060: 247f 0080 6169 0080 de93 0000 487a 0000
00000070: 066c 0080 c078 0000 fca0 0000 4c4b 0000
00000080: 1a97 0000 f11f 0080 28ae 0080 9870 0080
00000090: 03c7 0080 13ab 0000 5d3e 0000 ea1f 0080
000000a0: 218a 0000 fd55 0000 ec7c 0000 3c67 0000
000000b0: 1f79 0000 7c0c 0080 7918 0000 1a77 0000
000000c0: 1f81 0000 4f1d 0080 1428 0000 3216 0000
000000d0: 7c7d 0080 5c16 0080 047d 0000 890d 0000
000000e0: e897 0000 439c 0000 1f68 0000 949f 0080
000000f0: d232 0080 cd0d 0000 6f1c 0000 1c53 0000
00000100: b520 893d 8942 0080 9b52 313d 4e3a dc3a
00000110: 5f6f 0080 bdd5 293d 350f 0080 8d14 2207
00000120: c276 0080 fa4b 0080 dbfc c326 92b8 3a24
00000130: 4fca 4937 1ce5 0000 a684 0080 6c7e b63d
00000140: 4e34 0000 d360 cf3c 1ff4 0180 5e20 0080
00000150: 8f02 0000 9c16 0080 291e 0080 0f56 981c
00000160: f0e3 8c20 2f2b 0000 643e 0000 3b65 d23d
00000170: 5887 0000 8f94 0000 2bd9 1495 4a5d 0000
00000180: 8b47 9fb4 a99f 0080 5d2d 0080 9996 0000
00000190: 121b 0000 1c92 0000 2a80 0000 e49c 0000
000001a0: 2881 812e 4703 0080 d318 bd3d 9b12 853d
000001b0: b81d 0000 76a5 0080 3f4e 473d 7b27 0000
000001c0: b897 af32 7620 bc3b d977 0000 9961 0080
000001d0: 9df6 c622 0bc0 9893 6875 ab3d e50d 0000
000001e0: c2ab 0000 c033 f93b 896c 123e 9a52 0080
000001f0: 7793 948b 1101 cc38 1e93 0000 8bf5 773d
00000200: 1e3a 142c 7d44 0080 08e7 752b 2ecf 4e29
00000210: bb6b 0000 119d 912b 8d48 0000 4708 0080
00000220: 865a 0080 2624 0080 8872 a320 ba19 d712
00000230: b78c 5825 f343 0000 a431 0080 78f9 2d2c
00000240: 2564 0000 2ddb ea2d 7a93 0080 2e49 0000
00000250: f30a 0080 c583 0000 2945 0000 b90b 340b
00000260: 6750 240f f69c 0080 b053 0080 fbd2 1d2c
00000270: 5c07 0000 7983 0000 6fa8 0080 f187 b401
00000280: d1e7 8b2e b5aa 0080 8767 0000 d951 0080
00000290: 2a39 0000 2660 0080 8f04 0000 7231 0080
000002a0: 5955 6789 d1b8 fd12 a777 2f2c 670a f72b
000002b0: 8e2f 0080 7512 0080 6085 af2b 431e 0000
000002c0: afd6 29a4 7e9c b729 f80d 0000 4098 0000
000002d0: 383f b01b 3890 0080 d3fc 202c 5ea0 0080
000002e0: d1ab 0080 7ea9 642a a0e4 8b2c 0b61 0080
000002f0: bfd6 6a1d 4fa4 8eb1 e22f 0080 95d9 d92b
00000300: 2a45 863c 7429 0080 14a9 1e3c 4f34 c139
00000310: 5f7f 0080 2fb1 1a3c 633b 0080 b336 0080
00000320: 5449 0080 7483 0080 3d4d 0080 45ed d4a1
00000330: 8b46 3d36 be7c 0000 ea08 0000 2012 ab3c
00000340: af5e 0000 cb25 bb3b b552 0080 5f72 0080
00000350: 2a5f 0000 6f77 0080 df11 0000 6815 d61a
00000360: 84d4 4ca0 cc46 0000 bba0 0080 e152 bf3c
00000370: 03a3 0080 b248 0080 b733 0584 a950 0000
00000380: fba3 4081 715d 0000 3d51 0000 2457 0000
00000390: 6325 0000 3c65 0080 e97f 0000 5606 0000
000003a0: 6c8f 841f 3a0b 0080 f478 b23c cb03 783c
000003b0: 9402 0000 9a41 0000 42ec 263c 392c 0080
000003c0: 204b 5931 29b9 ab3a f417 0000 5b4c 0080
000003d0: c463 1aa1 aaad 0000 2efd 923c 7700 0000
000003e0: 6a15 0000 90cd e13a 5738 043d a48f 0000
000003f0: c64d 0000 a04a ca37 a613 0000 1793 603c

mlp.18.bias f4 [8]
-5.5054e-41 0.0903841 2.9919537e-12 0.02171929 0.123732656 1.1805278e-16 -1.3943e-41 0.00011072829
00000000: 7899 0080 4d1b b93d 3f8a 522c a7ec b13c
00000010: 8c67 fd3d 081b 0825 de26 0080 cc36 e838

mlp.21.weight f4 [1, 8]
-6.7168e-41 -0.28455245 -8.085277e-12 -0.0674383 -0.39284548 0.00014022726 -3.6431e-41 -0.00037003896
00000000: 3dbb 0080 dcb0 91be da3c 0ead 171d 8abd
00000010: 0b23 c9be f809 1339 8e65 0080 ca01 c2b9
