model_saved/2024-01-25-07-49-50/model_2024-01-25-07-50-22_epoch_5000_train_mse_1.91e-02_val_mse_2.03e-02.pt (torch, 88323 bytes, 15 tensors)

mlp.0.weight f4 [8, 8]
000000 1f 34 00 80 b6 64 00 80 11 bd 00 00 b4 65 00 80
       -1.8698e-41 -3.6128e-41 6.7824e-41 -3.6484e-41
000010 3b e7 00 00 83 72 00 00 19 a6 00 00 bc 12 00 00
       8.295e-41 4.1079e-41 5.9585e-41 6.72e-42
000020 05 d4 1c 3d f3 98 e8 bc 2f 95 94 39 ab 51 1e 38
       0.038288135 -0.028393244 0.0002833991 3.7746195e-05
000030 20 34 0b 38 50 ce be 37 ac 1e 22 36 36 2c e5 37
       3.3188728e-05 2.2745837e-05 2.4157735e-06 2.7319515e-05
000040 8e d1 7a bd 18 d2 b0 3d 63 90 ae 3c 43 c4 cc b9
       -0.061235003 0.08633822 0.021309083 -0.00039056138
000050 1c c9 aa 39 24 7f f4 39 69 17 0b 3b ac 7b 74 38
       0.00032574765 0.00046634034 0.002122367 5.828931e-05
000060 82 be 31 bd fc 07 7c 3d b0 1a 65 3c 17 7f 04 ba
       -0.043394573 0.061531052 0.013983414 -0.0005054338
000070 11 6c df 38 3a f0 93 39 1c 18 bf 3a 88 6b 26 b9
       0.000106535976 0.00028217008 0.0014579329 -0.00015871052
000080 15 57 55 3e 12 10 eb bd 1f e3 9d 3c c2 c0 58 3a
       0.20834 -0.114776745 0.019273339 0.0008268469
000090 c1 88 25 3a e0 85 f3 39 b9 d8 8f 39 b1 f8 c8 39
       0.00063146284 0.00046448316 0.00027436556 0.00038332262
0000a0 26 a2 0e be 48 af 42 3e 24 11 84 3d af 86 25 bb
       -0.13929042 0.19012177 0.06448582 -0.002525728
0000b0 02 f3 2f ba 85 01 13 b9 42 0b 8f 3b f7 b0 b1 ba
       -0.0006711931 -0.00014019579 0.0043653557 -0.0013556768
0000c0 6c a5 02 3e 54 23 a0 3e 5e 21 4c 3e 05 1d b4 bb
       0.12758416 0.31276953 0.19934604 -0.0054966235
0000d0 a7 84 f9 ba 16 27 35 ba 1a 06 2a 3c 82 4d 50 bb
       -0.0019036726 -0.00069104263 0.010377431 -0.003178448
0000e0 90 5d 82 bc b4 ec af 3d 48 56 21 3d 48 df 4f ba
       -0.015913755 0.085900694 0.039388925 -0.0007929695
0000f0 0d 85 39 b8 db c9 f1 38 7e 78 1e 3b 70 53 29 ba
       -4.423135e-05 0.00011529374 0.0024180706 -0.00064592715

mlp.0.bias f4 [8]
000000 9d 32 00 00 23 d1 be b7 6a c1 9e 3a e3 22 24 3a
       1.8157e-41 -2.2747152e-05 0.0012112085 0.0006261302
000010 71 90 27 b9 3b 2a e0 3a d8 bf 2f 3b 3b 1e 3d 3a
       -0.0001598017 0.0017102429 0.0026817229 0.00072142825

mlp.3.weight f4 [16, 8]
000000 f6 30 00 00 61 84 fe b9 e5 bc 44 3c a7 e6 0c 3c
       1.7564e-41 -0.00048545285 0.012007927 0.008599914
000010 89 40 87 bb 34 8d ec 3c ed f0 8a 3d ca 04 45 3c
       -0.0041275662 0.028875925 0.06784234 0.012025068
000020 89 c3 00 80 d7 c4 46 b7 6e 67 04 3a 66 7f 8b 39
       -7.0145e-41 -1.184755e-05 0.00050508126 0.00026607065
000030 0e a7 47 b9 24 a9 64 3a 19 40 06 3b ae 94 b1 39
       -0.00019040352 0.00087227137 0.0020484983 0.00033870846
000040 d0 16 00 80 cf 7f 4a ba f6 06 67 3c 2f 02 25 3c
       -8.184e-42 -0.00077247334 0.014100781 0.010071321
000050 9a d1 5d bc 9d 4f 11 3d fa 0c 98 3d 70 10 6e 3c
       -0.013538742 0.035476316 0.0742435 0.014530286
000060 39 ae 00 80 6e 90 b9 38 62 40 dd ba b8 5b 9e ba
       -6.25e-41 8.8483896e-05 -0.001688015 -0.0012081778
000070 3a b7 c4 3c da e5 8e bb 23 04 55 3b a6 81 44 bb
       0.02401315 -0.0043608965 0.0032503686 -0.0029984503
000080 34 a2 00 00 bc 09 00 80 56 07 00 00 23 26 00 00
       5.8188e-41 -3.492e-42 2.632e-42 1.3681e-41
000090 bb 9e 00 00 88 2b 00 80 60 ae 00 80 89 b1 00 80
       5.6942e-41 -1.5616e-41 -6.2554e-41 -6.3688e-41
0000a0 9c de 00 80 3e 64 00 00 ee 54 00 80 5e 3d 00 80
       -7.9857e-41 3.596e-41 -3.0467e-41 -2.2014e-41
0000b0 54 66 00 80 4f 02 00 00 09 08 00 00 98 4e 00 00
       -3.6708e-41 8.28e-43 2.882e-42 2.8194e-41
0000c0 e1 b5 00 80 26 8c 0c b8 b1 5e 11 3a d3 26 4e 3a
       -6.5246e-41 -3.3509124e-05 0.0005545421 0.00078640616
0000d0 7d 52 9b b8 13 23 e9 3a a7 de 8f 3b 5f cc 7d 39
       -7.4063406e-05 0.0017786942 0.004390556 0.00024204094
0000e0 39 76 00 00 c3 16 a8 ba 4b 5a 0e 3d 53 88 cb 3c
       4.241e-41 -0.0012824166 0.03475408 0.024845278
0000f0 ef e0 4d bb 72 9c ad 3d ce b0 4b 3e 83 db 14 3d
       -0.0031414588 0.08477105 0.19891664 0.036342155
000100 0e 19 00 00 43 5c 00 00 24 b0 00 00 3d 83 00 00
       8.988e-42 3.3097e-41 6.3187e-41 4.708e-41
000110 72 a7 00 00 cd 08 00 00 48 4f 00 00 6b 88 00 00
       6.0068e-41 3.157e-42 2.8441e-41 4.8938e-41
000120 6e 0a 00 00 c2 62 28 bb b1 97 70 3d 73 bb 2a 3d
       3.741e-42 -0.002569363 0.058738414 0.04168267
000130 d7 d4 09 bc 3f 23 14 3e 56 c4 8a 3e 47 09 8d 3d
       -0.008412561 0.1446657 0.27102917 0.06886535
000140 e6 51 00 80 e7 78 00 80 85 08 00 80 52 fa 00 00
       -2.938e-41 -4.3372e-41 -3.056e-42 8.9798e-41
000150 6b af 00 80 ee 29 00 00 f8 3d 00 80 5d 86 00 00
       -6.2928e-41 1.5042e-41 -2.223e-41 4.82e-41
000160 53 08 00 80 4a 8d f7 bb 0b ed 82 3d 31 7f 39 3d
       -2.986e-42 -0.0075546848 0.063928686 0.045287315
000170 76 9e a5 bd 9a 13 22 3e a0 63 99 3e 4d 13 80 3d
       -0.08086865 0.1582779 0.2995882 0.06253681
000180 2d af 00 00 74 59 00 00 7c 13 09 0f 41 41 00 00
       6.2841e-41 3.209e-41 6.758374e-30 2.3409e-41
000190 bb ae 00 80 5b 48 b6 29 04 b6 d4 b5 10 bb fb 2e
       -6.2681e-41 8.094975e-14 -1.5848204e-06 1.14473875e-10
0001a0 c1 10 00 00 3f 50 00 80 4d cd 00 80 de 15 01 00
       6.01e-42 -2.8787e-41 -7.3648e-41 9.968e-41
0001b0 6b 90 00 00 9f 1d 00 80 6a a0 00 80 57 7e 00 00
       5.1807e-41 -1.0626e-41 -5.7546e-41 4.5322e-41
0001c0 bb 6b 00 80 8e a6 00 00 61 49 00 00 a6 c7 00 80
       -3.8646e-41 5.9749e-41 2.6323e-41 -7.162e-41
0001d0 8a 8a 00 00 cc 92 00 00 0f b8 bd ac 30 b2 83 05
       4.9698e-41 5.2661e-41 -5.3921377e-12 1.2384637e-35
0001e0 d7 b2 00 00 21 40 86 ba 96 17 be 3c da 1c 88 3c
       6.4156e-41 -0.00102425 0.023204606 0.01661532
0001f0 07 c1 35 bc 0c ac 6b 3d 68 ea fa 3d f7 9d ab 3c
       -0.011093385 0.057537124 0.12251741 0.020949347

mlp.3.bias f4 [16]
000000 ef 27 76 3a d5 b3 f9 37 77 dc 74 3a 95 cf 00 b9
       0.0009390106 2.9766854e-05 0.0009340713 -0.00012284362
000010 4a 72 00 00 7e b0 00 00 81 cd 25 38 5b 24 20 3b
       4.0999e-41 6.3313e-41 3.9530456e-05 0.0024435732
000020 f8 b2 00 80 2e f7 5e 3b db aa 00 00 22 72 6b 3b
       -6.4202e-41 0.0034021842 6.1291e-41 0.0035926183
000030 93 40 00 80 ee 30 00 00 46 31 00 80 fb 55 d6 3a
       -2.3165e-41 1.7553e-41 -1.7676e-41 0.0016352528

mlp.6.weight f4 [32, 16]
000000 12 f3 00 80 79 87 00 80 07 24 01 80 26 1a 00 00
       -8.7197e-41 -4.8598e-41 -1.0476e-40 9.38e-42
000010 30 ca 00 80 14 23 00 80 74 8e 00 80 aa ec 11 80
       -7.2531e-41 -1.2584e-41 -5.1103e-41 -1.646103e-39
000020 4f 64 00 80 cb 48 11 80 58 b4 00 00 34 61 14 80
       -3.5984e-41 -1.587317e-39 6.4695e-41 -1.87158e-39
000030 af 08 00 80 86 8b 00 00 21 cc 00 80 c7 94 01 80
       -3.115e-42 5.0052e-41 -7.3228e-41 -1.45207e-40
000040 76 d9 93 3c eb 11 9a 39 60 cc 6c 3c ad 63 23 b9
       0.01804803 0.0002938652 0.014453024 -0.00015582023
000050 58 93 00 80 c5 41 00 00 96 93 e6 39 cc 77 40 3d
       -5.2857e-41 2.3594e-41 0.0004397898 0.046989247
000060 c7 7a 01 00 f5 59 6a 3d f5 c8 00 80 7a 4e 69 3d
       1.3588e-40 0.057214696 -7.209e-41 0.056959607
000070 01 45 00 00 42 09 00 80 3f 90 00 00 3b f9 ca 3c
       2.4754e-41 -3.321e-42 5.1746e-41 0.024777045
000080 5c 18 77 3d 52 0e d8 3a e5 df 68 3d 62 ec 4f bb
       0.060325965 0.001648376 0.056854147 -0.0031726588
000090 62 86 00 00 8b 44 00 00 62 6f 6c 3b c5 e1 99 3d
       4.8207e-41 2.4589e-41 0.0036077132 0.07513765
0000a0 30 8e 01 00 5f 7a 64 3e c7 9c 00 00 1b 98 51 3e
       1.42843e-40 0.22312306 5.6241e-41 0.2046818
0000b0 35 11 e6 23 ae c0 00 80 70 ae 00 80 d0 03 d0 3d
       2.4943937e-17 -6.912e-41 -6.2576e-41 0.10156977
0000c0 49 0b 94 3c b0 2b da 39 3b 5c a8 3c f5 8e bf b9
       0.018071787 0.0004161275 0.020551791 -0.0003653687
0000d0 0c 3e 00 80 50 99 02 00 46 4b 21 3a ab bc 95 3d
       -2.2258e-41 2.38669e-40 0.0006152879 0.07311376
0000e0 54 96 00 00 08 56 9c 3d 6b 0f 00 80 2f 7f b5 3d
       5.3928e-41 0.07633597 -5.531e-42 0.08862149
0000f0 13 bc 04 00 73 48 00 00 8c 62 00 80 b4 b5 0a 3d
       4.3481e-40 2.599e-41 -3.5352e-41 0.03386469
000100 27 be 55 39 39 56 c5 b4 7b d3 44 b7 e0 93 81 b5
       0.000203841 -3.6756845e-07 -1.17317495e-05 -9.654286e-07
000110 76 66 00 00 9d c5 00 00 52 2c 4b b5 36 87 21 3b
       3.6756e-41 7.089e-41 -7.568789e-07 0.0024647242
000120 ac 1e 02 80 a2 7c 88 ba be 03 00 00 5c e6 0e ba
       -1.94674e-40 -0.001041312 1.342e-42 -0.00054511963
000130 1c 89 00 80 4c 90 00 80 b5 3c 00 80 ab bb c2 b7
       -4.9186e-41 -5.1764e-41 -2.1778e-41 -2.3213992e-05
000140 b2 4d 00 00 b4 72 00 00 12 27 00 80 79 00 00 80
       2.7872e-41 4.1148e-41 -1.4016e-41 -1.7e-43
000150 88 bb 00 00 c4 3d 00 00 ba 74 00 00 c4 b2 00 00
       6.7274e-41 2.2157e-41 4.1874e-41 6.4129e-41
000160 1c 02 00 80 79 aa 00 00 19 ad 00 00 cc 1f 00 00
       -7.57e-43 6.1154e-41 6.2096e-41 1.1407e-41
000170 0e 25 00 00 a3 75 00 80 c6 3d 00 80 d9 01 00 00
       1.3293e-41 -4.22e-41 -2.216e-41 6.63e-43
000180 4b 7f 00 00 dc 67 00 00 8f 40 00 80 0a 45 00 00
       4.5664e-41 3.7258e-41 -2.3159e-41 2.4767e-41
000190 60 18 00 80 3e 95 00 80 f7 ad 00 00 08 2f 00 80
       -8.744e-42 -5.3538e-41 6.2407e-41 -1.6872e-41
0001a0 58 bf 00 80 8a a1 00 00 01 a9 00 80 13 2c 00 80
       -6.8641e-41 5.7949e-41 -6.0627e-41 -1.5811e-41
0001b0 5a a5 00 80 ad 9e 00 80 bb 8b 00 00 6d 26 00 80
       -5.9317e-41 -5.6922e-41 5.0126e-41 -1.3785e-41
0001c0 7c 16 28 39 2d f2 2a 36 90 5d 0e 39 f9 58 a7 b6
       0.00016030105 2.547294e-06 0.0001357703 -4.9873456e-06
0001d0 f1 41 00 80 7e 34 00 80 55 c7 57 36 ec cf 4e 3a
       -2.3655e-41 -1.883e-41 3.2153523e-06 0.0007889259
0001e0 c1 f3 00 00 c7 85 2a 3a dc 7a 00 80 53 e3 0d 3a
       8.7442e-41 0.000650492 -4.4074e-41 0.0005412597
0001f0 5f ae 00 80 47 69 00 80 31 96 00 00 4b db 5f 39
       -6.2553e-41 -3.7766e-41 5.3879e-41 0.0002134863
000200 9f a5 89 3c 5b c1 4b 39 db e0 38 3c a4 ff 85 ba
       0.016802607 0.00019431619 0.0112840785 -0.0010223282
000210 7d 02 00 80 f5 51 00 00 35 82 71 39 7c c9 86 3d
       -8.93e-43 2.94e-41 0.00023032057 0.06581399
000220 c6 dc 00 00 28 fe 2b 3c 04 8e 00 00 5b 7d 8c 3d
       7.9199e-41 0.010497607 5.0946e-41 0.06859847
000230 51 30 77 10 5b ce 01 80 67 4d 00 00 18 18 95 3c
       4.8749383e-29 -1.65862e-40 2.7767e-41 0.018199965
000240 9b 0d 05 38 d0 f0 3d 35 40 74 35 38 50 3f 27 b6
       3.1722342e-05 7.0758415e-07 4.326203e-05 -2.4921792e-06
000250 94 1d 00 80 6e 0f 00 80 b5 85 11 35 cb d6 59 3a
       -1.061e-41 -5.535e-42 5.421128e-07 0.00083099
000260 2b b4 00 00 1a 8a b4 38 1f 6b 00 80 c5 bd 87 38
       6.4632e-41 8.608792e-05 -3.8428e-41 6.472649e-05
000270 8e 3e 00 80 10 0b 00 80 1b 11 00 00 4b 0b 83 38
       -2.244e-41 -3.968e-42 6.136e-42 6.24867e-05
000280 80 51 00 00 02 7d 00 80 a2 6e 00 00 f4 31 00 80
       2.9237e-41 -4.4844e-41 3.9688e-41 -1.792e-41
000290 63 0c 00 80 65 11 00 80 49 a6 00 00 cd 8f 00 80
       -4.444e-42 -6.24e-42 5.9652e-41 -5.1586e-41
0002a0 b3 00 00 80 6e 48 00 80 78 ae 00 80 e1 41 00 80
       -2.51e-43 -2.5983e-41 -6.2588e-41 -2.3633e-41
0002b0 70 dd 01 00 d3 05 00 80 f4 2e 00 80 8a 4f 00 00
       1.71272e-40 -2.09e-42 -1.6844e-41 2.8533e-41
0002c0 42 88 00 80 f9 51 00 00 3a 64 00 80 f1 32 00 00
       -4.888e-41 2.9406e-41 -3.5955e-41 1.8274e-41
0002d0 f5 b8 00 00 50 00 00 00 16 6f 00 00 73 2a 00 80
       6.635e-41 1.12e-43 3.985e-41 -1.5228e-41
0002e0 9b 9e 00 80 21 6e 00 80 0c 31 00 00 7d 1f 00 80
       -5.6897e-41 -3.9507e-41 1.7595e-41 -1.1296e-41
0002f0 7f 87 00 00 bf ae 00 00 8c 01 00 80 77 52 00 00
       4.8607e-41 6.2687e-41 -5.55e-43 2.9583e-41
000300 52 02 62 30 5b a3 27 81 04 64 9f 0e 97 07 57 98
       8.222162e-10 -3.0790258e-38 3.9292838e-30 -2.779193e-24
000310 0f 07 00 00 a3 9a 00 00 66 84 9d 8c 22 45 b0 b2
       2.532e-42 5.5473e-41 -2.4269365e-31 -2.0520535e-08
000320 4d 6d 00 00 a0 f3 66 32 85 6b 00 80 fc 5a b1 b1
       3.921e-41 1.3443156e-08 -3.8571e-41 -5.1617217e-09
000330 47 89 00 80 53 6b 01 00 bf 65 00 80 bc c9 fe a2
       -4.9246e-41 1.30336e-40 -3.65e-41 -6.9060433e-18
000340 e8 1b b8 3c f9 ad ae 39 d5 f2 8c 3c d5 ee c7 ba
       0.022474244 0.00033317486 0.017205635 -0.0015253673
000350 34 81 00 00 7e 12 00 00 50 60 f8 39 bb 56 29 3d
       4.635e-41 6.634e-42 0.00047374004 0.04134248
000360 3a b6 01 00 46 02 a4 3d c3 9f 00 80 38 0f 95 3d
       1.57206e-40 0.08008246 -5.7312e-41 0.07278293
000370 58 c5 90 10 17 91 00 00 46 2f 00 00 27 e7 00 3d
       5.710204e-29 5.2048e-41 1.6959e-41 0.031470444
000380 b0 a2 00 00 f3 b9 00 00 5b 22 00 00 10 0b 00 80
       5.8361e-41 6.6706e-41 1.2324e-41 -3.968e-42
000390 79 bf 00 00 c5 5e 00 80 c5 b6 00 80 64 70 00 80
       6.8687e-41 -3.3997e-41 -6.5565e-41 -4.0318e-41
0003a0 86 66 00 80 6b 33 00 00 84 62 00 00 56 17 00 80
       -3.6778e-41 1.8445e-41 3.5341e-41 -8.371e-42
0003b0 45 9f 00 00 e1 50 00 80 5e ac 00 00 54 90 00 80
       5.7135e-41 -2.9014e-41 6.1834e-41 -5.1775e-41
0003c0 22 01 5f 38 4f 33 e9 34 14 f5 db 37 c6 f7 da b5
       5.3168398e-05 4.3436964e-07 2.6220958e-05 -1.6314377e-06
0003d0 db 63 00 00 03 07 00 80 f1 c3 b6 34 bd 45 4e 3a
       3.5821e-41 -2.515e-42 3.4042708e-07 0.0007868668
0003e0 50 16 00 80 cd ef 93 b9 6f 15 00 80 7e 9f 34 39
       -8.004e-42 -0.0002821669 -7.689e-42 0.00017225553
0003f0 c5 be 00 80 0e 8a 00 80 37 0e 00 00 d4 7a 2c 38
       -6.8435e-41 -4.9525e-41 5.1e-42 4.112239e-05

mlp.6.bias f4 [32]
000000 78 b2 00 80 d4 19 17 3b 79 26 d6 3b b3 9f 4f 3b
       -6.4023e-41 0.0023056166 0.006535348 0.0031680882
000010 ff c8 48 b5 a4 0b 00 80 76 02 00 00 26 01 f5 37
       -7.4798294e-07 -4.176e-42 8.83e-43 2.920681e-05
000020 36 6f e2 3a ea 3c 30 37 e2 86 00 80 76 7f 00 80
       0.0017275575 1.05046e-05 -4.8387e-41 -4.5724e-41
000030 18 03 00 00 30 a4 28 3b 4d 56 00 00 b0 54 c6 36
       1.11e-42 0.002573263 3.0959e-41 5.9107188e-06
000040 7a 00 d5 3b ae 6c 00 80 e0 5a 00 00 97 04 01 00
       0.006500301 -3.8987e-41 3.26e-41 9.3482e-41
000050 d1 60 00 00 eb 43 8d b4 ad d0 96 3a 93 22 a5 3a
       3.4731e-41 -2.6312713e-07 0.0011506282 0.0012598805
000060 ff e6 af 36 e9 af e1 3a c4 ce 00 00 6f e7 16 80
       5.242298e-06 0.0017218563 7.4174e-41 -2.103404e-39
000070 b3 ad 00 00 87 71 67 2f d5 49 00 00 77 4e cb 39
       6.2312e-41 2.104966e-10 2.6486e-41 0.00038777638

mlp.9.weight f4 [64, 32]
000000 d8 19 01 00 33 e2 2e 22 f2 67 70 a6 e5 3e c6 1c
       1.01106e-40 2.3701146e-18 -8.34076e-16 1.3118799e-21
000010 67 c1 00 00 a2 3d 00 00 89 87 00 00 25 28 00 80
       6.938e-41 2.211e-41 4.8621e-41 -1.4401e-41
000020 b7 13 00 80 01 21 00 00 cf 0b 00 00 56 61 00 80
       -7.072e-42 1.184e-41 4.236e-42 -3.4918e-41
000030 5d 06 00 80 d0 f8 2c 89 19 81 02 00 95 48 00 80
       -2.283e-42 -2.0820738e-33 2.29983e-40 -2.6038e-41
000040 8f fc a8 96 49 c5 00 00 68 4c 00 80 22 fd 00 00
       -2.730125e-25 7.0773e-41 -2.741e-41 9.0807e-41
000050 86 79 00 00 f9 01 00 00 36 62 32 16 e5 87 00 80
       4.3594e-41 7.08e-43 1.4409715e-25 -4.875e-41
000060 e7 00 00 00 12 8d 00 00 a7 77 00 80 0e 7a 00 00
       3.24e-43 5.0606e-41 -4.2923e-41 4.3785e-41
000070 ea 81 00 00 2c e1 00 00 90 44 00 80 a5 2b 00 00
       4.6604e-41 8.0776e-41 -2.4596e-41 1.5657e-41
000080 65 1d 00 80 dc 0b f1 b6 08 2f 41 b8 20 05 1a b6
       -1.0545e-41 -7.1837403e-06 -4.6058587e-05 -2.2950771e-06
000090 3b 68 94 0a cb 01 00 80 f3 08 00 00 3e 9f ae ab
       1.4291089e-32 -6.43e-43 3.21e-42 -1.2407642e-12
0000a0 02 76 48 2f 08 16 0b a5 b7 b5 00 80 90 20 00 00
       1.8231819e-10 -1.2063793e-16 -6.5187e-41 1.1681e-41
0000b0 ed 64 d4 1f 25 b1 c3 34 fd d7 00 80 86 3c a8 a3
       8.995246e-20 3.645047e-07 -7.7482e-41 -1.8240229e-17
0000c0 5a 85 b3 35 21 65 00 00 3b 67 00 00 20 0b 00 00
       1.337535e-06 3.6278e-41 3.7032e-41 3.991e-42
0000d0 4e 9d 00 00 4c 97 a4 8f 0b 43 3f 35 2f f7 36 2c
       5.643e-41 -1.6229926e-29 7.1250605e-07 2.600097e-12
0000e0 ef 30 51 14 a7 ed cb 2b 95 1f 00 00 aa 82 00 00
       1.0561454e-26 1.4489979e-12 1.133e-41 4.6873e-41
0000f0 e0 11 00 80 ad 8c 00 00 f6 2a 00 00 7e 01 0d 2b
       -6.412e-42 5.0465e-41 1.5411e-41 5.0095334e-13
000100 2e bd 05 80 c1 19 38 3d d4 88 17 3e 59 60 82 3d
       -5.27042e-40 0.044946436 0.1479829 0.06366033
000110 c7 34 24 37 6d da 01 00 4f ca 00 00 d9 8d 13 3a
       9.78745e-06 1.70192e-40 7.2575e-41 0.0005628742
000120 40 d1 21 3d 1e cb 56 39 91 45 00 00 0a 84 00 00
       0.039506197 0.00020484297 2.4956e-41 4.7367e-41
000130 a8 35 3d b1 92 6c 80 3d f7 b6 00 80 cc 2f 0f 39
       -2.753362e-09 0.06270708 -6.5635e-41 0.00013655348
000140 6c 2b 1a 3e 6f 41 01 00 06 8b 00 00 29 4b 00 80
       0.15055627 1.15309e-40 4.9872e-41 -2.6962e-41
000150 e2 77 00 00 70 f5 89 37 a4 71 a8 3c ea ac dd 3c
       4.3006e-41 1.6445963e-05 0.020562 0.02705999
000160 eb a4 09 39 83 7b 22 3d a0 5e 00 00 0b 60 00 80
       0.00013126775 0.03966857 3.3945e-41 -3.4454e-41
000170 c4 57 00 00 c3 62 7f 32 0e 8e 02 80 83 2e f3 3b
       3.1484e-41 1.4865409e-08 -2.3463e-40 0.007421316
000180 70 a9 00 80 48 2b 25 3b 33 2e 60 3c 9e 23 a7 3b
       -6.0783e-41 0.00252028 0.01368289 0.0051006814
000190 10 77 cb 33 de 16 00 80 9f b3 00 00 5e c4 04 38
       9.4745815e-08 -8.203e-42 6.4436e-41 3.1654134e-05
0001a0 82 2c 37 3b 21 fb 46 37 93 7f 00 00 9c 31 00 00
       0.0027950113 1.186019e-05 4.5765e-41 1.7796e-41
0001b0 1f e3 d6 2d 42 46 91 3b 6d 7a 00 80 4b 21 fa 36
       2.4429845e-11 0.004433424 -4.3918e-41 7.4544564e-06
0001c0 53 46 68 3c 2b 5f 01 80 25 25 00 00 85 3a 00 80
       0.014176923 -1.25975e-40 1.3325e-41 -2.0993e-41
0001d0 88 27 00 00 0c 58 12 35 40 bb fc 3a cd 1e e3 3a
       1.4181e-41 5.4517363e-07 0.0019281879 0.0017327905
0001e0 0e b3 14 37 9a d5 2f 3b 69 14 00 80 9d 24 01 00
       8.863177e-06 0.0026830197 -7.322e-42 1.0497e-40
0001f0 d6 b4 00 00 14 1d b8 30 35 2a 00 80 f1 8f e9 39
       6.4872e-41 1.3396027e-09 -1.5141e-41 0.00044548468
000200 45 a5 00 80 4b a2 64 3a ae 2e 5c 3b e1 75 5a 3a
       -5.9288e-41 0.00087216933 0.003359716 0.00083336054
000210 62 44 43 b3 22 2b 00 00 c3 3e 00 80 6b 11 90 36
       -4.546417e-08 1.5473e-41 -2.2515e-41 4.293562e-06
000220 ea c4 f4 39 50 3e ea 35 ca b3 00 80 c5 ca 00 00
       0.0004668602 1.7452494e-06 -6.4496e-41 7.274e-41
000230 48 8d 56 9d 45 74 3f 3a 08 5e 00 00 61 61 8f 35
       -2.8395705e-21 0.0007303397 3.3732e-41 1.0682671e-06
000240 2f f6 2c 3b 5a 96 00 00 31 48 00 00 1e 0d 01 00
       0.0026391854 5.3936e-41 2.5897e-41 9.6541e-41
000250 a8 bc 00 00 a7 3f 3a 33 ca 06 74 39 10 e7 94 39
       6.7677e-41 4.336439e-08 0.00023272182 0.00028400915
000260 ef d3 d0 35 09 d8 ed 39 03 29 00 00 8c a2 00 80
       1.5558888e-06 0.0004536512 1.4712e-41 -5.8311e-41
000270 f2 05 00 00 48 fa a0 2f 69 a5 00 80 8c 10 8f 38
       2.133e-42 2.9281666e-10 -5.9338e-41 6.8218535e-05
000280 e1 a5 00 80 46 f6 08 8e 01 61 8d 0d 6f 8d 84 8c
       -5.9506e-41 -1.688187e-30 8.713149e-31 -2.0422942e-31
000290 a9 43 f9 86 ad 2d 00 80 86 3b 00 00 dd d6 66 88
       -9.376281e-35 -1.6385e-41 2.1353e-41 -6.946568e-34
0002a0 22 f9 87 8b d7 bf c0 87 03 99 00 80 2d 35 01 80
       -5.237496e-32 -2.9001702e-34 -5.489e-41 -1.10911e-40
0002b0 d3 ad 00 00 d5 1c d2 8b 80 1a 00 00 e8 46 6c 87
       6.2356e-41 -8.093244e-32 9.506e-42 -1.7775504e-34
0002c0 77 03 a7 8c 50 0c 00 80 e6 33 00 80 82 66 00 00
       -2.573251e-31 -4.417e-42 -1.8618e-41 3.6773e-41
0002d0 6d dc 00 80 8b ea cb 86 38 59 a2 8b 15 54 37 8b
       -7.9074e-41 -7.6704743e-35 -6.253437e-32 -3.5307774e-32
0002e0 e4 d8 4f 87 1e ee a5 8b a1 1c 00 00 ce 6b 00 80
       -1.5636688e-34 -6.391397e-32 1.027e-41 -3.8673e-41
0002f0 ac 8c 00 80 40 ba 5b 80 a3 59 00 80 25 a2 3f 8a
       -5.0464e-41 -8.423844e-39 -3.2156e-41 -9.2268115e-33
000300 bf 38 00 80 7d 0f 01 80 3d 37 00 00 a0 ac 00 00
       -2.0357e-41 -9.7392e-41 1.9816e-41 6.1926e-41
000310 36 4a 00 00 49 83 00 00 47 c8 00 80 a4 82 00 00
       2.6622e-41 4.7096e-41 -7.1846e-41 4.6865e-41
000320 d2 02 01 80 f2 06 00 00 0b 62 00 00 4c 7b 01 80
       -9.2847e-41 2.492e-42 3.5171e-41 -1.36066e-40
000330 fe 91 00 00 4c 9d 02 80 06 e0 00 00 78 1d 00 80
       5.2372e-41 -2.40098e-40 8.0364e-41 -1.0571e-41
000340 42 66 00 80 4d 34 00 00 60 64 00 80 1a 4f 05 00
       -3.6683e-41 1.8762e-41 -3.6008e-41 4.87554e-40
000350 f7 46 00 00 ec c9 00 80 7a 23 00 80 9e 17 00 00
       2.5457e-41 -7.2436e-41 -1.2727e-41 8.472e-42
000360 45 b6 00 80 5a 4d 01 80 51 2f 00 80 86 51 04 80
       -6.5386e-41 -1.19584e-40 -1.6974e-41 -3.96587e-40
000370 d4 0a 00 00 8d 10 00 00 33 26 00 00 04 13 00 00
       3.884e-42 5.937e-42 1.3703e-41 6.822e-42
000380 3e 5f 00 00 e3 4d d1 39 2e e3 d3 3a 41 44 c1 39
       3.4166e-41 0.00039921617 0.0016165727 0.00036862682
000390 bd fa b7 b2 e9 19 00 00 1f 20 00 80 26 30 eb 35
       -2.1418026e-08 9.295e-42 -1.1523e-41 1.7522877e-06
0003a0 f6 63 4b 39 ec 5d 3b 35 36 c9 00 80 02 3e 00 80
       0.00019396827 6.9799603e-07 -7.2181e-41 -2.2244e-41
0003b0 d3 9a 4d a2 78 04 9e 39 07 40 00 80 2f 3d e8 34
       -2.7864644e-18 0.00030139438 -2.2969e-41 4.3257884e-07
0003c0 25 24 81 3a 51 4e 00 00 23 38 00 80 65 01 01 00
       0.0009852691 2.8095e-41 -2.0138e-41 9.2336e-41
0003d0 ec 17 00 80 82 99 21 32 33 df ba 38 7f 91 f8 38
       -8.582e-42 9.406337e-09 8.910745e-05 0.00011852662
0003e0 32 8a 31 35 05 4e 48 39 42 8c 00 00 9e a2 00 80
       6.613874e-07 0.00019102551 5.0315e-41 -5.8336e-41
0003f0 d5 6c 00 00 0d 83 07 2f 09 40 00 80 61 ca eb 37
       3.9042e-41 1.2324737e-10 -2.2971e-41 2.8108423e-05

mlp.9.bias f4 [64]
000000 c1 5e 00 80 b1 4f 00 80 ca 63 1c 3c ce bd 5b 3a
       -3.3991e-41 -2.8588e-41 0.009545276 0.000838247
000010 20 17 33 39 0c 16 87 8a f5 af 00 00 12 e6 a0 38
       0.00017079385 -1.300832e-32 6.3121e-41 7.6722485e-05
000020 45 0b d1 37 b7 da f2 3b 6c 32 28 35 eb 9a 00 00
       2.491999e-05 0.0074113267 6.265825e-07 5.5574e-41
000030 af 9c 00 80 13 91 00 80 c9 a5 d6 33 fb a4 cd 3b
       -5.6207e-41 -5.2043e-41 9.995308e-08 0.0062757707
000040 3f 18 00 80 c5 95 37 3b 9a a9 00 00 d4 92 00 80
       -8.698e-42 0.0028012854 6.0842e-41 -5.2672e-41
000050 74 6f 00 00 6d 7e 61 3b df 60 00 80 ab 90 79 35
       3.9982e-41 0.003440763 -3.4751e-41 9.297025e-07
000060 43 13 c2 36 f0 bf 00 00 6d 1a 00 00 f3 eb 52 34
       5.783893e-06 6.8854e-41 9.48e-42 1.9643612e-07
000070 68 aa 00 00 57 96 00 80 d9 25 00 00 94 1b f0 39
       6.113e-41 -5.3932e-41 1.3577e-41 0.00045796914
000080 76 c8 f3 32 a2 de 00 00 7b 49 e2 3a 1a 50 8d 37
       2.8380082e-08 7.9866e-41 0.001726433 1.684581e-05
000090 3a ed b6 3b ec ab 21 3c c9 13 00 80 1f 64 19 a8
       0.005582479 0.0098676495 -7.098e-42 -8.5149164e-15
0000a0 14 a8 00 00 cc fc 93 a9 92 5f 2b ab 99 78 30 80
       6.0295e-41 -6.5719647e-14 -6.0884034e-13 -4.451366e-39
0000b0 c0 1e 00 00 e8 4f 00 00 17 b6 00 00 91 16 00 80
       1.1031e-41 2.8665e-41 6.5322e-41 -8.095e-42
0000c0 3e 38 00 00 be eb 81 36 88 89 00 80 a8 0f e6 3a
       2.0176e-41 3.8719436e-06 -4.9337e-41 0.0017552273
0000d0 98 9d cd 3b 31 85 00 00 21 8f b2 3a e1 3c 00 80
       0.00627489 4.778e-41 0.0013622978 -2.1839e-41
0000e0 c8 e3 a1 3b 03 9d 8c 3b 3f 9a 00 80 36 68 c1 a6
       0.0049404837 0.004291178 -5.5333e-41 -1.3420312e-15
0000f0 cc 19 00 00 f4 08 00 80 eb ac 2b 31 bd a1 ac 3b
       9.254e-42 -3.212e-42 2.4982068e-09 0.005268304

mlp.12.weight f4 [128, 64]
000000 c7 04 00 00 ee 82 00 80 90 d8 05 80 2a be 00 80
       1.714e-42 -4.6969e-41 -5.36865e-40 -6.8218e-41
000010 8b 6e 00 80 4e cf 01 80 cc b1 00 80 d7 4a 00 80
       -3.9655e-41 -1.66202e-40 -6.3782e-41 -2.6847e-41
000020 df 43 00 80 a9 7e 07 00 0a 4a 00 00 e4 a3 00 80
       -2.4348e-41 6.88286e-40 2.656e-41 -5.8793e-41
000030 8c 45 00 00 a7 a6 00 80 5b b9 00 00 43 ad 03 80
       2.4949e-41 -5.9784e-41 6.6493e-41 -3.37661e-40
000040 69 9b 00 00 b6 ac 01 80 0a c6 00 00 97 0b 01 80
       5.575e-41 -1.53793e-40 7.1043e-41 -9.5993e-41
000050 bd 52 00 00 ad a0 01 80 17 4d 00 00 42 92 00 80
       2.9681e-41 -1.49475e-40 2.7655e-41 -5.2467e-41
000060 c1 9f 00 00 67 a8 01 00 df 32 01 00 44 3a 01 80
       5.7309e-41 1.52247e-40 1.10085e-40 -1.12737e-40
000070 e3 d3 00 80 fd 2e 00 00 74 ea 01 00 52 6e 00 80
       -7.601e-41 1.6856e-41 1.75941e-40 -3.9575e-41
000080 d1 ae 00 80 a8 bc 00 00 5e c9 01 80 5b ba 00 00
       -6.2712e-41 6.7677e-41 -1.64072e-40 6.6852e-41
000090 32 56 01 00 b7 b3 05 80 2d b2 00 80 95 d6 00 00
       1.22757e-40 -5.23647e-40 -6.3917e-41 7.6978e-41
0000a0 01 9a 00 00 94 40 01 80 dd ff 02 00 66 7c 00 00
       5.5246e-41 -1.15002e-40 2.75457e-40 4.4626e-41
0000b0 ee 69 01 00 f0 01 00 00 68 d9 00 00 45 cf 00 80
       1.29836e-40 6.95e-43 7.799e-41 -7.4354e-41
0000c0 31 70 00 00 de a6 00 00 54 3b 00 00 12 39 01 00
       4.0247e-41 5.986e-41 2.1283e-41 1.12308e-40
0000d0 2a 0e 05 80 0f 3f 00 00 a3 60 00 80 7c 6e 00 80
       -4.64259e-40 2.2621e-41 -3.4667e-41 -3.9634e-41
0000e0 7c e6 02 80 fc ff 01 80 b1 98 00 00 a3 d5 00 00
       -2.66353e-40 -1.83665e-40 5.4775e-41 7.6638e-41
0000f0 9a 48 00 00 7f 1c 00 80 d0 d2 00 80 f5 76 02 80
       2.6045e-41 -1.0222e-41 -7.5625e-41 -2.26345e-40
000100 6a b4 00 80 a3 4b 00 00 5a 58 a9 af 1e 91 c1 aa
       -6.472e-41 2.7133e-41 -3.0803698e-10 -3.4384382e-13
000110 42 fa e7 a0 30 bd 00 80 16 c6 00 00 17 82 90 a6
       -3.929853e-19 -6.7868e-41 7.106e-41 -1.0027268e-15
000120 59 ae 60 a8 40 ae 82 af b7 e4 2a a3 d1 7f 00 00
       -1.24723035e-14 -2.3770674e-10 -9.264151e-18 4.5852e-41
000130 4b 5b 00 00 93 1f 00 80 49 0e 05 98 7e 4c 1b af
       3.275e-41 -1.1327e-41 -1.719706e-24 -1.4124343e-10
000140 47 21 00 80 d3 7e f3 ad 03 ec 00 80 13 12 00 00
       -1.1938e-41 -2.7682223e-11 -8.4665e-41 6.484e-42
000150 c9 7f 00 80 5a 7f 2d ae 04 92 00 00 95 86 96 90
       -4.584e-41 -3.9448757e-11 5.238e-41 -5.9371924e-29
000160 1f ed b1 a2 3c 8d 00 00 66 3d 00 80 06 16 8d 9b
       -4.8227008e-18 5.0665e-41 -2.2026e-41 -2.3340726e-22
000170 e9 6a 00 80 9b bc 00 80 33 3c 00 80 6c 76 97 a6
       -3.8352e-41 -6.7659e-41 -2.1595e-41 -1.0509828e-15
000180 46 01 67 97 9c f4 00 00 5c a0 a7 a8 94 f9 36 a8
       -7.4641733e-25 8.775e-41 -1.861027e-14 -1.0157148e-14
000190 d5 a7 27 ad ef e0 cc 2f 7d 6d 00 00 34 9d 00 00
       -9.530117e-12 3.726721e-10 3.9277e-41 5.6394e-41
0001a0 1d 7b 00 80 de 82 00 80 af 54 79 82 8a a0 00 80
       -4.4165e-41 -4.6946e-41 -1.8317934e-37 -5.759e-41
0001b0 aa 87 00 80 e6 2c 03 00 d5 c4 00 80 e2 bd 00 00
       -4.8667e-41 2.91613e-40 -7.061e-41 6.8117e-41
0001c0 1b 9c 0c 12 c9 0d e7 91 8c 9f 00 00 51 05 f8 ad
       4.4368626e-28 -3.645387e-28 5.7235e-41 -2.8196697e-11
0001d0 18 50 62 ad e8 a5 00 00 2e b4 0c a8 77 1a 00 80
       -1.2864397e-11 5.9516e-41 -7.810631e-15 -9.494e-42
0001e0 4a 8d dd ad cf a3 2a ae c5 a6 00 80 e3 80 00 80
       -2.5187536e-11 -3.8799016e-11 -5.9826e-41 -4.6236e-41
0001f0 ff 9d 00 00 63 35 01 80 46 46 1e 98 5b 67 c0 ad
       5.6678e-41 -1.10987e-40 -2.04565e-24 -2.1873772e-11
000200 dc b7 00 80 59 90 00 80 e8 d5 27 80 93 ed 02 80
       -6.5956e-41 -5.1782e-41 -3.65832e-39 -2.68897e-40
000210 1b 83 00 80 dc 48 00 00 78 5d 00 00 2e 6c 01 80
       -4.7032e-41 2.6137e-41 3.353e-41 -1.30643e-40
000220 73 7c 00 00 b4 de ac 00 ac 0c 02 80 1a 31 00 00
       4.4644e-41 1.5875596e-38 -1.88217e-40 1.7614e-41
000230 c2 11 00 00 0e 45 00 80 c5 26 00 80 f4 ed 43 80
       6.37e-42 -2.4772e-41 -1.3908e-41 -6.23834e-39
000240 77 aa 00 00 22 dc 1e 80 ee 77 00 00 de 64 00 00
       6.1151e-41 -2.834034e-39 4.3023e-41 3.6184e-41
000250 c3 4b 00 80 4b 42 0c 80 31 51 00 80 12 46 00 00
       -2.7178e-41 -1.125807e-39 -2.9126e-41 2.5136e-41
000260 e9 a3 00 00 e6 7a 00 80 a5 fc 00 00 c7 17 00 80
       5.88e-41 -4.4088e-41 9.0632e-41 -8.53e-42
000270 72 d4 00 80 51 be 00 00 db 41 00 00 7b ac 03 80
       -7.6211e-41 6.8273e-41 2.3624e-41 -3.37381e-40
000280 9a 8a 00 80 e9 9d 00 80 1c 39 07 80 24 0a 00 00
       -4.9721e-41 -5.6647e-41 -6.63335e-40 3.638e-42
000290 69 56 33 80 32 89 2f 80 60 6d 00 00 1c 50 00 00
       -4.714608e-39 -4.365485e-39 3.9236e-41 2.8738e-41
0002a0 67 31 00 80 93 bd 00 80 a6 ac 00 00 a2 13 00 00
       -1.7722e-41 -6.8006e-41 6.1935e-41 7.043e-42
0002b0 d4 f5 01 00 64 9a 00 00 59 5a 00 80 32 76 00 80
       1.80022e-40 5.5385e-41 -3.241e-41 -4.24e-41
0002c0 65 21 00 80 67 03 00 00 10 48 00 80 2e 1a 0a 80
       -1.198e-41 1.22e-42 -2.5851e-41 -9.27746e-40
0002d0 17 14 24 80 6c 83 00 80 ef c8 07 80 d8 c2 00 80
       -3.313285e-39 -4.7145e-41 -7.1493e-40 -6.9897e-41
0002e0 0b 05 1f 80 42 f1 2f 80 20 54 00 00 12 8d 00 80
       -2.84871e-39 -4.402815e-39 3.0178e-41 -5.0606e-41
0002f0 9e bb 00 00 9f 93 00 00 7c 10 00 00 7d 26 25 80
       6.7304e-41 5.2956e-41 5.913e-42 -3.41172e-39
000300 81 73 00 80 87 76 00 80 ce 92 00 80 89 59 00 80
       -4.1435e-41 -4.252e-41 -5.2664e-41 -3.2119e-41
000310 31 ab 00 80 cd 10 00 00 ee ac 00 80 42 51 00 80
       -6.1412e-41 6.027e-42 -6.2035e-41 -2.915e-41
000320 70 63 00 00 a4 aa 00 80 ed a8 00 80 10 c9 00 00
       3.5671e-41 -6.1214e-41 -6.0599e-41 7.2128e-41
000330 ad 8f 00 80 dc 11 00 80 ce 31 00 80 5b 29 00 00
       -5.1541e-41 -6.407e-42 -1.7867e-41 1.4836e-41
000340 db 75 00 00 47 86 00 80 42 cf 01 00 d6 7b 00 80
       4.2279e-41 -4.817e-41 1.66186e-40 -4.4424e-41
000350 b4 8c 00 00 a2 0f 00 80 13 b0 00 00 95 42 00 80
       5.0475e-41 -5.608e-42 6.3164e-41 -2.3885e-41
000360 c3 a9 00 80 cc 87 00 80 70 2d 00 00 dc 1e 00 80
       -6.0899e-41 -4.8715e-41 1.63e-41 -1.107e-41
000370 b0 2b 00 80 16 a6 00 80 6d b3 00 00 65 5b 00 00
       -1.5672e-41 -5.958e-41 6.4366e-41 3.2786e-41
000380 6a 67 00 00 1b de 00 00 ac 18 00 80 2f 7c 00 00
       3.7098e-41 7.9676e-41 -8.85e-42 4.4549e-41
000390 a8 4d 00 80 3e 18 00 80 f4 77 00 00 b3 16 00 00
       -2.7858e-41 -8.696e-42 4.3031e-41 8.143e-42
0003a0 1f f8 00 00 b0 90 00 80 b4 32 00 80 e0 3b 00 00
       8.9009e-41 -5.1904e-41 -1.8189e-41 2.1479e-41
0003b0 4b 48 00 80 16 62 00 00 c2 56 00 00 46 b4 00 00
       -2.5934e-41 3.5187e-41 3.1123e-41 6.467e-41
0003c0 bb 5d 00 80 11 f3 00 80 eb 45 00 80 16 95 00 00
       -3.3624e-41 -8.7196e-41 -2.5082e-41 5.3482e-41
0003d0 d9 15 00 80 78 3f 00 80 c2 60 00 80 27 53 00 80
       -7.837e-42 -2.2768e-41 -3.471e-41 -2.983e-41
0003e0 d1 5a 00 80 7d 57 00 80 7e b7 00 00 2d 37 00 00
       -3.2579e-41 -3.1385e-41 6.5825e-41 1.9793e-41
0003f0 4f 38 00 00 6f 14 00 80 64 3d 00 00 0a 09 00 00
       2.02e-41 -7.33e-42 2.2023e-41 3.243e-42

mlp.12.bias f4 [128]
000000 59 a3 00 80 3d 9a 00 00 23 8e 03 80 9a 8c 00 80
       -5.8598e-41 5.533e-41 -3.26496e-40 -5.0438e-41
000010 a9 86 1d 3a e6 d4 00 80 2a ac fc 3b fb f3 16 3c
       0.00060091406 -7.6374e-41 0.0077109532 0.009213443
000020 41 0f 03 80 38 5d 1a 3c fe 21 73 8f 30 72 00 00
       -2.80979e-40 0.009421639 -1.1987372e-29 4.0963e-41
000030 42 67 02 80 48 80 0b 3c 85 10 a3 2a 0c 41 4b 3c
       -2.20713e-40 0.008514471 2.896608e-13 0.012405645
000040 46 9d 00 80 a1 e2 25 8f 92 b3 bc 95 8c dd 23 80
       -5.6419e-41 -8.178775e-30 -7.621591e-26 -3.293718e-39
000050 2e ee cd 2d 62 7c 00 00 11 7b 00 00 8e 67 28 a8
       2.3411575e-11 4.462e-41 4.4148e-41 -9.348328e-15
000060 ff 2d 00 00 ec 75 2b 3c 53 a3 0a 99 89 47 23 80
       1.65e-41 0.0104651265 -7.167416e-24 -3.239904e-39
000070 94 62 46 34 87 8b fc 39 0f eb 3e 3a d0 0e 01 80
       1.847605e-07 0.00048169142 0.0007282951 -9.7149e-41
000080 b5 7d 00 00 5e 2c cd 3b cc 7c 00 00 e4 14 27 36
       4.5095e-41 0.0062613925 4.4769e-41 2.48971e-06
000090 fd da 00 00 50 c5 ba 3b 06 77 00 80 bf 56 00 80
       7.8558e-41 0.005699791 -4.2698e-41 -3.1119e-41
0000a0 c3 2a 00 00 a0 da 00 00 11 b4 1d 33 4e b8 00 00
       1.534e-41 7.8428e-41 3.671818e-08 6.6116e-41
0000b0 f4 c6 2a 3a 8e 1e 82 3b ac 8b b7 33 54 61 1e a2
       0.00065146317 0.0039709276 8.547008e-08 -2.1464518e-18
0000c0 0a 28 00 80 65 59 00 80 89 c0 96 9d 1f 78 00 80
       -1.4363e-41 -3.2069e-41 -3.9903746e-21 -4.3091e-41
0000d0 9e e4 00 00 56 cf 0c 80 0d 57 44 3c fb 96 37 38
       8.2012e-41 -1.176404e-39 0.011983645 4.377121e-05
0000e0 ba 87 00 80 cc bf 00 80 2c 41 0d 3c 00 4e 00 00
       -4.869e-41 -6.8804e-41 0.008621495 2.7981e-41
0000f0 2a d9 11 80 fe 18 a6 35 c9 68 00 80 8b 08 2f 37
       -1.639107e-39 1.2375237e-06 -3.759e-41 1.0432802e-05
000100 ca 6f c5 3a 08 7e 00 00 d7 7c 2e 3c e4 3f 00 00
       0.0015063223 4.5211e-41 0.010649881 2.292e-41
000110 05 5a 00 00 9b 0f 69 3b a1 0b 6e 3c 4c 52 00 00
       3.2293e-41 0.003556228 0.01452914 2.9523e-41
000120 dd 76 00 80 12 ce 00 00 3d 71 00 80 f1 09 00 80
       -4.264e-41 7.3924e-41 -4.0622e-41 -3.566e-42
000130 3e a7 0b 82 79 a6 09 3a d9 82 00 00 50 35 00 00
       -1.0260103e-37 0.00052509416 4.6939e-41 1.9125e-41
000140 49 25 a3 3b 51 0b 00 80 3a 6a 00 00 5e 6c 00 80
       0.00497881 -4.06e-42 3.8107e-41 -3.8875e-41
000150 11 5b 00 00 69 2d 00 00 c3 83 2e a3 9c e2 61 3a
       3.2668e-41 1.629e-41 -9.4604605e-18 0.0008616836
000160 ee cd 00 80 26 7b db 3b b1 e5 49 3c fb f1 fb a8
       -7.3874e-41 0.00669803 0.012322829 -2.797154e-14
000170 fa f6 ef 8f e5 0a 00 80 65 d4 00 00 d3 61 17 91
       -2.3662351e-29 -3.908e-42 7.6193e-41 -1.1941944e-28
000180 44 6c 00 00 6e a2 00 00 b1 14 01 80 3e 99 01 00
       3.8838e-41 5.8269e-41 -9.9258e-41 1.46808e-40
000190 e5 92 00 00 36 17 01 aa d1 e7 00 80 89 e0 33 39
       5.2696e-41 -1.1465555e-13 -8.316e-41 0.00017154416
0001a0 fd ab 01 00 34 35 00 80 f7 95 33 80 66 cb 00 80
       1.53533e-40 -1.9086e-41 -4.737408e-39 -7.2966e-41
0001b0 fa 20 00 00 4f 1f 8b 3b 8f fc 5e a7 86 b5 10 2d
       1.183e-41 0.0042456756 -3.0945601e-15 8.225759e-12
0001c0 f2 14 00 00 bf 15 00 00 b9 83 00 00 f7 6b 42 3b
       7.514e-42 7.801e-42 4.7253e-41 0.0029666403
0001d0 34 9b 02 00 f4 69 00 00 4c da 82 38 7b f2 3e 3c
       2.39347e-40 3.8009e-41 6.239544e-05 0.011654492
0001e0 26 66 02 80 70 a5 00 80 f6 18 00 00 89 8b 27 3c
       -2.20315e-40 -5.9348e-41 8.954e-42 0.010226139
0001f0 86 c6 00 80 29 3c 31 80 6b 3e 18 91 72 a0 00 80
       -7.1217e-41 -4.521521e-39 -1.200992e-28 -5.7557e-41

mlp.15.weight f4 [64, 128]
000000 d4 de 00 80 95 df 7f 2e eb 6d 6b 80 b6 4c 00 00
       -7.9936e-41 5.8178868e-11 -9.865829e-39 2.7519e-41
000010 c2 9a dc 3a 2e 82 01 80 9a 68 db 3c 69 05 05 3d
       0.0016830789 -1.38535e-40 0.026783276 0.032475863
000020 f1 64 00 00 3c 43 09 3d 7f de b1 8e 15 05 00 00
       3.6211e-41 0.033511385 -4.3848125e-30 1.823e-42
000030 c3 03 00 00 51 4e f6 3c 27 2d 80 2d de 10 36 3d
       1.35e-42 0.030066641 1.4571967e-11 0.04444968
000040 d4 4f 00 00 ec 4c 9e 20 e4 98 90 16 a7 08 cb 80
       2.8637e-41 2.6817144e-19 2.3360942e-25 -1.864571e-38
000050 50 1e cd 2c 9c c9 00 80 c6 54 00 80 b8 21 8d 29
       5.829816e-12 -7.2324e-41 -3.0411e-41 6.267507e-14
000060 96 3f 00 00 7d ce 19 3d 44 7c b1 17 ff e0 de 00
       2.281e-41 0.03755044 1.1469726e-24 2.0468194e-38
000070 88 8e d5 34 7e d5 ba 3a 21 bb 0d 3b d7 9a 0b 80
       3.9778047e-07 0.00142543 0.002162643 -1.065737e-39
000080 9b 17 07 80 66 ce ae 3c 0e fd e3 8f 41 dc 98 36
       -6.51317e-40 0.021338653 -2.2481401e-29 4.555594e-06
000090 21 9b 00 00 5d 2f 98 3c 52 75 00 00 93 9a 00 00
       5.565e-41 0.018577272 4.2087e-41 5.5451e-41
0000a0 b3 ce 41 01 f3 07 02 00 a0 42 b7 33 db 55 01 00
       3.55968e-38 1.86523e-40 8.5337206e-08 1.22635e-40
0000b0 6b 56 00 3b 57 7b 56 3c 38 92 98 34 2a 10 8b 24
       0.001958276 0.01309093 2.8418594e-07 6.0309024e-17
0000c0 2b c4 00 00 ab 50 00 00 fd 6f d2 1d 64 1a 00 00
       7.0372e-41 2.8938e-41 5.570233e-21 9.467e-42
0000d0 30 c7 00 80 ca d4 3e 80 f2 db 31 3d fe 7e c7 38
       -7.1455e-41 -5.770135e-39 0.043422647 9.5127136e-05
0000e0 85 2e 00 80 a0 3c 01 00 23 63 f8 3c e8 a2 00 80
       -1.6688e-41 1.13584e-40 0.03032071 -5.844e-41
0000f0 f1 5b 0f 80 0d 0d 32 36 46 db fb 21 ea 49 9b 37
       -1.410515e-39 2.6531663e-06 1.7066463e-18 1.8511859e-05
000100 87 84 9a 3b 84 10 00 00 25 45 1c 3d 07 9b 01 00
       0.0047155055 5.925e-42 0.03815188 1.47449e-40
000110 6a b1 00 00 75 9f 3f 3c 29 b7 58 3d 8f c1 00 00
       6.3644e-41 0.011695732 0.05290905 6.9436e-41
000120 b9 56 00 00 1a 2b 00 80 4e 29 00 80 72 98 00 80
       3.111e-41 -1.5462e-41 -1.4817e-41 -5.4687e-41
000130 ad f1 c9 01 05 4f c9 3a 09 71 89 a9 16 96 01 80
       7.4182527e-38 0.0015358633 -6.1036306e-14 -1.45676e-40
000140 28 59 8a 3c 8b c8 00 00 be 61 87 93 98 62 00 00
       0.016888216 7.1941e-41 -3.4175172e-27 3.5369e-41
000150 6c 71 00 00 ad 27 08 00 79 19 c2 23 7b 65 22 3b
       4.0688e-41 7.48917e-40 2.104431e-17 0.0024779725
000160 9a cf 00 80 b0 91 bc 3c a4 f1 38 3d e5 ef c7 2a
       -7.4473e-41 0.023018688 0.04515232 3.5515961e-13
000170 03 5d 0c 15 b8 b0 b6 22 35 b9 00 00 53 fb 90 12
       2.8346148e-26 4.9518307e-18 6.644e-41 9.149634e-28
000180 69 98 39 12 ab 9a 00 00 29 14 08 00 83 ef 00 00
       5.8563567e-28 5.5484e-41 7.41916e-40 8.592e-41
000190 32 81 00 80 8e a9 de 2a a5 6a 00 00 73 4b f5 39
       -4.6347e-41 3.9552774e-13 3.8257e-41 0.00046786256
0001a0 9d 07 15 00 2c 9e 00 00 98 a4 89 80 5d 54 00 00
       1.931277e-39 5.6741e-41 -1.2640508e-38 3.0264e-41
0001b0 db 56 00 80 ed f5 63 3c 5e 4c 0a 28 e3 b0 4b 2c
       -3.1158e-41 0.013913614 7.677098e-15 2.8946227e-12
0001c0 7b 79 00 80 95 81 c6 14 6d a2 01 80 d5 81 18 3c
       -4.3579e-41 2.0044002e-26 -1.50103e-40 0.009308298
0001d0 00 40 01 80 ff 91 00 80 62 3d 2d 39 bb 85 2c 3d
       -1.14794e-40 -5.2374e-41 0.00016521433 0.042119723
0001e0 84 2d 01 00 65 6c 08 80 47 70 cc 15 ac 4e 16 3d
       1.08163e-40 -7.73569e-40 8.2572086e-26 0.03669612
0001f0 07 8f 00 80 1c 82 34 80 fe a4 d4 10 3e 7f 00 80
       -5.1309e-41 -4.82212e-39 8.3873467e-29 -4.5646e-41
000200 1b 1c 00 80 d9 6e 00 00 87 37 00 00 20 74 00 00
       -1.0082e-41 3.9765e-41 1.992e-41 4.1658e-41
000210 64 1a 00 80 ff 61 01 80 54 2e 00 80 ac 1a 00 80
       -9.467e-42 -1.2699e-40 -1.662e-41 -9.568e-42
000220 b2 6e 00 00 70 1b 00 80 a7 aa 00 00 70 fa 00 00
       3.971e-41 -9.843e-42 6.1219e-41 8.984e-41
000230 7b 59 00 80 d3 0a 00 80 c7 4c 00 80 ac 09 00 80
       -3.21e-41 -3.883e-42 -2.7543e-41 -3.47e-42
000240 86 6d 00 00 fc 8a 00 00 6a 27 00 00 7e d3 00 80
       3.929e-41 4.9858e-41 1.4139e-41 -7.5869e-41
000250 23 5c 00 80 75 95 01 80 3b b9 00 00 29 c7 00 00
       -3.3052e-41 -1.4545e-40 6.6448e-41 7.1445e-41
000260 38 75 00 80 3c 3c 00 00 b4 c0 00 00 25 c1 00 80
       -4.205e-41 2.1608e-41 6.9129e-41 -6.9287e-41
000270 f1 c4 00 80 df ae 00 80 b3 b8 00 80 6e 27 00 80
       -7.0649e-41 -6.2732e-41 -6.6258e-41 -1.4145e-41
000280 19 60 00 00 32 cc 00 80 1b 21 00 80 45 b9 00 80
       3.4473e-41 -7.3251e-41 -1.1876e-41 -6.6462e-41
000290 b3 1a 00 00 12 9b 00 80 3b 71 00 00 7f b5 00 00
       9.578e-42 -5.5629e-41 4.062e-41 6.5109e-41
0002a0 1b 39 00 00 12 a8 00 00 72 31 00 00 e9 6a 00 80
       2.0486e-41 6.0292e-41 1.7738e-41 -3.8352e-41
0002b0 54 41 00 80 5f 0b 00 00 6c 01 00 80 1b ca 00 80
       -2.3435e-41 4.079e-42 -5.1e-43 -7.2502e-41
0002c0 df cd 00 00 a4 40 01 00 7d d1 00 00 53 20 02 80
       7.3853e-41 1.15024e-40 7.515e-41 -1.95267e-40
0002d0 62 70 00 80 ae 48 00 00 2a 20 00 80 2a a2 00 80
       -4.0315e-41 2.6073e-41 -1.1538e-41 -5.8174e-41
0002e0 b8 12 00 80 ee e0 00 80 63 0a 00 00 f3 97 00 80
       -6.715e-42 -8.069e-41 3.726e-42 -5.4509e-41
0002f0 95 25 00 80 5d 75 00 80 3a 03 00 80 c2 6a 00 00
       -1.3482e-41 -4.2102e-41 -1.157e-42 3.8297e-41
000300 f6 7b 00 80 74 d5 00 80 93 0f 00 80 50 05 01 80
       -4.4469e-41 -7.6573e-41 -5.587e-42 -9.3741e-41
000310 48 ab 00 00 9a 04 00 80 27 28 00 80 33 35 02 00
       6.1444e-41 -1.651e-42 -1.4404e-41 2.02755e-40
000320 40 a2 00 00 e8 9a 00 80 3c 8e 00 80 43 41 00 80
       5.8204e-41 -5.557e-41 -5.1024e-41 -2.3411e-41
000330 88 68 00 00 fe 30 00 80 75 02 00 00 18 17 00 00
       3.7499e-41 -1.7575e-41 8.81e-43 8.284e-42
000340 68 16 00 00 5c 4f 01 80 df d5 00 00 b2 bd 00 00
       8.038e-42 -1.20304e-40 7.6722e-41 6.805e-41
000350 28 46 00 00 bf 55 01 80 a2 1d 00 80 57 60 00 00
       2.5167e-41 -1.22595e-40 -1.063e-41 3.456e-41
000360 fe 14 00 00 5b 7e 00 00 ee 00 00 80 6a 71 00 80
       7.53e-42 4.5328e-41 -3.34e-43 -4.0685e-41
000370 44 2d 00 80 8a 97 00 00 a8 a9 00 00 4e 39 01 00
       -1.6238e-41 5.4362e-41 6.0861e-41 1.12393e-40
000380 e3 72 00 80 01 34 00 80 25 6d 00 00 3b 63 00 80
       -4.1214e-41 -1.8655e-41 3.9154e-41 -3.5597e-41
000390 3c cc 00 80 6e 40 00 80 bb a4 02 00 c3 a3 00 00
       -7.3265e-41 -2.3113e-41 2.42765e-40 5.8747e-41
0003a0 88 32 00 00 de 4e 00 00 24 31 01 00 49 82 00 00
       1.8127e-41 2.8292e-41 1.09464e-40 4.6738e-41
0003b0 e3 0c 00 80 91 61 00 80 99 4c 00 00 04 5e 01 80
       -4.623e-42 -3.5e-41 2.7478e-41 -1.25562e-40
0003c0 42 86 01 80 77 a2 00 80 e2 51 00 80 2b 61 00 00
       -1.39998e-40 -5.8281e-41 -2.9374e-41 3.4857e-41
0003d0 d8 cc 00 80 4e 33 02 80 9f 56 00 00 85 83 00 00
       -7.3484e-41 -2.02076e-40 3.1074e-41 4.718e-41
0003e0 85 62 00 00 ea 3b 00 80 af 03 00 80 d8 25 00 80
       3.5342e-41 -2.1493e-41 -1.321e-42 -1.3576e-41
0003f0 56 47 00 80 b5 d1 00 80 a1 b9 00 80 a0 6c 00 00
       -2.559e-41 -7.5229e-41 -6.6591e-41 3.8967e-41

mlp.15.bias f4 [64]
000000 2d 95 aa 3c b9 11 00 80 31 3c 6d 3c 7d 33 c6 3a
       0.020823086 -6.358e-42 0.014479683 0.0015121546
000010 ab 6e 00 80 8a 34 66 3c 24 af 00 80 87 ce 00 00
       -3.97e-41 0.014050612 -6.2829e-41 7.4088e-41
000020 c5 4e 00 00 80 8f 01 80 50 45 00 80 8c d6 5d ae
       2.8257e-41 -1.43314e-40 -2.4865e-41 -5.0440138e-11
000030 bc f0 ac 38 88 9f 4c 14 26 21 2a a5 4e b6 d1 3c
       8.2464394e-05 1.033083e-26 -1.4756381e-16 0.025599625
000040 ce 60 00 80 9c 66 1e 3c 28 8b 00 00 0b 8b 00 00
       -3.4727e-41 0.009668019 4.992e-41 4.9879e-41
000050 a0 3c 00 80 6e 6f 33 88 75 b4 00 80 f3 7b e7 aa
       -2.1748e-41 -5.399684e-34 -6.4736e-41 -4.111985e-13
000060 71 d3 ee ac 85 d6 01 80 b6 b1 00 80 ad 36 ea 3c
       -6.7878416e-12 -1.6879e-40 -6.375e-41 0.028590525
000070 f6 fe 00 00 44 5c c9 84 5f 75 c4 16 0d 7c 00 80
       9.1463e-41 -4.7339605e-36 3.173958e-25 -4.4501e-41
000080 a6 90 e5 b2 c7 96 ac 8e 13 0e b2 80 4f c8 29 9b
       -2.6724887e-08 -4.2546467e-30 -1.6351767e-38 -1.4044076e-22
000090 81 89 00 80 d7 22 00 00 b1 84 00 80 e4 f5 00 80
       -4.9327e-41 1.2498e-41 -4.7601e-41 -8.8209e-41
0000a0 d6 2e 00 80 c8 3f 00 00 04 c7 d8 3c 26 79 a4 3c
       -1.6802e-41 2.288e-41 0.026462086 0.0200773
0000b0 dd 89 00 00 80 8c 00 00 12 be 72 3c a5 0f 01 80
       4.9456e-41 5.0402e-41 0.014815824 -9.7448e-41
0000c0 76 93 75 35 6a d5 7f 3b 26 37 00 00 81 4b 00 80
       9.1484196e-07 0.0039037117 1.9784e-41 -2.7086e-41
0000d0 a8 09 8b ad 18 28 00 80 6f 9b b9 3c 04 18 3a 8d
       -1.5806759e-11 -1.4383e-41 0.022657124 -5.7344583e-31
0000e0 ff 03 af 9b 8b bd 8c 3b 2a 04 16 3d 54 6c 00 00
       -2.8953904e-22 0.004295056 0.036625065 3.8861e-41
0000f0 93 4f 00 00 6f eb 29 39 bb 3d 35 8f d4 67 97 3c
       2.8546e-41 0.00016204802 -8.935878e-30 0.018482126

mlp.18.weight f4 [8, 64]
000000 99 12 00 80 b2 d2 00 80 84 07 00 00 1a ae 00 00
       -6.672e-42 -7.5583e-41 2.696e-42 6.2456e-41
000010 96 d4 01 80 5f 4b 01 80 bf 87 00 80 11 b7 00 00
       -1.68097e-40 -1.18874e-40 -4.8697e-41 6.5672e-41
000020 0c 57 01 00 15 23 00 00 2f 0f 00 00 c2 df 00 80
       1.23062e-40 1.2585e-41 5.447e-42 -8.0269e-41
000030 2d c7 00 00 b7 a1 00 80 5a cf 00 00 b1 88 01 00
       7.1451e-41 -5.8012e-41 7.4384e-41 1.40871e-40
000040 d8 4c 01 00 21 bd 00 80 4b 74 00 00 06 1d 00 00
       1.19402e-40 -6.7847e-41 4.1718e-41 1.0412e-41
000050 61 27 00 80 c8 05 00 00 b2 2d 00 80 81 22 01 80
       -1.4126e-41 2.074e-42 -1.6392e-41 -1.04213e-40
000060 b0 16 00 00 29 62 00 00 e8 c1 00 80 08 6c 01 80
       8.139e-42 3.5213e-41 -6.956e-41 -1.3059e-40
000070 90 04 02 80 06 67 00 80 04 a7 00 00 0d 25 00 80
       -1.85308e-40 -3.6958e-41 5.9914e-41 -1.3291e-41
000080 aa 11 00 80 c2 02 00 00 fe d0 00 80 b3 79 00 80
       -6.337e-42 9.9e-43 -7.4972e-41 -4.3657e-41
000090 f4 f2 01 80 e6 04 00 00 a5 96 00 80 9f 4f 00 80
       -1.7899e-40 1.757e-42 -5.4041e-41 -2.8563e-41
0000a0 c0 77 00 00 4c ae 00 00 cb cc 00 00 2b 4d 00 80
       4.2958e-41 6.2526e-41 7.3466e-41 -2.7683e-41
0000b0 c3 01 00 00 a4 79 02 80 a3 14 00 80 09 e7 00 00
       6.32e-43 -2.27307e-40 -7.403e-42 8.288e-41
0000c0 80 28 00 80 55 c5 00 80 e5 4c 00 00 16 64 00 80
       -1.4529e-41 -7.079e-41 2.7585e-41 -3.5904e-41
0000d0 24 1e 00 00 fd 8d 01 80 91 39 01 80 f5 c4 00 80
       1.0812e-41 -1.42771e-40 -1.12486e-40 -7.0655e-41
0000e0 a6 b7 00 00 1b 3f 00 80 1f 92 c9 82 98 c5 00 80
       6.588e-41 -2.2638e-41 -2.9618165e-37 -7.0883e-41
0000f0 5e 71 00 80 e2 08 00 80 0f a8 00 80 9d 78 00 00
       -4.0668e-41 -3.187e-42 -6.0288e-41 4.3268e-41
000100 aa 92 74 3d 1e ad 00 00 e3 6d 77 3d 93 32 ff 3b
       0.059710182 6.2103e-41 0.06040753 0.0077880113
000110 86 14 00 00 f1 5b 51 3d dc 2b 00 80 a3 0a 1d 23
       7.362e-42 0.051113073 -1.5734e-41 8.5132395e-18
000120 03 92 00 80 c5 ec 2d 80 cd c9 00 32 e0 4e 26 ad
       -5.2379e-41 -4.217534e-39 7.496465e-09 -9.453521e-12
000130 bc 66 a2 b9 2f b3 33 95 59 be 51 26 5d 0b bf 3d
       -0.0003097559 -3.6290113e-26 7.276941e-16 0.09328339
000140 9f 19 85 8b 28 e1 0c 3d 17 5f 17 9a 32 60 00 80
       -5.1268287e-32 0.034394413 -3.130288e-23 -3.4508e-41
000150 18 71 05 80 71 78 1c 91 df 95 03 87 67 08 82 2a
       -4.99748e-40 -1.2343344e-28 -9.899388e-35 2.309847e-13
000160 b9 4d 11 2e 82 76 00 00 b3 05 00 80 7c 48 f4 3d
       3.3038215e-11 4.2513e-41 -2.044e-42 0.11927888
000170 13 23 00 00 c3 a5 ff 0b 83 af 15 a7 f5 9a 00 80
       1.2582e-41 9.847184e-32 -2.0773049e-15 -5.5588e-41
000180 c4 ed 85 b9 95 35 30 1e d7 d6 bc 82 8b e7 38 9a
       -0.00025544886 9.328443e-21 -2.774743e-37 -3.8237347e-23
000190 3a 7d 00 80 d5 ad 00 00 f1 9e 00 80 16 3e 00 00
       -4.4923e-41 6.2359e-41 -5.7017e-41 2.2272e-41
0001a0 73 c9 6c 35 d0 33 00 80 1d 21 c2 3d a2 6f 8b 3d
       8.821e-07 -1.8587e-41 0.09478972 0.06808402
0001b0 d2 8e 00 80 85 51 00 00 46 3e a1 3d 0b 2c 00 00
       -5.1234e-41 2.9244e-41 0.07873206 1.58e-41
0001c0 14 7f 9a b6 a8 4e 0c 3c 53 cd 00 00 68 25 00 00
       -4.6043515e-06 0.008563675 7.3656e-41 1.3419e-41
0001d0 46 c5 36 2d d2 1e 05 ab 3d 78 df 3d e8 2a 15 10
       1.0389306e-11 -4.7293864e-13 0.109116055 2.9418122e-29
0001e0 10 f9 08 1c 69 f3 52 3c 33 08 25 3e 65 0e 00 80
       4.532053e-22 0.012875416 0.16116409 -5.164e-42
0001f0 1d 5c 5b a7 48 2e 0e ba 41 e5 e4 90 7a 45 96 3d
       -3.044229e-15 -0.00054237666 -9.0283365e-29 0.0733747
000200 f1 f1 f6 b3 ce 8e 00 80 28 33 46 b3 f3 48 c8 b1
       -1.14992766e-07 -5.1229e-41 -4.6146994e-08 -5.8290595e-09
000210 e1 a0 00 80 13 64 2c b3 6e 09 00 80 ba ab 00 00
       -5.7712e-41 -4.0137888e-08 -3.383e-42 6.1604e-41
000220 46 9f 00 00 d9 a9 00 80 dd 88 1f 30 8f 96 9e a4
       5.7137e-41 -6.093e-41 5.803836e-10 -6.8776633e-17
000230 7c 3b 65 af 9d 8f 4f 09 f4 36 8a 1a df 68 cb b3
       -2.0848562e-10 2.4984245e-33 5.7164244e-23 -9.472e-08
000240 94 e3 00 80 47 fd 8a 36 9a 5b 00 00 0a 1b 00 00
       -8.164e-41 4.142206e-06 3.286e-41 9.7e-42
000250 b4 01 00 00 8c 73 00 00 aa 15 02 80 2b bb 55 25
       6.11e-43 4.145e-41 -1.91443e-40 1.853822e-16
000260 7a c9 22 26 7c 33 00 80 b4 79 dc 80 6e b0 bc b3
       5.647809e-16 -1.8469e-41 -2.0247468e-38 -8.7865246e-08
000270 67 57 00 00 76 3a 00 00 6f f9 03 8a ce 25 ad 22
       3.1354e-41 2.0972e-41 -6.354334e-33 4.693177e-18
000280 7a 01 82 35 31 64 00 00 98 31 00 00 ce 4e bf 90
       9.686185e-07 3.5942e-41 1.7791e-41 -7.5457634e-29
000290 74 cb 00 80 0a 61 00 00 6d db 01 80 98 ac 00 80
       -7.2985e-41 3.4811e-41 -1.7055e-40 -6.1915e-41
0002a0 82 1c 32 a9 36 2a 8b 2a 5a 2b b7 b3 29 3b 89 b3
       -3.9548666e-14 2.472065e-13 -8.529487e-08 -6.390321e-08
0002b0 87 25 91 82 ef 73 5a 15 75 88 85 b3 e3 0f 00 80
       -2.1327375e-37 4.4116205e-26 -6.2181165e-08 -5.699e-42
0002c0 70 23 58 b2 24 6e 52 b2 83 09 00 80 fa 86 93 06
       -1.2580912e-08 -1.2248652e-08 -3.412e-42 5.5493584e-35
0002d0 23 31 4e 2e 3e 88 00 00 82 f6 0c b4 21 45 01 00
       4.688262e-11 4.8874e-41 -1.3128195e-07 1.16634e-40
0002e0 99 6d f1 90 25 d2 4d b2 60 03 49 b4 05 5a 00 00
       -9.52266e-29 -1.1980352e-08 -1.8720812e-07 3.2293e-41
0002f0 79 bf db 2e c8 e7 77 b7 5b 72 b0 85 26 69 6d b3
       9.9929794e-11 -1.4776313e-05 -1.6592968e-35 -5.5276494e-08
000300 32 8b a7 3c 91 c9 00 80 da f7 62 3c f9 b7 66 3a
       0.020452116 -7.2308e-41 0.013853038 0.0008801218
000310 4e a1 00 80 95 2d 58 3c e7 51 00 00 c2 77 8a 09
       -5.7865e-41 0.013194461 2.9381e-41 3.333491e-33
000320 d8 8c 00 80 d3 8d 0a 80 44 b4 00 80 39 a5 e5 2e
       -5.0525e-41 -9.69232e-40 -6.4667e-41 1.0443064e-10
000330 75 78 28 b7 3c d1 a6 94 ac b5 5c a5 45 55 cc 3c
       -1.0041626e-05 -1.6844245e-26 -1.9143511e-16 0.024943003
000340 b6 be 87 81 21 56 f5 3b 70 49 00 00 df 93 00 00
       -4.9864825e-38 0.007487074 2.6344e-41 5.3046e-41
000350 59 8a 03 80 9b e0 2e 83 d1 ad 00 00 c8 5a 0c 2b
       -3.25136e-40 -5.139184e-37 6.2354e-41 4.9863976e-13
000360 f5 4b 04 2f a5 47 00 00 5b ba 00 80 dd 61 fe 3c
       1.2032315e-10 2.5701e-41 -6.6852e-41 0.031052524
000370 9d 99 00 80 b4 e8 4c 09 31 90 0c a5 a7 7b 00 00
       -5.5106e-41 2.4665023e-33 -1.2191918e-16 4.4358e-41
000380 15 48 0d b7 f7 3e 24 0d b2 bc 5f 80 dc 14 64 17
       -8.421038e-06 5.0612193e-31 -8.792063e-39 7.36971e-25
000390 16 4b 00 80 10 0b 00 80 ea 4c 00 80 be b1 00 00
       -2.6936e-41 -3.968e-42 -2.7592e-41 6.3762e-41
0003a0 9e cb 49 34 37 cd 00 80 e2 0f e5 3c 36 13 a7 3c
       1.8793659e-07 -7.3617e-41 0.027961675 0.020394903
0003b0 cf 16 01 80 d7 6c 00 00 e6 bb 78 3c 8d a3 00 80
       -1.00018e-40 3.9044e-41 0.015181517 -5.8671e-41
0003c0 02 af 7d 35 c0 bf 1a 3b 65 89 00 80 b4 94 00 00
       9.4504514e-07 0.0023612827 -4.9288e-41 5.3345e-41
0003d0 50 f5 c6 2e 0f ee 86 0b 3e cc c6 3c 3a d2 3a 0b
       9.047574e-11 5.1973113e-32 0.024267312 3.5980454e-32
0003e0 1e 3b 10 1c 2f 11 2c 3b a6 75 28 3d f6 58 00 00
       4.772201e-22 0.002625536 0.041127823 3.1913e-41
0003f0 1c 81 00 80 cb c1 ce 37 f9 a5 7f 90 62 1d 95 3c
       -4.6316e-41 2.4647356e-05 -5.0417743e-29 0.018202487

mlp.18.bias f4 [8]
000000 3c 16 01 80 1c bb a6 3d bb cb 7d b3 8c 53 c1 3c
       -9.9812e-41 0.08141157 -5.9091445e-08 0.023599409
000010 7c a1 e1 3d e6 9a b9 32 f7 cf 00 00 49 78 0b 3a
       0.11017129 2.1607274e-08 7.4604e-41 0.0005320353

mlp.21.weight f4 [1, 8]
000000 fe 2d 82 10 07 ca 90 be 5f 7d 11 b3 fc 56 a0 bd
       5.134682e-29 -0.28279135 -3.3874468e-08 -0.07829091
000010 77 c8 c7 be b2 7a b2 3b 76 63 00 80 fa c6 a8 ba
       -0.3902013 0.0054467553 -3.568e-41 -0.0012876682
