model_saved/2024-01-25-07-49-50/model_2024-01-25-07-51-36_epoch_15000_train_mse_1.98e-02_val_mse_2.00e-02.pt (torch, 88343 bytes, 15 tensors)

mlp.0.weight f4 [8, 8]
00000000: 8270 0080 5c5d 0080 d521 0080 d788 0000
00000010: eb8f 0000 395c 0000 1865 0000 1568 0080
00000020: f4de 833b 47e7 cfba b417 f7b6 db4b bcb5
00000030: e6be 7ab6 d6aa a2b6 adfd 35b7 8785 3f36
00000040: 7b0e a6bc b2af 6c3d 70cd 903c d52e d139
00000050: 45bf 0f3a a24f 173a d3f3 c93a 2c93 0f38
00000060: d2bc 83bc e65b 293d 6e40 4e3c 32d8 8b39
00000070: 00f0 c739 6381 d639 dc2d 903a 3de9 c8b5
00000080: dc95 db3d 5b96 5ebd 4b89 703b 918d 0039
00000090: e96f b638 f9a8 8c38 a392 7238 7301 a438
000000a0: 8506 a1bd 5160 413e 0283 743d 0c9b 953a
000000b0: dd9d d03a 50c3 d83a 190c a13b 8f52 1bb9
000000c0: 6796 9a3d 61d3 ac3e 96b5 263e ca2e 043b
000000d0: 7d66 3f3b d649 493b 6d69 223c c35d b0b9
000000e0: 1f93 7bbc 3bfa b53d eaf9 e83c 563a 0e3a
000000f0: b61f 453a 8af1 4c3a a37f 153b 8f78 9db8
-4.036e-41 -3.3491e-41 -1.2137e-41 4.9089e-41 5.1628e-41 3.3083e-41 3.6266e-41 -3.7338e-41
0.004024381 -0.0015861773 -7.363933e-06 -1.4029168e-06 -3.736402e-06 -4.847864e-06 -1.0847504e-05 2.853894e-06
-0.020270577 0.057784744 0.017676085 0.0003989848 0.00054835185 0.0005772059 0.0015407748 3.423092e-05
-0.016081247 0.041347407 0.012588603 0.00026673224 0.00038135052 0.0004091366 0.0010999995 -1.4969042e-06
0.10721943 -0.05434261 0.0036702927 0.00012259769 8.699281e-05 6.707194e-05 5.7833862e-05 7.820399e-05
-0.078625716 0.18884398 0.05969525 0.0011414005 0.0015916188 0.00165377 0.004914772 -0.00014812707
0.07548218 0.3375502 0.16280207 0.002016949 0.0029205375 0.0030714176 0.009912831 -0.00033639194
-0.015354901 0.08885618 0.02843948 0.0005425563 0.0007519679 0.00078179745 0.0022811673 -7.508799e-05

mlp.0.bias f4 [8]
00000000: 9970 0000 74b8 5fb6 a6cf a239 a3f7 4639
00000010: 5abc 07b8 49ec 4f3a 63a2 ba3a a3e7 b739
4.0392e-41 -3.3336955e-06 0.00031053758 0.00018975003 -3.2361924e-05 0.00079316326 0.0014239069 0.00035077063

mlp.3.weight f4 [16, 8]
00000000: fc37 0080 994f 16b9 c9c5 d93b 2279 9c3b
00000010: 418a 7cbb 169a b43c 67a9 2e3d c191 253c
00000020: 722d 0000 b2f2 d8b5 7d3a dc38 a054 8f38
00000030: a0d0 70b8 21b9 a239 e283 303a fb7c 1439
00000040: 490a 0080 705a 41b9 7594 f23b 8853 ae3b
00000050: 21a4 9fbb a087 ca3c f24e 5e3d 535a 3b3c
00000060: a898 0080 450e 3636 a8e3 9fb8 2af7 68b8
00000070: 0896 8d3a 5cc5 8db9 cc92 7039 0c88 9db9
00000080: 0643 0080 c3a0 0080 601b 0080 6317 0080
00000090: 3b00 0000 c647 0000 8a02 0080 f447 0080
000000a0: 0249 0080 c086 0000 56a7 0080 0264 0000
000000b0: 6b46 0000 80a7 0080 7aad 0080 9781 0000
000000c0: a36d 0080 3f51 91b6 bc94 5c39 2e1e 5039
000000d0: cc50 03b9 3fe4 423a 90b6 de3a eb8c 9f39
000000e0: a942 0000 aa3d 12ba 05f8 b63c 0072 833c
000000f0: fa3c 56bc 77b5 983d 5a35 1e3e d36c 0b3d
00000100: 2f97 0080 f7ae 0080 3356 0000 3d83 0000
00000110: fc26 0000 1f0d 0080 3f5d 0000 b6bf 0000
00000120: f717 0080 d6ea 92ba 4628 183d c164 da3c
00000130: d15b a3bc 3a45 fe3d 838b 7e3e 65e3 6c3d
00000140: db6b 0080 fe03 0000 8310 0080 0c0b 0000
00000150: 4f5e 0080 b51b 0000 0c38 0080 f160 0080
00000160: 2c49 0000 95bf a9ba 2aaf 233d 9208 eb3c
00000170: d1f2 0dbd 76f7 083e e44c 8c3e e41b 793d
00000180: a321 0080 ddad 0000 d30a 0080 9a19 0000
00000190: 9a15 0080 d6b2 2a0e 7197 adb1 9284 7a1d
000001a0: de39 0000 7a3d 0000 7a39 0000 53a5 0080
000001b0: 072e 0080 802a 0080 543e 0000 2c8c 0000
000001c0: 5833 0080 d37c 0000 7466 0080 9072 0000
000001d0: 8c7d 0080 caa3 0000 6356 f99a 227e 0080
000001e0: a758 0000 f1a4 b2b9 ffc9 5d3c 0082 1f3c
000001f0: d6d9 0abc fec7 393d e6a3 c13d 16b1 aa3c
-2.0083e-41 -0.00014334767 0.0066458923 0.0047751823 -0.0038534554 0.02204613 0.042642023 0.010105551
1.6303e-41 -1.6163888e-06 0.00010501312 6.834534e-05 -5.7414756e-05 0.0003103698 0.0006733519 0.00014160939
-3.69e-42 -0.00018439605 0.0074029514 0.0053200163 -0.0048718606 0.024722874 0.054274507 0.011435109
-5.4763e-41 2.712842e-06 -7.624115e-05 -5.55433e-05 0.0010802159 -0.0002704066 0.0002294287 -0.00030046736
-2.4043e-41 -5.767e-41 -9.82e-42 -8.39e-42 8.3e-44 2.5747e-41 -9.11e-43 -2.5812e-41
-2.619e-41 4.8339e-41 -6.0029e-41 3.5876e-41 2.5261e-41 -6.0088e-41 -6.2232e-41 4.6488e-41
-3.933e-41 -4.330795e-06 0.00021036243 0.00019847669 -0.00012523233 0.0007434524 0.0016991664 0.00030431835
2.3913e-41 -0.00055786467 0.022335062 0.01604557 -0.013076061 0.07456487 0.1545004 0.03403933
-5.4234e-41 -6.2766e-41 3.0922e-41 4.708e-41 1.3985e-41 -4.707e-42 3.345e-41 6.8773e-41
-8.597e-42 -0.0011208903 0.037147783 0.026659371 -0.019941242 0.12415548 0.24857907 0.057834048
-3.8691e-41 1.432e-42 -5.923e-42 3.963e-42 -3.3832e-41 9.94e-42 -2.0106e-41 -3.4776e-41
2.6249e-41 -0.0012950773 0.03996197 0.02869061 -0.034655396 0.13375649 0.27402413 0.060817614
-1.2067e-41 6.237e-41 -3.883e-42 9.184e-42 -7.749e-42 2.1040224e-30 -5.0521796e-09 3.3155762e-21
2.0759e-41 2.2054e-41 2.0619e-41 -5.9307e-41 -1.6511e-41 -1.5246e-41 2.2359e-41 5.0284e-41
-1.8419e-41 4.4778e-41 -3.6753e-41 4.1097e-41 -4.5038e-41 5.8756e-41 -1.0312355e-22 -4.5248e-41
3.1802e-41 -0.00034073697 0.013536929 0.009735584 -0.008474788 0.045356743 0.09455089 0.020836394

mlp.3.bias f4 [16]
00000000: dec1 d939 9659 cd36 7261 e439 e50c 92b6
00000010: 820c 0000 475c 0080 352d 5837 11b1 ae3a
00000020: 7020 0080 a13d 073b 04a2 0080 341f 103b
00000030: a213 0000 0490 0080 8656 0080 4871 543a
0.00041533908 6.1199053e-06 0.0004356015 -4.35264e-06 4.487e-42 -3.3103e-41 1.2885129e-05 0.0013327916
-1.1636e-41 0.00206361 -5.812e-41 0.0021991255 7.043e-42 -5.1663e-41 -3.1039e-41 0.00081040384

mlp.6.weight f4 [32, 16]
00000000: eb80 0080 c415 0000 036e 0000 ca0c 0000
00000010: 0479 0080 9ca2 0080 2f26 0000 536c 0080
00000020: 16a7 0000 b091 0000 6322 0000 d113 0000
00000030: 35ad 0080 101e 0080 d2a3 0080 7069 0000
00000040: 36e4 fc3b 914c e438 e5f8 143c 1966 c3b7
00000050: 9a35 0000 1294 0080 2cf1 7f39 b675 ef3c
00000060: 416b 0000 da5f 383d e1a5 0000 af2f 473d
00000070: 6c4f 0080 8b67 0080 3809 0000 79c7 853c
00000080: 52f7 1a3d 85bb f739 f6b3 193d 1f75 b6b9
00000090: a635 0000 5f2d 0000 a820 873a d5f8 c03d
000000a0: 1424 0000 a9e0 453e 860d 0080 3ce9 463e
000000b0: 4a1d 0f00 b058 0000 5b71 0000 879e 8f3d
000000c0: 1e84 3c3c 28cd 2a39 aa46 5f3c 7410 1db8
000000d0: 4d6c 0080 2cef 0000 58df be39 50f2 363d
000000e0: 543a 0080 7025 883d 4329 0000 e11a 963d
000000f0: 5a78 0080 f31a 0000 356e 0080 30c7 c83c
00000100: 67d5 2836 99bc 1833 295b 4c36 0eac 15b2
00000110: 6897 0080 1311 0080 062e aa33 b41a 1d38
00000120: be52 0000 5b02 b636 0663 0080 de1a 7137
00000130: 2d07 0000 2482 0000 4986 0000 36a0 b036
00000140: ed3c 0080 e4aa 0080 7e45 0000 d794 0000
00000150: 0f04 0000 556f 0080 b05e 0000 b424 0080
00000160: a528 0080 1f4e 0000 142e 0080 5320 0000
00000170: de6e 0000 612b 0080 5f8e 0000 0db0 0080
00000180: a407 0080 e40e 0080 7b8f 0000 f001 0000
00000190: d90e 0080 728c 0080 8126 0080 4269 0080
000001a0: 6a06 0000 6b5e 0000 e773 0000 3a31 0000
000001b0: eb41 0080 397e 0080 c7af 0080 1e31 0080
000001c0: 446d c937 54e3 b634 d532 ef37 ca3b 66b3
000001d0: 7d6e 0000 c8b9 0080 aa28 4e35 e9bc bd38
000001e0: 90e2 0000 98bd 1639 ed42 0000 79c0 2139
000001f0: 11a2 0000 2739 0080 0750 0080 4a5c 5338
00000200: f3fc e33b 782b ba38 dd9b ed3b c590 f6b7
00000210: ea48 0080 1834 0080 dee5 4c39 3243 fa3c
00000220: e598 0080 7195 fd3c d823 0000 2c85 2a3d
00000230: d36c 0000 873f 0000 dba0 0000 253d 563c
00000240: 7db7 fa36 b178 e133 9f24 1437 4f28 8fb2
00000250: 8cc8 0000 b584 0080 a920 7d34 dc90 fe37
00000260: 6554 0000 2607 3e38 f20d 0000 e142 4838
00000270: 3252 0000 4f23 0080 d63e 0080 0168 8237
00000280: d438 0000 4451 0000 f494 0080 b7b9 0000
00000290: b069 0080 c7a4 0000 dd5d 0000 b62a 0000
000002a0: 817a 0080 3801 0000 dd5a 0000 1876 0080
000002b0: f7f5 0080 a16a 0080 a91d 0000 9339 0080
000002c0: 2e1c 0000 0967 0000 b52c 0080 0d92 0000
000002d0: db48 0000 0027 0080 6530 0000 bf1b 0080
000002e0: 348f 0080 fa66 0080 9f5e 0000 084f 0000
000002f0: d708 0000 569b 0000 a39b 0000 9a45 0000
00000300: 4834 d120 463f 0000 9819 0080 5233 0080
00000310: b106 0080 472b 0000 3681 0080 017d 81a7
00000320: e788 0000 767c 8426 bb70 0080 4d2c fda3
00000330: 0702 0000 e657 0280 b73f 0080 6a49 3184
00000340: aae1 2a3c d5f9 1239 0c07 3d3c 9b01 3bb8
00000350: 659b 0080 557e 0080 347b a239 b4d3 133d
00000360: e257 0000 8034 743d a570 0080 6d0f 7e3d
00000370: 785e 0000 bb75 0080 2239 0080 2ec2 aa3c
00000380: 259c 0080 968d 0080 4558 0080 e569 0080
00000390: a832 0080 661c 0080 bc05 0080 3652 0000
000003a0: f25c 0080 5f1e 0080 649b 0080 ffa3 0000
000003b0: 9483 0080 f32e 0080 705f 0080 fa42 0000
000003c0: 90b4 5436 f81c 3e33 8f18 7836 0469 e5b1
000003d0: 0317 0000 0c88 0080 6da6 d533 d467 5937
000003e0: 7520 0080 3137 9e37 d825 0080 86ad ab37
000003f0: 9645 0000 fa75 0000 d33d 0080 e141 dc36
-4.6247e-41 7.808e-42 3.9465e-41 4.588e-42 -4.3412e-41 -5.8333e-41 1.3698e-41 -3.886e-41
5.9939e-41 5.2263e-41 1.2336e-41 7.109e-42 -6.2135e-41 -1.0784e-41 -5.8768e-41 3.7824e-41
0.0077176346 0.00010886149 0.009092544 -2.3293354e-05 1.9229e-41 -5.3118e-41 0.00024408539 0.029230934
3.8475e-41 0.045013286 5.9506e-41 0.04862946 -2.8491e-41 -3.7144e-41 3.307e-42 0.016330468
0.03783352 0.00047251224 0.03752514 -0.00034801007 1.9245e-41 1.6276e-41 0.0010309415 0.09422461
1.2942e-41 0.19323982 -4.851e-42 0.1942491 1.38804e-39 3.1815e-41 4.0664e-41 0.070126586
0.011506109 0.0001628889 0.0136276875 -3.744704e-05 -3.8851e-41 8.5799e-41 0.00036406028 0.04466468
-2.0924e-41 0.06647766 1.4802e-41 0.073293455 -4.3174e-41 9.668e-42 -3.9535e-41 0.024509043
2.5158167e-06 3.5561786e-08 3.045143e-06 -8.712062e-09 -5.4314e-41 -6.125e-42 7.9246135e-08 3.7456586e-05
2.9682e-41 5.424297e-06 -3.5523e-41 1.4370975e-05 2.574e-42 4.6686e-41 4.8172e-41 5.2638597e-06
-2.1856e-41 -6.1304e-41 2.4929e-41 5.3394e-41 1.456e-42 -3.9938e-41 3.3967e-41 -1.3167e-41
-1.458e-41 2.8025e-41 -1.653e-41 1.1596e-41 3.9772e-41 -1.5561e-41 5.1073e-41 -6.3155e-41
-2.741e-42 -5.342e-42 5.1471e-41 6.95e-43 -5.326e-42 -5.0382e-41 -1.3813e-41 -3.776e-41
2.301e-42 3.3871e-41 4.1578e-41 1.7659e-41 -2.3647e-41 -4.528e-41 -6.3057e-41 -1.762e-41
2.4011948e-05 3.4065545e-07 2.851469e-05 -5.3605426e-08 3.9636e-41 -6.6646e-41 7.6800154e-07 9.0474095e-05
8.1275e-41 0.00014375744 2.4008e-41 0.00015425858 5.8138e-41 -2.0502e-41 -2.8708e-41 5.039227e-05
0.006957644 8.877268e-05 0.0072512464 -2.9392899e-05 -2.6157e-41 -1.8688e-41 0.00019540588 0.03054962
-5.4848e-41 0.030955048 1.2858e-41 0.04163091 3.9039e-41 2.279e-41 5.7704e-41 0.013076101
7.4719414e-06 1.04993326e-07 8.830014e-06 -1.6665721e-08 7.1943e-41 -4.7606e-41 2.3574343e-07 3.0346615e-05
3.0275e-41 4.5306188e-05 5.003e-42 4.7746e-05 2.9486e-41 -1.2666e-41 -2.2541e-41 1.5545638e-05
2.0386e-41 2.9153e-41 -5.3434e-41 6.6622e-41 -3.7914e-41 5.9111e-41 3.3672e-41 1.5322e-41
-4.3946e-41 4.37e-43 3.2596e-41 -4.2364e-41 -8.8236e-41 -3.8251e-41 1.064e-41 -2.0654e-41
1.0109e-41 3.6962e-41 -1.6038e-41 5.2393e-41 2.6136e-41 -1.399e-41 1.736e-41 -9.953e-42
-5.1372e-41 -3.6941e-41 3.3944e-41 2.8351e-41 3.171e-42 5.5724e-41 5.5832e-41 2.4968e-41
3.5440574e-19 2.2698e-41 -9.181e-42 -1.841e-41 -2.4e-42 1.5525e-41 -4.6352e-41 -3.594022e-15
4.9111e-41 9.193075e-16 -4.044e-41 -2.7449077e-17 7.27e-43 -2.15203e-40 -2.2857e-41 -2.083996e-36
0.010429779 0.00014016715 0.011537325 -4.458577e-05 -5.5745e-41 -4.532e-41 0.0003099084 0.036090568
3.1526e-41 0.05962038 -4.0409e-41 0.06202643 3.3889e-41 -4.2234e-41 -2.0495e-41 0.020844545
-5.6014e-41 -5.0791e-41 -3.1665e-41 -3.7988e-41 -1.8172e-41 -1.0187e-41 -2.057e-42 2.9492e-41
-3.3342e-41 -1.0895e-41 -5.5744e-41 5.8831e-41 -4.7201e-41 -1.6842e-41 -3.4237e-41 2.4027e-41
3.1695563e-06 4.426417e-08 3.6969175e-06 -6.676716e-09 8.255e-42 -4.8804e-41 9.948858e-08 1.2958382e-05
-1.1643e-41 1.8860768e-05 -1.3576e-41 2.0465592e-05 2.4963e-41 4.2322e-41 -2.2178e-41 6.5641802e-06

mlp.6.bias f4 [32]
00000000: 266a 0000 0b38 a33a 6d57 983b dcdd ef3a
00000010: fa60 f534 b17e 0080 cc0c 0080 f5a4 9036
00000020: 2f85 7d3a a3f2 b435 3358 0000 b089 0000
00000030: f550 0080 d031 c93a 5cad 0000 e3db 1035
00000040: 243f 983b 473a 0000 3bb1 0080 58a8 0000
00000050: 9346 0080 e3e2 2635 1195 e239 4199 0a3a
00000060: 0aa9 1034 3e1d 6a3a c52c 0080 1a78 0080
00000070: 3153 0080 8141 be24 41a0 0080 2ecf ba38
3.8079e-41 0.0012452615 0.004649094 0.0018300372 4.5705366e-07 -4.5448e-41 -4.59e-42 4.310738e-06
0.000967103 1.3481662e-06 3.164e-41 4.9393e-41 -2.9042e-41 0.0015349928 6.219e-41 5.396416e-07
0.004646199 2.0906e-41 -6.3578e-41 6.039e-41 -2.5317e-41 6.216998e-07 0.00043217142 0.0005287119
1.3472541e-07 0.0008930749 -1.606e-41 -4.3084e-41 -2.9843e-41 8.251033e-17 -5.7488e-41 8.9077614e-05

mlp.9.weight f4 [64, 32]
00000000: 3472 0080 46df 2603 ec87 e48b 7b95 0000
00000010: b293 0000 5858 0000 ba14 0080 a71b 0080
00000020: d29d 0000 1386 0000 9435 0000 d24a 0080
00000030: c095 0080 a930 0080 f1c9 0080 b17c 0000
00000040: f00f 0080 8356 0000 836a 0000 6011 0080
00000050: 4827 0080 6048 0080 749c 0080 6f35 0080
00000060: 6373 0000 4e22 0000 875e 0080 b969 0080
00000070: ef4c 0080 0740 0000 bc71 0000 2fb0 0000
00000080: 941f 0000 e58c 0bb0 b02d 0eb3 0702 b5ad
00000090: 1d23 0000 5359 0000 4033 0000 99e2 3497
000000a0: 4b4c 351e f93e ff88 4178 0000 2e6e 0080
000000b0: fba0 0000 69b9 cf29 3742 0080 e1dd 5a85
000000c0: 912d 102e 640c 0000 debc 0080 bfae 0080
000000d0: f362 0000 dd7e 0080 e059 ca2b 0da9 1018
000000e0: 0249 0080 eb93 4616 ff65 0000 dba9 0000
000000f0: fc1b 0080 3b7a 0080 c083 0080 2d28 f615
00000100: 84c6 0000 52f1 153d e41c 143e 8f82 603d
00000110: 7348 6137 3f03 0000 f64f 0000 b6ac f438
00000120: 54bd f33c b185 1838 d160 0000 b078 0080
00000130: 36cf d3a2 c6d2 403d 9936 0000 5263 8137
00000140: 15b1 133e 8800 0000 3966 0080 32b1 0000
00000150: 467b 0000 8799 9537 65e4 433c 6fce 7d3c
00000160: dae6 8336 516d df3c 0966 0000 41e4 0000
00000170: a57e 0000 adf2 2927 2b3a 0180 9aef 203b
00000180: da57 0000 fff8 ca3a 3c8b d43b 184a 163b
00000190: cb8d 1535 f967 0000 8d53 0000 da57 9e36
000001a0: 9442 9f3a 5a2c c735 353b 0080 5742 0000
000001b0: 43e9 381b 00ed fc3a 835a 0000 8192 2835
000001c0: 7e15 c93b 080f 0080 3376 0080 bb5c 0080
000001d0: 17a7 0000 19e6 4535 f843 003a 0c22 243a
000001e0: c433 2e34 14d6 903a 324d 0080 73cf 0000
000001f0: 6b1a 0080 55ba de24 9410 0000 6c1c d038
00000200: f386 0000 5fec 1539 f273 213a 2814 5d39
00000210: 0ff9 5c33 0c0d 0080 102d 0080 6048 e534
00000220: 8399 e938 382a 1034 d318 0080 2ec3 0080
00000230: 986f 0000 e7d6 3939 6267 0080 1f19 7533
00000240: 2c5e 143a 222a 0080 a357 0080 3c9e 0000
00000250: 318b 0000 89c2 9133 e2af 3a38 8f53 7038
00000260: 0d3d 8032 0fc2 d438 b978 0000 ceb2 0000
00000270: 3696 0080 bf40 2523 2141 0080 908e 1737
00000280: aabd 0000 413a 0000 df73 0000 7564 0000
00000290: b599 0000 6055 0000 7481 0080 0d50 0000
000002a0: 3342 0000 628b 0080 452d 0080 e581 0000
000002b0: b88f 0080 9582 0000 ef00 0000 4d58 0080
000002c0: 905b 0080 5412 0080 1aaf 0080 f734 0000
000002d0: 416f 0080 002c 0000 530a 0000 c46c 0000
000002e0: a262 0000 476c 0080 e758 0080 7a4d 0000
000002f0: 7520 0000 ee5b 0080 9754 0000 b04a 0080
00000300: 32d4 0080 b678 0080 a329 0080 e61b 0080
00000310: 124b 0000 9710 0080 1c26 0000 0869 0080
00000320: 9c76 0080 f17c 0000 a691 0080 88a5 0080
00000330: 838a 0080 5159 0180 fcb8 0000 f19f 0080
00000340: 21a5 0000 3211 0080 163a 0080 2325 0280
00000350: 009c 0080 c708 0080 6d63 0000 7e35 0000
00000360: 301e 0000 156b 0080 6131 0080 ac1b 0180
00000370: 29a9 0000 0c30 0000 a432 0080 a02d 0080
00000380: a63f 0080 7041 3538 3fa6 4139 fbfb 8438
00000390: a5e4 8432 2727 0000 f66b 0000 2e97 0934
000003a0: 3757 0c38 df96 2d33 cf4f 0080 80a6 0000
000003b0: 572e f982 2c0b 5f38 c453 0080 ce40 9332
000003c0: 09d4 3139 bf7a 0000 da83 0080 2e10 0100
000003d0: dd2a 0080 8cff ae32 8852 6037 f272 9037
000003e0: d103 9b31 1b09 0038 ca10 0000 0241 0000
000003f0: 4458 0000 37f4 4522 3737 0080 7eee 3536
-4.0968e-41 4.903932e-37 -8.802692e-32 5.3623e-41 5.2983e-41 3.1692e-41 -7.435e-42 -9.92e-42
5.6615e-41 4.8097e-41 1.922e-41 -2.684e-41 -5.372e-41 -1.7456e-41 -7.2443e-41 4.4731e-41
-5.717e-42 3.1035e-41 3.8209e-41 -6.233e-42 -1.4091e-41 -2.5963e-41 -5.6125e-41 -1.9168e-41
4.1393e-41 1.2306e-41 -3.391e-41 -3.7926e-41 -2.7599e-41 2.2969e-41 4.08e-41 6.3203e-41
1.1328e-41 -5.076813e-10 -3.3103504e-08 -2.0578218e-11 1.2596e-41 3.2043e-41 1.8385e-41 -5.8447143e-25
9.597837e-21 -1.5362059e-33 4.3139e-41 -3.9525e-41 5.7749e-41 9.22481e-14 -2.3753e-41 -1.02910635e-35
3.278228e-11 4.445e-42 -6.7753e-41 -6.2687e-41 3.5496e-41 -4.551e-41 1.4377909e-12 1.8696913e-24
-2.619e-41 1.6040987e-25 3.659e-41 6.0933e-41 -1.0039e-41 -4.3848e-41 -4.7263e-41 9.9421995e-26
7.1214e-41 0.036607094 0.14464146 0.05481201 1.34279135e-05 1.164e-42 2.8685e-41 0.000116669966
0.029753365 3.6364134e-05 3.4731e-41 -4.3295e-41 -5.7411058e-18 0.04707601 1.9586e-41 1.5424248e-05
0.1442302 1.9e-43 -3.667e-41 6.3566e-41 4.4222e-41 1.7833676e-05 0.011956309 0.015491112
3.930979e-06 0.027273806 3.6603e-41 8.1882e-41 4.5431e-41 2.3585016e-15 -1.12702e-40 0.0024556876
3.1515e-41 0.0015485584 0.0064863246 0.0022932347 5.571316e-07 3.7298e-41 2.9972e-41 4.718994e-06
0.0012150579 1.4839563e-06 -2.124e-41 2.3798e-41 1.5295494e-22 0.0019296706 3.247e-41 6.279807e-07
0.0061365953 -5.392e-42 -4.2402e-41 -3.3265e-41 5.994e-41 7.3723055e-07 0.00048929406 0.0006261177
1.6223845e-07 0.0011050128 -2.7692e-41 7.4419e-41 -9.477e-42 9.659281e-17 5.947e-42 9.923507e-05
4.841e-41 0.00014297802 0.000615894 0.00021083711 5.144926e-08 -4.68e-42 -1.6165e-41 4.2707234e-07
0.000111388996 1.3426404e-07 -8.905e-42 -7.0017e-41 4.0032e-41 0.00017723032 -3.7087e-41 5.7066355e-08
0.00056597847 -1.5114e-41 -3.1438e-41 5.6764e-41 4.9932e-41 6.7874744e-08 4.450966e-05 5.729828e-05
1.4928924e-08 0.00010145094 4.3307e-41 6.4143e-41 -5.3886e-41 8.9583784e-18 -2.3364e-41 9.033494e-06
6.8039e-41 2.0898e-41 4.1567e-41 3.6037e-41 5.514e-41 3.0627e-41 -4.6439e-41 2.8717e-41
2.3748e-41 -5.0001e-41 -1.624e-41 4.6597e-41 -5.1557e-41 4.6844e-41 3.35e-43 -3.1676e-41
-3.2846e-41 -6.575e-42 -6.2815e-41 1.9e-41 -3.991e-41 1.5784e-41 3.704e-42 3.9018e-41
3.5383e-41 -3.8843e-41 -3.1892e-41 2.7793e-41 1.1643e-41 -3.2978e-41 3.0345e-41 -2.6793e-41
-7.6121e-41 -4.3303e-41 -1.4936e-41 -1.0008e-41 2.693e-41 -5.951e-42 1.3671e-41 -3.7678e-41
-4.2549e-41 4.482e-41 -5.2249e-41 -5.9381e-41 -4.9689e-41 -1.23876e-40 6.636e-41 -5.7376e-41
5.9237e-41 -6.169e-42 -2.0837e-41 -1.96993e-40 -5.5962e-41 -3.149e-42 3.5667e-41 1.919e-41
1.0829e-41 -3.8414e-41 -1.7714e-41 -1.01762e-40 6.0683e-41 1.7236e-41 -1.8166e-41 -1.6367e-41
-2.2833e-41 4.3214706e-05 0.00018467846 6.3411855e-05 1.5470798e-08 1.4045e-41 3.8729e-41 1.2814118e-07
3.3459826e-05 4.0416918e-08 -2.863e-41 5.9729e-41 -3.661386e-37 5.3177748e-05 -3.005e-41 1.7142522e-08
0.00016959025 4.4033e-41 -4.73e-41 9.764e-41 -1.5376e-41 2.0372475e-08 1.3370656e-05 1.7219663e-05
4.5115276e-09 3.052606e-05 6.023e-42 2.332e-41 3.1664e-41 2.6827765e-18 -1.9807e-41 2.7109922e-06

mlp.9.bias f4 [64]
00000000: 0e75 0000 d4a8 0000 97eb fc3b 4bd3 b239
00000010: d9e7 0738 8093 0000 e532 0080 cbec 2637
00000020: 91d0 9a35 6a1e ba3b 0a20 6b32 298d 0000
00000030: 8361 0080 0090 0080 91a1 5030 ddc2 953b
00000040: e177 0080 8e94 c43a ec47 0000 55b1 0080
00000050: 3a20 0000 f5d1 033b 7cae 0000 95f5 2532
00000060: 9c6c 8a34 394e 0000 1060 0080 d8d1 9630
00000070: 3416 0000 851b 0000 7825 0080 f4bd e638
00000080: 969a fb2d ef19 0080 7d26 6a3a a388 4035
00000090: 4cbe 7f3b 6800 033c 8655 0080 6f20 4c16
000000a0: 687d 0000 d150 2b1a b58c 8e1f 5e99 0080
000000b0: cd0c 0080 417f 0000 7d07 0000 8d31 0080
000000c0: b17f 0000 b35b ae33 f293 0000 6f54 423a
000000d0: 902a 963b 12b0 0000 e82b 0f3a 6630 0080
000000e0: 4496 5b3b 035e 323b 5b12 0000 9f58 6e8f
000000f0: 57aa 0080 bb1f 0000 f698 462b 5aa8 6f3b
4.1991e-41 6.0564e-41 0.007718514 0.0003410823 3.2402433e-05 5.2913e-41 -1.8258e-41 9.949504e-06
1.1534595e-06 0.005679895 1.3686085e-08 5.0639e-41 -3.498e-41 -5.1657e-41 7.589956e-10 0.0045703487
-4.3004e-41 0.0014997886 2.5801e-41 -6.3615e-41 1.1561e-41 0.0020114158 6.2593e-41 9.660103e-09
2.5783527e-07 2.8061e-41 -3.4461e-41 1.0973578e-09 7.965e-42 9.872e-42 -1.3441e-41 0.00011002636
2.8604046e-11 -9.303e-42 0.0008932127 7.1724406e-07 0.0039023338 0.007995702 -3.068e-41 1.6489223e-25
4.4987e-41 3.5427254e-23 6.037212e-20 -5.5018e-41 -4.592e-42 4.565e-41 2.686e-42 -1.7775e-41
4.5807e-41 8.1191864e-08 5.3073e-41 0.0007413094 0.0045827106 6.3162e-41 0.00054615596 -1.7362e-41
0.0033506313 0.002721668 6.585e-42 -1.1751374e-29 -6.1106e-41 1.1383e-41 7.0556007e-13 0.0036568851

mlp.12.weight f4 [128, 64]
00000000: 5c0c 0080 d887 0080 4833 0080 ae94 0080
00000010: 9928 0080 0e60 0000 ed51 0080 7d14 0000
00000020: 4265 0000 b563 0080 5536 0080 577b 0080
00000030: 9d24 0000 db7a 0000 2c5e 0000 2a5b 0080
00000040: 531d 0000 9998 0080 a32e 0080 633e 0000
00000050: 7f44 0080 2aae 0080 1326 0000 0c60 0080
00000060: a435 0000 2265 0080 2d61 0080 baf7 0080
00000070: 59bb 0000 1865 0000 bbed 0000 dd88 0080
00000080: 882a 0000 6b06 0080 14ce 0000 9c87 0080
00000090: 6cdf 0080 aeaf 0000 077b 0080 9800 0080
000000a0: f543 0080 2d35 0080 f734 0180 599c 0080
000000b0: 0fc6 0080 38b2 0000 4c92 0080 2241 0000
000000c0: b949 0080 5b49 0000 a05e 0080 6e46 0080
000000d0: 4e1d 0080 8b64 0080 f87e 0080 2d3a 0080
000000e0: 41a4 0000 af9a 0000 3b92 0000 3a79 0000
000000f0: 0888 0000 4307 0080 1a7d 0080 6483 0000
00000100: 719c 0080 2731 0000 eb57 c1a2 8514 a590
00000110: be2c 0080 7482 0000 5604 0000 1277 cc83
00000120: 7543 228c f65b 619f 0aff 0280 115f 0000
00000130: 10a6 0000 0b96 0080 e80b 0000 7b35 1b9e
00000140: 241e 0080 ea42 dd9a c090 0080 accf 0000
00000150: 9078 0080 07cf 8a9b 0543 0000 5595 0080
00000160: 9076 0000 f262 0000 1d99 0000 ae4f 0080
00000170: b467 0080 b091 0000 fb48 0000 0df5 4481
00000180: 3b71 0080 8c6c 0000 0bf6 7a87 342a 378c
00000190: 4187 df96 8564 39a3 650f 0080 966f 0080
000001a0: 394b 0000 fa8a 0080 6a13 0000 a026 0080
000001b0: 631c 0000 0309 0280 f893 0000 b554 0000
000001c0: de8a 0080 bb52 0080 81c2 0080 d52f 9e9b
000001d0: 2a62 8297 7997 0000 1d92 6685 b106 0000
000001e0: ec5e bb99 c433 229b 7f8b 0000 0188 0000
000001f0: da88 0080 d6db 0000 4858 0000 687f 3c99
00000200: 388f 0000 b469 0080 1515 0000 4386 0080
00000210: 9428 0000 3f68 0000 1539 0000 4e7d 0080
00000220: ef79 0080 4141 0000 9a6a 0000 a659 0080
00000230: 78a3 0080 2486 0080 7978 0000 3970 0000
00000240: 0b2b 0080 67c0 0080 0f48 0000 3208 0000
00000250: 2e63 0000 d805 0000 b93e 0000 572e 0000
00000260: 6e0e 0000 9e45 0000 170e 0000 8f10 0080
00000270: 5b2e 0080 b572 0000 461e 0000 4053 0000
00000280: 914a 0080 254a 0000 636d 0080 e3ba 0000
00000290: 837b 0080 1eb0 0080 b06f 0000 7a87 0000
000002a0: 0872 0000 3a37 0080 730e 0000 4da1 0000
000002b0: 6d75 0080 8b22 0000 fa80 0080 0f6f 0000
000002c0: 0a42 0000 1da9 0000 ccb5 0000 0039 0000
000002d0: 0d00 0000 4638 0080 eb8a 0080 d12f 0080
000002e0: 6342 0080 958f 0000 cc81 0080 ffaa 0000
000002f0: 8a79 0080 83c0 0100 3049 0080 dfa5 0000
00000300: 2979 0000 3c2c 0080 0fb0 0080 1a43 0000
00000310: e635 0000 fa0c 0000 4066 0000 011c 0080
00000320: 1a0f 0080 1e64 0080 0d53 0080 b907 0080
00000330: 7133 0080 9cab 0080 5458 0080 a092 0080
00000340: 754a 0000 3928 0000 97e7 0000 2087 0000
00000350: 6ea1 0080 8128 0080 a7c1 0080 4884 0000
00000360: 9a2e 0080 36a8 0000 6ca7 0000 d583 0000
00000370: 2ba6 0080 326f 0080 993f 0080 5558 0080
00000380: 5e00 0000 a367 0080 3b15 0000 f91d 0080
00000390: 796f 0000 f615 0080 c10d 0100 caa4 0000
000003a0: ca7d 0000 9d1b 0000 0e64 0080 19ab 0080
000003b0: 30b5 0000 a505 0000 bb19 0080 d529 0080
000003c0: 4c9e 0000 049b 0080 7ea8 0080 2173 0000
000003d0: 388f 0000 4d3c 0080 1e1f 0000 7cab 0080
000003e0: b80c 0080 2d61 0080 2f94 0000 1246 0000
000003f0: 5354 0080 e25d 0080 d54c 0080 a80c 0080
-4.434e-42 -4.8732e-41 -1.8396e-41 -5.3336e-41 -1.4564e-41 3.4458e-41 -2.939e-41 7.35e-42
3.6324e-41 -3.5768e-41 -1.949e-41 -4.4246e-41 1.3134e-41 4.4072e-41 3.3783e-41 -3.2704e-41
1.052e-41 -5.4742e-41 -1.673e-41 2.238e-41 -2.4572e-41 -6.2478e-41 1.3658e-41 -3.4455e-41
1.9243e-41 -3.628e-41 -3.486e-41 -8.8868e-41 6.7208e-41 3.6266e-41 8.5282e-41 -4.9097e-41
1.5257e-41 -2.302e-42 7.3927e-41 -4.8647e-41 -8.0149e-41 6.3022e-41 -4.4134e-41 -2.13e-43
-2.4378e-41 -1.9076e-41 -1.10836e-40 -5.6087e-41 -7.105e-41 6.3933e-41 -5.2481e-41 2.3365e-41
-2.6447e-41 2.6315e-41 -3.3945e-41 -2.5265e-41 -1.0513e-41 -3.6068e-41 -4.5548e-41 -2.087e-41
5.8923e-41 5.549e-41 5.2458e-41 4.3488e-41 4.8799e-41 -2.605e-42 -4.4878e-41 4.7134e-41
-5.612e-41 1.7633e-41 -5.240584e-18 -6.511264e-29 -1.605e-41 4.6798e-41 1.555e-42 -1.201738e-36
-1.2500326e-31 -4.772167e-20 -2.75162e-40 3.4103e-41 5.9572e-41 -5.3825e-41 4.271e-42 -8.216691e-21
-1.0812e-41 -9.1511563e-23 -5.1927e-41 7.4499e-41 -4.325e-41 -2.2963973e-22 2.4042e-41 -5.357e-41
4.2532e-41 3.5495e-41 5.4927e-41 -2.8584e-41 -3.7202e-41 5.2263e-41 2.618e-41 -3.617533e-38
-4.062e-41 3.8939e-41 -1.8880215e-34 -1.4110507e-31 -3.611295e-25 -1.0050156e-17 -5.523e-42 -4.003e-41
2.6985e-41 -4.9855e-41 6.964e-42 -1.3856e-41 1.0183e-41 -1.86904e-40 5.3081e-41 3.0387e-41
-4.9816e-41 -2.9678e-41 -6.9775e-41 -2.6169818e-22 -8.425833e-25 5.4338e-41 -1.0841385e-35 2.4e-42
-1.9373685e-23 -1.3417052e-22 5.0042e-41 4.8789e-41 -4.9093e-41 7.8862e-41 3.167e-41 -9.745102e-24
5.1377e-41 -3.7919e-41 7.563e-42 -4.8164e-41 1.4557e-41 3.7396e-41 2.0477e-41 -4.4951e-41
-4.3742e-41 2.3409e-41 3.8241e-41 -3.216e-41 -5.8642e-41 -4.812e-41 4.3217e-41 4.0258e-41
-1.5441e-41 -6.9021e-41 2.585e-41 2.94e-42 3.5579e-41 2.096e-42 2.25e-41 1.6624e-41
5.176e-42 2.4974e-41 5.054e-42 -5.94e-42 -1.6629e-41 4.1149e-41 1.086e-41 2.9864e-41
-2.675e-41 2.6598e-41 -3.924e-41 6.7042e-41 -4.4308e-41 -6.3179e-41 4.0066e-41 4.86e-41
4.0907e-41 -1.9812e-41 5.183e-42 5.7864e-41 -4.2124e-41 1.2392e-41 -4.6268e-41 3.984e-41
2.369e-41 6.0666e-41 6.5216e-41 2.0448e-41 1.8e-44 -2.0187e-41 -4.9834e-41 -1.7153e-41
-2.3815e-41 5.1508e-41 -4.6562e-41 6.1342e-41 -4.36e-41 1.60896e-40 -2.6255e-41 5.9503e-41
4.3464e-41 -1.5868e-41 -6.3158e-41 2.4072e-41 1.9335e-41 4.655e-42 3.668e-41 -1.0046e-41
-5.417e-42 -3.5915e-41 -2.9793e-41 -2.77e-42 -1.8454e-41 -6.1562e-41 -3.1686e-41 -5.2599e-41
2.671e-41 1.4429e-41 8.3079e-41 4.8474e-41 -5.791e-41 -1.453e-41 -6.947e-41 4.7454e-41
-1.6717e-41 6.0343e-41 6.006e-41 4.7292e-41 -5.961e-41 -3.989e-41 -2.2815e-41 -3.1688e-41
1.32e-43 -3.7178e-41 7.616e-42 -1.0752e-41 3.9989e-41 -7.878e-42 9.677e-41 5.9115e-41
4.5125e-41 9.906e-42 -3.5893e-41 -6.1378e-41 6.4998e-41 2.025e-42 -9.23e-42 -1.5007e-41
5.6786e-41 -5.5609e-41 -6.0444e-41 4.13e-41 5.1377e-41 -2.1632e-41 1.1163e-41 -6.1517e-41
-4.563e-42 -3.486e-41 5.3158e-41 2.5136e-41 -3.025e-41 -3.3679e-41 -2.7562e-41 -4.54e-42

mlp.12.bias f4 [128]
00000000: ac67 0000 48aa 0000 fe75 0000 6e2d 0000
00000010: c101 0939 ad93 0080 563a bd3b 57c9 f43b
00000020: 1649 0080 2c2e fc3b 0706 0000 884c 0000
00000030: ea92 0000 fcc2 db3b 09d0 5922 4390 373c
00000040: a148 0080 30a3 0000 b59c 0000 4f6c 0000
00000050: fa9c a925 5692 0080 3f29 0080 dcca f618
00000060: 7b7a 0000 68a9 123c ac8f 0080 0b58 0000
00000070: 302f 4130 35ac c038 715f 3339 7421 0000
00000080: f661 0080 cf2f 8b3b f600 0000 bf37 d832
00000090: ee62 0000 6fa9 7b3b ef5b 0080 2a4b 0000
000000a0: 996e 0000 ffbb 0000 edda 4c2e 6e83 0080
000000b0: 5d4f 1439 ddb2 0c3b 6ce2 832f 7691 fd10
000000c0: d95e 0080 1741 0000 660e 5100 c506 0080
000000d0: f859 0000 ff7d 0000 4109 2f3c 7697 3f36
000000e0: 2108 0000 fd97 0000 32a9 df3b 893d 0080
000000f0: d748 0000 2cb6 5a32 992d 0000 a094 9134
00000100: 3dfa 053a b0a5 0000 e364 153c d09c 0080
00000110: db3b 0080 09ca ee3a 4f3e 603c b196 0000
00000120: 0812 0080 d019 0000 2a01 0080 9a71 0080
00000130: 858b 0000 5648 cd38 7754 0080 4373 0080
00000140: 0ba7 463b ec34 0000 a227 0080 8ded 0080
00000150: cc28 0080 f943 0080 ed3c b30c 5702 6f39
00000160: 4f8f 0000 22c7 9a3b 0c46 363c 5f8a ab88
00000170: 7f3e 0080 2e9e 0080 2605 0080 8022 0080
00000180: 2178 0000 b01c 0080 8842 0000 0ddc 0000
00000190: 3f0e 0000 9344 941b ce8a 0080 cd3d 9b37
000001a0: f84a 0080 d83e 0000 d43d 0000 666a 0080
000001b0: a98c 0000 1c63 213b bf84 ae15 ad09 2724
000001c0: 8a92 0000 6f62 0080 8f7c 0000 1f34 b93a
000001d0: 4aba 0000 2f80 0000 9cd4 7736 eac2 283c
000001e0: b156 0080 3d23 0080 611d 0000 457d 0d3c
000001f0: 8366 0000 490e 0000 ea86 0080 b050 0080
3.719e-41 6.1085e-41 4.2328e-41 1.6297e-41 0.00013065992 -5.2976e-41 0.0057747765 0.0074702906
-2.6218e-41 0.007695934 2.162e-42 2.7454e-41 5.2703e-41 0.0067065936 2.9519117e-18 0.011203828
-2.6054e-41 5.854e-41 5.6216e-41 3.8854e-41 2.9423198e-16 -5.2495e-41 -1.4796e-41 6.3794345e-24
4.3938e-41 0.008951522 -5.154e-41 3.1584e-41 7.028005e-10 9.1873495e-05 0.00017106325 1.2001e-41
-3.5142e-41 0.0042476426 3.45e-43 2.517106e-08 3.5489e-41 0.003840055 -3.298e-41 2.6964e-41
3.9675e-41 6.744e-41 4.6578675e-11 -4.7148e-41 0.00014143945 0.0021468916 2.3989644e-10 1.0001502e-28
-3.4025e-41 2.335e-41 7.44384e-39 -2.428e-42 3.2275e-41 4.5199e-41 0.010683359 2.854938e-06
2.916e-42 5.4523e-41 0.0068255896 -2.2075e-41 2.613e-41 1.2730691e-08 1.6357e-41 2.7116494e-07
0.0005110836 5.9437e-41 0.009118292 -5.6254e-41 -2.1472e-41 0.001821817 0.0136867305 5.4058e-41
-6.468e-42 9.26e-42 -4.18e-43 -4.0753e-41 5.005e-41 9.788635e-05 -3.03e-41 -4.1348e-41
0.0030311968 1.8985e-41 -1.4218e-41 -8.5217e-41 -1.4635e-41 -2.4384e-41 2.7615985e-31 0.00022793688
5.141e-41 0.0047234455 0.011125099 -1.0324219e-33 -2.242e-41 -5.6744e-41 -1.847e-42 -1.2376e-41
4.3094e-41 -1.0291e-41 2.3867e-41 7.894e-41 5.11e-42 2.452886e-22 -4.9794e-41 1.8506218e-05
-2.6894e-41 2.2544e-41 2.218e-41 -3.8169e-41 5.046e-41 0.0024625724 7.0487477e-26 3.6220548e-17
5.2568e-41 -3.5311e-41 4.4683e-41 0.0014129913 6.6828e-41 4.5984e-41 3.6929623e-06 0.010300377
-3.1099e-41 -1.2641e-41 1.0539e-41 0.008635824 3.6774e-41 5.125e-42 -4.8398e-41 -2.8945e-41

mlp.15.weight f4 [64, 128]
00000000: c5e7 0000 ea99 8318 2d6a 0000 a50e 0000
00000010: 1490 db39 391b 0000 57c6 a43c a5d7 d63c
00000020: 0854 0000 c782 dd3c 753a 0000 3506 0000
00000030: 33b1 0000 fa1b c03c 0d55 4323 90c0 223d
00000040: 7f6f 0100 8fda 8306 b402 0000 ea7b 0000
00000050: 5b1a 7f26 7ab7 0000 433a 0080 ed59 de19
00000060: 7203 0080 ab5a 013d 216f 0080 51b1 0000
00000070: 5180 1231 809c 9c39 9413 123a 3952 0000
00000080: 5a43 0100 968d 6f3c fca8 b58f 061e 9f33
00000090: fbcb 0000 ecd3 543c 059c 0000 2555 0000
000000a0: 5086 0000 cfb2 0000 6b82 1e2f e998 0000
000000b0: a3b4 f239 663d ef3b 6769 5830 112e c211
000000c0: 864b 0000 1926 0080 dcec 1a01 9407 0000
000000d0: 25bb 0000 2ff0 0080 f621 1b3d e657 1037
000000e0: be54 0000 5437 0000 96a0 c33c 7241 0000
000000f0: 0a2f 0080 e672 2533 c0f8 9118 79f3 5435
00000100: 8a9e de3a 1109 0000 31d3 033d 6b2d 0080
00000110: 5174 0080 96b7 ca3b 5ec4 473d b046 0100
00000120: f558 0000 da80 0080 8a50 0000 c07c 0080
00000130: 327c 0000 597c a639 605c 2793 c446 0080
00000140: f0b5 2a3c 2477 0080 dda9 0080 a564 0080
00000150: e4ff 0000 2a11 0000 908a a70d d059 413a
00000160: e4b7 0080 c9c2 853c 2da6 213d dbca 4a0f
00000170: fe6f 0080 9e2e 1404 0025 0000 9c43 0080
00000180: 73fe 0508 147e 0000 369c 0080 fe9b 0000
00000190: 0ca2 0080 316d 9d1c 688e 0000 53e4 7638
000001a0: a083 0000 9e5f 0000 bf59 0080 c6aa 0000
000001b0: a548 0080 34a2 083c db68 b416 5e6a fd24
000001c0: 5e71 0080 b144 0000 d503 0080 f7a1 9a3b
000001d0: cf29 0180 1e3c 0000 8bb5 4237 5865 153d
000001e0: cca6 0080 8a8c 0000 263d 0080 1362 f93c
000001f0: 6119 0080 bc5c 0080 8335 0080 5f93 0080
00000200: 955a 0080 de36 0080 c49c 0000 d4cc 0080
00000210: 601c 0080 6f54 0000 1829 0000 e741 0080
00000220: ed9b 0000 812a 0080 a604 0000 e2bd 0080
00000230: fb26 0080 5435 0080 b818 0080 2b19 0080
00000240: ed14 0000 950a 0000 677a 0000 2a72 0000
00000250: 3879 0000 bebe 0080 1967 0080 0929 0080
00000260: 54a6 0000 1637 0080 ca0a 0000 e69f 0080
00000270: 4281 0000 cf66 0000 1d88 0000 1587 0000
00000280: ae07 0080 da6d 0080 2e9d 0000 cc9a 0000
00000290: 5f97 0080 c771 0080 7a63 0000 0e75 0000
000002a0: 2f32 0080 6f4b 0000 e88c 0080 e783 0000
000002b0: e3b8 0080 7c07 0000 0693 0080 d568 0080
000002c0: 4024 0000 3812 0100 daaf 0000 03cd 0000
000002d0: 1178 0000 6502 0000 dd21 0080 7f90 0000
000002e0: b222 0080 8f36 0000 6f79 0080 3341 0080
000002f0: a60d 0000 cfb3 0080 9638 0080 952c 0000
00000300: df63 0000 78ac 0080 a86f 0080 777f 0000
00000310: a26b 0000 8e9e 0080 4536 0080 e2a6 0080
00000320: 5545 0080 5d39 0080 bd0d 0080 2b51 0080
00000330: d844 0000 5295 0000 ee15 0080 0058 0080
00000340: 0a80 0080 510b 0100 9a3c 0080 c239 0080
00000350: 2a2d 0080 2bc5 0080 012c 0080 8288 0000
00000360: bbbd 0000 5c4f 0080 f514 0080 9222 0000
00000370: 0c10 0000 fab2 0080 258e 0080 95d7 0000
00000380: 2745 0000 63c1 0000 9504 0000 453e 0000
00000390: 4f7e 0000 9790 0000 9f2d 0000 0423 0000
000003a0: c905 0080 5715 0080 ccd3 0000 8920 0000
000003b0: f261 0080 b951 0080 2c91 0080 cb5a 0000
000003c0: e847 0080 ff6a 0000 3d95 0000 df67 0000
000003d0: d217 0080 7905 0000 a466 0080 dd61 0080
000003e0: 1489 0000 b9a7 0000 cf21 0000 1538 0080
000003f0: ea18 0080 e17c 0000 dcba 0000 e850 0080
8.3143e-41 3.401812e-24 3.8089e-41 5.253e-42 0.00041878282 9.766e-42 0.020114107 0.026225874
3.0145e-41 0.027039899 2.097e-41 2.227e-42 6.3567e-41 0.02345084 1.0588981e-17 0.039734423
1.31833e-40 4.9597866e-35 9.7e-43 4.4452e-41 8.8506616e-16 6.5819e-41 -2.09e-41 2.2990583e-23
-1.236e-42 0.03158061 -3.9866e-41 6.3609e-41 2.1318736e-09 0.0002987124 0.00055723754 2.9496e-41
1.15997e-40 0.014621159 -1.7913068e-29 7.409476e-08 7.3174e-41 0.012989979 5.5969e-41 3.0544e-41
4.8182e-41 6.4144e-41 1.441635e-10 5.4854e-41 0.00046292422 0.0073010204 7.873013e-10 3.0636194e-28
2.7093e-41 -1.3667e-41 2.845527e-38 2.719e-42 6.7135e-41 -8.6162e-41 0.037874185 8.603534e-06
3.04e-41 1.9848e-41 0.023880284 2.3477e-41 -1.6874e-41 3.8521556e-08 3.7732795e-24 7.9330454e-07
0.0016984504 3.252e-42 0.03218383 -1.6293e-41 -4.1726e-41 0.006186436 0.048771255 1.17193e-40
3.1912e-41 -4.6223e-41 2.8892e-41 -4.4752e-41 4.4553e-41 0.00031754634 -2.1123908e-27 -2.5386e-41
0.010419354 -4.274e-41 -6.0935e-41 -3.6104e-41 9.1796e-41 6.157e-42 1.0325527e-30 0.0007375749
-6.5968e-41 0.016328232 0.03946512 9.9984375e-30 -4.0175e-41 1.7418722e-36 1.3273e-41 -2.4254e-41
4.0322335e-34 4.5228e-41 -5.6038e-41 5.596e-41 -5.8131e-41 1.0417614e-21 5.1086e-41 5.8863614e-05
4.7218e-41 3.4301e-41 -3.2195e-41 6.1262e-41 -2.606e-41 0.0083394535 2.9146742e-25 1.0990145e-16
-4.0668e-41 2.4642e-41 -1.375e-42 0.0047190147 -1.06834e-40 2.1566e-41 1.160557e-05 0.036473602
-5.9835e-41 5.0416e-41 -2.1936e-41 0.030442273 -9.104e-42 -3.3267e-41 -1.9196e-41 -5.2867e-41
-3.2495e-41 -1.9683e-41 5.6237e-41 -7.3478e-41 -1.0179e-41 3.0289e-41 1.4742e-41 -2.3641e-41
5.5936e-41 -1.5248e-41 1.668e-42 -6.8117e-41 -1.3984e-41 -1.913e-41 -8.867e-42 -9.029e-42
7.507e-42 3.796e-42 4.391e-41 4.0954e-41 4.3485e-41 -6.8425e-41 -3.6984e-41 -1.472e-41
5.9667e-41 -1.9761e-41 3.87e-42 -5.7361e-41 4.6369e-41 3.6881e-41 4.8828e-41 4.8458e-41
-2.755e-42 -3.9407e-41 5.6385e-41 5.553e-41 -5.4302e-41 -4.0816e-41 3.5685e-41 4.1991e-41
-1.8002e-41 2.706e-41 -5.0548e-41 4.7318e-41 -6.6325e-41 2.685e-42 -5.2742e-41 -3.7607e-41
1.3004e-41 9.8371e-41 6.3084e-41 7.3544e-41 4.3072e-41 8.59e-43 -1.2148e-41 5.1835e-41
-1.2446e-41 1.9572e-41 -4.3562e-41 -2.3389e-41 4.896e-42 -6.4503e-41 -2.0299e-41 1.5993e-41
3.5827e-41 -6.187e-41 -4.0055e-41 4.5726e-41 3.8611e-41 -5.6879e-41 -1.9468e-41 -5.9866e-41
-2.4872e-41 -2.0578e-41 -4.928e-42 -2.9118e-41 2.4696e-41 5.3566e-41 -7.867e-42 -3.1568e-41
-4.5932e-41 9.5895e-41 -2.174e-41 -2.072e-41 -1.6202e-41 -7.073e-41 -1.5786e-41 4.897e-41
6.8062e-41 -2.8469e-41 -7.518e-42 1.2401e-41 5.757e-42 -6.4205e-41 -5.0992e-41 7.7336e-41
2.4807e-41 6.9374e-41 1.644e-42 2.2338e-41 4.5311e-41 5.1869e-41 1.6366e-41 1.2561e-41
-2.075e-42 -7.655e-42 7.5978e-41 1.1671e-41 -3.5136e-41 -2.9317e-41 -5.2078e-41 3.257e-41
-2.5795e-41 3.8383e-41 5.3537e-41 3.7262e-41 -8.545e-42 1.963e-42 -3.682e-41 -3.5107e-41
4.9174e-41 6.0168e-41 1.2128e-41 -2.0118e-41 -8.937e-42 4.4798e-41 6.7033e-41 -2.9024e-41

mlp.15.bias f4 [64]
00000000: 4e72 a73c d237 0080 c89a 4a3c cad7 0b3a
00000010: 2a66 0080 e34d 463c 989e 0000 bb74 0080
00000020: c594 0080 7846 0080 6c46 0000 eff0 5b23
00000030: bacb a636 f71c 0000 f30f 0000 add3 d13c
00000040: c199 0000 6a08 f83b 0b87 0000 e476 0000
00000050: 9217 0080 4492 0080 2022 0080 6980 221c
00000060: e573 981f 6c30 0080 374b 0080 7866 e93c
00000070: 20b1 0080 f81b 0080 747f 0000 7a71 0080
00000080: f478 0080 7c28 0000 1f06 0080 bf39 0000
00000090: 9847 0080 e630 0000 2c01 0000 1ac3 0080
000000a0: 8dae 0000 83a3 0000 982a da3c 3a44 9b3c
000000b0: 7b7c 0000 cb0c 0000 2bfd 523c 2650 0080
000000c0: e65a f831 2a27 f13a 5b38 0080 929d 0000
000000d0: 5af8 2822 4b0a 0000 1fd5 b33c a61d 0080
000000e0: d144 0080 60fe 1e3b 2864 1c3d 2108 0080
000000f0: 026c 0080 d113 1e38 cda1 0080 fbc1 8c3c
0.020440247 -2.0025e-41 0.012366004 0.0005334584 -3.665e-41 0.012103531 5.6893e-41 -4.1875e-41
-5.3368e-41 -2.528e-41 2.5263e-41 1.19230335e-17 4.9709024e-06 1.039e-41 5.722e-42 0.02561363
5.5157e-41 0.0075693624 4.8444e-41 4.265e-41 -8.455e-42 -5.247e-41 -1.2242e-41 5.376727e-22
6.4566235e-20 -1.737e-41 -2.6982e-41 0.028491244 -6.354e-41 -1.0033e-41 4.5722e-41 -4.0708e-41
-4.339e-41 1.4523e-41 -2.196e-42 2.0715e-41 -2.5683e-41 1.7541e-41 4.2e-43 -6.9989e-41
6.2617e-41 5.8657e-41 0.026631638 0.018953431 4.4655e-41 4.589e-42 0.012877743 -2.8752e-41
7.228084e-09 0.0018398513 -2.0217e-41 5.6526e-41 2.2899722e-18 3.692e-42 0.02195221 -1.0636e-41
-2.4687e-41 0.0024260506 0.038181454 -2.916e-42 -3.8746e-41 3.768859e-05 -5.8043e-41 0.01718234

mlp.18.weight f4 [8, 64]
00000000: b54e 0080 cbb7 0080 7598 0000 ad28 0000
00000010: 7d19 0080 6648 0080 c54b 0000 c470 0080
00000020: 7a1e 0080 6325 0000 670b 0000 f2c3 0000
00000030: b15c 0000 0b91 0080 35c4 0000 8e72 0080
00000040: 290c 0000 2315 0000 8f90 0000 0b53 0000
00000050: 2c6c 0080 6398 0000 04a1 0080 ca4e 0000
00000060: 6c66 0080 2082 0080 c019 0000 1973 0080
00000070: 69ac 0080 4295 0080 2854 0080 309b 0080
00000080: 757c 0000 8a92 0080 a815 0000 4577 0080
00000090: 8714 0000 401c 0000 59a0 0080 1943 0000
000000a0: 8572 0080 1ca0 0080 06a6 0080 476e 0000
000000b0: 6c4c 0000 a9d4 0080 c673 0000 2138 0080
000000c0: 990e 0000 74b7 0000 092e 0000 135a 0080
000000d0: ef16 0000 3a90 0080 4db2 0080 4857 0080
000000e0: ee15 0000 532d 0000 ea7d 0080 60a2 0080
000000f0: a94e 0000 57af 0080 f01c 0080 ce6b 0000
00000100: 3a62 893d 579d 0080 b298 343d 482a e53a
00000110: dc36 0080 613f 2c3d d24f 0000 91e2 b609
00000120: 7823 0080 e3a6 0100 8e21 f827 b381 bd24
00000130: eab1 4d37 8e31 0080 2875 0000 2bde b73d
00000140: dd35 0000 3064 d23c 6493 0b81 a339 0000
00000150: 6198 0000 e28f 0000 4071 0080 3c34 211d
00000160: 8e8b 0d21 a35a 0000 4a17 0080 a50b d53d
00000170: 1181 0000 607d 0000 ab11 0d97 c67b 0000
00000180: 586b 05b5 b32c 0300 617b 0000 459f 0080
00000190: 0f70 0000 4cae 0000 0f93 0080 3227 0000
000001a0: 7dd7 062f 796e 0080 3c61 be3d b85e 863d
000001b0: 795c 0080 bda4 0080 f843 4c3d ad17 0000
000001c0: 1e9d bf32 f180 c03b f696 0000 c70a 0000
000001d0: e5b0 1523 abb1 5f95 e458 ae3d 5856 0000
000001e0: 8f2a 0000 62d0 fd3b a3f2 133e f76f 0080
000001f0: 9bab ab8d 0a63 c738 bf0c 0000 2b4b 7b3d
00000200: 6753 4c2c 5d6a 0000 2732 152c b233 8c29
00000210: 3b04 0000 7a06 e22b 7123 0000 377f 0080
00000220: 830b 0000 3910 0080 3c1f d121 e522 5713
00000230: a711 7b26 baa8 0080 4e50 0080 2e43 6f2c
00000240: bc66 0080 19f2 8f2e 540c 0000 a317 0080
00000250: 2975 0080 5d2c 0000 8925 0080 0281 da0b
00000260: 8b6f b10f c59b 0080 1333 0080 59cb a22c
00000270: 5867 0000 f14c 0000 4efe 0000 deb6 3204
00000280: 4dda 112f c18e 0000 2e25 0000 2ea9 0080
00000290: 6034 0000 233f 0000 acbe 0000 3b01 0000
000002a0: e815 cb8b 7506 bd14 f418 732c 200f 2b2c
000002b0: b638 0080 dd77 0080 4c64 f12b 8a22 0000
000002c0: 0a7b 3fa5 2e06 e12a b393 0000 7ca8 0080
000002d0: 7184 1c1d 4cdf 0000 efa1 5e2c 30f2 0000
000002e0: 230f 0080 a3f7 9b2a 3430 c22c e78c 0080
000002f0: bfad b81e c120 05b2 1b6c 0080 eceb 1a2c
00000300: 5917 893c 7db0 0080 a113 233c ea27 c839
00000310: a041 0000 84a9 1e3c 633b 0080 0771 0000
00000320: 4578 0080 d17f 0000 428e 0000 5313 8924
00000330: 150e 4336 ed37 0000 7411 0000 f5e5 ae3c
00000340: 6621 0080 ebfe be3b b9bd 0580 2293 0000
00000350: 047d 0000 2098 0080 3387 0000 1b95 a01c
00000360: b49f e321 348d 0080 f434 0000 5047 c43c
00000370: 350b 0000 8673 0080 f3a4 658a 1702 0000
00000380: 9462 4a85 49a8 0080 a54a 0000 394a 0080
00000390: 2729 0000 235c 0000 a016 0080 9606 0000
000003a0: 5c04 1421 2214 0080 ba82 b63c f365 7e3c
000003b0: 83c4 0080 3f1d 0000 2f3c 2b3c 7a6a 0000
000003c0: 3813 1032 655d b13a 833c 0000 1d3b 0000
000003d0: c4e2 1c23 cb6b 0080 756e 963c ceab 0080
000003e0: f037 0080 2fc5 e63a bd36 073d 19b1 0080
000003f0: fb67 0000 7dc3 d937 bc4d 0000 a713 663c
-2.8235e-41 -6.5932e-41 5.4691e-41 1.4592e-41 -9.143e-42 -2.5972e-41 2.7181e-41 -4.0453e-41
-1.0933e-41 1.3412e-41 4.09e-42 7.0292e-41 3.3251e-41 -5.2032e-41 7.0386e-41 -4.1094e-41
4.362e-42 7.582e-42 5.1858e-41 2.979e-41 -3.8805e-41 5.4666e-41 -5.7762e-41 2.8264e-41
-3.6742e-41 -4.668e-41 9.237e-42 -4.1289e-41 -6.1849e-41 -5.3544e-41 -3.019e-41 -5.5671e-41
4.4647e-41 -5.2568e-41 7.769e-42 -4.2786e-41 7.364e-42 1.0134e-41 -5.7522e-41 2.407e-41
-4.1082e-41 -5.7436e-41 -5.9558e-41 3.956e-41 2.7415e-41 -7.6288e-41 4.1532e-41 -2.0135e-41
5.237e-42 6.581e-41 1.6514e-41 -3.2313e-41 8.227e-42 -5.1739e-41 -6.3962e-41 -3.131e-41
7.867e-42 1.6259e-41 -4.517e-41 -5.8249e-41 2.8218e-41 -6.29e-41 -1.0381e-41 3.8673e-41
0.06708188 -5.6443e-41 0.044090934 0.0017483914 -1.968e-41 0.04205263 2.8634e-41 4.402797e-33
-1.2724e-41 1.51703e-40 6.8870208e-15 8.21854e-17 1.2260376e-05 -1.7777e-41 4.2028e-41 0.08977922
1.9323e-41 0.025682539 -2.5636016e-38 2.0676e-41 5.4663e-41 5.1615e-41 -4.0626e-41 2.1335177e-21
4.7957357e-19 3.2514e-41 -8.355e-42 0.10402612 4.63e-41 4.4976e-41 -4.5581857e-25 4.4402e-41
-4.9702567e-07 2.91542e-40 4.426e-41 -5.7135e-41 4.0199e-41 6.2526e-41 -5.2755e-41 1.406e-41
1.2263786e-10 -3.963e-41 0.0929589 0.06561035 -3.3173e-41 -5.9097e-41 0.049869508 8.493e-42
2.2306775e-08 0.005874746 5.4155e-41 3.866e-42 8.114765e-18 -4.5174647e-26 0.08513048 3.0974e-41
1.5267e-41 0.0077457884 0.14448027 -4.0165e-41 -1.0580001e-30 9.507507e-05 4.572e-42 0.061350983
2.9036441e-12 3.8156e-41 2.1202014e-12 6.2262166e-14 1.518e-42 1.6060063e-12 1.2714e-41 -4.5636e-41
4.13e-42 -5.82e-42 1.4170659e-18 2.715402e-27 8.710704e-16 -6.0528e-41 -2.8808e-41 3.4001235e-12
-3.6854e-41 6.545892e-11 4.422e-42 -8.479e-42 -4.2029e-41 1.5915e-41 -1.3465e-41 8.4164655e-32
1.7496512e-29 -5.588e-41 -1.8322e-41 4.626893e-12 3.7073e-41 2.7601e-41 9.1227e-41 2.1007768e-36
1.3265229e-10 5.121e-41 1.3338e-41 -6.069e-41 1.8789e-41 2.2649e-41 6.84e-41 4.41e-43
-7.8225717e-32 1.908667e-26 3.4546229e-12 2.4308958e-12 -2.0344e-41 -4.2999e-41 1.7151918e-12 1.239e-41
-1.6608296e-16 3.9972317e-13 5.2984e-41 -6.0441e-41 2.0714899e-21 8.0104e-41 3.1637989e-12 8.688e-41
-5.43e-42 2.7705364e-13 5.5191633e-12 -5.0546e-41 1.9553617e-20 -7.749066e-09 -3.8781e-41 2.201568e-12
0.016734766 -6.3312e-41 0.00995341 0.0003817671 2.3542e-41 0.00968397 -2.1304e-41 4.0547e-41
-4.3145e-41 4.5852e-41 5.1032e-41 5.9447016e-17 2.9065461e-06 2.0062e-41 6.261e-42 0.021349886
-1.1981e-41 0.0058287284 -5.27237e-40 5.2781e-41 4.4847e-41 -5.4572e-41 4.85e-41 1.0626455e-21
1.5424391e-18 -5.0654e-41 1.8996e-41 0.023959786 4.02e-42 -4.1442e-41 -1.10569724e-32 7.5e-43
-9.5161e-36 -6.037e-41 2.6777e-41 -2.6626e-41 1.4763e-41 3.3052e-41 -8.116e-42 2.363e-42
5.015012e-19 -7.222e-42 0.022279132 0.015527236 -7.0495e-41 1.0492e-41 0.010451361 3.8197e-41
8.386273e-09 0.0013531862 2.1708e-41 2.1206e-41 8.5047964e-18 -3.8669e-41 0.018363217 -6.1632e-41
-2.0067e-41 0.0017606373 0.033011187 -6.353e-41 3.7301e-41 2.5959447e-05 2.7886e-41 0.014042771

mlp.18.bias f4 [8]
00000000: 6fc6 0000 c0ea b83d 32af 952c cdad b63c
00000010: 9a9f fc3d a4c9 1026 c354 0080 11dc 1439
7.1185e-41 0.0902915 4.2542853e-12 0.022299672 0.12335129 5.023331e-16 -3.0407e-41 0.00014196361

mlp.21.weight f4 [1, 8]
00000000: e943 0080 0b06 92be b752 50ad d511 8cbd
00000010: ba72 c9be 1f7a 4239 50a7 0080 e777 c9b9
-2.4362e-41 -0.28520235 -1.18417975e-11 -0.06839339 -0.39345342 0.00018546775 -6.002e-41 -0.00038427042
