model_saved/2024-01-25-07-49-50/model_2024-01-25-07-51-59_epoch_18000_train_mse_2.02e-02_val_mse_2.00e-02.pt (torch, 88343 bytes, 15 tensors)

mlp.0.weight f4 [8, 8]
1.3063e-41 -3.1833e-41 -1.097e-42 -2.8923e-41 1.2312e-41 3.8796e-41 -1.922e-41 -6.0267e-41
0.0034518868 -0.0013342641 -3.130584e-05 2.5271536e-06 1.0016876e-06 -3.096812e-07 -4.7170624e-06 2.626356e-06
-0.017610777 0.056991756 0.017507182 0.00029063568 0.0004335051 0.00046981586 0.0013954939 2.7779372e-05
-0.014028428 0.040822282 0.012506484 0.0002071348 0.0003094744 0.00033578888 0.001000404 1.238296e-06
0.10245421 -0.051602464 0.0032291948 0.00014146944 0.000104807885 7.446482e-05 4.052724e-05 7.563784e-05
-0.07438049 0.18832657 0.05954438 0.0009871849 0.0014591056 0.0015536525 0.0047408966 -7.32965e-05
0.07260066 0.33810943 0.16064149 0.002000023 0.0029729297 0.0031418516 0.009776002 -0.0001570083
-0.015038789 0.088426165 0.028171895 0.0004563926 0.0006744082 0.0007192761 0.0021863983 -3.48365e-05
00000000: 6a24 0000 bd58 0080 0f03 0080 a050 0080
00000010: 5222 0000 266c 0000 9435 0080 00a8 0080
00000020: 0d39 623b 79e2 aeba 644e 03b8 2b98 2936
00000030: b971 8635 4342 a6b4 4247 9eb6 7440 3036
00000040: 7a44 90bc 3070 693d 396b 8f3c 7660 9839
00000050: 1248 e339 9e51 f639 01e9 b63a bf07 e937
00000060: 7ed7 65bc 4435 273d ffe7 4c3c 5332 5939
00000070: f340 a239 d20c b039 fd1f 833a 8733 a635
00000080: 83d3 d13d 1b5d 53bd e6a0 533b 6a57 1439
00000090: 4ecc db38 ff29 9c38 cbfb 2938 c29f 9e38
000000a0: cc54 98bd aed8 403e cfe4 733d 6e64 813a
000000b0: 763f bf3a eda3 cb3a 8659 9b3b c2b6 99b8
000000c0: a8af 943d ae1c ad3e 347f 243e d112 033b
000000d0: 7cd5 423b 86e7 4d3b 862b 203c 98a2 24b9
000000e0: 4165 76bc c718 b53d bfc8 e63c fa47 ef39
000000f0: c5ca 303a cd8d 3c3a ad49 0f3b 681d 12b8

mlp.0.bias f4 [8]
4.9843e-41 -1.4981746e-06 0.0002304375 0.00014801614 -8.899656e-06 0.0006591402 0.001311191 0.0002998794
00000000: f18a 0000 e314 c9b5 98a1 7139 c834 1b39
00000010: bb4f 15b7 26ca 2c3a 45dc ab3a 2239 9d39

mlp.3.weight f4 [16, 8]
6.0898e-41 -0.00011947481 0.0062904577 0.00452173 -0.0036239566 0.02131819 0.041758876 0.0098493
2.7262e-41 -1.4280807e-06 8.779317e-05 6.139694e-05 -5.1790325e-05 0.00028584732 0.00064000476 0.00013517904
4.9354e-41 -0.00015366038 0.0070710196 0.005107478 -0.0045948043 0.024096945 0.053319134 0.011243383
-5.2367e-41 1.930741e-06 -6.0596372e-05 -4.456727e-05 0.0008684112 -0.00022056629 0.00019155935 -0.0002508991
-4.9012e-41 1.385e-41 -3.1717e-41 7.489e-42 8.181e-42 -1.4508e-41 4.7491e-41 4.0521e-41
6.1605e-41 -4.4423e-41 -3.3903e-41 -1.4096e-41 2.9734e-41 4.8917e-41 -1.5674e-41 1.5169e-41
3.808e-41 -3.574341e-06 0.00019191533 0.00016110591 -0.00011590077 0.0006536267 0.0016254943 0.00029795864
4.0415e-41 -0.00047573875 0.02165798 0.015532769 -0.012697129 0.073395275 0.15237406 0.033622585
7.026e-42 1.5732e-41 4.8303e-41 4.708e-41 -1.996e-41 -5.0227e-41 -2.6995e-41 3.2499e-41
6.1097e-41 -0.0009815133 0.036214605 0.025970113 -0.019830987 0.122676514 0.24706066 0.057247344
2.42e-43 -4.266e-41 -5.567e-41 5.4376e-41 -2.8724e-41 -2.8599e-41 5.2861e-41 -4.666e-41
2.5017e-41 -0.0011314834 0.038976196 0.027967019 -0.033079773 0.13218647 0.27232084 0.060405213
1.7506e-41 -5.5682e-41 -1.1456e-41 1.6497e-41 -1.1217e-41 1.4565783e-31 -3.367216e-09 6.0351853e-22
4.1628e-41 2.8033e-41 -5.967e-41 -3.042e-41 4.378e-42 4.1114e-41 3.0778e-41 4.2934e-41
2.7468e-41 2.3634e-41 1.3066e-41 3.8753e-41 2.567e-42 2.0773e-41 -1.8235776e-23 4.3924e-41
3.3634e-41 -0.00028741712 0.013013158 0.009356712 -0.0081199445 0.044332076 0.093119666 0.02050552
00000000: c2a9 0000 8d8e fab8 2f20 ce3b 052b 943b
00000010: e77f 6dbb 7ca3 ae3c 5b0b 2b3d f55e 213c
00000020: ff4b 0000 7bac bfb5 991d b838 3bc2 8038
00000030: 7039 59b8 c7dd 9539 fec5 273a d9be 0d39
00000040: 9489 0000 e51f 21b9 03b4 e73b a15c a73b
00000050: 0390 96bb f566 c53c 2a65 5a3d 2b36 383c
00000060: fa91 0080 e191 0136 dc28 7eb8 beed 3ab8
00000070: 17a6 633a d047 67b9 52dd 4839 1b8b 83b9
00000080: a088 0080 9c26 0000 6a58 0080 e014 0000
00000090: ce16 0000 7128 0080 6384 0000 f570 0000
000000a0: bbab 0000 d57b 0080 825e 0080 4b27 0080
000000b0: e352 0000 5c88 0000 b12b 0080 492a 0000
000000c0: 276a 0000 b6de 6fb6 e13c 4939 8aee 2839
000000d0: c10f f3b8 2558 2b3a 8a0e d53a 5537 9c39
000000e0: a970 0000 936c f9b9 136c b13c 287d 7e3c
000000f0: 9e07 50bc 4350 963d f207 1c3e d6b7 093d
00000100: 9613 0000 db2b 0000 a686 0000 3d83 0000
00000110: a437 0080 038c 0080 404b 0080 985a 0000
00000120: 50aa 0000 1fa6 80ba c455 143d 46bf d43c
00000130: 9874 a2bc d33d fb3d 78fd 7c3e 317c 6a3d
00000140: ad00 0000 eb76 0080 2f9b 0080 9497 0000
00000150: 1250 0080 b94f 0080 5b93 0000 1282 0080
00000160: bd45 0000 484e 94ba 81a5 1f3d 171b e53c
00000170: a87e 07bd e45b 073e a36d 8b3e 756b 773d
00000180: cd30 0000 389b 0080 ef1f 0080 fd2d 0000
00000190: 451f 0080 1e13 3d0c b164 67b1 fc66 361c
000001a0: 0b74 0000 254e 0000 56a6 0080 cc54 0080
000001b0: 340c 0000 9c72 0000 cc55 0000 af77 0000
000001c0: 924c 0000 e241 0000 6c24 0000 076c 0000
000001d0: 2807 0000 e839 0000 985d b099 717a 0000
000001e0: c25d 0000 79b0 96b9 2435 553c e54c 193c
000001f0: 8409 05bc 8d95 353d 86b5 be3d 31fb a73c

mlp.3.bias f4 [16]
0.00034935726 4.882542e-06 0.000385477 -3.2496157e-06 -9.551e-42 5.5683e-41 1.077991e-05 0.0011719484
5.0908e-41 0.0019167548 7.204e-42 0.002055642 4.93e-42 2.9003e-41 4.187e-42 0.0007076327
00000000: f029 b739 b7d4 a336 d919 ca39 f913 5ab6
00000010: a01a 0080 399b 0000 5cdb 3437 109c 993a
00000020: e98d 0000 9e3b fb3a 1514 0000 f3b7 063b
00000030: be0d 0000 d950 0000 ac0b 0000 6d80 393a

mlp.6.weight f4 [32, 16]
5.8075e-41 1.163e-42 -5.8906e-41 1.5915e-41 -5.9292e-41 -5.4366e-41 -2.3218e-41 -1.3081e-41
3.9559e-41 -2.1549e-41 3.4988e-41 4.337e-41 -1.6758e-41 3.6097e-41 -1.2358e-41 -1.8025e-41
0.0074995174 0.00010374987 0.008823687 -1.8250455e-05 4.9127e-41 2.2118e-41 0.0002415195 0.028532924
-6.1567e-41 0.04431455 5.4407e-41 0.04788901 6.0682e-41 -2.8666e-41 2.7164e-41 0.01594516
0.03683938 0.00045184421 0.036784556 -0.00029416077 6.0032e-41 3.3369e-41 0.0010109211 0.094558045
3.449e-42 0.19148813 2.5075e-41 0.19317439 -2.248e-42 5.7333e-41 2.411e-41 0.06883605
0.011221303 0.00015564893 0.013269718 -2.9545126e-05 -3.536e-41 5.085e-41 0.00036073456 0.04359843
1.6804e-41 0.065673165 6.0085e-41 0.072280504 -5.112e-41 -2.9786e-41 -6.2236e-41 0.023986131
2.4343615e-06 3.4375525e-08 2.923236e-06 -6.108148e-09 4.068e-41 -6.25e-43 8.0191946e-08 2.9627541e-05
4.3188e-41 7.804539e-06 1.9856e-41 1.4585758e-05 5.2606e-41 -2.2708e-41 4.756e-42 5.1609495e-06
8.58e-42 -3.336e-41 2.1884e-41 3.6375e-41 4.5066e-41 5.1966e-41 4.5848e-41 -4.4348e-41
-4.6101e-41 -3.8117e-41 -5.4876e-41 5.637e-41 -4.6135e-41 -4.2081e-41 1.2693e-41 6.114e-42
-4.4816e-41 -5.7034e-41 -1.616e-42 -5.1087e-41 -3.6843e-41 1.0745e-41 1.852e-41 9.138e-42
4.2569e-41 5.797e-42 1.568e-42 -1.5779e-41 5.8996e-41 -2.5397e-41 6.182e-41 -1.6324e-41
2.2570413e-05 3.113353e-07 2.6441443e-05 -3.8917424e-08 2.7554e-41 -6.1189e-41 7.378165e-07 8.492807e-05
6.9129e-41 0.00013593708 5.1503e-41 0.00014604793 5.4e-41 -5.2418e-41 4.4095e-41 4.7400303e-05
0.0067132763 8.504697e-05 0.007059527 -2.3005286e-05 -2.4136e-41 -4.8555e-41 0.0001936514 0.029379332
3.8016e-41 0.031147175 -1.1879e-41 0.04076373 -4.559e-41 -1.0839e-41 -3.9797e-41 0.012803163
7.0093756e-06 9.606341e-08 8.147623e-06 -1.1928223e-08 6.0096e-41 -5.2483e-41 2.274872e-07 2.7927274e-05
5.801e-41 4.271786e-05 4.4748e-41 4.511799e-05 3.8663e-41 -4.7419e-41 5.9363e-41 1.461798e-05
2.5424e-41 9.142e-42 8.797e-42 3.169e-41 6.2156e-41 -6.0844e-41 -2.1011e-41 6.0942e-41
-2.2708e-41 -6.307e-42 4.3957e-41 -4.6955e-41 7.3698e-41 -3.738e-41 -4.826e-42 3.0812e-41
-6.2386e-41 -4.3732e-41 -1.3708e-41 -4.0265e-41 5.72e-43 4.5688e-41 -5.826e-41 4.0265e-41
3.3508e-41 -6.154e-41 -1.0979e-41 -4.56e-41 1.038e-41 2.4952e-41 -1.329e-41 -3.1169e-41
7.7884405e-20 -1.3146e-41 2.2907e-41 2.79e-42 3.0686e-41 -5.4482e-41 -3.6875e-41 -1.2023105e-15
1.946e-41 2.879292e-16 2.8748e-41 -7.190018e-18 -2.9307e-41 1.16431e-40 1.8559e-41 -1.060574e-37
0.010120995 0.00013430204 0.011245963 -3.5151115e-05 -2.4559e-41 2.4437e-41 0.00030723045 0.035589505
-1.1359e-41 0.05870745 5.628e-42 0.06127162 -3.9515e-41 2.559e-41 5.2152e-41 0.020424303
6.3201e-41 3.88e-42 5.8922e-41 5.4875e-41 1.5577e-41 -2.2579e-41 -3.1057e-41 -5.2051e-41
2.327e-41 -8.397e-42 -2.94e-43 -2.4391e-41 1.9418e-41 6.0152e-41 -2.6936e-41 3.7967e-41
2.9534692e-06 4.0244707e-08 3.4239279e-06 -4.7538258e-09 -2.3856e-41 -2.0194e-41 9.5394924e-08 1.17704485e-05
-4.928e-41 1.7748429e-05 -3.22e-41 1.9181885e-05 5.8569e-41 -2.0551e-41 5.4784e-41 6.1466685e-06
00000000: e4a1 0000 3e03 0000 35a4 0080 5d2c 0000
00000010: 48a5 0080 8d97 0080 b940 0080 7724 0080
00000020: 466e 0000 123c 0080 8861 0000 e678 0000
00000030: b72e 0080 a064 0000 7322 0080 3f32 0080
00000040: 83be f53b 4a94 d938 3a91 103c 8e18 99b7
00000050: f288 0000 a83d 0000 6640 7d39 e1bd e93c
00000060: a0ab 0080 2c83 353d aa97 0000 4427 443d
00000070: 28a9 0000 e94f 0080 b94b 0000 6d9f 823c
00000080: e4e4 163d 81e5 ec39 67ab 163d 9739 9ab9
00000090: 58a7 0000 055d 0000 e280 843a a6a7 c13d
000000a0: 9d09 0000 7715 443e e645 0000 82cf 453e
000000b0: 4406 0080 d29f 0000 3543 0000 eaf9 8c3d
000000c0: 8ed9 373c b135 2339 3b69 593c add7 f7b7
000000d0: 9262 0080 c08d 0000 f920 bd39 4494 323d
000000e0: d82e 0000 a77f 863d 7ea7 0000 cd07 943d
000000f0: 808e 0080 0853 0080 7dad 0080 907e c43c
00000100: 035e 2336 4aa4 1333 d02c 4436 d7df d1b1
00000110: 6671 0000 be01 0080 fd35 ac33 a988 f837
00000120: 6478 0000 3df0 0237 5a37 0000 5bb5 7437
00000130: a592 0000 4d3f 0080 420d 0000 382c ad36
00000140: eb17 0000 fe5c 0080 013d 0000 6665 0000
00000150: a07d 0000 dc90 0000 ce7f 0000 a07b 0080
00000160: 8380 0080 416a 0080 f998 0080 239d 0000
00000170: 9b80 0080 4e75 0080 6223 0000 0b11 0000
00000180: ee7c 0080 fd9e 0080 8104 0080 698e 0080
00000190: b466 0080 f41d 0000 a033 0000 7919 0000
000001a0: aa76 0000 2910 0000 5f04 0000 fc2b 0080
000001b0: 75a4 0000 cc46 0080 54ac 0000 812d 0080
000001c0: 9855 bd37 9925 a734 91ce dd37 2926 27b3
000001d0: cf4c 0000 92aa 0080 5d0e 4635 691b b238
000001e0: b4c0 0000 558a 0e39 928f 0000 7124 1939
000001f0: 8896 0000 1f92 0080 eb7a 0000 b0cf 4638
00000200: 0bfb db3b 3f5b b238 9b53 e73b 7afb c0b7
00000210: 4843 0080 5a87 0080 e70e 4b39 edac f03c
00000220: f969 0000 5c28 ff3c 1d21 0080 def7 263d
00000230: 167f 0080 371e 0080 f06e 0080 5cc4 513c
00000240: 1432 eb36 6b4b ce33 c6b1 0837 e1ec 4cb2
00000250: 86a7 0000 4d92 0080 3543 7434 5d45 ea37
00000260: b5a1 0000 f42b 3338 bd7c 0000 133d 3d38
00000270: c76b 0000 2f84 0080 7ba5 0000 bf3f 7537
00000280: df46 0000 7c19 0000 8618 0000 5758 0000
00000290: 44ad 0000 9ca9 0080 923a 0080 e2a9 0000
000002a0: 4d3f 0080 9511 0080 897a 0000 e482 0080
000002b0: 71cd 0000 3368 0080 740d 0080 e455 0000
000002c0: e8ad 0080 e879 0080 3626 0080 3e70 0080
000002d0: 9801 0000 5c7f 0000 68a2 0080 3e70 0000
000002e0: 685d 0000 8cab 0080 9b1e 0080 1d7f 0080
000002f0: ef1c 0000 8e45 0000 0c25 0080 e356 0080
00000300: 3ce6 b71f a524 0080 db3f 0000 c707 0000
00000310: 8a55 0000 e097 0080 cb66 0080 6e45 ada6
00000320: 3f36 0000 dafa a525 2350 0000 e6a1 04a3
00000330: b251 0080 9044 0100 bc33 0000 9c5b 1082
00000340: 88d2 253c 6ed3 0c39 fd40 383c 396f 13b8
00000350: 7644 0080 1f44 0000 c613 a139 4dc6 113d
00000360: aa1f 0080 3977 703d b00f 0000 f3f7 7a3d
00000370: 276e 0080 5647 0000 6191 0000 de50 a73c
00000380: 2eb0 0000 d10a 0000 40a4 0000 f898 0000
00000390: 6c2b 0000 f13e 0080 9356 0080 1991 0080
000003a0: de40 0000 6817 0080 d200 0080 fe43 0080
000003b0: 2136 0000 aea7 0000 164b 0080 d669 0000
000003c0: 3734 4636 86d9 2c33 a2c6 6536 1857 a3b1
000003d0: 8042 0080 4b38 0080 eadb cc33 b179 4537
000003e0: 5f89 0080 76e2 9437 c359 0080 c9e8 a037
000003f0: 44a3 0000 4a39 0080 b798 0000 7b3f ce36

mlp.6.bias f4 [32]
3.0637e-41 0.0011123673 0.0044377525 0.001658947 3.8501275e-07 3.6912e-41 1.618e-41 3.4765487e-06
0.00088879897 1.078977e-06 -2.617e-41 -3.6839e-41 -2.3852e-41 0.0014103787 3.0274e-41 4.4297755e-07
0.004400905 -6.2101e-41 -4.5368e-41 -6.4831e-41 3.4847e-41 5.18696e-07 0.00036305073 0.0004611084
1.0794594e-07 0.0008116671 2.7953e-41 6.248e-41 5.6262e-41 2.1597305e-17 1.9346e-41 7.335334e-05
00000000: 6755 0000 dacc 913a 916a 913b 0671 d93a
00000010: c0b3 ce34 e566 0000 1a2d 0000 a74e 6936
00000020: 4afe 683a 5ed1 9035 f448 0080 b166 0080
00000030: 7d42 0080 75dc b83a 6454 0000 5fd2 ed34
00000040: 7835 903b 1dad 0080 787e 0080 b9b4 0080
00000050: 2461 0000 853c 0b35 d857 be39 ecc0 f139
00000060: e8cf e733 0fc6 543a ec4d 0000 2bae 0000
00000070: d69c 0000 3233 c723 ee35 0000 46d5 9938

mlp.9.weight f4 [64, 32]
3.5949e-41 2.4301214e-38 -6.7142305e-33 5.85e-42 5.046e-42 -4.3534e-41 5.0483e-41 -3.7396e-41
5.8846e-41 -6.698e-42 -1.2201e-41 5.6338e-41 -1.1372e-41 4.8091e-41 -6.5927e-41 -2.5457e-41
7.521e-42 9.96e-42 -8.866e-42 -4.358e-41 -4.3621e-41 2.3644e-41 -5.0203e-41 5.3476e-41
2.677e-41 -3.8773e-41 -3.8505e-41 6.418e-42 3.3708e-41 4.4763e-41 2.98e-41 3.9875e-41
-1.7858e-41 -2.5878383e-10 -1.9865388e-08 -9.072921e-12 -6.039e-41 5.1983e-41 4.8817e-41 -7.986218e-26
1.8213798e-21 -1.0123084e-34 1.2857e-41 -1.843e-42 3.133e-42 3.1666283e-14 -3.968e-42 -5.468382e-37
1.551169e-11 -3.6006e-41 6.6487e-41 3.398e-41 -3.445e-41 -1.798e-42 5.7090796e-13 2.631034e-25
-4.6065e-41 1.9819255e-26 3.95e-41 5.6426e-41 -2.631e-41 5.1534e-41 -3.7518e-41 1.279255e-26
8.36e-42 0.036009517 0.14383464 0.054005828 1.2588235e-05 2.1478e-41 5.4368e-41 0.0001101065
0.029181087 3.4059693e-05 3.5608e-41 -5.396e-41 -1.4085505e-18 0.046320673 1.218e-41 1.4322856e-05
0.1433023 -4.2287e-41 -2.294e-41 -1.3792e-41 -2.658e-42 1.680054e-05 0.011625414 0.015045563
3.526789e-06 0.02666102 -1.22e-41 1.1006e-41 -2.6883e-41 5.785653e-16 -7.9759e-41 0.0023452446
-1.0035e-41 0.0015040493 0.0063068103 0.0022296545 5.186219e-07 -5.4271e-41 7.256e-42 4.4431063e-06
0.0011806469 1.3865849e-06 6.2452e-41 3.677e-41 2.5023083e-23 0.0018795914 -3.0394e-41 5.8180444e-07
0.0059877727 -6.1569e-41 2.4432e-41 4.3038e-41 -2.2536e-41 6.9058456e-07 0.00047170115 0.00060344295
1.4432393e-07 0.0010686475 6.3068e-41 5.3649e-41 1.1346e-41 2.3164462e-17 -2.2711e-41 9.437252e-05
-3.5807e-41 0.00013686375 0.0005867454 0.00020251199 4.7108312e-08 -3.925e-41 -3.2398e-41 3.99141e-07
0.00010714614 1.2420134e-07 -3.341e-41 1.8733e-41 -1.4468e-41 0.00017076368 -2.3114e-41 5.237749e-08
0.00054515456 -2.2016e-41 -6.289e-41 5.689e-42 3.0188e-41 6.2610496e-08 4.2497828e-05 5.4679793e-05
1.3091318e-08 9.714493e-05 4.9501e-41 3.5796e-41 -2.867e-42 2.1075582e-18 5.4555e-41 8.517323e-06
5.2763e-41 6.2012e-41 4.5544e-41 -2.976e-41 -4.5691e-41 -3.7196e-41 4.8018e-41 -3.6088e-41
-4.822e-42 3.4293e-41 -2.7021e-41 -5.0932e-41 9.393e-42 -4.9879e-41 -5.842e-42 -1.5008e-41
-3.5833e-41 -8.61e-42 -2.1286e-41 -3.4636e-41 -1.372e-42 6.0523e-41 9.4e-43 -5.6003e-41
-6.254e-41 -5.0881e-41 1.9854e-41 -7.515e-42 -2.3012e-41 4.781e-41 4.6333e-41 -3.6734e-41
3.2e-43 -6.5289e-41 7.297e-42 -1.4105e-41 -6.149e-42 2.3036e-41 4.4484e-41 2.655e-41
1.5843e-41 4.6257e-41 3.0574e-41 2.4163e-41 -3.7127e-41 -4.068e-41 -4.279e-41 -1.528e-41
3.7702e-41 -5.7797e-41 -5.4219e-41 -5.6495e-41 -2.3992e-41 -6.407e-42 5.5504e-41 3.9618e-41
-6.024e-41 -2.2921e-41 -5.1809e-41 4.1563e-41 3.7415e-41 -2.1213e-41 6.2862e-41 6.1776e-41
-6.2886e-41 4.0980176e-05 0.0001743426 6.0387418e-05 1.403227e-08 -5.3004e-41 1.6279e-41 1.1880312e-07
3.1896594e-05 3.71655e-08 6.292e-42 2.034e-41 -1.7574366e-38 5.081738e-05 3.6118e-41 1.5619774e-08
0.0001620745 6.735e-42 -3.1012e-41 -4.6515e-41 -5.6241e-41 1.865686e-08 1.2660904e-05 1.6283215e-05
3.894026e-09 2.8922863e-05 -6.1104e-41 2.2911e-41 6.1266e-41 6.272081e-19 1.47e-43 2.5344832e-06
00000000: 3664 0000 f34e 0401 f972 0b8a 4f10 0000
00000010: 110e 0000 5b79 0080 ba8c 0000 3f68 0080
00000020: 0aa4 0000 ac12 0080 0322 0080 0c9d 0000
00000030: b31f 0080 0f86 0000 c7b7 0080 f746 0080
00000040: f714 0000 c41b 0000 b718 0080 7c79 0080
00000050: 9979 0080 e941 0000 f28b 0080 1295 0000
00000060: a04a 0000 156c 0080 566b 0080 e411 0000
00000070: f75d 0000 c87c 0000 1253 0000 286f 0000
00000080: c831 0080 9644 8eaf 73a4 aab2 ce9c 1fad
00000090: 58a8 0080 e890 0000 1588 0000 acba c595
000000a0: 9c9e 091d 128f 0687 d723 0000 2305 0080
000000b0: bc08 0000 bd9c 0e29 100b 0080 5314 3a83
000000c0: 3871 882d 5f64 0080 57b9 0000 b95e 0000
000000d0: 0860 0080 0305 0080 41b2 202b 66da a216
000000e0: 6980 0080 c847 c414 1c6e 0000 4b9d 0000
000000f0: 5749 0080 a88f 0000 9668 0080 ef61 7d14
00000100: 4e17 0000 b77e 133d 6349 133e 3735 5d3d
00000110: 0f32 5337 df3b 0000 8e97 0000 fae8 e638
00000120: 2d0d ef3c 51db 0e38 4363 0000 6b96 0080
00000130: 89dd cfa1 bfba 3d3d f421 0000 334c 7037
00000140: d7bd 123e e175 0080 f33f 0080 7226 0080
00000150: 6907 0080 e3ee 8c37 8578 3e3c aa81 763c
00000160: c6ad 6c36 3668 da3c 0222 0080 ae1e 0000
00000170: f04a 0080 96c2 2626 56de 0080 adb2 193b
00000180: f91b 0080 8523 c53a 5ca9 ce3b 651f 123b
00000190: 6d37 0b35 4997 0080 3a14 0000 fe15 9536
000001a0: f0bf 9a3a b21a ba35 17ae 0000 8066 0000
000001b0: 2702 f219 9f5c f63a ba54 0080 4c2d 1c35
000001c0: 1435 c43b a1ab 0080 1b44 0000 f977 0000
000001d0: d23e 0080 9c60 3935 a84e f739 5f30 1e3a
000001e0: 76f7 1a34 dc11 8c3a cfaf 0000 8d95 0000
000001f0: a11f 0000 8aa7 d523 4f3f 0080 dce9 c538
00000200: d163 0080 1583 0f39 d1cf 193a 6659 5439
00000210: 2354 4a33 6a6d 0080 505a 0080 8549 d634
00000220: a5b3 e038 345c 0534 225d 0080 3834 0000
00000230: 5528 0080 070f 3339 6f40 0080 a9f5 6033
00000240: b4e8 0e3a 5f3d 0080 50af 0080 dc0f 0000
00000250: 2754 0000 7c74 8633 b23f 3238 fb57 6538
00000260: 3ae8 6032 4aba cb38 fd89 0000 c963 0000
00000270: fe07 0080 a682 1b22 1498 0000 a0e5 0e37
00000280: 1593 0000 ddac 0000 f57e 0000 f552 0080
00000290: 5e7f 0080 b067 0080 db85 0000 9964 0080
000002a0: 710d 0080 985f 0000 534b 0080 fa8d 0080
000002b0: 2f1a 0000 0b8b 0080 4910 0080 d629 0080
000002c0: e363 0080 0018 0080 563b 0080 8d60 0080
000002d0: d303 0080 b7a8 0000 9f02 0000 1d9c 0080
000002e0: 56ae 0080 d68d 0080 5837 0000 f314 0080
000002f0: 2640 0080 4685 0000 2881 0000 6666 0080
00000300: e400 0000 00b6 0080 5714 0000 5227 0080
00000310: 2411 0080 3740 0000 017c 0000 034a 0000
00000320: 2a2c 0000 f280 0000 3a55 0000 5b43 0000
00000330: 7f67 0080 6671 0080 4877 0080 982a 0080
00000340: 1969 0000 1da1 0080 2497 0080 7c9d 0080
00000350: e142 0080 dc11 0080 b99a 0000 706e 0000
00000360: eda7 0080 e53f 0080 6c90 0080 dc73 0000
00000370: 4c68 0000 223b 0080 3caf 0000 35ac 0000
00000380: 4daf 0080 21e2 2b38 bccf 3639 7f48 7d38
00000390: 9312 7132 c193 0080 612d 0000 b520 ff33
000003a0: b5c8 0538 e69f 1f33 8a11 0000 b338 0000
000003b0: 2f5e bf80 bf24 5538 af64 0000 3f2c 8632
000003c0: 8bf2 2939 c612 0000 7356 0080 aa81 0080
000003d0: c79c 0080 de42 a032 2b6a 5437 f097 8837
000003e0: 37cc 8531 609f f237 55aa 0080 de3f 0000
000003f0: c9aa 0000 811e 3921 6900 0000 1716 2a36

mlp.9.bias f4 [64]
-4.595e-42 8.72e-42 0.0074057835 0.00031048834 2.8479768e-05 -6.3014e-41 -1.4529e-41 8.528603e-06
9.250871e-07 0.0053938664 1.1216178e-08 1.1806e-41 -1.5138e-41 -5.682e-41 6.149353e-10 0.0043062405
-6.0127e-41 0.0013649922 -2.346e-42 -4.0636e-41 3.117e-41 0.0018447705 -5.4673e-41 7.83466e-09
2.15304e-07 -5.1866e-41 -5.27e-43 8.515115e-10 -2.9542e-41 -6.048e-42 6.0707e-41 9.652907e-05
2.1581428e-11 4.2755e-41 0.0008250551 5.7527006e-07 0.003650025 0.0076794284 2.5378e-41 7.2380404e-26
5.381e-41 1.8774669e-23 3.3522535e-20 -3.6243e-41 3.1121e-41 -1.7392e-41 -5.4424e-41 5.9805e-41
-8.639e-42 6.682897e-08 -5.0864e-41 0.00065707474 0.0043155723 3.1011e-41 0.00048883713 1.1652e-41
0.003124381 0.0025161172 3.7953e-41 1.1883834e-30 -2.9904e-41 -2.169e-42 5.104858e-13 0.0034196114
00000000: cf0c 0080 4f18 0000 37ac f23b 0ac9 a239
00000010: d6e7 ee37 a8af 0080 8028 0080 1216 0f37
00000020: 8053 7835 08bf b03b 46b1 4032 e920 0000
00000030: 332a 0080 649e 0080 3a08 2930 5d1b 8d3b
00000040: 9ca7 0080 8ae9 b23a 8a06 0080 4771 0080
00000050: e456 0000 3acc f13a 6898 0080 3399 0632
00000060: 502e 6734 9590 0080 7801 0080 cb0f 6a30
00000070: 5a52 0080 dc10 0080 3aa9 0000 a66f ca38
00000080: 0ed5 bd2d 2f77 0000 8348 583a 426c 1a35
00000090: 4235 6f3b b7a3 fb3b be46 0000 8834 b315
000000a0: 0096 0000 d493 b519 424e 1e1f 0865 0080
000000b0: c156 0000 7b30 0080 b697 0080 b6a6 0000
000000c0: 1518 0080 9d83 8f33 ca8d 0080 8a3f 2c3a
000000d0: a569 8d3b 7256 0000 4e25 003a 7b20 0000
000000e0: 6ac2 4c3b 71e5 243b cc69 0000 84d3 c00d
000000f0: 5c53 0080 0c06 0080 61b0 0f2b 8f1b 603b

mlp.12.weight f4 [128, 64]
2.458e-41 2.5498e-41 6.736e-42 3.676e-41 -4.3802e-41 4.1083e-41 2.096e-41 7.423e-42
-5.4816e-41 -2.1838e-41 5.7539e-41 -2.8839e-41 1.107e-42 3.252e-41 -5.2587e-41 4.3003e-41
-2.3849e-41 5.9498e-41 5.4188e-41 6.7466e-41 4.8174e-41 -2.1656e-41 4.0101e-41 -2.468e-41
-1.0915e-41 -5.4852e-41 -4.2342e-41 -1.4442e-41 -9.399e-42 1.505e-41 3.576e-42 6.2667e-41
8.973e-42 5.4495e-41 3.739e-41 2.5003e-41 -7.1924e-41 -1.0846e-41 -3.495e-41 -3.6557e-41
1.422e-42 5.895e-41 6.3306e-41 1.18e-42 -3.3562e-41 -4.44e-42 -2.9843e-41 -2.7121e-41
1.2107e-41 1.8452e-41 2.2788e-41 3.886e-41 -1.2877e-41 -3.0086e-41 4.771e-41 -4.17e-41
-5.9367e-41 -5.1946e-41 -4.8842e-41 3.4821e-41 6.8421e-41 6.3573e-41 4.799e-41 5.8876e-41
6.0483e-41 6.1584e-41 -1.0949032e-18 -2.0581828e-30 4.067e-41 3.2174e-41 -0.0 -1.1015446e-38
-3.34438e-33 -6.8344974e-21 -3.4503e-41 -4.8474e-41 1.6506e-41 -4.9609e-41 4.34e-43 -1.0305159e-21
2.685e-41 -8.478316e-24 -5.8891e-41 3.268e-41 7.0953e-41 -2.254633e-23 -8.42e-42 1.539e-41
1.7955e-41 -7.159e-42 -6.243e-42 -3.153e-41 3.5701e-41 3.45e-41 -6.5619e-41 -1.61253e-40
-3.466e-41 -6.8557e-41 -1.9717187e-36 -3.9447236e-33 -1.9744526e-26 -2.220529e-18 5.13e-41 6.0455e-41
2.7664e-41 1.1268e-41 -4.1839e-41 3.4398e-41 5.998e-41 7.983e-42 -3.2814e-41 3.068e-41
-5.9408e-41 -1.6873e-41 6.4764e-41 -2.7782927e-23 -4.887518e-26 3.1427e-41 -9.2458934e-38 -1.0081e-41
-1.4932671e-24 -1.2330639e-23 2.5392e-41 3.2741e-41 2.1004e-41 -3.4504e-41 -9.162e-42 -7.047019e-25
-7.036e-42 2.5508e-41 7.563e-42 4.6903e-41 1.8548e-41 9.323e-42 -2.4163e-41 -3.9735e-41
-6.1031e-41 -7.0143e-41 -7.9574e-41 -6.316e-41 5.5704e-41 2.778e-41 5.602e-41 -4.0464e-41
5.9257e-41 -4.042e-41 5.3276e-41 4.3809e-41 3.0962e-41 6.1528e-41 -4.794e-42 -4.7915e-41
3.3571e-41 -1.9416e-41 6.445e-42 -2.773e-42 -2.6849e-41 -5.8789e-41 -6.662e-41 1.597e-41
-1.075e-42 7.348e-42 2.4439e-41 -5.426e-42 -3.14e-41 -1.0975e-41 4.6066e-41 -1.08e-42
1.4702e-41 3.0205e-41 -2.217e-42 4.3848e-41 1.635e-41 -4.8087e-41 -3.9528e-41 -4.4075e-41
-6.079e-42 3.0091e-41 1.2117e-41 -6.3807e-41 4.4963e-41 -4.5074e-41 5.135e-41 -4.8968e-41
-4.0562e-41 -1.7366e-41 4.0465e-41 4.6121e-41 5.9372e-41 -1.7902e-41 -3.5912e-41 2.7481e-41
5.6409e-41 5.6011e-41 1.2986e-41 -5.2075e-41 4.766e-42 3.7176e-41 1.2455e-41 -3.0553e-41
-5.986e-42 4.1267e-41 2.5886e-41 5.4183e-41 -1.1894e-41 -3.014e-42 6.1088e-41 -7.532e-42
5.4724e-41 5.8933e-41 7.4616e-41 -5.1045e-41 3.9337e-41 6e-43 -2.521e-41 3.0461e-41
7.868e-42 -1.5662e-41 -2.4911e-41 -4.2646e-41 2.088e-42 6.0315e-41 -5.9884e-41 -3.716e-42
-4.264e-42 3.6791e-41 1.7117e-41 2.104e-41 3.9972e-41 -3.6459e-41 -5.9485e-41 -8.929e-42
2.295e-42 8.2e-42 -3.5597e-41 6.2478e-41 5.8855e-41 -1.7097e-41 5.6199e-41 -5.8564e-41
-3.964e-41 5.0165e-41 3.7975e-41 3.7438e-41 -1.383e-41 -2.0856e-41 1.9446e-41 5.2002e-41
3.5437e-41 -5.7523e-41 -4.5908e-41 4.2925e-41 6.2089e-41 2.08e-42 -2.9373e-41 8.102e-42
00000000: 8544 0000 1447 0000 c712 0000 7966 0000
00000010: 1a7a 0080 8672 0000 6e3a 0000 b114 0000
00000020: ce98 0080 e03c 0080 65a0 0000 6450 0080
00000030: 1603 0000 a75a 0000 9792 0080 e077 0000
00000040: 7b42 0080 dba5 0000 0e97 0000 11bc 0000
00000050: 4a86 0000 5e3c 0080 c96f 0000 cc44 0080
00000060: 6d1e 0080 e898 0080 0876 0080 4228 0080
00000070: 331a 0080 f429 0000 f809 0000 b1ae 0000
00000080: 0319 0000 e997 0000 3a68 0000 b345 0000
00000090: 7fc8 0080 3c1e 0080 6d61 0080 e865 0080
000000a0: f703 0000 54a4 0000 79b0 0000 4a03 0000
000000b0: 8f5d 0080 600c 0080 3153 0080 9a4b 0080
000000c0: c021 0000 7033 0000 863f 0000 536c 0000
000000d0: e523 0080 de53 0080 ff84 0000 3e74 0080
000000e0: 7ea5 0080 ce90 0080 2788 0080 1161 0000
000000f0: bbbe 0000 37b1 0000 c785 0000 1fa4 0000
00000100: 9aa8 0000 acab 0000 4694 a1a1 c9fa 268e
00000110: 5f71 0000 b059 0000 0000 0080 95f2 7780
00000120: 8ceb 8a89 9a19 019e 2e60 0080 2087 0080
00000130: 032e 0000 4a8a 0080 3601 0000 27ba 9b9c
00000140: d94a 0000 96fe 2399 2aa4 0080 195b 0000
00000150: cac5 0000 020e da99 7917 0080 e72a 0000
00000160: 0d32 0000 f513 0080 6711 0080 e557 0080
00000170: 8563 0000 2c60 0000 ebb6 0080 82c1 0180
00000180: 9e60 0080 1cbf 0080 3bbc 2784 7fdb a389
00000190: 528a c394 9bd8 23a2 018f 0000 86a8 0000
000001a0: 1e4d 0000 691f 0000 a174 0080 e35f 0000
000001b0: 33a7 0000 4116 0000 795b 0080 8655 0000
000001c0: 9ba5 0080 092f 0080 89b4 0000 9959 069a
000001d0: a704 7295 9b57 0000 79b2 fb81 1a1c 0080
000001e0: 6712 e797 5e82 6e99 c846 0000 455b 0000
000001f0: 8d3a 0000 2f60 0080 8a19 0080 3d18 5a97
00000200: 9d13 0080 1b47 0000 1515 0000 bf82 0000
00000210: b433 0000 fd19 0000 5b43 0080 c46e 0080
00000220: 21aa 0080 88c3 0080 d2dd 0080 10b0 0080
00000230: 489b 0000 704d 0000 299c 0000 cc70 0080
00000240: 2fa5 0000 ad70 0080 8394 0000 1f7a 0000
00000250: 4f56 0000 84ab 0000 5d0d 0080 9185 0080
00000260: 955d 0000 2036 0080 f711 0000 bb07 0080
00000270: d84a 0080 e1a3 0080 b6b9 0080 852c 0000
00000280: ff02 0080 7c14 0000 2044 0000 200f 0080
00000290: 8857 0080 981e 0080 6a80 0000 0303 0080
000002a0: fc28 0000 3354 0000 2e06 0080 3b7a 0000
000002b0: 942d 0000 0c86 0080 306e 0080 dd7a 0080
000002c0: f210 0080 e253 0000 c721 0000 deb1 0080
000002d0: 577d 0000 a67d 0080 258f 0000 8188 0080
000002e0: 1271 0080 6930 0080 cd70 0000 9180 0000
000002f0: 81a5 0000 e731 0080 1c64 0080 9b4c 0000
00000300: 3f9d 0000 239c 0000 3324 0000 2a91 0080
00000310: 490d 0000 a267 0000 b822 0000 2b55 0080
00000320: b010 0080 0973 0000 2948 0000 0a97 0000
00000330: 2821 0080 6708 0080 4aaa 0000 ff14 0080
00000340: 8c98 0000 48a4 0000 00d0 0000 4b8e 0080
00000350: a86d 0000 ac01 0000 4646 0080 ea54 0000
00000360: ef15 0000 a92b 0080 7145 0080 e176 0080
00000370: d205 0000 22a8 0000 efa6 0080 5c0a 0080
00000380: e30b 0080 8f66 0000 b72f 0000 a73a 0000
00000390: 6d6f 0000 a265 0080 d2a5 0080 e418 0080
000003a0: 6606 0000 dc16 0000 3b63 0080 2aae 0000
000003b0: 10a4 0000 a92f 0080 a99c 0000 41a3 0080
000003c0: 806e 0080 d78b 0000 dc69 0000 5d68 0000
000003d0: 8d26 0080 233a 0080 3536 0000 f690 0000
000003e0: c962 0000 5aa0 0080 f97f 0080 a877 0000
000003f0: 14ad 0000 cc05 0000 e151 0080 9616 0000

mlp.12.bias f4 [128]
2.055e-41 -4.5727e-41 -5.4763e-41 -1.4148e-41 0.00011425482 -1.8901e-41 0.0054830853 0.0071530147
-1.7272e-41 0.0073757195 2.7695e-41 -4.81e-41 -2.8008e-41 0.006397598 2.103993e-18 0.010859853
1.4637e-41 -1.544e-42 -3.9448e-41 -6.3326e-41 2.1162715e-16 -3.472e-41 -2.1716e-41 3.6027435e-24
-5.7233e-41 0.008620034 1.5582e-41 -2.0615e-41 5.541783e-10 8.048853e-05 0.00015079332 4.745e-42
1.1897e-41 0.0039884127 -9.911e-42 1.9990303e-08 6.3138e-41 0.0035812373 -4.7176e-41 -5.1047e-41
3.0005e-41 8.233e-42 3.6358555e-11 3.5592e-41 0.00012476693 0.0019859294 1.9394497e-10 5.1237236e-29
-3.4071e-41 1.6828e-41 2.308279e-39 -1.1635e-41 -1.7033e-41 -6.0183e-41 0.010342622 2.3754412e-06
3.7141e-41 -2.88e-41 0.006514914 3.4154e-41 -3.0536e-41 1.02242375e-08 3.9444e-41 2.1971658e-07
0.00045964716 -5.2222e-41 0.008785584 9.904e-42 2.9857e-41 0.001680036 0.013332883 -3.0791e-41
5.991e-41 4.7192e-41 -1.9573e-41 4.9742e-41 -3.765e-41 8.566838e-05 5.5157e-41 -3.2786e-41
0.0028298472 1.1513e-41 8.832e-42 -5.6991e-41 -3.4783e-41 2.7369e-41 1.1912529e-31 0.00020130233
8.94e-43 0.0044516646 0.010781201 -1.7435707e-24 2.2618e-41 -3.3683e-41 1.1502e-41 1.316e-42
5.1925e-41 5.0616e-41 -3.2764e-41 6.6279e-41 -4.6506e-41 1.4449009e-22 -4.665e-42 1.5864243e-05
-4.9422e-41 -2.7278e-41 -8.2762e-41 -3.4605e-41 -2.9674e-41 0.0022787168 3.480021e-26 2.571615e-17
2.2344e-41 4.7353e-41 4.2166e-41 0.0012897843 2.4293e-41 9.54e-43 3.1022091e-06 0.009961211
-3.1158e-41 2.9783e-41 3.4194e-41 0.008306266 -3.3773e-41 -6.8864e-41 -4.136e-41 5.0395e-41
00000000: 4939 0000 787f 0080 a898 0080 7027 0080
00000010: 179c ef38 b034 0080 74ab b33b d663 ea3b
00000020: 2630 0080 05b0 f13b 344d 0000 1586 0080
00000030: 134e 0080 f1a2 d13b 4e3f 1b22 86ed 313c
00000040: cd28 0000 4e04 0080 f76d 0080 87b0 0080
00000050: 4ffd 7325 c960 0080 893c 0080 d85f 8b18
00000060: 8b9f 0080 0b3b 0d3c 702b 0000 7739 0080
00000070: d554 1830 f3cb a838 461e 1e39 3a0d 0000
00000080: 2a21 0000 3bb1 823b a11b 0080 24b7 ab32
00000090: 01b0 0000 31b3 6a3b 8283 0080 4c8e 0080
000000a0: a453 0000 f316 0000 18e8 1f2e 3763 0000
000000b0: ded3 0239 5e26 023b a83e 552f dee6 8110
000000c0: fa5e 0080 e92e 0000 8b22 1900 6f20 0080
000000d0: 7b2f 0080 c4a7 0080 1a74 293c c569 1f36
000000e0: 8967 0000 4850 0080 0f7b d53b 355f 0000
000000f0: 1f55 0080 aca6 2f32 f46d 0000 3ceb 6b34
00000100: ccfc f039 9391 0080 69f1 0f3c 9c1b 0000
00000110: 3b53 0000 a734 dc3a 2a72 5a3c d555 0080
00000120: 01a7 0000 8d83 0000 9036 0080 a98a 0000
00000130: f468 0080 dca8 b338 c199 0000 655b 0080
00000140: f574 393b 1820 0000 9f18 0000 de9e 0080
00000150: f660 0080 4b4c 0000 2ba2 1a0c af14 5339
00000160: 7e02 0000 45df 913b a2a3 303c fae6 0698
00000170: 0d3f 0000 e55d 0080 1020 0000 ab03 0000
00000180: bf90 0000 198d 0000 555b 0080 c2b8 0000
00000190: a481 0080 84ad 2e1b 010d 0080 3414 8537
000001a0: c589 0080 0a4c 0080 b5e6 0080 7760 0080
000001b0: b852 0080 8656 153b 8252 2c15 8b30 ed23
000001c0: 493e 0000 0084 0000 8b75 0000 fb0d a93a
000001d0: b843 0000 a902 0000 8c2f 5036 5934 233c
000001e0: db56 0080 0653 0000 525f 0000 0117 083c
000001f0: 255e 0080 f7bf 0080 4b73 0080 7b8c 0000

mlp.15.weight f4 [64, 128]
5.1299e-41 4.0207101e-25 4.2964e-41 -1.4176e-41 0.00040155248 5.0047e-41 0.019729603 0.02577817
4.0844e-41 0.026584094 4.727e-42 5.9492e-41 3.4521e-41 0.023036443 7.732682e-18 0.03919807
-5.7236e-41 7.3382664e-37 -2.319e-42 -5.2942e-41 7.2510144e-16 5.5787e-41 -6.616e-42 1.3293818e-23
5.2312e-41 0.031093242 5.21e-42 3.4319e-41 1.9114426e-09 0.00028509082 0.0005341197 4.3806e-41
1.37243e-40 0.014313803 -1.3393614e-31 6.787476e-08 -4.8265e-41 0.012736153 1.836e-42 6.0078e-41
-4.5876e-41 -2.2134e-41 1.2650074e-10 -2.9256e-41 0.00044258003 0.0071073165 6.923398e-10 1.7606967e-28
-3.1707e-41 6.208e-42 8.758735e-39 -3.21e-43 1.0441e-41 1.7536e-41 0.03734099 8.136973e-06
6.1429e-41 -9.935e-42 0.023461672 -1.1852e-41 -4.7573e-41 3.518522e-08 1.8683645e-25 7.421517e-07
0.0016372649 2.5313e-41 0.031688098 -2.6323e-41 2.1866e-41 0.0060138092 0.04818715 -2.59e-41
6.1366e-41 6.953e-42 5.506e-41 -2.4597e-41 6.2738e-41 0.00030301567 -2.4074283e-28 -4.183e-41
0.010162624 -5.0408e-41 -5.6088e-41 4.5069e-41 -2.22e-42 -8.3182e-41 4.474663e-31 0.0007092082
-2.3567e-41 0.015994154 0.038929984 1.1292087e-29 4.9497e-41 8.958735e-38 5.7584e-41 5.909e-42
3.5378746e-36 5.0148e-41 -9.728e-42 -5.4373e-41 -5.4623e-41 5.685677e-22 7.581e-42 5.568597e-05
-6.0708e-41 -1.6462e-41 8.328e-42 -1.3416e-41 4.0933e-41 0.008138454 1.3717199e-25 8.852684e-17
1.0564e-41 2.0402e-41 3.384e-42 0.004586295 9.5646e-41 4.2967e-41 1.0871001e-05 0.0359518
1.9631e-41 2.9223e-40 -1.4129e-41 0.02995688 1.7918e-41 5.6171e-41 -6.74e-43 4.637e-42
6.1227e-41 -1.4271e-41 -4.1041e-41 2.3456e-41 -3.8602e-41 1.177e-41 -5.723e-42 -4.9864e-41
2.3643e-41 -4.3506e-41 -4.6527e-41 -5.0235e-41 -3.093e-41 3.156e-42 4.5601e-41 -6.0533e-41
-2.0892e-41 4.2152e-41 3.33e-42 -3.6268e-41 3.063e-41 4.1572e-41 4.8174e-41 1.2306e-41
-4.3376e-41 -4.2423e-41 -6.0284e-41 -8.443e-42 -6.0267e-41 4.8188e-41 -4.6417e-41 9.201e-42
-5.8137e-41 5.9751e-41 3.6104e-41 2.6043e-41 -2.4125e-41 -3.6752e-41 3.9856e-41 5.8487e-41
-6.1443e-41 -2.8406e-41 -5.0092e-41 -6.718e-42 -2.9038e-41 5.157e-41 -1.428e-42 1.6157e-41
-4.164e-41 4.97e-41 2.244e-41 -5.1237e-41 4.0985e-41 -1.7854e-41 -3.9178e-41 3.9472e-41
1.65e-43 2.683e-42 -6.1574e-41 -2.3082e-41 4.6745e-41 4.1345e-41 -4.2108e-41 -2.018e-41
1.5135e-41 2.2243e-41 5.5444e-41 5.8825e-41 -1.5724e-41 -2.3553e-41 -2.3444e-41 7.4122e-41
4.6024e-41 -3.7304e-41 -4.187e-42 4.5939e-41 1.548e-42 -3.936e-42 3.7989e-41 -2.096e-41
4.851e-41 1.1984e-41 2.292e-41 -3.6556e-41 -6.149e-41 -6.7502e-41 -6.1269e-41 -4.2925e-41
-5.5616e-41 -1.971e-41 -3.5332e-41 -4.7598e-41 -1.198e-41 -5.6856e-41 -3.5561e-41 5.797e-41
5.904e-41 1.3234e-41 3.1815e-41 4.0694e-41 6.0067e-41 -9.5e-43 8.698e-42 6.49e-42
-5.0469e-41 -6.658e-42 -1.5e-43 -6.383e-42 1.2568e-41 1.3363e-41 4.3903e-41 -4.1086e-41
-8.802e-42 3.9612e-41 8.944e-42 -3.88e-42 -1.7944e-41 5.161e-41 -5.1293e-41 3.3024e-41
6.4436e-41 -8.174e-42 -5.266e-42 -3.4454e-41 -5.301e-42 5.069e-41 -1.7434e-41 -2.1199e-41
00000000: 008f 0000 b2de f816 c477 0000 8427 0080
00000010: 7687 d239 838b 0000 fa9f a13c be2c d33c
00000020: db71 0000 e3c6 d93c 2d0d 0000 d7a5 0000
00000030: 3b60 0000 ecb6 bc3c 8fa4 0e23 288e 203d
00000040: 8d9f 0080 51b5 7903 7706 0080 9593 0080
00000050: 0bff 5026 839b 0000 7112 0080 e691 8019
00000060: d391 0000 41b7 fe3c 860e 0000 ab5f 0000
00000070: 745a 0331 3e78 9539 2b04 0c3a 1d7a 0000
00000080: 947e 0100 7184 6a3c ebdb 2d8c 8bc2 9133
00000090: 8b86 0080 4cab 503c 1e05 0000 79a7 0000
000000a0: e27f 0080 b33d 0080 cb16 0b2f 8e51 0080
000000b0: 160a e839 7ee4 e83b 154f 3e30 e031 5f11
000000c0: 6358 0080 4e11 0000 ca5f 5f00 e500 0080
000000d0: 1b1d 0000 e230 0000 def2 183d 0884 0837
000000e0: 3dab 0000 b21b 0080 b132 c03c 0a21 0080
000000f0: 9d84 0080 8f1e 1733 d64a 6716 4738 4735
00000100: 7e99 d63a 9046 0000 61cb 013d 6149 0080
00000110: f43c 0000 7d0f c53b e45f 453d 3348 0080
00000120: 10ab 0000 6213 0000 7c99 0000 9144 0080
00000130: e3ae 0000 13de 9e39 c296 9891 9b74 0080
00000140: 2281 263c 848c 0080 5a9c 0080 a27d 0000
00000150: 3006 0080 e1e7 0080 0c36 110d 28ea 393a
00000160: b241 0080 2c06 833c 0c75 1f3d de07 650f
00000170: fa89 0000 45e1 f301 85a0 0000 7910 0000
00000180: 0b7c 9604 cb8b 0000 1e1b 0080 9297 0080
00000190: 4498 0080 ccd6 2b1c 2215 0000 5b90 6938
000001a0: 3ba9 0080 e42d 0080 3717 0000 6625 0080
000001b0: 1b72 0000 2657 053c 8acf 2916 0621 cc24
000001c0: 731d 0000 df38 0000 6f09 0000 a248 963b
000001d0: 9f0a 0100 c677 0000 9862 3637 3242 133d
000001e0: b936 0000 9e2e 0300 6327 0080 2168 f53c
000001f0: f331 0000 959c 0000 e101 0080 ed0c 0000
00000200: adaa 0000 c827 0080 6872 0080 6341 0000
00000210: 9b6b 0080 cf20 0000 f40f 0080 008b 0080
00000220: e841 0000 4779 0080 b381 0080 098c 0080
00000230: 3856 0080 cc08 0000 1e7f 0000 bea8 0080
00000240: 3d3a 0080 8175 0000 4809 0000 1a65 0080
00000250: 6255 0000 e373 0000 4a86 0000 4e22 0000
00000260: ea78 0080 4276 0080 0ca8 0080 8917 0080
00000270: 00a8 0080 5486 0000 6481 0080 a619 0000
00000280: 10a2 0080 90a6 0000 a564 0000 9948 0000
00000290: 4043 0080 7366 0080 1a6f 0000 0aa3 0000
000002a0: 47ab 0080 2f4f 0080 a38b 0080 ba12 0080
000002b0: f250 0080 c28f 0000 fb03 0080 0a2d 0000
000002c0: 1374 0080 8b8a 0000 8e3e 0000 d48e 0080
000002d0: 4072 0000 c531 0080 366d 0080 086e 0000
000002e0: 7600 0000 7b07 0000 a5ab 0080 5840 0080
000002f0: 4e82 0000 4173 0000 6175 0080 4138 0080
00000300: 312a 0000 013e 0000 8e9a 0000 fba3 0000
00000310: d52b 0080 a841 0080 5a41 0080 9fce 0000
00000320: 4c80 0000 fd67 0080 ac0b 0080 0f80 0000
00000330: 5104 0000 f90a 0080 e669 0000 6e3a 0080
00000340: 3a87 0000 6821 0000 e43f 0000 e765 0080
00000350: 69ab 0080 2bbc 0080 cbaa 0080 a877 0080
00000360: 099b 0080 f236 0080 7e62 0080 af84 0080
00000370: 6521 0080 7e9e 0080 2163 0080 99a1 0000
00000380: 94a4 0000 e424 0000 b058 0000 7071 0000
00000390: 71a7 0000 a602 0080 3f18 0000 1712 0000
000003a0: b08c 0080 8f12 0080 6b00 0080 cb11 0080
000003b0: 0923 0000 4025 0000 627a 0000 8872 0080
000003c0: 8918 0080 6c6e 0000 ef18 0000 d10a 0080
000003d0: 0532 0080 de8f 0000 fc8e 0080 0f5c 0000
000003e0: 9fb3 0000 c916 0080 ae0e 0080 0b60 0080
000003f0: c70e 0080 4e8d 0000 9930 0080 183b 0080

mlp.15.bias f4 [64]
0.020090455 -2.9956e-41 0.011982125 0.00047828257 2.0124e-41 0.011725952 5.8287e-41 -6.512504e-39
3.41e-41 -2.3837e-41 5.5685e-41 1.09013264e-17 4.0078135e-06 6.4066e-41 -1.3349e-41 0.025268467
-2.7945e-41 0.0072275237 4.5052e-41 -4.2263e-41 4.8938e-41 -4.2805e-41 1.1178e-41 3.1789873e-22
6.0534434e-20 4.2472e-41 2.1246e-41 0.02812893 1.1294e-41 -5.984e-41 1.7306e-41 -1.3736e-41
-1.0353e-41 1.4894e-41 5.9393e-41 6.0722e-41 -2.2545e-41 -9.24e-42 4.5312e-41 -1.4597e-41
-1.8119e-41 -1.571e-42 0.026293116 0.018569963 2.4294e-41 2.7168e-41 0.012497134 1.892e-41
6.218167e-09 0.0016890784 5.0263e-41 2.0987e-41 1.6624321e-18 -6.74e-42 0.021587495 1.2229e-41
-7.235e-42 0.0022308028 0.03789527 -4.27e-43 -2.4562e-41 3.3413835e-05 -3.482e-41 0.016803289
00000000: bd94 a43c 8153 0080 ad50 443c 00c2 fa39
00000010: 1938 0000 351e 403c 7ba2 0000 36ea 4680
00000020: 0f5f 0000 7342 0080 3a9b 0000 0f18 4923
00000030: db7a 8636 97b2 0000 3625 0080 d1ff ce3c
00000040: e64d 0080 ddd4 ec3b 967d 0000 d075 0080
00000050: 6b88 0000 5377 0080 291f 0000 7228 c01b
00000060: d2ee 8e1f 6576 0000 3a3b 0000 a46e e63c
00000070: 7c1f 0000 cfa6 0080 3e30 0000 4a26 0080
00000080: dc1c 0080 8529 0000 90a5 0000 45a9 0000
00000090: d93e 0080 c219 0080 507e 0000 b128 0080
000000a0: 8232 0080 6104 0080 a964 d73c 0920 983c
000000b0: b943 0000 bc4b 0000 c7c0 4c3c be34 0000
000000c0: 93a7 d531 1164 dd3a 1d8c 0000 813a 0000
000000d0: e954 f521 ca12 0080 42d8 b03c 1722 0000
000000e0: 2b14 0080 a932 123b 1238 1b3d 3101 0080
000000f0: 7844 0080 d525 0c38 1061 0080 0da7 893c

mlp.18.weight f4 [8, 64]
5.9293e-41 4.3486e-41 -5.199e-42 5.2292e-41 -5.3567e-41 -3.1823e-41 3.289e-41 -2.9716e-41
1.3504e-41 2.4988e-41 -4.0304e-41 -2.7806e-41 -6.1338e-41 6.4482e-41 -4.8929e-41 5.9241e-41
3.753e-41 2.8631e-41 -5.1386e-41 -2.0668e-41 4.7306e-41 -1.3054e-41 6.631e-42 2.9102e-41
-2.4974e-41 -3.2025e-41 -4.4578e-41 5.8775e-41 3.4968e-41 -6.573e-42 4.1777e-41 -8.54e-42
5.7705e-41 -2.1604e-41 5.2131e-41 -6.1643e-41 5.4658e-41 4.0531e-41 -3.8289e-41 -3.9819e-41
-3.3687e-41 -2.2338e-41 5.9173e-41 5.7243e-41 3.3222e-41 -3.763e-41 5.4276e-41 -4.6674e-41
-5.3793e-41 -2.2791e-41 2.1936e-41 -2.6148e-41 3.7731e-41 -5.1593e-41 6.049e-41 -4.7072e-41
-6.0285e-41 7.709e-42 6.401e-41 -5.1093e-41 2.0329e-41 3.4992e-41 2.1625e-41 5.7846e-41
0.06700193 -4.2043e-41 0.04342592 0.0016903658 3.0052e-41 0.041566905 -1.5721e-41 2.0588076e-34
5.1492e-41 -4.3323e-41 1.7238513e-15 4.8049747e-17 1.2061037e-05 8.3667e-41 2.6117e-41 0.08923611
3.5551e-41 0.025376597 -3.56275e-40 3.7748e-41 1.0127e-41 4.2824e-41 -5.3996e-41 1.1391128e-21
2.6708731e-19 6.1597e-41 3.5813e-41 0.102959074 3.4543e-41 5.4136e-41 -4.4720315e-26 -3.3368e-41
-3.199344e-07 -1.355e-41 -8.63e-42 9.1145e-41 -2.194e-42 5.531e-41 4.385e-41 1.4135e-41
6.555998e-11 5.9125e-41 0.09245524 0.06509899 2.6661e-41 5.1854e-41 0.048846226 4.9882e-41
2.0689429e-08 0.0057636304 8.123e-42 5.5742e-41 5.7322917e-18 -5.524586e-27 0.08394471 1.6432e-41
-2.2942e-41 0.007628096 0.14324333 -3.3393e-41 -8.763908e-32 9.701816e-05 5.8099e-41 0.060677458
2.1950857e-12 -1.835e-41 1.2744223e-12 4.774232e-14 -6.1275e-41 1.1390484e-12 4.6537e-41 2.5663e-41
4.0593e-41 -6.464e-42 3.515249e-19 1.4566633e-27 4.590177e-16 -5.9311e-41 3.925e-41 2.5800171e-12
-2.9244e-41 3.0418994e-11 -5.6122e-41 -1.583e-41 4.0409e-41 -5.0311e-41 7.1745e-41 3.8114717e-32
8.805826e-30 1.5735e-41 3.252e-41 2.900726e-12 -2.8343e-41 -3.4685e-41 4.8673e-41 1.0985851e-37
7.0838294e-11 9.61e-42 5.3869e-41 1.2858e-41 4.2028e-41 1.0971e-41 -4.5132e-41 5.148e-42
-4.5325923e-33 2.299926e-27 2.617953e-12 1.842884e-12 4.3884e-41 -4.879e-41 1.2995583e-12 -4.4299e-41
-4.594928e-17 2.151642e-13 -3.1403e-41 1.5411e-41 3.8833396e-22 -3.184e-41 2.3852513e-12 -6.9583e-41
-1.644e-41 2.1298017e-13 4.147003e-12 -7.128e-42 4.0666065e-21 -4.548145e-09 -3.7852e-41 1.6447411e-12
0.016458824 6.3351e-41 0.009739457 0.00037142946 5.6007e-41 0.009491911 -2.1304e-41 -1.1126e-41
-2.9105e-41 3.868e-42 4.2447e-41 2.2417415e-17 2.8402603e-06 4.121e-41 -6.1532e-41 0.020973012
-1.9793e-41 0.0057365475 -4.055e-42 4.1787e-41 -2.0641e-41 -4.3694e-41 5.2034e-41 4.0601916e-22
2.8412204e-19 3.0072e-41 -2.5953e-41 0.023473304 -1.1542e-41 5.8919e-41 -5.6959137e-36 -6.782e-42
-8.0055284e-38 -5.1288e-41 4.4175e-41 1.9614e-41 -5.0042e-41 2.9444e-41 -4.79e-42 -4.002e-42
7.7314026e-20 -2.0125e-41 0.021880874 0.015216892 -7.2252e-41 -5.6213e-41 0.010239577 1.8434e-41
5.820026e-09 0.0013197847 -9.243e-42 5.1262e-41 3.0756385e-18 1.0557e-41 0.018021468 -4.2745e-41
3.6858e-41 0.0017314099 0.03241296 -4.4088e-41 2.0365e-41 2.4845953e-05 -1.369e-41 0.013773848
00000000: 49a5 0000 3979 0000 7e0e 0080 c591 0000
00000010: 5395 0080 b658 0080 af5b 0000 d652 0080
00000020: a525 0000 a845 0000 5a70 0080 834d 0080
00000030: fcaa 0080 c0b3 0000 6588 0080 24a5 0000
00000040: 9e68 0000 d04f 0000 3e8f 0080 9d39 0080
00000050: df83 0000 6424 0080 7c12 0000 2051 0000
00000060: 9e45 0080 4659 0080 447c 0080 d7a3 0000
00000070: 7a61 0000 5312 0080 7574 0000 ce17 0080
00000080: dca0 0000 393c 0080 5291 0000 d6ab 0080
00000090: 5d98 0000 fc70 0000 bc6a 0080 006f 0080
000000a0: e85d 0080 453e 0080 f3a4 0000 929f 0000
000000b0: 9c5c 0000 e668 0080 4d97 0000 1c82 0080
000000c0: f495 0080 883f 0080 263d 0000 e448 0080
000000d0: 2e69 0000 d28f 0080 9fa8 0000 3883 0080
000000e0: 0da8 0080 7d15 0000 6fb2 0000 6d8e 0080
000000f0: ab38 0000 8b61 0000 483c 0000 40a1 0000
00000100: 4f38 893d 3375 0080 61df 313d 448f dd3a
00000110: c653 0000 0f42 2a3d d32b 0080 ccd4 8807
00000120: 8a8f 0000 c478 0080 e36e f826 2197 5d24
00000130: c259 4a37 3be9 0000 ce48 0000 6cc1 b63d
00000140: 1a63 0000 95e2 cf3c 26e1 0380 3a69 0000
00000150: 3b1c 0000 6077 0000 8596 0080 4b23 ac1c
00000160: 18a9 9d20 b5ab 0000 d563 0000 35dc d23d
00000170: 4b60 0000 e996 0000 bc71 5d95 045d 0080
00000180: 73c3 abb4 c625 0080 0f18 0080 13fe 0000
00000190: 1e06 0080 2f9a 0000 3c7a 0000 6727 0000
000001a0: fd2a 902e d1a4 0000 2c59 bd3d 9f52 853d
000001b0: 524a 0000 8c90 0000 fb12 483d 0d8b 0000
000001c0: 89b8 b132 d6dc bc3b a516 0000 639b 0000
000001d0: f77b d322 f5d9 da93 34eb ab3d ce2d 0000
000001e0: f43f 0080 1bf5 f93b 61ae 123e 165d 0080
000001f0: 2986 e38b 3a76 cb38 f5a1 0000 ed88 783d
00000200: 2677 1a2c 2733 0080 e75b b32b 2603 5729
00000210: cfaa 0080 8b4e a02b ba81 0000 8a47 0000
00000220: 2871 0000 0512 0080 f180 cf20 49d1 e612
00000230: 874d 0426 56a5 0080 6a6d 0000 758d 352c
00000240: 8551 0080 bec8 052e 729c 0080 212c 0080
00000250: a570 0000 3f8c 0080 ffc7 0000 26e7 450b
00000260: 769a 320f dd2b 0000 a75a 0000 d61e 4c2c
00000270: 024f 0080 b060 0080 ae87 0000 1b88 1502
00000280: 6ac6 9b2e ca1a 0000 2a96 0000 d823 0000
00000290: 2875 0000 951e 0000 cf7d 0080 5a0e 0000
000002a0: ca46 bc89 0b38 3613 d938 382c 72ae 012c
000002b0: 557a 0000 0288 0080 86e5 b62b 7d7b 0080
000002c0: 56e7 53a4 dc40 722a 8a57 0080 f62a 0000
000002d0: c5bb ea1b c258 0080 ded8 272c f8c1 0080
000002e0: d42d 0080 5bcb 6f2a e2e8 912c df13 0080
000002f0: cea1 991d e845 9cb1 8469 0080 0b7a e72b
00000300: a8d4 863c 99b0 0000 3e92 1f3c 6bbc c239
00000310: 209c 0000 f683 1b3c 633b 0080 041f 0080
00000320: 2251 0080 c80a 0000 5376 0000 a0c3 ce23
00000330: 4d9b 3e36 e072 0000 87ab 0080 98cf ab3c
00000340: 2d37 0080 a6f9 bb3b 4e0b 0080 7c74 0000
00000350: 8a39 0080 cd79 0080 0d91 0000 6c6c f51b
00000360: 4fb7 a720 d453 0000 5948 0080 164b c03c
00000370: 2d20 0080 3ea4 0000 0247 f284 e812 0080
00000380: 64ee d981 f88e 0080 247b 0000 ad36 0000
00000390: 7f8b 0080 1452 0000 5a0d 0080 280b 0080
000003a0: 768d b61f 1a38 0080 853f b33c 4550 793c
000003b0: 69c9 0080 b39c 0080 e6c3 273c 6333 0000
000003c0: 7df9 c731 a0fc ac3a c419 0080 e68e 0000
000003d0: 2bf1 6222 6e1d 0000 c2a1 933c 2877 0080
000003e0: bf66 0000 7af0 e23a 74c3 043d e67a 0080
000003f0: c538 0000 476c d037 2a26 0080 b5ab 613c

mlp.18.bias f4 [8]
3.9497e-41 0.09046481 3.1264952e-12 0.021892037 0.12377156 1.4588598e-16 -2.1241e-41 0.00012292503
00000000: 1a6e 0000 9d45 b93d ee01 5c2c ee56 b33c
00000010: f27b fd3d f131 2825 363b 0080 70e5 0039

mlp.21.weight f4 [1, 8]
-5.6444e-41 -0.28467655 -8.4900195e-12 -0.06759782 -0.3929662 0.00014608081 -1.6984e-41 -0.0003719013
00000000: 589d 0080 20c1 91be a65b 15ad ba70 8abd
00000010: de32 c9be 452d 1939 582f 0080 bffb c2b9
