model_saved/2024-01-25-07-49-50/model_2024-01-25-07-50-51_epoch_9000_train_mse_1.99e-02_val_mse_2.00e-02.pt (torch, 88323 bytes, 15 tensors)

mlp.0.weight f4 [8, 8]
00000000: a078 0000 b12e 0080 49a9 0080 7aa5 0000
00000010: 79a9 0000 8a31 0000 6b47 0000 ec2b 0000
00000020: 7480 2a3c a499 b2bb 96d6 1239 4bfa c537
00000030: 8d72 9037 7e07 4e37 3615 1337 63f1 6737
00000040: ea66 37bd e859 803d 6b44 7e3c a2f6 2eb9
00000050: 7cbd 0339 5433 7639 5da8 963a d791 e3b8
00000060: 0486 04bd 066d 393d 4b96 363c b4df 07b9
00000070: 00f2 b538 d4eb 3439 4ed2 593a 0de1 d6b8
00000080: cab0 113e 00a2 9abd c74b f03b 517d c039
00000090: 8949 9639 f3f9 5a39 c7c3 3539 5103 5039
000000a0: 4938 e1bd 2a76 403e ce3b 6c3d dfae 84b8
000000b0: f7cf 513a a300 8c3a e2e9 9d3b eabf 17ba
000000c0: b6be c53d f74d a93e 4222 353e edd1 7ab9
000000d0: 8db1 c23a 6f31 0b3b 0975 263c 0da2 acba
000000e0: bce6 80bc 5ba7 b73d dcd2 f63c 75c6 99b7
000000f0: 4fda c539 d2b0 013a 05e9 0f3b df90 96b9
4.3272e-41 -1.675e-41 -6.0728e-41 5.9362e-41 6.0795e-41 1.7771e-41 2.562e-41 1.5756e-41
0.010406602 -0.0054504443 0.00014003585 2.3600782e-05 1.721948e-05 1.2280301e-05 8.766821e-06 1.3824875e-05
-0.04477588 0.06267148 0.015519242 -0.00016685811 0.00012563722 0.0002347951 0.0011494268 -0.00010851368
-0.03235437 0.04526999 0.011144231 -0.00012957939 8.6758286e-05 0.0001725399 0.0008309231 -0.00010246234
0.14227596 -0.0755043 0.007333252 0.00036714462 0.00028665017 0.00020883213 0.00017334438 0.00019837661
-0.10997064 0.18795076 0.05767422 -6.326823e-05 0.00080037065 0.0010681342 0.004819141 -0.00057887903
0.09655516 0.33067295 0.1768885 -0.00023920061 0.001485394 0.0021239182 0.010159739 -0.0013170853
-0.015735023 0.089674674 0.030129842 -1.8331435e-05 0.0003773742 0.0004947308 0.0021958959 -0.00028718167

mlp.0.bias f4 [8]
00000000: 28a9 0000 a8eb d5b5 6956 9739 c2ce 3839
00000010: 83aa 68b7 d139 573a fd69 d63a 8d96 bf39
6.0682e-41 -1.5938322e-06 0.00028865345 0.0001762463 -1.3867978e-05 0.00082102144 0.0016358491 0.00036542528

mlp.3.weight f4 [16, 8]
00000000: 8d57 0000 5258 beb9 dcfa 003c 2206 bb3b
00000010: a1ad 9bbb b46b c63c 3849 4a3d 8fc7 343c
00000020: a47b 0000 fbb4 d2b6 c22e 1b39 5d8b cc38
00000030: 63be d5b8 dcc6 d539 c41e 823a 2b0f 4639
00000040: 6597 0000 10c2 f3b9 7cef 103c c417 d43b
00000050: fc34 d4bb fef2 de3c 07c6 7a3d 9acb 4a3c
00000060: 1646 0080 726c 9237 b4c3 8cb9 6879 4fb9
00000070: 24c4 883b 664a 66ba 2ecf 3a3a 6e8f 69ba
00000080: 9f5a 0000 773a 0000 238c 0000 7021 0080
00000090: e412 0000 26ab 0000 8fa2 0080 712a 0080
000000a0: 37be 0000 3018 0000 ab2a 0080 19ac 0000
000000b0: 2e0e 0080 3e18 0080 b301 0000 224d 0080
000000c0: 0997 0080 7934 64b7 5648 8839 ea83 8239
000000d0: 6be4 4ab9 1632 633a b914 1d3b 888f bb39
000000e0: e938 0080 0219 9cba dcff d23c 513c 983c
000000f0: e665 51bc 9e8e 9e3d daa2 2d3e 87ce 0f3d
00000100: 262e 0080 5476 0000 7c8a 0000 3d83 0000
00000110: 981d 0080 931b 0000 2659 0000 9cdd 0000
00000120: a328 0000 f270 06bb 77f5 303d 9be5 fe3c
00000130: 4fcf 8ebc 6e70 043e 8805 843e 673b 793d
00000140: 2378 0000 141f 0080 2eb2 0080 e894 0000
00000150: 7c3e 0080 3aa7 0000 da62 0000 c0ab 0080
00000160: 8567 0000 21de 29bb ec05 3f3d 49a3 093d
00000170: 3f58 3ebd 3050 0f3e c7b1 913e 10a5 7d3d
00000180: d599 0000 f9af 0080 ec5a 0000 ee30 0080
00000190: 4235 0000 cc8a 301a ff9f 86b3 deb8 1a25
000001a0: 0127 0000 1a62 0000 f73b 0000 e8a8 0080
000001b0: b463 0080 8179 0000 e592 0080 14b0 0080
000001c0: 6e8a 0080 8d0b 0080 a54c 0080 1a04 0000
000001d0: 676c 0000 2312 0000 fc89 b8a2 d80e 0000
000001e0: f0ad 0000 699c 4dba 406c 833c 3877 3e3c
000001f0: c322 1ebc 231f 483d 92e4 d53d 69c3 b33c
3.1407e-41 -0.00036305428 0.00787231 0.005707518 -0.004750923 0.024221279 0.049386233 0.011033907
4.4354e-41 -6.2795566e-06 0.0001479937 9.7534365e-05 -0.00010192094 0.00040774688 0.0009927382 0.00018888402
5.431e-41 -0.0004649316 0.00884616 0.0064725596 -0.006476043 0.027215477 0.06122401 0.012377644
-2.5142e-41 1.7455055e-05 -0.0002684869 -0.00019786286 0.0041737724 -0.000878489 0.0007126209 -0.00089096173
3.2509e-41 2.0973e-41 5.0272e-41 -1.1995e-41 6.777e-42 6.1396e-41 -5.8315e-41 -1.5225e-41
6.8236e-41 8.677e-42 -1.5306e-41 6.1737e-41 -5.087e-42 -8.696e-42 6.1e-43 -2.767e-41
-5.4181e-41 -1.3602076e-05 0.00025993836 0.00024893816 -0.00019349314 0.0008666826 0.002396865 0.0003577436
-2.0416e-41 -0.0011909308 0.025756769 0.018583449 -0.012780642 0.07742046 0.16956654 0.03510907
-1.6555e-41 4.2448e-41 4.9679e-41 4.708e-41 -1.0616e-41 9.892e-42 3.198e-41 7.9498e-41
1.4578e-41 -0.0020514098 0.043202844 0.031115344 -0.017432837 0.12933514 0.2578547 0.060847666
4.3097e-41 -1.1149e-41 -6.3919e-41 5.3417e-41 -2.2415e-41 5.999e-41 3.5461e-41 -6.1612e-41
3.7136e-41 -0.0025919753 0.046636507 0.033602986 -0.046470877 0.13995433 0.28455946 0.061924994
5.5185e-41 -6.3127e-41 3.2617e-41 -1.7553e-41 1.9105e-41 3.6508066e-23 -6.2689644e-08 1.3420006e-16
1.3992e-41 3.5192e-41 2.1511e-41 -6.0592e-41 -3.5767e-41 4.3587e-41 -5.2696e-41 -6.3165e-41
-4.9659e-41 -4.144e-42 -2.7495e-41 1.471e-42 3.8887e-41 6.506e-42 -5.0019397e-18 5.325e-42
6.2397e-41 -0.00078434363 0.016042829 0.011625104 -0.0096518425 0.04885782 0.10443987 0.021943765

mlp.3.bias f4 [16]
00000000: 23fb e839 3255 0137 8e4e f939 94b9 81b7
00000010: 9e9d 0080 cd8c 0000 a629 7137 eaaa b63a
00000020: 445c 0080 3cfb 133b 1361 0000 5497 1e3b
00000030: 400f 0080 f8b1 0000 0c58 0080 80c5 633a
0.000444376 7.708835e-06 0.0004755151 -1.5464415e-05 -5.6542e-41 5.051e-41 1.4374416e-05 0.0013936434
-3.3099e-41 0.0022580167 3.4824e-41 0.0024199085 -5.47e-42 6.3843e-41 -3.1585e-41 0.00086887926

mlp.6.weight f4 [32, 16]
00000000: d403 0080 7600 0000 2699 0000 87bc 0000
00000010: de87 0080 4c1e 0000 6324 0080 1f41 0000
00000020: af4f 0000 f120 0080 9f55 0080 6f24 0080
00000030: fc13 0000 9043 0080 93c8 0080 3f05 0000
00000040: a750 1c3c d0a2 1e39 063f 2c3c 2144 b6b8
00000050: 3359 0080 e868 0000 9a54 9939 121a 0d3d
00000060: 083b 0080 bf7d 4a3d b225 0000 a059 583d
00000070: c601 0000 ec43 0000 1720 0000 30d0 983c
00000080: eaae 393d 8a99 323a 920c 2e3d bc1c 75ba
00000090: cab9 0000 b716 0080 9040 b43a f12b b73d
000000a0: 1730 0000 a45e 513e 8308 0000 cd32 4c3e
000000b0: 9c70 0f0f c55b 0080 fca1 0000 ff85 a23d
000000c0: 84c4 5d3c 98ae 6b39 6907 803c 72ae 0cb9
000000d0: ab51 0080 8609 0180 4162 e339 2d6d 583d
000000e0: 5477 0080 0848 913d fb83 0080 0772 a23d
000000f0: 7643 0080 ae2b 0000 7259 0000 442c e23c
00000100: 159a a736 7ae0 2e33 cb67 5b36 2f5f a6b3
00000110: fc2e 0080 be2a 0080 fa2b 8733 798a 5b39
00000120: 784e 0080 6a81 75b8 2ca6 0000 5e63 1db6
00000130: 2a9a 0000 12ce 0080 4057 0080 5ecf ae36
00000140: 6946 0080 0f7a 0000 a3aa 0080 a798 0000
00000150: 5844 0000 d040 0000 8f32 0000 0016 0080
00000160: 155b 0000 272a 0000 46af 0000 334b 0080
00000170: 7271 0080 6218 0080 1aa0 0000 6a93 0000
00000180: 4648 0000 2b3d 0080 6c29 0000 ab47 0080
00000190: 2484 0000 9867 0080 7b43 0000 ef4a 0000
000001a0: c7ee 0000 ba77 0000 5c9c 0000 1602 0080
000001b0: 8556 0000 7baf 0080 277c 0000 a80f 0080
000001c0: 2c07 2838 8eb2 2535 0fdf 3738 52cd d9b4
000001d0: 286c 0000 65dc 0080 dc06 9e35 dc0d 2639
000001e0: c07a 0180 d8a9 7139 734f 0080 5b77 7e39
000001f0: a0a7 0080 703e 0080 c8a8 0080 7d37 a338
00000200: 9c0d 173c 3d30 0239 b509 083c e7cf 04b9
00000210: 9457 0080 1356 0000 464f 7539 ecf8 253d
00000220: 241d 0080 3ea8 df3c 8a8b 0000 2dbd 473d
00000230: a6a6 0000 c02a 0180 d09b 0000 5367 723c
00000240: 1dfb 5637 943e 5134 0b99 6937 2ef1 1ab4
00000250: db5c 0100 6b7f 0000 acc8 c434 d1bb 9938
00000260: b43d 0000 2306 9938 3559 0080 dc80 a138
00000270: 7210 0000 3010 0000 b03f 0080 9ef3 cf37
00000280: 9e34 0100 bd96 0000 1d6c 0000 7cba 0080
00000290: 5282 0080 7217 0000 11a3 0080 84a0 0000
000002a0: 42a3 0000 9f28 0080 5a95 0080 be56 0000
000002b0: 1f4c 0100 c5a1 0000 1496 0000 f91e 0000
000002c0: d622 0080 4e64 0000 7e17 0000 d0b1 0080
000002d0: 9536 0080 0ec1 0080 90fa 0000 6f3c 0000
000002e0: 7280 0000 f710 0080 b719 0000 6615 0000
000002f0: 2e8c 0080 581e 0080 c02d 0000 0572 0000
00000300: e330 9f27 be38 0000 a206 0000 ae67 4480
00000310: af12 0000 c432 0000 711f 0000 f1fa 64ac
00000320: 6641 0080 bba6 b02b 907f 0000 0ab5 00aa
00000330: d64b 0000 90fd 0000 52b3 0000 e1bf 9e91
00000340: 7368 573c 2557 4b39 2185 563c d4db 40b9
00000350: 3b8e 0000 d47f 0000 5fd5 c139 c24e 1f3d
00000360: 915b 0080 6a68 873d 4655 0080 c512 883d
00000370: 41ab 0000 9335 0080 0546 0000 b88c c03c
00000380: 6299 0000 cf85 0080 de43 0000 7c70 0080
00000390: df73 0000 1395 0080 5c6a 0080 2e5d 0000
000003a0: 9b12 0000 3919 0080 fdc8 0080 3242 0000
000003b0: 506e 0080 4561 0000 3218 0000 e767 0000
000003c0: 1ce9 cc36 2b6e bb33 4dea d336 f7d8 8db3
000003d0: 6b80 0000 e561 0000 e5d9 2d34 9287 2638
000003e0: 4d3e 0080 d818 e937 9b4f 0080 517b 1d38
000003f0: 8c77 0000 7632 0000 308f 0000 79c2 3d37
-1.373e-42 1.65e-43 5.494e-41 6.7631e-41 -4.874e-41 1.0868e-41 -1.3053e-41 2.3361e-41
2.8585e-41 -1.1817e-41 -3.0715e-41 -1.307e-41 7.169e-42 -2.4237e-41 -7.1952e-41 1.882e-42
0.009540713 0.00015128707 0.010513073 -8.691126e-05 -3.1999e-41 3.7633e-41 0.00029245467 0.03444869
-2.1176e-41 0.049436327 1.3523e-41 0.052819848 6.36e-43 2.4366e-41 1.1512e-41 0.018653959
0.045332827 0.000681304 0.042492457 -0.000935029 6.6649e-41 -8.149e-42 0.0013752151 0.08943928
1.7251e-41 0.20446259 3.053e-42 0.19941254 7.072132e-30 -3.2921e-41 5.8109e-41 0.07935714
0.0135356225 0.00022476388 0.015628533 -0.00013416426 -2.9297e-41 -9.5252e-41 0.0004337002 0.052838493
-4.2807e-41 0.07093817 -4.7346e-41 0.07931905 -2.42e-41 1.567e-41 3.2087e-41 0.027608998
4.9949253e-06 4.0716692e-08 3.2693958e-06 -7.747291e-08 -1.6855e-41 -1.5333e-41 6.294427e-08 0.00020937053
-2.8149e-41 -5.8533078e-05 5.9611e-41 -2.3452662e-06 5.5304e-41 -7.3924e-41 -3.13e-41 5.209745e-06
-2.5258e-41 4.3786e-41 -6.1213e-41 5.4761e-41 2.4517e-41 2.325e-41 1.8137e-41 -7.892e-42
3.2674e-41 1.5121e-41 6.2876e-41 -2.6976e-41 -4.0697e-41 -8.747e-42 5.7434e-41 5.2882e-41
2.5927e-41 -2.1943e-41 1.486e-41 -2.571e-41 4.7403e-41 -3.7162e-41 2.4207e-41 2.6881e-41
8.5657e-41 4.295e-41 5.6091e-41 -7.48e-43 3.1037e-41 -6.295e-41 4.4537e-41 -5.616e-42
4.0061e-05 6.172712e-07 4.383834e-05 -4.056879e-07 3.8799e-41 -7.9063e-41 1.1773914e-06 0.00015836157
-1.3587e-40 0.00023046823 -2.8501e-41 0.00024267791 -6.0133e-41 -2.2398e-41 -6.0547e-41 7.782781e-05
0.009219553 0.00012415736 0.008303096 -0.0001266595 -3.1417e-41 3.0878e-41 0.00023394552 0.040520594
-1.0454e-41 0.027301904 5.0057e-41 0.048764396 5.9782e-41 -1.07171e-40 5.5895e-41 0.014795142
1.2813861e-05 1.9487408e-07 1.3923515e-05 -1.4430108e-07 1.25146e-40 4.5709e-41 3.6653853e-07 7.330592e-05
2.2135e-41 7.2967516e-05 -3.2001e-41 7.70108e-05 5.9e-42 5.807e-42 -2.2847e-41 2.4789766e-05
1.10711e-40 5.4075e-41 3.8784e-41 -6.6898e-41 -4.675e-41 8.41e-42 -5.8497e-41 5.7582e-41
5.8566e-41 -1.4572e-41 -5.3577e-41 3.1117e-41 1.19143e-40 5.8032e-41 5.3838e-41 1.1111e-41
-1.2497e-41 3.5983e-41 8.427e-42 -6.3787e-41 -1.958e-41 -6.9255e-41 8.9885e-41 2.168e-41
4.6077e-41 -6.086e-42 9.225e-42 7.676e-42 -5.0287e-41 -1.0885e-41 1.6412e-41 4.0903e-41
4.418437e-15 2.0355e-41 2.38e-42 -6.282007e-39 6.702e-42 1.8211e-41 1.1279e-41 -3.254005e-12
-2.346e-41 1.2551829e-12 4.5761e-41 -1.1431494e-13 2.7205e-41 9.0961e-41 6.4328e-41 -2.504626e-28
0.013147461 0.00019392052 0.013093264 -0.00018392439 5.1023e-41 4.5856e-41 0.00036970802 0.03889347
-3.2848e-41 0.06611712 -3.059e-41 0.06644205 6.1434e-41 -1.9219e-41 2.5118e-41 0.0235046
5.5023e-41 -4.8001e-41 2.4346e-41 -4.0352e-41 4.1567e-41 -5.3478e-41 -3.8155e-41 3.3427e-41
6.674e-42 -9.048e-42 -7.2101e-41 2.3746e-41 -3.9573e-41 3.4894e-41 8.68e-42 3.7273e-41
6.1068113e-06 8.7279055e-08 6.315566e-06 -6.60529e-08 4.6068e-41 3.5118e-41 1.619115e-07 3.9703744e-05
-2.235e-41 2.7787333e-05 -2.8557e-41 3.7546564e-05 4.2885e-41 1.8102e-41 5.1366e-41 1.1310557e-05

mlp.6.bias f4 [32]
00000000: 3599 0080 da2b ad3a 76a8 a23b 0ab6 fe3a
00000010: f62e 0435 d3ae 0000 343a 0000 1886 c636
00000020: 283c 893a 28f3 0036 a018 0080 5179 0080
00000030: f668 0080 c7a1 d63a ab50 0080 47f8 6135
00000040: e2f9 a03b 9a6f 0080 b16f 0080 b9e0 0000
00000050: 7050 0000 263e 3a35 de16 f939 deba 183a
00000060: ef04 8f34 7aa6 7f3a 0a36 0000 9090 0080
00000070: d489 0000 00bb 2729 4280 0080 485e e438
-5.496e-41 0.0013211921 0.0049639298 0.0019432914 4.924217e-07 6.2715e-41 2.088e-41 5.9164704e-06
0.0010470198 1.9215022e-06 -8.834e-42 -4.352e-41 -3.7653e-41 0.0016375118 -2.8938e-41 8.418032e-07
0.004912601 -4.0035e-41 -4.0067e-41 8.0615e-41 2.8856e-41 6.938084e-07 0.00047510018 0.0005826185
2.6639415e-07 0.0009752285 1.9386e-41 -5.1859e-41 4.9443e-41 3.7243646e-14 -4.601e-41 0.000108894485

mlp.9.weight f4 [64, 32]
00000000: 1296 0080 2b05 b010 698b 8097 b676 5407
00000010: b9c7 0080 da34 0080 2c3b 0000 7c78 0000
00000020: 6caf 0000 f42f 0000 993d 0000 f965 0080
00000030: bc53 0080 eb73 0000 ac27 0200 cd75 0000
00000040: 448b 0180 cd1c 0000 5f9b 0080 b41f 0000
00000050: c823 0000 4ab2 0080 066d 0200 f301 0080
00000060: 6c4f 0080 c24e 0080 9b12 0000 1d9d 0080
00000070: 9c79 0080 ea14 0000 5e75 0080 9051 0000
00000080: 7143 0080 634b 0fb3 2ca7 53b5 8f3f 65b1
00000090: 5d02 0000 6a38 0000 5139 0000 ed19 28a0
000000a0: e094 ac25 58f7 3395 ab7a 0000 4dcf 0000
000000b0: 181f 430c af61 9c2e 5aba 0080 d45b 9592
000000c0: 0f44 6b31 a5dc 0080 485f 0080 d26f 0000
000000d0: 2a28 0000 c339 0080 89f2 f52f aba0 df20
000000e0: a928 0080 f55c ad1f 995e 0080 400b 0080
000000f0: b828 0080 0166 0000 1b0a 0080 dba9 261f
00000100: 5472 0180 c68f 233d b4e9 163e 6bbf 713d
00000110: 33eb a837 1742 0080 8f4c 0000 f3fd 4339
00000120: a5ba 073d 8b96 8238 1535 0080 6435 0000
00000130: 0008 22a9 4960 533d 1ba1 0080 ecfd f237
00000140: d362 173e a906 0080 c22b 0080 3a74 0080
00000150: a602 0000 5682 da37 a963 6c3c 51f5 983c
00000160: 3278 3537 855d ff3c 1c05 0000 0521 0000
00000170: 7620 0080 2858 4b2c 0c20 0180 30de 623b
00000180: 614d 0000 b7ee ff3a 1c95 073c d61d 3f3b
00000190: 2b70 7335 3149 0000 d390 0000 863f 0837
000001a0: 52be c63a 2af4 3736 8257 0080 4a8c 0000
000001b0: dda9 5e23 9580 1d3b 925d 0080 affe a835
000001c0: 1baf fb3b 0a2f 0080 0e4a 0080 9370 0080
000001d0: 7714 0080 b268 9d35 91f0 313a baea 583a
000001e0: a4e9 ff34 d1b4 b53a f778 0000 28a0 0000
000001f0: 984b 0080 43fe 262a ec6d 0080 93dc 1e39
00000200: fd8a 0080 0ff1 6c39 3961 853a f93a a739
00000210: 6104 cc33 6a3f 0000 7579 0000 74ba 5e35
00000220: 7775 2939 2e61 9434 5922 0000 963c 0080
00000230: 83fb 9b88 a127 8839 1eb5 0080 62f9 0934
00000240: b8b4 5e3a 91b8 0000 9534 0080 40da 0000
00000250: 9d65 0000 e3ad 0334 9ed5 9438 fd28 b738
00000260: 33ec 5533 fac2 1a39 e96a 0000 4760 0080
00000270: d130 0180 edaa 9b28 c203 0000 c03c 8437
00000280: b414 0000 2243 0080 fc4d 0080 2c18 0080
00000290: a651 0000 7e08 0000 ac60 0000 242d 0080
000002a0: 8f29 0080 ac7a 0080 cb84 0000 9a09 0100
000002b0: 9b3d 0000 7a53 0000 52a9 0000 d980 0000
000002c0: 682b 0080 519c 0080 9112 0000 6906 0080
000002d0: 7f95 0080 fb95 0000 935a 0000 ab11 0000
000002e0: ab23 0000 2a90 0000 9392 0000 7114 0000
000002f0: b201 0080 22bf 0080 00ac 0080 4191 0080
00000300: 177e 0180 9d20 0080 7751 0080 564f 0000
00000310: c78a 0000 cf45 0000 79a0 0000 f553 0080
00000320: 5d6a 0080 e1e6 0000 0861 0080 a5ef 0080
00000330: d4b8 0000 709c 0280 aca1 0000 0a9e 0080
00000340: bdbb 0080 e057 0080 29b5 0080 dccd 0380
00000350: 9631 0000 5916 0080 edb4 0080 7d49 0000
00000360: 5722 0080 9eda 0080 1f5b 0080 8ad7 0080
00000370: 11cc 0080 4e60 0080 1011 0080 ab10 0080
00000380: d8d2 0000 d085 9f38 52d6 b339 cb86 de38
00000390: 2d65 0633 7692 0080 1723 0000 2e8a 9234
000003a0: 4dc3 5e38 427d c633 0169 0000 e04e 0000
000003b0: e50b a090 8219 b338 923a 0080 dd8f 3633
000003c0: 23c4 9139 8fcd 0080 cbb6 0000 05b0 0000
000003d0: 098d 0080 8cbe 2d33 23de c437 5744 f137
000003e0: a9b6 8b32 f378 4b38 3b61 0000 b290 0000
000003f0: 9a4b 0000 5351 cd27 bd2b 0000 97e2 ad36
-5.3835e-41 6.942772e-29 -8.306998e-25 1.5983993e-34 -7.1647e-41 -1.896e-41 2.1227e-41 4.3222e-41
6.293e-41 1.7202e-41 2.2097e-41 -3.6581e-41 -3.0038e-41 4.1584e-41 1.97903e-40 4.2259e-41
-1.41795e-40 1.0332e-41 -5.5737e-41 1.1373e-41 1.2836e-41 -6.3958e-41 2.22781e-40 -6.99e-43
-2.8491e-41 -2.8253e-41 6.674e-42 -5.6362e-41 -4.3625e-41 7.503e-42 -4.2103e-41 2.9259e-41
-2.4193e-41 -3.3363346e-08 -7.884689e-07 -3.3360015e-09 8.48e-43 2.0238e-41 2.0561e-41 -1.4238732e-19
2.9938125e-16 -3.6343882e-26 4.4005e-41 7.4366e-41 1.503161e-31 7.111411e-11 -6.685e-41 -9.425859e-28
3.4235688e-09 -7.9152e-41 -3.418e-41 4.0114e-41 1.4408e-41 -2.0721e-41 4.4737572e-10 3.788399e-19
-1.4586e-41 7.3422134e-20 -3.3935e-41 -4.036e-42 -1.4607e-41 3.6592e-41 -3.625e-42 3.529237e-20
-1.32849e-40 0.039932035 0.14737588 0.05902044 2.0136684e-05 -2.3709e-41 2.7464e-41 0.00018691253
0.033136982 6.226924e-05 -1.9042e-41 1.9153e-41 -3.5978165e-14 0.051605497 -5.7794e-41 2.896689e-05
0.14783792 -2.389e-42 -1.5697e-41 -4.1694e-41 9.5e-43 2.6048318e-05 0.014428058 0.018671663
1.0816426e-05 0.031172523 1.833e-42 1.1845e-41 -1.1645e-41 2.8896972e-12 -1.03332e-40 0.0034617297
2.7758e-41 0.0019526099 0.008275297 0.002916207 9.068778e-07 2.6256e-41 5.1953e-41 8.121022e-06
0.0015162921 2.7411247e-06 -3.1392e-41 5.0326e-41 1.2070614e-17 0.002403294 -3.3567e-41 1.2591098e-06
0.0076807863 -1.6874e-41 -2.6566e-41 -4.0384e-41 -7.341e-42 1.1727882e-06 0.00067878613 0.0008274723
4.7667447e-07 0.0013863092 4.3394e-41 5.7453e-41 -2.7118e-41 1.4831977e-13 -3.9433e-41 0.00015150224
-4.986e-41 0.00022596515 0.0010176069 0.0003189666 9.500287e-08 2.2749e-41 4.357e-41 8.297277e-07
0.00016160855 2.7637856e-07 1.2322e-41 -2.1734e-41 -9.387853e-34 0.00025969467 -6.4973e-41 1.2849844e-07
0.0008495557 6.621e-41 -1.8863e-41 7.8293e-41 3.6452e-41 1.2263585e-07 7.096979e-05 8.733755e-05
4.980775e-08 0.00014759219 3.8352e-41 -3.4538e-41 -1.09348e-40 1.7282584e-14 1.348e-42 1.5763915e-05
7.427e-42 -2.4083e-41 -2.7976e-41 -8.671e-42 2.929e-41 3.046e-42 3.468e-41 -1.6193e-41
-1.4908e-41 -4.4006e-41 4.7637e-41 9.528e-41 2.21e-41 2.9946e-41 6.074e-41 4.6222e-41
-1.5571e-41 -5.6076e-41 6.66e-42 -2.3e-42 -5.3629e-41 5.3803e-41 3.2492e-41 6.338e-42
1.2795e-41 5.1716e-41 5.2581e-41 7.333e-42 -6.08e-43 -6.8566e-41 -6.1702e-41 -5.2107e-41
-1.37068e-40 -1.17e-41 -2.9224e-41 2.846e-41 4.9784e-41 2.5043e-41 5.7567e-41 -3.0118e-41
-3.8156e-41 8.2824e-41 -3.4808e-41 -8.5968e-41 6.6304e-41 -2.3979e-40 5.7997e-41 -5.6694e-41
-6.7348e-41 -3.1524e-41 -6.4988e-41 -3.49355e-40 1.7788e-41 -8.017e-42 -6.4904e-41 2.6363e-41
-1.2319e-41 -7.8425e-41 -3.2688e-41 -7.7321e-41 -7.3205e-41 -3.4548e-41 -6.121e-42 -5.98e-42
7.5636e-41 7.606635e-05 0.00034301222 0.00010610892 3.1291325e-08 -5.254e-41 1.2588e-41 2.7295158e-07
5.3110813e-05 9.242878e-08 3.7668e-41 2.8295e-41 -6.31272e-29 8.540136e-05 -2.1011e-41 4.250602e-08
0.00027802688 -7.374e-41 6.5574e-41 6.3144e-41 -5.0594e-41 4.0453003e-08 2.3468461e-05 2.8761262e-05
1.6264794e-08 4.8511614e-05 3.488e-41 5.1907e-41 2.7121e-41 5.69871e-15 1.569e-41 5.1821803e-06

mlp.9.bias f4 [64]
00000000: c781 0000 6070 0080 e890 013c 4936 c739
00000010: 3b6e 2d38 2bc8 0080 5d3e 0080 bd2c 6637
00000020: 9817 0636 e271 be3b 095c f532 df44 0080
00000030: e579 0080 81b5 0000 e20c ef30 9760 993b
00000040: f058 0000 022e d03a 2f1f 0000 e6b3 0000
00000050: 14a5 0000 83e1 093b 85ac 0080 8ac1 d432
00000060: 758c ef34 bf97 0000 988d 0000 cebd 5a31
00000070: 9d5f 0080 691c 0000 966d 0000 dadb 0d39
00000080: c342 192f 193a 0000 0127 7c3a e596 ab35
00000090: 0d31 833b 0d5c 063c 8b12 0080 69c9 3a9c
000000a0: c6b3 0000 4146 1a9f 89b3 2622 2281 0180
000000b0: 7d13 0080 e873 0080 5abb 0000 ba4f 0080
000000c0: bf8a 0080 fa1c 3834 8f1f 0080 5582 543a
000000d0: 94ca 993b 258d 0080 751b 1f3a 4694 0000
000000e0: a8e8 613b 9dbd 383b ae08 0080 44bb e699
000000f0: 5784 0080 ae41 0080 5b10 ae2c 7f14 763b
4.6555e-41 -4.0313e-41 0.0079080835 0.00037996683 4.1349074e-05 -7.1807e-41 -2.2372e-41 1.3719485e-05
1.998129e-06 0.0058119157 2.8563607e-08 -2.4706e-41 -4.3728e-41 6.5111e-41 1.73932e-09 0.004680704
3.1905e-41 0.0015882852 1.1187e-41 6.4535e-41 5.9219e-41 0.0021038956 -6.1888e-41 2.476806e-08
4.4619415e-07 5.4436e-41 5.0794e-41 3.1831067e-09 -3.43e-41 1.0192e-41 3.9312e-41 0.00013528709
1.3938987e-10 2.0842e-41 0.0009618849 1.2784409e-06 0.00400365 0.008200658 -6.652e-42 -6.1802554e-22
6.449e-41 -3.266888e-20 2.259224e-18 -1.3816e-40 -6.991e-42 -4.158e-41 6.7209e-41 -2.86e-41
-4.9773e-41 1.7146877e-07 -1.1321e-41 0.0008106579 0.0046933386 -5.0633e-41 0.000606946 5.319e-41
0.003447095 0.002818919 -3.114e-42 -2.3857079e-23 -4.7475e-41 -2.3561e-41 4.9471933e-12 0.0037548838

mlp.12.weight f4 [128, 64]
00000000: cc37 0080 1853 0080 122b 0080 e231 0000
00000010: 1e28 0080 0304 0000 c222 0000 b86b 0000
00000020: eeba 0080 6ac2 0000 c82f 0000 ae0e 0080
00000030: 2b7e 0000 0383 0000 3103 0080 1820 0080
00000040: b114 0080 3308 0080 158a 0080 b31b 0000
00000050: c099 0080 6b9a 0000 1f62 0000 9b38 0000
00000060: 7c90 0080 09f4 0000 1e9f 0100 0ab2 0000
00000070: e9ac 0080 ee02 0080 7f8d 0180 cb66 0080
00000080: d8cf 0080 c182 0080 5f69 0100 4eb5 0080
00000090: f635 0080 8604 0080 8670 0080 30ee 0000
000000a0: 7450 0000 85be 0000 3a3d 0000 bab1 0000
000000b0: a011 0180 4316 0000 ab98 0080 9d8d 0080
000000c0: b28f 0080 8758 0080 da03 0080 4925 0100
000000d0: 6d32 0080 aa55 0080 ece6 0080 a9a8 0080
000000e0: 23b6 0000 dc02 0080 620f 0000 cd79 0000
000000f0: 89fe 0000 b98e 0080 f24a 0000 55a2 0080
00000100: e19b 0080 09a1 0000 69c4 c9a9 54e3 39a0
00000110: c636 4a8e f40c 0000 3559 0080 0094 0c99
00000120: 42e9 829c d107 1ca8 4431 3f94 8c6f 0080
00000130: 2964 0080 9c68 0080 d08e 2180 3bbc 76a7
00000140: e18c 0080 53d6 92a5 f262 0100 f3c1 0000
00000150: 8f32 0180 b304 00a6 7881 0000 6108 0080
00000160: eb0b 8c92 9460 0100 ad2a 0080 d91a 0286
00000170: 1d76 0080 4e7f 0000 6dfa 0000 6f84 8998
00000180: 054e 0780 4833 0180 d5c7 189c 56f0 5f9c
00000190: 53f8 fea3 4a6a 08aa dff4 0080 e95e 0080
000001a0: a1ac 0080 a819 0080 252f 0080 e845 0000
000001b0: 0551 0080 8aa0 0300 8f66 0080 f91a 0080
000001c0: 6497 0000 8333 0000 f1f7 0080 fcb3 b2a5
000001d0: 5f00 4da4 4912 0000 e90d fe9a a070 0000
000001e0: 9f5f 45a5 0879 e2a5 7057 0000 003c 0000
000001f0: 9750 0080 d9c3 0000 c8f9 7d80 683a 14a5
00000200: 12a8 0000 ce89 0080 0e99 0000 414e 0080
00000210: c259 0000 9037 0080 2b81 0000 990b 0000
00000220: 7017 0100 39ae 0080 223c 0300 4967 0080
00000230: ff79 0000 976b 0080 0616 0000 353d 0080
00000240: 5007 0000 af27 0080 bc48 0080 993b 0080
00000250: 8e86 0000 91ad 0000 9150 0000 2968 0000
00000260: 6039 0080 c89b 0000 abd3 0000 200b 0000
00000270: 24ad 0000 1b1a 0080 825f 0000 5154 0080
00000280: f37f 0080 a70a 0080 d0ac 0000 59c4 0000
00000290: d35e 0080 7132 0000 0db9 0000 7e7d 0080
000002a0: cb87 0080 21a8 0080 fe28 0000 8f09 0080
000002b0: b95a 0180 2a15 0080 eb8c 0080 e90e 0000
000002c0: 506b 0000 465f 0000 d16b 0000 5f4b 0080
000002d0: 7880 0080 436d 0080 cd90 0080 6159 0080
000002e0: aa88 0080 2366 0080 6b9b 0180 7105 0080
000002f0: f60b 0000 fd4f 0300 5987 0000 fa02 0180
00000300: 8972 0080 901c 0080 2456 0080 c33d 0000
00000310: a75d 0080 8a82 0000 e968 0000 7747 0000
00000320: 1442 0000 4995 0080 93a3 0080 ee97 0080
00000330: 5581 0000 1574 0080 305a 0080 a23e 0000
00000340: b744 0000 7870 0000 4d80 0000 685c 0000
00000350: 4812 0000 f156 0000 638a 0080 4556 0000
00000360: 5165 0000 b213 0080 6b29 0080 705c 0000
00000370: e77d 0000 a86f 0000 ac86 0080 12ac 0080
00000380: 1c94 0080 0198 0080 547f 0080 8847 0080
00000390: 0f0c 0080 086c 0080 d13e 0080 c99f 0080
000003a0: a613 0000 c771 0000 3110 0080 464e 0000
000003b0: df07 0000 7e60 0080 a363 0000 c069 0000
000003c0: bc04 0000 7b9d 0080 95ab 0080 1e2c 0080
000003d0: b090 0000 bece 0080 c52e 0000 b592 0080
000003e0: 088a 0000 2a04 0000 76a7 0080 7f72 0000
000003f0: 909f 0000 da10 0000 82b4 0080 da1a 0080
-2.0016e-41 -2.9808e-41 -1.5451e-41 1.7895e-41 -1.4391e-41 1.439e-42 1.2469e-41 3.8642e-41
-6.7058e-41 6.9743e-41 1.714e-41 -5.266e-42 4.526e-41 4.6998e-41 -1.145e-42 -1.1513e-41
-7.423e-42 -2.941e-42 -4.9534e-41 9.937e-42 -5.5155e-41 5.5395e-41 3.5199e-41 2.0306e-41
-5.1831e-41 8.7543e-41 1.48916e-40 6.3868e-41 -6.2028e-41 -1.051e-42 -1.42595e-40 -3.6875e-41
-7.456e-41 -4.6906e-41 1.29636e-40 -6.504e-41 -1.9358e-41 -1.623e-42 -4.0366e-41 8.5446e-41
2.8861e-41 6.8346e-41 2.1964e-41 6.3756e-41 -9.8158e-41 7.986e-42 -5.4767e-41 -5.0801e-41
-5.1548e-41 -3.1758e-41 -1.382e-42 1.05211e-40 -1.809e-41 -3.073e-41 -8.2839e-41 -6.0504e-41
6.5338e-41 -1.026e-42 5.518e-42 4.3694e-41 9.131e-41 -5.1199e-41 2.6885e-41 -5.8234e-41
-5.5919e-41 5.7769e-41 -8.960265e-14 -1.5745326e-19 -2.4924795e-30 4.647e-42 -3.2001e-41 -7.267719e-24
-8.662974e-22 -8.6614345e-15 -9.652752e-27 -4.0015e-41 -3.593e-41 -3.7527e-41 -3.081803e-39 -3.4241398e-15
-5.0538e-41 -2.5472194e-16 1.2733e-40 6.9576e-41 -1.09973e-40 -4.441529e-16 4.6445e-41 -3.006e-42
-8.83818e-28 1.26481e-40 -1.5309e-41 -2.4470007e-35 -4.2371e-41 4.5668e-41 8.9836e-41 -3.5547394e-24
-6.70837e-40 -1.10232e-40 -5.055086e-22 -7.409514e-22 -2.7643905e-17 -1.2116103e-13 -8.7843e-41 -3.4047e-41
-6.1928e-41 -9.204e-42 -1.6912e-41 2.5078e-41 -2.9064e-41 3.33097e-40 -3.6791e-41 -9.676e-42
5.4309e-41 1.8479e-41 -8.8945e-41 -3.100004e-16 -4.4452603e-17 6.56e-42 -1.0507441e-22 4.0402e-41
-1.7119424e-16 -3.9286765e-16 3.1367e-41 2.1524e-41 -2.891e-41 7.0257e-41 -1.1569042e-38 -1.2856743e-16
6.0292e-41 -4.9435e-41 5.4906e-41 -2.8072e-41 3.2199e-41 -1.9932e-41 4.6337e-41 4.16e-42
1.00243e-40 -6.25e-41 2.97078e-40 -3.7052e-41 4.3764e-41 -3.8596e-41 7.9e-42 -2.1957e-41
2.623e-42 -1.4236e-41 -2.6092e-41 -2.138e-41 4.8269e-41 6.2264e-41 2.8902e-41 3.7366e-41
-2.0582e-41 5.5884e-41 7.5932e-41 3.991e-42 6.2111e-41 -9.365e-42 3.4262e-41 -3.0247e-41
-4.59e-41 -3.821e-42 6.1993e-41 7.0436e-41 -3.4017e-41 1.8095e-41 6.6384e-41 -4.5018e-41
-4.8713e-41 -6.0313e-41 1.4705e-41 -3.429e-42 -1.2438e-40 -7.592e-42 -5.0552e-41 5.349e-42
3.8496e-41 3.4178e-41 3.8677e-41 -2.7038e-41 -4.6086e-41 -3.9196e-41 -5.1945e-41 -3.2063e-41
-4.9026e-41 -3.664e-41 -1.47589e-40 -1.952e-42 4.291e-42 3.04201e-40 4.8554e-41 -9.2903e-41
-4.1087e-41 -1.0246e-41 -3.0901e-41 2.2156e-41 -3.3596e-41 4.6829e-41 3.7635e-41 2.5637e-41
2.3704e-41 -5.3553e-41 -5.868e-41 -5.4502e-41 4.6396e-41 -4.1642e-41 -3.2353e-41 2.2468e-41
2.465e-41 4.0346e-41 4.6026e-41 3.3149e-41 6.558e-42 3.1189e-41 -4.9644e-41 3.0948e-41
3.6345e-41 -7.065e-42 -1.4858e-41 3.316e-41 4.5165e-41 4.0055e-41 -4.8311e-41 -6.1727e-41
-5.3132e-41 -5.4529e-41 -4.5677e-41 -2.566e-41 -4.326e-42 -3.8754e-41 -2.2534e-41 -5.732e-41
7.049e-42 4.0816e-41 -5.808e-42 2.8079e-41 2.824e-42 -3.4615e-41 3.5743e-41 3.7936e-41
1.698e-42 -5.6493e-41 -6.1552e-41 -1.5826e-41 5.1904e-41 -7.4165e-41 1.6778e-41 -5.2629e-41
4.9516e-41 1.494e-42 -6.0074e-41 4.1073e-41 5.724e-41 6.045e-42 -6.4754e-41 -9.633e-42

mlp.12.bias f4 [128]
00000000: 5109 0080 cd4a 0000 4834 0000 9704 0080
00000010: fa25 2f39 6be0 0180 8ee3 c03b dded f63b
00000020: 8b2d 0080 1d5c fe3b cf05 0000 5330 0080
00000030: 1f19 0080 af66 de3b 9307 1425 3ed9 363c
00000040: c796 0280 8cfc e194 2540 0000 4ba8 0280
00000050: b17f b127 50a5 0000 0354 0080 ed9a 131d
00000060: e6b9 0080 70f3 123c a3bb 4f83 4c92 0000
00000070: 0405 2131 643f ff38 78b0 6239 206f 0280
00000080: 9f43 0180 2c93 8f3b 781f 0000 ee8a 8e33
00000090: 90e4 0000 9cca 803b bd45 0080 0915 0000
000000a0: 0730 0000 dc2d 0080 491e 602f 5a97 0080
000000b0: b13d 3f39 4741 173b 5652 6c30 f65b 7916
000000c0: a926 0080 4c02 0000 b0f9 d08a 0965 0000
000000d0: 025a 0080 e624 5580 469e 2e3c 6550 a036
000000e0: cd04 0000 381b 0000 9b43 e23b dc9c 0000
000000f0: ae53 0080 0962 0f33 2887 0080 eaa8 1835
00000100: 1935 1d3a 1150 0000 abd8 153c 709e 0080
00000110: 1316 0080 2ca8 013b 8c60 5e3c d708 0000
00000120: ed92 0000 835e 0000 07b0 0000 c39d 0080
00000130: b107 0080 34ab 0839 2241 0080 0528 0000
00000140: 8a28 513b 3e5a 0000 54aa 0080 2f73 0180
00000150: 475f 0080 e614 0080 985b e393 20a7 9239
00000160: 8a64 0000 deac 9e3b c293 353c 03ae 3c85
00000170: 272c 0000 fd50 0080 fb23 0000 d0c6 0080
00000180: 3f74 0000 5175 0000 79a8 0080 6354 0000
00000190: feb0 0000 dd4b c49f e86b 0000 7241 e937
000001a0: 3ad0 0880 325a 0000 76f3 0080 7e3d 0080
000001b0: c316 0000 fa62 2a3b 9ed1 b49b 0e2e 5d26
000001c0: bf50 0080 9686 0000 0fbe 0080 0d94 ca3a
000001d0: 6562 0100 0ebc 0080 cb45 d536 8d86 283c
000001e0: d9d4 0280 e2bb 0080 5286 0080 5d29 0e3c
000001f0: e259 0000 e0b0 0180 cc67 0080 3a2b 0000
-3.342e-42 2.6833e-41 1.8755e-41 -1.647e-42 0.00016703448 -1.72341e-40 0.0058865016 0.0075356797
-1.6338e-41 0.0077624456 2.084e-42 -1.7335e-41 -9.012e-42 0.006787143 1.283952e-16 0.011160193
-2.3776e-40 -2.2818806e-26 2.3011e-41 -2.44043e-40 4.9265812e-15 5.9303e-41 -3.0138e-41 1.9535383e-21
-6.6688e-41 0.008969173 -6.104723e-37 5.2481e-41 2.3431435e-09 0.00012171155 0.0002161878 -2.23535e-40
-1.16093e-40 0.004381558 1.1289e-41 6.6376614e-08 8.1993e-41 0.003930403 -2.5017e-41 7.546e-42
1.7229e-41 -1.6451e-41 2.0383441e-10 -5.4295e-41 0.00018238161 0.002307968 8.5973306e-10 2.0143078e-25
-1.3869e-41 8.24e-43 -2.0123593e-32 3.6245e-41 -3.2289e-41 -7.819254e-39 0.0106578525 4.7777307e-06
1.722e-42 9.764e-42 0.006905032 5.627e-41 -3.0019e-41 3.3383944e-08 -4.8485e-41 5.6870215e-07
0.0005996987 2.8722e-41 0.009145896 -5.6837e-41 -7.919e-42 0.0019784076 0.013572823 3.171e-42
5.2707e-41 3.3904e-41 6.3147e-41 -5.6594e-41 -2.759e-42 0.00013033749 -2.3365e-41 1.4356e-41
0.0031915032 3.2373e-41 -6.1102e-41 -1.33156e-40 -3.4179e-41 -7.497e-42 -5.7393175e-27 0.00027971808
3.6067e-41 0.0048423847 0.0110825915 -8.8716784e-36 1.5839e-41 -2.9053e-41 1.2907e-41 -7.132e-41
4.1701e-41 4.2085e-41 -6.0437e-41 3.0272e-41 6.3493e-41 -8.3134734e-20 3.871e-41 2.780624e-05
-8.09382e-40 3.2356e-41 -8.7337e-41 -2.2059e-41 8.165e-42 0.0025998936 -2.9913964e-22 7.6737193e-16
-2.8966e-41 4.828e-41 -6.818e-41 0.00154555 1.27133e-40 -6.7461e-41 6.3560196e-06 0.010285986
-2.60026e-40 -6.74e-41 -4.8185e-41 0.008676854 3.2244e-41 -1.55286e-40 -3.7235e-41 1.5507e-41

mlp.15.weight f4 [64, 128]
00000000: 5fc8 0000 1eb4 1722 fb59 0100 350f 0000
00000010: c93a 1f3a 5491 0000 bbfe b43c 0b8c e73c
00000020: 4f27 0000 7988 ee3c 9173 0080 707b 0080
00000030: 491e 0000 f381 d03c 648c 6d26 77be 2a3d
00000040: 35eb 0080 98fb 8c19 3a4a 0200 08d8 0b00
00000050: d90f 9228 db26 0080 9a23 0080 67bf 2e1f
00000060: 7f42 0180 63ae 093d ee4c be03 633b 0080
00000070: ba3c 1132 f769 ee39 43d0 523a c2d7 0080
00000080: 6c97 0280 ad72 863c 23ab 0080 34f3 6e34
00000090: 009d 0000 1583 6c3c 703c 0080 b438 0080
000000a0: a16a 0080 3d40 0100 493d 5330 d7c2 0080
000000b0: f317 333a a1d7 0d3c 2381 7931 4411 d817
000000c0: 343a 0080 0b94 0100 9e66 080c 4796 0000
000000d0: 2ab7 0000 e69d 1500 8b6b 233d 3554 8737
000000e0: 2931 0080 ad5f 0000 ea1d d43c c528 0080
000000f0: 612e 0000 8c80 fb33 cd90 7a10 f0eb f435
00000100: c297 133b bd6b 0000 844b 0c3d 2107 0100
00000110: fda7 0080 f7c9 f33b de94 4f3d 60c1 0100
00000120: fe28 0000 cd3d 0000 f213 0000 4689 0000
00000130: e996 0080 0d3a fe39 0b66 f29c 8ebe 0080
00000140: c355 453c 6131 0000 9372 0000 fe38 0000
00000150: 5197 0000 89f9 2a00 06a8 c215 13f0 853a
00000160: cecb 0000 f9db 943c 95f1 293d cd07 a01d
00000170: 7b8a 0080 ae49 7811 920a 0080 cc64 0000
00000180: 3795 761d 52c1 0080 8883 0680 b15c 0080
00000190: 1f13 0080 2267 be21 78cf 0100 9390 d538
000001a0: 1dc4 3100 30c1 0080 9426 0080 2b41 0000
000001b0: 2557 0000 8f97 1e3c d4be 2a1d dd47 3f27
000001c0: da7f 0000 8911 0000 be41 0080 5e87 bb3b
000001d0: 4356 0280 5833 0000 8e82 c437 fcad 1d3d
000001e0: 34ae 2700 f3e3 0000 7148 0080 9544 053d
000001f0: f59b 0080 31e9 0080 b49e 0000 c54f 0000
00000200: 556a 0080 a520 0000 51a6 0000 2744 0080
00000210: a685 0080 8a5e 0180 4ba2 0480 f6c0 0180
00000220: b293 0080 68b5 0180 fa6b 0080 2586 0000
00000230: 02cd 0000 6000 0380 be79 0080 8fe5 0180
00000240: 7f48 0080 adbd 0080 1339 0080 6d6f 0080
00000250: bb82 0080 a6f5 0000 4540 0080 a8bf 0000
00000260: ba0a 0000 2d1d 0280 4554 0080 ff7f 0080
00000270: 72ab 0080 0100 0080 38e3 0080 7ea7 0000
00000280: 6e05 0080 334c 0280 0ca1 0080 9ba7 0080
00000290: 6134 0000 a0f5 0080 4fc5 0000 73c3 0080
000002a0: 4c31 0080 68d1 0000 2f7a 0080 2da5 0000
000002b0: 7f7a 0000 1471 0180 f39a 0000 1d0f 0000
000002c0: c0a4 0000 9ce8 0080 89ca 0000 7247 0080
000002d0: fee5 0080 eb85 0000 93a5 0180 990d 0080
000002e0: 8e25 0180 af6c 0080 5b65 0180 eb2a 0080
000002f0: 56f2 0080 4671 0080 93a2 0080 406f 0000
00000300: 7831 0000 5ec3 0000 e98b 0480 9a00 0180
00000310: cca8 0080 df14 0180 4015 0280 07e4 0280
00000320: e6bb 0080 b439 0080 5129 0080 2b67 0080
00000330: 04c9 0080 2fc1 0000 b609 0080 ecb5 0000
00000340: e22a 0180 2488 0180 da11 0080 8240 0080
00000350: b5b3 0080 cc32 0180 f0bb 0000 caa1 0080
00000360: 79ff 0080 800b 0180 8701 0280 4ea0 0080
00000370: ed83 0000 65b5 0000 d126 0000 3ffc 0100
00000380: 4b28 0000 e422 0080 b1c6 0080 4fbb 0080
00000390: 6222 0000 5033 0000 a0f0 0180 095c 0000
000003a0: e3db 0000 2525 0080 0495 0080 ae30 0080
000003b0: 3214 0000 f47d 0180 2896 0080 cc39 0100
000003c0: 4e12 0200 fe1a 0080 472f 0000 ad99 0080
000003d0: 6c99 0000 e1d7 0080 6f03 0000 bc92 0380
000003e0: 9af1 0080 91a5 0080 2949 0080 255c 0580
000003f0: 6a03 0180 ce4e 0000 3781 0080 8937 0000
7.188e-41 2.055967e-18 1.24114e-40 5.455e-42 0.00060741283 5.2134e-41 0.022094121 0.02826502
1.4101e-41 0.02911781 -4.1457e-41 -4.4281e-41 1.0864e-41 0.02545259 8.241616e-16 0.041685548
-8.4376e-41 1.4577279e-23 2.10298e-40 1.087688e-39 1.6216129e-14 -1.3939e-41 -1.2771e-41 3.7004258e-20
-1.1569e-40 0.033613574 1.11848585e-36 -2.1304e-41 8.4539185e-09 0.00045473847 0.00080418977 -7.74e-41
-2.37991e-40 0.016412104 -6.1392e-41 2.2253954e-07 5.6321e-41 0.014435549 -2.1681e-41 -2.0341e-41
-3.8251e-41 1.1488e-40 7.6848444e-10 -6.9895e-41 0.0006831877 0.008657367 3.6307675e-09 1.3963031e-24
-2.088e-41 1.44943e-40 1.0507939e-31 5.391e-41 6.5707e-41 1.985189e-39 0.039897483 1.6132466e-05
-1.7635e-41 3.4322e-41 0.02589317 -1.4625e-41 1.6638e-41 1.1711481e-07 4.9415357e-29 1.8248084e-06
0.0022520875 3.8649e-41 0.034251705 9.4393e-41 -6.0263e-41 0.0074398476 0.05067908 1.61205e-40
1.4705e-41 2.217e-41 7.155e-42 4.9244e-41 -5.4136e-41 0.00048489906 -1.6040594e-21 -6.8358e-41
0.012044373 1.7714e-41 4.1101e-41 2.0445e-41 5.4282e-41 3.946607e-39 7.862107e-26 0.0010218642
7.3111e-41 0.018171297 0.041490156 4.2359713e-21 -4.9677e-41 1.9586455e-28 -3.792e-42 3.6159e-41
3.2634971e-21 -6.935e-41 -5.98197e-40 -3.3251e-41 -6.86e-42 1.29022e-18 1.66261e-40 0.000101835605
4.570292e-39 -6.9303e-41 -1.3839e-41 2.3378e-41 3.1262e-41 0.009679689 2.2597968e-21 2.6545532e-15
4.5864e-41 6.29e-42 -2.3584e-41 0.005722924 -2.14616e-40 1.8419e-41 2.3425815e-05 0.038496003
3.644077e-39 8.1773e-41 -2.5987e-41 0.032536108 -5.5947e-41 -8.3653e-41 5.6932e-41 2.8616e-41
-3.8145e-41 1.171e-41 5.9663e-41 -2.4448e-41 -4.7944e-41 -1.2575e-40 -4.25562e-40 -1.61057e-40
-5.2983e-41 -1.56912e-40 -3.8735e-41 4.8122e-41 7.3543e-41 -2.75641e-40 -4.3673e-41 -1.74186e-40
-2.6007e-41 -6.8043e-41 -2.0474e-41 -3.9972e-41 -4.6897e-41 8.8122e-41 -2.3056e-41 6.8753e-41
3.848e-42 -1.94137e-40 -3.023e-41 -4.5916e-41 -6.1503e-41 -1e-45 -8.1511e-41 6.0085e-41
-1.948e-42 -2.11006e-40 -5.7773e-41 -6.0126e-41 1.879e-41 -8.8114e-41 7.0781e-41 -7.0114e-41
-1.7684e-41 7.5121e-41 -4.3831e-41 5.9254e-41 4.3943e-41 -1.324e-40 5.5585e-41 5.422e-42
5.9101e-41 -8.3445e-41 7.2656e-41 -2.563e-41 -8.2506e-41 4.8041e-41 -1.51232e-40 -4.878e-42
-1.05308e-40 -3.8988e-41 -1.28195e-40 -1.5396e-41 -8.6934e-41 -4.0635e-41 -5.832e-41 3.9909e-41
1.7746e-41 7.0085e-41 -4.17532e-40 -9.2051e-41 -6.0553e-41 -9.9323e-41 -1.91294e-40 -2.65472e-40
-6.7405e-41 -2.07e-41 -1.4822e-41 -3.701e-41 -7.2111e-41 6.9301e-41 -3.484e-42 6.5261e-41
-1.07219e-40 -1.40674e-40 -6.404e-42 -2.3141e-41 -6.4467e-41 -1.10058e-40 6.7419e-41 -5.8039e-41
-9.1646e-41 -9.5961e-41 -1.84219e-40 -5.7506e-41 4.7326e-41 6.5072e-41 1.3925e-41 1.82324e-40
1.4454e-41 -1.2516e-41 -7.1277e-41 -6.7194e-41 1.2334e-41 1.8407e-41 -1.78155e-40 3.3016e-41
7.888e-41 -1.3325e-41 -5.3457e-41 -1.7463e-41 7.245e-42 -1.37019e-40 -5.3866e-41 1.12569e-40
1.90237e-40 -9.683e-42 1.696e-41 -5.5128e-41 5.5037e-41 -7.7443e-41 1.232e-42 -3.28145e-40
-8.667e-41 -5.9394e-41 -2.6245e-41 -4.92233e-40 -9.306e-41 2.827e-41 -4.6354e-41 1.9922e-41

mlp.15.bias f4 [64]
00000000: 456f a43c 23e8 0080 d51f 4d3c 18a4 233a
00000010: 7b42 0080 afe3 473c 7524 0000 6c07 0000
00000020: 636c 0080 98ba 0000 d794 3f80 953d c2a7
00000030: 4621 1837 a760 0000 14a1 0000 6525 ce3c
00000040: c020 0080 2ec6 fa3b 4664 0000 d72d 0080
00000050: b58f 0000 6bae 0080 bf3e 0000 4d69 1ea1
00000060: 8b92 58a5 5b79 0000 2f89 0080 6693 e63c
00000070: 8e96 0080 a0b6 0080 5421 0080 6156 0080
00000080: f4aa 0000 597b 0000 8b7e 0000 2715 7988
00000090: f662 0080 5c0d 0000 bf41 0080 1fcf 0000
000000a0: 2547 0000 0a11 0080 4606 d63c 659b 9a3c
000000b0: f290 0000 2a45 0000 c91e 543c 9898 0000
000000c0: 4af3 d432 b622 083b fcce 0000 323f 0080
000000d0: e5cc 83a5 53b2 0000 96b0 b13c 4269 0080
000000e0: 7824 0789 9b50 283b a1a4 183d 4b64 0080
000000f0: 9e35 0000 2a34 5138 8736 0000 4322 8c3c
0.020072589 -8.3275e-41 0.012519796 0.00062424084 -2.3849e-41 0.01220028 1.3078e-41 2.662e-42
-3.8882e-41 6.6937e-41 -5.83903e-39 -5.3912584e-15 9.067653e-06 3.4672e-41 5.7784e-41 0.025164315
-1.1748e-41 0.0076530194 3.5971e-41 -1.6444e-41 5.1552e-41 -6.257e-41 2.2509e-41 -5.3671847e-19
-1.8784664e-16 4.3534e-41 -4.9212e-41 0.028146457 -5.4009e-41 -6.5514e-41 -1.1956e-41 -3.0987e-41
6.1326e-41 4.4249e-41 4.5395e-41 -7.4955576e-34 -3.55e-41 4.792e-42 -2.3585e-41 7.4301e-41
2.5522e-41 -6.112e-42 0.026126038 0.018872926 5.1997e-41 2.4811e-41 0.012946793 5.474e-41
2.4790683e-08 0.0020772642 7.4252e-41 -2.267e-41 -2.286372e-16 6.397e-41 0.021690648 -3.776e-41
-1.6267181e-33 0.002568281 0.037266377 -3.5978e-41 1.9234e-41 4.9878065e-05 1.9561e-41 0.017106181

mlp.18.weight f4 [8, 64]
00000000: 724e 0080 4c65 0080 593b 0000 07b7 0080
00000010: 0ed4 0180 fd31 0080 168e 0080 b684 0080
00000020: e228 0100 b1b8 0000 80d6 0080 0b1a 0000
00000030: 96bc 0000 7797 0080 d116 0000 0436 0000
00000040: 5f51 0080 b32b 0000 5ac6 0000 20ca 0000
00000050: 6645 0000 1621 0080 694a 0000 d1cf 0000
00000060: b341 0080 828c 0080 73b8 0000 9de0 0080
00000070: 8f7c 0000 e2a1 0080 c151 0000 5709 0080
00000080: 7e78 0000 b409 0080 ed09 0080 c200 0000
00000090: 0ab4 0080 8c03 0000 7b82 0000 1753 0080
000000a0: 1868 0000 1e21 0080 c424 0000 5f0d 0000
000000b0: 3120 0080 2504 0180 3cb1 0080 9f44 0000
000000c0: 7352 0080 6a9c 0000 1fc0 0000 cb3a 0080
000000d0: a5b6 0080 0917 0180 9393 0080 9391 0000
000000e0: 1848 0080 14af 0080 492d 0000 a805 0080
000000f0: 845e 0000 b53d 0080 ec05 0000 5fb7 0080
00000100: 9830 873d 866a 0500 adad 483d a45d 263b
00000110: dc9f 0080 4e68 393d d659 0080 9625 f814
00000120: 3f12 0000 e791 0100 8b84 272e 95ef f427
00000130: 4264 2a37 819c 0000 5539 0000 9ab1 bc3d
00000140: 0f01 0080 cddc e63c 64a5 2a8e b09f 0080
00000150: d09d 0000 d719 0000 c752 0000 dcf8 0422
00000160: dd9d 2225 4a84 0000 278a 0000 8099 e13d
00000170: dd73 0080 dc84 0000 f073 80a1 a383 0080
00000180: b56f 00b7 87e9 ea09 fd44 0000 8237 ac07
00000190: e0b3 0000 9c41 0000 2075 0080 ca04 0000
000001a0: f5f6 cd31 772d 0080 5b4f c23d 29ea 8a3d
000001b0: ce6e 0080 630b 0000 064d 6e3d 060a 0080
000001c0: 0594 5433 3b39 e13b b322 0080 dcaa 0000
000001d0: ab9f 6926 6e3f d09e 7a51 bf3d f053 0000
000001e0: 3823 d607 dd8d 123c 443b 1b3e 28c5 0080
000001f0: 6d0d e698 98a5 7638 0c9a 0000 a77f 863d
00000200: f550 8bae f4b4 0000 67f5 82aa 632a e8ab
00000210: 40ab 0000 48a1 c6ac b084 0000 b26d 0000
00000220: 4c0c 0000 3c95 0000 8054 1528 4b32 f299
00000230: b0ae dca7 71a0 0000 652c 0000 9218 08ae
00000240: 9675 0000 25b6 0b32 aa53 0180 e11a 0000
00000250: f879 0000 ebb9 0000 55e4 0100 927e 5015
00000260: 6aca cd97 3c6b 0080 2a15 0000 ed33 4aac
00000270: 095d 0080 eeb5 0080 5935 0100 c1d9 8611
00000280: db41 e031 228d 0000 4370 0080 0b61 0080
00000290: af8b 0000 4a23 0080 d322 0100 9551 0080
000002a0: 7fc4 a098 880e 411e b069 9aad 401c 73ad
000002b0: 3ab0 0000 908e 0080 b146 dcad 5cb7 0080
000002c0: bf5c 03ab 5c23 aa2b 2c6d 0080 0cae 0080
000002d0: 6cd1 a024 d2c1 0000 18c0 9bae 64eb 0000
000002e0: 0527 0000 3b50 55ac 356d c4ae 0841 0000
000002f0: 8953 c625 057f 63b4 9c5c 0080 1f9c 13ad
00000300: 92e2 943c ee6b 0900 0298 363c 95df f739
00000310: 7116 0080 d60b 303c ea19 0080 3ddb 3f0c
00000320: 9019 0080 0373 0000 8fa3 0080 84e9 9727
00000330: 3eb5 8136 282b 0000 71cb 0000 26b6 be3c
00000340: f41a 0000 b4da d03b 778d 1d85 da80 0080
00000350: a5a4 0100 bd29 0080 f325 0000 378e 9521
00000360: c396 b127 dc25 0000 0e23 0000 df56 d93c
00000370: a063 0000 7677 0000 8044 8e9b 96c0 0000
00000380: 5038 f39a b838 0f00 f02b 0080 f379 c906
00000390: 3e89 0080 62b3 0080 0081 0000 16c9 0000
000003a0: e93b 8129 47b7 0000 5b09 c83c 2471 8c3c
000003b0: 2f43 0180 e90d 0080 a157 403c 782d 0080
000003c0: bb9c a432 4d9a d13a e9ab 0000 faa7 0080
000003d0: ad9b 4826 ac12 0000 25d8 a63c 6e79 0080
000003e0: d8c0 3b08 342c 013b a4ec 143d 5197 0000
000003f0: 7c32 0000 6df8 d637 5920 0000 1022 7e3c
-2.8141e-41 -3.6338e-41 2.129e-41 -6.5658e-41 -1.67906e-40 -1.7932e-41 -5.0971e-41 -4.7608e-41
1.06501e-40 6.6255e-41 -7.6948e-41 9.342e-42 6.7652e-41 -5.4335e-41 8.185e-42 1.9377e-41
-2.919e-41 1.5676e-41 7.1155e-41 7.2509e-41 2.4895e-41 -1.1869e-41 2.6693e-41 7.455e-41
-2.3568e-41 -5.0405e-41 6.6168e-41 -8.0576e-41 4.4683e-41 -5.8073e-41 2.9328e-41 -3.35e-42
4.3224e-41 -3.481e-42 -3.56e-42 2.72e-43 -6.4586e-41 1.272e-42 4.6808e-41 -2.9807e-41
3.7342e-41 -1.188e-41 1.3189e-41 4.797e-42 -1.1548e-41 -9.3322e-41 -6.358e-41 2.4617e-41
-2.9577e-41 5.6111e-41 6.892e-41 -2.1091e-41 -6.552e-41 -1.00099e-40 -5.294e-41 5.2222e-41
-2.5862e-41 -6.2806e-41 1.6245e-41 -2.029e-42 3.3906e-41 -2.2136e-41 2.124e-42 -6.5781e-41
0.066010654 4.97391e-40 0.048993755 0.0025385404 -5.7347e-41 0.04526549 -3.2227e-41 2.5056426e-26
6.545e-42 1.44175e-40 3.8089126e-11 6.798336e-15 1.0156133e-05 5.6143e-41 2.0567e-41 0.09213562
-3.8e-43 0.028181458 -2.103375e-30 -5.7285e-41 5.6612e-41 9.27e-42 2.9695e-41 1.802108e-18
1.4104746e-16 4.7456e-41 4.956e-41 0.11015606 -4.1564e-41 4.7661e-41 -8.704306e-19 -4.7222e-41
-7.655403e-06 5.655306e-33 2.4748e-41 2.5912308e-34 6.4527e-41 2.3536e-41 -4.2017e-41 1.718e-42
5.994361e-09 -1.631e-41 0.09487792 0.06782944 -3.9749e-41 4.085e-42 0.058178924 -3.596e-42
4.949472e-08 0.0068732775 -1.2448e-41 6.1293e-41 8.1054504e-16 -2.204909e-20 0.09341712 3.0111e-41
3.221984e-34 0.008944956 0.15159327 -7.0726e-41 -5.9467163e-24 5.880519e-05 5.5262e-41 0.065673165
-6.335369e-11 6.4914e-41 -2.326292e-13 -1.6496356e-12 6.1433e-41 -5.6454043e-12 4.76e-41 3.9351e-41
4.411e-42 5.3535e-41 8.2894846e-15 -2.5042527e-23 -6.1251663e-15 5.7556e-41 1.5926e-41 -3.0944643e-11
4.2182e-41 8.13228e-09 -1.21849e-40 9.642e-42 4.3754e-41 6.6695e-41 1.73746e-40 4.2105112e-26
-1.3298911e-24 -3.8468e-41 7.592e-42 -2.8734751e-12 -3.3375e-41 -6.5264e-41 1.10973e-40 2.1275673e-28
6.526745e-09 5.0629e-41 -4.0272e-41 -3.4812e-41 5.0109e-41 -1.266e-41 1.04328e-40 -2.9266e-41
-4.155744e-24 1.022034e-20 -1.7554708e-11 -1.38192235e-11 6.3218e-41 -5.1142e-41 -2.5042498e-11 -6.5777e-41
-4.666926e-13 1.2089041e-12 -3.9163e-41 -6.2436e-41 6.9743713e-17 6.953e-41 -7.0827066e-11 8.4442e-41
1.3998e-41 -3.0313657e-12 -8.932447e-11 2.3329e-41 3.440413e-16 -2.1187232e-07 -3.3222e-41 -8.390648e-12
0.018174443 8.65237e-40 0.01114464 0.00047278093 -8.05e-42 0.010745009 -9.296e-42 1.4780079e-31
-9.17e-42 4.1258e-41 -5.8674e-41 4.2164097e-15 3.865599e-06 1.5482e-41 7.2981e-41 0.023280215
9.669e-42 0.0063737277 -7.4080875e-36 -4.6223e-41 1.50899e-40 -1.4973e-41 1.3614e-41 1.0134277e-18
4.9290825e-15 1.3581e-41 1.2575e-41 0.026530681 3.5739e-41 4.2855e-41 -2.3536196e-22 6.9087e-41
-1.0059342e-22 1.397879e-39 -1.5762e-41 7.5786985e-35 -4.9233e-41 -6.435e-41 4.6276e-41 7.2136e-41
5.7391436e-14 6.5748e-41 0.024418524 0.017143793 -1.15936e-40 -4.99e-42 0.011739642 -1.6311e-41
1.9163386e-08 0.001599142 6.167e-41 -6.0259e-41 6.959992e-16 6.698e-42 0.020366738 -4.3561e-41
5.6499952e-34 0.0019710185 0.03635849 5.4282e-41 1.811e-41 2.562647e-05 1.1604e-41 0.015511051

mlp.18.bias f4 [8]
00000000: c295 0080 dcf2 b03d a062 0fad b9f8 b63c
00000010: ea6a f13d b99f 9a2b b743 0080 c4d8 3439
-5.3723e-41 0.08640072 -8.150508e-12 0.022335397 0.1178797 1.098669e-12 -2.4292e-41 0.00017246889

mlp.21.weight f4 [1, 8]
00000000: b06a 0080 81af 92be 6e9c 95af 447d 95bd
00000010: 33e7 c9be 16d2 553a 4b05 0000 648c 0fba
-3.8272e-41 -0.28649524 -2.7214092e-10 -0.07299283 -0.39434204 0.00081566104 1.899e-42 -0.0005475937
