model_saved/2024-01-25-07-49-50/model_2024-01-25-07-50-59_epoch_10000_train_mse_2.01e-02_val_mse_1.99e-02.pt (torch, 88343 bytes, 15 tensors)

mlp.0.weight f4 [8, 8]
3.3473e-41 -1.9285e-41 -6.4541e-41 4.0628e-41 4.2015e-41 -4.207e-41 2.4507e-41 -1.5903e-41
0.008241961 -0.0039625578 0.00013086302 3.8356848e-05 3.303662e-05 3.227366e-05 2.9068946e-05 1.5357957e-05
-0.041172963 0.059486173 0.015148001 -0.00031508846 -8.1364036e-05 -9.9497694e-05 0.0008894269 -0.00048736355
-0.030710617 0.042683065 0.010587211 -0.00018156417 -3.7880767e-05 -6.0157457e-05 0.0005976108 -0.00029381228
0.13274843 -0.069587395 0.0062572793 0.00039711373 0.00032743232 0.00028714153 0.00023176205 0.00019747675
-0.10178461 0.1882067 0.0580977 -0.0002170537 0.0005182385 0.0006183994 0.004330803 -0.0006605243
0.09062627 0.33251858 0.17293292 -5.3919944e-06 0.0015405328 0.0019610017 0.009822243 -0.0010724929
-0.01616085 0.08939606 0.029273117 -0.0001357499 0.00020260795 0.00023725086 0.0019255662 -0.00025779105
00000000: 4f5d 0000 c235 0080 eab3 0080 4171 0000
00000010: 1f75 0000 4675 0080 5144 0000 552c 0080
00000020: 4a09 073c 58d8 81bb 4638 0939 5ae1 2038
00000030: cd90 0a38 945d 0738 16d9 f337 f6d4 8037
00000040: fba4 28bd c6a7 733d 522f 783c 7532 a5b9
00000050: fca1 aab8 6ba9 d0b8 6e28 693a d484 ffb9
00000060: d594 fbbc 70d4 2e3d fb75 2d3c 4362 3eb9
00000070: 2ae2 1eb8 9451 7cb8 fba8 1c3a d10a 9ab9
00000080: 34ef 073e d683 8ebd dd09 cd3b b433 d039
00000090: 39ab ab39 7c8b 9639 2705 7339 c311 4f39
000000a0: 7374 d0bd 42b9 403e dbf7 6d3d e998 63b9
000000b0: 66da 073a 151c 223a 69e9 8d3b 0927 2dba
000000c0: 449a b93d e03f aa3e 5415 313e e1ec b4b6
000000d0: b4eb c93a 2684 003b 79ed 203c e492 8cba
000000e0: c263 84bc 4815 b73d 2dce ef3c 1658 0eb9
000000f0: 2873 5439 8bc6 7839 4863 fc3a 2128 87b9

mlp.0.bias f4 [8]
-2.176e-41 7.3677516e-06 -0.00013506181 -1.2053754e-05 4.8942868e-05 0.00027939476 0.0012313732 0.00017229587
00000000: a83c 0080 8138 f736 619f 0db9 7b3a 4ab7
00000010: 0148 4d38 bb7b 9239 0766 a13a 52aa 3439

mlp.3.weight f4 [16, 8]
4.3096e-41 -0.0003046536 0.00687193 0.0050079655 -0.0047039706 0.023030808 0.047025904 0.010527704
-6.1004e-41 -5.745791e-06 7.024034e-05 6.923911e-05 -9.05424e-05 0.0003104286 0.00088300195 0.00016836489
-5.357e-41 -0.00038741087 0.007804462 0.005830717 -0.0061368486 0.02605587 0.05911076 0.011978407
-5.1728e-41 1.1732274e-05 -0.00017403271 -0.00013282952 0.0030008426 -0.00062898314 0.0005437148 -0.0006831408
-2.2693e-41 -5.802e-41 -4.6969e-41 3.2376e-41 1.242e-42 -1.2519e-41 5.9565e-41 -5.5362e-41
-5.0483e-41 5.4485e-41 4.0716e-41 4.4403e-41 4.229e-42 -5.2399e-41 -3.766e-41 5.885e-42
-6.2969e-41 -1.0725065e-05 0.00017994751 3.614546e-05 -0.00017820224 0.000378427 0.0021709178 0.00033411966
-5.8297e-41 -0.0010421928 0.023860682 0.017205356 -0.01350179 0.07611965 0.16487065 0.034493547
5.1643e-41 2.3325e-41 5.4092e-41 4.708e-41 3.0718e-41 -5.9226e-41 -3.824e-42 -8.085e-42
-1.7355e-41 -0.0018580175 0.04047135 0.029184066 -0.018701214 0.12732586 0.25508597 0.05970131
-3.6074e-41 -9.774e-42 3.02e-41 4.74e-41 -5.7066e-41 1.2553e-41 -2.5212e-41 -1.6325e-41
1.7846e-41 -0.0022495259 0.043724425 0.031560455 -0.043196477 0.13762726 0.2814801 0.06143236
4.9183e-41 -5.772e-42 -5.4572e-41 3.6885e-41 -1.42e-41 6.1378087e-25 -3.3875065e-08 9.997714e-18
-5.2651e-41 -5.6293e-41 6.136e-42 7.6912e-41 5.5493e-41 5.4482e-41 -4.3009e-41 6.3165e-41
4.33e-42 -3.3969e-41 1.4488e-41 -4.0932e-41 -4.239e-41 5.5601e-41 -3.5645604e-19 -3.195e-42
-3.8593e-41 -0.0006719838 0.014551317 0.010582286 -0.009632536 0.04738343 0.10140865 0.02147087
00000000: 2278 0000 eab9 9fb9 ed2d e13b dc19 a43b
00000010: c423 9abb 1bab bc3c 3c9e 403d 647c 2c3c
00000020: 0eaa 0080 f8cb c0b6 ff4d 9338 7734 9138
00000030: 95e1 bdb8 05c1 a239 4279 673a 1b8b 3039
00000040: 5595 0080 681d cbb9 93bc ff3b 990f bf3b
00000050: 9e17 c9bb 1f73 d53c 201e 723d 1541 443c
00000060: 3290 0080 bcd5 4437 8d7c 36b9 2748 0bb9
00000070: c9a9 443b 58e2 24ba 1588 0e3a ce14 33ba
00000080: 423f 0080 bca1 0080 ee82 0080 405a 0000
00000090: 7603 0000 e622 0080 0ba6 0000 549a 0080
000000a0: ba8c 0080 e297 0000 8071 0000 c77b 0000
000000b0: ca0b 0000 1192 0080 fb68 0080 6810 0000
000000c0: 88af 0080 ceef 33b7 4bb0 3c39 e49a 1738
000000d0: cddb 3ab9 9d67 c639 f545 0e3b c82c af39
000000e0: 82a2 0080 309a 88ba 7a77 c33c 3ff2 8c3c
000000f0: 9d36 5dbc 9ee4 9b3d dad3 283e 1b49 0d3d
00000100: f68f 0000 0541 0000 c996 0000 3d83 0000
00000110: a155 0000 19a5 0080 a90a 0080 8a16 0080
00000120: 6130 0080 b988 f3ba 49c5 253d 6c13 ef3c
00000130: 4a33 99bc b661 023e a19a 823e 5c89 743d
00000140: 8f64 0080 3f1b 0080 2f54 0000 2284 0000
00000150: 149f 0080 fe22 0000 4846 0080 822d 0080
00000160: bf31 0000 c86c 13bb 6218 333d 8945 013d
00000170: caee 30bd 29ee 0c3e 291e 903e 80a0 7b3d
00000180: 1a89 0000 1710 0080 2098 0080 d266 0000
00000190: 9527 0080 bbf4 3d17 077e 11b3 df6c 3823
000001a0: c592 0080 ec9c 0080 1b11 0000 66d6 0000
000001b0: b19a 0000 e097 0000 e477 0080 14b0 0000
000001c0: 120c 0000 b15e 0080 6328 0000 1a72 0080
000001d0: 2b76 0080 fe9a 0000 1d6a d2a0 e808 0080
000001e0: 956b 0080 1228 30ba a668 6e3c 5361 2d3c
000001f0: c9d1 1dbc 2115 423d 57af cf3d aee3 af3c

mlp.3.bias f4 [16]
0.00018123294 1.1428983e-06 0.0002836522 -6.884426e-06 4.5291e-41 5.067e-41 3.833661e-06 0.0008093499
4.7683e-41 0.0017382597 6.0829e-41 0.001910747 4.7151e-41 6.3437e-41 -5.485e-41 0.00048530247
00000000: 5909 3e39 b065 9935 27b7 9439 c500 e7b6
00000010: 417e 0000 3f8d 0000 e6a2 8036 8d2a 543a
00000020: ec84 0000 51d6 e33a 91a9 0000 0872 fa3a
00000030: 7083 0000 d6b0 0000 e698 0080 3270 fe39

mlp.6.weight f4 [32, 16]
-1.945e-41 -6.729e-42 1.1125e-41 -2.8434e-41 2.3426e-41 -2.2035e-41 -4.8758e-41 -7.649e-41
-8.6745e-41 -3.097e-42 -4.4179e-41 -5.4944e-41 -3.1633e-41 -5.4354e-41 8.63e-42 -5.3814e-41
0.0088186925 0.00012790947 0.009691549 -6.707537e-05 -2.3816e-41 2.1546e-41 0.00025392763 0.032687362
-3.836e-41 0.04785248 -6.5966e-41 0.051266667 2.1995e-41 -1.85e-42 5.129e-41 0.017636405
0.043060653 0.00060159876 0.040498547 -0.00074333785 -4.3199e-41 3.8474e-41 0.0012221459 0.09070162
-2.8189e-41 0.20100497 -3.3808e-41 0.19754045 2.9580516e-32 -6.899e-42 -1.1035e-41 0.07620341
0.012778501 0.00019262565 0.014592494 -0.000104113955 -1.9412e-41 -7.106e-42 0.00038157948 0.0501262
-5.7317e-41 0.069330156 -5.3311e-41 0.07714916 -5.7844e-41 6.289e-42 -5.3375e-41 0.026322156
3.544965e-06 3.527478e-08 2.5614881e-06 -4.647194e-08 -3.6612e-41 6.0491e-41 5.961014e-08 0.00013343195
-2.4406e-41 -2.9293124e-05 -4.8235e-41 6.2514755e-06 3.7024e-41 5.4977e-41 1.1513e-41 5.0692943e-06
-3.7211e-41 2.7374e-41 2.65e-41 6.318e-42 -3.978e-41 -1.5805e-41 -6.1525e-41 2.9137e-41
-7.617e-42 5.5284e-41 -3.94e-43 4.7067e-41 3.0936e-41 -4.2248e-41 3.608e-41 2.6265e-41
6.393e-41 -1.585e-41 -4.3484e-41 3.2715e-41 4.0254e-41 4.4397e-41 4.5106e-41 -2.2156e-41
-6.5853e-41 -1.1457e-41 -1.7578e-41 -3.6629e-41 6.3674e-41 3.7778e-41 -7.002e-42 2.2101e-41
3.3210974e-05 4.198315e-07 3.3129392e-05 -2.5844395e-07 -2.6864e-41 7.6263e-41 8.519932e-07 0.00013039281
1.3482e-40 0.0001955571 5.9415e-41 0.00020599454 -7.964e-42 3.3874e-41 3.6173e-41 6.347081e-05
0.008434568 0.00010858261 0.0076680747 -9.014837e-05 1.1335e-41 -1.1045e-41 0.0002106236 0.037398975
-2.4887e-41 0.028421203 -3.094e-42 0.04627732 5.71e-42 1.06102e-40 6.4285e-41 0.0140546365
1.0577053e-05 1.297408e-07 1.0013107e-05 -8.873714e-08 1.09908e-40 -1.3417e-41 2.7218238e-07 5.399748e-05
-2.395e-41 6.252973e-05 6.721e-41 6.499958e-05 -2.4855e-41 -3.23e-41 -1.0485e-41 1.9916528e-05
1.16594e-40 -4.9972e-41 5.0636e-41 7.1639e-41 5.1e-43 5.3646e-41 -6.0273e-41 3.604e-41
1.864e-41 4.4798e-41 -1.7771e-41 -1.688e-41 4.4172e-41 -6.0317e-41 2.8941e-41 -6.2424e-41
-1.68e-43 5.6217e-41 -5.4965e-41 -3.1913e-41 5.2947e-41 -6.7763e-41 2.6591e-41 1.188e-41
5.0864e-41 -2.1398e-41 6.6979e-41 2.4844e-41 6.4255e-41 3.1322e-41 -3.2904e-41 4.8119e-41
4.3938963e-16 5.7535e-41 -5.1868e-41 5.2584e-41 1.0239e-41 4.5908e-41 5.5455e-41 -6.153522e-13
4.7923e-41 2.1463892e-13 1.7899e-41 -1.487387e-14 5.151e-42 -2.36564e-40 -4.0673e-41 -2.6156337e-30
0.012177593 0.00016950634 0.012212426 -0.0001321929 -5.216e-41 -1.397e-41 0.00033145066 0.03801578
-2.3765e-41 0.06393654 -2.524e-41 0.06482641 5.717e-42 -4.5644e-41 -1.5068e-41 0.022383355
5.0273e-41 -5.01e-41 -2.9088e-41 -2.1419e-41 1.4609e-41 4.3478e-41 -1.4662e-41 6.1629e-41
-4.8597e-41 -2.8026e-41 2.793e-42 5.0473e-41 3.6802e-41 -1.8796e-41 -1.6659e-41 -3.145e-41
4.8076886e-06 5.516553e-08 4.588962e-06 -4.014846e-08 -3.6777e-41 4.0704e-41 1.1108425e-07 2.6774042e-05
-3.3617e-41 2.5198651e-05 5.7994e-41 3.0228564e-05 5.3935e-41 -6.24e-41 1.5298e-41 8.859681e-06
00000000: 3836 0080 c212 0080 031f 0000 434f 0080
00000010: 4d41 0000 6d3d 0080 eb87 0080 39d5 0080
00000020: cff1 0080 a208 0080 277b 0080 2999 0080
00000030: 2e58 0080 8497 0080 0f18 0000 0396 0080
00000040: 477c 103c 701f 0639 4ec9 1e3c d1aa 8cb8
00000050: 6442 0080 103c 0000 9721 8539 2fe3 053d
00000060: ef6a 0080 f600 443d e3b7 0080 fffc 513d
00000070: 503d 0000 2805 0080 fa8e 0000 397a 903c
00000080: 5e60 303d 9cb4 1d3a cee1 253d 8fdc 42ba
00000090: 6c78 0080 406b 0000 6930 a03a c5c1 b93d
000000a0: 944e 0080 3fd4 4d3e 3e5e 0080 0b48 4a3e
000000b0: 4097 190b 3b13 0080 c31e 0080 8910 9c3d
000000c0: eb5c 513c 8efb 4939 5b15 6f3c c157 dab8
000000d0: 1d36 0080 cf13 0080 bb0e c839 2151 4d3d
000000e0: c79f 0080 f8fc 8d3d 9c94 0080 6100 9e3d
000000f0: 3fa1 0080 8811 0000 ca94 0080 90a1 d73c
00000100: 09e6 6d36 0881 1733 08e6 2b36 7098 47b3
00000110: 0f66 0080 a0a8 0000 0503 8033 dee9 0b39
00000120: 0944 0080 81ba f5b7 7686 0080 c4c3 d136
00000130: 3567 0000 4199 0000 1820 0000 e818 aa36
00000140: bb67 0080 4f4c 0000 df49 0000 9d11 0000
00000150: e46e 0080 0f2c 0080 82ab 0080 3951 0000
00000160: 3c15 0080 1c9a 0000 1901 0080 3483 0000
00000170: 3d56 0000 c575 0080 9464 0000 3749 0000
00000180: 36b2 0000 2f2c 0080 3779 0080 325b 0000
00000190: 3670 0000 c37b 0000 bd7d 0000 c33d 0080
000001a0: 92b7 0080 f01f 0080 0031 0080 1b66 0080
000001b0: 7fb1 0000 4f69 0000 8513 0080 9c3d 0000
000001c0: 034c 0b38 3465 e134 6af4 0a38 44c0 8ab4
000001d0: e34a 0080 97d4 0000 87b4 6435 0eba 0839
000001e0: d377 0100 760e 4d39 a0a5 0000 3d00 5839
000001f0: 3316 0080 6d5e 0000 d664 0000 a21b 8538
00000200: 2431 0a3c d8b6 e338 7944 fb3b 0a0e bdb8
00000210: 991f 0000 ca1e 0080 d8da 5c39 ab2f 193d
00000220: 6045 0080 95d3 e83c a008 0080 498d 3d3d
00000230: eb0f 0000 c527 0100 33b3 0000 6b45 663c
00000240: 1974 3137 e14e 0b34 f8fd 2737 c28f beb3
00000250: 6132 0100 6725 0080 7620 9234 5a7b 6238
00000260: c342 0080 6522 8338 5bbb 0000 6250 8838
00000270: 4945 0080 0a5a 0080 3a1d 0080 6b12 a737
00000280: 0445 0100 4d8b 0080 278d 0000 b3c7 0000
00000290: 6c01 0000 8b95 0000 04a8 0080 7764 0000
000002a0: f633 0000 e17c 0000 8a31 0080 0e2f 0080
000002b0: 227b 0000 24a8 0080 ad50 0000 03ae 0080
000002c0: 7800 0080 b69c 0000 3899 0080 f658 0080
000002d0: 9893 0000 e5bc 0080 204a 0000 1e21 0000
000002e0: ca8d 0000 a63b 0080 b6ba 0000 4145 0000
000002f0: 1eb3 0000 5057 0000 b95b 0080 2386 0000
00000300: 774a fd25 62a0 0000 9690 0080 9592 0000
00000310: 8b1c 0000 f97f 0000 969a 0000 cd34 2dab
00000320: 9785 0000 75a9 712a e531 0000 cff8 85a8
00000330: 5c0e 0000 7293 0280 6171 0080 9634 548e
00000340: 8784 473c 83bd 3139 a116 483c 439d 0ab9
00000350: 6791 0080 f126 0080 8ec6 ad39 6fb6 1b3d
00000360: 3f42 0080 29f1 823d 5c46 0080 b5c3 843d
00000370: f00f 0000 3d7f 0080 012a 0080 4c5d b73c
00000380: 248c 0000 a98b 0080 1651 0080 b53b 0080
00000390: b928 0000 3379 0000 df28 0080 ccab 0000
000003a0: 7887 0080 204e 0080 c907 0000 b38c 0000
000003b0: 9766 0000 6534 0080 702e 0080 ab57 0080
000003c0: bb51 a136 24ef 6c33 e2fa 9936 b36f 2cb3
000003d0: 8566 0080 7771 0000 368d ee33 d198 e037
000003e0: b65d 0080 b161 d337 aaa1 0000 5993 fd37
000003f0: 5996 0000 f2ad 0080 a52a 0000 0aa4 1437

mlp.6.bias f4 [32]
-4.602e-42 0.0008371934 0.004241254 0.0013271238 1.4151038e-07 -9.019e-42 -9.498e-42 1.3882501e-06
0.00075125165 3.5812133e-07 2.1356e-41 6.2356e-41 -5.3472e-41 0.0011845826 -5.6383e-41 2.739814e-07
0.0040698647 -1.6425e-41 5.7655e-41 1.00013e-40 5.7404e-41 1.9695895e-07 0.00018585891 0.0003129834
4.461552e-08 0.000663398 7.0384e-41 2.7297e-41 1.2984e-41 -3.3799514e-15 -9.547e-42 3.3282948e-05
00000000: d40c 0080 1977 5b3a 38fa 8a3b e3f2 ad3a
00000010: 14f2 1734 2419 0080 7a1a 0080 e953 ba35
00000020: a5ef 443a d243 c034 883b 0000 d3ad 0000
00000030: 0f95 0080 ff43 9b3a 2c9d 0080 b817 9334
00000040: 805c 853b c92d 0080 b8a0 0000 cc16 0100
00000050: 05a0 0000 aa7b 5334 1fe3 4239 ec17 a439
00000060: 489f 3f33 e3e7 2d3a 34c4 0000 184c 0000
00000070: 3224 0000 198d 73a7 9d1a 0080 4b99 0b38

mlp.9.weight f4 [64, 32]
-3.9308e-41 6.963977e-31 -1.6222307e-26 5.7023027e-37 1.4188e-41 -2.163e-41 -5.436e-42 4.1253e-41
4.4184e-41 -1.5766e-41 2.3507e-41 -6.8355e-41 -2.061e-42 1.4132e-41 1.73939e-40 -6.0437e-41
2.4818e-41 3.488e-41 2.4315e-41 -6.369e-41 3.454e-41 -1.2379e-41 5.845e-42 -1.1369e-41
-2.4876e-41 1.5269e-41 -2.0442e-41 6.7243e-41 -4.3803e-41 8.4938e-41 -5.168e-41 -4.148e-42
-3.53e-42 -1.1991244e-08 -3.6325397e-07 -9.612822e-10 1.6584e-41 -2.6227e-41 1.1519e-41 -6.8283735e-21
2.3775341e-17 -5.66162e-28 -1.5689e-41 -6.2618e-41 8.783479e-34 1.3988396e-11 -6.99e-41 -1.0524279e-29
1.0986159e-09 6.6608e-41 9.268e-42 2.4268e-41 -2.357e-41 3.9221e-41 1.0989447e-10 1.900842e-20
-1.7118e-41 3.0159496e-21 -1.0117e-41 -2.3756e-41 -4.9149e-41 6.1333e-41 9.935e-42 1.5430684e-21
2.4746e-41 0.038656328 0.14612083 0.057404716 1.6516009e-05 -9.0057e-41 5.5306e-41 0.00015725929
0.03170111 5.068522e-05 4.4023e-41 -4.4584e-41 -4.235062e-15 0.04977336 6.6741e-41 2.2725719e-05
0.14631322 -2.5712e-41 -4.1142e-41 2.2736e-41 3.688e-41 2.1901435e-05 0.013507507 0.017375467
7.1181285e-06 0.02954653 -3.531e-41 -3.2327e-41 -5.4467e-41 4.2545167e-13 7.718e-42 0.003045477
2.7224e-41 0.0017946584 0.0076055937 0.0026533823 6.7503544e-07 -1.3026e-41 -5.6482e-41 6.4875926e-06
0.0013520421 2.1094727e-06 6.7547e-41 1.0713e-41 7.633606e-19 0.0021780992 3.9938e-41 9.283453e-07
0.0070317737 -3.9049e-41 4.4074e-41 -2.2509e-41 5.1432e-41 9.063916e-07 0.00059686735 0.0007164777
2.8000665e-07 0.0012052245 -5.9893e-41 -8.3072e-41 -3.373e-42 1.690992e-14 -7.4566e-41 0.00012551146
6.1095e-41 0.00018983286 0.00085521315 0.00027098722 6.1252145e-08 -1.454e-41 5.7043e-41 6.1449583e-07
0.00013353981 1.907142e-07 -6.1942e-41 8.0565e-41 -4.0419923e-36 0.00021948222 -6.1581e-41 8.571768e-08
0.0007248965 7.263e-41 -3.196e-42 -1.30796e-40 6.712e-41 8.271444e-08 5.884301e-05 6.968236e-05
2.568374e-08 0.00011828671 2.2637e-41 2.3868e-41 6.5892e-41 1.4820476e-15 -2.3693e-41 1.2083308e-05
-8.369e-42 -3.9557e-41 2.0319e-41 6.2792e-41 7.009e-42 7.3731e-41 -4.1121e-41 6.0116e-41
5.0525e-41 -5.8852e-41 1.7118e-41 -3.5443e-41 -4.1022e-41 3.519e-41 -5.6755e-41 -5.0602e-41
5.985e-41 5.0892e-41 -3.7684e-41 9.481e-42 -5.6796e-41 5.28e-41 2.3951e-41 -3.5386e-41
4.2179e-41 -4.4542e-41 -3.3274e-41 3.6651e-41 -1.913e-42 3.632e-42 5.8968e-41 3.1511e-41
-1.19822e-40 5.9223e-41 6.6894e-41 2.5673e-41 6.2754e-41 -6.3871e-41 6.1893e-41 1.7473e-41
3.3813e-41 6.7771e-41 -1.931e-41 -7.5384e-41 6.254e-42 -7.0135e-41 4.3569e-41 -1.04597e-40
-4.7413e-41 3.7374e-41 2.088e-41 3.40818e-40 -2.1403e-41 9.4831e-41 5.4787e-41 4.075e-41
9.372e-42 -9.2732e-41 -2.9583e-41 2.8597e-40 5.2793e-41 1.8787e-41 -2.036e-42 5.3766e-41
3.5387e-41 6.15525e-05 0.00027629995 8.678214e-05 1.9178037e-08 2.1831e-41 4.997e-41 1.9403153e-07
4.1900184e-05 6.272838e-08 -5.8734e-41 -8.5458e-41 -6.0321598e-31 6.935831e-05 -3.9808e-41 2.7429879e-08
0.0002293434 7.264e-41 -6.1879e-41 1.25066e-40 -4.326e-41 2.6326367e-08 1.8757073e-05 2.1890537e-05
7.696123e-09 3.6748243e-05 -5.1865e-41 3.2926e-41 6.8549e-41 4.7876457e-16 -2.956e-41 3.8004234e-06
00000000: 936d 0080 75fe 610d 6fa8 a094 100a 4203
00000010: 8d27 0000 4c3c 0080 270f 0080 ff72 0000
00000020: 2b7b 0000 f32b 0080 8741 0000 8cbe 0080
00000030: bf05 0080 6527 0000 dfe4 0100 79a8 0080
00000040: 2f45 0000 3b61 0000 c843 0000 8bb1 0080
00000050: 4960 0000 8222 0080 4b10 0000 b11f 0080
00000060: 5845 0080 902a 0000 fc38 0080 72bb 0000
00000070: 1b7a 0080 c6ec 0000 1090 0080 900b 0080
00000080: d709 0080 0d02 4eb2 3f05 c3b4 1c1e 84b0
00000090: 3b2e 0000 1c49 0080 1c20 0000 fdfb 009e
000000a0: f049 db23 856c 3392 bc2b 0080 8eae 0080
000000b0: caf0 9108 2316 762d dac2 0080 2e75 558f
000000c0: 1cfe 9630 adb9 0000 d619 0000 a643 0000
000000d0: b441 0080 556d 0000 16a9 f12e 8a87 b31e
000000e0: b82f 0080 f3e0 631d 341c 0080 3942 0080
000000f0: 0289 0080 f9aa 0000 b21b 0000 912e e91c
00000100: fb44 0000 1956 1e3d b3a0 153e 3521 6b3d
00000110: dc8b 8a37 0bfb 0080 2c9a 0000 f8e5 2439
00000120: 06d9 013d d796 5438 b87a 0000 487c 0080
00000130: 8d95 98a7 27df 4b3d 0cba 0000 1ca3 be37
00000140: 22d3 153e ad47 0080 b072 0080 613f 0000
00000150: ce66 0000 f9b8 b737 974e 5d3c ff56 8e3c
00000160: 42d8 ee36 910b f23c 6e62 0080 1d5a 0080
00000170: d597 0080 0c82 ef2a 8415 0000 a096 473b
00000180: e44b 0000 be3a eb3a 5838 f93b 5ee4 2d3b
00000190: 1534 3535 5024 0080 739d 0080 ffaf d936
000001a0: 0137 b13a 7790 0d36 4bbc 0000 dd1d 0000
000001b0: e54d 6121 71be 0e3b 556f 0000 6733 7935
000001c0: cb6a e63b da6c 0080 dc7a 0000 bf3e 0080
000001d0: 5f8f 0000 c24e 7335 1777 1c3a 01d2 3b3a
000001e0: d253 9634 a0f8 9d3a f5a6 0080 92e7 0080
000001f0: 6709 0080 9f4f 9828 dccf 0080 ba9b 0339
00000200: 4faa 0000 df0d 4739 6230 603a 4a13 8e39
00000210: b989 8333 8828 0080 039f 0000 d5f3 2435
00000220: d206 0c39 1fc7 4c34 abac 0080 95e0 0000
00000230: 66ed ab84 cf24 6639 aaab 0080 cb13 b833
00000240: fb06 3e3a 76ca 0000 e908 0080 9b6c 0180
00000250: 1abb 0000 bfa0 b133 33ce 7638 6f22 9238
00000260: 249f dc32 b210 f838 1a3f 0000 8942 0000
00000270: aeb7 0000 e895 d526 0c42 0080 6ab9 4a37
00000280: 5417 0080 456e 0080 a438 0000 0aaf 0000
00000290: 8a13 0000 88cd 0000 a172 0080 94a7 0000
000002a0: d88c 0000 0ea4 0080 b82f 0000 cd62 0080
000002b0: 5a72 0080 1862 0000 369e 0080 0f8d 0080
000002c0: d6a6 0000 de8d 0000 0c69 0080 6e1a 0000
000002d0: 539e 0080 2f93 0000 c442 0000 a462 0080
000002e0: 9475 0000 2a7c 0080 c15c 0080 2b66 0000
000002f0: 5505 0080 200a 0000 61a4 0000 d757 0000
00000300: 044e 0180 17a5 0000 79ba 0000 9147 0000
00000310: efae 0000 0cb2 0080 88ac 0000 b530 0000
00000320: 425e 0000 ebbc 0000 d435 0080 24d2 0080
00000330: 6f11 0000 82c3 0080 7479 0000 9323 0180
00000340: 2b84 0080 2f68 0000 343a 0000 10b6 0300
00000350: aa3b 0080 5a08 0100 b998 0000 9871 0000
00000360: 201a 0000 8002 0180 7752 0080 2b1d 0300
00000370: 2a93 0000 5f34 0000 ad05 0080 e195 0000
00000380: a562 0000 bf15 8138 5adc 9039 cffe b538
00000390: f3bc a432 db3c 0000 4c8b 0000 fb56 5034
000003a0: fbbd 2f38 4bb5 8633 baa3 0080 39ee 0080
000003b0: 39c1 438d 7674 9138 f86e 0080 f19e eb32
000003c0: e67b 7039 7eca 0000 7eac 0080 a25c 0100
000003d0: 9778 0080 4b24 e232 8258 9d37 92a1 b737
000003e0: e837 0432 2022 1a38 9490 0080 c95b 0000
000003f0: 16bf 0000 97fe 0926 6752 0080 c70a 7f36

mlp.9.bias f4 [64]
-3.0631e-41 2.2283e-41 0.0069008605 0.00024692973 2.0847589e-05 -9.7e-44 -1.758e-41 5.7332695e-06
3.6615822e-07 0.0048478195 7.165415e-09 1.8193e-41 4.5347e-41 1.1613e-41 3.08233e-10 0.0037681747
-6.4465e-41 0.0010721778 -4.2913e-41 -4.5382e-41 3.5897e-41 0.0014831704 -4.0991e-41 4.9892797e-09
1.3302473e-07 6.7006e-41 -5.934e-42 1.7560434e-10 -4.3984e-41 -7.5487e-41 3.6956e-41 7.0475595e-05
4.08268e-12 -7.3118e-41 0.0006820904 2.487345e-07 0.0031159231 0.007188702 5.73e-42 -9.648394e-23
-6.397e-42 -5.533389e-21 -2.3737153e-18 7.1427e-41 -2.9279e-41 4.2237e-41 -3.4506e-41 -3.087e-41
-1.001e-41 4.451559e-08 2.6755e-41 0.00047201707 0.0037691384 6.021e-41 0.00036775813 -2.4729e-41
0.0026415642 0.0020715455 7.292e-42 -8.595392e-25 -5.976e-41 3.26e-42 -3.2002837e-13 0.0029144129
00000000: 6355 0080 1e3e 0000 9d20 e23b 5976 8139
00000010: dbe1 ae37 4500 0080 0231 0080 6960 c036
00000020: 6794 c434 75da 9e3b a833 f631 b732 0000
00000030: 697e 0000 5f20 0000 f073 a92f 7bf3 763b
00000040: b4b3 0080 5188 8c3a a077 0080 827e 0080
00000050: 1164 0000 f166 c23a 4472 0080 2b6e ab31
00000060: 8fd5 0e34 c9ba 0000 8b10 0080 3a14 412f
00000070: 9c7a 0080 6dd2 0080 0567 0000 4ccc 9338
00000080: 83a5 8f2c d3cb 0080 50ce 323a cf89 8534
00000090: 8434 4c3b 348f eb3b f90f 0000 ab48 e99a
000000a0: d511 0080 a80b d19d 3726 2fa2 1cc7 0000
000000b0: 9e51 0080 bd75 0000 3060 0080 0e56 0080
000000c0: e71b 0080 6931 3f33 954a 0000 0f79 f739
000000d0: a603 773b d7a7 0000 a9cf c039 ef44 0080
000000e0: 181e 2d3b c4c2 073b 5414 0000 db01 8597
000000f0: 96a6 0080 1609 0000 f328 b4aa bcff 3e3b

mlp.12.weight f4 [128, 64]
3.4137e-41 6.3675e-41 -8.603e-42 2.0734e-41 4.1158e-41 -1.13784e-40 -3.2255e-41 2.4292e-41
4.3478e-41 7.4918e-41 9.508e-42 -5.4631e-41 2.5314e-41 4.4086e-41 6.9682e-41 1.4433e-41
2.8184e-41 3.0831e-41 -4.1079e-41 6.209e-41 -2.5474e-41 -3.4887e-41 -5.517e-41 -4.1616e-41
-2.794e-41 1.26498e-40 -9.7584e-41 -1.5205e-41 -5.9121e-41 3.0693e-41 -1.24864e-40 -5.3042e-41
-4.5084e-41 1.8993e-41 -9.9524e-41 -1.1135e-41 1.12268e-40 -8.2782e-41 7.726e-41 -5.1372e-41
-3.3813e-41 -3.597e-41 1.9756e-40 4.3526e-41 9.891e-41 2.0714e-41 3.7402e-41 3.8568e-41
2.145e-42 -7.0347e-41 3.063e-41 -8.8854e-41 3.941e-41 -2.018e-42 9.7431e-41 -6.4828e-41
1.55e-42 -7.0816e-41 -1.6177e-41 -5.3733e-41 7.9853e-41 -1.1946e-41 -3.5749e-41 1.3335e-41
-1.3083e-41 -2.936e-42 -8.246402e-15 -7.850921e-22 -2.9857755e-35 -2.8437e-41 -3.457e-41 -5.2522717e-27
-3.3321445e-24 -4.4649515e-16 -4.711987e-30 -3.662e-42 -1.7839e-41 -4.128e-42 2.7394e-41 -1.4393042e-16
6.4195e-41 -6.7153885e-18 -9.6416e-41 3.5418e-41 8.7378e-41 -1.2805223e-17 1.1219e-41 1.294e-41
-1.2446481e-31 -9.9519e-41 -6.798e-41 -5.2076e-41 1.7909e-41 4.0028e-41 -9.64e-43 -1.2888292e-27
1.8033e-41 1.979e-41 -4.468486e-25 -3.051788e-24 -3.2258793e-19 -1.2148402e-14 -7.7031e-41 2.2205e-41
-5.4662e-41 5.812e-41 -4.5479e-41 -4.2583e-41 1.3573e-41 -3.98622e-40 -2.992e-41 5.025e-41
-3.807e-41 1.951e-41 -7.2244e-41 -1.0081613e-17 -5.6848996e-19 -4.9361e-41 -6.7576586e-26 -6.6059e-41
-3.3976318e-18 -1.0229271e-17 -3.6486e-41 2.4734e-41 5.3897e-41 -9.6041e-41 -1.6335e-41 -2.312162e-18
-4.0224e-41 -6.7524e-41 1.969e-42 -1.4152e-41 -4.9572e-41 -1.7574e-41 -3.9994e-41 2.9427e-41
4.1162e-41 1.17827e-40 2.6367e-40 7.2231e-41 6.1221e-41 -6.1925e-41 -1.8801e-41 -3.5756e-41
5.3588e-41 3.1675e-41 4.7103e-41 -1.4995e-41 -6.2972e-41 2.3378e-41 -5.4618e-41 -3.6592e-41
-5.3996e-41 -4.4773e-41 -6.431e-41 3.5044e-41 7.0663e-41 -2.632e-42 1.4432e-41 -5.8473e-41
1.4328e-41 -1.0545e-41 6.225e-41 -4.2053e-41 4.1233e-41 -1.508e-41 -2.4219e-41 5.672e-41
8.83e-43 -2.8777e-41 4.5685e-41 -6.5532e-41 1.1748e-40 7.568e-42 -8.171e-42 5.1538e-41
-2.6608e-41 3.17e-42 -6.5394e-41 2.555e-42 -3.5848e-41 -6.4227e-41 -7.833e-42 6.386e-41
3.135e-42 8.4099e-41 -9.6949e-41 -3.4444e-41 5.0985e-41 -3.65278e-40 6.0734e-41 6.5633e-41
4.9913e-41 -2.802e-41 1.4464e-41 5.81e-42 -1.4538e-41 -1.8339e-41 5.8269e-41 -4.1714e-41
-6.788e-42 3.784e-41 -1.8698e-41 -3.9319e-41 5.1443e-41 2.7173e-41 -2.8271e-41 -4.2768e-41
4.5894e-41 -2.1859e-41 7.5963e-41 -6.2714e-41 -1.1531e-41 -4.954e-42 1.4796e-41 -3.0763e-41
5.8867e-41 3.3662e-41 5.0249e-41 -4.7668e-41 2.0396e-41 -2.9109e-41 2.4981e-41 3.3335e-41
-2.3486e-41 6.8163e-41 4.5504e-41 1.8999e-41 5.3408e-41 4.1361e-41 -1.9243e-41 -1.4505e-41
-1.227e-41 3.0324e-41 -2.96e-43 5.0077e-41 -6.873e-41 -6.088e-41 3.9543e-41 -7.0565e-41
5.8846e-41 2.2784e-41 5.2871e-41 -1.1118e-41 4.1767e-41 1.7083e-41 -3.0988e-41 -4.821e-41
-1.9557e-41 -4.9247e-41 6.6308e-41 5.312e-42 -5.5672e-41 -6.444e-41 -2.9639e-41 -3.6046e-41
00000000: 295f 0000 80b1 0000 fb17 0080 cc39 0000
00000010: bb72 0000 2f3d 0180 ea59 0080 b743 0000
00000020: 3379 0000 d7d0 0000 811a 0000 4a98 0080
00000030: 9146 0000 e57a 0000 3fc2 0000 3c28 0000
00000040: 914e 0000 f255 0000 8372 0080 15ad 0000
00000050: 0347 0080 4061 0080 cb99 0080 0274 0080
00000060: e34d 0080 a060 0100 0610 0180 632a 0080
00000070: cea4 0080 8f55 0000 125c 0180 dc93 0080
00000080: ad7d 0080 f234 0000 6f15 0180 0a1f 0080
00000090: f538 0100 c3e6 0080 5fd7 0000 348f 0080
000000a0: 425e 0080 4564 0080 b826 0200 5579 0000
000000b0: b913 0100 be39 0000 4368 0000 836b 0000
000000c0: fb05 0000 19c4 0080 6255 0000 b0f7 0080
000000d0: dc6d 0000 a005 0080 990f 0100 b7b4 0080
000000e0: 5204 0000 68c5 0080 182d 0080 c995 0080
000000f0: 99de 0000 4d21 0080 a763 0080 2c25 0000
00000100: 7824 0080 2f08 0080 d18d 14a8 8f47 6d9c
00000110: 45c0 1e86 454f 0080 5e60 0080 5d10 d093
00000120: f6e7 8098 87b1 00a6 1224 bf8e 350a 0080
00000130: ba31 0080 820b 0080 5d4c 0000 c3f0 25a5
00000140: f3b2 0000 0dc1 f7a2 c50c 0180 bb62 0000
00000150: 93f3 0000 f536 6ca3 461f 0000 1224 0000
00000160: 8790 218c 6b15 0180 80bd 0080 2b91 0080
00000170: ec31 0000 956f 0000 b002 0080 2039 cc92
00000180: 4532 0000 2b37 0000 fe4a 0a97 e41e 6c98
00000190: 1c6c bea0 9ed8 5aa8 bbd6 0080 e63d 0000
000001a0: 6098 0080 04a2 0000 c77e 0080 b476 0080
000001b0: d625 0000 3257 0480 6853 0080 148c 0000
000001c0: 206a 0080 6336 0000 63c9 0080 12f9 39a3
000001d0: e3c9 27a1 9989 0080 c04f a795 25b8 0080
000001e0: 73b3 7aa2 5eb2 3ca3 b565 0080 f344 0000
000001f0: 3e96 0000 b90b 0180 892d 0080 819b 2aa2
00000200: 2170 0080 3bbc 0080 7d05 0000 7327 0080
00000210: 308a 0080 fd30 0080 7d6f 0080 0852 0000
00000220: be72 0000 7448 0100 01df 0200 5ac9 0000
00000230: a9aa 0000 9fac 0080 6934 0080 ac63 0080
00000240: 6295 0000 4c58 0000 4e83 0000 cd29 0080
00000250: 8aaf 0080 2b41 0000 4198 0080 0166 0080
00000260: 8596 0080 cf7c 0080 45b3 0080 b061 0000
00000270: fbc4 0000 5607 0080 3b28 0000 00a3 0080
00000280: f127 0000 651d 0080 87ad 0000 3a75 0080
00000290: f172 0000 092a 0080 8343 0080 1d9e 0000
000002a0: 7602 0000 3850 0080 5a7f 0000 adb6 0080
000002b0: 7d47 0100 1915 0000 c716 0080 ab8f 0000
000002c0: 2c4a 0080 d608 0000 4bb6 0080 1f07 0000
000002d0: ee63 0080 0ab3 0080 d615 0080 04b2 0000
000002e0: bd08 0000 6fea 0000 410e 0180 0460 0080
000002f0: 208e 0000 3ffa 0380 4da9 0000 f5b6 0000
00000300: 238b 0000 1c4e 0080 5228 0000 3210 0000
00000310: 8728 0080 1f33 0080 6ea2 0000 4874 0080
00000320: ec12 0080 7c69 0000 1f34 0080 9b6d 0080
00000330: 678f 0000 bf4b 0000 cf4e 0080 3877 0080
00000340: ef7f 0000 ef3c 0080 c1d3 0000 d2ae 0080
00000350: 2520 0080 cf0d 0080 3f29 0000 c155 0080
00000360: 19a4 0000 d65d 0000 138c 0000 e184 0080
00000370: db38 0000 2551 0080 a345 0000 ed5c 0000
00000380: 7841 0080 03be 0000 d97e 0000 f634 0000
00000390: e194 0000 4c73 0000 a435 0080 6f28 0080
000003a0: 3422 0080 8854 0000 d300 0080 988b 0000
000003b0: 97bf 0080 b5a9 0080 3b6e 0000 b5c4 0080
000003c0: 0aa4 0000 833f 0000 6293 0000 fe1e 0080
000003d0: 6e74 0000 9f2f 0000 6256 0080 6486 0080
000003e0: 8436 0080 4889 0080 d7b8 0000 cf0e 0000
000003f0: 319b 0080 a2b3 0080 9f52 0080 7b64 0080

mlp.12.bias f4 [128]
-1.2109e-41 4.1736e-41 1.1879e-41 2.9472e-41 8.8530534e-05 1.24567e-40 0.0049194004 0.0065315007
6.7962e-41 0.006754488 4.5437e-41 3.7312e-41 -4.46e-43 0.005793004 1.0225914e-17 0.010175879
1.2036e-41 -6.0034375e-37 -1.0297e-41 5.4183e-41 3.7541265e-16 -2.4932e-41 -1.6422e-41 -2.2779736e-22
-3.9444e-41 0.007964587 -3.136325e-39 -2.527e-41 4.4214932e-10 6.5007145e-05 0.00012078899 5.7214e-41
5.2158e-41 0.003487412 4.2887e-41 1.2917701e-08 -9.586e-42 0.00304709 -5.9795e-41 -5.7051e-41
-6.0881e-41 -6.7966e-41 3.539051e-11 2.6276e-41 0.00010185087 0.0017037865 2.1637096e-10 -1.1119667e-26
-2.3245e-41 3.876e-41 -2.7498702e-34 -5.3516e-41 3.7591e-41 1.11595e-40 0.009667234 1.647778e-06
7.071e-42 4.833e-41 0.0059086643 -5.5528e-41 3.2575e-41 7.931036e-09 3.965e-41 1.449737e-07
0.00037895894 -6.7816e-41 0.008138507 -1.8514e-41 -5.6739e-41 0.0014362528 0.012610959 4.0844e-41
-6.0299e-41 -3.8482e-41 -3.9077e-41 -2.6213e-41 -5.1502e-41 6.914242e-05 -4.0799e-41 -4.9344e-41
0.0024606495 4.2979e-41 2.2672e-41 7.5016e-41 -5.3043e-41 -4.8512e-41 -3.602292e-28 0.00015849542
3.0822e-41 0.003917223 0.010098113 -1.6852221e-23 -4.7853e-41 2.4008e-41 -4.5738e-41 -2.67937e-40
-2.4209e-41 1.4194e-41 -6.3943e-41 2.4912e-41 1.1495e-41 -1.4909806e-20 -6.853e-41 1.2616114e-05
-7.6741e-41 -2.6126e-41 -1.10366e-40 -4.393e-42 -4.9847e-41 0.0019317179 -2.710843e-23 4.8450493e-17
5.8926e-41 -7.098385e-35 -1.5535e-41 0.0010689818 1.5524e-41 -6.0502e-41 2.4250705e-06 0.009291935
3.9496e-41 1.2518e-41 1.7627e-41 0.007665072 -4.25e-43 9.3656e-41 5.5804e-41 2.8644e-41
00000000: c121 0080 5874 0000 1d21 0000 2852 0000
00000010: 78a9 b938 3e5b 0100 ec32 a13b 3306 d63b
00000020: 73bd 0000 c154 dd3b a97e 0000 0368 0000
00000030: 3e01 0080 3dd3 bd3b 83a2 3c23 bbb8 263c
00000040: 8d21 0000 5149 4c83 b41c 0080 0a97 0000
00000050: 2169 d825 8045 0080 c72d 0080 efb1 899b
00000060: f46d 0080 e67d 023c cc26 2280 7146 0080
00000070: fc12 f32f 7254 8838 1850 fd38 7d9f 0000
00000080: 6591 0000 108d 643b 8d77 0000 a6ec 5d32
00000090: b91a 0080 b0b1 473b afa6 0080 099f 0080
000000a0: b6a9 0080 76bd 0080 2ca6 1b2e 3f49 0000
000000b0: c598 d538 9751 df3a 03e7 6d2f 693f 5c94
000000c0: cc40 0080 0c6c 0000 9ec2 b687 2e95 0080
000000d0: ca68 0000 1537 0100 5163 1e3c 3929 dd35
000000e0: b613 0000 b986 0000 789d c13b ca9a 0080
000000f0: ce5a 0000 1141 0832 876e 0000 11aa 1b34
00000100: 02af c639 0bbd 0080 5f57 053c 9c33 0080
00000110: 2a9e 0080 a640 bc3a 329e 4e3c db71 0000
00000120: 17a8 0080 466b 0080 ee6c 0080 1249 0080
00000130: 918f 0080 8e00 9138 bb71 0080 8d89 0080
00000140: d942 213b cf77 0000 333f 0000 1dd1 0000
00000150: dd93 0080 3b87 0080 8852 e491 ca31 2639
00000160: eb55 0000 0c5c 803b 8e72 253c 14fc a299
00000170: 6585 0080 ed42 0000 807f 0080 e6ea 0280
00000180: 7c43 0080 9127 0000 3fb2 0080 7245 0000
00000190: 0b20 0000 b3d1 8c9e 09bf 0080 cca9 5337
000001a0: ecd5 0080 d448 0080 a833 0180 3f0c 0080
000001b0: f48a 0080 b231 fd3a 9c16 039a 3f70 5f24
000001c0: 43a4 0000 1bb5 bc86 4e2b 0080 141d 8c3a
000001d0: 462b 0000 a8a8 0080 65be 2236 333d 183c
000001e0: 196e 0000 e522 0000 2331 0000 492b fb3b
000001f0: 2f01 0080 1305 0100 8f9b 0000 d94f 0000

mlp.15.weight f4 [64, 128]
-5.8525e-41 7.888031e-20 -3.5292e-41 3.194e-41 0.0005089491 8.072e-41 0.020977223 0.027074132
1.8755e-41 0.027908586 -1.6053e-41 -1.4384e-41 -4.3712e-41 0.024307562 1.3466535e-16 0.04047539
3.7258e-41 2.2241506e-26 1.3487e-41 -5.8349e-41 4.9551766e-15 6.3037e-41 -5.0656e-41 1.7574795e-21
-7.1557e-41 0.03240082 -3.606903e-39 -3.8255e-41 4.7093645e-09 0.00037473885 0.0006778417 -7.276e-41
4.17147e-40 0.015435071 2.9597e-41 1.3890838e-07 -6.7865e-41 0.013594196 -2.035e-41 -1.4879e-41
-2.264e-41 6.9453e-41 3.7619216e-10 6.0222e-41 0.00056911324 0.007935037 1.8577838e-09 5.086691e-26
-3.276e-41 -5.3402e-41 3.4589555e-34 -3.5397e-41 3.9334e-41 -1.26612e-40 0.038657896 1.2155316e-05
1.733e-42 -1.8748e-41 0.02474284 -4.9242e-41 1.3989e-41 7.2577805e-08 4.945778e-31 1.2689029e-06
0.0019644406 -6.0034e-41 0.033019528 1.15313e-40 -2.2812e-41 0.0067771804 0.049468897 -3.6361e-41
-5.4328e-41 -2.242e-42 -1.5246e-41 3.702e-41 -4.1069e-41 0.00039867216 -5.818675e-23 -2.5435e-41
0.011163679 -4.079e-42 -2.5463e-41 4.9186e-41 -6.2673e-41 -2.67581e-40 1.1131812e-27 0.0008711383
-1.0696e-41 0.017146057 0.04025871 1.1375555e-23 5.218e-42 2.079242e-30 -5.3183e-41 5.4566e-40
2.1945172e-24 -3.327e-42 4.31247e-40 9.1805e-41 -1.0207e-41 6.562337e-20 9.7015e-41 7.922645e-05
9.1589e-41 -2.3351e-41 -4.3932e-41 -6.7009e-41 -2.5963e-41 0.008958503 6.9247454e-23 7.274777e-16
-5.6547e-41 -1.49e-42 -9.3673e-41 0.005184338 -1.5278e-41 -4.5822e-41 1.7244658e-05 0.03726443
-5.3077e-41 -1.73215e-40 1.5657e-41 0.03130085 6.405e-41 5.3565e-41 -5.4638e-41 4.237e-41
5.6437e-41 4.0611e-41 6.429e-41 2.5484e-41 -2.1437e-41 -1.09858e-40 3.1112e-41 5.5852e-41
3.2073e-41 3.5265e-41 -7.87e-42 -5.1084e-41 1.1418e-41 -4.0761e-41 3.2422e-41 8.708e-42
-6.826e-41 1.3403e-41 6.672e-42 -6.0863e-41 1.5734e-41 7.7324e-41 -3.84e-41 6.9852e-41
-7.343e-41 4.4125e-41 2.4835e-41 -2.4048e-41 1.243e-42 -3.9807e-41 -9.83e-42 -3.9367e-41
-2.436e-41 -6.9793e-41 -1.9088e-41 -5.7141e-41 -6.8155e-41 -6.202e-41 -6.162e-41 7.3109e-41
-1.1765e-41 -7.3232e-41 6.6618e-41 -2.3364e-41 6.156e-41 -6.9154e-41 -3.294e-41 -2.675e-41
5.9498e-41 -7.332e-41 -3.9334e-41 -2.2562e-41 -7.2605e-41 7.15e-42 -2.758e-42 6.8969e-41
-9.2197e-41 7.0677e-41 -2.0577e-41 -2.3417e-41 -5.7626e-41 3.981e-42 -4.9728e-41 5.757e-41
-3.416e-42 6.2491e-41 -3.1316e-41 -2.3483e-41 -4.9982e-41 5.876e-42 -2.011e-41 -2.1029e-40
-1.299e-42 9.295e-42 -1.8954e-41 -5.0616e-41 4.1187e-41 5.5838e-41 4.888e-41 -8.985e-42
-6.8477e-41 1.70098e-40 -2.9912e-41 1.73e-41 -3.1158e-41 9.1485e-41 -4.237e-41 2.946e-42
3.3781e-41 2.7877e-41 4.47e-42 5.1976e-41 -1.3688e-41 7.445e-42 -5.4403e-41 -1.69082e-40
-1.5716e-41 -8.5259e-41 -3.5719e-41 1.1114e-41 6.0158e-41 2.2202e-41 1.63885e-40 -2.3933e-41
-4.0935e-41 -5.03e-43 -2.472e-41 -4.2647e-41 -7.27e-42 -7.1342e-41 8.388e-42 9.8925e-41
-8.751e-41 -6.4086e-41 -6.6391e-41 -2.923e-41 -3.846e-41 -3.0688e-41 -4.138e-41 -5.5794e-41
3.556e-42 5.6184e-41 -1.3098e-41 -2.5958e-41 -9.1159e-41 -4.7065e-41 -9.1e-43 2.8025e-41
00000000: 25a3 0080 3940 ba1f 6162 0080 0959 0000
00000010: ff6a 053a 04e1 0000 6dd8 ab3c 92ca dd3c
00000020: 4834 0000 8ca0 e43c c02c 0080 1928 0080
00000030: da79 0080 a720 c73c 3242 1b25 86c9 253d
00000040: dc67 0000 eb44 dc14 9925 0000 a7a2 0080
00000050: 7087 b227 b9af 0000 358d 0080 99ca 041d
00000060: 79c7 0080 b9b6 043d 9446 2780 a46a 0080
00000070: 02d0 a131 9978 c439 30b1 313a d3ca 0080
00000080: d68a 0400 61e3 7c3c 8152 0000 d826 1534
00000090: 2ebd 0080 31ba 5e3c ba38 0080 7a29 0080
000000a0: 1c3f 0080 9bc1 0000 57d0 ce2f e0a7 0000
000000b0: 8b30 153a f501 023c f554 ff30 78e1 7b15
000000c0: 525b 0080 dd94 0080 14e3 e507 ac62 0080
000000d0: a66d 0000 f160 0180 be57 1e3d afee 4b37
000000e0: d504 0000 4334 0080 7fb1 ca3c 4489 0080
000000f0: ff26 0000 12dc 9b33 eb7f 200d 2c4f aa35
00000100: d8bd 003b 5aa7 0080 7c3f 073d 7241 0100
00000110: 973f 0080 1c13 de3b e69f 4a3d 5c65 0080
00000120: 7297 0080 4006 0080 802a 0080 3267 0000
00000130: 7c72 0080 df04 d139 dbaf 8c9a e746 0080
00000140: dde7 363c 5f0b 0080 fb46 0080 1c89 0000
00000150: b5ae 0080 e8e9 0280 fe63 b012 1a5d 643a
00000160: d11d 0080 e375 8c3c 51e6 243d 0509 5c19
00000170: 8c0e 0000 2bb0 280e 4194 0080 14f1 0500
00000180: e4ca 2918 4609 0080 24b2 0400 eaff 0000
00000190: 741c 0080 e5f2 9a1f 700e 0100 6026 a638
000001a0: 50ff 0000 1841 0080 777a 0080 cbba 0080
000001b0: 6048 0080 afc6 123c 196e a71a 61ae 5126
000001c0: a19d 0080 2704 0080 1f05 0180 61e1 a93b
000001d0: 972a 0080 bc7f 0080 9fa8 9037 96a2 183d
000001e0: f593 0080 dae2 0180 a52b 0000 5235 003d
000001f0: 8cb2 0000 5195 0000 4f98 0080 1c76 0000
00000200: 539d 0000 3571 0000 37b3 0000 0a47 0000
00000210: c23b 0080 3d32 0180 ba56 0000 b19b 0000
00000220: 6859 0000 4e62 0000 f015 0080 678e 0080
00000230: d41f 0000 a071 0080 615a 0000 4618 0000
00000240: 48be 0080 5d25 0000 9912 0000 a9a9 0080
00000250: dc2b 0000 8cd7 0000 0b6b 0080 b8c2 0000
00000260: b1cc 0080 017b 0000 3b45 0000 0943 0080
00000270: 7703 0000 f76e 0080 671b 0080 bd6d 0080
00000280: e843 0080 8ec2 0080 3635 0080 499f 0080
00000290: fdbd 0080 e3ac 0080 c6ab 0080 cccb 0000
000002a0: cc20 0080 24cc 0080 b4b9 0000 2141 0080
000002b0: 9bab 0000 c6c0 0080 d35b 0080 914a 0080
000002c0: dba5 0000 63cc 0080 a66d 0080 e53e 0080
000002d0: 65ca 0080 ee13 0000 b007 0080 42c0 0000
000002e0: 0201 0180 05c5 0000 5c39 0080 4741 0080
000002f0: a3a0 0080 190b 0000 9f8a 0080 7ba0 0000
00000300: 8609 0080 33ae 0000 4c57 0080 7641 0080
00000310: 548b 0080 6110 0000 0f38 0080 344a 0280
00000320: 9f03 0080 e919 0000 d634 0080 198d 0080
00000330: d072 0000 a79b 0000 4288 0000 0c19 0080
00000340: e3be 0080 2ada 0100 6253 0080 3a30 0000
00000350: db56 0080 06ff 0000 1c76 0080 3608 0000
00000360: 2b5e 0000 b64d 0000 760c 0000 e390 0000
00000370: 2826 0080 c114 0000 a797 0080 55d7 0180
00000380: cf2b 0080 abed 0080 9263 0080 fb1e 0000
00000390: b2a7 0000 e43d 0000 d8c8 0100 b742 0080
000003a0: 1c72 0080 6701 0080 e944 0080 e276 0080
000003b0: 4414 0080 dfc6 0080 6217 0000 c313 0100
000003c0: f1f3 0080 a5b2 0080 12b9 0080 7b51 0080
000003d0: 366b 0080 8c55 0080 5a73 0080 889b 0080
000003e0: ea09 0000 9e9c 0000 8324 0080 5c48 0080
000003f0: 1dfe 0080 3383 0080 8902 0080 1f4e 0000

mlp.15.bias f4 [64]
0.019153828 3.474e-42 0.011473779 0.0004077101 6.2928e-41 0.011169917 3.6584e-41 2.1352e-41
3.9374e-41 -6.7502e-41 -3.3593e-41 -9.278494e-16 2.3040252e-06 4.2244e-41 5.4143e-41 0.024264412
4.2566e-41 0.006637519 -5.4754e-41 -2.9615e-41 1.274e-41 2.2625e-41 -8.298e-42 -4.5698045e-20
-3.0123857e-17 6.922e-41 3.882e-42 0.027223974 -8.6132e-41 6.2526e-41 5.7258157e-25 8.656e-42
5.371e-41 5.0577e-41 3.3647e-41 -4.912423e-36 -1.19277e-40 -3.3523e-41 3.5648e-41 -1.6149e-41
5.3652e-41 -3.3921e-41 0.025240673 0.017883837 -3.0118e-41 -4.9344e-41 0.011920948 6.9046e-41
1.1703738e-08 0.0015293026 2.3266e-41 -4.9637e-41 -2.60911e-17 -4.0925e-41 0.020739995 1.8099e-41
-1.0779492e-35 0.0018960094 0.036493335 -4.7427e-41 -5.0562e-41 2.9630164e-05 -3.3823e-41 0.01611475
00000000: 7de8 9c3c af09 0000 84fc 3b3c ecc1 d539
00000010: 6baf 0000 0702 373c fb65 0000 853b 0000
00000020: c26d 0000 2bbc 0080 a55d 0080 9ab7 85a6
00000030: da9e 1a36 c275 0000 ee96 0000 29c6 c63c
00000040: a876 0000 8c7f d93b a298 0080 8e52 0080
00000050: 8423 0000 123f 0000 2217 0080 8ccd 579f
00000060: f9eb 0aa4 f5c0 0000 d20a 0000 d004 df3c
00000070: 1af0 0080 4cae 0000 9634 3117 2118 0000
00000080: b995 0000 fd8c 0000 cb5d 0000 8df3 d084
00000090: 7f4c 0180 735d 0080 5f63 0000 042d 0080
000000a0: 8f95 0000 8f5e 0080 87c5 ce3c 2081 923c
000000b0: f553 0080 8d89 0080 1450 433c 79c0 0000
000000c0: 9611 4932 e172 c83a db40 0000 5e8a 0080
000000d0: dea5 f0a3 1572 0080 ece6 a93c 7432 0000
000000e0: 2341 6585 8583 f83a 097a 153d 3584 0080
000000f0: f28c 0080 4b8e f837 495e 0080 1503 843c

mlp.18.weight f4 [8, 64]
3.8403e-41 -2.3046e-41 -6.5603e-41 -4.7709e-41 4.3358e-41 1.3413e-41 -1.3375e-41 -2.266e-41
-1.03648e-40 -3.4562e-41 4.6176e-41 -5.9781e-41 5.73e-42 4.9017e-41 -5.9402e-41 1.798e-41
8.3974e-41 4.8067e-41 1.4602e-41 6.2226e-41 7.284e-42 3.1005e-41 1.3835e-41 5.255e-41
5.7666e-41 2.1409e-41 6.033e-42 3.3492e-41 -1.24257e-40 -4.5663e-41 2.5676e-41 6.5341e-41
7.1011e-41 1.1761e-41 4.1061e-41 -5.2107e-41 8.7423e-41 -1.6582e-41 6.7274e-41 -4.4385e-41
-1.2825e-41 5.5497e-41 4.3146e-41 -2.5121e-41 6.5058e-41 -8.1194e-41 2.0083e-41 -1.596e-42
-4.7228e-41 1.3052e-41 -6.7436e-41 2.756e-41 -2.063e-41 -1.09656e-40 6.03e-42 3.5386e-41
-6.1018e-41 -1.7146e-41 3.1906e-41 -1.613e-41 1.6125e-41 -4.2552e-41 -4.1068e-41 2.5691e-41
0.06612386 2.3201e-41 0.04722149 0.0022096147 1.6453e-41 0.044060316 -4.3443e-41 7.807301e-27
1.307e-41 -3.1819e-41 4.623011e-12 -4.926855e-16 1.1764932e-05 3.019e-41 5.2488e-41 0.09121284
-4.085e-41 0.027229661 -3.6914512e-33 -4.259e-42 -2.5896e-41 4.539e-42 -4.2024e-41 1.0027684e-20
1.1440116e-18 -1.57e-41 5.1998e-41 0.108031824 -5.2337e-41 1.1286e-41 -2.5422645e-20 3.3543e-41
-3.923704e-06 1.5690045e-33 -3.3351e-41 -6.140398e-36 6.4135e-41 5.524e-41 -1.4635e-41 4.6145e-41
2.3162903e-09 5.0415e-41 0.09408713 0.06692431 5.8391e-41 -4.1677e-41 0.05542243 -7.402e-42
3.7629093e-08 0.006465202 -2.4999e-41 8.223e-42 5.621702e-17 -8.91531e-22 0.09078984 -1.6426e-41
-1.3064367e-35 0.008456514 0.14933972 -7.0219e-41 -1.319073e-25 7.246339e-05 -2.3564e-41 0.06413705
-6.2018884e-12 4.785e-42 -1.4881367e-11 -2.0234387e-13 6.795e-42 -3.3737195e-12 5.0088e-41 4.8776e-41
5.6269e-41 -5.293e-42 9.923818e-16 -1.4167907e-24 -1.695921e-14 -6.037e-42 -8.776e-42 2.588367e-13
-1.7277e-41 2.489537e-09 -1.07185e-40 2.3871e-41 -6.2937e-41 9.67e-42 -3.8506e-41 3.8996285e-28
-6.012796e-26 -6.1807e-41 5.057e-41 -2.2451624e-11 -6.992e-41 3.5673e-41 1.6255424e-35 2.3174771e-30
2.5179479e-09 -3.0289e-41 -4.7414e-41 -5.192e-42 4.0967e-41 2.148e-41 9.1261e-41 6.5701e-41
-5.3055826e-26 4.0395139e-22 9.6382476e-14 -3.791845e-13 3.5558e-41 5.8536e-41 -1.2698484e-12 -5.9527e-41
-6.696707e-14 -4.727192e-12 1.6219e-41 -5.0469e-41 5.4359018e-18 -3.377e-42 -6.956566e-12 -5.0258e-41
-3.406e-41 -5.3655875e-13 -4.5297364e-12 9.04e-43 3.144146e-17 -9.437237e-08 4.99e-42 -1.5776717e-12
0.017500734 5.49e-42 0.010521938 0.0004150161 2.5306e-41 0.0101827895 3.2723e-41 1.1767831e-29
3.5402e-41 -1.778e-42 6.565e-42 -2.0525787e-15 3.0851845e-06 -4.53e-42 -4.8416e-41 0.022444826
3.377e-42 0.006054527 3.5792e-41 -3.8096e-41 7.8718e-41 -1.3719e-41 -4.9288e-41 -2.4344864e-19
-7.0861665e-17 -4.6296e-41 4.7779e-41 0.025379987 -5.4836e-41 5.2082e-41 -1.7119959e-22 6.0591e-41
-6.3320404e-26 1.5155766e-36 4.6127e-41 -2.854554e-36 -4.055e-42 3.865e-42 -4.617e-41 3.6516e-41
3.3131207e-15 6.5299e-41 0.02349873 0.016339686 4.2527e-41 4.7636e-41 0.011136681 -1.5283e-41
-1.4545825e-08 0.0014386392 -6.9963e-41 -1.947e-41 -2.3943475e-16 5.8245e-41 0.019536555 4.7592e-41
-3.613398e-36 0.0018291422 0.03509523 4.7374e-41 -3.1078e-41 1.5934014e-05 -3.2524e-41 0.014811759
00000000: 0d6b 0000 3e40 0080 e0b6 0080 fe84 0080
00000010: dd78 0000 6425 0000 4925 0080 2b3f 0080
00000020: ee20 0180 5860 0080 b880 0000 a5a6 0080
00000030: f90f 0000 a488 0000 97a5 0080 1f32 0000
00000040: 16ea 0000 fe85 0000 b428 0000 76ad 0000
00000050: 4e14 0000 6e56 0000 9126 0000 7d92 0000
00000060: c0a0 0000 ae3b 0000 d110 0000 5d5d 0000
00000070: 615a 0180 4a7f 0080 9347 0000 25b6 0000
00000080: f3c5 0000 c920 0000 7672 0000 4191 0080
00000090: b3f3 0000 392e 0080 88bb 0000 ba7b 0080
000000a0: c023 0080 b49a 0000 4678 0000 0746 0080
000000b0: 5bb5 0000 56e2 0080 fc37 0000 7304 0080
000000c0: a783 0080 6224 0000 fcbb 0080 d34c 0000
000000d0: 8239 0080 ad31 0180 cf10 0000 a462 0000
000000e0: 18aa 0080 cc2f 0080 f158 0000 f72c 0080
000000f0: f32c 0000 9e76 0080 7b72 0080 9e47 0000
00000100: f26b 873d ad40 0000 526b 413d 2fcf 103b
00000110: dd2d 0000 9778 343d 1a79 0080 b8a3 1a14
00000120: 6f24 0000 b358 0080 62a8 a22c c601 0ea6
00000130: 0062 4537 2854 0000 5192 0000 cccd ba3d
00000140: e071 0080 bd10 df3c 3e56 9989 df0b 0080
00000150: 3048 0080 a70c 0000 2575 0080 e86a 3d1e
00000160: 89d3 a821 c42b 0080 f390 0000 ca3f dd3d
00000170: e591 0080 761f 0000 2f1c f09e 815d 0000
00000180: 5ca8 83b6 0959 0209 f85c 0080 8297 0285
00000190: c8b2 0000 fd99 0000 cc28 0080 a280 0000
000001a0: 9c2c 1f31 898c 0000 c1b0 c03d 9d0f 893d
000001b0: c5a2 0000 2e74 0080 a102 633d a214 0080
000001c0: a09d 2133 0cda d33b b045 0080 ec16 0000
000001d0: aca0 8124 6fb9 869c 06f0 b93d ca2d 0080
000001e0: 97ec 8a85 318d 0a3c 83ec 183e bec3 0080
000001f0: 184b 2396 7cf7 9738 b041 0080 495a 833d
00000200: a535 daac 570d 0000 dce5 82ad a6d1 63aa
00000210: f112 0000 8767 6dac a08b 0000 f887 0000
00000220: db9c 0000 c10e 0080 6d04 8f26 dd3c db97
00000230: 47c1 98a8 d410 0080 7718 0080 4db6 912a
00000240: 2930 0080 6614 2b31 ca2a 0180 8b42 0000
00000250: 71af 0080 f51a 0000 576b 0080 172b f711
00000260: 9fde 9495 4bac 0080 f88c 0000 907c c5ad
00000270: e9c2 0080 7163 0000 79db ac05 1e04 3c0e
00000280: 3508 2d31 6f54 0080 2c84 0080 790e 0080
00000290: 3372 0000 e13b 0000 66fe 0000 26b7 0000
000002a0: 205c 8395 732c f41b b708 d929 3f76 d5aa
000002b0: 1f63 0000 2da3 0000 1cb7 b2ab f0a5 0080
000002c0: e3cb 96a9 c352 a6ac 362d 0000 b08c 0080
000002d0: a48c c822 6a09 0080 2dc3 f4ac 198c 0080
000002e0: f25e 0080 2207 17ab 3d60 9fac 8502 0000
000002f0: 86ff 1024 c2a9 cab3 e90d 0000 9d09 deab
00000300: b35d 8f3c 4e0f 0000 3564 2c3c 8596 d939
00000310: 8b46 0000 b7d5 263c 385b 0000 12ae 6e0f
00000320: b062 0000 f504 0080 4d12 0000 65e7 13a7
00000330: 110b 4f36 a10c 0080 f786 0080 36de b73c
00000340: 6a09 0000 0e65 c63b c663 0000 326a 0080
00000350: 6fdb 0000 3e26 0080 6589 0080 ebb4 8fa0
00000360: 5865 a3a4 0e81 0080 3085 0000 b1e9 cf3c
00000370: dc98 0080 2f91 0000 b5f7 4e9b e7a8 0000
00000380: 13c6 9c95 56ee 0004 9580 0000 aed6 7284
00000390: 4e0b 0080 c60a 0000 b480 0080 cb65 0000
000003a0: 4abc 6e27 07b6 0000 6980 c03c ceda 853c
000003b0: 8c76 0000 ca84 0000 a076 363c 9a2a 0080
000003c0: 37e5 79b2 b990 bc3a 07c3 0080 4636 0080
000003d0: 5506 8aa5 5da2 0000 200b a03c ab84 0000
000003e0: 6cb2 9984 d4bf ef3a 04c0 0f3d 0f84 0000
000003f0: a256 0080 09aa 8537 aa5a 0080 05ad 723c

mlp.18.bias f4 [8]
-3.6116e-41 0.086396426 1.2123176e-11 0.021315625 0.11827942 1.6739104e-13 -3.5683e-41 8.9823036e-05
00000000: ad64 0080 9cf0 b03d ee45 552d 1b9e ae3c
00000010: 7b3c f23d 2f77 3c2a 7863 0080 605f bc38

mlp.21.weight f4 [1, 8]
-1.8357e-41 -0.28608066 -8.6930095e-11 -0.07150615 -0.39400697 0.00056797155 -1.5676e-41 -0.00048604098
00000000: 2c33 0080 2a79 92be 4b29 bfae d171 92bd
00000010: 48bb c9be ede3 143a b32b 0080 51d3 feb9
