model_saved/2024-01-25-07-49-50/model_2024-01-25-07-51-28_epoch_14000_train_mse_1.94e-02_val_mse_1.99e-02.pt (torch, 88343 bytes, 15 tensors)

mlp.0.weight f4 [8, 8]
6.2837e-41 2.6929e-41 3.681e-42 5.1461e-41 -1.355e-42 -4.5907e-41 1.969e-41 -6.0326e-41
0.004406846 -0.0017510359 2.283576e-05 1.391987e-05 1.297816e-05 1.1956251e-05 7.441607e-06 5.837421e-06
-0.022268023 0.05778531 0.01727421 -5.05865e-05 7.277497e-05 8.005225e-05 0.0011108974 -0.0002955843
-0.017582955 0.041336555 0.012287571 2.1907179e-05 8.433209e-05 7.020291e-05 0.00080780603 -0.00015443466
0.11013449 -0.055983234 0.003985744 0.00022467786 0.00019966475 0.00017259232 0.00014998902 0.00011428908
-0.08147834 0.18856199 0.059200503 0.00048737918 0.00093121757 0.0010088318 0.0044157077 -0.00032468798
0.07706801 0.3368457 0.16375038 0.0014222793 0.0024205304 0.002619543 0.009633629 -0.00045599206
-0.0156643 0.08877893 0.028281625 0.00018517481 0.00039159425 0.00042485894 0.0019979943 -0.00011720367
00000000: 2aaf 0000 114b 0000 430a 0000 748f 0000
00000010: c703 0080 f87f 0080 e336 0000 2aa8 0080
00000020: 4e67 903b 0483 e5ba 6c8f bf37 6389 6937
00000030: c6bc 5937 b597 4837 ebb2 f936 11df c336
00000040: 6e6b b6bc 4ab0 6c3d a582 8d3c d72c 54b8
00000050: c49e 9838 b9e1 a738 889b 913a a7f8 9ab9
00000060: 210a 90bc 8550 293d cf51 493c 4fc5 b737
00000070: 72db b038 e639 9338 f2c2 533a bdef 21b9
00000080: 318e e13d ad4e 65bd d89a 823b 8197 6b39
00000090: 195d 5139 e6f9 3439 5f46 1d39 7cae ef38
000000a0: 1ede a6bd 6516 413e 3a7c 723d ed86 ff39
000000b0: f41c 743a c73a 843a a4b1 903b e23a aab9
000000c0: d5d5 9d3d 0a77 ac3e 2eae 273e c66b ba3a
000000d0: c3a1 1e3b a4ac 2b3b 5ed6 1d3c 3812 efb9
000000e0: 6b52 80bc bad1 b53d deae e73c 7c2b 4239
000000f0: e44e cd39 9abf de39 c8f0 023b 3ecb f5b8

mlp.0.bias f4 [8]
-4.481e-42 2.751665e-06 -0.000102519574 7.1102495e-06 3.2658914e-05 0.00031659048 0.0011662691 0.00018331363
00000000: 7e0c 0080 3fa9 3836 c7ff d6b8 9494 ee36
00000010: 3efb 0838 0efc a539 7fdd 983a e137 4039

mlp.3.weight f4 [16, 8]
4.6255e-41 -0.00016786087 0.006194364 0.00446799 -0.0040315776 0.021562621 0.042867832 0.009953447
8.454e-42 -2.522282e-06 3.7302252e-05 5.2243773e-05 -6.173685e-05 0.00026466526 0.00068921974 0.00014058364
-4.0443e-41 -0.00020898264 0.0070117745 0.005147127 -0.005057049 0.024429819 0.05469358 0.011395763
-4.0894e-41 3.3417352e-06 -7.349594e-05 -5.6394605e-05 0.0012272225 -0.00028684823 0.00025670615 -0.00033208335
2.1422e-41 4.624e-42 4.5417e-41 -2.8416e-41 -4.3632e-41 6.6272e-41 -3.7528e-41 2.8e-43
-3.7329e-41 -2.0984e-41 -2.9268e-41 3.9158e-41 1.2172e-41 6.1155e-41 5.45e-43 -1.5788e-41
3.2227e-41 -5.22157e-06 0.00014635289 -3.9468086e-05 -0.00013234926 0.0003088852 0.0017392323 0.00030169706
-3.1392e-41 -0.0006206948 0.021877334 0.01566237 -0.0133250365 0.07402803 0.15529297 0.0337917
4.5289e-41 -3.4751e-41 1.7666e-41 4.708e-41 -3.9089e-41 -2.091e-41 -4.9149e-41 6.896e-41
-3.9759e-41 -0.0012149941 0.036835343 0.026398646 -0.019998906 0.12380864 0.24907652 0.057800908
2.1667e-41 -5.3357e-41 -6.0089e-41 -7.1602e-41 -2.9507e-41 5.2699e-41 -1.0336e-41 4.4034e-41
-5.2668e-41 -0.0014052367 0.03969381 0.028475551 -0.035651524 0.13349314 0.274644 0.06068202
5.0126e-41 -5.5116e-41 1.8989e-41 -9.457e-42 -5.716e-41 1.0042036e-29 -6.4038588e-09 8.980268e-21
-5.528e-42 -3.8602e-41 -3.2949e-41 -2.5909e-41 -1.8457e-41 -9.193e-42 -4.2204e-41 -1.0166e-41
1.928e-42 2.7946e-41 -4.0615e-41 -5.918e-42 4.6321e-41 -3.3567e-41 -2.8408323e-22 8.237e-42
9.155e-42 -0.0003819673 0.013119351 0.009447139 -0.0087067615 0.044980284 0.095103525 0.020734157
00000000: f180 0000 cf03 30b9 17fa ca3b 3768 923b
00000010: 531b 84bb 18a4 b03c 2e96 2f3d c813 233c
00000020: 9117 0000 7a44 29b6 fd74 1c38 5320 5b38
00000030: b878 81b8 c5c2 8a39 c1ac 343a a269 1339
00000040: bd70 0080 5a22 5bb9 07c3 e53b 3ba9 a83b
00000050: 9ab5 a5bb 0b21 c83c 6006 603d 4bb5 3a3c
00000060: ff71 0080 9342 6036 d521 9ab8 3f89 6cb8
00000070: c1da a03a 1e64 96b9 8496 8639 791b aeb9
00000080: b73b 0000 e40c 0000 9b7e 0000 364f 0080
00000090: a179 0080 bdb8 0000 9d68 0080 c800 0000
000000a0: 0f68 0080 7f3a 0080 9651 0080 286d 0000
000000b0: ee21 0000 7aaa 0000 8501 0000 032c 0080
000000c0: d659 0000 f234 afb6 4e76 1939 898a 25b8
000000d0: 3cc7 0ab9 dff1 a139 f4f6 e33a 182d 9e39
000000e0: 8257 0080 1fb6 22ba 1838 b33c 5f4e 803c
000000f0: 4151 5abc 029c 973d 1f05 1f3e 2a69 0a3d
00000100: 3f7e 0000 df60 0080 3f31 0000 3d83 0000
00000110: f76c 0080 4a3a 0080 0289 0080 3cc0 0000
00000120: d56e 0080 7040 9fba a8e0 163d f941 d83c
00000130: bfd4 a3bc 628f fd3d ea0d 7f3e a5c0 6c3d
00000140: 663c 0000 bd94 0080 81a7 0080 99c7 0080
00000150: 4152 0080 e792 0000 d01c 0080 c07a 0000
00000160: d192 0080 eb2f b8ba fa95 223d 8f45 e93c
00000170: 5507 12bd 6db2 083e 239e 8c3e b68d 783d
00000180: bb8b 0000 a499 0080 ef34 0000 5d1a 0080
00000190: 579f 0080 3bad 4b0f f008 dcb1 e9a1 291e
000001a0: 690f 0080 9b6b 0080 d95b 0080 3948 0080
000001b0: 7333 0080 a019 0080 a675 0080 571c 0080
000001c0: 6005 0000 e74d 0000 3871 0080 7f10 0080
000001d0: 2081 0000 925d 0080 c0b7 ab9b f616 0000
000001e0: 8519 0000 c842 c8b9 8cf2 563c 2cc8 1a3c
000001f0: cea6 0ebc 3f3d 383d a3c5 c23d aeda a93c

mlp.3.bias f4 [16]
0.00019219906 1.5191671e-06 0.00028653923 -2.9230146e-06 -5.2177e-41 -2.1155e-41 4.553367e-06 0.00083202665
3.5379e-41 0.0016948624 5.1114e-41 0.0018522255 -1.0678e-41 3.5939e-41 2.534e-42 0.00049486634
00000000: 0b89 4939 2fe6 cb35 a53a 9639 0229 44b6
00000010: 7391 0080 f93a 0080 20c9 9836 5d1c 5a3a
00000020: 9f62 0000 2526 de3a 7c8e 0000 60c6 f23a
00000030: c41d 0080 2f64 0000 1007 0000 ebb9 013a

mlp.6.weight f4 [32, 16]
-4.623e-41 -4.7978e-41 9.99e-43 -5.9042e-41 9.53e-43 -4.0974e-41 5.9726e-41 7.1246e-41
-6.555e-41 -1.3434e-41 -2.5986e-41 1.5092e-41 4.612e-41 5.3895e-41 -1.8915e-41 5.8262e-41
0.0077399514 0.00010544126 0.008884719 -2.7234917e-05 3.7682e-41 4.6927e-41 0.00023424029 0.029435445
-1.2502e-41 0.04506842 -4.037e-42 0.04859944 2.081e-41 -4.7693e-41 2.6314e-41 0.016234526
0.038294498 0.000478113 0.03746559 -0.0003840859 2.3168e-41 4.0778e-41 0.0010318374 0.093685664
3.8897e-41 0.19377762 2.9488e-41 0.19417848 1.1575118e-38 1.504e-42 -4.935e-41 0.07043093
0.01153166 0.00015900409 0.013422545 -4.346462e-05 2.2632e-41 3.4768e-41 0.00035166647 0.04502738
-1.6202e-41 0.06647984 -3.1952e-41 0.07332698 1.7532e-41 -1.292e-42 5.9547e-41 0.024420084
2.5206098e-06 3.356166e-08 2.6631806e-06 -1.0949017e-08 -3.9605e-41 -6.808e-41 7.338065e-08 4.3168053e-05
-1.18341e-40 3.373686e-06 1.5456e-41 1.3848379e-05 -5.1601e-41 -1.2092e-41 -2.925e-41 5.078226e-06
4.3513e-41 -2.84e-43 3.738e-41 -2.0137e-41 -4.4047e-41 -5.961e-42 -3.9224e-41 -3.7615e-41
-9.267e-42 1.897e-42 4.8081e-41 4.9927e-41 6.4188e-41 2.0376e-41 -4.545e-41 -5.778e-42
2.228e-41 1.39e-43 -6.45e-43 -3.6572e-41 2.63e-41 -1.303e-41 3.8585e-41 2.469e-42
-6.4435e-41 -1.4649e-41 8.837e-42 -4.8137e-41 -5.2334e-41 -3.2251e-41 -5.4693e-41 8.377e-42
2.4241477e-05 3.0854957e-07 2.619048e-05 -6.983049e-08 -4.9942e-41 -4.8021e-41 7.1032076e-07 9.235518e-05
9.0176e-41 0.00014581172 -2.9083e-41 0.00015556249 9.647e-42 3.3878e-41 6.413e-41 4.9065584e-05
0.0070603043 8.83746e-05 0.007084794 -3.409875e-05 -4.964e-41 -4.44e-43 0.00019174407 0.031164872
5.9566e-41 0.030604694 4.2521e-41 0.04188531 3.244e-42 -6.3077e-41 1.844e-41 0.013017526
7.5716257e-06 9.502025e-08 7.920466e-06 -2.2130568e-08 -3.5785e-41 -5.931e-41 2.2270874e-07 3.1553558e-05
3.9825e-41 4.6171546e-05 -5.8382e-41 4.82386e-05 1.0052e-41 -5.4588e-41 2.563e-41 1.5143401e-05
-4.8876e-41 -5.5367e-41 -6.7586e-41 5.1896e-41 -1.4359e-41 -2.581e-41 -3.5348e-41 -6.4032e-41
4.1357e-41 -1.9827e-41 2.747e-42 -2.6623e-41 -9.964e-41 5.506e-42 1.1262e-41 3.9103e-41
-5.0719e-41 4.1955e-41 -1.197e-41 4.601e-41 1.086e-42 4.523e-41 6.1352e-41 -1.4178e-41
-1.993e-42 -4.7985e-41 6.2127e-41 3.1644e-41 3.6969e-41 1.546e-41 5.6811e-41 3.0524e-41
8.596532e-19 6.0137e-41 4.9085e-41 9.73e-42 -1.1286e-41 -6.1954e-41 4.6e-44 -6.8171172e-15
-5.7152e-41 1.812267e-15 -5.6528e-41 -6.007801e-17 2.7416e-41 2.13342e-40 4.3914e-41 -1.1913878e-35
0.010530389 0.00013897027 0.011321761 -5.1519284e-05 1.8208e-41 -5.6936e-41 0.0003029466 0.036191743
-4.6264e-41 0.059853625 -5.0225e-41 0.062026665 -1.082e-42 2.9905e-41 -9.14e-42 0.020775804
-2.109e-42 -3.0318e-41 -2.7992e-41 -7.9e-43 6.1251e-41 -3.8697e-41 -4.8954e-41 -5.382e-42
5.3778e-41 1.2843e-41 -1.9526e-41 -5.4561e-41 4.1394e-41 1.7396e-41 -4.915e-41 -9.232e-42
3.2266717e-06 3.9596426e-08 3.4331817e-06 -9.321619e-09 2.147e-42 -5.1924e-41 9.162065e-08 1.3593015e-05
1.7631e-41 1.9203218e-05 -6.0133e-41 2.0828273e-05 2.2925e-41 6.3344e-41 3.3342e-41 6.435774e-06
00000000: df80 0080 be85 0080 c902 0000 96a4 0080
00000010: a802 0000 3872 0080 7ea6 0000 9bc6 0000
00000020: bab6 0080 7325 0080 7048 0080 122a 0000
00000030: 9080 0000 3d96 0000 ba34 0080 69a2 0000
00000040: 6b9f fd3b 5820 dd38 3691 113c 8a76 e4b7
00000050: 0b69 0000 d082 0000 669e 7539 9a22 f13c
00000060: da22 0080 aa99 383d 410b 0080 3510 473d
00000070: 033a 0000 f384 0080 5a49 0000 45fe 843c
00000080: b1da 1c3d 3eab fa39 8575 193d 235f c9b9
00000090: 9540 0000 ac71 0000 b83e 873a 45de bf3d
000000a0: 6e6c 0000 a46d 463e 3352 0000 b9d6 463e
000000b0: b80a 7e00 3104 0000 9189 0080 173e 903d
000000c0: 4aef 3c3c 56ba 2639 3cea 5b3c c84d 36b8
000000d0: 173f 0000 eb60 0000 e05f b839 a16e 383d
000000e0: 2a2d 0080 9526 883d 1259 0080 752c 963d
000000f0: df30 0000 9a03 0080 fea5 0000 a10c c83c
00000100: bf27 2936 6f25 1033 18b9 3236 491a 3cb2
00000110: 676e 0080 c8bd 0080 7095 9d33 580f 3538
00000120: e349 0180 7c67 6236 162b 0000 5656 6837
00000130: d88f 0080 b521 0080 8951 0080 a165 aa36
00000140: 4c79 0000 cb00 0080 3368 0000 2238 0080
00000150: c97a 0080 9e10 0080 576d 0080 db68 0080
00000160: d519 0080 4a05 0000 0886 0000 2d8b 0000
00000170: eeb2 0000 cd38 0000 b27e 0080 1b10 0080
00000180: 1c3e 0000 6300 0000 cc01 0080 f365 0080
00000190: 5049 0000 5324 0080 8f6b 0000 e206 0000
000001a0: 9eb3 0080 d628 0080 a218 0000 3086 0080
000001b0: e391 0080 e759 0080 7698 0080 5a17 0000
000001c0: 2d5a cb37 bba6 a534 a1b3 db37 b8f5 95b3
000001d0: 388b 0080 dd85 0080 dfac 3e35 cfae c138
000001e0: 60fb 0000 09e5 1839 1251 0080 7d1e 2339
000001f0: e41a 0000 705e 0000 c5b2 0000 c5cb 4d38
00000200: 205a e73b c155 b938 8f27 e83b 4105 0fb8
00000210: 608a 0080 3d01 0080 e80e 4939 794d ff3c
00000220: 0ca6 0000 b2b6 fa3c 8876 0000 ee8f 2b3d
00000230: 0b09 0000 d5af 0080 6733 0000 7647 553c
00000240: c50f fe36 ef0d cc33 24e2 0437 a219 beb2
00000250: c163 0080 55a5 0080 b621 6f34 6058 0438
00000260: 046f 0000 52a8 4138 bfa2 0080 cd53 4a38
00000270: 051c 0000 2b98 0080 7247 0000 6910 7e37
00000280: 3f88 0080 579a 0080 67bc 0080 aa90 0000
00000290: 0728 0080 f347 0080 8962 0080 7fb2 0080
000002a0: 4973 0000 4537 0080 a807 0000 374a 0080
000002b0: c115 0180 590f 0000 651f 0000 016d 0000
000002c0: 628d 0080 f474 0000 5e21 0080 4280 0000
000002d0: 0703 0000 157e 0000 06ab 0000 8627 0080
000002e0: 8e05 0080 c385 0080 2fad 0000 3658 0000
000002f0: 0e67 0000 192b 0000 5e9e 0000 1755 0000
00000300: 8fb9 7d21 a3a7 0000 d488 0000 201b 0000
00000310: 761f 0080 b4ac 0080 2100 0000 cf9c f5a7
00000320: 519f 0080 6d96 0227 949d 0080 cc87 8aa4
00000330: 6d4c 0000 b652 0200 6a7a 0000 5261 7d85
00000340: a787 2c3c 8cb8 1139 e87e 393c 6916 58b8
00000350: c232 0000 b79e 0080 ced4 9e39 cb3d 143d
00000360: f780 0080 1329 753d 028c 0080 ac0f 7e3d
00000370: 0403 0080 5d53 0000 7b19 0080 0532 aa3c
00000380: e105 0080 8454 0080 084e 0080 3402 0080
00000390: beaa 0000 df6b 0080 7788 0080 010f 0080
000003a0: e995 0000 cd23 0000 6e36 0080 1898 0080
000003b0: 6473 0000 7e30 0000 0389 0080 bc19 0080
000003c0: cc89 5836 bb10 2a33 9d65 6636 ea24 20b2
000003d0: fc05 0000 be90 0080 fcc0 c433 8e0d 6437
000003e0: 2631 0000 9916 a137 a0a7 0080 60b8 ae37
000003f0: e83f 0000 94b0 0000 f25c 0000 e1f2 d736

mlp.6.bias f4 [32]
-6.025e-41 0.0008468392 0.00414716 0.0013339291 1.9105065e-07 2.44e-42 4.7685e-41 1.463263e-06
0.0007470183 4.0917456e-07 3.4433e-41 1.634e-41 -8.817e-42 0.0011837226 -1.0696e-41 2.498843e-07
0.004020268 5.6405e-41 -1.4443e-41 6.0353e-41 5.1754e-41 2.489481e-07 0.00019559464 0.00031759878
4.8680324e-08 0.0006602148 1.9231e-41 -2.2337e-41 6.2111e-41 -9.301457e-19 -9.675e-42 3.519111e-05
00000000: f4a7 0080 6bfe 5d3a e6e4 873b 3cd7 ae3a
00000010: 9a23 4d34 cd06 0000 ed84 0000 5565 c435
00000020: 8dd3 433a 86ac db34 fc5f 0000 8d2d 0000
00000030: 9418 0080 2427 9b3a d11d 0080 d627 8634
00000040: 74bc 833b 3c9d 0000 4328 0080 3da8 0000
00000050: 4590 0000 2ba7 8534 8918 4d39 6383 a639
00000060: 9514 5133 4412 2d3a 9c35 0000 443e 0080
00000070: 24ad 0000 e943 89a1 f81a 0080 2b9a 1338

mlp.9.weight f4 [64, 32]
-5.8284e-41 2.8466439e-36 -3.969194e-31 -6.0491e-41 -6.353e-41 -4.8241e-41 2.433e-41 -3.5784e-41
3.4622e-41 4.0336e-41 -4.0207e-41 1.0353e-41 4.6852e-41 4.9848e-41 -9.4445e-41 -7.22e-43
-7.609e-42 -1.3067e-41 -3.3599e-41 -8.135e-42 -4.2389e-41 4.2635e-41 6.0978e-41 -3.097e-41
-4.96e-42 2.0589e-41 -7.099e-42 -5.5577e-41 -5.008e-41 -2.3699e-41 2.446e-41 7.858e-42
6.206e-42 -7.527104e-10 -4.461411e-08 -3.3211635e-11 -5.0241e-41 -1.984e-42 -3.4587e-41 -1.8726191e-24
2.5369274e-20 -7.5471564e-33 -4.7405e-41 -1.9488e-41 7.93152e-40 1.7235478e-13 -6.2841e-41 -5.736122e-35
5.0766683e-11 3.217e-41 -5.1034e-41 8.048e-42 -5.7673e-41 3.4515e-41 2.4670157e-12 5.8880377e-24
-6.625e-42 5.451708e-25 4.3367e-41 -2.2681e-41 -1.686e-41 1.0245e-41 1.7417e-41 3.2995897e-25
-1.9531e-41 0.0365539 0.14431049 0.05471662 1.2883397e-05 -5.6079e-41 -5.4595e-41 0.000117486685
0.029615223 3.640963e-05 -2.9724e-41 -3.7907e-41 -1.3056351e-17 0.04696918 -2.837e-41 1.544892e-05
0.1439507 -1.27164e-40 -1.6008e-41 3.6935e-41 6.1462e-41 1.7318256e-05 0.0119936885 0.015453527
3.852806e-06 0.02716098 -4.1742e-41 -5.5084e-41 2.2589e-41 4.0291117e-15 1.06462e-40 0.0024601703
-5.1271e-41 0.0015530401 0.0065336237 0.0022926042 5.160749e-07 -2.5944e-41 3.2828e-41 4.69656e-06
0.0011904503 1.4673653e-06 4.6534e-41 3.7825e-41 4.410022e-22 0.0019127177 -3.0048e-41 6.170868e-07
0.006138172 -7.9288e-41 -2.344e-41 1.6894e-41 -5.5902e-41 6.9684364e-07 0.00049028115 0.0006106024
1.5072018e-07 0.0010639604 3.5873e-41 -7.595e-42 -2.2747e-41 1.4061186e-16 1.9772e-41 9.783139e-05
-5.3646e-41 0.00014413934 0.0006274648 0.00021134625 4.5288417e-08 -7.756e-42 1.1208e-41 4.1949758e-07
0.00010833618 1.2802411e-07 -2.01e-41 -7.5561e-41 -5.0805e-41 0.00017556301 -3.2668e-41 5.453737e-08
0.00056814856 -2.3735e-41 1.838e-41 8.664e-41 4.2728e-41 6.122059e-08 4.4574706e-05 5.5192944e-05
1.3263903e-08 9.669984e-05 9.66e-42 -7.633e-42 8.6309e-41 1.0766045e-17 3.9533e-41 8.8035495e-06
-4.9155e-41 2.434e-41 -1.8115e-41 7.783e-42 4.0467e-41 -6.3829e-41 -2.407e-41 4.127e-42
-6.3501e-41 -5.0176e-41 3.022e-41 -5.9395e-41 -4.2713e-41 1.3583e-41 -3.5317e-41 2.9811e-41
4.2712e-41 -1.38e-41 -4.385e-42 6.4065e-41 6.6622e-41 3.994e-42 -2.5354e-41 -2.17e-42
2.605e-42 -5.4987e-41 -7.556e-42 1.648e-41 5.7382e-41 3.3293e-41 -5.4108e-41 4.3147e-41
4.037e-41 -4.6232e-41 6.4953e-41 -6.1335e-41 -4.0339e-41 3.76e-41 6.921e-42 -1.5808e-41
-6.6218e-41 5.188e-42 3.4228e-41 7.3386e-41 2.855e-41 1.46206e-40 4.467e-42 2.8109e-41
-3.8443e-41 -2.9803e-41 1.3227e-41 1.76899e-40 8.86e-43 7.9197e-41 -5.6806e-41 9.44e-43
3.54e-42 2.0892e-41 -4.9673e-41 1.78413e-40 3.5914e-41 -2.522e-42 7.82e-43 6.1179e-41
5.5053e-41 4.375001e-05 0.00018889282 6.369571e-05 1.3513634e-08 -5.7914e-41 -4.816e-41 1.2567168e-07
3.2329743e-05 3.9207666e-08 4.1637e-41 -2.5403e-41 -2.1647535e-36 5.258098e-05 -9.37e-42 1.6461092e-08
0.00017038303 5.1775e-41 -2.8956e-41 -2.8662e-41 -3.0215e-41 1.8429786e-08 1.3410647e-05 1.6483538e-05
3.854923e-09 2.8706134e-05 -3.8037e-41 3.8561e-41 1.1167e-41 3.2827926e-18 -3.9416e-41 2.631168e-06
00000000: 79a2 0080 6a2a 7204 c6ce 008d a0a8 0080
00000010: 19b1 0080 7a86 0080 d243 0000 c063 0080
00000020: 8360 0000 7170 0000 1570 0080 dc1c 0000
00000030: 9b82 0000 f58a 0000 4607 0180 0302 0080
00000040: 3615 0080 6d24 0080 a95d 0080 ad16 0080
00000050: 2a76 0080 d976 0000 fba9 0000 5556 0080
00000060: d40d 0080 6539 0000 ca13 0080 ed9a 0080
00000070: 9a8b 0080 1042 0080 2f44 0000 e815 0000
00000080: 4d11 0000 49e7 4eb0 bc9d 3fb3 fa10 12ae
00000090: 0d8c 0080 8805 0080 6a60 0080 0be3 1098
000000a0: 249b ef1e 91bf 1c8a 2584 0080 5336 0080
000000b0: fca2 0800 e20d 422a 2daf 0080 067e 9886
000000c0: 3446 5f2e ad59 0000 438e 0080 6f16 0000
000000d0: c5a0 0080 3760 0000 ce99 2d2c 4dc8 e318
000000e0: 7812 0080 e1b8 2817 e478 0000 3a3f 0080
000000f0: 002f 0080 8f1c 0000 8d30 0000 163c cc16
00000100: 7236 0080 8bb9 153d 21c6 133e 891e 603d
00000110: c525 5837 539c 0080 3098 0080 2f63 f638
00000120: a09b f23c 8bb6 1838 dc52 0080 ab69 0080
00000130: e0d8 70a3 c162 403d 164f 0080 4e98 8137
00000140: d067 133e 7b62 0180 a02c 0080 f666 0000
00000150: 55ab 0000 ac46 9137 2d81 443c ca30 7d3c
00000160: 5a47 8136 b480 de3c 5c74 0080 8d99 0080
00000170: f83e 0000 ff29 9127 c628 0100 cf3a 213b
00000180: ec8e 0080 618f cb3a 0218 d63b 843f 163b
00000190: 6688 0a35 5248 0080 835b 0000 2597 9d36
000001a0: e208 9c3a 4af2 c435 b881 0000 7169 0000
000001b0: e448 051c 28b4 fa3a c353 0080 e2a5 2535
000001c0: b822 c93b 06dd 0080 5741 0080 182f 0000
000001d0: d59b 0080 bb0e 3b35 3686 003a d510 203a
000001e0: a6d5 2134 9674 8b3a 0064 0000 2c15 0080
000001f0: 693f 0080 4c1d 2225 1e37 0000 d42a cd38
00000200: 8b95 0080 1c24 1739 737c 243a d49c 5d39
00000210: 2483 4233 9f15 0080 3e1f 0000 4f37 e134
00000220: 8b32 e338 0077 0934 0838 0080 a2d2 0080
00000230: a08d 0080 5617 3839 115b 0080 793c 6a33
00000240: ceef 143a 2a42 0080 3c33 0000 84f1 0000
00000250: 1c77 0000 6078 8333 baf5 3a38 f97e 6738
00000260: 43df 6332 55cb ca38 ee1a 0000 4715 0080
00000270: 98f0 0000 3699 4623 346e 0000 f5b2 1337
00000280: 0689 0080 da43 0000 7f32 0080 b215 0000
00000290: ce70 0000 eeb1 0080 1943 0080 810b 0000
000002a0: 04b1 0080 df8b 0080 3e54 0000 92a5 0080
000002b0: 1177 0080 dd25 0000 7362 0080 1a53 0000
000002c0: 1077 0000 7826 0080 390c 0080 96b2 0000
000002d0: b7b9 0000 220b 0000 ad46 0080 0d06 0080
000002e0: 4307 0000 4899 0080 1015 0080 f12d 0000
000002f0: f59f 0000 cf5c 0000 d596 0080 4778 0000
00000300: 8970 0000 e080 0080 10b5 0000 faaa 0080
00000310: 7370 0080 d068 0000 4b13 0000 112c 0080
00000320: 97b8 0080 760e 0000 6a5f 0000 92cc 0000
00000330: 964f 0000 9097 0100 740c 0000 5b4e 0000
00000340: 2a6b 0080 1453 0080 df24 0000 1fed 0100
00000350: 7802 0000 c5dc 0000 5a9e 0080 a202 0000
00000360: de09 0000 3d3a 0000 788a 0080 58f1 0100
00000370: 1d64 0000 0807 0080 2e02 0000 8baa 0000
00000380: 7799 0000 3780 3738 8811 4639 6094 8538
00000390: 9729 6832 71a1 0080 4086 0080 5ef0 0634
000003a0: cc99 0738 4965 2833 1174 0000 d046 0080
000003b0: 2828 3884 668a 5c38 1f1a 0080 5366 8d32
000003c0: d9a8 3239 5490 0000 b850 0080 e64f 0080
000003d0: 3a54 0080 874f 9e32 4afe 6037 2146 8a37
000003e0: 4374 8431 f4cd f037 086a 0080 7e6b 0000
000003f0: 211f 0000 333a 7222 e06d 0080 1f93 3036

mlp.9.bias f4 [64]
2.357e-41 2.6147e-41 0.006895448 0.0002458115 1.9977384e-05 2.842e-41 2.2318e-41 5.3933622e-06
3.6160003e-07 0.0048779757 6.0513288e-09 -4.7528e-41 4.2489e-41 5.3558e-41 2.931168e-10 0.0038068516
2.3224e-41 0.0010840605 4.713e-42 4.427e-41 4.1871e-41 0.0015027712 4.186e-42 4.177315e-09
1.2115129e-07 -3.7272e-41 3.2322e-41 2.7682306e-10 6.0983e-41 1.2947e-41 -5.9418e-41 6.779383e-05
7.414036e-12 -5.1146e-41 0.00068415276 2.3417986e-07 0.003157471 0.007173241 2.6597e-41 -1.4916626e-25
-3.4745e-41 -4.3858114e-24 -3.218529e-20 -3.5341e-41 2.6281e-41 -1.5563e-41 -4.1942e-41 6.1717e-41
1.8552e-41 3.734742e-08 -1.1171e-41 0.00047417972 0.00380916 -4.1935e-41 0.00036676595 3e-44
0.0026778574 0.0021013124 -5.7623e-41 -1.772618e-28 6.32e-43 6.3295e-41 9.1164306e-14 0.0029540714
00000000: b441 0000 e348 0000 36f3 e13b 43e0 8039
00000010: 1b95 a737 394f 0000 373e 0000 a1f8 b436
00000020: ee21 c234 6dd7 9f3b 0dec cf31 7d84 0080
00000030: 7176 0000 4c95 0000 8624 a12f 5f7c 793b
00000040: bd40 0000 0917 8e3a 230d 0000 687b 0000
00000050: b874 0000 a2f8 c43a ab0b 0000 0d88 8f31
00000060: d015 0234 e667 0080 1a5a 0000 622f 982f
00000070: ffa9 0000 1724 0000 a2a5 0080 892c 8e38
00000080: da6d 022d 938e 0080 b758 333a df72 7b34
00000090: 93ed 4e3b 820d eb3b 244a 0000 ada8 3896
000000a0: db60 0080 f9aa a998 a1fd 179f 8462 0080
000000b0: 4349 0000 622b 0080 eb74 0080 0bac 0000
000000c0: b733 0000 ec67 2033 241f 0080 539b f839
000000d0: 1aa3 793b e674 0080 7e4a c039 1500 0000
000000e0: fe7e 2f3b 2cb6 093b a1a0 0080 beb4 6091
000000f0: c301 0000 71b0 0000 a548 cd29 1899 413b

mlp.12.weight f4 [128, 64]
6.363e-41 -3.1776e-41 -9.314e-41 -2.0358e-41 1.3153e-41 -1.0241e-40 -4.4507e-41 -3.6246e-41
9.135e-42 1.2954e-41 -5.88e-42 -5.0036e-41 -5.382e-42 2.434e-41 -5.2351e-41 -2.0732e-41
3.2181e-41 -3.479e-41 -3.2778e-41 -7.2762e-41 -4.4099e-41 -7.62e-42 -9.742e-42 2.2882e-41
6.7509e-41 9.7879e-41 -9.3418e-41 4.2957e-41 2.0194e-41 -4.6827e-41 5.8964e-41 2.3723e-41
-4.9549e-41 3.6341e-41 -3.4814e-41 -3.6378e-41 -6.9289e-41 -8.8877e-41 1.7382e-41 5.637e-41
-5.6e-44 8.754e-42 1.62583e-40 4.6684e-41 -2.1958e-41 -6.4412e-41 -6.4324e-41 1.7991e-41
8.16e-43 1.2547e-41 4.6746e-41 -3.7007e-41 2.3371e-41 1.9216e-41 3.6166e-41 4.1725e-41
-2.3731e-41 -3.5831e-41 6.0037e-41 6.4907e-41 5.5475e-41 -1e-45 8.28e-42 -1.4219e-41
-5.4422e-41 3.219e-41 -1.3093504e-17 -4.9228724e-28 -3.345e-41 6.3852e-41 -5.8674e-41 -1.8783425e-35
-1.0423243e-30 -1.4874525e-19 -5.901496e-39 5.6683e-41 2.0079e-41 1.571e-42 4.8753e-41 -2.7681412e-20
-7.71e-42 -3.6817095e-22 -8.3894e-41 -1.163e-42 -9.1456e-41 -8.929969e-22 6.1949e-41 3.1319e-41
1.7115e-41 -7.0086e-41 -3.2419e-41 -3.1833e-41 3.642e-41 -3.5678e-41 -2.9247e-41 -7.318755e-37
-4.0974e-41 -6.4144e-41 -2.7365062e-33 -1.1466208e-30 -1.9795062e-24 -2.4301364e-17 3.4182e-41 -4.501e-42
-4.7627e-41 4.0737e-41 -2.9193e-41 -2.0406e-41 -1.0095e-41 -2.14734e-40 3.0777e-41 -7.229e-42
2.3126e-41 4.5652e-41 -1.9362e-41 -9.720917e-22 -4.461024e-24 -5.7662e-41 -1.7701711e-34 -5.228e-41
-8.6822725e-23 -5.4235745e-22 2.8806e-41 3.5884e-41 -3.8487e-41 2.8725e-41 1.3566e-41 -4.533715e-23
-5.7945e-41 7.29e-42 6.435e-42 -6.3529e-41 5.9913e-41 1.7334e-41 6.0114e-41 5.325e-41
5.6364e-41 -4.42e-42 -2.06923e-40 -1.3003e-41 -4.7566e-41 1.6369e-41 3.9221e-41 6.7997e-41
-4.514e-42 -2.7209e-41 6.1085e-41 4.6924e-41 5.013e-41 -5e-42 -1.1074e-41 1.375e-41
-5.8431e-41 -6.4328e-41 6.3807e-41 1.4342e-41 6.6234e-41 5.5037e-41 2.1312e-41 3.3138e-41
-2.1521e-41 -5.0518e-41 1.9914e-41 -9.312e-42 -4.38e-41 -5.0777e-41 -2.8113e-41 4.9832e-41
9.237e-42 4.9127e-41 -1.2228e-41 1.9789e-41 9.5853e-41 4.812e-42 1.927e-42 -1.8385e-41
6.42e-41 7.2038e-41 5.2465e-41 6.47e-41 -5.8283e-41 -4.3306e-41 -1.5119e-41 -4.4884e-41
-5.909e-42 -4.966e-41 -1.04848e-40 2.496e-41 -3.662e-42 -2.22516e-40 -1.1876e-41 7.7377e-41
-5.4075e-41 1.7285e-41 2.2637e-41 -2.4688e-41 1.115e-41 6.351e-41 1.9671e-41 3.1378e-41
-1.6698e-41 -4.232e-42 -8.419e-42 -2.4888e-41 6.0954e-41 -1.9536e-41 -3.1598e-41 -6.138e-42
-2.4796e-41 -9.595e-42 9.9572e-41 3.9154e-41 5.6202e-41 4.4556e-41 -6.8931e-41 -2.0826e-41
5.2842e-41 -4.5562e-41 -1.5491e-41 1.9795e-41 5.2539e-41 5.6569e-41 -4.305e-41 1.3282e-41
-4.746e-41 6.9404e-41 -3.569e-41 -5.5917e-41 -5.0549e-41 -1.946e-42 -3.147e-41 -2.3623e-41
4.5685e-41 2.7966e-41 5.4733e-41 -5.5186e-41 -2.7971e-41 -2.8396e-41 -1.5414e-41 -4.2538e-41
-3.2192e-41 2.138e-42 3.9284e-41 4.1319e-41 2.53e-41 -6.7009e-41 -2.497e-42 -5.3845e-41
6.704e-42 3.6368e-41 3.1709e-41 -5.5029e-41 6.125e-41 -1.1509e-41 -4.0151e-41 -5.2474e-41
00000000: 60b1 0000 9458 0080 a303 0180 c038 0080
00000010: aa24 0000 7a1d 0180 117c 0080 0a65 0080
00000020: 7719 0000 1c24 0000 6410 0080 7b8b 0080
00000030: 010f 0080 da43 0000 ef91 0080 cb39 0080
00000040: b559 0000 fb60 0080 5f5b 0080 d5ca 0080
00000050: ee7a 0080 3e15 0080 281b 0080 c93f 0000
00000060: 30bc 0000 d910 0100 6904 0180 bf77 0000
00000070: 4b38 0000 8982 0080 5ea4 0000 2142 0000
00000080: 1f8a 0080 4e65 0000 0c61 0080 6865 0080
00000090: 26c1 0080 c1f7 0080 7430 0000 239d 0000
000000a0: 2800 0080 6718 0000 37c5 0100 2382 0000
000000b0: 363d 0080 8eb3 0080 4fb3 0080 2732 0000
000000c0: 4602 0000 fa22 0000 4f82 0000 2967 0080
000000d0: 2641 0000 9135 0000 d164 0000 5074 0000
000000e0: 2742 0080 e263 0080 5ca7 0000 efb4 0000
000000f0: a49a 0000 0100 0080 1517 0000 a327 0080
00000100: b597 0080 bc59 0000 5388 71a3 1603 1c92
00000110: 3f5d 0080 feb1 0000 8fa3 0080 59bd c785
00000120: 7520 a98d 7e9b 2fa0 f842 4080 029e 0000
00000130: f937 0000 6104 0000 e787 0000 c6b8 029f
00000140: 7e15 0080 b28b de9b dde9 0080 3e03 0080
00000150: f1fe 0080 25f2 869c b0ac 0000 4e57 0000
00000160: b62f 0000 5fc3 0080 5f5a 0080 bd58 0080
00000170: 8665 0000 7563 0080 8751 0080 590b 7983
00000180: 3872 0080 cfb2 0080 0d57 6389 c40c ba8d
00000190: 2928 1998 f923 e0a3 495f 0000 8c0c 0080
000001a0: c484 0080 8f71 0000 6151 0080 e238 0080
000001b0: 241c 0080 9756 0280 cb55 0000 2714 0080
000001c0: 7740 0000 427f 0000 f935 0080 fae5 929c
000001d0: d893 ac98 bda0 0080 cd4b 6b87 bc91 0080
000001e0: aaec d19a e0ea 239c 4d50 0000 0864 0000
000001f0: 496b 0080 1350 0000 d125 0000 ac3c 5b9a
00000200: 87a1 0080 5214 0000 f011 0000 18b1 0080
00000210: 03a7 0000 5230 0000 93a7 0000 7094 0000
00000220: 1f9d 0000 520c 0080 d140 0280 3f24 0080
00000230: 9884 0080 a12d 0000 556d 0000 8cbd 0000
00000240: 950c 0080 d94b 0080 48aa 0000 ce82 0000
00000250: be8b 0000 f00d 0080 df1e 0080 5426 0000
00000260: e2a2 0080 52b3 0080 deb1 0000 fb27 0000
00000270: a2b8 0000 6c99 0000 693b 0000 605c 0000
00000280: fe3b 0080 d38c 0080 8337 0000 f519 0080
00000290: 197a 0080 8c8d 0080 5e4e 0080 e98a 0000
000002a0: c019 0000 f288 0000 1622 0080 2a37 0000
000002b0: 330b 0100 6a0d 0000 5f05 0000 4033 0080
000002c0: f7b2 0000 d0c8 0000 4092 0000 5bb4 0000
000002d0: 78a2 0080 b878 0080 252a 0080 1e7d 0080
000002e0: 7910 0080 6f8a 0080 4624 0180 9445 0000
000002f0: 350a 0080 496c 0280 1b21 0080 b2d7 0000
00000300: bd96 0080 2f30 0000 1a3f 0000 d244 0080
00000310: 151f 0000 0ab1 0000 d636 0000 7857 0000
00000320: 8c2e 0080 cc0b 0080 7817 0080 6145 0080
00000330: eaa9 0000 7536 0080 1558 0080 1c11 0080
00000340: 1f45 0080 bf1a 0080 9115 0100 256d 0000
00000350: ab9c 0000 347c 0000 27c0 0080 0e3a 0080
00000360: 4d93 0000 027f 0080 2f2b 0080 2e37 0000
00000370: 7592 0000 b19d 0000 0278 0080 0625 0000
00000380: 4d84 0080 78c1 0000 7d63 0080 e09b 0080
00000390: e98c 0080 6d05 0080 ba57 0080 da41 0080
000003a0: 5a7f 0000 f54d 0000 9398 0000 d699 0080
000003b0: f94d 0080 284f 0080 f82a 0080 9476 0080
000003c0: bd59 0080 f605 0000 826d 0000 2e73 0000
000003d0: 8746 0000 cbba 0080 f606 0080 1996 0080
000003e0: b012 0000 6165 0000 6458 0000 6699 0080
000003f0: bdaa 0000 1520 0080 ed6f 0080 4792 0080

mlp.12.bias f4 [128]
-4.0363e-41 2.9748e-41 -3.122e-42 1.6797e-41 8.045376e-05 9.4166e-41 0.0049400255 0.0065776063
-2.0149e-41 0.0067995386 -5.5206e-41 1.5512e-41 2.1408e-41 0.005830232 1.7475723e-18 0.010274018
-5.2568e-41 4.5e-41 4.2441e-41 1.0859e-41 1.03912096e-16 -1.2291e-41 3.0932e-41 2.0160971e-24
-5.5803e-41 0.008033759 4.355e-41 7.937e-42 2.6801744e-10 5.7916273e-05 0.00011016657 3.7495e-41
5.527e-42 0.0034913116 8.517e-42 8.896724e-09 -5.713e-41 0.0030674 4.2075e-41 1.3807e-41
-5.0818e-41 -3.9406e-41 1.8651934e-11 -4.3784e-41 9.192177e-05 0.001675153 1.209263e-10 -1.2225319e-29
6.5462e-41 3.8686e-41 1.80505e-39 -4.3227e-41 -1.1837e-41 -6.5045e-41 0.009757197 1.3330166e-06
-2.4912e-41 -2.468e-41 0.0059463438 4.8115e-41 3.3976e-41 5.249353e-09 3.002e-41 1.0721166e-07
0.0003580982 -3.4452e-41 0.008202131 -2.7517e-41 6.2445e-41 0.0014058539 0.012745108 -4.0297e-41
1.5477e-41 -4.667e-41 4.8364e-41 6.216e-41 5.0615e-41 6.1439074e-05 4.7763e-41 5.328e-41
0.0024424887 -4.284e-42 3.2476e-41 4.4116e-41 -1.1702e-41 -1.886e-41 9.001678e-32 0.00014684054
6.355e-42 0.0039317375 0.0101953745 -5.297891e-29 -4.1963e-41 -3.3328e-41 3.4311e-41 -3.723e-41
5.07e-43 4.3719e-41 -2.8018e-41 -2.7486e-41 3e-45 1.1305577e-22 -3.5499e-41 1.0589205e-05
4.1115e-41 2.3587e-41 2.9649e-41 6.4961e-41 -4.8116e-41 0.001917213 1.0665466e-26 1.2505533e-17
-4.3579e-41 1.2116e-41 3.0302e-41 0.0010444875 9.2145e-41 -3.429e-41 1.9154677e-06 0.009376059
-4.5134e-41 6.0546e-41 5.6563e-41 0.007722777 -3.162e-41 7.1419e-41 -5.7329e-41 -6.5672e-41
00000000: 8470 0080 ed52 0000 b408 0080 d32e 0000
00000010: 49b9 a838 7f06 0100 f0df a13b f688 d73b
00000020: 2b38 0080 aace de3b e499 0080 3e2b 0000
00000030: ad3b 0000 880b bf3b b5f2 0022 5b54 283c
00000040: 8a92 0080 717d 0000 4f76 0000 451e 0000
00000050: e09a ef24 4322 0080 3a56 0000 ebfc 1b18
00000060: 8e9b 0080 07a0 033c 6679 0000 2016 0000
00000070: 1a58 932f 20eb 7238 3a09 e738 8568 0000
00000080: 680f 0000 7dce 643b be17 0000 35d8 1832
00000090: 419f 0080 6f06 493b 4a75 0000 7d26 0000
000000a0: a98d 0080 d96d 0080 6c10 a42d 0d7a 0080
000000b0: 20c6 c038 cf90 db3a baf5 042f 7cf5 778f
000000c0: 7bb6 0000 d76b 0000 bfa7 1300 8078 0080
000000d0: ff20 0080 52b5 0080 a7dc 1f3c 1aea b235
000000e0: 7245 0080 cc44 0080 8cd9 c23b 2086 0000
000000f0: b65e 0000 cc5d b431 af53 0000 3c3c e633
00000100: 20bf bb39 0a60 0080 3b62 063c b54c 0080
00000110: 12ae 0000 a144 b83a dcd0 503c 5570 0080
00000120: 252b 0000 1982 0080 d286 0000 47ad 0000
00000130: 188d 0000 dad8 8038 2585 0000 8694 0000
00000140: 2912 203b f10b 0080 885a 0000 fa7a 0000
00000150: 9f20 0080 9334 0080 69b2 e90b 35f9 1939
00000160: b711 0000 ced5 803b 800a 273c 4751 8690
00000170: fa74 0080 e85c 0080 a55f 0000 c867 0080
00000180: 6a01 0000 df79 0000 1a4e 0080 9f4c 0080
00000190: 0200 0000 11ad 081b f562 0080 4aa8 3137
000001a0: 9d72 0000 c041 0000 a652 0000 16b5 0000
000001b0: 2186 0080 fe4a fb3a 5640 5314 b6af 6623
000001c0: 7b79 0080 c621 0000 7854 0000 2fe7 883a
000001d0: dd00 0100 965f 0080 7c8b 0036 0b9e 193c
000001e0: d17d 0080 c7a8 0000 ad9d 0000 590f fd3b
000001f0: 2558 0080 16c7 0000 cf9f 0080 11b7 0080

mlp.15.weight f4 [64, 128]
-5.7421e-41 1.1865847e-23 -6.5378e-41 5.7191e-41 0.00040892785 -5.5426e-41 0.019808335 0.025854247
-1.292e-41 0.026664581 2.321e-41 -5.2535e-41 1.3347e-41 0.023116779 1.03014054e-17 0.039273232
-3.5261e-41 5.8572836e-34 -2.283e-41 1.2798e-41 9.018545e-16 -5.9463e-41 -5.008e-41 2.2029984e-23
5.3845e-41 0.031171016 -3.9866e-41 -6.3172e-41 2.0984634e-09 0.00029215013 0.0005453526 2.3721e-41
7.1718e-41 0.01439103 -3.16027e-28 7.297638e-08 -5.868e-41 0.012764732 6.4034e-41 -5.8695e-41
-2.357e-42 1.6467e-41 1.4118688e-10 1.4572e-41 0.00045198048 0.0071637672 7.5760304e-10 3.4221531e-28
-1.9638e-41 -1.523e-42 4.1173988e-38 3.4224e-41 -8.2026e-41 5.8144e-41 0.03741912 8.426173e-06
-5.1914e-41 -5.967e-41 0.023543872 -2.5265e-41 2.4136e-41 3.783469e-08 2.1921287e-23 7.811052e-07
0.0016609466 -1.7333e-41 0.031767994 -6.0495e-41 -6.1321e-41 0.0060673263 0.0482724 6.6374e-41
-4.119e-41 6.255e-41 -2.1831e-41 -4.9463e-41 4.096e-41 0.00031035818 -7.5271536e-27 5.6028e-41
0.010228656 -4.349e-41 3.4385e-41 6.1792e-41 -1.0333e-41 6.1226e-41 1.2720439e-30 0.0007191526
5.7239e-41 0.016067479 0.03901664 9.587053e-29 -3.8513e-41 9.896402e-36 -5.901e-41 6.787e-41
6.474845e-33 -2.1867e-41 1.82261e-40 7.6218e-41 -6.894e-41 9.282404e-22 -2.21751e-40 5.7396825e-05
7.4061e-41 9.26e-43 3.2049e-41 6.1842e-41 1.5591e-41 0.008192069 3.0673693e-25 1.1258894e-16
-2.6134e-41 -6.026e-42 -3.9061e-41 0.0046223016 -3.6145e-40 -2.0498e-41 1.1389262e-05 0.03602965
6.6273e-41 1.47564e-40 5.409e-42 0.030038586 6.955e-42 2.2206e-41 1.0968e-41 2.5701e-41
-4.2356e-41 -6.445e-41 3.0156e-41 -2.66e-41 -4.5017e-41 2.7122e-41 -2.915e-42 -4.119e-41
5.7963e-41 -6.2312e-41 -3.024e-41 2.6431e-41 3.7764e-41 3.3396e-41 -2.0319e-41 -6.0033e-41
-4.6292e-41 2.704e-41 -5.5472e-41 6.9769e-41 -1.7345e-41 -4.5831e-41 1.7411e-41 -5.3865e-41
4.399e-42 -5.7483e-41 6.0536e-41 2.553e-41 6.3482e-41 2.384e-41 -1.743e-42 6.0479e-41
-6.791e-41 3.7492e-41 2.0435e-41 5.0039e-41 6.552e-41 -4.6111e-41 -5.4473e-41 -6.418e-41
-3.5227e-41 -1.8902e-41 -6.6249e-41 -4.8226e-41 -2.078e-41 -6.3295e-41 -5.8842e-41 -5.201e-41
-5.1777e-41 -1.17608e-40 -5.1821e-41 5.5421e-41 7.4384e-41 2.5712e-41 -6.171e-41 -5.6961e-41
4.1561e-41 -3.0715e-41 -5.5908e-41 4.9146e-41 -3.852e-41 6.1647e-41 1.0227e-41 -4.7954e-41
-5.5475e-41 -4.582e-42 4.0544e-41 -5.3266e-41 -3.1753e-41 -4.6234e-41 -3.3725e-41 -1.4165e-40
-3.0128e-41 2.2616e-41 2.8037e-41 3.8117e-41 -1.0838e-41 6.017e-42 3.866e-41 -2.0993e-41
4.3726e-41 -7.3383e-41 6.9217e-41 3.1591e-41 -3.72e-41 8.4371e-41 -1.4822e-41 -3.2625e-41
-4.6382e-41 -3.6739e-41 -5.1488e-41 2.7185e-41 5.2249e-41 4.459e-41 -1.328e-42 -1.22277e-40
4.3503e-41 -8.8783e-41 -6.5952e-41 2.7048e-41 -1.044e-41 2.6504e-41 -7.3229e-41 5.32e-42
-1.421e-41 -4.7952e-41 5.1506e-41 3.925e-42 2.7265e-41 5.823e-41 2.3347e-41 9.536e-42
6.121e-41 -4.4018e-41 5.4162e-41 5.3516e-41 6.1077e-41 -7.868e-41 3.1316e-41 6.0086e-41
1.644e-42 2.1244e-41 -3.2534e-41 5.0988e-41 -5.8152e-41 2.2723e-41 -3.4424e-41 -5.5878e-41
00000000: 11a0 0080 d484 6519 3fb6 0080 6d9f 0000
00000010: 5e65 d639 819a 0080 1745 a23c 49cc d33c
00000020: 0424 0080 ae6f da3c b340 0000 7292 0080
00000030: 3525 0000 665f bd3c 0307 3e23 f8dc 203d
00000040: 4b62 0080 42a4 4208 a43f 0080 ad23 0000
00000050: 8ff8 8126 c2a5 0080 9a8b 0080 990f d519
00000060: 1996 0000 5c5a ff3c 216f 0080 19b0 0080
00000070: 8f34 1031 ba2b 9939 fef5 0e3a 2042 0000
00000080: ecc7 0000 5bc8 6b3c 504e c891 30b7 9c33
00000090: 93a3 0080 2b23 513c 80b2 0000 9ea3 0080
000000a0: 9206 0080 e72d 0000 933c 1b2f 9f28 0000
000000b0: cbf7 ec39 09be ea3b 933f 5030 9ce7 d811
000000c0: be36 0080 3f04 0080 2a2c 6001 675f 0000
000000d0: a8e4 0080 15a2 0000 cb44 193d 235e 0d37
000000e0: b790 0080 56a6 0080 14df c03c 6e46 0080
000000f0: 4843 0000 ae7f 2233 7a02 d419 24ad 5135
00000100: 1fb4 d93a 5130 0080 281f 023d a3a8 0080
00000110: f0aa 0080 6cd0 c63b 48b9 453d 06b9 0000
00000120: d272 0080 5dae 0000 db3c 0080 e289 0080
00000130: 2e72 0000 92b7 a239 3417 1594 2f9c 0000
00000140: 1896 273c 3c79 0080 da5f 0000 40ac 0000
00000150: ce1c 0080 acaa 0000 a366 ce0d 8485 3c3a
00000160: 8f9f 0000 f29f 833c eacf 1f3d 880f f310
00000170: 5c6b 0080 2379 5205 7fa4 0080 32bd 0000
00000180: 2e7a 060a f53c 0080 12fc 0100 77d4 0000
00000190: 2dc0 0080 9045 8c1c 276a 0280 5fbd 7038
000001a0: 74ce 0000 9502 0000 5759 0000 64ac 0000
000001b0: 762b 0000 0738 063c 68dc bd16 64ce 0125
000001c0: da48 0080 cc10 0080 e36c 0080 ad76 973b
000001d0: 93ef 0380 2439 0080 8214 3f37 d493 133d
000001e0: beb8 0000 599b 0100 140f 0000 7b13 f63c
000001f0: 6313 0000 e73d 0000 931e 0000 a547 0000
00000200: 1276 0080 a9b3 0080 1054 0000 264a 0080
00000210: 7d7d 0080 9b4b 0000 2008 0080 d272 0080
00000220: 94a1 0000 b3ad 0080 4c54 0080 ae49 0000
00000230: 4569 0000 185d 0000 a438 0080 59a7 0080
00000240: 0b81 0080 604b 0000 a29a 0080 7dc2 0000
00000250: 5a30 0080 c27f 0080 8930 0000 2796 0080
00000260: 430c 0000 3da0 0080 c0a8 0000 2b47 0000
00000270: f6b0 0000 7542 0000 dc04 0080 97a8 0000
00000280: 4ebd 0080 8368 0000 f738 0000 7d8b 0000
00000290: a5b6 0000 8a80 0080 d997 0080 e8b2 0080
000002a0: 3362 0080 b134 0080 adb8 0080 6f86 0080
000002b0: ed39 0080 71b0 0080 07a4 0080 fc90 0080
000002c0: 5590 0080 d847 0180 7590 0080 7e9a 0000
000002d0: 5acf 0000 ad47 0000 06ac 0080 c99e 0080
000002e0: db73 0000 9f55 0080 d99b 0080 0089 0000
000002f0: 616b 0080 d9ab 0000 821c 0000 ad85 0080
00000300: a49a 0080 c60c 0080 0571 0000 7c94 0080
00000310: 8458 0080 e280 0080 035e 0080 dd8a 0180
00000320: fc53 0080 0b3f 0000 284e 0000 416a 0000
00000330: 361e 0080 c610 0000 c56b 0000 853a 0080
00000340: e479 0000 90cc 0080 f3c0 0000 1058 0000
00000350: b367 0080 31eb 0000 5129 0080 f25a 0080
00000360: 4b81 0080 6a66 0080 878f 0080 c84b 0000
00000370: a691 0000 4c7c 0000 b403 0080 dc54 0180
00000380: 4579 0000 7ef7 0080 d9b7 0080 664b 0000
00000390: 1a1d 0080 e249 0000 22cc 0080 d40e 0000
000003a0: 9d27 0080 ac85 0080 948f 0000 f10a 0000
000003b0: 014c 0000 52a2 0000 1541 0000 951a 0000
000003c0: a1aa 0000 b47a 0080 fb96 0000 2e95 0000
000003d0: 42aa 0000 54db 0080 4c57 0000 7fa7 0000
000003e0: 9504 0000 383b 0000 b15a 0080 228e 0000
000003f0: 1ba2 0080 583f 0000 f65f 0080 c49b 0080

mlp.15.bias f4 [64]
0.019434156 -5.9231e-41 0.011428554 0.0003783775 3.0907e-41 0.011157284 -1.4239e-41 -5.849e-41
-3.5103e-41 -3.6437e-41 5.5396e-41 8.879963e-18 1.7808221e-06 -1.799e-41 -4.3206e-41 0.024596421
-8.408e-42 0.0066368016 -2.68482e-40 2.7889e-41 -4.3784e-41 -4.0079e-41 2.06e-42 5.2541135e-22
3.5895558e-20 4.4686e-41 1.8535e-41 0.027485318 7.3413e-41 5.0542e-41 -5.9156e-41 4.3475e-41
-1.39698e-40 -6.8008e-41 1.3574e-41 -2.9849e-41 8.7498e-41 5.1737e-41 5.0857e-41 4.1258e-41
-2.3633e-41 -8.832e-42 0.025608601 0.017980786 3.4039e-41 5.6114e-41 0.0119233485 1.1901e-41
5.833883e-09 0.0014413792 6.9874e-41 3.7824e-41 2.2059763e-18 -4.3887e-41 0.02095334 3.2526e-41
-2.2729e-41 0.0018593173 0.03711369 2.3402e-41 -4.3813e-41 2.5707503e-05 -6.3253e-41 0.01620896
00000000: 6134 9f3c 1da5 0080 d43e 3b3c f860 c639
00000010: 2856 0000 0acd 363c b127 0080 0ca3 0080
00000020: da61 0080 9265 0080 6c9a 0000 71ce 2323
00000030: 9504 ef35 2632 0080 7178 0080 6f7e c93c
00000040: 7017 0080 8779 d93b 6bec 0280 be4d 0000
00000050: 0d7a 0080 b96f 0080 be05 0000 bccb 1e1c
00000060: 1183 291f 917c 0000 ab33 0000 e428 e13c
00000070: a5cc 0000 e48c 0000 e7a4 0080 3179 0000
00000080: 6c85 0180 94bd 0080 d725 0000 3553 0080
00000090: e9f3 0000 3990 0000 c58d 0000 0373 0000
000000a0: e141 0080 9f18 0080 21c9 d13c 714c 933c
000000b0: e35e 0000 6c9c 0000 265a 433c 2d21 0000
000000c0: 6173 c831 a9ec bc3a c8c2 0000 7069 0000
000000d0: b7c5 2222 577a 0080 57a6 ab3c ab5a 0000
000000e0: 5c3f 0080 56b4 f33a 8604 183d 3c41 0000
000000f0: 227a 0080 71a6 d737 53b0 0080 a7c8 843c

mlp.18.weight f4 [8, 64]
-3.6763e-41 5.682e-42 -4.5573e-41 -6.2738e-41 -3.301e-41 -5.0656e-41 1.3105e-41 3.5273e-41
-5.7324e-41 4.704e-42 6.642e-41 6.7494e-41 -4.0167e-41 -4.294e-42 -3.5534e-41 -4.3213e-41
6.2352e-41 3.8708e-41 1.0049e-41 4.3419e-41 1.0036e-41 3.614e-41 -3.664e-42 3.053e-41
-5.86e-41 -3.9315e-41 1.8571e-41 -4.4507e-41 -6.7244e-41 -4.4411e-41 -1.9112e-41 -2.2477e-41
-2.4671e-41 3.5652e-41 -5.9125e-41 5.6206e-41 7.2662e-41 1.7523e-41 -4.8139e-41 -3.0184e-41
-1.567e-41 -1.9307e-41 -4.7416e-41 -5.8388e-41 -4.8649e-41 1.27616e-40 -1.62e-42 3.5527e-41
-8.894e-42 2.2544e-41 3.2035e-41 -2.4519e-41 -3.1355e-41 3.8515e-41 -5.7057e-41 -1.3904e-41
5.8862e-41 -2.9289e-41 5.2864e-41 -4.8918e-41 -3.0642e-41 5.157e-41 -1.285e-42 8.021e-42
0.06676778 -6.4583e-41 0.044185523 0.0017661122 2.1891e-41 0.042058118 6.583e-42 2.645206e-32
-4.0872e-41 5.2156e-41 1.5479986e-14 3.0391532e-17 1.2149499e-05 4.4798e-41 -1.4394e-41 0.08967557
-4.3203e-41 0.02570846 -1.9600755e-37 -5.8124e-41 9.872e-42 5.2001e-41 -7.482e-42 1.6923762e-21
3.3251983e-19 1.672e-42 -2.1426e-41 0.104102984 -6.1413e-41 -1.3033e-41 -1.7733015e-24 1.8948e-41
-6.429414e-07 8.79441e-40 3.432e-41 2.0354e-41 6.585e-42 4.1179e-41 3.128e-41 3.044e-42
1.7683847e-10 -6.004e-41 0.092820264 0.0654829 1.528e-41 6.14e-41 0.05024652 3.2422e-41
2.2662304e-08 0.005871875 -1.92e-42 -4.4303e-41 7.655896e-18 -1.5445645e-25 0.08551633 -2.2913e-41
-3.794e-41 0.0077524935 0.14472258 -6.1872e-41 -4.545306e-30 9.223002e-05 9.286e-42 0.061410423
3.3168008e-12 1.5575e-41 -5.398601e-13 6.922807e-14 2.7408e-41 1.0936975e-12 2.174e-41 4.7549e-41
3.4082e-41 6.1317e-41 3.2019332e-18 3.997678e-27 -9.999267e-16 -3.8131e-41 4.282e-41 3.7403353e-12
6.34e-42 1.0267584e-10 5.0333e-41 -3.7188e-41 3.809e-41 4.6918e-41 2.4432e-41 1.4196617e-31
2.4977057e-29 6.149e-42 2.1799e-41 2.558874e-13 6.08e-43 -4.402e-41 -4.323e-42 1.1819733e-35
1.9139737e-10 -4.935e-42 -3.3443e-41 -3.903e-41 -3.7867e-41 -5.3499e-41 -1.11068e-40 -3.6951e-41
-4.1443135e-31 6.582684e-26 3.5603432e-12 2.5002906e-12 2.515e-41 6.069e-41 1.9289657e-12 -5.259e-41
-3.5103052e-16 -4.1991237e-13 -5.376e-41 7.95e-43 5.514725e-21 -3.157e-41 3.621984e-12 -4.012e-42
-2.2178e-41 2.7517032e-13 6.3132637e-12 -5.1502e-41 4.8985642e-20 -1.0579922e-08 -1.5947e-41 2.0380201e-12
0.01662434 7.3394e-41 0.00982876 0.00037035972 -4.9834e-41 0.009567045 -2.1304e-41 3.2249402e-38
-4.88e-42 6.3143e-41 1.5308e-41 -1.176584e-16 2.75735e-06 2.9643e-41 -1.3423e-41 0.021241011
1.6376e-41 0.0057521253 2.2904e-41 1.5553e-41 7.015e-41 5.9925e-41 -3.4458e-41 -1.8929867e-21
-5.0101497e-19 1.639e-41 1.8996e-41 0.023800684 -2.4821e-41 6.0536e-41 -9.445289e-31 1.5917e-41
-1.5663124e-34 -8.244e-42 9.777e-42 -5.032e-42 1.8155e-41 -2.9604e-41 -4.387e-42 -2.9231e-41
1.4971201e-18 -6.3431e-41 0.022175072 0.015372908 -2.7928e-41 5.715e-41 0.0103727 4.7227e-41
-4.1493253e-09 0.0013153593 -1.2515e-41 -4.272e-41 -1.6367598e-17 3.807e-41 0.018302938 -5.7282e-41
-5.7358e-41 0.001723706 0.032977145 -3.1213e-41 -2.9059e-41 1.9983057e-05 -1.4908e-41 0.013929147
00000000: 7b66 0080 d70f 0000 0a7f 0080 e3ae 0080
00000010: 055c 0080 358d 0080 8824 0000 5462 0000
00000020: cc9f 0080 1d0d 0000 27b9 0000 25bc 0000
00000030: f86f 0080 f80b 0080 0e63 0080 7678 0080
00000040: d0ad 0000 e76b 0000 031c 0000 0979 0000
00000050: fa1b 0000 be64 0000 370a 0080 1b55 0000
00000060: 5aa3 0080 986d 0080 c533 0000 117c 0080
00000070: 73bb 0080 cd7b 0080 4735 0080 a83e 0080
00000080: c644 0080 6263 0000 d1a4 0080 ae9c 0000
00000090: 8dca 0000 d930 0000 3186 0080 2454 0080
000000a0: ae2b 0080 d235 0080 2d84 0080 c3a2 0080
000000b0: 9d87 0080 be63 0100 8404 0080 0963 0000
000000c0: cb18 0080 d83e 0000 4d59 0000 5944 0080
000000d0: 6857 0080 5d6b 0000 0d9f 0080 c226 0080
000000e0: 15a4 0000 a551 0080 5d93 0000 5d88 0080
000000f0: 6b55 0080 c28f 0000 9503 0080 5c16 0000
00000100: 8cbd 883d 08b4 0080 e1fb 343d e47c e73a
00000110: 063d 0000 2245 2c3d 5a12 0000 d258 090b
00000120: ef71 0080 6491 0000 6b6e 8b28 fd27 0c24
00000130: b3d5 4b37 e17c 0000 2028 0080 d3a7 b73d
00000140: 6f78 0080 8c9a d23c 5565 8582 07a2 0080
00000150: 851b 0000 f590 0000 db14 0080 a2be ff1c
00000160: fa48 c420 a904 0000 ba3b 0080 f233 d53d
00000170: 32ab 0080 5524 0080 db33 0998 d234 0000
00000180: 9996 2cb5 8693 0900 ac5f 0000 bd38 0000
00000190: 5b12 0000 ca72 0000 3257 0000 7c08 0000
000001a0: 9b6f 422f 5ea7 0080 8d18 be3d e61b 863d
000001b0: 982a 0000 29ab 0000 4ccf 4d3d 615a 0000
000001c0: efaa c232 dc68 c03b 5a05 0080 807b 0080
000001d0: f239 0d23 3435 3f96 3023 af3d df3f 0080
000001e0: c369 0080 a108 fe3b 2832 143e 79ac 0080
000001f0: 2861 b88e 9d6b c138 e319 0000 7f89 7b3d
00000200: 2c66 692c 6b2b 0000 05f5 17ab 44e3 9b29
00000210: 674c 0000 9bec 992b 9a3c 0000 8c84 0000
00000220: 025f 0000 edaa 0000 cf42 6c22 455d 9e13
00000230: c91a 90a6 4b6a 0080 5d77 0000 f299 832c
00000240: ac11 0000 5cc9 e12e 4f8c 0000 aa67 0080
00000250: 2e6a 0000 ca82 0000 1b44 0000 5a48 380c
00000260: 264c fd0f 2411 0000 c43c 0000 430d 902a
00000270: b201 0000 b67a 0080 0d0c 0080 bf60 7b05
00000280: 9271 522f c20d 0080 3a5d 0080 cd6c 0080
00000290: 8f69 0080 2295 0080 9d35 0180 0167 0080
000002a0: 9c7d 068d b7fa a215 7189 7a2c 3bf1 2f2c
000002b0: 1c46 0000 2ea9 0000 28bd 072c 9992 0080
000002c0: f65a caa5 c063 ecaa dc95 0080 3702 0000
000002d0: 2657 d01d 0158 0080 dddf 7e2c 2f0b 0080
000002e0: d33d 0080 39e8 9a2a d320 de2c 918f 0080
000002f0: 0254 671f fdc2 35b2 742c 0080 b569 0f2c
00000300: c52f 883c 98cc 0000 cf08 213c d72c c239
00000310: eb8a 0080 18bf 1c3c 633b 0080 1b95 2f01
00000320: 9a0d 0080 04b0 0000 ac2a 0000 a1a6 07a5
00000330: ea0a 3936 a252 0000 6b25 0080 a101 ae3c
00000340: a62d 0000 537c bc3b d93f 0000 5b2b 0000
00000350: 8dc3 0000 0ca7 0000 0e60 0080 b007 0f9d
00000360: 9fdf 13a1 b02d 0000 f434 0000 a7f9 c23c
00000370: 3145 0080 c0a8 0000 3242 998d 5f2c 0000
00000380: d932 5087 fb16 0080 411b 0000 070e 0080
00000390: 9c32 0000 8652 0080 3b0c 0080 7c51 0080
000003a0: 99ef dc21 d2b0 0080 7fa8 b53c a6de 7b3c
000003b0: da4d 0080 509f 0000 42f2 293c a683 0000
000003c0: da91 8eb1 2268 ac3a e322 0080 1677 0080
000003d0: e6f6 96a3 206a 0000 0bf0 953c ae9f 0080
000003e0: e49f 0080 faed e13a 0b13 073d 0257 0080
000003f0: 0151 0080 4aa1 a737 8f29 0080 1437 643c

mlp.18.bias f4 [8]
7.1547e-41 0.088927545 5.0550788e-12 0.021334263 0.12183889 1.035021e-15 8.07e-42 8.212763e-05
00000000: 72c7 0000 a51f b63d 1adc b12c 31c5 ae3c
00000010: ab86 f93d 8929 9526 7f16 0000 f03b ac38

mlp.21.weight f4 [1, 8]
-1.204e-41 -0.28513336 -1.3455602e-11 -0.068538256 -0.39332542 0.00021322638 -2.1129e-41 -0.00039090717
00000000: 9021 0080 00fd 91be a5b6 6cad c95d 8cbd
00000010: f361 c9be 8595 5f39 e63a 0080 acf2 ccb9
