model_saved/2024-01-25-07-49-50/model_2024-01-25-07-51-14_epoch_12000_train_mse_2.02e-02_val_mse_2.00e-02.pt (torch, 88343 bytes, 15 tensors)

mlp.0.weight f4 [8, 8]
1.0336e-41 6.3463e-41 5.133e-42 -7.647e-42 -6.7076e-41 -5.4302e-41 1.8961e-41 -1.416e-41
0.0056579555 -0.0024489732 3.355709e-05 3.0681515e-06 -7.03032e-07 -2.7994834e-06 -8.458205e-06 4.9975793e-06
-0.02754303 0.059319437 0.017689336 0.0003988171 0.0006160565 0.0006506631 0.0016980049 8.5806656e-05
-0.021663977 0.042333852 0.012432919 0.0002483904 0.00041703435 0.00045725107 0.0012076534 1.3832084e-05
0.11868744 -0.061273932 0.004676499 0.00021096304 0.00015698695 0.000117098214 9.836031e-05 0.000105793646
-0.088317186 0.18941548 0.059684493 0.00095572363 0.0015658226 0.00167255 0.005089217 -0.00017559362
0.08282158 0.33578494 0.16783011 0.0014869854 0.00271467 0.0029631858 0.010166856 -0.0004044619
-0.015527219 0.08956227 0.029051984 0.00046707605 0.00075001165 0.00079886697 0.0023688255 -8.870841e-05
00000000: d01c 0000 e9b0 0000 4f0e 0000 5115 0080
00000010: fbba 0080 5f97 0080 db34 0000 7927 0080
00000020: 5f66 b93b f47e 20bb a7bf 0c38 71e6 4d36
00000030: feb7 3cb5 c2de 3bb6 b7e7 0db7 e1b0 a736
00000040: eca1 e1bc f0f8 723d 3ae9 903c 5318 d139
00000050: da7e 213a 4391 2a3a 978f de3a 19f3 b338
00000060: a778 b1bc 4366 2d3d 71b3 4b3c 653a 8239
00000070: 67a5 da39 33bb ef39 204a 9e3a 5910 6837
00000080: 6712 f33d 60fa 7abd 513d 993b f635 5d39
00000090: dd9c 2439 a092 f538 ca46 ce38 88dd dd38
000000a0: a4df b4bd 22f6 413e ba77 743d 8789 7a3a
000000b0: 4a3c cd3a 7739 db3a 72c3 a63b 8e1f 38b9
000000c0: 5c9e a93d 01ec ab3e a8db 2b3e f3e6 c23a
000000d0: 9be8 313b 0232 423b e392 263c f50d d4b9
000000e0: e065 7ebc 6c6c b73d 6dfe ed3c e3e1 f439
000000f0: 6e9c 443a 0e6b 513a 4c3e 1b3b f708 bab8

mlp.0.bias f4 [8]
5.0162e-41 -4.459501e-06 0.00045290726 0.00026079713 -2.7221091e-05 0.0009906316 0.0016086759 0.0004246924
00000000: d58b 0000 d2a2 95b6 2f74 ed39 99bb 8839
00000010: d958 e4b7 15d8 813a 35da d23a 40a9 de39

mlp.3.weight f4 [16, 8]
2.518e-42 -0.00019839 0.0072276485 0.005179483 -0.0041828905 0.023173995 0.044853613 0.01057509
5.7075e-41 -2.5256e-06 0.00014449665 8.455903e-05 -6.94403e-05 0.00036849224 0.0007659682 0.0001578622
4.8512e-41 -0.00025840956 0.007982033 0.005693223 -0.0053914627 0.025815168 0.056623373 0.011828358
1.197e-41 5.467204e-06 -0.00012227736 -8.792863e-05 0.001765432 -0.0004181684 0.00034474413 -0.00044934626
-1.7501e-41 3.6103e-41 5.1463e-41 5.5542e-41 -4.3856e-41 -6.6566e-41 -5.134e-41 -2.3952e-41
-5.2305e-41 -3.58e-41 -5.2018e-41 1.106e-42 8.06e-42 -7.327e-42 -2.1516e-41 -8.039e-42
-2.5948e-41 -6.282741e-06 0.00025107097 0.0002830473 -0.00014476723 0.000960015 0.0019035647 0.00032242047
-1.1332e-41 -0.0007457071 0.023421649 0.016820397 -0.013368063 0.07623198 0.15965305 0.03471937
4.95e-41 -3.5544e-41 6.3637e-41 4.708e-41 -1.414e-42 -3.4007e-41 2.417e-42 2.155e-41
3.7594e-41 -0.00143885 0.038871415 0.027891317 -0.019529298 0.12650952 0.2520536 0.059013225
1.2266e-41 2.119e-41 8.235e-42 3.387e-41 4.2485e-41 -3.2901e-41 -2.6222e-41 4.2011e-41
6.262e-42 -0.0016889083 0.041846238 0.030044457 -0.038275685 0.13638029 0.27793178 0.06149639
-3.918e-41 -2.2655e-41 5.714e-42 -2.9723e-41 -5.7577e-41 8.884086e-28 -1.2623741e-08 1.5609375e-19
3.844e-41 -3.5038e-41 4.1202e-41 7.3373e-41 2.6382e-41 4.1612e-41 4.164e-41 -3.579e-42
2.5839e-41 -3.7147e-41 2.7489e-41 -3.2115e-41 1.5022e-41 -9.383e-42 -5.1839567e-21 -5.6097e-41
5.8075e-41 -0.00046626187 0.014415445 0.01035153 -0.009004059 0.047038008 0.097989574 0.021439167
00000000: 0507 0000 e906 50b9 e9d5 ec3b a7b8 a93b
00000010: a110 89bb 64d7 bd3c 6cb8 373d 2443 2d3c
00000020: 1a9f 0000 7a7d 29b6 0684 1739 4955 b138
00000030: 7aa0 91b8 3132 c139 41cb 483a d087 2539
00000040: 3b87 0000 257b 87b9 13c7 023c 378e ba3b
00000050: deaa b0bb 557a d33c e9ed 673d bbcb 413c
00000060: 5e21 0000 ed72 b736 9437 00b9 5366 b8b8
00000070: 1166 e73a 9d3d dbb9 c6be b439 3c96 ebb9
00000080: c930 0080 a464 0000 758f 0000 d49a 0000
00000090: 417a 0080 8fb9 0080 1d8f 0080 c542 0080
000000a0: ce91 0080 cc63 0080 0191 0080 1503 0000
000000b0: 7816 0000 6d14 0080 fa3b 0080 6916 0080
000000c0: 5548 0080 56d0 d2b6 2da2 8339 f765 9439
000000d0: a8cc 17b9 84a9 7b3a 0881 f93a 8b0a a939
000000e0: 971f 0080 8e7b 43ba c2de bf3c eeca 893c
000000f0: b805 5bbc 831f 9c3d 177c 233e e635 0e3d
00000100: fc89 0000 1563 0080 65b1 0000 3d83 0000
00000110: f103 0080 cc5e 0080 bd06 0000 133c 0000
00000120: cc68 0000 cb97 bcba a237 1f3d 557c e43c
00000130: e8fb 9fbc b68b 013e 2b0d 813e dab7 713d
00000140: 3122 0000 123b 0000 f516 0000 6a5e 0000
00000150: 6e76 0000 b75b 0080 1949 0080 1c75 0000
00000160: 7511 0000 5c5e ddba f666 2b3d cb1f f63c
00000170: f7c6 1cbd 46a7 0b3e 134d 8e3e a3e3 7b3d
00000180: 386d 0080 273f 0080 ee0f 0000 db52 0080
00000190: 80a0 0080 22c6 8c12 cddf 58b2 7148 3820
000001a0: 286b 0000 ac61 0080 db72 0000 89cc 0000
000001b0: 8b49 0000 ff73 0000 1374 0000 fa09 0080
000001c0: 0748 0000 8d67 0080 a14c 0000 8659 0080
000001d0: e029 0000 281a 0080 27d8 c39d 609c 0080
000001e0: e4a1 0000 9c74 f4b9 c22e 6c3c 7799 293c
000001f0: c385 13bc edaa 403d c2ae c83d 31a1 af3c

mlp.3.bias f4 [16]
0.0005142355 8.456599e-06 0.0005130482 -7.5473445e-06 -3.5575e-41 3.7298e-41 1.6495318e-05 0.0015583538
3.8059e-41 0.0022848847 1.491e-41 0.0024196622 2.5006e-41 -4.8526e-41 -2.4712e-41 0.0009619984
00000000: c3cd 063a d1e0 0d37 157e 063a 323f fdb6
00000010: 2b63 0080 f967 0000 6d5f 8a37 ad41 cc3a
00000020: 186a 0000 01be 153b 9029 0000 3293 1e3b
00000030: b545 0000 4587 0080 e344 0080 9f2e 7c3a

mlp.6.weight f4 [32, 16]
-6.3444e-41 -1.4819e-41 -1.597e-41 2.423e-41 3.628e-41 2.7467e-41 5.755e-41 1.4702e-41
8.1704e-41 6.2911e-41 3.83e-43 2.0182e-41 -5.6021e-41 1.7892e-41 -6.8989e-41 3.9054e-41
0.008274472 0.00012337016 0.009683011 -3.8326387e-05 -7.734e-42 2.307e-42 0.00026060073 0.030944308
-1.843e-42 0.046624944 2.8539e-41 0.05028106 -5.6238e-41 6.1808e-41 -1.7075e-41 0.017208427
0.04028807 0.000532178 0.039259538 -0.00050267886 -5.863e-42 -4.6212e-41 0.0011141099 0.09308171
5.7473e-41 0.19726035 1.176e-41 0.19646744 4.657897e-36 2.04482e-40 -4.4598e-41 0.07322005
0.012200671 0.00018363533 0.01442926 -6.087857e-05 3.116e-41 1.51901e-40 0.00038676846 0.04730567
-7.898e-42 0.06825001 2.5518e-41 0.075578734 -2.7174e-41 5.8151e-41 4.626e-41 0.025695266
2.8528984e-06 4.063004e-08 3.425705e-06 -1.8611729e-08 -3.3903e-41 -1.6328e-41 8.3346194e-08 6.72207e-05
-5.6666e-41 -4.3331133e-06 5.814e-41 1.2971142e-05 -5.8562e-41 2.13e-42 -3.44e-42 5.6229273e-06
-2.3507e-41 -3.419e-41 4.0778e-41 2.3063e-41 6.7707e-41 5.8301e-41 1.46e-41 5.7735e-41
-3.6113e-41 2.2785e-41 -5.5054e-41 -1.8435e-41 5.3919e-41 4.662e-42 -5.7396e-41 1.2722e-41
4.9473e-41 -2.1249e-41 -5.5591e-41 2.577e-41 -3.578e-41 4.586e-42 6.3873e-41 4.1379e-41
-7.767e-41 2.5243e-41 3.9336e-41 3.458e-41 -9.979e-42 3.2612e-41 -2.3479e-41 -4.7372e-41
2.8310496e-05 4.31108e-07 3.3958673e-05 -1.0415408e-07 -5.0035e-41 -4.8701e-41 9.067552e-07 0.000107205386
-3.2935e-41 0.0001668241 2.6015e-41 0.00017834335 4.6589e-41 4.3984e-41 -5.9233e-41 5.883836e-05
0.0076150466 9.986275e-05 0.007689919 -4.9931998e-05 4.5113e-41 -2.5904e-41 0.00020691808 0.033589315
6.512e-42 0.030212682 6.7063e-41 0.043853305 8.703e-42 -1.137e-40 3.1773e-41 0.013720037
8.900454e-06 1.3412227e-07 1.0690588e-05 -3.353984e-08 -8.7358e-41 4.372e-42 2.7788258e-07 3.8612074e-05
-5.7977e-41 5.304356e-05 1.634e-41 5.5750825e-05 -1.2046e-41 6.2906e-41 6.3168e-41 1.8330444e-05
2.119e-41 1.1035e-41 -7.0907e-41 -5.1536e-41 -2.6108e-41 -2.9066e-41 -6.3028e-41 -6.4966e-41
-3.5126e-41 5.7495e-41 2.7901e-41 2.2337e-41 -1.6488e-40 -4.0859e-41 1.516e-41 -5.6317e-41
2.6521e-41 -2.1454e-41 -3.668e-41 4.2071e-41 -3.806e-42 -3.2483e-41 3.972e-41 3.2736e-41
5.3329e-41 3.1524e-41 6.1972e-41 -2.6738e-41 5.8326e-41 5.6264e-41 3.3553e-41 -3.1627e-41
1.0888217e-17 -5.0075e-41 1.8389e-41 -2.636e-42 -1.7432e-41 4.6382e-41 1.2348e-41 -4.2651172e-14
2.5179e-41 1.266335e-14 -2.4006e-41 -5.6664694e-16 5.2083e-41 -2.86889e-40 -5.966e-41 -1.771039e-33
0.0112400185 0.00015730383 0.012184687 -7.445528e-05 8.3e-44 -3.468e-41 0.0003278686 0.037202746
-3.607e-42 0.061818894 1.8108e-41 0.06372624 1.1289e-41 5.944e-41 5.6891e-41 0.021817252
2.6779e-41 5.883e-41 -6.499e-42 1.1575e-41 3.1493e-41 -4.0859e-41 -1.0641e-41 -5.364e-42
-4.2346e-41 -5.4815e-41 -2.3386e-41 5.4994e-41 5.2898e-41 3.8543e-41 -7.37e-43 3.3037e-41
3.8709077e-06 5.779782e-08 4.522527e-06 -1.38073055e-08 9.707e-42 3.0136e-41 1.204056e-07 1.7352371e-05
6.447e-42 2.2114767e-05 -3.6807e-41 2.4592897e-05 4.1036e-41 4.868e-41 -2.255e-42 7.887989e-06
00000000: dbb0 0080 4f29 0080 852c 0080 8b43 0000
00000010: 2265 0000 914c 0000 6da0 0000 fc28 0000
00000020: c2e3 0000 5faf 0000 1101 0000 4238 0000
00000030: 2a9c 0080 e031 0000 50c0 0080 de6c 0000
00000040: a791 073c ed5c 0139 7ea5 1e3c a5c0 20b8
00000050: 8f15 0080 6e06 0000 3da1 8839 eb7e fd3c
00000060: 2305 0080 ccf9 3e3d 8e4f 0000 83f3 4d3d
00000070: c59c 0080 4cac 0000 992f 0080 b0f8 8c3c
00000080: 1a05 253d dc81 0b3a 9cce 203d 35c6 03ba
00000090: 5810 0080 d280 0080 5307 923a a0a1 be3d
000000a0: 36a0 0000 9efe 493e c820 0000 c32e 493e
000000b0: 0220 c604 033a 0200 527c 0080 65f4 953d
000000c0: 53e5 473c 3c8e 4039 b468 6c3c de57 7fb8
000000d0: dd56 0000 70a7 0100 2fc7 ca39 97c3 413d
000000e0: 0416 0080 a9c6 8b3d 2247 0000 06c9 9a3d
000000f0: c04b 0080 1aa2 0000 f480 0000 e17e d23c
00000100: 6c74 3f36 3481 2e33 2ae5 6536 a0df 9fb2
00000110: 825e 0080 842d 0080 0efc b233 d7f8 8c38
00000120: f69d 0080 2965 91b6 12a2 0000 a19e 5937
00000130: 3fa3 0080 f005 0000 9709 0080 94ac bc36
00000140: 8741 0080 4f5f 0080 ac71 0000 4a40 0000
00000150: bdbc 0000 85a2 0000 b328 0000 f1a0 0000
00000160: ab64 0080 843f 0000 7899 0080 6433 0080
00000170: 4e96 0000 ff0c 0000 ff9f 0080 7723 0000
00000180: e989 0000 3c3b 0080 f79a 0080 d647 0000
00000190: bd63 0080 c90c 0000 0db2 0000 5973 0000
000001a0: 83d8 0080 5e46 0000 a76d 0000 6560 0000
000001b0: d11b 0080 e95a 0000 7341 0080 0e84 0080
000001c0: 547c ed37 0873 e734 d96e 0e38 50ab dfb3
000001d0: 7a8b 0080 c287 0080 be67 7335 74d3 e038
000001e0: cf5b 0080 81ed 2e39 8548 0000 ae01 3b39
000001f0: df81 0000 9c7a 0000 1ea5 0080 35c9 7638
00000200: a487 f93b 686d d138 b7fb fb3b 136e 51b8
00000210: c27d 0000 3648 0080 26f8 5839 f394 093d
00000220: 2712 0000 9680 f73c f2ba 0000 869f 333d
00000230: 4318 0000 f33c 0180 9258 0000 02ca 603c
00000240: 2953 1537 4003 1034 ba5b 3337 720d 10b3
00000250: 85f3 0080 300c 0000 e42f 9534 66f3 2138
00000260: 9ea1 0080 177b 5e38 8d2d 0000 fed5 6938
00000270: 9421 0080 5baf 0000 16b0 0000 54c4 9937
00000280: 123b 0000 c31e 0000 a9c5 0080 a98f 0080
00000290: c748 0080 0651 0080 b2af 0080 19b5 0080
000002a0: eb61 0080 46a0 0000 c74d 0000 443e 0000
000002b0: 9ecb 0180 e671 0080 432a 0000 fd9c 0080
000002c0: ee49 0000 ce3b 0080 4066 0080 4775 0000
000002d0: 9c0a 0080 8d5a 0080 b96e 0000 415b 0000
000002e0: a994 0000 e057 0000 c1ac 0000 894a 0080
000002f0: 97a2 0000 d79c 0000 885d 0000 2a58 0080
00000300: 27da 4823 978b 0080 4333 0000 5907 0080
00000310: 9830 0080 4b81 0000 6c22 0000 7415 40a9
00000320: 3046 0000 651f 6428 eb42 0080 2a53 23a6
00000330: 3091 0000 bb1f 0380 4fa6 0080 d521 1389
00000340: 0e28 383c edf1 2439 48a2 473c e024 9cb8
00000350: 3b00 0000 ac60 0080 c7e5 ab39 e861 183d
00000360: 0e0a 0080 cf35 7d3d 7a32 0000 e782 823d
00000370: 781f 0000 b2a5 0000 979e 0000 18ba b23c
00000380: a64a 0000 fea3 0000 1e12 0080 4420 0000
00000390: ca57 0000 e671 0080 aa1d 0080 f40e 0080
000003a0: 0b76 0080 cd98 0080 3141 0080 4d99 0000
000003b0: 7593 0000 716b 0000 0e02 0080 185c 0000
000003c0: d8e2 8136 603d 7833 36c0 9736 2c35 6db2
000003d0: 0f1b 0000 0254 0000 d748 0134 ef8f 9137
000003e0: f911 0000 1a83 b937 9a66 0080 d84c ce37
000003f0: 6472 0000 b387 0000 4906 0080 a856 0437

mlp.6.bias f4 [32]
9.24e-42 0.0014341341 0.0049483036 0.0020733066 5.976216e-07 -1.0176e-41 -3.433e-41 5.9311956e-06
0.0010855518 1.898228e-06 -5.4334e-41 5.69e-43 2.758e-42 0.0017153902 7.787e-42 7.4850465e-07
0.0049857534 5.9784e-41 -1.3668e-41 -8.4675e-41 -5.8996e-41 8.1652405e-07 0.0005388494 0.00063357
2.0546975e-07 0.0010179539 -3.8251e-41 -4.1376e-41 -6.503e-41 1.385257e-15 -1.74e-43 0.000116852774
00000000: c219 0000 8ef9 bb3a 6125 a23b 50e0 073b
00000010: 3e6c 2035 5e1c 0080 b35f 0080 9504 c736
00000020: 1349 8e3a 9ec6 fe35 7697 0080 9601 0000
00000030: b007 0000 f2d6 e03a b515 0000 d9ec 4835
00000040: 885f a33b a7a6 0000 1a26 0080 0aec 0080
00000050: 75a4 0080 1b2f 5b35 9241 0d3a 2a16 263a
00000060: 189f 5c34 dd6c 853a a16a 0080 5773 0080
00000070: 47b5 0080 f6a2 c726 7c00 0080 db0e f538

mlp.9.weight f4 [64, 32]
5.584e-41 4.4215935e-34 -2.9821963e-29 2.8694e-41 6.1207e-41 2.1796e-41 -6.464e-42 -5.4624e-41
-2.9967e-41 -1.8242e-41 -3.1525e-41 -5.4013e-41 -2.7648e-41 2.4869e-41 -2.3011e-41 5.4518e-41
2.7929e-41 -1.59e-42 -6.28e-41 5.0169e-41 3.365e-42 -6.3732e-41 -5.199e-41 -2.5421e-41
5.906e-41 -5.7909e-41 -9.296e-42 1.9307e-41 -2.5547e-41 -5.636e-42 -1.3831e-41 -1.3038e-41
-4.0807e-41 -2.3246252e-09 -1.0483362e-07 -1.307937e-10 -1.2822e-41 2.772e-41 -1.1856e-41 -5.2719783e-23
4.111474e-19 -7.255855e-31 -9.107e-42 7.0653e-41 2.35631e-37 1.0326765e-12 -5.4403e-41 -7.927987e-33
1.7760854e-10 -7.5404e-41 7.7883e-41 1.9624e-41 2.4443e-41 4.6047e-41 1.1579296e-11 1.5776082e-22
4.4511e-41 1.8180738e-23 6.11e-43 2.0745e-41 -5.5322e-41 4.1023e-41 -4.2389e-41 1.02776025e-23
-1.48341e-40 0.037914477 0.14611535 0.056534722 1.5691427e-05 -2.8655e-41 5.6663e-41 0.0001356215
0.0310256 4.3170152e-05 2.796e-42 6.0472e-41 -1.374488e-16 0.048751064 2.0169e-41 1.8782375e-05
0.14599694 6.7601e-41 -2.9043e-41 -1.4771e-41 5.9377e-41 2.0591326e-05 0.012774916 0.016566472
5.2971614e-06 0.028677043 3.8593e-41 6.4102e-41 -2.3598e-41 3.7128873e-14 -6.2213e-41 0.0027524587
-4.3729e-41 0.0016738541 0.006999847 0.0024762957 6.7562956e-07 5.4059e-41 4.021e-41 5.6138597e-06
0.0013123163 1.8067853e-06 3.059e-42 -4.1008e-41 9.1718085e-21 0.002073493 -3.0813e-41 7.84288e-07
0.0065721064 -6.3948e-41 -2.9698e-41 5.7361e-41 1.1755e-41 8.809635e-07 0.0005418333 0.0006911693
2.265277e-07 0.0012041974 4.103e-41 3.9765e-41 -4.3813e-41 1.6984952e-15 -6.6396e-41 0.00011419531
-2.7772e-41 0.00016332541 0.0007117402 0.0002385627 6.582982e-08 -4.9193e-41 -6.9859e-41 5.2839346e-07
0.00012565524 1.7086711e-07 -6.4285e-41 8.4086e-41 -6.1685e-40 0.00019908429 -4.2088e-41 7.442654e-08
0.000636102 -3.0422e-41 -1.06e-42 -6.1326e-41 -5.1444e-41 8.5477645e-08 5.1321185e-05 6.60757e-05
2.1899243e-08 0.000115537776 3.7506e-41 6.015e-41 9.7736e-41 1.7378852e-16 -3.4158e-41 1.0835386e-05
2.6098e-41 8.659e-42 -3.1155e-41 -1.7415e-41 6.0515e-41 3.8327e-41 5.1562e-41 7.2e-43
4.9235e-41 -1.281e-42 -4.8073e-41 -8.1449e-41 -2.6244e-41 -8.966e-42 -5.8703e-41 -4.404e-42
-3.2809e-41 -5.1882e-41 -2.1525e-41 1.9478e-41 -5.607e-42 5.7645e-41 1.8521e-41 2.9366e-41
-6.3332e-41 6.5047e-41 2.9015e-41 2.2028e-41 3.0153e-41 4.3408e-41 -4.865e-41 6.3106e-41
1.16598e-40 -2.4734e-41 -6.6993e-41 2.3093e-41 -6.2681e-41 3.8333e-41 -3.988e-41 9.193e-42
-7.4497e-41 5.5707e-41 1.2822e-41 -1.1133e-41 7.114e-42 2.8711e-41 -5.1751e-41 -4.212e-42
5.457e-41 1.7066e-41 -4.4654e-41 -1.58389e-40 6.4481e-41 1.01897e-40 -5.4302e-41 5.262e-41
-5.3247e-41 -8.705e-42 4.6683e-41 -7.9961e-41 7.0247e-41 -2.3693e-41 -2.6215e-41 -4.2545e-41
6.6946e-41 5.086736e-05 0.00022001084 7.3805175e-05 2.0369825e-08 1.0707e-41 -5.4847e-41 1.6295719e-07
3.8834954e-05 5.2681436e-08 -3.631e-42 -7.3553e-41 -3.544828e-34 6.138321e-05 2.0764e-41 2.2948015e-08
0.0001955817 -6.9712e-41 1.9953e-41 8.959e-41 -6.9216e-41 2.6333499e-08 1.5850648e-05 2.0437921e-05
6.8492803e-09 3.583997e-05 -3.9759e-41 -3.7876e-41 1.2434e-41 5.3277224e-17 -4.7273e-41 3.3442639e-06
00000000: a99b 0000 c2ee 1208 1f37 1790 fd4f 0000
00000010: 9faa 0000 c23c 0000 0512 0080 4598 0080
00000020: 8953 0080 da32 0080 e157 0080 9196 0080
00000030: 124d 0080 5345 0000 2540 0080 f997 0000
00000040: db4d 0000 6f04 0080 10af 0080 da8b 0000
00000050: 6109 0000 a9b1 0080 ed90 0080 dd46 0080
00000060: a3a4 0000 6da1 0080 ea19 0080 d235 0000
00000070: 3747 0080 b60f 0080 8e26 0080 5824 0080
00000080: c171 0080 3dbf 1fb1 e420 e1b3 27cf 0faf
00000090: be23 0080 464d 0000 0d21 0080 eeef 7e9a
000000a0: d7b2 f220 4977 6b8d 6319 0080 f4c4 0000
000000b0: b65c a002 1856 912b a797 0080 69a8 248a
000000c0: 5c48 432f 32d2 0080 1bd9 0000 b436 0000
000000d0: 2344 0000 5c80 0000 83b4 4b2d 9cb8 3e1b
000000e0: 147c 0000 54d5 af19 b401 0000 d439 0000
000000f0: 379a 0080 5b72 0000 2a76 0080 39cc 4619
00000100: 849d 0180 364c 1b3d 439f 153e f490 673d
00000110: 15a1 8337 e14f 0080 f49d 0000 9f35 0e39
00000120: 6629 fe3c 9911 3538 cb07 0000 92a8 0000
00000130: ba77 1ea5 32af 473d 3938 0000 d88e 9d37
00000140: 3980 153e 72bc 0000 f650 0080 2d29 0080
00000150: 85a5 0000 89bb ac37 e24d 513c 69b6 873c
00000160: 45be b136 1eec ea3c 956b 0000 b1b2 0000
00000170: c841 0080 ad36 2729 6dad 0080 9862 343b
00000180: e679 0080 3965 db3a f95e e53b 5949 223b
00000190: e95c 3535 b296 0000 1770 0000 b05e bc36
000001a0: 0702 ac3a ac80 f235 8708 0000 5072 0080
000001b0: 2540 2d1e 71e3 073b e555 0080 dc87 5235
000001c0: d35a d73b 43b2 0080 c952 0080 e69f 0000
000001d0: c520 0000 5a7b 6c35 d109 0e3a 962f 353a
000001e0: 763b 7334 29d6 9d3a 6072 0000 d96e 0000
000001f0: 227a 0080 6ac7 f426 16b9 0080 247c ef38
00000200: 6b4d 0080 5542 2b39 1494 3a3a b026 7a39
00000210: 545e 8d33 2189 0080 bdc2 0080 ecd6 0d35
00000220: 52c2 0339 9877 3734 33b3 0080 66ea 0000
00000230: 87b7 0680 48c1 5039 5375 0080 6cd4 9f33
00000240: 15c0 263a ce54 0080 f402 0080 f4aa 0080
00000250: 688f 0080 d58f b733 b441 5738 1f92 8a38
00000260: f21c bc32 df4c f238 8d68 0000 aca7 0000
00000270: 7310 0100 515d 4825 385f 0080 a1c9 3537
00000280: c048 0000 2318 0000 d956 0080 8c30 0080
00000290: b1a8 0000 d76a 0000 bc8f 0000 0202 0000
000002a0: 3f89 0000 9203 0080 0286 0080 0ce3 0080
000002b0: 2849 0080 fe18 0080 a4a3 0080 470c 0080
000002c0: 755b 0080 a090 0080 013c 0080 4c36 0000
000002d0: a10f 0080 b1a0 0000 a133 0000 dc51 0000
000002e0: 8bb0 0080 53b5 0000 e250 0000 683d 0000
000002f0: 0e54 0000 0179 0000 9e87 0080 eaaf 0000
00000300: 0745 0100 f344 0080 c0ba 0080 6040 0000
00000310: bbae 0080 db6a 0000 2b6f 0080 a019 0000
00000320: abcf 0080 4a9b 0000 be23 0000 091f 0080
00000330: d513 0000 0950 0000 4390 0080 be0b 0080
00000340: 1e98 0000 932f 0000 7a7c 0080 86b9 0180
00000350: bfb3 0000 0c1c 0100 5f97 0080 af92 0000
00000360: 6e94 0080 4418 0080 2282 0000 e6de 0080
00000370: d2c3 0000 0c42 0080 1449 0080 9976 0080
00000380: 9eba 0000 695a 5538 b6b2 6639 dac7 9a38
00000390: b8f9 ae32 d91d 0000 e498 0080 55f9 2e34
000003a0: b7e2 2238 da43 6233 1f0a 0080 09cd 0080
000003b0: 2098 eb87 dcba 8038 e239 0000 381f c532
000003c0: 1015 4d39 54c2 0080 9f37 0000 bef9 0000
000003d0: f2c0 0080 fa33 e232 02f7 8437 1a72 ab37
000003e0: e856 eb31 e052 1638 d56e 0080 9569 0080
000003f0: a922 0000 a5b2 7524 c783 0080 046e 6036

mlp.9.bias f4 [64]
4.2127e-41 2.2387e-41 0.008077539 0.0003899267 3.984135e-05 -6.8553e-41 5.1004e-41 1.2791398e-05
1.6704062e-06 0.006025122 2.0311003e-08 -4.4362e-41 -2.2684e-41 5.5001e-41 1.1740245e-09 0.0048984843
-5.1851e-41 0.0016902233 4.495e-42 5.6004e-41 -3.2645e-41 0.00223954 -3.1868e-41 1.5333276e-08
3.6140293e-07 6.638e-42 -5.327e-41 1.879203e-09 4.9707e-41 1.914e-41 -2.913e-42 0.00013392331
5.6446108e-11 -1.0731e-41 0.0009956408 1.0422515e-06 0.004223473 0.008357141 2.8713e-41 2.9688914e-24
1.4924e-41 3.6312174e-22 3.8496952e-19 -4.3261e-41 4.4603e-41 2.4083e-41 3.9566e-41 -3.8795e-41
6.2681e-41 1.2052148e-07 -6.2614e-41 0.0008664638 0.004915653 4.2678e-41 0.0006348366 1.829e-41
0.0036428906 0.002994838 -4.7065e-41 -1.682594e-27 -4.5605e-41 3.1987e-41 1.5849564e-12 0.0039607766
00000000: 6f75 0000 683e 0000 a757 043c 136f cc39
00000010: 531b 2738 19bf 0080 2e8e 0000 a39a 5637
00000020: b832 e035 636e c53b 5e78 ae32 aa7b 0080
00000030: 3c3f 0080 5299 0000 515b a130 7783 a03b
00000040: 8a90 0080 7c8a dd3a 880c 0000 1e9c 0000
00000050: 005b 0080 3fc5 123b d658 0080 3bb6 8332
00000060: d706 c234 8112 0000 7f94 0080 4a23 0131
00000070: 908a 0000 5b35 0000 1f08 0080 c46d 0c39
00000080: ab40 782e ea1d 0080 2980 823a 7de3 8b35
00000090: 0f65 8a3b 64ec 083c 0a50 0000 f4b4 6518
000000a0: 9a29 0000 5e7e db1b f33e e320 9878 0080
000000b0: 567c 0000 2243 0000 4b6e 0000 256c 0080
000000c0: bbae 0000 b168 0134 8bae 0080 6723 633a
000000d0: 7c13 a13b f876 0000 2a6b 263a fc32 0000
000000e0: 90bd 6e3b 0b45 443b 3383 0080 104f 0593
000000f0: 217f 0080 2b59 0000 1310 df2b 67c9 813b

mlp.12.weight f4 [128, 64]
-1.9103e-41 3.4057e-41 -3.612957e-39 -1.47142e-40 -4.9613e-41 6.8825e-41 6.8141e-41 -6.2806e-41
-3.3483e-41 -9.063628e-39 6.0627e-41 3.5066e-41 8.126e-42 -2.9504e-41 1.5325e-41 -2.117645e-39
-7.2423e-41 -7.29007e-40 1.8632e-41 1.5825e-41 -3.9703e-41 -1.743561e-39 5.2079e-41 5.681e-42
4.7043e-41 -1.08919e-40 1.2276e-40 4.7407e-41 7.0005e-41 1.8913e-41 -9.228e-41 -2.5107e-41
5.4928e-41 -2.7349e-41 -1.192249e-39 3.604e-41 -3.54802e-39 -2.555973e-39 2.6796e-41 -5.8855e-41
-5.3e-44 2.3354e-41 8.7217e-41 2.541e-41 -7.2193e-41 1.3005e-41 6.7217e-41 -2.2344e-41
2.4816e-41 -6.1891e-41 6.707e-42 -1.42399e-39 -9.842733e-39 -1.3338e-41 -1.204054e-39 -9.938e-42
-1.237551e-39 -7.3483e-40 5.5138e-41 -6.3224e-41 -8.3907e-41 5.6676e-41 2.9835e-41 -2.708039e-39
-3.6194e-41 3.6664e-41 -1.8053644e-16 -1.6356723e-25 -7.145e-42 -3.0323e-41 -3.8796e-41 -5.0603145e-32
-4.59116e-28 -3.86926e-18 -2.4337942e-35 4.613e-41 4.2747e-41 4.477e-42 -1.1164e-41 -9.00175e-19
6.667e-42 -1.9934287e-20 -9.5466e-41 2.5504e-41 -9.343e-41 -4.3849552e-20 4.0961e-41 -2.4565e-41
-8.938863e-38 -4.938e-41 2.7168e-41 -4.2e-42 -6.0629e-41 -1.185e-42 8.3288e-41 -4.1508406e-33
5.1241e-41 -9.3831e-41 -5.9299913e-30 -4.6889716e-28 -2.6074163e-22 -3.0503226e-16 5.2734e-41 3.2074e-41
4.9146e-41 4.3244e-41 4.6152e-41 5.2197e-41 2.1685e-41 -3.8957e-41 6.1406e-41 3.0977e-41
3.5387e-41 -3.4368e-41 -4.598e-41 -4.1847203e-20 -5.3179747e-22 -6.255e-42 -5.40916e-31 -1.836e-42
-6.4092337e-21 -2.9767393e-20 3.5397e-41 -4.7774e-41 2.5172e-41 8.7814e-41 -1.32e-42 -3.726706e-21
-2.2013e-41 2.3766e-41 -5.55298e-40 -4.3216e-41 -1.5737e-41 7.1657e-41 2.2908e-41 -3.4482e-41
-6.3961e-41 -1.608653e-39 -1.70064e-40 5.0953e-41 -2.9204e-41 5.391e-42 -7.0803e-41 -1.171958e-39
4.5747e-41 -5.24191e-40 -5.1852e-41 -1.2274e-41 6.546e-41 -9.6628e-41 2.2565e-41 3.6071e-41
-4.7463e-41 -7.0173e-41 6.6026e-41 4.9627e-41 -5.775e-41 -4.88e-41 -8.5195e-41 -5.2012e-41
2.0032e-41 -5.2479e-41 -9.829e-42 7.0356e-41 -7.6866e-40 -7.03372e-40 4.0643e-41 2.5403e-41
4.2946e-41 6.5385e-41 -3.5844e-41 3.9435e-41 9.746e-41 -2.88e-41 -5.0642e-41 -4.9953e-41
4.1687e-41 5.1386e-41 3.4653e-41 -6.3431e-41 -5.04346e-40 4.7954e-41 2.0438e-41 2.5219e-41
-3.74908e-40 -9.69288e-40 -4.7368e-41 -3.5485e-41 6.5586e-41 1.9083e-40 -6.7101e-41 -1.654869e-39
-4.2517e-41 1.6224e-41 -2.2627e-41 -5.8612e-41 2.5172e-41 -5.1282e-41 5.7582e-41 2.3206e-41
-1.9453e-41 -4.8234e-41 5.7581e-41 -6.4933e-41 -4.7468e-41 3.4637e-41 -2.3235e-41 -2.424e-41
-3.7126e-41 -2.1643e-41 3.826e-42 2.4475e-41 -2.3208e-41 -1.3465e-41 -3.6529e-41 -3.215e-41
-1.6007e-41 -2.745e-41 6.6988e-41 -4.3437e-41 1.2665e-41 -5.833e-41 -6.5623e-41 -3.6948e-41
2.4256e-41 -3.6755e-41 -4.9026e-41 4.8077e-41 2.692e-42 5.1573e-41 -1.31555e-40 -4.0441e-41
-5.4913e-41 7.235e-42 6.1268e-41 -3.91e-41 -3.7705e-41 6.4614e-41 3.2804e-41 -3.4147e-41
2.162e-41 6.4499e-41 1.1718e-41 -4.833e-41 -2.814e-42 -1.1044e-41 -4.9642e-41 -2.4008e-41
-3.0421e-41 -2.3206e-41 7.459e-42 6.0379e-41 -2.3881e-41 4.032e-41 3.78e-41 -5.8168e-41
00000000: 4035 0080 f05e 0000 7457 2780 2c9a 0180
00000010: 4d8a 0080 dbbf 0000 f3bd 0000 14af 0080
00000020: 565d 0080 b5b1 6280 01a9 0000 c061 0000
00000030: a716 0000 3f52 0080 b82a 0000 220f 1780
00000040: e3c9 0080 2df0 0780 f033 0000 1d2c 0000
00000050: ad6e 0080 57fc 1280 2d91 0000 d60f 0000
00000060: 2383 0000 9f2f 0180 3456 0100 2784 0000
00000070: 25c3 0000 b934 0000 3d01 0180 fd45 0080
00000080: 1e99 0000 3d4c 0080 81fb 0c80 7764 0000
00000090: 70a2 2680 03d5 1b80 b24a 0000 10a4 0080
000000a0: 2600 0080 1a41 0000 20f3 0000 d546 0000
000000b0: 3fc9 0080 4124 0000 60bb 0000 493e 0080
000000c0: 2d45 0000 87ac 0080 b212 0000 8181 0f80
000000d0: 892d 6b80 2e25 0080 6a1c 0d80 b41b 0080
000000e0: ca79 0d80 6800 0880 b499 0000 3eb0 0080
000000f0: e6e9 0080 fd9d 0000 2b53 0000 e97c 1d80
00000100: e564 0080 3466 0000 f424 50a5 867c 4a96
00000110: eb13 0080 8754 0080 266c 0080 8f5f 838b
00000120: ea7f 1192 21c0 8ea2 1767 0186 9780 0000
00000130: 2977 0000 7b0c 0000 1f1f 0080 a6d7 84a1
00000140: 9612 0000 2646 bc9e 1f0a 0180 1847 0000
00000150: 7204 0180 db12 4f9f 2f72 0000 7a44 0080
00000160: c856 f381 a789 0080 bc4b 0000 b50b 0080
00000170: 02a9 0080 4e03 0080 2ce8 0000 4f6b ac89
00000180: d78e 0000 9005 0180 8d8c f08e 7599 1492
00000190: d09b 9d9b d1d6 afa5 0093 0000 6959 0000
000001a0: 0089 0000 8c78 0000 a780 0000 8191 0000
000001b0: 733c 0000 996c 0080 2dab 0000 5a56 0000
000001c0: a562 0000 ce5f 0080 2c80 0080 2a9e 459f
000001d0: d6b9 209c 7011 0080 8b89 2f8d 1e05 0080
000001e0: 4e22 f29d 9292 0c9f ac62 0000 2d85 0080
000001f0: 2b46 0000 caf4 0000 ae03 0080 7dca 8c9d
00000200: 5d3d 0080 4042 0000 f20b 0680 7878 0080
00000210: de2b 0080 c0c7 0000 dc3f 0000 1f60 0080
00000220: 4cb2 0080 4584 1180 12da 0180 098e 0000
00000230: 6951 0080 070f 0000 5fc5 0080 f1c2 0c80
00000240: 867f 0000 3bb5 0580 8b90 0080 3722 0080
00000250: 7ab6 0000 5c0d 0180 e73e 0000 8d64 0000
00000260: 4f84 0080 9dc3 0080 0eb8 0000 578a 0000
00000270: fca0 0080 0988 0080 7ded 0080 fd90 0080
00000280: d737 0000 4a92 0080 661b 0080 20c4 0000
00000290: b65e 0880 b7a8 0780 4c71 0000 d046 0000
000002a0: b777 0000 44b6 0000 eb63 0080 ee6d 0000
000002b0: ae0f 0100 4850 0080 2b8d 0080 408b 0080
000002c0: 3574 0000 3e8f 0000 9960 0000 d2b0 0080
000002d0: e97d 0580 ad85 0000 f938 0000 4d46 0000
000002e0: 1715 0480 fb8d 0a80 0b84 0080 eb62 0080
000002f0: d4b6 0000 f513 0200 0dbb 0080 1a05 1280
00000300: 8576 0080 3a2d 0000 133f 0080 63a3 0080
00000310: 2b46 0000 f48e 0080 84a0 0000 b040 0000
00000320: 3a36 0080 7586 0080 83a0 0000 02b5 0080
00000330: 5284 0080 8e60 0000 c540 0080 9243 0080
00000340: 7e67 0080 553c 0080 aa0a 0000 3a44 0000
00000350: b240 0080 8925 0080 d465 0080 9f59 0080
00000360: 9f2c 0080 854c 0080 bcba 0000 1679 0080
00000370: 4e23 0000 9aa2 0080 eeb6 0080 ff66 0080
00000380: 9e43 0000 7566 0080 aa88 0080 0586 0000
00000390: 8107 0000 c48f 0000 b96e 0180 bc70 0080
000003a0: 1399 0080 2b14 0000 caaa 0000 ff6c 0080
000003b0: 1b69 0080 1eb4 0000 725b 0000 305f 0080
000003c0: 453c 0000 ccb3 0000 aa20 0000 b986 0080
000003d0: d807 0080 c91e 0080 628a 0080 ed42 0080
000003e0: cd54 0080 b040 0080 cb14 0000 50a8 0000
000003f0: 9242 0080 6570 0000 5f69 0000 26a2 0080

mlp.12.bias f4 [128]
-2.955e-40 4.914e-41 -7.4894e-41 -3.3694e-41 0.00015856353 -1.12737e-40 0.0060954113 0.0077864663
1.9903e-41 0.008012193 5.7246e-41 6.2425e-41 -4.0792e-41 0.007027177 9.790817e-18 0.011471703
-4.3809e-41 -2.7066e-41 -3.116e-41 6.876e-42 7.3492173e-16 3.4227e-41 3.1002e-41 5.400175e-23
-3.5847e-41 0.009251296 2.7219e-41 5.2724e-41 1.1611261e-09 0.00011213311 0.00020536094 5.7537e-41
3.847e-42 0.004554707 1.6434e-41 3.9359616e-08 2.248e-41 0.0041412874 -3.4447e-41 -4.9124e-41
-3.1632e-41 -6.9702e-41 8.220804e-11 -6.9737e-41 0.00017043304 0.0023632543 3.934027e-10 1.096573e-27
-6.3364e-41 2.4008e-41 7.598541e-37 -3.8505e-41 -6.6813e-41 -5.00079e-40 0.010959277 3.8617122e-06
2.8088e-41 1.93e-41 0.007146079 -1.1069e-41 -1.5182e-41 1.9619781e-08 -3.689288e-39 3.9519898e-07
0.00059136754 2.039e-42 0.00941905 -2.7444e-41 -4.4785e-41 0.002016958 0.013919771 -2.3494e-41
4.6316e-41 6.4936e-41 3.3167e-41 5.1274e-41 7.229e-42 0.00011971981 -3.3321e-41 -7.8e-43
0.003288205 4.476e-42 2.5642e-41 4.897e-41 -4.8072e-41 2.4996e-41 7.705517e-30 0.00027141118
-3.9903e-41 0.0050368765 0.011393958 -1.4537556e-32 3.9794e-41 -6.0812e-41 -6.1198e-41 -1.081e-41
6.4608e-41 -3.7311e-41 6.6204e-41 -5.4254e-41 5.2176e-41 1.9593306e-21 -5.2078e-41 2.372738e-05
5.6737e-41 -2.335e-42 -1.7789e-40 3.5416e-41 6.4998e-41 0.0026987058 1.0703425e-24 9.6114456e-17
6.3968e-41 6.4912e-41 5.1858e-41 0.0015842429 1.30024e-40 6.3507e-41 4.9763776e-06 0.010581977
6.5425e-41 -3.3378e-41 -5.7446e-41 0.00894349 -2.0996e-41 1.41788e-40 2.3636e-41 -1.59081e-40
00000000: bc37 0380 fb88 0000 c6d0 0080 ed5d 0080
00000010: 1344 2639 443a 0180 04bc c73b 9d25 ff3b
00000020: 7b37 0000 9345 033c 949f 0000 04ae 0000
00000030: b671 0080 3c44 e63b d39b 3423 cff3 3b3c
00000040: 1f7a 0080 734b 0080 dd56 0080 2b13 0000
00000050: a7d3 5326 695f 0000 6c56 0000 7791 821a
00000060: ed63 0080 bf92 173c e04b 0000 f992 0000
00000070: 7e95 9f30 0129 eb38 2856 5739 64a0 0000
00000080: b90a 0000 a73f 953b d02d 0000 5b0c 2933
00000090: aa3e 0000 a3b3 873b 0660 0080 f088 0080
000000a0: 2d58 0080 4dc2 0080 03c7 b42e 66c2 0080
000000b0: 45b6 3239 d4e0 1a3b 8246 d82f 49c2 ad12
000000c0: a2b0 0080 ed42 0000 5048 8103 566b 0080
000000d0: 3fba 0080 0472 0580 8a8e 333c db93 8136
000000e0: 4c4e 0000 cd35 0000 a829 ea3b db1e 0080
000000f0: 522a 0080 5b88 a832 3c2c 2880 bc2b d434
00000100: 0106 1b3a af05 0000 5c52 1a3c 814c 0080
00000110: d87c 0080 f12e 043b c00f 643c 7e41 0080
00000120: 1c81 0000 04b5 0000 755c 0000 ee8e 0000
00000130: 2714 0000 1512 fb38 e35c 0080 2d02 0080
00000140: ed7e 573b 7a0c 0000 7b47 0000 8288 0000
00000150: 0186 0080 ae45 0000 5549 1c0f 314c 8e39
00000160: 3c6f 0080 620c a53b b9ad 3a3c 74f7 968a
00000170: ee6e 0000 85a9 0080 98aa 0080 221e 0080
00000180: 1ab4 0000 0268 0080 8db8 0000 3d97 0080
00000190: 7291 0000 f70a 141d 2c91 0080 290a c737
000001a0: 299e 0000 8206 0080 e3ef 0180 ba62 0000
000001b0: 30b5 0000 c5dc 303b a3a0 a517 f69f dd24
000001c0: 51b2 0000 f3b4 0000 8f90 0000 5fa6 cf3a
000001d0: 746a 0100 08b1 0000 c2fa a636 0760 2d3c
000001e0: 61b6 0000 0b5d 0080 23a0 0080 b787 123c
000001f0: 873a 0080 3f8b 0100 e341 0000 74bb 0180

mlp.15.weight f4 [64, 128]
6.53654e-40 4.263734e-22 -2.31863e-40 -3.5202e-41 0.00047049636 8.7728e-41 0.020910963 0.027106361
-1.3097e-41 0.02793669 3.3316e-41 -1.2365e-41 1.9408e-41 0.024286283 3.499929e-17 0.04070369
-2.0927e-41 7.031857e-31 -4.9036e-41 6.4266e-41 1.9268619e-15 -4.0725e-41 -2.1172e-41 1.9468168e-22
1.9995e-41 0.032505475 5.8461e-41 5.8087e-41 3.114502e-09 0.00034010905 0.00062527653 5.4097e-41
1.61779e-40 0.015294951 -1.2074438e-24 1.00606044e-07 5.5881e-41 0.0135455 -6.8376e-41 -4.1155e-41
5.6753e-41 6.1418e-41 2.2783439e-10 2.86483e-40 0.00052302954 0.0077636065 1.2041365e-09 2.9450597e-27
-1.4876e-41 -2.1182e-41 3.261996e-36 6.4072e-41 5.537e-41 4.25684e-40 0.03884971 1.0319367e-05
1.9404e-41 -3.6935e-41 0.02472306 -3.1005e-41 5.6554e-41 5.2515606e-08 3.4131003e-21 1.002493e-06
0.0018639234 2.5079e-41 0.0331255 -9.8206e-41 3.1699e-41 0.006605508 0.049786508 -3.8173e-41
3.1273e-41 -3.4765e-41 5.4316e-41 5.664e-42 4.5629e-41 0.00036187496 -2.8756906e-25 -6.2502e-41
0.011001877 5.4869e-41 2.3472e-41 2.2459e-41 2.0483e-41 2.21408e-40 3.042903e-29 0.00081901223
-2.33361e-40 0.017041702 0.040442627 1.9209237e-27 4.6773e-41 1.4451178e-33 6.2262e-41 -3.2837e-41
1.8855411e-29 4.7479e-41 2.44217e-40 2.75207e-40 -3.4651e-41 9.7767805e-21 1.68271e-40 6.9361085e-05
-1.09263e-40 6.4474e-41 6.0787e-41 6.8812e-41 -1.053e-41 0.008809839 5.044287e-24 2.5566533e-16
5.022e-41 -2.939e-41 -2.7659e-41 0.005049639 2.18262e-40 5.6521e-41 1.42198505e-05 0.037436567
4.9539e-41 -1.07566e-40 2.3868e-41 0.031375915 1.4662e-41 3.8764e-41 4.5453e-41 -9.1823e-41
-2.125e-41 -6.028e-42 1.169e-41 6.9254e-41 4.8091e-41 7.9194e-41 1.1391e-41 4.959e-42
-3.7228e-41 -1.558e-41 -5.1041e-41 -6.2611e-41 5.469e-41 6.4779e-41 -3.814e-41 -1.6905e-41
8.355e-42 2.8099e-41 2.6832e-41 3.525e-41 -3.8232e-41 1.10631e-40 -6.4858e-41 5.1643e-41
-6.0194e-41 8.081e-42 4.7025e-41 -5.688e-42 4.4233e-41 5.734e-41 -5.3209e-41 2.6798e-41
1.9247e-41 4.5722e-41 5.8747e-41 -4.4252e-41 3.4763e-41 -2.5865e-41 -6.1339e-41 5.831e-41
1.182e-41 -4.0238e-41 6.9168e-41 4.0615e-41 3.4427e-41 5.0517e-41 1.8152e-41 -1.3888e-41
2.3487e-41 1.28432e-40 -6.1583e-41 -6.9984e-41 -8.3676e-41 -5.31e-41 -2.5065e-41 -8.84e-42
-1.2326e-41 -1.3834e-41 -3.4038e-41 2.7753e-41 7.6432e-41 -3.0014e-41 -2.6318e-41 5.8933e-41
-3.9185e-41 -3.2876e-41 6.1538e-41 4.3341e-41 -1.8583e-41 -8.98e-43 -2.9668e-41 1.73241e-40
5.5954e-41 1.7953e-41 -6.5378e-41 -1.2016e-41 1.6395e-41 -2.6664e-41 -3.4308e-41 -6.2087e-41
5.4904e-41 -1.58295e-40 7.4521e-41 1.9153e-41 1.6804e-41 1.01937e-40 -5.0429e-41 -2.1253e-41
-7.9218e-41 -7.159e-42 -1.9348e-41 -1.0783e-41 5.5058e-41 2.3801e-41 -4.0765e-41 5.003e-41
-4.0161e-41 -6.1377e-41 5.5699e-41 3.4308e-41 -3.9632e-41 5.5287e-41 3.5292e-41 5.011e-42
-4.7384e-41 -2.4429e-41 1.452e-41 7.312e-42 -6.6584e-41 6.1591e-41 -6.6524e-41 -8.3293e-41
2.69733e-40 -2.8923e-41 2.5938e-41 -5.951e-42 -1.796e-41 -9.5026e-41 2.2813e-41 6.906e-42
-4.909e-41 4.6267e-41 6.4395e-41 4.7505e-41 3.33e-41 -1.7652e-41 7.3295e-41 7.856e-42
00000000: 1f1e 0700 0bdd 001c 5786 0280 2162 0080
00000010: f4ac f639 8df4 0000 784d ab3c 290e de3c
00000020: 8224 0080 7cdb e43c df5c 0000 7822 0080
00000030: 1a36 0000 07f4 c63c de67 2124 eab8 263d
00000040: 563a 0080 6232 640d b188 0080 26b3 0000
00000050: 54d8 0a27 8671 0080 053b 0080 105b 6b1b
00000060: bd37 0000 7624 053d f7a2 0000 eca1 0000
00000070: e606 5631 aa50 b239 99e9 233a cd96 0000
00000080: f9c2 0100 ad97 7a3c c7d7 ba97 c20c d833
00000090: c69b 0000 f2ed 5d3c 9bbe 0080 b972 0080
000000a0: 349e 0000 35ab 0000 ae81 7a2f 991e 0300
000000b0: eb1b 093a da65 fe3b c97e a530 e854 6913
000000c0: 7829 0080 0c3b 0080 febf 8a04 9bb2 0000
000000d0: 599a 0000 a2a2 0400 e020 1f3d 5821 2d37
000000e0: 1736 0000 f666 0080 0488 ca3c 6e56 0080
000000f0: a69d 0000 858d 6133 7bf1 801d 668d 8635
00000100: e44e f43a e945 0000 9bae 073d c211 0180
00000110: 5d58 0000 0473 d83b f0ec 4b3d 696a 0080
00000120: 2d57 0000 e960 0080 6997 0000 ca0f 0000
00000130: 327f 0000 09ba bd39 23ff b196 3bae 0080
00000140: 3741 343c f498 0000 6e41 0000 9b3e 0000
00000150: 1939 0000 3269 0200 244b 1a10 fbb2 563a
00000160: 848a 0280 0a9b 8b3c 2ba7 253d f630 1813
00000170: 6282 0000 831c f008 90ad 0000 895b 0080
00000180: 7237 bf0f 5a84 0000 c7a8 0200 2aff 0200
00000190: 9860 0080 9cad 381e 12d5 0100 f375 9138
000001a0: 9530 0180 bab3 0000 73a9 0000 d2bf 0000
000001b0: 5a1d 0080 2557 103c 3324 c318 8b61 9325
000001c0: fe8b 0000 ed51 0080 1a4d 0080 7177 a53b
000001d0: 6d60 0200 8f9d 0000 cb91 6e37 1657 193d
000001e0: 188a 0000 da2b 0180 8942 0000 0884 003d
000001f0: df28 0000 0f6c 0000 b47e 0000 f7ff 0080
00000200: 3d3b 0080 ce10 0080 9620 0000 0dc1 0000
00000210: 0f86 0000 c3dc 0000 c11f 0000 d30d 0000
00000220: c767 0080 6e2b 0080 488e 0080 89ae 0080
00000230: 7498 0000 94b4 0000 526a 0080 202f 0080
00000240: 4a17 0000 544e 0000 cc4a 0000 4362 0000
00000250: 936a 0080 6534 0100 ccb4 0080 f68f 0000
00000260: cca7 0080 8716 0000 1683 0000 db0f 0080
00000270: 4e7b 0000 d79f 0000 5394 0080 b44a 0000
00000280: a735 0000 747f 0000 c3a3 0000 5b7b 0080
00000290: e860 0000 1a48 0080 fdaa 0080 8ba2 0000
000002a0: f320 0000 2b70 0080 d0c0 0000 3871 0000
000002b0: f85f 0000 d28c 0000 9a32 0000 b726 0080
000002c0: 7941 0000 0466 0100 abab 0080 16c3 0080
000002d0: 41e9 0080 0594 0080 df45 0080 a418 0080
000002e0: 5c22 0080 9026 0080 e25e 0080 5d4d 0000
000002f0: 10d5 0000 ab53 0080 5d49 0080 48a4 0000
00000300: 3b6d 0080 a55b 0080 8bab 0000 d178 0000
00000310: cd33 0080 8102 0080 b452 0080 ede2 0100
00000320: fa9b 0000 0c32 0000 3fb6 0080 7f21 0080
00000330: b42d 0000 544a 0080 a35f 0080 13ad 0080
00000340: 0d99 0000 43b9 0180 bccf 0000 6435 0000
00000350: d82e 0000 291c 0100 938c 0080 3f3b 0080
00000360: d4dc 0080 f513 0080 ef35 0080 0f1e 0080
00000370: 7b99 0000 5942 0000 a371 0080 778b 0000
00000380: f46f 0080 18ab 0080 449b 0000 a35f 0000
00000390: 7a6e 0080 1e9a 0000 6162 0000 f80d 0000
000003a0: 1684 0080 1944 0080 7a28 0000 6214 0000
000003b0: 9cb9 0080 b1ab 0000 71b9 0080 30e8 0080
000003c0: e8ef 0200 a050 0080 4e48 0000 9710 0080
000003d0: 1132 0080 e508 0180 983f 0000 4013 0000
000003e0: d888 0080 f980 0000 82b3 0000 6d84 0000
000003f0: d45c 0000 3531 0080 51cc 0000 e615 0000

mlp.15.bias f4 [64]
0.020509746 -6.5026e-41 0.0126533 0.0006129167 -1.0143e-41 0.012375806 4.9757e-41 -7.52e-43
-3.833e-41 4.5619e-41 2.7199e-41 1.1238116e-17 7.041539e-06 2.138e-42 4.1735e-41 0.025637217
1.4295e-41 0.00787281 -2.0983571e-33 -3.5346e-41 -8.785e-42 -1.0252e-41 3.4703e-41 3.799898e-21
-4.0371822e-19 -4.6557e-41 -4.8481e-41 0.02854899 -8.1058e-41 -3.7485e-41 -4.7559e-41 -7.993e-42
-2.1601284e-15 -2.0365e-41 5.1983e-41 -1.036378e-39 -5.4358e-41 -5.1338e-41 3.5082e-41 5.5284e-41
5.442e-41 6.3213e-41 0.026634093 0.019127795 -2.8402e-41 2.4443e-41 0.0131326625 6.6747e-41
1.0751497e-08 0.0020468927 -7.3392e-41 -1.3307e-41 7.939017e-18 -4.5422e-41 0.022045588 -1.168e-41
-2.575036e-39 0.0026596799 0.038030174 -4.5185e-41 -2.1534e-41 4.4986722e-05 -6.5265e-41 0.017363649
00000000: 0e04 a83c 44b5 0080 c94f 4f3c 25ac 203a
00000010: 461c 0080 e5c3 4a3c b48a 0000 1902 0080
00000020: d96a 0080 2b7f 0000 d24b 0000 814e 4f23
00000030: 5c46 ec36 f605 0000 5774 0000 2405 d23c
00000040: d927 0000 f5fc 003c 1f53 2e89 8862 0080
00000050: 7d18 0080 941c 0080 bd60 0000 5c8e 8f1d
00000060: 2c50 eea0 c881 0080 2587 0080 92df e93c
00000070: f5e1 0080 7e68 0080 9384 0080 4816 0080
00000080: 56a7 1ba7 c538 0080 e890 0000 0049 0b80
00000090: 8797 0080 1c8f 0080 cb61 0000 1c9a 0000
000000a0: b397 0000 36b0 0000 be2f da3c e5b1 9c3c
000000b0: 2c4f 0080 2344 0000 612a 573c 10ba 0000
000000c0: 95b5 3832 2925 063b 96cc 0080 1825 0080
000000d0: f372 1223 9e7e 0080 f398 b43c 8f20 0080
000000e0: 270a 1c80 064e 2e3b 87c5 1b3d f57d 0080
000000f0: 073c 0080 20b0 3c38 efb5 0080 363e 8e3c

mlp.18.weight f4 [8, 64]
2.6982e-41 -6.0774e-41 -3.6878e-41 -5.408e-41 -1.14612e-40 5.3396e-41 4.8461e-41 3.289e-41
3.4152e-41 4.2892e-41 -3.0625e-41 -2.2026e-41 5.8227e-41 -6.9154e-41 -4.7693e-41 2.1871e-41
-8.1424e-41 -6.5487e-41 2.808e-42 9.57e-43 6.296e-41 -5.409e-41 7.005e-41 5.643e-41
9.131e-42 1.3452e-41 -4.3869e-41 -1.1898e-41 4.12e-43 -5.7097e-41 -7.804e-42 2.7914e-41
-1.2494e-41 -4.8961e-41 2.0432e-41 5.5444e-41 -1.01322e-40 1.5725e-41 5.335e-41 1.3324e-41
5.3995e-41 -4.9989e-41 -8.795e-42 5.3398e-41 3.92e-43 -1.51727e-40 3.041e-42 4.3394e-41
5.0528e-41 -9.317e-42 5.5249e-41 9.904e-42 2.6329e-41 -9.1117e-41 -2.811e-41 -6.5596e-41
5.2867e-41 -4.2989e-41 -4.4141e-41 1.9363e-41 -2.9766e-41 1.5438e-41 2.6043e-41 1.7564e-41
0.06705912 -5.6893e-41 0.045728724 0.0019374097 1.8721e-41 0.043209214 -4.1561e-41 4.288082e-30
4.6669e-41 -4.6527e-41 1.5757784e-13 5.1345136e-16 1.301904e-05 -1.7057e-41 4.202e-42 0.090875424
-4.5252e-41 0.026487071 -3.9636175e-36 -2.4702e-41 -1.26494e-40 3.1033e-41 5.349e-41 2.274263e-20
3.5153604e-18 -6.454e-41 2.6035e-41 0.106378466 3.8887e-41 5.4532e-41 -8.689939e-23 -3.6962e-41
-1.3433959e-06 1.3236047e-36 4.5546e-41 7.219319e-39 4.7888e-41 -2.2352e-41 1.44264e-40 1.348e-41
5.042947e-10 2.825e-41 0.09393712 0.06665883 5.5051e-41 -3.107e-42 0.052478887 -1.2383e-41
2.9421383e-08 0.006195428 3.7949e-41 -6.4433e-41 3.576898e-17 -5.2405497e-24 0.087962255 2.5995e-41
1.477431e-38 0.008096161 0.14719795 3.1056e-41 -2.971787e-28 9.016054e-05 4.7689e-41 0.06291726
5.578279e-12 -6.4687e-41 7.670365e-12 1.2974196e-13 -2.5473e-41 4.49953e-12 2.9856e-41 1.0868e-41
-3.0624e-41 -3.8753e-41 3.3089345e-17 2.0290764e-26 4.287002e-15 -1.6081e-41 -3.1044e-41 7.648324e-12
-1.248e-41 3.751137e-10 4.8985e-41 -3.3609e-41 -3.7122e-41 -6.3301e-41 -5.9568e-41 1.0793835e-30
-5.4477577e-29 5.831e-42 -4.6209e-41 1.547979e-11 2.0044e-41 2.9262e-41 9.8224e-41 1.6782384e-33
5.4678134e-10 4.075e-42 5.123e-42 2.6538e-41 5.8735e-41 -5.6947e-41 1.05235e-40 -6.2906e-41
-4.9496126e-29 2.2897049e-24 8.316006e-12 5.859651e-12 -6.1908e-41 -3.3435e-41 3.656257e-12 9.683e-42
-2.9814776e-15 1.7247019e-12 3.062e-42 -4.1123e-41 9.122837e-20 6.7153e-41 6.0741963e-12 1.7396e-41
4.2618e-41 6.636151e-13 1.130394e-11 5.8535e-41 6.8064624e-19 -2.5801588e-08 -1.1555e-41 5.6189385e-12
0.01733836 -7.0904e-41 0.0104395775 0.00041381197 1.4054e-41 0.010121918 7.0649e-41 7.5135e-41
-3.5897e-41 -1.2682e-41 5.1735e-41 5.5530067e-16 3.3194754e-06 2.9378e-41 -2.6696e-41 0.022164278
4.2197e-41 0.0060544796 -1.9337703e-38 4.1862e-41 -1.7436e-40 -1.449e-41 1.8525e-41 1.7135088e-20
6.675965e-18 5.1555e-41 4.5545e-41 0.025010291 -4.6048e-41 1.0836e-41 -1.1645906e-30 -5.7841e-41
-4.8984763e-31 2.9324717e-37 -2.5075e-41 3.186546e-39 6.2858e-41 -4.0687e-41 6.7477e-41 5.9869e-41
3.4406154e-17 3.321e-41 0.023147563 0.016204955 -4.2895e-41 4.5419e-41 0.010943133 -6.0048e-41
1.655261e-08 0.0014491759 -3.9973e-41 -1.5205e-41 6.341711e-17 4.0458e-41 0.019134073 4.9952e-41
1.3369581e-38 0.0018448754 0.034324393 -1.8328e-41 -2.847e-41 2.9096198e-05 -2.9891e-41 0.014641948
00000000: 374b 0000 6aa9 0080 cd66 0080 c196 0080
00000010: 7e3f 0180 d994 0000 1787 0000 af5b 0000
00000020: 345f 0000 9177 0000 5f55 0080 663d 0080
00000030: 50a2 0000 c6c0 0080 f384 0080 f83c 0000
00000040: fae2 0080 8db6 0080 d407 0000 ab02 0000
00000050: 82af 0000 c896 0080 45c3 0000 4e9d 0000
00000060: 7419 0000 8025 0000 4a7a 0080 2b21 0080
00000070: 2601 0000 2a9f 0080 c115 0080 d04d 0000
00000080: d422 0080 7c88 0080 f538 0000 8e9a 0000
00000090: 721a 0180 d62b 0000 b894 0000 2425 0000
000000a0: 8496 0000 598b 0080 8418 0080 da94 0000
000000b0: 1801 0000 f4a6 0180 7a08 0000 f778 0000
000000c0: da8c 0000 f919 0080 039a 0000 9c1b 0000
000000d0: 6549 0000 fffd 0080 5c4e 0080 dbb6 0080
000000e0: 5f93 0000 d677 0080 0c7b 0080 fa35 0000
000000f0: fa52 0080 092b 0000 9948 0000 f630 0000
00000100: 4b56 893d 989e 0080 0b4e 3b3d aff0 fd3a
00000110: 3034 0000 25fc 303d db73 0080 fdf1 ad0e
00000120: 1882 0000 b381 0080 b86a 312a 06fe 1326
00000130: 5a6c 5a37 8c2f 0080 b70b 0000 e51c ba3d
00000140: 257e 0080 6afb d83c f997 a884 dc44 0080
00000150: 9d60 0180 8256 0000 1c95 0000 4ecc d61e
00000160: a4b1 8122 e9b3 0080 9348 0000 f4dc d93d
00000170: 676c 0000 0398 0000 1e1c d29a 0967 0080
00000180: bb4e b4b5 1e33 e103 f77e 0000 869c 4e00
00000190: 7e85 0000 4f3e 0080 2692 0100 9425 0000
000001a0: 969e 0a30 c04e 0000 1b62 c03d 6d84 883d
000001b0: 7699 0000 a908 0080 1af4 563d 8522 0080
000001c0: 4eba fc32 0403 cb3b c969 0000 9db3 0080
000001d0: 8ff4 2424 e4bb ca98 8e25 b43d 7748 0000
000001e0: c4e0 a000 c3a5 043c 0fbb 163e 9256 0000
000001f0: 005c bc91 9214 bd38 f084 0000 c4da 803d
00000200: ac44 c42c 52b4 0080 41f0 062d 9313 122a
00000210: 0247 0080 2a50 9e2c 3a53 0000 4c1e 0000
00000220: 5e55 0080 076c 0080 0199 1824 33f3 c814
00000230: 9d74 9a27 d42c 0080 8a56 0080 fd8c 062d
00000240: ca22 0080 8f38 ce2f 8d88 0000 b05d 0080
00000250: 7b67 0080 75b0 0080 0da6 0080 d623 af0d
00000260: f81d 8a90 4110 0000 d080 0080 6329 882d
00000270: e037 0000 9251 0000 cf11 0100 2f6c 0b09
00000280: 514c 1630 5c0b 0000 480e 0000 fa49 0000
00000290: bba3 0000 bf9e 0080 5a25 0100 5baf 0080
000002a0: a5f9 7a90 4728 3118 f64b 122d 0b2b ce2c
000002b0: 93ac 0080 345d 0080 a3a4 802c fe1a 0000
000002c0: 8ed6 56a7 efba f22b 8908 0000 a272 0080
000002d0: 2a68 d71f 32bb 0000 7fb7 d52c 7e30 0000
000002e0: cd76 0000 82ca 3a2b 6cdc 462d 2ca3 0000
000002f0: 2de4 4821 4ba2 ddb2 3620 0080 e6b2 c52c
00000300: 2d09 8e3c a7c5 0080 c30a 2b3c e7f4 d839
00000310: 2d27 0000 67d6 253c f1c4 0000 72d1 0000
00000320: 1164 0080 5a23 0080 3790 0000 f50d 2026
00000330: 27c4 5e36 e551 0000 6b4a 0080 dc91 b53c
00000340: a175 0000 a864 c63b a691 d280 b274 0000
00000350: 0be6 0180 6428 0080 a433 0000 1ad6 a11e
00000360: b54c f622 b78f 0000 f67e 0000 62e2 cc3c
00000370: 5d80 0080 351e 0000 33f7 bc8d 3da1 0080
00000380: f3f6 1e8d dd92 c702 e645 0080 cbb2 2200
00000390: 39af 0000 6b71 0080 19bc 0000 e4a6 0000
000003a0: 9eab 1e24 935c 0000 f59f bd3c 41c0 843c
000003b0: 9377 0080 9c7e 0000 d44a 333c 64a7 0080
000003c0: 932f 8e32 46f2 bd3a 6e6f 0080 632a 0080
000003d0: db3a 9224 c870 0000 0fbf 9c3c 3f8b 0000
000003e0: f494 9100 bfcf f13a bc97 0c3d 1733 0080
000003f0: 5d4f 0080 9c13 f437 5353 0080 c8e4 6f3c

mlp.18.bias f4 [8]
-1.292e-42 0.089081444 9.380295e-12 0.022496713 0.1215815 8.2095865e-15 -6.5365e-41 0.00017029369
00000000: 9a03 0080 5570 b63d 1805 252d 074b b83c
00000010: b9ff f83d 09e4 1328 36b6 0080 dd90 3239

mlp.21.weight f4 [1, 8]
-5.6001e-41 -0.28611574 -3.5925297e-11 -0.07018707 -0.39424643 0.00031784383 1.41e-41 -0.00042563712
00000000: 1c9c 0080 c37d 92be 4a00 1eae 3dbe 8fbd
00000010: abda c9be 47a4 a639 4e27 0000 0c28 dfb9
