model_saved/2024-01-25-07-49-50/model_2024-01-25-07-51-06_epoch_11000_train_mse_2.04e-02_val_mse_2.00e-02.pt (torch, 88343 bytes, 15 tensors)

mlp.0.weight f4 [8, 8]
000000 26 a2 00 00 b3 18 00 00 9a 7b 00 80 07 a9 00 80
       5.8168e-41 8.86e-42 -4.434e-41 -6.0636e-41
000010 9d 49 00 00 40 40 00 00 a9 48 00 00 a6 2e 00 00
       2.6407e-41 2.3049e-41 2.6066e-41 1.6734e-41
000020 7d 70 dc 3b a8 22 47 bb 11 5b b0 38 d1 4a 57 37
       0.006727277 -0.0030385647 8.4092964e-05 1.2832418e-05
000030 34 13 2c 37 46 4b fe 36 90 2b f4 36 a5 5d 15 37
       1.025647e-05 7.578553e-06 7.276838e-06 8.902895e-06
000040 30 d5 07 bd c0 70 74 3d ea 79 8b 3c bc 5e 6b 39
       -0.033162296 0.05967784 0.017025907 0.00022446638
000050 73 ae e4 39 0d d3 f2 39 67 93 cd 3a ab ab fc 37
       0.00043617524 0.00046315082 0.0015684188 3.012068e-05
000060 29 6c d3 bc 73 2e 2e 3d e7 69 41 3c 35 2c 0c 39
       -0.02580841 0.042524766 0.011805034 0.00013367909
000070 9e 7e 9c 39 ef 5c ab 39 5a 15 93 3a a0 7d 8a b7
       0.00029848976 0.00032684903 0.0011221573 -1.650938e-05
000080 99 e4 ff 3d 7a 0c 85 bd f2 25 af 3b 51 3d 9c 39
       0.124947734 -0.0649652 0.0053450996 0.00029800323
000090 de 0f 78 39 ee 33 4f 39 ae c6 27 39 2b 82 2c 39
       0.00023657034 0.00019760404 0.00016000375 0.0001645169
0000a0 a4 05 c1 bd 9e bf 41 3e 51 9b 72 3d 32 33 03 3a
       -0.09424904 0.18920752 0.059230153 0.0005004882
0000b0 c8 b5 9b 3a c8 55 a8 3a b4 2b a2 3b b6 cd c8 b9
       0.0011879737 0.0012842948 0.0049490575 -0.0003830024
0000c0 aa d0 b0 3d c2 48 ab 3e d5 57 2e 3e 1b a7 5a 3a
       0.086335495 0.33453947 0.17025693 0.00083409407
0000d0 c0 ad 17 3b f0 23 29 3b a1 6d 26 3c 98 78 62 ba
       0.0023144335 0.0025808774 0.0101579735 -0.00086391857
0000e0 14 d5 81 bc d4 a5 b7 3d 45 89 ef 3c c2 57 81 39
       -0.015848674 0.08967176 0.02924026 0.00024670182
0000f0 bd 0e 12 3a e0 a3 1c 3a 4e 81 15 3b fe e6 4a b9
       0.0005571654 0.0005975347 0.0022812667 -0.00019350272

mlp.0.bias f4 [8]
000000 93 7c 00 80 e2 3f 12 b6 f1 31 c5 39 af 3f 6c 39
       -4.4689e-41 -2.179288e-06 0.00037611977 0.00022530438
000010 d8 54 a7 b5 20 fd 64 3a 37 b5 cb 3a 50 68 c7 39
       -1.2467162e-06 0.00087352283 0.0015541677 0.00038033957

mlp.3.weight f4 [16, 8]
000000 42 30 00 00 a3 8f 87 b9 d7 e1 f1 3b f1 e2 ad 3b
       1.7312e-41 -0.00025856224 0.0073816585 0.0053065945
000010 00 85 94 bb aa a3 c1 3c b4 13 3c 3d 40 5b 2f 3c
       -0.0045324564 0.023637611 0.045917228 0.010702908
000020 92 76 00 80 15 88 89 b6 fc aa 0e 39 5b 7d b3 38
       -4.2535e-41 -4.09876e-06 0.00013605872 8.5587344e-05
000030 92 e5 a8 b8 26 50 c5 39 a4 6a 56 3a ec 1b 2d 39
       -8.053625e-05 0.00037634483 0.0008179343 0.00016508967
000040 41 12 00 00 3d f6 a8 b9 6f d6 05 3c 1e 2e c0 3b
       6.548e-42 -0.0003222692 0.008168801 0.0058648726
000050 52 7a bd bb a9 57 d7 3c ed b5 6c 3d 8d 18 44 3c
       -0.005782404 0.026286917 0.057790685 0.011968744
000060 52 83 00 00 76 69 05 37 7d 65 1d b9 d7 6e e4 b8
       4.7109e-41 7.951972e-06 -0.00015010494 -0.00010892533
000070 96 a6 13 3b be 7d 07 ba 8f ec dd 39 50 4f 0f ba
       0.0022529713 -0.00051685784 0.00042328655 -0.00054668356
000080 1f ab 00 80 a6 24 00 80 f1 99 00 80 a1 6a 00 00
       -6.1387e-41 -1.3147e-41 -5.5224e-41 3.8251e-41
000090 20 41 00 00 65 87 00 00 c4 ab 00 00 ab 00 00 80
       2.3362e-41 4.857e-41 6.1618e-41 -2.4e-43
0000a0 f2 13 00 00 58 04 00 00 8a 28 00 00 d0 ab 00 80
       7.155e-42 1.558e-42 1.4543e-41 -6.1635e-41
0000b0 61 89 00 80 fe 5c 00 00 a9 72 00 00 07 11 00 00
       -4.9282e-41 3.336e-41 4.1132e-41 6.108e-42
0000c0 6d 02 00 80 34 01 12 b7 a7 8e 7f 39 46 3f 79 39
       -8.7e-43 -8.702558e-06 0.00024371837 0.00023770062
0000d0 8f 75 2a b9 c1 53 67 3a 0e 70 04 3b 37 82 ad 39
       -0.00016256257 0.0008824431 0.0020208391 0.0003309415
0000e0 fd 53 00 00 a0 8b 6a ba 5a a5 c3 3c a9 dd 8c 3c
       3.013e-41 -0.00089471973 0.023882557 0.01719554
0000f0 69 8a 5f bc 37 59 9d 3d 80 0c 26 3e 3c c7 0e 3d
       -0.013643839 0.07683032 0.16215706 0.034857973
000100 94 6e 00 80 e5 44 00 80 79 6a 00 80 3d 83 00 00
       -3.9668e-41 -2.4715e-41 -3.8195e-41 4.708e-41
000110 ae 48 00 80 4e 9a 00 80 59 a4 00 00 3a 80 00 80
       -2.6073e-41 -5.5354e-41 5.8957e-41 -4.5999e-41
000120 dc 2e 00 00 ec 6b d7 ba f5 e0 22 3d bc 4d ea 3c
       1.681e-41 -0.0016435361 0.039765317 0.02860152
000130 07 74 9e bc ba 89 02 3e 51 d7 81 3e 78 ab 73 3d
       -0.019342436 0.12747851 0.25359586 0.059489697
000140 8e 84 00 80 f4 10 00 00 e4 98 00 00 9e a1 00 80
       -4.7552e-41 6.082e-42 5.4847e-41 -5.7977e-41
000150 ea 95 00 00 07 b1 00 00 8e 0d 00 80 e5 1b 00 00
       5.3779e-41 6.3505e-41 -4.863e-42 1.0007e-41
000160 ad 68 00 80 af 3f ff ba 00 82 2f 3d 8d a3 fc 3c
       -3.755e-41 -0.0019473935 0.042848587 0.030839706
000170 fe f5 25 bd d0 d0 0c 3e 31 35 8f 3e c4 8b 7c 3d
       -0.0405178 0.1375153 0.2797027 0.06165673
000180 35 95 00 80 0c 8f 00 80 77 b0 00 80 b7 21 00 00
       -5.3525e-41 -5.1316e-41 -6.3304e-41 1.2095e-41
000190 9c 21 00 00 ef a7 b0 14 9d 9d aa b2 3f 6c 9b 21
       1.2057e-41 1.7837697e-26 -1.9862279e-08 1.0531861e-18
0001a0 ea 81 00 80 af 1b 00 80 d0 4b 00 00 8b aa 00 80
       -4.6604e-41 -9.931e-42 2.7196e-41 -6.1179e-41
0001b0 5c 64 00 00 14 46 00 80 7e 6f 00 00 96 7d 00 00
       3.6002e-41 -2.5139e-41 3.9996e-41 4.5052e-41
0001c0 ed 7f 00 80 13 72 00 00 a9 62 00 00 2e 8c 00 80
       -4.5891e-41 4.0922e-41 3.5393e-41 -5.0287e-41
0001d0 e8 61 00 80 5c 63 00 80 d4 a3 2a 9f 99 9d 00 00
       -3.5122e-41 -3.5643e-41 -3.6134416e-20 5.6535e-41
0001e0 e3 0b 00 00 ad f6 14 ba 08 cd 71 3c 24 3a 2e 3c
       4.264e-42 -0.00056825095 0.014758356 0.010633979
0001f0 06 03 1a bc d3 80 43 3d fc 0e cc 3d 22 03 b1 3c
       -0.009400135 0.04773028 0.099637955 0.02160794

mlp.3.bias f4 [16]
000000 fb 7c f0 39 bf 2a fe 36 ae c3 f7 39 36 58 0f b7
       0.00045869485 7.574766e-06 0.00047257304 -8.544002e-06
000010 83 a2 00 00 5e 6c 00 80 8b 52 74 37 d1 0c ba 3a
       5.8298e-41 -3.8875e-41 1.4562752e-05 0.0014194493
000020 ba 10 00 00 d6 c1 0f 3b 98 a3 00 00 d2 47 19 3b
       6e-42 0.0021935604 5.8686e-41 0.0023388756
000030 af 65 00 00 b9 a1 00 80 bd 8d 00 80 c1 f8 65 3a
       3.6477e-41 -5.8015e-41 -5.0846e-41 0.0008772724

mlp.6.weight f4 [32, 16]
000000 06 73 00 80 ff 7b 00 80 ca 39 00 80 1d 81 00 80
       -4.1263e-41 -4.4481e-41 -2.0731e-41 -4.6317e-41
000010 fc 65 00 80 23 27 00 80 d1 41 00 80 3f c0 00 80
       -3.6585e-41 -1.404e-41 -2.361e-41 -6.8965e-41
000020 e1 cf 00 80 4e 1b 00 00 a9 58 00 00 28 43 00 00
       -7.4573e-41 9.795e-42 3.1805e-41 2.4091e-41
000030 f3 42 00 00 a0 1e 00 80 a2 43 00 80 df 3f 00 00
       2.4017e-41 -1.0986e-41 -2.4262e-41 2.2913e-41
000040 f4 07 0c 3c 0a 51 06 39 46 10 21 3c 5a 27 54 b8
       0.008546818 0.00012809425 0.00983054 -5.0581388e-05
000050 9f 4a 00 00 ae 5c 00 80 3e 10 89 39 71 3a 02 3d
       2.6769e-41 -3.3247e-41 0.00026142778 0.031794015
000060 49 ae 00 80 b4 d1 41 3d ba 99 00 00 05 98 50 3d
       -6.2522e-41 0.04731913 5.5147e-41 0.050926227
000070 d3 81 00 80 7e 66 00 80 58 87 00 00 66 98 8f 3c
       -4.6572e-41 -3.6767e-41 4.8552e-41 0.017528724
000080 a7 42 2a 3d 1c 0a 14 3a f5 d1 23 3d f6 22 1e ba
       0.04156747 0.00056472584 0.039995153 -0.0006032431
000090 c4 c5 00 00 85 1d 00 00 71 4b 98 3a 4e d2 bc 3d
       7.0945e-41 1.059e-41 0.0011619163 0.092198
0000a0 dc 58 00 80 ff eb 4b 3e 1e 16 00 00 e6 fd 49 3e
       -3.1877e-41 0.19914244 7.934e-42 0.19725761
0000b0 00 c4 ab 07 2a 29 01 00 a7 07 00 00 a4 02 99 3d
       2.5844419e-34 1.06602e-40 2.745e-42 0.07471207
0000c0 c6 02 4d 3c 74 55 48 39 e7 4c 70 3c 44 3d a6 b8
       0.012512868 0.0001910532 0.014666772 -7.9269084e-05
0000d0 4f 71 00 80 14 9d 01 80 c1 0f cc 39 cc 43 47 3d
       -4.0647e-41 -1.48185e-40 0.0003892165 0.04864864
0000e0 ab 99 00 80 16 30 8d 3d 5b 56 00 00 a5 b6 9c 3d
       -5.5126e-41 0.06893937 3.0979e-41 0.07652024
0000f0 cc 1a 00 80 a0 aa 00 00 d5 a8 00 80 07 1f d6 3c
       -9.613e-42 6.1209e-41 -6.0566e-41 0.026137842
000100 a5 64 4f 36 f7 a6 2b 33 09 a2 59 36 0e 29 fa b2
       3.0903986e-06 3.9965894e-08 3.2429837e-06 -2.91225e-08
000110 7a 6d 00 80 65 c4 00 80 3c 25 a3 33 b8 08 c0 38
       -3.9273e-41 -7.0453e-41 7.597052e-08 9.1568974e-05
000120 74 39 00 80 e4 fe 5c b7 51 6f 00 00 8a e3 36 37
       -2.061e-41 -1.3172368e-05 3.9933e-41 1.0901023e-05
000130 d5 0f 00 80 26 07 00 00 b2 41 00 00 da a9 b9 36
       -5.68e-42 2.564e-42 2.3567e-41 5.533203e-06
000140 18 66 00 80 6c 7f 00 80 36 99 00 00 e3 42 00 00
       -3.6624e-41 -4.571e-41 5.4962e-41 2.3994e-41
000150 d1 15 00 80 44 8c 00 80 35 4f 00 80 a2 55 00 80
       -7.826e-42 -5.0318e-41 -2.8414e-41 -3.0719e-41
000160 e7 18 00 00 6a 02 00 00 55 7e 00 00 46 33 00 00
       8.933e-42 8.66e-43 4.532e-41 1.8393e-41
000170 f9 00 00 00 f3 76 00 00 78 7b 00 00 14 14 00 80
       3.49e-43 4.2671e-41 4.4292e-41 -7.203e-42
000180 88 54 00 80 81 a3 00 00 11 22 00 80 df a3 00 80
       -3.0324e-41 5.8654e-41 -1.2221e-41 -5.8786e-41
000190 52 b5 00 00 d1 9c 00 80 f9 a1 00 00 27 a6 00 00
       6.5045e-41 -5.6255e-41 5.8105e-41 5.9604e-41
0001a0 3d d0 00 00 2c 11 00 80 5c b1 00 00 82 34 00 00
       7.4702e-41 -6.16e-42 6.3625e-41 1.8836e-41
0001b0 45 4e 00 00 42 a0 00 00 01 25 00 00 80 14 00 00
       2.8078e-41 5.749e-41 1.3275e-41 7.354e-42
0001c0 a5 7a 00 38 c4 01 f2 34 39 24 13 38 50 ab 35 b4
       3.06318e-05 4.5077297e-07 3.5081266e-05 -1.6919262e-07
0001d0 22 21 00 00 56 cb 00 00 90 5f 75 35 af f6 f5 38
       1.1886e-41 7.2943e-41 9.1408674e-07 0.00011728459
0001e0 12 44 01 00 5e b3 3c 39 bb 43 00 00 97 d2 48 39
       1.16255e-40 0.00017995897 2.4297e-41 0.00019151937
0001f0 f2 18 00 00 ac 20 00 80 74 a9 00 80 ff 4b 82 38
       8.949e-42 -1.172e-41 -6.0788e-41 6.2130384e-05
000200 dd c4 02 3c 2e ce db 38 86 37 ff 3b c8 41 8a b8
       0.007981506 0.00010481138 0.0077886013 -6.5926055e-05
000210 be 31 00 00 79 04 00 00 4e 58 5c 39 1e 81 10 3d
       1.7844e-41 1.604e-42 0.00021013731 0.035279386
000220 af 82 00 80 bf 36 f2 3c 30 7e 00 80 23 56 38 3d
       -4.688e-41 0.02956712 -4.5268e-41 0.04500402
000230 6a 47 00 00 14 44 01 00 76 8f 00 00 3e ae 64 3c
       2.5619e-41 1.16257e-40 5.1464e-41 0.013957558
000240 f2 7a 22 37 24 73 16 34 d0 f0 37 37 23 af 72 b3
       9.684578e-06 1.4011727e-07 1.09637185e-05 -5.65043e-08
000250 e1 78 00 80 90 0b 00 80 87 eb 97 34 bc ec 3a 38
       -4.3363e-41 -4.148e-42 2.829731e-07 4.456633e-05
000260 1b 60 00 00 fa d3 70 38 1a 64 00 80 3f 48 7c 38
       3.4476e-41 5.7417878e-05 -3.591e-41 6.0148766e-05
000270 83 ab 00 00 9d b1 00 00 52 0a 00 80 8b e5 a2 37
       6.1527e-41 6.3716e-41 -3.702e-42 1.9418794e-05
000280 cb 78 00 80 e1 44 00 00 ab 7a 00 80 3a 6d 00 00
       -4.3332e-41 2.4709e-41 -4.4005e-41 3.9183e-41
000290 cd 65 00 80 33 4f 00 80 0d 57 00 00 15 57 00 80
       -3.6519e-41 -2.8411e-41 3.1228e-41 -3.1239e-41
0002a0 0e ac 00 00 3c a3 00 80 d5 59 00 00 82 10 00 00
       6.1722e-41 -5.8557e-41 3.2226e-41 5.922e-42
0002b0 14 6f 00 00 60 6d 00 80 e5 51 00 00 88 aa 00 00
       3.9847e-41 -3.9236e-41 2.9378e-41 6.1175e-41
0002c0 e7 84 00 00 29 a9 00 80 ca 57 00 00 50 0a 00 00
       4.7676e-41 -6.0683e-41 3.1493e-41 3.7e-42
0002d0 d9 5a 00 00 8a af 00 80 88 dc 00 80 c4 8e 00 80
       3.259e-41 -6.2972e-41 -7.9112e-41 -5.1215e-41
0002e0 e9 86 00 00 46 18 00 80 45 13 00 00 11 26 00 00
       4.8397e-41 -8.708e-42 6.913e-42 1.3656e-41
0002f0 0c 47 00 00 d5 08 00 00 e8 99 00 80 3e 8f 00 80
       2.5487e-41 3.168e-42 -5.5211e-41 -5.1386e-41
000300 8e 0c 89 24 a9 80 00 00 4c 7c 00 00 18 06 00 00
       5.943555e-17 4.6155e-41 4.459e-41 2.186e-42
000310 01 94 00 00 81 3e 00 00 5f af 00 80 d3 84 23 aa
       5.3094e-41 2.2422e-41 -6.2911e-41 -1.4523391e-13
000320 42 89 00 80 3e 19 51 29 de 03 00 00 7e f9 36 a7
       -4.9239e-41 4.6429217e-14 1.387e-42 -2.5392824e-15
000330 8c 9f 00 80 eb b7 01 80 ba 64 00 00 bc c4 82 8b
       -5.7235e-41 -1.57813e-40 3.6134e-41 -5.037019e-32
000340 bc 3f 3f 3c 22 a9 2c 39 34 52 4a 3c 04 8d cc b8
       0.01167291 0.00016466205 0.0123487 -9.753744e-05
000350 ed 15 00 00 e5 20 00 00 51 32 ae 39 39 44 1a 3d
       7.865e-42 1.18e-41 0.00033225355 0.03766272
000360 29 1c 00 80 14 c5 80 3d 10 ab 00 80 27 e8 83 3d
       -1.0102e-41 0.0628759 -6.1366e-41 0.06440764
000370 57 43 00 00 fe a2 00 00 8d 51 00 80 01 cd b5 3c
       2.4157e-41 5.847e-41 -2.9255e-41 0.02219248
000380 69 65 00 00 14 98 00 00 d7 69 00 80 13 26 00 00
       3.6379e-41 5.4555e-41 -3.7968e-41 1.3658e-41
000390 8d 22 00 80 39 6a 00 80 11 a5 00 80 fa 2b 00 80
       -1.2394e-41 -3.8106e-41 -5.9215e-41 -1.5776e-41
0003a0 e3 60 00 80 4e 8b 00 00 84 cf 00 80 0e 4f 00 80
       -3.4756e-41 4.9973e-41 -7.4443e-41 -2.836e-41
0003b0 3f 58 00 80 d0 85 00 00 79 50 00 00 59 1d 00 80
       -3.1657e-41 4.8003e-41 2.8868e-41 -1.0528e-41
0003c0 1b bd 8f 36 3b ed 81 33 e9 fd 9e 36 4d d9 d4 b2
       4.283747e-06 6.0501826e-08 4.738326e-06 -2.4778865e-08
0003d0 e1 31 00 00 b1 45 00 80 48 0c 02 34 53 93 ae 37
       1.7893e-41 -2.5e-41 1.2111661e-07 2.081102e-05
0003e0 50 6b 00 00 c7 41 c7 37 c2 a8 00 00 5c 1f e3 37
       3.8496e-41 2.3753279e-05 6.0539e-41 2.7075112e-05
0003f0 a6 56 00 00 ce 5f 00 00 5d 7f 00 00 38 f8 0d 37
       3.1084e-41 3.4368e-41 4.569e-41 8.462048e-06

mlp.6.bias f4 [32]
000000 1b 4d 00 00 0d 74 ad 3a 7a b9 9e 3b 60 7f fd 3a
       2.766e-41 0.0013233438 0.004843888 0.0019340329
000010 f3 69 0e 35 65 29 00 00 06 8a 00 80 d6 3c b6 36
       5.30533e-07 1.485e-41 -4.9513e-41 5.431105e-06
000020 6c 5a 86 3a f9 00 ea 35 e8 74 00 80 64 10 00 80
       0.0010250336 1.7434642e-06 -4.1938e-41 -5.88e-42
000030 4e 91 00 80 b5 f8 d3 3a f3 8e 00 00 b3 31 3e 35
       -5.2126e-41 0.0016172143 5.128e-41 7.085284e-07
000040 26 49 9e 3b 77 13 00 00 29 9a 00 80 02 3e 00 80
       0.0048304973 6.983e-42 -5.5302e-41 -2.2244e-41
000050 75 16 00 80 5f 83 43 35 e6 a4 fc 39 e4 b5 17 3a
       -8.056e-42 7.283433e-07 0.00048188044 0.00057872967
000060 20 bd 56 34 fe 30 7a 3a cb a3 00 80 96 a0 00 80
       1.9999106e-07 0.00095440436 -5.8758e-41 -5.7607e-41
000070 26 7d 00 00 4c 23 80 27 7a 27 00 80 3f 72 dd 38
       4.4895e-41 3.5565406e-15 -1.4162e-41 0.00010559381

mlp.9.weight f4 [64, 32]
000000 0d a0 00 00 44 7f 86 0a 37 10 2a 92 02 29 2f 00
       5.7415e-41 1.2951603e-32 -5.366253e-28 4.330979e-39
000010 f6 05 00 80 aa 94 00 00 27 9d 00 00 dd 56 00 80
       -2.138e-42 5.333e-41 5.6376e-41 -3.116e-41
000020 82 9a 00 80 e1 a2 00 80 b9 7e 00 00 96 59 00 80
       -5.5427e-41 -5.843e-41 4.546e-41 -3.2137e-41
000030 ab 2e 00 80 a6 8d 00 80 57 8d 01 80 df 8a 00 80
       -1.6741e-41 -5.0814e-41 -1.42539e-40 -4.9818e-41
000040 96 73 00 00 1f ad 00 80 3e b2 00 80 63 ff 00 00
       4.1464e-41 -6.2104e-41 -6.3941e-41 9.1615e-41
000050 04 09 00 80 28 4b 00 80 64 80 00 80 2e 3e 00 00
       -3.234e-42 -2.6961e-41 -4.6058e-41 2.2306e-41
000060 a9 85 00 80 ef 84 00 80 76 ae 00 80 db 95 00 80
       -4.7948e-41 -4.7688e-41 -6.2585e-41 -5.3758e-41
000070 1c b3 00 00 98 f0 00 80 99 2c 00 00 0a a9 00 00
       6.4252e-41 -8.6309e-41 1.5999e-41 6.064e-41
000080 b5 1d 00 80 7b a4 a9 b1 a6 29 47 b4 ec a9 b3 af
       -1.0657e-41 -4.9372466e-09 -1.8548471e-07 -3.2680647e-10
000090 1f 54 00 00 c1 1c 00 00 f4 36 00 00 8d 7d 14 9c
       3.0177e-41 1.0315e-41 1.9713e-41 -4.9131363e-22
0000a0 e3 50 43 22 96 37 9c 8f 86 39 00 80 f1 b1 00 00
       2.647025e-18 -1.5404199e-29 -2.0636e-41 6.3833e-41
0000b0 b7 d6 59 05 4d 63 70 2c d5 99 00 00 44 5d 8b 8c
       1.0242728e-35 3.4161174e-12 5.5185e-41 -2.1472473e-31
0000c0 2a 68 e1 2f c4 18 00 00 e6 dd 00 80 15 7a 00 80
       4.1001275e-10 8.884e-42 -7.9602e-41 -4.3795e-41
0000d0 ef 3b 00 80 20 56 00 80 95 16 0f 2e d0 ed d6 1c
       -2.15e-41 -3.0896e-41 3.2534492e-11 1.4222805e-21
0000e0 91 10 00 80 ea 71 65 1b a1 88 00 80 4c ad 00 80
       -5.943e-42 1.8979244e-22 -4.9013e-41 -6.2167e-41
0000f0 66 4b 00 80 74 91 00 00 55 10 00 00 26 d0 f7 1a
       -2.7048e-41 5.2179e-41 5.859e-42 1.0249309e-22
000100 0f b5 00 00 e1 5b 1d 3d 95 fb 15 3e f4 2a 6a 3d
       6.4952e-41 0.0384177 0.14646752 0.05716987
000110 e9 94 8a 37 01 ae 00 00 b1 72 00 00 d2 17 19 39
       1.6520224e-05 6.2421e-41 4.1144e-41 0.00014600091
000120 aa 16 01 3d 00 9b 44 38 51 a4 00 00 fc 6f 00 80
       0.031515755 4.6874397e-05 5.8946e-41 -4.0172e-41
000130 90 14 3f a6 35 6e 4a 3d c5 9f 00 00 a8 7d ad 37
       -6.6294304e-16 0.049421508 5.7315e-41 2.068172e-05
000140 dd 02 16 3e db e4 00 00 df 4f 00 00 5c a8 00 00
       0.1464953 8.2098e-41 2.8652e-41 6.0396e-41
000150 f1 51 00 00 26 ca b5 37 83 a0 57 3c bc 9b 8b 3c
       2.9395e-41 2.1671014e-05 0.013160828 0.017042033
000160 b9 a3 ce 36 54 9e ef 3c 4b 98 00 00 ee 84 00 00
       6.1583382e-06 0.029250301 5.4632e-41 4.7686e-41
000170 c9 7a 00 80 92 0f 0e 2a dc c2 01 80 6b 3c 3e 3b
       -4.4047e-41 1.2617536e-13 -1.61738e-40 0.002902771
000180 f4 1e 00 80 c0 77 e3 3a f9 98 ee 3b 7f 35 28 3b
       -1.1104e-41 0.0017354414 0.0072814194 0.0025666652
000190 7d 45 3d 35 65 7a 00 80 1b b3 00 80 a5 4c cb 36
       7.0509105e-07 -4.3907e-41 -6.4251e-41 6.058794e-06
0001a0 a9 79 b0 3a 6a e3 03 36 23 0a 00 00 47 41 00 80
       0.0013463992 1.9652894e-06 3.636e-42 -2.3417e-41
0001b0 7e c5 a4 1f 5c f8 0b 3b 79 8c 00 80 dc 1b 67 35
       6.9783425e-20 0.002135775 -5.0392e-41 8.6094747e-07
0001c0 83 c2 de 3b 74 c9 00 00 1c 22 00 80 d7 8a 00 80
       0.00679809 7.2268e-41 -1.2236e-41 -4.9806e-41
0001d0 20 15 00 80 48 c8 77 35 f6 11 15 3a 68 03 3b 3a
       -7.578e-42 9.230612e-07 0.00056865753 0.00071339915
0001e0 22 f1 8a 34 a3 ff a0 3a 48 5b 00 00 a7 f8 00 00
       2.587995e-07 0.0012283217 3.2746e-41 8.92e-41
0001f0 fe 4a 00 80 10 70 cf 27 84 bd 00 00 2f 42 fd 38
       -2.6902e-41 5.757554e-15 6.7985e-41 0.00012076308
000200 17 7a 00 80 66 af 37 39 a9 86 4a 3a 0e 11 85 39
       -4.3798e-41 0.00017517581 0.00077257544 0.00025380444
000210 68 ca 92 33 79 19 00 00 61 95 00 80 fb 5e 1a 35
       6.835472e-08 9.138e-42 -5.3587e-41 5.7507685e-07
000220 50 85 09 39 04 96 46 34 0d 8b 00 80 77 84 00 80
       0.00013115001 1.8494762e-07 -4.9882e-41 -4.752e-41
000230 d0 21 45 81 7c ef 5b 39 d4 45 00 00 40 6f af 33
       -3.6207445e-38 0.00020974682 2.505e-41 8.169309e-08
000240 8d 59 31 3a c8 8a 00 00 67 7e 00 00 a1 65 01 00
       0.0006765358 4.9785e-41 4.5345e-41 1.28293e-40
000250 99 2e 00 00 d0 70 bf 33 e0 58 66 38 f9 e2 90 38
       1.6716e-41 8.914651e-08 5.4919044e-05 6.908732e-05
000260 e3 97 d6 32 0b c4 fa 38 0c 68 00 00 34 5b 00 80
       2.4981949e-08 0.00011957445 3.7325e-41 -3.2718e-41
000270 49 11 01 00 d1 25 2b 26 02 b0 00 80 a1 73 42 37
       9.8036e-41 5.9378794e-16 -6.314e-41 1.1590223e-05
000280 dd af 00 00 2f 7b 00 00 57 af 00 80 6c ab 00 00
       6.3088e-41 4.419e-41 -6.29e-41 6.1495e-41
000290 dc 7c 00 00 db bb 00 00 12 59 00 00 f1 1c 00 00
       4.4791e-41 6.739e-41 3.1952e-41 1.0382e-41
0002a0 31 84 00 00 ad 96 00 00 a7 b9 00 00 4a 5a 00 00
       4.7421e-41 5.4052e-41 6.66e-41 3.239e-41
0002b0 d9 33 00 80 2a 87 00 00 d1 23 00 80 e5 b0 00 00
       -1.86e-41 4.8488e-41 -1.2849e-41 6.3458e-41
0002c0 26 74 00 00 e1 a2 00 00 aa 72 00 00 15 4d 00 80
       4.1666e-41 5.843e-41 4.1134e-41 -2.7652e-41
0002d0 ea 29 00 80 4a 5e 00 80 8e 4f 00 00 38 0e 00 80
       -1.5036e-41 -3.3825e-41 2.8539e-41 -5.101e-42
0002e0 b9 4f 00 00 be 69 00 00 11 71 00 80 91 77 00 00
       2.8599e-41 3.7933e-41 -4.056e-41 4.2892e-41
0002f0 39 51 00 80 c6 8f 00 80 48 ad 00 00 d5 13 00 80
       -2.9137e-41 -5.1576e-41 6.2162e-41 -7.114e-42
000300 e3 1d 01 80 87 0d 00 00 1a 74 00 80 f9 4a 00 00
       -1.02557e-40 4.853e-42 -4.165e-41 2.6895e-41
000310 ae 3b 00 00 d4 c2 00 80 d9 e6 00 80 ff 33 00 80
       2.1409e-41 -6.9891e-41 -8.2813e-41 -1.8653e-41
000320 5f f0 00 80 24 d5 00 00 14 7a 00 00 a4 b4 00 80
       -8.6229e-41 7.646e-41 4.3793e-41 -6.4802e-41
000330 e5 9f 00 00 30 60 00 00 b9 8a 00 00 23 27 00 00
       5.736e-41 3.4506e-41 4.9764e-41 1.404e-41
000340 5c 6b 00 80 47 ae 00 80 b4 b6 00 80 bc b6 00 80
       -3.8513e-41 -6.2519e-41 -6.5542e-41 -6.5553e-41
000350 14 07 00 80 ff 51 01 00 27 a3 00 00 fa be 00 80
       -2.539e-42 1.2125e-40 5.8528e-41 -6.851e-41
000360 b4 34 00 00 3d e7 00 00 1e ab 00 80 19 a9 00 80
       1.8906e-41 8.2953e-41 -6.1385e-41 -6.0661e-41
000370 21 b5 00 00 eb 6a 00 80 85 03 00 00 81 2c 00 80
       6.4977e-41 -3.8355e-41 1.263e-42 -1.5965e-41
000380 d7 05 00 00 61 e5 68 38 1f 2f 7f 39 c4 43 a7 38
       2.095e-42 5.5526736e-05 0.00024336249 7.975803e-05
000390 3f a6 b7 32 f5 97 00 00 f4 7e 00 00 92 be 40 34
       2.1379604e-08 5.4512e-41 4.5542e-41 1.7950723e-07
0003a0 7f be 2b 38 5e 88 7a 33 4a 9e 00 00 95 ad 00 00
       4.094699e-05 5.8331686e-08 5.6783e-41 6.227e-41
0003b0 05 70 5f 8a e5 58 89 38 e7 19 00 00 1f c5 db 32
       -1.0758128e-32 6.549227e-05 9.292e-42 2.5584596e-08
0003c0 64 1a 5d 39 c9 d7 00 00 ed 59 00 00 89 2a 01 00
       0.00021086034 7.7409e-41 3.2259e-41 1.07094e-40
0003d0 a6 0c 00 80 7f 58 ef 32 09 62 90 37 55 1e b5 37
       -4.537e-42 2.7863505e-08 1.7211789e-05 2.1591006e-05
0003e0 5c 5f 06 32 9a ad 1c 38 4c 1b 00 80 8c b4 00 00
       7.821509e-09 3.7354977e-05 -9.792e-42 6.4768e-41
0003f0 f7 22 00 80 7a 86 55 25 3d 0c 00 00 a3 b4 72 36
       -1.2543e-41 1.8520367e-16 4.39e-42 3.6165954e-06

mlp.9.bias f4 [64]
000000 ad a8 00 00 c1 29 00 80 0f 16 01 3c db 37 bf 39
       6.051e-41 -1.4978e-41 0.007878794 0.00036471974
000010 13 16 1c 38 f4 b3 00 00 8f 06 00 80 b4 ba 48 37
       3.7213857e-05 6.4555e-41 -2.353e-42 1.1964399e-05
000020 8d 42 d4 35 6a 3b be 3b e3 1b ac 32 6d 37 00 00
       1.58146e-06 0.0058054226 2.0036117e-08 1.9883e-41
000030 66 2f 00 80 54 a4 00 80 ef 74 a0 30 5e 5e 99 3b
       -1.7003e-41 -5.895e-41 1.1674767e-09 0.004680439
000040 f7 a3 00 00 33 33 ce 3a d8 48 00 00 40 7a 00 80
       5.882e-41 0.0015731811 2.6131e-41 -4.3855e-41
000050 8f a3 00 00 e3 33 09 3b d6 a2 00 00 ba 1c 86 32
       5.8674e-41 0.0020935468 5.8415e-41 1.5612716e-08
000060 c0 37 ba 34 ba 77 00 00 27 5a 00 80 8f 9e 04 31
       3.4685763e-07 4.295e-41 -3.234e-41 1.9298658e-09
000070 66 46 00 00 64 06 00 80 34 96 00 80 ee a2 02 39
       2.5254e-41 -2.293e-42 -5.3883e-41 0.00012458462
000080 c7 fb 8a 2e ab 80 00 80 c5 c3 75 3a 5d 33 85 35
       6.320238e-11 -4.6157e-41 0.000937518 9.924221e-07
000090 97 49 83 3b 74 c2 05 3c d2 8f 00 00 33 93 18 19
       0.0040065753 0.008164037 5.1593e-41 7.8879425e-24
0000a0 75 32 00 80 be df 64 1c e4 13 52 21 d6 45 00 80
       -1.81e-41 7.572805e-22 7.1177093e-19 -2.5052e-41
0000b0 f7 86 00 80 c1 06 00 00 e4 b1 00 00 fe 21 00 80
       -4.8416e-41 2.423e-42 6.3815e-41 -1.2194e-41
0000c0 e2 50 00 00 b3 16 00 34 c5 96 00 00 c4 c1 50 3a
       2.9015e-41 1.1929187e-07 5.4086e-41 0.00079634436
0000d0 03 d1 99 3b 8f af 00 80 88 29 1a 3a d0 28 00 80
       0.0046941056 -6.2979e-41 0.00058808224 -1.4641e-41
0000e0 7b e1 61 3b c7 71 38 3b 38 73 00 80 73 91 ed 94
       0.0034466672 0.0028143988 -4.1333e-41 -2.3988254e-26
0000f0 fe 8e 00 80 aa 3a 00 00 2e f9 03 2c 9b 24 76 3b
       -5.1296e-41 2.1045e-41 1.8754542e-12 0.003755844

mlp.12.weight f4 [128, 64]
000000 bd 36 00 80 70 53 00 00 76 71 02 80 72 4a 00 80
       -1.9636e-41 2.9932e-41 -2.24373e-40 -2.6706e-41
000010 15 13 00 00 ae 62 01 00 33 35 00 80 7e 04 00 00
       6.845e-42 1.27235e-40 -1.9084e-41 1.611e-42
000020 f7 03 00 80 13 85 10 80 c3 95 00 00 d2 12 00 00
       -1.422e-42 -1.517106e-39 5.3724e-41 6.751e-42
000030 b9 80 00 00 43 38 00 00 ea 51 00 80 41 43 01 80
       4.6177e-41 2.0183e-41 -2.9385e-41 -1.15962e-40
000040 75 70 00 80 79 72 00 80 9d 04 00 00 6b 0b 00 80
       -4.0342e-41 -4.1065e-41 1.655e-42 -4.096e-42
000050 e7 5d 00 80 4b 1d 02 80 88 a0 00 80 12 65 00 80
       -3.3686e-41 -1.9418e-40 -5.7588e-41 -3.6257e-41
000060 fa c3 00 80 e6 2b 01 00 79 95 01 00 60 23 00 80
       -7.0303e-41 1.07583e-40 1.45456e-40 -1.269e-41
000070 45 7e 00 80 b9 3e 00 00 53 00 01 00 ec 97 00 00
       -4.5297e-41 2.25e-41 9.1952e-41 5.45e-41
000080 c7 5b 00 80 fe 90 00 80 ee 72 10 80 94 3c 00 00
       -3.2924e-41 -5.2013e-41 -1.510597e-39 2.1731e-41
000090 6c cc 4b 80 f3 9c 01 80 91 13 00 00 b6 e7 00 80
       -6.960995e-39 -1.48138e-40 7.019e-42 -8.3122e-41
0000a0 a5 b5 00 00 0c 8f 00 00 b7 c2 00 80 8a 54 00 00
       6.5162e-41 5.1316e-41 -6.985e-41 3.0327e-41
0000b0 93 eb 00 00 34 38 00 00 df 68 00 80 59 82 00 80
       8.4508e-41 2.0162e-41 -3.762e-41 -4.676e-41
0000c0 c1 97 00 00 a9 2e 00 80 26 9b 00 80 6b 15 04 80
       5.4439e-41 -1.6739e-41 -5.5657e-41 -3.75025e-40
0000d0 11 18 28 80 29 05 00 00 81 db 05 80 80 1e 00 00
       -3.682053e-39 1.851e-42 -5.3792e-40 1.0941e-41
0000e0 54 1b 01 80 2b 20 01 80 0f 36 00 00 b7 c6 00 00
       -1.01639e-40 -1.03375e-40 1.9393e-41 7.1285e-41
0000f0 ad 0c 01 80 7e 8b 00 80 4d 2a 00 00 a1 99 02 80
       -9.6383e-41 -5.004e-41 1.5175e-41 -2.38783e-40
000100 fd 7e 00 80 75 6c 00 00 bc 54 96 a6 a7 6a 1a 99
       -4.5555e-41 3.8907e-41 -1.0431308e-15 -7.983152e-24
000110 7f 2f 12 80 8d 9a 00 80 8e d2 00 80 0a a8 4c 8f
       -1.670077e-39 -5.5442e-41 -7.5533e-41 -1.009034e-29
000120 d8 18 06 95 d0 b6 1d a4 0e 12 06 8a d8 aa 00 00
       -2.7080683e-26 -3.4198796e-17 -6.455261e-33 6.1287e-41
000130 86 7a 00 80 60 91 00 80 eb a1 00 80 de 71 2a a3
       -4.3953e-41 -5.2151e-41 -5.8085e-41 -9.239831e-18
000140 e4 6e 00 80 4e fb a9 a0 14 7a 01 00 14 73 00 00
       -3.978e-41 -2.8796013e-19 1.35629e-40 4.1282e-41
000150 a6 d2 00 00 f5 19 2f a1 9c a1 00 80 c5 3a 00 80
       7.5566e-41 -5.932666e-19 -5.7975e-41 -2.1083e-41
000160 ca 69 9b 86 01 85 00 00 d4 4e 00 00 bd 29 00 00
       -5.845996e-35 4.7713e-41 2.8278e-41 1.4973e-41
000170 01 15 00 00 e0 b2 00 00 0a cb 00 00 3f bc dd 8d
       7.535e-42 6.4168e-41 7.2837e-41 -1.3665495e-30
000180 9c 2b 00 00 49 d8 00 80 12 d3 a1 92 25 49 02 95
       1.5644e-41 -7.7588e-41 -1.0212561e-27 -2.6310992e-26
000190 10 29 01 9e c2 84 ee a6 f8 53 00 80 89 7c 00 00
       -6.837695e-21 -1.6550552e-15 -3.0122e-41 4.4675e-41
0001a0 7d 88 00 00 49 81 00 80 a3 8b 00 80 2e 31 00 80
       4.8963e-41 -4.6379e-41 -5.0092e-41 -1.7642e-41
0001b0 a7 25 00 00 20 93 00 00 91 64 00 00 ae 51 00 80
       1.3507e-41 5.2779e-41 3.6076e-41 -2.9301e-41
0001c0 3e 92 00 00 37 45 00 80 a1 90 00 00 f5 fe 18 a1
       5.2462e-41 -2.483e-41 5.1883e-41 -5.1837036e-19
0001d0 cf 5d 76 9e 3e 1a 00 00 13 d5 14 91 bb 9d 00 00
       -1.3042531e-20 9.414e-42 -1.17408e-28 5.6583e-41
0001e0 4f 8e 06 a0 b0 13 00 a1 f0 26 00 80 22 04 00 80
       -1.1397327e-19 -4.3394143e-19 -1.3968e-41 -1.483e-42
0001f0 ad 33 00 80 db a2 00 80 92 1e 00 80 ce 2d a8 9f
       -1.8538e-41 -5.8422e-41 -1.0967e-41 -7.1226545e-20
000200 45 77 00 80 d5 4e 00 00 3b 37 00 00 60 a7 00 00
       -4.2786e-41 2.828e-41 1.9813e-41 6.0043e-41
000210 9c 97 00 00 6f a1 00 80 5f 02 00 80 13 a7 00 80
       5.4387e-41 -5.7911e-41 -8.5e-43 -5.9935e-41
000220 0e 4f 00 80 ac 77 01 00 6f df 02 00 f8 7c 00 00
       -2.836e-41 1.34766e-40 2.63824e-40 4.483e-41
000230 ef 61 00 00 b0 35 00 00 90 10 00 00 cc 56 00 80
       3.5132e-41 1.926e-41 5.942e-42 -3.1137e-41
000240 16 44 00 00 4b 8c 00 80 64 25 00 80 95 0c 00 00
       2.4425e-41 -5.0328e-41 -1.3413e-41 4.514e-42
000250 b4 ca 00 00 53 22 00 00 2c b2 00 00 74 91 00 80
       7.2716e-41 1.2313e-41 6.3916e-41 -5.2179e-41
000260 55 2d 00 00 ac 86 00 00 45 3b 00 00 dc b1 00 80
       1.6262e-41 4.8311e-41 2.1262e-41 -6.3804e-41
000270 50 13 00 00 d7 4f 00 80 9a 4d 00 80 c4 b7 00 00
       6.928e-42 -2.8641e-41 -2.7838e-41 6.5923e-41
000280 92 68 00 80 1b 50 00 00 cb b4 00 00 19 7f 00 80
       -3.7513e-41 2.8736e-41 6.4856e-41 -4.5594e-41
000290 30 07 00 80 0e 61 00 80 f6 a7 00 00 a2 b3 00 80
       -2.578e-42 -3.4817e-41 6.0253e-41 -6.444e-41
0002a0 49 86 00 80 d0 5a 00 00 1f 2a 00 00 7e 0a 00 00
       -4.8172e-41 3.2577e-41 1.511e-41 3.764e-42
0002b0 cc 1a 01 00 0d 12 00 00 ea a2 00 00 72 43 00 00
       1.01448e-40 6.475e-42 5.8443e-41 2.4195e-41
0002c0 13 3a 00 80 fa de 00 00 56 6a 00 00 77 80 00 00
       -2.0833e-41 7.9989e-41 3.8146e-41 4.6085e-41
0002d0 6f 5c 00 80 47 96 00 00 93 64 00 80 90 71 00 80
       -3.3159e-41 5.391e-41 -3.6079e-41 -4.0739e-41
0002e0 90 6e 00 80 a7 3c 00 80 2d 9c 00 80 b8 98 00 80
       -3.9662e-41 -2.1758e-41 -5.6025e-41 -5.4785e-41
0002f0 08 3f 00 00 ab df 00 00 f9 8a 00 00 36 fa 00 80
       2.2611e-41 8.0237e-41 4.9854e-41 -8.9759e-41
000300 30 2d 00 00 db 2c 00 00 f6 20 00 00 dd 17 00 00
       1.621e-41 1.6091e-41 1.1824e-41 8.56e-42
000310 fd 9d 00 00 6d 42 00 00 e3 7c 00 80 3c 76 00 80
       5.6676e-41 2.3829e-41 -4.4801e-41 -4.2415e-41
000320 97 8b 00 80 d8 64 00 00 ed 3c 00 00 1e 57 00 80
       -5.0075e-41 3.6176e-41 2.1856e-41 -3.1252e-41
000330 81 81 00 00 eb aa 00 00 67 91 00 80 34 03 00 00
       4.6457e-41 6.1314e-41 -5.216e-41 1.149e-42
000340 c5 64 00 00 f8 75 00 80 61 2d 01 80 26 10 00 80
       3.6149e-41 -4.2319e-41 -1.08114e-40 -5.793e-42
000350 83 a9 00 80 65 5a 00 00 99 33 00 80 3d 78 00 00
       -6.081e-41 3.2427e-41 -1.851e-41 4.3133e-41
000360 3f 18 00 80 60 03 00 80 0f 54 00 80 01 4c 00 00
       -8.698e-42 -1.211e-42 -3.0155e-41 2.7265e-41
000370 b6 23 00 00 ed 31 00 00 92 11 00 00 e5 a0 00 80
       1.281e-41 1.791e-41 6.303e-42 -5.7718e-41
000380 95 a1 00 80 1d a3 00 00 5f 96 00 00 15 75 00 80
       -5.7965e-41 5.8514e-41 5.3943e-41 -4.2001e-41
000390 1b 50 00 80 bd 6d 00 00 17 b6 01 80 4c 4d 00 80
       -2.8736e-41 3.9367e-41 -1.57157e-40 -2.7729e-41
0003a0 92 8a 00 80 c3 06 00 00 f5 b2 00 80 56 4d 00 00
       -4.971e-41 2.426e-42 -6.4198e-41 2.7743e-41
0003b0 de 48 00 80 af 15 00 80 37 66 00 80 1e a5 00 80
       -2.614e-41 -7.779e-42 -3.6668e-41 -5.9233e-41
0003c0 c4 3d 00 00 cf 13 00 00 0a 1a 00 80 16 38 00 80
       2.2157e-41 7.106e-42 -9.341e-42 -2.012e-41
0003d0 8c 4f 00 00 99 a9 00 00 0b 00 00 80 06 b1 00 80
       2.8536e-41 6.084e-41 -1.5e-44 -6.3504e-41
0003e0 15 80 00 80 b6 28 00 80 db 77 00 00 c6 5d 00 80
       -4.5947e-41 -1.4604e-41 4.2996e-41 -3.364e-41
0003f0 0b 43 00 80 52 91 00 00 a6 af 00 80 ef 8e 00 80
       -2.405e-41 5.2131e-41 -6.3011e-41 -5.1275e-41

mlp.12.bias f4 [128]
000000 37 ce 00 80 1f a2 00 00 23 7e 00 00 d9 45 00 80
       -7.3976e-41 5.8158e-41 4.525e-41 -2.5057e-41
000010 b2 fa 1b 39 1e 83 00 00 b6 94 c0 3b d9 be f7 3b
       0.00014875343 4.7036e-41 0.0058771027 0.0075605926
000020 37 15 00 80 98 31 ff 3b d2 2e 00 80 58 b7 00 00
       -7.61e-42 0.0077878945 -1.6796e-41 6.5771e-41
000030 f5 19 00 00 18 d9 de 3b ab 0e 94 23 f1 82 38 3c
       9.312e-42 0.006800782 1.6052404e-17 0.011261688
000040 0c da 00 80 bd 9a 00 00 f3 59 00 00 7b 84 00 80
       -7.822e-41 5.551e-41 3.2268e-41 -4.7525e-41
000050 f2 ed 90 26 87 60 00 80 b4 93 00 80 b1 2b 26 1b
       1.0056502e-15 -3.4627e-41 -5.2986e-41 1.3745316e-22
000060 86 0d 00 00 ae e9 13 3c 8b 79 00 00 65 80 00 80
       4.851e-42 0.009027882 4.3601e-41 -4.6059e-41
000070 db b3 a8 30 9c 67 de 38 16 bd 4a 39 41 a4 00 00
       1.2274727e-09 0.00010605084 0.00019334661 5.8923e-41
000080 18 bb 00 80 40 9b 8e 3b 9e 5a 00 00 89 94 2b 33
       -6.7117e-41 0.0043520033 3.2507e-41 3.9949132e-08
000090 a0 61 00 00 00 a7 80 3b 8a 92 00 80 b4 4b 00 80
       3.5021e-41 0.003926158 -5.2568e-41 -2.7157e-41
0000a0 fe 59 00 00 83 84 00 00 7a f9 c7 2e a4 09 00 00
       3.2283e-41 4.7536e-41 9.093788e-11 3.458e-42
0000b0 c3 f1 28 39 27 02 13 3b f1 fa e9 2f c5 3b 8a 13
       0.00016111792 0.0022431703 4.2560758e-10 3.4895035e-27
0000c0 9d 84 00 00 1e 8d 00 00 e7 28 e0 04 62 bb 00 00
       4.7573e-41 5.0623e-41 5.269971e-36 6.722e-41
0000d0 a7 c9 00 00 96 61 00 80 14 13 30 3c 0f c8 77 36
       7.2339e-41 -3.5007e-41 0.010746736 3.6922318e-06
0000e0 4c 69 00 80 2c 0e 00 80 67 c0 e2 3b f1 1c 00 80
       -3.7773e-41 -5.084e-42 0.006919909 -1.0382e-41
0000f0 bc 82 00 80 c6 fb ab 32 48 ac 85 a2 e3 74 d0 34
       -4.6899e-41 2.0021513e-08 -3.6232132e-18 3.8828065e-07
000100 8d 0d 12 3a ae a6 00 00 fa b8 16 3c 69 78 00 80
       0.0005571477 5.9793e-41 0.009199375 -4.3195e-41
000110 8b 00 00 00 90 af fa 3a 4e d0 60 3c ba 5b 00 00
       1.95e-43 0.0019125808 0.013721539 3.2905e-41
000120 9c a1 00 80 36 23 00 80 af a0 00 00 5d aa 00 00
       -5.7975e-41 -1.2631e-41 5.7642e-41 6.1115e-41
000130 a2 6f 00 00 fd 83 ed 38 20 80 00 00 b5 8e 00 80
       4.0046e-41 0.000113256254 4.5963e-41 -5.1194e-41
000140 83 6d 4d 3b 37 a2 00 00 57 21 00 80 02 29 01 80
       0.0031345792 5.8192e-41 -1.196e-41 -1.06546e-40
000150 d4 a6 00 00 bd 44 00 00 2a b2 26 10 c4 60 85 39
       5.9847e-41 2.4659e-41 3.287498e-29 0.00025439833
000160 92 2f 00 00 3a 13 9e 3b bd 3a 37 3c 78 1b 14 9a
       1.7065e-41 0.0048240693 0.011183438 -3.0627872e-23
000170 0d a3 00 80 52 52 00 00 64 d4 00 80 f1 28 00 00
       -5.8492e-41 2.9531e-41 -7.6191e-41 1.4687e-41
000180 98 58 00 80 92 b7 00 00 fe 5d 00 80 a0 1a 00 80
       -3.1781e-41 6.5853e-41 -3.3718e-41 -9.551e-42
000190 1a 9c 00 00 91 ba 8d 1d 2c 25 00 00 63 fe bd 37
       5.5999e-41 3.7515294e-21 1.3335e-41 2.2649014e-05
0001a0 38 da 00 00 95 31 00 80 50 a0 02 80 82 7c 00 80
       7.8282e-41 -1.7787e-41 -2.4118e-40 -4.4665e-41
0001b0 6d 50 00 80 e4 63 27 3b 62 af 47 18 37 5c 1d 25
       -2.8851e-41 0.0025541717 2.5808693e-24 1.3648823e-16
0001c0 53 38 00 00 51 58 00 80 65 0e 00 80 c2 75 c3 3a
       2.0205e-41 -3.1682e-41 -5.164e-42 0.0014912414
0001d0 ba 02 01 00 36 a2 00 00 f1 84 a1 36 6c dc 29 3c
       9.2814e-41 5.819e-41 4.8136503e-06 0.010367494
0001e0 18 55 00 80 34 29 00 80 f7 d6 0f 8e 20 e2 0e 3c
       -3.0526e-41 -1.4781e-41 -1.7729613e-30 0.008720905
0001f0 db 80 00 00 28 c3 00 00 8a 65 00 00 45 64 00 00
       4.6225e-41 7.0009e-41 3.6425e-41 3.597e-41

mlp.15.weight f4 [64, 128]
000000 19 85 05 80 fe c6 b0 1d 15 4b 00 00 07 1a 00 00
       -5.06924e-40 4.6792565e-21 2.6934e-41 9.337e-42
000010 4c 91 01 3a 65 a5 00 00 f1 35 ad 3c f2 f2 df 3c
       0.00049426104 5.9332e-41 0.021143885 0.027337525
000020 85 9e 00 00 e5 ca e6 3c 03 a0 00 00 48 2d 00 80
       5.6866e-41 0.02817292 5.7401e-41 -1.6244e-41
000030 ad 22 01 00 dd d9 c8 3c 69 99 98 24 ba 8f 27 3d
       1.04275e-40 0.024517948 6.617938e-17 0.040908553
000040 f5 69 00 80 43 58 ce 10 96 ed 00 80 fe 5d 00 00
       -3.801e-41 8.138866e-29 -8.523e-41 3.3718e-41
000050 3e be 54 27 9a 01 00 80 63 08 00 00 2e f9 33 1c
       2.952404e-15 -5.75e-43 3.009e-42 5.954819e-22
000060 f8 67 00 80 d9 0f 06 3d be 85 01 00 c8 02 00 00
       -3.7297e-41 0.032729957 1.39813e-40 9.98e-43
000070 29 5c 82 31 f8 d9 bc 39 a2 42 2c 3a 48 82 00 00
       3.7939754e-09 0.00036020554 0.00065712084 4.6736e-41
000080 ec 88 05 80 77 27 7e 3c 3a 91 00 80 81 91 fc 33
       -5.08296e-40 0.015512339 -5.2097e-41 1.17611314e-07
000090 d7 b4 00 00 65 95 60 3c 7f 1f 00 80 ba c3 01 00
       6.4873e-41 0.013707493 -1.1299e-41 1.62049e-40
0000a0 a4 8e 00 80 b4 67 00 80 cd 03 9f 2f d0 83 00 00
       -5.117e-41 -3.7202e-41 2.8924632e-10 4.7285e-41
0000b0 23 7c 10 3a 78 f7 01 3c df 20 cd 30 78 60 55 14
       0.0005511662 0.007932536 1.4925056e-09 1.0772777e-26
0000c0 da ab 00 00 d5 3d 00 80 f5 2e 44 06 85 6c 00 00
       6.1649e-41 -2.2181e-41 3.6898e-35 3.893e-41
0000d0 48 1c 00 80 2c 8a 00 80 97 03 20 3d 90 b2 3c 37
       -1.0145e-41 -4.9567e-41 0.039065924 1.1247248e-05
0000e0 ad 3f 00 80 4f 80 00 00 d5 70 cc 3c 63 2d 00 80
       -2.2843e-41 4.6028e-41 0.024956146 -1.6282e-41
0000f0 f3 a5 00 00 fe 08 84 33 77 ae c3 1f af 2d 97 35
       5.9531e-41 6.148365e-08 8.287434e-20 1.1263672e-06
000100 cd 8f fd 3a a3 20 00 00 49 9e 08 3d dc 2f 01 00
       0.0019345224 1.1708e-41 0.033354077 1.09004e-40
000110 26 a8 00 80 01 9b dd 3b 6a b8 4c 3d 6a 4c 00 00
       -6.032e-41 0.0067628627 0.04998056 2.7412e-41
000120 61 9d 00 00 3c 94 00 80 cb 09 00 80 97 01 00 00
       5.6457e-41 -5.3176e-41 -3.513e-42 5.7e-43
000130 d9 4e 00 80 23 f8 c8 39 fd 6a 7e 98 4b b1 00 80
       -2.8285e-41 0.0003833185 -3.2882746e-24 -6.3601e-41
000140 fa 86 37 3c 8b bb 00 80 83 ad 00 00 9a 7a 00 00
       0.0112016145 -6.7278e-41 6.2244e-41 4.3981e-41
000150 75 70 00 80 38 a6 04 80 c2 cd 61 11 c8 f4 5f 3a
       -4.0342e-41 -4.2697e-40 1.7812774e-28 0.000854325
000160 ea 1d 00 80 18 68 8d 3c 5c 8b 26 3d 77 d0 37 16
       -1.0731e-41 0.01726155 0.040660247 1.4848402e-25
000170 b3 73 00 80 fa dd 52 0b f3 1c 00 80 b3 90 00 00
       -4.1505e-41 4.0611525e-32 -1.0385e-41 5.1908e-41
000180 77 f4 9c 13 e2 41 00 00 f4 7e 01 80 ce d2 00 00
       3.9620997e-27 2.3634e-41 -1.37378e-40 7.5622e-41
000190 dd 01 00 00 ad 98 05 1f 9b c1 01 00 e3 be 9c 38
       6.68e-43 2.8290136e-20 1.61288e-40 7.474215e-05
0001a0 15 e3 01 00 39 7c 00 00 39 59 00 80 93 28 00 80
       1.73297e-40 4.4563e-41 -3.2007e-41 -1.4555e-41
0001b0 ed 84 00 80 83 09 13 3c ad 7d bf 19 71 8d eb 25
       -4.7685e-41 0.008974436 1.9799697e-23 4.0861846e-16
0001c0 7b 1d 00 80 cf 93 00 80 0c c7 00 80 35 84 a9 3b
       -1.0576e-41 -5.3024e-41 -7.1405e-41 0.005173231
0001d0 c7 ef 00 00 f3 8a 00 00 8f c2 83 37 2f 3b 1a 3d
       8.6016e-41 4.9846e-41 1.5707015e-05 0.037654098
0001e0 06 ae 00 80 d2 06 02 80 0e 79 00 00 ab 79 01 3d
       -6.2428e-41 -1.86118e-40 4.3426e-41 0.031610172
0001f0 21 16 00 00 4e c5 00 80 34 ac 00 00 ce 2a 00 80
       7.938e-42 -7.078e-41 6.1775e-41 -1.5355e-41
000200 52 99 00 00 41 5d 00 80 bd 69 00 00 f2 6b 00 80
       5.5001e-41 -3.3453e-41 3.7932e-41 -3.8723e-41
000210 d9 b4 00 80 af 1f 00 00 00 0d 00 80 7c 4f 00 80
       -6.4876e-41 1.1366e-41 -4.664e-42 -2.8514e-41
000220 d1 7e 00 00 57 9c 00 80 fb b6 00 00 e9 ba 00 00
       4.5493e-41 -5.6084e-41 6.5641e-41 6.7051e-41
000230 4c 1b 00 00 de 0a 00 00 c2 71 00 80 d4 21 00 80
       9.792e-42 3.898e-42 -4.0809e-41 -1.2135e-41
000240 4e 16 00 00 9c 71 00 00 28 83 00 80 48 44 00 80
       8.001e-42 4.0755e-41 -4.705e-41 -2.4495e-41
000250 64 17 00 00 78 b9 00 00 f4 2d 00 00 e7 89 00 00
       8.391e-42 6.6534e-41 1.6485e-41 4.947e-41
000260 e8 58 00 80 03 b7 00 80 33 10 00 00 61 80 00 80
       -3.1894e-41 -6.5652e-41 5.811e-42 -4.6054e-41
000270 c9 bd 00 00 49 5f 00 80 e1 87 00 80 33 21 00 80
       6.8082e-41 -3.4182e-41 -4.8744e-41 -1.191e-41
000280 4c 3a 00 80 5f 6c 00 00 69 19 00 00 01 ac 00 80
       -2.0913e-41 3.8876e-41 9.115e-42 -6.1703e-41
000290 de 51 00 00 89 ac 00 00 06 3f 00 80 91 a1 00 00
       2.9368e-41 6.1894e-41 -2.2609e-41 5.7959e-41
0002a0 71 03 00 00 17 a2 00 00 91 62 00 00 ad 71 00 00
       1.235e-42 5.8147e-41 3.5359e-41 4.0779e-41
0002b0 aa bc 00 00 05 34 00 80 ef b8 00 00 6e 96 00 00
       6.768e-41 -1.8661e-41 6.6342e-41 5.3964e-41
0002c0 b8 05 00 80 a7 20 01 80 07 6b 00 00 74 ec 00 80
       -2.052e-42 -1.03549e-40 3.8394e-41 -8.4823e-41
0002d0 b6 4d 00 00 98 2d 00 80 ff 6e 00 80 a0 94 00 00
       2.7877e-41 -1.6356e-41 -3.9818e-41 5.3317e-41
0002e0 7d 11 01 80 1c ad 00 00 84 51 00 00 a8 bb 00 80
       -9.8109e-41 6.21e-41 2.9242e-41 -6.7318e-41
0002f0 b8 89 00 80 21 8c 00 00 4a a0 00 80 bd 1c 00 80
       -4.9404e-41 5.0269e-41 -5.7501e-41 -1.031e-41
000300 41 5e 00 80 45 4a 00 00 06 3e 00 80 d5 ef 00 00
       -3.3812e-41 2.6643e-41 -2.225e-41 8.6036e-41
000310 7c 0b 00 80 f1 ba 00 80 d8 83 00 80 82 d2 01 00
       -4.12e-42 -6.7062e-41 -4.7297e-41 1.67351e-40
000320 5e c9 00 00 16 b6 00 00 59 10 00 80 88 94 00 80
       7.2237e-41 6.532e-41 -5.864e-42 -5.3283e-41
000330 79 62 00 00 44 7c 00 00 fc a3 00 00 03 35 00 00
       3.5325e-41 4.4578e-41 5.8827e-41 1.9017e-41
000340 0b 57 00 00 af ea 01 00 b6 b3 00 00 71 97 00 80
       3.1225e-41 1.76024e-40 6.4468e-41 -5.4327e-41
000350 36 6b 00 80 ef 00 01 80 29 46 00 00 30 32 00 80
       -3.846e-41 -9.217e-41 2.5169e-41 -1.8004e-41
000360 ad 18 00 80 f5 5d 00 00 14 1f 00 80 9b 33 00 80
       -8.852e-42 3.3705e-41 -1.1149e-41 -1.8513e-41
000370 6d 8c 00 80 8d 88 00 00 ad 7b 00 00 23 3c 01 80
       -5.0375e-41 4.8985e-41 4.4367e-41 -1.13408e-40
000380 09 80 00 80 4f 20 00 00 1f 5d 00 80 2f 54 00 80
       -4.593e-41 1.159e-41 -3.3406e-41 -3.02e-41
000390 e0 8f 00 00 0b 0c 00 80 26 12 01 00 87 a3 00 80
       5.1613e-41 -4.32e-42 9.8346e-41 -5.8663e-41
0003a0 2c cf 00 80 a0 98 00 00 0d 31 00 00 ae 76 00 80
       -7.4319e-41 5.4752e-41 1.7596e-41 -4.2574e-41
0003b0 2d 73 00 80 5a 91 00 00 bc 77 00 80 a7 0b 01 00
       -4.1317e-41 5.2142e-41 -4.2953e-41 9.6016e-41
0003c0 b3 2e 03 80 db 91 00 80 eb 9e 00 00 b7 4a 00 00
       -2.92259e-40 -5.2323e-41 5.7009e-41 2.6803e-41
0003d0 7e 6d 00 00 5c ba 00 00 6b 12 00 00 d0 b4 00 00
       3.9278e-41 6.6853e-41 6.607e-42 6.4863e-41
0003e0 59 b4 00 00 ea 27 00 00 f6 85 00 00 e9 4d 00 80
       6.4697e-41 1.4318e-41 4.8056e-41 -2.7949e-41
0003f0 6b a1 00 80 b2 7b 00 00 09 c4 00 80 b8 18 00 80
       -5.7906e-41 4.4374e-41 -7.0324e-41 -8.867e-42

mlp.15.bias f4 [64]
000000 52 96 a6 3c 20 8b 00 00 1c f0 4c 3c 3e 06 18 3a
       0.02033535 4.9909e-41 0.012508418 0.000579927
000010 44 f3 00 80 68 2c 48 3c c3 2d 00 80 ad 68 3f 83
       -8.7267e-41 0.0122176185 -1.6416e-41 -5.6250017e-37
000020 7d 02 00 80 eb 76 00 80 ae 77 00 80 bc 73 11 a5
       -8.93e-43 -4.266e-41 -4.2933e-41 -1.2615958e-16
000030 9b 00 e2 36 bf 8f 00 80 27 b4 00 80 12 b0 d0 3c
       6.7353953e-06 -5.1566e-41 -6.4626e-41 0.025474582
000040 5a 36 00 80 59 08 fb 3b 15 33 00 00 7e 8b 00 00
       -1.9498e-41 0.007660907 1.8325e-41 5.004e-41
000050 32 17 00 80 12 3f 00 00 85 6b 00 80 82 61 99 1d
       -8.321e-42 2.2625e-41 -3.8571e-41 4.0599584e-21
000060 26 9b 2e a2 a4 c1 00 80 ae a2 00 80 de c6 e8 3c
       -2.3663532e-18 -6.9465e-41 -5.8358e-41 0.02841514
000070 66 90 00 80 e7 c8 00 80 01 54 00 00 28 03 00 00
       -5.18e-41 -7.207e-41 3.0135e-41 1.132e-42
000080 1d 2e 00 80 0d cf 00 00 37 98 00 00 8c 19 93 81
       -1.6542e-41 7.4276e-41 5.4604e-41 -5.403593e-38
000090 eb 3b 00 00 40 5c 00 00 9e 38 00 00 38 80 00 00
       2.1495e-41 3.3093e-41 2.031e-41 4.5996e-41
0000a0 b5 75 00 00 9d a2 00 80 13 ce d8 3c 01 9b 9b 3c
       4.2225e-41 -5.8335e-41 0.026465451 0.01899481
0000b0 ed b1 00 80 ac 87 00 80 10 a1 54 3c 28 50 00 80
       -6.3828e-41 -4.867e-41 0.012977853 -2.8755e-41
0000c0 77 71 51 32 e7 c1 00 3b 68 20 00 00 98 09 00 00
       1.21912e-08 0.0019646825 1.1625e-41 3.442e-42
0000d0 a0 ec 1b 23 70 0e 00 80 f6 65 b3 3c 44 8a 00 00
       8.452674e-18 -5.179e-42 0.021899205 4.96e-41
0000e0 83 a1 1e 82 76 e8 24 3b 38 ee 1a 3d 21 73 00 00
       -1.1654358e-37 0.0025162972 0.03782484 4.13e-41
0000f0 d3 10 00 80 67 8a 34 38 8b 85 00 80 ee 0f 8d 3c
       -6.035e-42 4.304424e-05 -4.7906e-41 0.01721951

mlp.18.weight f4 [8, 64]
000000 14 4a 00 00 f8 11 00 00 a8 a4 00 80 9d 6c 00 00
       2.6574e-41 6.446e-42 -5.9068e-41 3.8963e-41
000010 c3 d2 00 00 81 40 00 00 a5 60 00 00 65 5d 00 80
       7.5607e-41 2.314e-41 3.467e-41 -3.3504e-41
000020 05 0b 01 00 76 40 00 80 c0 ba 00 00 a6 87 00 00
       9.5789e-41 -2.3124e-41 6.6993e-41 4.8661e-41
000030 bd 49 00 00 c8 d7 00 00 0f cd 00 00 b5 b2 00 00
       2.6452e-41 7.7408e-41 7.3561e-41 6.4108e-41
000040 af 61 00 80 97 53 00 80 f5 66 00 80 1a 03 00 00
       -3.5042e-41 -2.9986e-41 -3.6934e-41 1.113e-42
000050 37 90 00 00 bf 4d 00 00 85 65 00 00 ef b6 00 80
       5.1735e-41 2.789e-41 3.6418e-41 -6.5624e-41
000060 a4 12 00 00 8a 25 00 00 fb 63 00 80 96 82 00 80
       6.687e-42 1.3466e-41 -3.5866e-41 -4.6845e-41
000070 38 2d 01 00 90 64 00 00 22 bc 00 00 6d 67 00 80
       1.08057e-40 3.6075e-41 6.749e-41 -3.7102e-41
000080 9d 45 00 00 0d 4a 00 80 3e 00 00 00 59 24 00 00
       2.4973e-41 -2.6564e-41 8.7e-44 1.3039e-41
000090 62 d2 00 00 af 2e 00 80 a6 16 00 80 fc b6 00 80
       7.5471e-41 -1.6747e-41 -8.125e-42 -6.5642e-41
0000a0 34 4e 00 00 bb 9d 00 80 25 44 00 80 ac 19 00 00
       2.8054e-41 -5.6583e-41 -2.4446e-41 9.21e-42
0000b0 c2 b6 00 80 80 c0 00 80 0c 07 00 80 7e 33 00 00
       -6.5561e-41 -6.9056e-41 -2.528e-42 1.8472e-41
0000c0 39 97 00 80 85 59 00 80 c5 bc 00 80 94 b5 00 00
       -5.4248e-41 -3.2114e-41 -6.7718e-41 6.5138e-41
0000d0 4e 8b 00 80 11 7e 00 80 d4 09 00 80 68 b9 00 00
       -4.9973e-41 -4.5224e-41 -3.526e-42 6.6511e-41
0000e0 dd b9 00 00 ca 3f 00 80 44 9f 00 80 39 0b 00 80
       6.6675e-41 -2.2883e-41 -5.7134e-41 -4.026e-42
0000f0 c8 5a 00 00 f0 13 00 00 86 43 00 80 fc 21 00 00
       3.2566e-41 7.152e-42 -2.4223e-41 1.2191e-41
000100 7c d5 88 3d c2 b5 00 80 e0 78 3e 3d 6e 96 06 3b
       0.06681344 -6.5202e-41 0.046501994 0.002053644
000110 ad a3 00 00 b9 00 33 3d 34 67 00 00 16 29 2a 11
       5.8716e-41 0.04370186 3.7022e-41 1.3423296e-28
000120 df 54 00 80 cb 29 02 00 ed 2b 51 2b 8b 65 7a 26
       -3.0446e-41 1.98663e-40 7.4312675e-13 8.687379e-16
000130 c9 3d 58 37 b1 4f 00 00 f2 1f 00 80 23 d0 ba 3d
       1.2888989e-05 2.8588e-41 -1.146e-41 0.0912173
000140 9f b4 00 00 23 1e dc 3c 73 14 a2 85 98 57 00 80
       6.4795e-41 0.026869839 -1.5241919e-35 -3.1423e-41
000150 b9 43 00 00 02 5d 00 00 ae 67 00 00 65 8e 85 1f
       2.4294e-41 3.3365e-41 3.7193e-41 5.656326e-20
000160 78 f7 5b 23 3d 6b 00 00 39 8d 00 80 8f dc db 3d
       1.1924417e-17 3.847e-41 -5.0661e-41 0.107354276
000170 a3 90 00 00 47 b8 00 00 c3 d0 b1 9c ec 65 00 00
       5.1886e-41 6.6106e-41 -1.1766841e-21 3.6563e-41
000180 ba 79 13 b6 55 7c 9b 04 46 5a 00 00 9b 98 4e 02
       -2.1975561e-06 3.6554506e-36 3.2384e-41 1.5178285e-37
000190 b1 6b 00 00 7e 79 00 00 3a 5f 00 00 ef 8a 00 00
       3.8632e-41 4.3583e-41 3.4161e-41 4.984e-41
0001a0 ad 91 8b 30 fe 62 00 00 8d ed c0 3d f4 28 89 3d
       1.0154985e-09 3.5512e-41 0.09420309 0.06697264
0001b0 0e 37 00 00 ea 71 00 00 c0 93 5c 3d 51 4f 00 00
       1.975e-41 4.0865e-41 0.053851843 2.8453e-41
0001c0 dd 7c 0f 33 ad cf cf 3b 18 8e 00 00 d1 8c 00 80
       3.3408345e-08 0.0063418956 5.0974e-41 -5.0515e-41
0001d0 7a b0 88 24 b8 cf 85 9a a1 fb b6 3d 61 80 00 00
       5.927956e-17 -5.53431e-23 0.08934713 4.6054e-41
0001e0 25 97 e2 02 a1 8c 07 3c 64 ef 17 3e 03 5f 00 00
       3.3294468e-37 0.008273275 0.14837414 3.4084e-41
0001f0 da fa c0 93 0e b4 b0 38 d9 98 00 00 51 40 82 3d
       -4.8714973e-27 8.425872e-05 5.4831e-41 0.06359924
000200 26 10 a6 2c 32 27 00 80 49 55 17 2d 93 d6 db 29
       4.7197966e-12 -1.406e-41 8.602293e-12 9.7627764e-14
000210 da 68 00 00 a2 d1 9d 2c d4 94 00 00 76 b0 00 80
       3.7614e-41 4.4854823e-12 5.339e-41 -6.3302e-41
000220 ce 6f 00 00 1c 26 00 80 7d bc 35 25 79 9b 6b 95
       4.0108e-41 -1.3671e-41 1.576311e-16 -4.7580518e-26
000230 25 48 b2 27 6a 95 00 80 b5 a2 00 80 ae cf 08 2d
       4.9483144e-15 -5.36e-41 -5.8368e-41 7.776819e-12
000240 e0 60 00 80 03 a1 75 30 ed 01 01 80 f4 9e 00 00
       -3.4752e-41 8.935929e-10 -9.2526e-41 5.7022e-41
000250 98 7d 00 80 05 d7 00 00 78 c5 00 80 9e b3 ba 0e
       -4.5055e-41 7.7134e-41 -7.0838e-41 4.6025505e-30
000260 94 4e 6a 93 01 40 00 00 49 39 00 00 3e 27 96 2d
       -2.9573694e-27 2.296e-41 2.055e-41 1.7070453e-11
000270 b2 c3 00 00 4c 0e 00 80 08 0b 00 00 06 51 70 0b
       7.0202e-41 -5.129e-42 3.957e-42 4.6283274e-32
000280 0a 82 97 30 b2 3a 00 80 c4 36 00 80 eb a2 00 80
       1.1023655e-09 -2.1056e-41 -1.9646e-41 -5.8444e-41
000290 da 23 00 00 24 73 00 00 5f 73 00 00 f8 20 00 80
       1.2861e-41 4.1305e-41 4.1387e-41 -1.1827e-41
0002a0 a4 97 c0 92 c1 ca ed 19 de 45 13 2d d5 c9 cc 2c
       -1.2154286e-27 2.4587117e-23 8.371496e-12 5.8204366e-12
0002b0 2d 8b 00 00 e2 20 00 80 4d 04 78 2c 41 0e 00 00
       4.9927e-41 -1.1796e-41 3.5245307e-12 5.113e-42
0002c0 c8 20 60 a8 2e da 05 2c 5c 87 00 00 66 4a 00 00
       -1.2441606e-14 1.902155e-12 4.8558e-41 2.6689e-41
0002d0 3c c0 2f 21 c7 06 00 80 69 ae b4 2c 66 78 00 80
       5.9546726e-19 -2.431e-42 5.135271e-12 -4.3191e-41
0002e0 b6 03 00 00 b7 23 20 2b 1d ca 41 2d b0 5a 00 80
       1.331e-42 5.6892983e-13 1.1015658e-11 -3.2533e-41
0002f0 bb d7 91 22 2e 00 49 b3 3c 7d 00 00 07 58 c2 2c
       3.9530742e-18 -4.6799123e-08 4.4926e-41 5.5235846e-12
000300 af 91 8f 3c f5 23 01 00 e7 52 2d 3c 8f cc dc 39
       0.017525522 1.04734e-40 0.0105788475 0.00042114078
000310 14 89 00 80 f5 d2 27 3c 34 61 00 00 83 96 8e 05
       -4.9174e-41 0.010243167 3.487e-41 1.3408905e-35
000320 f5 33 00 80 91 99 00 00 8c 07 00 00 c1 4f 20 26
       -1.8639e-41 5.5089e-41 2.707e-42 5.561924e-16
000330 da e9 5e 36 57 7c 00 00 9a 1b 00 80 9b c5 b7 3c
       3.3216697e-06 4.4605e-41 -9.902e-42 0.022433093
000340 da 23 00 80 c2 1e c8 3b e7 58 00 00 de 2b 00 00
       -1.2861e-41 0.0061071822 3.1892e-41 1.5737e-41
000350 f8 14 00 00 e6 16 00 80 12 91 00 80 22 ec 3f 1f
       7.522e-42 -8.214e-42 -5.2041e-41 4.0641148e-20
000360 2f 5b 13 24 2c 6c 00 00 a4 45 00 80 e1 c5 cf 3c
       3.195278e-17 3.8805e-41 -2.4982e-41 0.02536291
000370 41 8c 00 00 0f 94 00 00 83 a9 fd 93 8e aa 00 00
       5.0314e-41 5.3113e-41 -6.403333e-27 6.1183e-41
000380 db e6 08 91 29 34 00 00 6f 5d 00 80 56 05 ab 01
       -1.0799646e-28 1.8712e-41 -3.3518e-41 6.2823136e-38
000390 8a 5e 00 80 f0 1f 00 00 11 a0 00 80 58 0c 00 80
       -3.3914e-41 1.1457e-41 -5.7421e-41 -4.428e-42
0003a0 9b 57 a1 25 c4 1a 00 00 9c 15 c0 3c e2 63 86 3c
       2.7988412e-16 9.602e-42 0.023447804 0.01640505
0003b0 6b 62 00 00 10 03 00 80 e1 0d 36 3c 21 36 00 80
       3.5306e-41 -1.099e-42 0.011111707 -1.9418e-41
0003c0 c5 93 83 32 78 5c c0 3a b8 35 00 00 ff a0 00 00
       1.5317605e-08 0.0014675995 1.927e-41 5.7755e-41
0003d0 31 c0 53 24 14 77 00 80 b7 1c 9f 3c b8 45 00 00
       4.5916124e-17 -4.2717e-41 0.019422872 2.501e-41
0003e0 4a c2 e0 01 c5 b0 f3 3a 42 b1 0e 3d e1 a6 00 80
       8.2563396e-38 0.001859211 0.034837015 -5.9865e-41
0003f0 74 5c 00 00 1e b3 d9 37 48 08 00 00 fa fc 72 3c
       3.3166e-41 2.5951824e-05 2.971e-42 0.014830822

mlp.18.bias f4 [8]
000000 64 bd 00 80 93 0c b5 3d d3 03 58 2d c6 92 b7 3c
       -6.794e-41 0.08840289 1.2279028e-11 0.022408854
000010 87 0d f7 3d 7d 8d 13 29 6e bc 00 00 a7 62 25 39
       0.12063127 3.276328e-14 6.7596e-41 0.00015772377

mlp.21.weight f4 [1, 8]
000000 a8 0e 00 80 ca 96 92 be 0c eb 74 ae 79 48 91 bd
       -5.258e-42 -0.28630668 -5.568794e-11 -0.07093901
000010 4e e9 c9 be e0 8b d9 39 ae 57 00 80 05 7f ec b9
       -0.3943581 0.0004149368 -3.1454e-41 -0.00045108065
