model_saved/2024-01-25-07-49-50/model_2024-01-25-07-51-44_epoch_16000_train_mse_1.93e-02_val_mse_2.00e-02.pt (torch, 88343 bytes, 15 tensors)

mlp.0.weight f4 [8, 8]
00000000: 753a 0080 5a16 0080 abb1 0000 2e90 0080
00000010: 7f84 0000 f105 0080 6b13 0000 5a8a 0080
00000020: 24d7 763b f3e4 bfba d38b 81b7 d986 c635
00000030: 3faa 4833 bcd1 79b5 5d3b c6b6 7507 7136
00000040: e94f 9ebc 12f2 6a3d 599d 8f3c 4368 9539
00000050: f8f6 e339 a173 e439 58fa b33a ca34 adb8
00000060: 3905 7bbc 1035 283d a6eb 4c3c b375 5739
00000070: 03ca a339 1b2f a439 0946 813a 78be 42b8
00000080: da4c d73d 2872 59bd dbef 643b a5ba 0e39
00000090: 4642 d038 eb5d 9a38 ef89 8238 5599 bb38
000000a0: 24cd 9dbd d210 413e 89ea 733d a8d8 803a
000000b0: c32c c33a 6aec c73a 222b 9b3b 5828 2cb9
000000c0: f992 973d 1aee ac3e dbaa 253e 642e 013b
000000d0: 2670 423b 6018 4a3b af7e 203c 01ba a1b9
000000e0: 8f2c 7cbc 807d b53d 7d91 e73c 51d3 ed39
000000f0: a4d3 333a 4b95 373a b0ad 0e3b d778 97b8
-2.097e-41 -8.018e-42 6.3735e-41 -5.1722e-41 4.753e-41 -2.131e-42 6.966e-42 -4.9631e-41
0.0037664855 -0.0014640376 -1.5443109e-05 1.4791395e-06 4.6720967e-08 -9.306493e-07 -5.9077706e-06 3.591614e-06
-0.019325214 0.057359762 0.017531084 0.00028497176 0.0004348082 0.000435737 0.0013731224 -8.2591156e-05
-0.015321069 0.04106623 0.012507355 0.00020547844 0.00031240293 0.00031315614 0.0009862791 -4.6430592e-05
0.10512705 -0.053087384 0.0034933004 0.00013611706 9.930557e-05 7.360786e-05 6.224575e-05 8.945415e-05
-0.07705143 0.18854073 0.059549842 0.0009830194 0.0014890659 0.0015252952 0.0047353664 -0.00016418227
0.0740108 0.33775407 0.16178457 0.001971149 0.0029668896 0.0030837283 0.009795829 -0.00030846897
-0.015391483 0.08861828 0.028267616 0.00045361606 0.0006859845 0.00070031424 0.0021771006 -7.222749e-05

mlp.0.bias f4 [8]
00000000: 2673 0080 7f9d c5b5 3ac0 2939 e85f 0339
00000010: 6cc0 28b7 48f5 213a 4317 ab3a 5b80 9639
-4.1307e-41 -1.4723481e-06 0.00016188706 0.00012528861 -1.0058382e-05 0.00061782124 0.0013053197 0.00028705862

mlp.3.weight f4 [16, 8]
00000000: a186 0000 e8ce 12b9 642c d13b fd86 963b
00000010: fbc1 7bbb 536a b13c c5b9 2c3d 8b0d 233c
00000020: 6583 0000 ab9b f3b5 3ccf ab38 6079 8038
00000030: 6234 6cb8 46ef 9639 9621 2c3a 0598 1039
00000040: 4886 0000 573c 38b9 f0f1 ea3b bd1c aa3b
00000050: 3b66 9dbb 25ee c73c a562 5c3d faa0 393c
00000060: 495e 0080 4809 2036 5df5 8db8 855c 51b8
00000070: 5b9c 803a bc21 81b9 3580 5e39 e361 91b9
00000080: a2a2 0080 189f 0000 f231 0080 2a67 0000
00000090: a10c 0000 ed1b 0080 860d 0000 ae71 0000
000000a0: 67bb 0080 f07c 0080 b349 0080 1269 0080
000000b0: 10ac 0000 3f5a 0080 ba01 0080 4a0c 0000
000000c0: 1f1f 0000 63e3 8eb6 7ef0 4339 5fff f238
000000d0: fa84 01b9 dc6f 1f3a 5203 da3a dc64 9d39
000000e0: 300f 0080 43e2 0bba cfd5 b33c ee14 813c
000000f0: c5e7 55bc 6791 973d f31c 1d3e 0270 0a3d
00000100: f570 0080 118c 0080 9e53 0000 3d83 0000
00000110: f364 0080 41b0 0000 fe08 0000 46b4 0080
00000120: 4229 0080 3837 8cba 2e2c 163d 2682 d73c
00000130: f2fe a3bc 60df fc3d 1bc2 7d3e 22a5 6b3d
00000140: a369 0000 e574 0000 6e6e 0080 7bd8 0000
00000150: 887d 0000 473e 0000 d616 0080 5b80 0080
00000160: f43b 0000 ae8b a1ba 049c 213d 7e0b e83c
00000170: 6382 0bbd 113a 083e bfdd 8b3e 5c33 783d
00000180: 2d63 0080 db5b 0000 067b 0080 5e8a 0080
00000190: a061 0080 9d65 510d 6e12 91b1 1fc3 eb1c
000001a0: 3590 0000 628b 0000 f576 0000 377a 0000
000001b0: 6c85 0080 ec29 0000 284d 0080 8062 0080
000001c0: 620b 0000 5eac 0000 ef9c 0000 f932 0080
000001d0: 6193 0080 4408 0080 f3a9 679a 0139 0000
000001e0: 9157 0000 fe54 aab9 ac98 583c 54df 1b3c
000001f0: 10b7 09bc 2cbd 373d 382d c03d 7c33 a93c
4.8296e-41 -0.00014000724 0.0063834656 0.0045937286 -0.0038415182 0.021657145 0.04216935 0.009951959
4.7135e-41 -1.8150216e-06 8.192516e-05 6.1261235e-05 -5.631557e-05 0.00028788502 0.0006566284 0.00013789542
4.8171e-41 -0.00017570086 0.0071699545 0.005191414 -0.0048034466 0.024405548 0.053805012 0.011329884
-3.3823e-41 2.384726e-06 -6.7691064e-05 -4.991565e-05 0.0009812223 -0.0002462993 0.0002121933 -0.00027729486
-5.8342e-41 5.7072e-41 -1.7917e-41 3.7008e-41 4.53e-42 -1.0018e-41 4.851e-42 4.078e-41
-6.7227e-41 -4.4819e-41 -2.6438e-41 -3.7692e-41 6.1724e-41 -3.2374e-41 -6.2e-43 4.408e-42
1.1164e-41 -4.258401e-06 0.0001868624 0.00011587026 -0.00012351936 0.0006082037 0.001663307 0.0003002052
-5.448e-42 -0.0005336145 0.021952538 0.01575705 -0.013055746 0.0740078 0.15343075 0.033798225
-4.0521e-41 -5.0246e-41 2.9996e-41 4.708e-41 -3.6214e-41 6.3228e-41 3.226e-42 -6.467e-41
-1.48e-41 -0.0010697609 0.036663227 0.026307177 -0.020019028 0.12347293 0.24781077 0.05753053
3.7895e-41 4.1934e-41 -3.9615e-41 7.7659e-41 4.5032e-41 2.2341e-41 -8.192e-42 -4.6045e-41
2.1507e-41 -0.0012324953 0.03945543 0.028325792 -0.034059893 0.133034 0.27317616 0.060595855
-3.5578e-41 3.2952e-41 -4.4132e-41 -4.9637e-41 -3.5021e-41 6.452541e-31 -4.2221506e-09 1.5601433e-21
5.1732e-41 5.0001e-41 4.2674e-41 4.3842e-41 -4.7863e-41 1.5039e-41 -2.7678e-41 -3.5335e-41
4.083e-42 6.1834e-41 5.6297e-41 -1.8286e-41 -5.287e-41 -2.965e-42 -4.7906964e-23 2.0449e-41
3.1413e-41 -0.0003248825 0.013219994 0.009513695 -0.008405462 0.044858143 0.09383625 0.020654432

mlp.3.bias f4 [16]
00000000: 51a3 ad39 abbc 9436 2004 c539 5c6b 6cb6
00000010: e676 0080 446a 0000 8fe3 2537 c2f1 943a
00000020: 4e8f 0000 da51 f93a cd28 0000 e5fb 053b
00000030: 327f 0080 204f 0080 4b01 0000 07d4 333a
0.00033118812 4.4327076e-06 0.0003757784 -3.5229232e-06 -4.2653e-41 3.8121e-41 9.887749e-06 0.0011363553
5.1408e-41 0.0019021586 1.4637e-41 0.002044433 -4.5629e-41 -2.8385e-41 4.64e-43 0.00068599026

mlp.6.weight f4 [32, 16]
00000000: f291 0000 056a 0000 be7c 0000 9b4b 0000
00000010: 1391 0000 e2a1 0080 9f8b 0000 8073 0080
00000020: 66cb 0000 fc9e 0080 8354 0080 7487 0080
00000030: a196 0000 8808 0000 9bb5 0080 c430 0080
00000040: 76f3 f83b 3a69 dc38 74d6 113c ab0b b3b7
00000050: 1b5a 0080 dc3e 0080 47fc 7a39 3e8a ec3c
00000060: ff38 0000 55d0 363d 0b07 0000 7479 453d
00000070: 2ea0 0080 760d 0000 5a44 0080 a6db 833c
00000080: d405 193d e7d9 f139 fcf3 173d 56bc a9b9
00000090: eaa6 0000 ac2b 0080 e942 853a 322e c13d
000000a0: c902 0080 d3fb 443e 5012 0000 324c 463e
000000b0: b19b 0200 4677 0000 9717 0000 6440 8e3d
000000c0: 75f4 393c ab69 2539 aa54 5b3c 92de 0fb8
000000d0: b714 0000 4c07 0080 5aa3 bb39 88c0 343d
000000e0: f4a9 0000 863b 873d 7673 0080 50f6 943d
000000f0: e44d 0080 33a0 0000 7d78 0000 663d c63c
00000100: 2535 2536 ae3e 1333 fda5 4136 371d 04b2
00000110: 9029 0080 fc98 0000 ea01 a733 5d2f 0d38
00000120: 7b62 0080 07ee da36 83af 0080 98a0 7137
00000130: 2d4d 0080 5754 0000 066c 0000 9ce0 ac36
00000140: f58e 0000 02a2 0080 b462 0080 4f26 0080
00000150: f862 0080 8276 0000 2a87 0080 5902 0080
00000160: 2b19 0080 6778 0080 fd0b 0080 9624 0000
00000170: c91a 0080 4625 0000 a543 0080 3449 0000
00000180: 656a 0000 ed81 0080 ce57 0080 7d2a 0080
00000190: 34a8 0000 0ba9 0080 3e08 0080 614c 0080
000001a0: ba28 0000 f7a9 0080 1b2f 0080 3b38 0000
000001b0: afa1 0000 1a07 0000 2a8e 0000 4d03 0000
000001c0: 9392 c237 baa7 a934 80ec e037 fa1e 56b3
000001d0: bc11 0000 e341 0080 a190 4435 e58a b738
000001e0: 10c7 0080 a142 1239 908d 0080 d3df 1c39
000001f0: f656 0080 bb2a 0000 9fa6 0080 75c5 4a38
00000200: 1a00 e03b ca3f b538 8df6 e83b 6a44 dfb7
00000210: 762d 0080 107c 0000 8b39 4a39 a8ba f53c
00000220: 9b36 0000 8404 fe3c 8f6b 0080 acae 283d
00000230: 1d02 0080 a743 0080 c756 0080 4083 533c
00000240: 60f7 f136 291a d133 1724 0a37 3e33 85b2
00000250: dd25 0080 bd45 0080 02f1 7234 1113 f437
00000260: 4e5a 0000 2133 3838 9503 0000 80fb 4138
00000270: 4f32 0080 42b3 0000 bb7f 0080 7a00 7a37
00000280: 1153 0080 f5a5 0000 c419 0000 77a0 0080
00000290: f1a7 0000 8897 0000 4618 0000 464a 0000
000002a0: 54b1 0000 ab98 0080 d25c 0080 9fab 0080
000002b0: 6e06 0180 bc7b 0080 ef89 0080 ef77 0000
000002c0: f523 0080 e14e 0080 466d 0000 8c72 0080
000002d0: b09c 0000 c826 0000 8263 0000 10ae 0000
000002e0: 04aa 0080 fe3e 0000 9577 0080 e286 0000
000002f0: 7160 0000 4b52 0000 b346 0000 412d 0080
00000300: 5101 5620 82a6 0080 f11a 0000 a20f 0080
00000310: edae 0000 6fa9 0000 928d 0000 0889 1fa7
00000320: 3b97 0080 d589 1e26 0742 0000 f3f4 8ba3
00000330: a782 0000 88cf 0080 8566 0000 0bc4 3d83
00000340: 594a 283c fc01 0f39 3fa7 393c a6eb 29b8
00000350: 0838 0000 d06a 0000 2e42 a039 05c4 123d
00000360: 9e8b 0000 6346 723d 71ab 0080 c855 7c3d
00000370: 6f0d 0000 6480 0000 c239 0000 62b6 a83c
00000380: a571 0000 2c61 0000 da1f 0000 4075 0080
00000390: c779 0000 602c 0080 b73c 0000 c93a 0080
000003a0: 016c 0080 4078 0000 6f74 0000 3a50 0080
000003b0: 658b 0080 3084 0000 820c 0080 633d 0080
000003c0: 8990 4c36 c326 2f33 474f 6936 faa3 d9b1
000003d0: cda2 0080 73a3 0080 d7fe ca33 ff07 4f37
000003e0: 9634 0000 8825 9937 b73d 0080 40ab a537
000003f0: 4325 0000 903a 0080 490f 0080 dec3 d236
5.2355e-41 3.8033e-41 4.4749e-41 2.7122e-41 5.2043e-41 -5.8073e-41 5.0087e-41 -4.1434e-41
7.2966e-41 -5.7033e-41 -3.0317e-41 -4.8591e-41 5.4035e-41 3.06e-42 -6.5148e-41 -1.7494e-41
0.007597382 0.000105100175 0.008901227 -2.1343896e-05 -3.2324e-41 -2.255e-41 0.00023935839 0.028874513
2.0446e-41 0.044632275 2.527e-42 0.04821153 -5.7462e-41 4.829e-42 -2.452e-41 0.016095947
0.037359074 0.00046129452 0.037097916 -0.00032374513 5.9877e-41 -1.5667e-41 0.0010167036 0.09432639
-9.99e-43 0.19236688 6.569e-42 0.19365004 2.39523e-40 4.2787e-41 8.462e-42 0.06945875
0.011349787 0.0001577499 0.013386885 -3.430114e-05 7.431e-42 -2.618e-42 0.00035789126 0.044128925
6.0968e-41 0.0660315 -4.142e-41 0.07273543 -2.7942e-41 5.7469e-41 4.3223e-41 0.024199199
2.461785e-06 3.428311e-08 2.885586e-06 -7.690054e-09 -1.491e-41 5.488e-41 7.776892e-08 3.366113e-05
-3.5328e-41 6.5246163e-06 -6.2962e-41 1.44021105e-05 -2.7685e-41 3.0255e-41 3.8752e-41 5.1521474e-06
5.1283e-41 -5.8117e-41 -3.5408e-41 -1.3743e-41 -3.5503e-41 4.2513e-41 -4.8488e-41 -8.42e-43
-9.029e-42 -4.3192e-41 -4.3e-42 1.3125e-41 -9.609e-42 1.3371e-41 -2.4266e-41 2.626e-41
3.8167e-41 -4.6609e-41 -3.1498e-41 -1.5242e-41 6.034e-41 -6.0641e-41 -2.957e-42 -2.74e-41
1.461e-41 -6.0972e-41 -1.6898e-41 2.0172e-41 5.8001e-41 2.548e-42 5.0999e-41 1.184e-42
2.3194856e-05 3.160074e-07 2.681301e-05 -4.985393e-08 6.362e-42 -2.3636e-41 7.322615e-07 8.751991e-05
-7.141e-41 0.00013948466 -5.0783e-41 0.000149607 -3.1196e-41 1.5329e-41 -5.9772e-41 4.834445e-05
0.0068359496 8.642634e-05 0.0071094693 -2.661553e-05 -1.6308e-41 4.4505e-41 0.00019285658 0.029996231
1.9589e-41 0.031008013 -3.8585e-41 0.041182205 -7.58e-43 -2.4269e-41 -3.113e-41 0.01290971
7.211158e-06 9.7370794e-08 8.233844e-06 -1.550654e-08 -1.3583e-41 -2.5017e-41 2.2625684e-07 2.9095945e-05
3.2395e-41 4.3916636e-05 1.285e-42 4.6249013e-05 -1.8047e-41 6.4306e-41 -4.5821e-41 1.4901272e-05
-2.9799e-41 5.9534e-41 9.243e-42 -5.7564e-41 6.0246e-41 5.4359e-41 8.708e-42 2.6644e-41
6.3613e-41 -5.4767e-41 -3.3298e-41 -6.1566e-41 -9.4142e-41 -4.4388e-41 -4.9481e-41 4.3024e-41
-1.2899e-41 -2.8296e-41 3.92e-41 -4.1092e-41 5.6209e-41 1.3912e-41 3.5697e-41 6.2442e-41
-6.099e-41 2.2597e-41 -4.2898e-41 4.8387e-41 3.4597e-41 2.9521e-41 2.5362e-41 -1.6234e-41
1.812694e-19 -5.9732e-41 9.665e-42 -5.608e-42 6.2752e-41 6.0781e-41 5.0786e-41 -2.2139967e-15
-5.4251e-41 5.500406e-16 2.3686e-41 -1.517415e-17 4.6869e-41 -7.4448e-41 3.6777e-41 -5.5767154e-37
0.010271632 0.00013638282 0.0113313785 -4.0512205e-05 2.01e-41 3.8317e-41 0.00030566886 0.03583147
5.0085e-41 0.059149157 -6.1502e-41 0.061605245 4.819e-42 4.6058e-41 2.072e-41 0.02059478
4.0768e-41 3.4859e-41 1.1426e-41 -4.2061e-41 4.3685e-41 -1.5919e-41 2.178e-41 -2.1088e-41
-3.8745e-41 4.3138e-41 4.1769e-41 -2.878e-41 -5.0005e-41 4.742e-41 -4.487e-42 -2.2021e-41
3.04825e-06 4.0780616e-08 3.476585e-06 -6.334173e-09 -5.8402e-41 -5.8635e-41 9.452713e-08 1.2340023e-05
1.8864e-41 1.8256498e-05 -2.2139e-41 1.9749277e-05 1.3367e-41 -2.1008e-41 -5.483e-42 6.2812896e-06

mlp.6.bias f4 [32]
00000000: e12d 0000 9b4c 8e3a bf03 913b 7a57 d53a
00000010: 9f03 c134 0f9e 0080 6d24 0080 1531 5936
00000020: 1d92 653a ffc0 8535 4c0e 0080 5586 0080
00000030: 857d 0000 4f20 b63a 20a8 0000 d2a9 e334
00000040: 1164 8f3b 480e 0000 5787 0000 cdcc 0000
00000050: c826 0080 24ff 0135 b5f5 b339 06d0 e939
00000060: f59c d933 6b02 513a 1067 0080 4fb0 0000
00000070: 2b17 0000 5068 2a24 7803 0080 e351 9038
1.6458e-41 0.001085657 0.0044254954 0.001627668 3.5951686e-07 -5.6701e-41 -1.3067e-41 3.236409e-06
0.00087574293 9.965441e-07 -5.129e-42 -4.8189e-41 4.5028e-41 0.0013895127 6.0312e-41 4.2405605e-07
0.0043759425 5.123e-42 4.8551e-41 7.3469e-41 -1.3912e-41 4.8427523e-07 0.00034324607 0.00044596213
1.01334e-07 0.00079730776 -3.6972e-41 6.3248e-41 8.311e-42 3.695123e-17 -1.244e-42 6.881708e-05

mlp.9.weight f4 [64, 32]
00000000: 23b7 0000 ac91 3002 c551 128b ea31 0080
00000010: 7104 0080 ac63 0080 1141 0080 928f 0080
00000020: a163 0000 e21f 0000 606c 0080 e077 0080
00000030: 6c04 0000 9908 0000 fafb 0080 6a78 0000
00000040: 0029 0080 f449 0080 8845 0000 03c7 0080
00000050: 4d65 0000 9605 0080 6982 0000 0e8e 0000
00000060: 395b 0000 3698 0000 d85e 0000 d273 0000
00000070: 5d3f 0080 b0bd 0080 cb9b 0080 4b7b 0000
00000080: 199b 0080 e527 cfaf 4bdc e2b2 96fd 7bad
00000090: 080e 0000 df25 0080 5c48 0080 43ee 9596
000000a0: 9dcb ad1d 2f2c 1988 d81e 0000 6953 0000
000000b0: ba45 0080 8f6e 8129 4407 0000 f1cb 6e84
000000c0: 4817 cf2d a964 0000 ac24 0000 ee96 0000
000000d0: 3b5a 0000 b171 0000 9e79 862b 71f4 7217
000000e0: ce38 0000 656b 9d15 6883 0000 079d 0080
000000f0: 9847 0000 0a50 0000 de4f 0000 98ac 4615
00000100: 0350 0000 698c 143d 479c 133e fb9e 5e3d
00000110: 1803 5737 9251 0000 d85f 0000 55d7 ec38
00000120: 79ec f03c ffc7 1238 c2aa 0000 ca36 0000
00000130: 857e 63a2 5007 3f3d 9726 0000 d8ba 7737
00000140: 3a21 133e 171d 0080 cd1b 0000 3586 0000
00000150: b20e 0080 2499 8f37 c2eb 403c cf8d 793c
00000160: 2702 7636 6c72 dc3c 4b7e 0000 7120 0000
00000170: 4e9c 0080 abf8 b526 371c 0080 56c7 1c3b
00000180: dc43 0000 f89b c73a 6859 d13b 20c8 133b
00000190: e3dc 0c35 ad3b 0080 1d8b 0000 a073 9836
000001a0: c2e6 9b3a 1796 be35 f655 0080 3c86 0000
000001b0: b9fc a51a 2888 f83a f71c 0080 803d 2035
000001c0: da29 c63b 6ec8 0080 a45d 0000 0b1d 0080
000001d0: 3885 0000 03ef 3b35 310a fb39 adb9 1f3a
000001e0: 4493 1f34 4fe6 8c3a 4683 0080 cfa0 0000
000001f0: 173a 0080 4a9d 6724 267f 0000 1c46 c938
00000200: 469d 0000 0a27 1239 4b54 1d3a 70b2 5739
00000210: b5ac 4b33 b58e 0080 8b87 0000 8dd2 da34
00000220: 8ea3 e238 e8e1 0734 943c 0000 4d0a 0000
00000230: 8803 0080 2d2e 3539 e16f 0080 61fb 6533
00000240: b70b 113a 6cae 0000 f57d 0000 294e 0080
00000250: 66a4 0000 cea5 8733 8c65 3538 db8f 6738
00000260: 0683 6632 8704 cd38 cab0 0080 0b1e 0000
00000270: 784f 0080 6a86 a422 633d 0080 9e40 1137
00000280: 027a 0000 2b44 0080 e74f 0080 4316 0000
00000290: 0777 0080 8ab6 0000 b123 0080 f34f 0000
000002a0: db34 0000 f197 0000 cab2 0000 937f 0000
000002b0: f23a 0000 7513 0080 df93 0000 5715 0080
000002c0: 9f50 0080 5e18 0000 8911 0080 be48 0080
000002d0: 6e98 0000 c925 0000 6f6e 0000 b40e 0080
000002e0: a28a 0080 0954 0000 cd28 0080 257b 0000
000002f0: 282f 0080 475c 0000 1c55 0080 348f 0000
00000300: 788a 0000 ae91 0080 962e 0080 ec3a 0080
00000310: 2945 0000 8b04 0080 195a 0000 4562 0080
00000320: 1c84 0080 c7a7 0080 4d13 0080 483d 0000
00000330: 05b2 0000 dac1 0000 988f 0080 cf2c 0000
00000340: 5024 0080 2d17 0080 e299 0080 8696 0180
00000350: 0739 0000 e1de 0080 5e6a 0080 caa9 0000
00000360: 4e5b 0080 2888 0080 2575 0080 74d7 0080
00000370: 676b 0080 af50 0080 5268 0080 8e33 0000
00000380: 2e67 0080 20cd 2f38 c4c2 3b39 5c16 8138
00000390: 481c 7332 d522 0080 d54f 0080 cf93 0234
000003a0: e22f 0738 1085 2333 4047 0080 d87b 0000
000003b0: 0b03 0282 ce35 5838 ea1d 0080 b8a1 8932
000003c0: 95ff 2c39 5164 0000 8a26 0080 e2d1 0000
000003d0: f501 0000 5429 a232 77dc 5837 342f 8a37
000003e0: 8bed 8831 f76c f437 cb7a 0080 df01 0000
000003f0: 1a01 0080 8ce8 c421 4827 0080 b740 2d36
6.5697e-41 1.2972244e-37 -2.8180094e-32 -1.7906e-41 -1.593e-42 -3.5756e-41 -2.3341e-41 -5.1503e-41
3.574e-41 1.1437e-41 -3.8878e-41 -4.3003e-41 1.586e-42 3.084e-42 -9.0392e-41 4.3196e-41
-1.4708e-41 -2.653e-41 2.4943e-41 -7.1392e-41 3.634e-41 -2.004e-42 4.6782e-41 5.096e-41
3.2725e-41 5.4603e-41 3.4024e-41 4.1548e-41 -2.273e-41 -6.8047e-41 -5.5888e-41 4.4229e-41
-5.5639e-41 -3.7681427e-10 -2.641004e-08 -1.43240055e-11 5.033e-42 -1.3586e-41 -2.5958e-41 -2.4222613e-25
4.600325e-21 -4.60937e-34 1.1065e-41 2.9922e-41 -2.5013e-41 5.74793e-14 2.606e-42 -2.807041e-36
2.3543514e-11 3.611e-41 1.3155e-41 5.4143e-41 3.2369e-41 4.0785e-41 9.555028e-13 7.8502946e-25
2.0378e-41 6.3581234e-26 4.714e-41 -5.6331e-41 2.5683e-41 2.8713e-41 2.8651e-41 4.0121934e-26
2.8703e-41 0.036266718 0.14415084 0.054350834 1.2815719e-05 2.9262e-41 3.4382e-41 0.00011293466
0.029409634 3.4995373e-05 6.1256e-41 1.9655e-41 -3.0831216e-18 0.046637833 1.3843e-41 1.476585e-05
0.14368144 -1.0435e-41 9.973e-42 4.8144e-41 -5.272e-42 1.711824e-05 0.011774959 0.015231564
3.665811e-06 0.02691003 4.5305e-41 1.1638e-41 -5.6072e-41 1.26268e-15 -1.0122e-41 0.0023922524
2.4343e-41 0.0015228977 0.006388832 0.0022549704 5.2475497e-07 -2.1408e-41 4.9904e-41 4.5434135e-06
0.0011894333 1.4199785e-06 -3.0837e-41 4.8154e-41 6.8650696e-23 0.0018961476 -1.039e-41 5.969414e-07
0.0060474696 -7.19e-41 3.3592e-41 -1.0419e-41 4.779e-41 7.0010736e-07 0.00047882044 0.00060930365
1.4861604e-07 0.001074979 -4.7092e-41 5.7687e-41 -2.0839e-41 5.022337e-17 4.5612e-41 9.597486e-05
5.6419e-41 0.00013938188 0.00060016353 0.00020570471 4.7421697e-08 -5.1194e-41 4.8624e-41 4.075886e-07
0.00010806984 1.2655039e-07 2.1731e-41 3.695e-42 -1.267e-42 0.00017278707 -4.0135e-41 5.3546845e-08
0.00055330567 6.2571e-41 4.5185e-41 -2.8039e-41 5.8975e-41 6.316587e-08 4.3248336e-05 5.5208668e-05
1.3417553e-08 9.776005e-05 -6.342e-41 1.0777e-41 -2.8508e-41 4.4594605e-18 -2.2021e-41 8.657718e-06
4.3768e-41 -2.4454e-41 -2.8664e-41 7.986e-42 -4.2699e-41 6.5483e-41 -1.2804e-41 2.868e-41
1.8961e-41 5.4506e-41 6.4137e-41 4.5765e-41 2.1146e-41 -6.98e-42 5.3046e-41 -7.655e-42
-2.8921e-41 8.741e-42 -6.29e-42 -2.6095e-41 5.4681e-41 1.3555e-41 3.9616e-41 -5.274e-42
-4.9732e-41 3.0146e-41 -1.4637e-41 4.4176e-41 -1.6916e-41 3.3103e-41 -3.0531e-41 5.1372e-41
4.9673e-41 -5.226e-41 -1.6712e-41 -2.1137e-41 2.481e-41 -1.63e-42 3.2321e-41 -3.5252e-41
-4.7392e-41 -6.0187e-41 -6.924e-42 2.1984e-41 6.3861e-41 6.9541e-41 -5.1512e-41 1.6074e-41
-1.3026e-41 -8.314e-42 -5.5203e-41 -1.45833e-40 2.0458e-41 -7.9954e-41 -3.8157e-41 6.0909e-41
-3.2754e-41 -4.8844e-41 -4.2024e-41 -7.729e-41 -3.8529e-41 -2.8944e-41 -3.7423e-41 1.8494e-41
-3.7014e-41 4.191429e-05 0.00017906266 6.155364e-05 1.4150892e-08 -1.2495e-41 -2.8638e-41 1.2160966e-07
3.2231103e-05 3.8072415e-08 -2.556e-41 4.4427e-41 -9.551765e-38 5.1548523e-05 -1.0731e-41 1.602244e-08
0.0001649841 3.5987e-41 -1.3825e-41 7.5292e-41 7.02e-43 1.8878076e-08 1.2925934e-05 1.6472863e-05
3.9851265e-09 2.9137807e-05 -4.405e-41 6.71e-43 -3.95e-43 1.3343031e-18 -1.4091e-41 2.5816678e-06

mlp.9.bias f4 [64]
00000000: 6e25 0000 0b7d 0080 f897 f13b 4cf3 9e39
00000010: c1a8 e637 2870 0080 836a 0080 f204 0937
00000020: 234f 6535 264b af3b cbbf 3632 4766 0000
00000030: 7829 0000 6c65 0000 e970 1e30 678d 8b3b
00000040: 932c 0000 3be6 ae3a cb09 0080 e0a7 0000
00000050: d784 0000 87fb ec3a 5691 0000 0543 ff31
00000060: c541 5b34 371c 0000 ff80 0080 41b1 5630
00000070: 172a 0080 7765 0000 fb54 0080 47b8 c338
00000080: fa62 b02d 7652 0000 2834 543a 132a 0f35
00000090: e3f6 6b3b e5a2 fa3b 2fae 0080 bea3 9c15
000000a0: 2520 0080 8b77 b219 4985 011f a474 0000
000000b0: 2384 0000 74af 0080 b577 0000 de9f 0080
000000c0: 551d 0080 3877 8833 0fa5 0000 03ea 263a
000000d0: f4d3 8b3b c972 0080 852e f939 451c 0000
000000e0: 9dc4 493b c607 223b fb7c 0080 ac31 2c8f
000000f0: d46d 0000 ca48 0080 4960 022b 6b05 5d3b
1.3427e-41 -4.4857e-41 0.0073728524 0.0003031738 2.7496719e-05 -4.0234e-41 -3.8209e-41 8.166988e-06
8.5424307e-07 0.0053495346 1.0637403e-08 3.669e-41 1.4876e-41 3.6383e-41 5.764052e-10 0.0042588
1.599e-41 0.001334376 -3.513e-42 6.0222e-41 4.7654e-41 0.0018080332 5.2137e-41 7.429096e-09
2.0419891e-07 1.0122e-41 -4.6275e-41 7.810464e-10 -1.5099e-41 3.6399e-41 -3.0485e-41 9.332649e-05
2.0052838e-11 2.9581e-41 0.000809493 5.333288e-07 0.003600531 0.007648813 -6.2485e-41 6.326624e-26
-1.1531e-41 1.8453052e-23 2.7427063e-20 4.1843e-41 4.7402e-41 -6.2941e-41 4.2943e-41 -5.735e-41
-1.0522e-41 6.354679e-08 5.9212e-41 0.0006367268 0.00426721 -4.1177e-41 0.0004752764 1.0141e-41
0.0030787357 0.0024723872 -4.4835e-41 -8.489821e-30 3.9399e-41 -2.6112e-41 4.63189e-13 0.0033725153

mlp.12.weight f4 [128, 64]
00000000: d88a 0000 0872 0000 28a8 0080 3b22 0000
00000010: 84b0 0080 3bec 0000 0d7c 0000 6869 0000
00000020: 2362 0080 e006 0000 bc1d 0000 9198 0080
00000030: 7ca1 0080 c55b 0080 866c 0000 eda0 0080
00000040: 5b82 0000 7c18 0080 4e3d 0000 e0c6 0080
00000050: 7d87 0080 bc44 0080 e868 0080 d891 0000
00000060: 6207 0080 687d 0080 2c86 0080 a3b1 0080
00000070: c0a5 0000 1670 0000 a6ac 0000 e011 0000
00000080: b095 0080 c776 0080 22eb 0000 854a 0080
00000090: 6be3 0080 d012 0080 702d 0080 4ebb 0080
000000a0: 6797 0080 cd52 0080 111f 0180 7f9d 0080
000000b0: bac9 0080 f094 0000 54a4 0080 197a 0080
000000c0: 0d62 0080 cb57 0080 9c0c 0080 2648 0000
000000d0: 46ae 0000 a46b 0000 e314 0080 f7a7 0000
000000e0: 250e 0000 4c27 0080 2e0d 0080 4cb4 0080
000000f0: 1327 0080 8a3a 0000 3f5e 0000 69ac 0080
00000100: e514 0000 99a3 0000 7667 41a2 8215 8f8f
00000110: 85a2 0000 2a03 0000 3656 0000 7eee 4c82
00000120: 839f 028b efb8 be9e 7514 0000 2b97 0080
00000130: c474 0080 4460 0080 3459 0000 2bb7 779d
00000140: bda3 0000 3768 1a9a 7f1f 0000 1547 0080
00000150: 2175 0000 f2c6 c69a 17ae 0000 3f3b 0080
00000160: e39e 0080 3982 0080 9704 0080 7c6d 0080
00000170: 9122 0000 8d44 0000 7a51 0000 7d4a 2880
00000180: 01a5 0080 4e74 0000 3822 0586 1859 168b
00000190: a0fb f695 6019 bea2 d98e 0000 eb85 0080
000001a0: c241 0080 847c 0080 3453 0080 72a8 0000
000001b0: 0525 0000 6ed9 0180 1fa0 0080 b794 0080
000001c0: ea6d 0000 8030 0000 8213 0000 cf81 ea9a
000001d0: dee3 9396 477d 0080 6f9e df83 7f0e 0080
000001e0: f80b f198 ea93 619a 655e 0000 6954 0080
000001f0: 3425 0000 7913 0080 0c2c 0080 6bbd 6b98
00000200: 4016 0080 e271 0000 1515 0000 f72d 0000
00000210: 271c 0000 cb0b 0000 7c9c 0000 cb52 0000
00000220: b491 0000 0a4d 0000 0052 0000 f20a 0000
00000230: 5871 0000 2b18 0080 027d 0080 5817 0000
00000240: e10a 0000 1049 0080 7324 0080 377c 0080
00000250: 3001 0000 3a1f 0080 698a 0000 3c5b 0000
00000260: 5777 0080 2167 0080 606e 0000 3465 0000
00000270: 4c68 0000 3411 0000 b8be 0080 abac 0080
00000280: 824f 0080 6409 0080 0d85 0080 6eb5 0080
00000290: 4d75 0080 af89 0080 fc40 0080 c11c 0080
000002a0: fb5c 0000 8d03 0000 726f 0080 5908 0080
000002b0: 05e7 0000 2b50 0080 2913 0000 f43e 0000
000002c0: f00b 0080 524d 0080 3430 0080 78a9 0080
000002d0: 3e07 0000 13a7 0000 b1ab 0000 967f 0000
000002e0: 5c82 0000 3230 0080 28e8 0000 f33d 0000
000002f0: eb43 0080 180e 0280 8839 0000 751a 0000
00000300: ca16 0000 1611 0080 49a4 0080 6d8a 0000
00000310: 5b96 0000 5283 0000 0303 0080 2324 0000
00000320: 6608 0000 1c57 0080 378c 0000 0d29 0000
00000330: 417b 0000 643b 0000 5228 0000 04ad 0080
00000340: 0a10 0080 af87 0080 a764 0000 7b59 0000
00000350: 8058 0080 a83e 0000 2552 0000 c12a 0080
00000360: 7b9c 0000 bf10 0080 9673 0000 20a3 0000
00000370: cd9c 0080 9327 0000 d257 0080 9809 0080
00000380: cbaa 0080 ed70 0000 380e 0080 ad48 0080
00000390: 613d 0080 d193 0080 a74b 0080 8906 0000
000003a0: c771 0000 8e60 0080 1a78 0000 6b54 0000
000003b0: 0b5e 0080 3f68 0080 7d50 0080 c892 0080
000003c0: 6f93 0000 38a0 0000 8048 0080 aea0 0000
000003d0: 52a7 0080 ed04 0080 9c79 0000 5d40 0000
000003e0: 3b4d 0080 43ac 0000 e057 0000 6d04 0080
000003f0: 6595 0080 9a05 0080 1d11 0080 7244 0000
4.9808e-41 4.0907e-41 -6.0323e-41 1.228e-41 -6.3322e-41 8.4744e-41 4.4501e-41 3.7813e-41
-3.5205e-41 2.466e-42 1.0667e-41 -5.473e-41 -5.793e-41 -3.2921e-41 3.8931e-41 -5.7729e-41
4.6763e-41 -8.783e-42 2.1992e-41 -7.1343e-41 -4.8604e-41 -2.4657e-41 -3.7633e-41 5.2319e-41
-2.648e-42 -4.4987e-41 -4.8132e-41 -6.3724e-41 5.946e-41 4.0209e-41 6.1935e-41 6.412e-42
-5.3698e-41 -4.2609e-41 8.435e-41 -2.6733e-41 -8.1582e-41 -6.749e-42 -1.63e-41 -6.7192e-41
-5.4313e-41 -2.9703e-41 -1.0298e-40 -5.6499e-41 -7.2366e-41 5.3429e-41 -5.895e-41 -4.38e-41
-3.5174e-41 -3.1494e-41 -4.523e-42 2.5882e-41 6.2518e-41 3.8614e-41 -7.493e-42 6.0254e-41
5.074e-42 -1.4097e-41 -4.728e-42 -6.4678e-41 -1.4017e-41 2.1e-41 3.3809e-41 -6.1849e-41
7.496e-42 5.8688e-41 -2.621115e-18 -1.4109173e-29 5.8301e-41 1.135e-42 3.0927e-41 -1.5055997e-37
-2.5157093e-32 -2.019352e-20 7.339e-42 -5.4229e-41 -4.1888e-41 -3.4534e-41 3.2e-41 -3.2784873e-21
5.8738e-41 -3.1930638e-23 1.1299e-41 -2.55e-41 4.2018e-41 -8.2212294e-23 6.2452e-41 -2.1253e-41
-5.6998e-41 -4.6715e-41 -1.647e-42 -3.9276e-41 1.24e-41 2.4591e-41 2.9228e-41 -3.700141e-39
-5.9192e-41 4.1722e-41 -2.503966e-35 -2.8955976e-32 -9.97556e-26 -5.152647e-18 5.1244e-41 -4.8041e-41
-2.359e-41 -4.4668e-41 -2.9848e-41 6.0427e-41 1.328e-41 -1.69835e-40 -5.744e-41 -5.3349e-41
3.943e-41 1.7399e-41 6.998e-42 -9.698985e-23 -2.3892935e-25 -4.4941e-41 -1.3143137e-36 -5.2e-42
-6.2309125e-24 -4.6648393e-23 3.3862e-41 -3.028e-41 1.3346e-41 -6.985e-42 -1.5801e-41 -3.046867e-24
-7.982e-42 4.0853e-41 7.563e-42 1.6489e-41 1.0099e-41 4.23e-42 5.6136e-41 2.97e-41
5.2268e-41 2.7636e-41 2.9416e-41 3.926e-42 4.066e-41 -8.67e-42 -4.4844e-41 8.374e-42
3.903e-42 -2.621e-41 -1.3076e-41 -4.456e-41 4.26e-43 -1.1202e-41 4.9652e-41 3.2729e-41
-4.2811e-41 -3.6996e-41 3.9595e-41 3.6305e-41 3.7415e-41 6.171e-42 -6.8417e-41 -6.1942e-41
-2.8522e-41 -3.369e-42 -4.773e-41 -6.5085e-41 -4.208e-41 -4.9392e-41 -2.3312e-41 -1.0315e-41
3.3355e-41 1.274e-42 -3.9979e-41 -2.995e-42 8.2874e-41 -2.8759e-41 6.873e-42 2.2583e-41
-4.282e-42 -2.7737e-41 -1.7292e-41 -6.0794e-41 2.598e-42 5.9935e-41 6.1591e-41 4.5769e-41
4.6764e-41 -1.7289e-41 8.3282e-41 2.2223e-41 -2.4364e-41 -1.88727e-40 2.0638e-41 9.491e-42
8.175e-42 -6.129e-42 -5.8934e-41 4.9658e-41 5.3937e-41 4.7109e-41 -1.08e-42 1.2963e-41
3.013e-42 -3.1249e-41 5.03e-41 1.4726e-41 4.4215e-41 2.1305e-41 1.4464e-41 -6.2066e-41
-5.754e-42 -4.8674e-41 3.6107e-41 3.21e-41 -3.1748e-41 2.2477e-41 2.9468e-41 -1.5337e-41
5.6135e-41 -6.007e-42 4.1464e-41 5.8518e-41 -5.625e-41 1.4197e-41 -3.1504e-41 -3.442e-42
-6.1269e-41 4.051e-41 -5.101e-42 -2.6071e-41 -2.2019e-41 -5.3027e-41 -2.7139e-41 2.344e-42
4.0816e-41 -3.4637e-41 4.3084e-41 3.0283e-41 -3.3736e-41 -3.7396e-41 -2.8874e-41 -5.2655e-41
5.2889e-41 5.7476e-41 -2.6008e-41 5.7641e-41 -6.0023e-41 -1.767e-42 4.3625e-41 2.3089e-41
-2.7705e-41 6.1796e-41 3.1524e-41 -1.588e-42 -5.3593e-41 -2.01e-42 -6.139e-42 2.4554e-41

mlp.12.bias f4 [128]
00000000: 0922 0000 fc6b 0080 72b0 0000 73a3 0080
00000010: 72d2 e738 fb64 0080 d907 b23b dfd6 e83b
00000020: d70e 0080 bf2b f03b cd2b 0080 ee43 0080
00000030: 4835 0080 dd04 d03b e25d 1e22 dd62 313c
00000040: aebb 0000 587d 0080 1725 0080 d195 0080
00000050: 4f9c 6c25 da05 0000 a62b 0080 ffde 9118
00000060: d359 0000 4a89 0c3c b5ad 0080 ce2d 0000
00000070: ca0c 1030 46bc a338 6786 1939 f67f 0000
00000080: d0a9 0080 f50e 813b 274b 0000 87ab a032
00000090: 34ba 0000 9627 673b 2829 0080 6730 0080
000000a0: 7a98 0080 354b 0000 8a83 182e ae2d 0000
000000b0: fe4d fe38 3806 003b 030c 4e2f 699d 7e10
000000c0: 0f0e 0080 6113 0080 bb87 2100 9e06 0000
000000d0: bc1a 0080 59d2 0080 93e0 283c 4b5a 1736
000000e0: 889a 0080 1d9d 0080 26e0 d33b c2a1 0080
000000f0: 072d 0080 4b6f 2632 ae5c 0080 38c1 5d34
00000100: e346 eb39 c055 0000 ec44 0f3c 0b70 0000
00000110: 511a 0080 aa6f d83a f50a 5a3c 294c 0000
00000120: 8500 0080 c652 0080 c147 0080 9327 0080
00000130: 163a 0080 273a ae38 e701 0080 5e8f 0080
00000140: 3dda 363b ea9d 0080 8f73 0000 e308 0080
00000150: 8a77 0080 7d29 0080 cd44 340c 2ad3 4c39
00000160: 0a28 0000 9730 903b 2218 303c 360a e797
00000170: f374 0080 554e 0080 ea7c 0000 048a 0000
00000180: 1e27 0080 ab9f 0000 fb1c 0000 ef6f 0000
00000190: babf 0080 2bf9 371b a87e 0000 1d55 8037
000001a0: 6061 0080 fba2 0000 2137 0080 3b9e 0000
000001b0: ce3a 0080 92d5 123b c08e 3815 779b e623
000001c0: 9803 0080 e148 0080 f251 0080 5f97 a53a
000001d0: 40ba 0000 470a 0080 889b 4736 049b 223c
000001e0: 848d 0080 ae6f 0080 310d 0000 b561 073c
000001f0: bb0d 0080 26ea 0000 e63d 0080 9131 0080
1.221e-41 -3.8737e-41 6.3297e-41 -5.8635e-41 0.00011054137 -3.6225e-41 0.0054330644 0.0071056928
-5.324e-42 0.0073294337 -1.5713e-41 -2.4369e-41 -1.9114e-41 0.006348236 2.1462694e-18 0.0108267935
6.7327e-41 -4.4965e-41 -1.3305e-41 -5.3744e-41 2.0522696e-16 2.099e-42 -1.5658e-41 3.770679e-24
3.2223e-41 0.008577654 -6.2314e-41 1.6432e-41 5.240507e-10 7.807514e-05 0.00014641286 4.5904e-41
-6.0917e-41 0.0039385506 2.696e-41 1.8704453e-08 6.6797e-41 0.0035271398 -1.4764e-41 -1.7363e-41
-5.4698e-41 2.6979e-41 3.467763e-11 1.6387e-41 0.00012126191 0.0019534957 1.8739858e-10 5.0213932e-29
-5.043e-42 -6.952e-42 3.079262e-39 2.374e-42 -9.59e-42 -7.5459e-41 0.010307449 2.255331e-06
-5.5435e-41 -5.6362e-41 0.0064659296 -5.8028e-41 -1.6153e-41 9.687777e-09 -3.3247e-41 2.0652521e-07
0.00044875508 3.0761e-41 0.00874446 4.0193e-41 -9.44e-42 0.0016512771 0.013308276 2.7321e-41
-1.86e-43 -2.9694e-41 -2.574e-41 -1.4197e-41 -2.0837e-41 8.307798e-05 -6.82e-43 -5.143e-41
0.0027901076 -5.6649e-41 4.1455e-41 -3.188e-42 -4.2883e-41 -1.4883e-41 1.38874e-31 0.00019533621
1.4363e-41 0.0044003236 0.010747941 -1.4930603e-24 -4.1953e-41 -2.81e-41 4.4811e-41 4.951e-41
-1.4033e-41 5.7278e-41 1.0396e-41 4.0154e-41 -6.8779e-41 1.5217916e-22 4.5436e-41 1.5298423e-05
-3.4932e-41 5.8466e-41 -1.9777e-41 5.6762e-41 -2.1095e-41 0.002240513 3.7271114e-26 2.5002492e-17
-1.289e-42 -2.6144e-41 -2.9396e-41 0.0012633613 6.6814e-41 -3.687e-42 2.9743842e-06 0.009924654
-5.0766e-41 -4.0063e-41 4.732e-42 0.008263041 -4.926e-42 8.3997e-41 -2.2205e-41 -1.7781e-41

mlp.15.weight f4 [64, 128]
00000000: de7f 0080 5197 cc17 d749 0080 895e 0000
00000010: 0d05 d539 bc08 0000 0190 a23c 5c45 d43c
00000020: fd62 0000 fce5 da3c 752f 0000 e556 0080
00000030: 150b 0000 adbb bd3c cafd 1b23 2b3a 213d
00000040: b678 0000 1b43 2305 bf82 0080 b06f 0080
00000050: b4c1 5e26 d64e 0080 1e0d 0000 9263 9619
00000060: e1aa 0000 98ec ff3c e47e 0080 0f0d 0080
00000070: 94d0 0731 ce8f 9739 b7c9 0d3a 443a 0080
00000080: c628 0100 9c04 6c3c e031 268e b9a6 9533
00000090: 3843 0000 29ca 513c cb54 0000 8759 0000
000000a0: 343b 0080 3380 0080 bf9e 102f 94a5 0000
000000b0: df17 eb39 17bd ea3b 0a52 4530 96e5 8511
000000c0: a663 0080 1a96 0000 3f8b 9000 3327 0000
000000d0: 1b6e 0080 ee8e 0000 919d 193d 03a9 0a37
000000e0: cfb2 0080 32a3 0000 c63a c13c 1f62 0000
000000f0: ca6a 0000 e248 1b33 115c 9a17 ee14 4b35
00000100: bbe7 d83a 0e10 0080 bc68 023d aa32 0000
00000110: f846 0080 08b6 c63b 6f1f 463d 710a 0080
00000120: 988f 0000 5b46 0080 f31d 0080 3c26 0000
00000130: 1118 0080 5a12 a139 db02 8092 be2c 0080
00000140: 51bc 273c b786 0080 748c 0000 253b 0080
00000150: 2455 0080 4f73 0180 ec38 400d f6e7 3b3a
00000160: c11b 0000 4cd5 833c 6722 203d 4351 3d0f
00000170: 1e3e 0080 815b 1f03 0c0f 0000 f84c 0080
00000180: 4f99 8306 279d 0000 712b 0080 adc3 0000
00000190: c10b 0080 4fdf 4a1c 1895 0000 7a4d 6d38
000001a0: 428f 0080 6690 0000 535f 0080 aa64 0000
000001b0: b898 0000 624b 063c 84f2 5616 97ec da24
000001c0: 8f51 0000 b616 0080 8cba 0000 ff7e 973b
000001d0: 4e2a 0100 5d17 0000 cc1c 3a37 d8e8 133d
000001e0: 68d0 0000 dd1e 0100 9b0a 0000 cd9b f63c
000001f0: 2593 0080 a246 0000 437e 0080 891c 0000
00000200: 6b0d 0000 d34e 0080 8803 0080 6f9f 0000
00000210: 2959 0080 70a8 0080 a26e 0080 5c82 0080
00000220: d51b 0080 ec7b 0080 95ab 0080 a334 0000
00000230: 8ab6 0000 4653 0080 688e 0000 8612 0000
00000240: 35b3 0080 5c51 0080 bc71 0080 b175 0080
00000250: 215e 0080 6ac2 0000 4c05 0080 10ac 0080
00000260: 130a 0080 11a3 0080 a339 0000 b38d 0000
00000270: 8e72 0080 0c77 0000 0d2d 0000 c833 0080
00000280: e327 0080 0b5b 0080 8072 0000 3b52 0080
00000290: cf85 0080 f04f 0080 236e 0080 652d 0080
000002a0: a7ae 0000 5224 0080 db9e 0080 5480 0000
000002b0: 621d 0000 7c07 0000 f57f 0080 622c 0000
000002c0: 8452 0000 9f72 0000 e69d 0080 fd17 0000
000002d0: 2ac5 0000 1a94 0080 440f 0000 0a92 0080
000002e0: 660d 0000 14bb 0000 c03b 0000 4267 0000
000002f0: f078 0000 7e08 0080 8e7b 0000 0054 0000
00000300: 8525 0080 b656 0000 1650 0080 dfc5 0080
00000310: eb23 0080 0431 0080 b4a9 0080 4539 0080
00000320: a8b6 0000 6c5e 0000 c0b2 0080 3814 0080
00000330: 9e9d 0080 448f 0080 7d23 0080 ae2b 0000
00000340: 5774 0080 800f 0100 e0b1 0080 dc17 0080
00000350: 3953 0080 cfb7 0080 f4a4 0000 162f 0000
00000360: e057 0080 0863 0080 5f06 0080 2e12 0080
00000370: a437 0080 1980 0000 c85d 0000 a421 0180
00000380: d30f 0000 7ebb 0080 c00f 0080 5e7c 0000
00000390: 7833 0000 d07b 0080 a0f4 0080 668a 0000
000003a0: c10e 0000 fe62 0080 e1b9 0080 866d 0000
000003b0: 9b93 0080 ab65 0080 c343 0080 8e73 0080
000003c0: 57e1 0100 c862 0080 a59e 0080 531f 0000
000003d0: 870a 0080 03dd 0080 cb65 0080 a9ac 0080
000003e0: cead 0080 f22d 0080 24b4 0080 a950 0080
000003f0: c245 0000 a838 0000 e80a 0080 1690 0000
-4.587e-41 1.3221389e-24 -2.6489e-41 3.3913e-41 0.0004063029 3.133e-42 0.019844057 0.02591198
3.551e-41 0.026720993 1.7024e-41 -3.1172e-41 3.975e-42 0.02316078 8.456309e-18 0.039362114
4.3303e-41 7.6765485e-36 -4.6903e-41 -4.0066e-41 7.728424e-16 -2.8281e-41 4.706e-42 1.5549853e-23
6.13e-41 0.031240746 -4.552e-41 -4.685e-42 1.9763648e-09 0.00028908107 0.0005408781 -2.0902e-41
1.06462e-40 0.014405396 -2.0485094e-30 6.96868e-08 2.4114e-41 0.012804546 3.0418e-41 3.2116e-41
-2.1238e-41 -4.5989e-41 1.3153122e-10 5.9398e-41 0.00044840478 0.0071636545 7.1784767e-10 2.1125193e-28
-3.5747e-41 5.3846e-41 1.3274264e-38 1.4062e-41 -3.9498e-41 5.1274e-41 0.037503783 8.264792e-06
-6.4144e-41 5.8543e-41 0.023587596 3.5199e-41 3.8309e-41 3.6155036e-08 9.975258e-25 7.565385e-07
0.0016548553 -5.76e-42 0.031838164 1.8175e-41 -2.5459e-41 0.0060641803 0.04836982 -3.746e-42
5.1512e-41 -2.5239e-41 -1.0744e-41 1.3716e-41 -8.633e-42 0.00030721986 -8.07864e-28 -1.605e-41
0.010237769 -4.8327e-41 5.0385e-41 -2.1217e-41 -3.0543e-41 -1.332e-40 5.9233085e-31 0.0007168049
9.956e-42 0.016092919 0.03909531 9.33407e-30 -2.2283e-41 4.683094e-37 5.398e-42 -2.7611e-41
4.950199e-35 5.6376e-41 -1.5584e-41 7.0195e-41 -4.217e-42 6.7124813e-22 5.3485e-41 5.657736e-05
-5.1391e-41 5.18e-41 -3.4196e-41 3.6111e-41 5.4785e-41 0.008196684 1.7363307e-25 9.494323e-17
2.9258e-41 -8.147e-42 6.692e-41 0.0046232934 1.07012e-40 8.381e-42 1.1093169e-05 0.03611073
7.4762e-41 1.02907e-40 3.805e-42 0.030103588 -5.2786e-41 2.5338e-41 -4.5294e-41 1.0236e-41
4.813e-42 -2.8277e-41 -1.267e-42 5.7194e-41 -3.1985e-41 -6.0424e-41 -3.9688e-41 -4.6764e-41
-9.984e-42 -4.4455e-41 -6.1552e-41 1.8882e-41 6.5483e-41 -2.9873e-41 5.1086e-41 6.645e-42
-6.4287e-41 -2.9186e-41 -4.08e-41 -4.222e-41 -3.3767e-41 6.9743e-41 -1.9e-42 -6.1724e-41
-3.614e-42 -5.8497e-41 2.0676e-41 5.0832e-41 -4.1094e-41 4.2706e-41 1.6161e-41 -1.8576e-41
-1.4309e-41 -3.266e-41 4.1075e-41 -2.9499e-41 -4.8001e-41 -2.8676e-41 -3.951e-41 -1.6284e-41
6.2653e-41 -1.3029e-41 -5.6987e-41 4.6035e-41 1.054e-41 2.685e-42 -4.5902e-41 1.5922e-41
2.9601e-41 4.1118e-41 -5.6643e-41 8.605e-42 7.0729e-41 -5.3129e-41 5.476e-42 -5.2389e-41
4.806e-42 6.7111e-41 2.1434e-41 3.7042e-41 4.3384e-41 -3.046e-42 4.4323e-41 3.0134e-41
-1.346e-41 3.1106e-41 -2.873e-41 -7.0983e-41 -1.2885e-41 -1.7583e-41 -6.0878e-41 -2.0544e-41
6.5525e-41 3.3872e-41 -6.4123e-41 -7.253e-42 -5.6542e-41 -5.1394e-41 -1.2731e-41 1.567e-41
-4.1735e-41 9.7396e-41 -6.381e-41 -8.559e-42 -2.9855e-41 -6.5938e-41 5.9174e-41 1.6891e-41
-3.1524e-41 -3.5526e-41 -2.286e-42 -6.522e-42 -1.996e-41 4.5953e-41 3.3642e-41 -1.03903e-40
5.677e-42 -6.726e-41 -5.65e-42 4.4615e-41 1.8464e-41 -4.4416e-41 -8.7755e-41 4.9648e-41
5.293e-42 -3.5512e-41 -6.6681e-41 3.929e-41 -5.2951e-41 -3.6472e-41 -2.4308e-41 -4.1453e-41
1.72672e-40 -3.5436e-41 -5.6911e-41 1.1237e-41 -3.776e-42 -7.9284e-41 -3.6516e-41 -6.1939e-41
-6.235e-41 -1.6482e-41 -6.4622e-41 -2.8935e-41 2.5024e-41 2.0324e-41 -3.912e-42 5.1688e-41

mlp.15.bias f4 [64]
00000000: ae6a a43c 5b27 0000 9615 443c a6ae f539
00000010: df1b 0080 b3cc 3f3c e71c 0000 c902 0080
00000020: c448 0080 4368 0080 9d0f 0000 2ea7 3823
00000030: 8074 7a36 7015 0080 6734 0080 e9de ce3c
00000040: 4d0e 0000 da52 eb3b c855 8282 f589 0080
00000050: cc56 0080 352e 0000 8c1b 0080 44f2 dc1b
00000060: cab5 731f 924f 0080 7200 0000 1468 e63c
00000070: cfa1 0000 b6a7 0000 8a3a 308c 5c78 0080
00000080: 958c 0080 eb25 0000 5fa3 0000 1a97 0000
00000090: bb9c 0080 0d62 0000 5c2e 0000 4a80 0000
000000a0: bd1c 0000 5dab 0000 4c3e d73c 9b18 983c
000000b0: ff06 0080 3853 0000 ac78 4c3c 6c78 0080
000000c0: 4bdf d731 ec92 da3a ec26 0080 584a 0000
000000d0: 39d3 0122 fc14 0000 7bc4 b03c ca41 0080
000000e0: a448 0000 7cb0 0f3b e70f 1b3d ba8d 0080
000000f0: fc54 0080 26dc 0838 3399 0080 ab93 893c
0.0200704 1.4118e-41 0.011968037 0.00046860165 -9.998e-42 0.011706519 1.0368e-41 -9.99e-43
-2.6103e-41 -3.7402e-41 5.601e-42 1.0010062e-17 3.7320715e-06 -7.69e-42 -1.8798e-41 0.025252776
5.13e-42 0.0071815075 -1.915102e-37 -4.949e-41 -3.1137e-41 1.6576e-41 -9.882e-42 3.6552507e-22
5.1607624e-20 -2.8544e-41 1.6e-43 0.0281258 5.8046e-41 6.0163e-41 -1.3576163e-31 -4.3177e-41
-5.0431e-41 1.3602e-41 5.8607e-41 5.4205e-41 -5.6224e-41 3.5174e-41 1.663e-41 4.6021e-41
1.031e-41 6.1474e-41 0.026274823 0.01856642 -2.51e-42 2.9853e-41 0.012479942 -4.3199e-41
6.282709e-09 0.0016675866 -1.3963e-41 2.667e-41 1.759458e-18 7.528e-42 0.021578064 -2.36e-41
2.6059e-41 0.0021925261 0.037856963 -5.0842e-41 -3.0487e-41 3.2629956e-05 -5.4958e-41 0.016794046

mlp.18.weight f4 [8, 64]
00000000: 7560 0080 02af 0080 7d55 0000 9a9d 0080
00000010: c334 0080 d707 0080 a200 0080 adb0 0000
00000020: 4520 0000 f282 0000 2e3d 0080 1808 0080
00000030: 2d7c 0000 6432 0080 701c 0080 3d71 0080
00000040: aebf 0080 8748 0080 ef7d 0080 222c 0080
00000050: b91b 0080 460d 0080 6314 0080 ed38 0080
00000060: b170 0000 25a5 0080 a425 0080 eb0f 0080
00000070: c348 0000 ed84 0080 3b86 0000 2e0b 0080
00000080: 575c 0000 292b 0000 cc30 0000 521f 0080
00000090: 8555 0080 905e 0000 18b2 0080 7565 0000
000000a0: 510d 0000 a321 0080 7e36 0080 2978 0080
000000b0: 4b75 0080 882b 0000 3b87 0080 7b7a 0080
000000c0: b353 0000 e9b3 0080 9100 0000 22ab 0080
000000d0: 23a4 0080 41cc 0080 c344 0080 5b23 0000
000000e0: e3ab 0080 53ab 0080 6d6e 0000 eba5 0080
000000f0: 2aa7 0080 ac07 0080 e855 0080 fa71 0080
00000100: e82f 893d 0f3f 0000 611e 333d 32ea e03a
00000110: 1383 0000 701f 2b3d a39b 0000 5c8d bc08
00000120: e805 0000 1fa2 0080 3b70 8627 7b5b 6424
00000130: 26a6 4a37 7f7a 0000 8033 0000 a738 b73d
00000140: 6a5f 0000 c4f7 d03c ba9a 2c80 2e76 0000
00000150: 2eaa 0080 9e6d 0000 2c75 0000 71ac c71c
00000160: ff8b b220 a944 0080 3811 0080 16de d33d
00000170: 5950 0080 2e7b 0000 12f3 4996 c404 0000
00000180: e197 dbb4 05b4 0000 8fac 0000 0f67 0000
00000190: 7966 0000 b802 0080 d285 0000 c906 0080
000001a0: f26c cc2e 4f67 0000 82c4 bd3d d9be 853d
000001b0: a593 0000 995f 0080 ac29 4a3d 4f91 0000
000001c0: 3368 b632 9f44 be3b 2555 0000 e799 0080
000001d0: 445c e222 ea86 b094 a721 ad3d e26b 0000
000001e0: b566 0080 f37f fb3b 074c 133e 6f27 0000
000001f0: 4b02 e48c f92f c838 d188 0000 82ca 793d
00000200: 29a7 2f2c bf1f 0000 27e9 9e2b fb98 6f29
00000210: 2e23 0000 9292 a82b 9e84 0080 0a88 0000
00000220: 5351 0000 6c2c 0000 f5b4 6121 ab25 1413
00000230: 4d02 9e25 ca32 0000 5509 0080 c078 4a2c
00000240: bd40 0080 8fe5 4c2e 1f6e 0080 375f 0080
00000250: 6a10 0000 649a 0080 9aee 0080 9bb5 8c0b
00000260: b803 770f 1b07 0000 3f2e 0080 a2f9 432c
00000270: 8e46 0000 61ac 0080 526f 0080 f99c 4103
00000280: cf03 dd2e 9216 0080 e21b 0080 de97 0000
00000290: ecb1 0000 535f 0000 74ae 0000 756b 0080
000002a0: b83d e68a da31 1414 c916 4a2c 192c 0e2c
000002b0: 051d 0080 d1a7 0000 7db8 cd2b 9978 0080
000002c0: e82c d9a4 4824 0f2a 6740 0000 bb73 0000
000002d0: 233b 951c 6fce 0000 8047 3f2c 4d44 0000
000002e0: fc0b 0080 caa6 812a 3efd a52c 013b 0000
000002f0: ab5c 381e 0158 d2b1 2a30 0080 9ae6 f92b
00000300: 6ea7 873c f04b 0000 4bb1 203c 1485 c339
00000310: d94c 0000 5580 1c3c 633b 0080 a783 0000
00000320: e71e 0080 616b 0080 193d 0080 3970 c722
00000330: 7fff 3c36 6f2c 0000 2664 0080 6f03 ad3c
00000340: 4c3e 0000 94bb bc3b 6d91 0080 1d68 0080
00000350: fd5f 0000 ab10 0000 391e 0080 4121 681b
00000360: 76c7 0020 e426 0000 3da5 0080 e2d1 c13c
00000370: 316d 0000 2449 0080 412a 0088 c809 0000
00000380: cd18 c383 8726 0080 7763 0000 8faf 0000
00000390: 251a 0080 fb43 0000 51a9 0000 5c4b 0000
000003a0: c56b 8120 7979 0000 f788 b43c 3e11 7b3c
000003b0: 7bab 0080 885a 0000 8104 293c 004f 0000
000003c0: 2aec 8a31 b8a8 ad3a 7939 0080 b866 0080
000003d0: d24b 6b21 dd57 0000 f6c4 943c ea22 0080
000003e0: 0a64 0000 8667 e33a c0d4 053d 7191 0000
000003f0: 110b 0080 50b1 c837 c05e 0000 3b3e 633c
-3.4602e-41 -6.2781e-41 3.0667e-41 -5.6537e-41 -1.8927e-41 -2.812e-42 -2.27e-43 6.338e-41
1.1576e-41 4.6974e-41 -2.1947e-41 -2.903e-42 4.4546e-41 -1.8077e-41 -1.0201e-41 -4.0622e-41
-6.8762e-41 -2.6018e-41 -4.5176e-41 -1.5832e-41 -9.945e-42 -4.762e-42 -7.313e-42 -2.0421e-41
4.0426e-41 -5.9243e-41 -1.3503e-41 -5.71e-42 2.6102e-41 -4.7685e-41 4.8153e-41 -4.01e-42
3.3125e-41 1.5483e-41 1.7505e-41 -1.1236e-41 -3.0679e-41 3.3923e-41 -6.3888e-41 3.6396e-41
4.777e-42 -1.2067e-41 -1.9548e-41 -4.3105e-41 -4.2077e-41 1.5616e-41 -4.8512e-41 -4.3938e-41
3.0026e-41 -6.454e-41 2.03e-43 -6.1391e-41 -5.8881e-41 -7.3272e-41 -2.4667e-41 1.2683e-41
-6.1661e-41 -6.146e-41 3.9613e-41 -5.952e-41 -5.9967e-41 -2.752e-42 -3.0817e-41 -4.0887e-41
0.066985905 2.2621e-41 0.043730143 0.0017159639 4.702e-41 0.041778028 5.5832e-41 1.1348072e-33
2.119e-42 -5.8158e-41 3.731415e-15 4.9517106e-17 1.2078823e-05 4.3943e-41 1.8475e-41 0.089463525
3.4228e-41 0.025508769 -4.096267e-39 4.2395e-41 -6.1049e-41 3.9323e-41 4.2033e-41 1.321329e-21
3.0247015e-19 -2.463e-41 -6.177e-42 0.10345094 -2.8823e-41 4.4189e-41 -1.631335e-25 1.71e-42
-4.0902435e-07 6.4579e-41 6.1902e-41 3.697e-41 3.676e-41 -9.75e-43 4.8006e-41 -2.434e-42
9.2961985e-11 3.706e-41 0.092659965 0.06530542 5.2965e-41 -3.4294e-41 0.049356148 5.2127e-41
2.1234973e-08 0.00580652 3.0544e-41 -5.521e-41 6.1355113e-18 -1.7824673e-26 0.08453684 3.8701e-41
-3.6844e-41 0.007675165 0.14384471 1.4146e-41 -3.5130342e-31 9.545679e-05 4.908e-41 0.060984142
2.4961788e-12 1.1388e-41 1.1291288e-12 5.320135e-14 1.262e-41 1.1977799e-12 -4.7574e-41 4.8802e-41
2.9174e-41 1.5936e-41 7.647246e-19 1.8698798e-27 2.741019e-16 1.822e-41 -3.348e-42 2.8772956e-12
-2.3224e-41 4.658812e-11 -3.9504e-41 -3.4157e-41 5.888e-42 -5.5385e-41 -8.5594e-41 5.419929e-32
1.21787564e-29 2.549e-42 -1.659e-41 2.784974e-12 2.531e-41 -6.1838e-41 -3.9934e-41 5.68978e-37
1.0050593e-10 -8.097e-42 -1.0002e-41 5.448e-41 6.3826e-41 3.4196e-41 6.2582e-41 -3.8548e-41
-2.217141e-32 7.481922e-27 2.8718575e-12 2.0203893e-12 -1.041e-41 6.0201e-41 1.4617332e-12 -4.3262e-41
-9.418482e-17 1.2713539e-13 2.3103e-41 4.1516e-41 9.875279e-22 7.4054e-41 2.7182423e-12 2.4502e-41
-4.299e-42 2.3030736e-13 4.7176976e-12 2.1167e-41 9.760042e-21 -6.1218093e-09 -1.7278e-41 1.7756519e-12
0.016559329 2.7241e-41 0.009807895 0.0003729245 2.7568e-41 0.009552081 -2.1304e-41 4.7228e-41
-1.1086e-41 -3.852e-41 -2.1918e-41 5.405788e-18 2.8162901e-06 1.594e-41 -3.5926e-41 0.021119801
2.2348e-41 0.0057596657 -5.2169e-41 -3.7349e-41 3.4434e-41 5.98e-42 -1.0842e-41 1.9201335e-22
1.0908018e-19 1.3951e-41 -5.9276e-41 0.02365965 3.917e-41 -2.6238e-41 -3.856827e-34 3.509e-42
-1.1466764e-36 -1.3821e-41 3.5681e-41 6.2979e-41 -9.379e-42 2.4387e-41 6.0739e-41 2.7034e-41
2.1924766e-19 4.3576e-41 0.022037966 0.015323935 -6.1516e-41 3.2476e-41 0.010316015 2.834e-41
4.0431773e-09 0.0013249135 -2.0617e-41 -3.6849e-41 7.9721444e-19 3.152e-41 0.018160325 -1.2525e-41
3.5887e-41 0.0017349578 0.032673597 5.2175e-41 -3.97e-42 2.3924425e-05 3.399e-41 0.013869817

mlp.18.bias f4 [8]
00000000: 1881 0080 c0b1 b83d b118 7f2c 6975 b33c
00000010: 13a1 fc3d f18f a725 a558 0000 e81e f838
-4.631e-41 0.09018278 3.6251386e-12 0.021906571 0.1233541 2.906742e-16 3.18e-41 0.00011831318

mlp.21.weight f4 [1, 8]
00000000: 593c 0000 e5df 91be a20c 2aad e836 8bbd
00000010: 1f4e c9be 25fd 2e39 875c 0000 9107 c6b9
2.1649e-41 -0.2849113 -9.666186e-12 -0.06797582 -0.39317414 0.00016688237 3.3193e-41 -0.0003777114
