model_saved/2024-01-25-07-49-50/model_2024-01-25-07-50-15_epoch_4000_train_mse_1.91e-02_val_mse_1.99e-02.pt (torch, 88323 bytes, 15 tensors)

mlp.0.weight f4 [8, 8]
-5.0864e-41 -4.3178e-41 -5.6603e-41 -4.556e-42 -7.7937e-41 -1.0001e-41 3.5342e-41 -3.313e-42
0.0574256 -0.046497915 -0.0005503672 0.00021919384 0.00019675039 0.0001932502 0.00013931433 6.520768e-05
-0.07571602 0.08908935 0.022185514 -0.0016081169 -0.0009895479 -0.00078639534 0.0011860221 -0.00092751597
-0.048212156 0.06523478 0.014391203 -0.001414927 -0.0009268357 -0.0007792649 0.000686993 -0.00074187753
0.23444413 -0.13028464 0.025767237 0.0014950223 0.0012979705 0.0010840148 0.0008856328 0.0005748389
-0.14308417 0.18849272 0.07077267 -0.004590764 -0.0026651176 -0.0019619414 0.0032243016 -0.002087944
0.1381458 0.303938 0.2069458 -0.008775626 -0.0045377607 -0.0031782237 0.0096790865 -0.0042596003
-0.015533024 0.082053706 0.04665594 -0.0018386918 -0.0010429531 -0.00081364304 0.00176607 -0.00090841233
00000000: ca8d 0080 5d78 0080 c99d 0080 b30c 0080
00000010: 42d9 0080 e11b 0080 8562 0000 3c09 0080
00000020: 1b37 6b3d 9974 3ebd 8446 10ba 66d7 6539
00000030: c84e 4e39 35a3 4a39 e814 1239 1bc0 8838
00000040: 0011 9bbd 7a74 b63d 65be b53c 73c7 d2ba
00000050: b8b3 81ba 1926 4eba 4c74 9b3a 8b24 73ba
00000060: 1c7a 45bd d099 853d 15c9 6b3c 1275 b9ba
00000070: e4f6 72ba 9547 4cba 5217 343a 8f7a 42ba
00000080: 1f12 703e 5669 05be d015 d33c a0f4 c33a
00000090: aa20 aa3a 8015 8e3a d029 683a c9b0 163a
000000a0: a884 12be 3c04 413e 43f1 903d 1f6e 96bb
000000b0: 41a9 2ebb ea93 00bb ce4e 533b e3d5 08bb
000000c0: 1876 0d3e c39d 9b3e 9ae9 533e a5c7 0fbc
000000d0: 7fb1 94bb bf49 50bb 0895 1e3c 1e94 8bbb
000000e0: 3a7e 7ebc c60b a83d 4d1a 3f3d 4200 f1ba
000000f0: b3b3 88ba a94a 55ba 7a7b e73a 8522 6eba

mlp.0.bias f4 [8]
-9.156e-42 2.9073557e-05 5.1937244e-05 9.91176e-05 4.0840478e-05 0.0006465006 0.0021662416 0.00036131038
00000000: 8619 0080 fde2 f337 31d7 5938 5bdd cf38
00000010: 214c 2b38 ec79 293a 81f7 0d3b 426e bd39

mlp.3.weight f4 [16, 8]
-5.481e-41 -0.00035894275 0.012445361 0.008755304 -0.0039591794 0.0299928 0.07818217 0.011663203
-6.5756e-41 -3.4085824e-05 0.00037649035 0.00030301732 -0.00017219376 0.0010178428 0.0026485329 0.00043756305
-3.9213e-41 -0.0007774431 0.015956072 0.011433086 -0.021587072 0.040672883 0.07899073 0.015372476
5.1153e-41 0.00021673572 -0.0023421412 -0.0017291199 0.040917225 -0.006447923 0.0052346457 -0.003892241
6.4457e-41 -6.3936e-41 -1.8783e-41 -1.5332e-41 2.279e-42 2.335e-41 3.846e-41 6.2356e-41
-7.4682e-41 -5.1257e-41 -1.564e-42 1.5001e-41 -3.8781e-41 9.488e-42 -2.8785e-41 1.05e-43
-6.2192e-41 -4.1091476e-05 0.0005203767 5.3887077e-05 0.00059821265 0.0010051128 0.005509178 -0.0002742461
-6.3384e-41 -0.0010282473 0.03714039 0.02605169 0.0039685913 0.086426035 0.21079747 0.037106406
-5.4845e-41 6.5331e-41 3.1163e-41 4.708e-41 1.698e-41 -2.953e-42 -6.764e-42 -8.3065e-41
-4.2953e-41 -0.0031597347 0.06462309 0.04485052 -0.005068375 0.14969298 0.27491987 0.07317958
-5.7422e-41 -1.3615e-41 -5.3043e-41 1.56343e-40 4.795e-42 2.0329e-41 2.612e-41 3.1668e-41
-1.8594e-41 -0.013764193 0.07098524 0.049054377 -0.100786835 0.16462378 0.3040693 0.062155575
-3.2629e-41 6.277e-41 3.6871745e-22 -1.9224e-41 -5.9317e-41 5.316218e-11 -4.184473e-06 6.9884423e-09
-5.7285e-41 1.2309e-41 1.064e-41 -8.4257e-41 7.571e-42 3.6781e-41 -2.849e-42 4.5354e-41
-2.0036e-41 2.2684e-41 -5.4494e-41 -7.2656e-41 -6.2305e-41 -4.7341e-41 -3.5327644e-10 5.513076e-29
-2.5058e-41 -0.00094461016 0.025243545 0.017783076 -0.013417849 0.061146457 0.12945758 0.01803348
00000000: ca98 0080 7b30 bcb9 a1e7 4b3c 6872 0f3c
00000010: 01bc 81bb 76b3 f53c f91d a03d 0517 3f3c
00000020: 4db7 0080 60f7 0eb8 ae63 c539 4cde 9e39
00000030: e98e 34b9 2369 853a 0293 2d3b b868 e539
00000040: 4f6d 0080 53cd 4bba 4fb6 823c d751 3b3c
00000050: 5fd7 b0bc 9c98 263d e4c5 a13d d6dc 7b3c
00000060: 988e 0000 8d43 6339 9c7e 19bb a3a3 e2ba
00000070: d298 273d 1949 d3bb 6487 ab3b f814 7fbb
00000080: aeb3 0000 3ab2 0080 5c34 0080 bd2a 0080
00000090: 5a06 0000 1741 0000 366b 0000 d3ad 0000
000000a0: 2fd0 0080 e28e 0080 5c04 0080 d129 0000
000000b0: 1b6c 0080 731a 0000 3e50 0080 4b00 0000
000000c0: 5ead 0080 a359 2cb8 e469 083a cf04 6238
000000d0: 5fd1 1c3a fdbd 833a 5686 b43b b0c8 8fb9
000000e0: b0b0 0080 41c6 86ba 8620 183d 5b6a d53c
000000f0: f50a 823b 2200 b13d 4bdb 573e e3fc 173d
00000100: e398 0080 1eb6 0000 df56 0000 3d83 0000
00000110: 552f 0000 3b08 0080 db12 0080 8de7 0080
00000120: bc77 0080 8d13 4fbb 1c59 843d 2eb5 373d
00000130: 9c14 a6bb 1e49 193e 4cc2 8c3e 2ddf 953d
00000140: 12a0 0080 f425 0080 dd93 0080 d2b3 0100
00000150: 5e0d 0000 ab38 0000 d048 0000 4758 0000
00000160: d533 0080 3683 61bc b660 913d 3eed 483d
00000170: 5469 cebd 2393 283e f9ae 9b3e d896 7e3d
00000180: f55a 0080 faae 0000 43e0 de1b 9735 0080
00000190: 5aa5 0080 4bcf 692e 5968 8cb6 fd1e f031
000001a0: b09f 0080 5022 0000 a91d 0000 e0ea 0080
000001b0: 1b15 0000 8866 0000 f107 0080 6e7e 0000
000001c0: da37 0080 3c3f 0000 e897 0080 89ca 0080
000001d0: aead 0080 f883 0080 3d37 c2af e9c5 8b10
000001e0: da45 0080 b79f 77ba 8dcb ce3c d0ad 913c
000001f0: 8ad6 5bbc b574 7a3d 8790 043e f3ba 933c

mlp.3.bias f4 [16]
0.0004203074 1.00226935e-05 0.00061022356 -9.8876524e-05 2.5634e-41 7.225e-42 1.3457855e-05 0.0014191743
3.92e-41 0.0026923658 2.238e-42 0.0029420152 -2.25e-41 5.9042e-41 -5.9052e-41 0.0009465456
00000000: b45c dc39 2427 2837 69f7 1f3a ee5b cfb8
00000010: 7547 0000 2414 0000 0cc9 6137 9603 ba3a
00000020: 466d 0000 6772 303b 3d06 0000 d3ce 403b
00000030: b93e 0080 96a4 0000 9da4 0080 9a21 783a

mlp.6.weight f4 [32, 16]
-6.527e-41 -4.7086e-41 5.7232e-41 4.33e-41 3.529e-41 -5.2846e-41 -3.1528e-41 7.5508e-41
1.35349e-40 6.414e-41 2.9783e-41 -2.9835e-41 -3.1396e-41 -2.2865e-41 2.002e-41 -3.925e-41
0.025056351 0.00032922465 0.01542391 3.0400584e-05 4.7089e-41 -2.001e-41 0.00041469483 0.052375548
-2.542e-41 0.058802877 -2.9681e-41 0.054847326 1.5312985e-35 1.249e-41 2.3653e-41 0.027842935
0.06558544 0.0025834837 0.06445701 -0.0047756955 -7.8938e-41 -4.542e-41 0.0060367463 0.067286074
1.5428e-41 0.22876872 -1.8967e-41 0.20416082 1.528e-13 -4.4047e-41 2.0271e-41 0.11138605
0.01908678 0.00046276907 0.021704998 -0.00048658857 1.9565e-41 -1.90403e-40 0.00057643227 0.08254486
2.406e-41 0.07613267 -3.377e-42 0.090196826 3.0006747e-29 -7.816e-42 6.5596e-41 0.03549595
0.00075885176 -3.408825e-07 -9.910717e-06 -5.6134854e-07 -5.0707e-41 4.9755e-41 -7.596774e-07 0.0052568703
1.19192e-40 -0.0022942682 3.0237e-41 -0.0015013411 -5.8958e-41 -5.4641e-41 2.8172e-41 -1.9729765e-05
5.8455e-41 -2.1448e-41 2.4177e-41 -1.803e-42 7.1138e-41 6.1479e-41 3.928e-41 -5.6943e-41
-4.9717e-41 -6.4202e-41 3.5451e-41 -5.7009e-41 6.3514e-41 2.8149e-41 -3.9777e-41 -2.6975e-41
-4.2612e-41 -2.997e-41 5.8976e-41 2.3748e-41 -3.7663e-41 -3.0234e-41 -4.3289e-41 1.0609e-41
1.0569e-41 2.4436e-41 -5.4424e-41 5.4445e-41 -3.5854e-41 1.7411e-41 6.4865e-41 -2.5476e-41
0.0003758755 1.9384283e-06 0.00015232003 -1.43854695e-05 6.4521e-41 4.0783e-41 5.483167e-07 0.00173918
9.1988e-41 0.00097450305 -5.2029e-41 0.0004351622 5.3492e-41 8.142e-42 -2.7296e-41 0.00026670686
0.0211275 0.00010534863 0.011951992 -0.0022142222 5.4729e-41 -7.629e-42 -8.846182e-06 0.07784326
2.0132e-41 -0.0006308048 -5.4564e-41 0.078557864 9.263946e-22 -9.8668e-41 -3.8492e-41 0.018621404
3.8745664e-05 -4.471029e-08 3.27381e-05 -8.188172e-06 1.11782e-40 -3.1884e-41 -1.4209025e-06 0.0021300837
-5.0231e-41 -3.7085243e-05 1.5215e-41 -0.00028597328 -9.317e-42 6.7879e-41 -3.3072e-41 5.3092946e-05
5.4879e-41 2.7135e-41 4.8709e-41 -1.01544e-40 -5.6098e-41 -9.01e-42 5.5256e-41 -2.0162e-41
2.2442e-41 2.6253e-41 1.4562e-41 -3.3235e-41 1.0217e-40 -1.7246e-41 6.9245e-41 -4.1277e-41
-5.1639e-41 2.6782e-41 2.5571e-41 -9.72e-42 -2.0385e-41 -2.9235e-41 -8.5439e-41 5.3137e-41
3.0035e-41 3.8882e-41 2.7582e-41 -3.8386e-41 5.133e-41 3.3208e-41 -2.9633e-41 2.6861e-41
3.170993e-08 -5.08368e-31 1.2066448e-24 -7.3791135e-20 -4.9532e-41 3.6064e-41 -1.2527342e-25 -2.8531738e-07
-1.2514e-41 2.1925212e-07 -5.3127e-41 -1.298868e-07 2.2407e-41 1.37623e-40 1.1589e-41 -9.725513e-15
0.027913332 0.00031088467 0.018416924 -0.0034246042 2.2475e-41 -1.3741e-41 0.0003787143 0.04069085
-5.5616e-41 0.08553222 4.704e-42 0.073381335 1.1379602e-21 -4.914e-42 1.7471e-41 0.036516376
-4.5514e-41 1.776e-41 5.4445e-41 -2.9719e-41 -4.5436e-41 -9.42e-42 -1.71e-41 1.9622e-41
-2.1325e-41 2.6685e-41 8.24e-41 1.04e-41 1.363e-42 9.848e-42 -4.7937e-41 4.951e-42
0.00018579239 -8.141122e-08 3.1233907e-05 -7.4446857e-06 -6.142e-41 5.9138e-41 -1.3322967e-06 0.00229802
6.4607e-41 -0.0011555917 4.7741e-41 0.0003478828 2.9104e-41 -2.0312e-41 1.1854e-41 5.7299563e-05
00000000: f2b5 0080 4283 0080 8a9f 0000 b478 0000
00000010: 6062 0000 5093 0080 e357 0080 7cd2 0000
00000020: 4c79 0100 ccb2 0000 0653 0000 2b53 0080
00000030: 8557 0080 bd3f 0080 cf37 0000 6a6d 0080
00000040: fa42 cd3c c99b ac39 91b4 7c3c c204 ff37
00000050: 4483 0000 c837 0080 666b d939 be87 563d
00000060: dc46 0080 49db 703d bd52 0080 97a7 603d
00000070: e9d5 a205 d122 0000 ef41 0000 de16 e43c
00000080: a951 863d aa4f 293b 0902 843d 707d 9cbb
00000090: 0cdc 0080 9d7e 0080 e6cf c53b 48cd 893d
000000a0: 022b 0000 5942 6a3e df34 0080 890f 513e
000000b0: 9a09 2c2a c97a 0080 8238 0000 5f1e e43d
000000c0: e15b 9c3c d09f f239 aece b13c d01c ffb9
000000d0: 8a36 0000 c412 0280 b71b 173a 480d a93d
000000e0: 1243 0000 72eb 9b3d 6a09 0080 1db9 b83d
000000f0: fc26 1810 ca15 0080 dbb6 0000 3464 113d
00000100: aeed 463a 8902 b7b4 3546 26b7 94af 16b5
00000110: 5a8d 0080 b28a 0000 a2ec 4bb5 d341 ac3b
00000120: 424c 0100 6f5b 16bb 4a54 0000 a6c8 c4ba
00000130: 5aa4 0080 5198 0080 884e 0000 5981 a5b7
00000140: f3a2 0000 ca3b 0080 6543 0000 0705 0080
00000150: 4ec6 0000 61ab 0000 7f6d 0000 bc9e 0080
00000160: 978a 0080 f8b2 0080 d362 0000 eb9e 0080
00000170: 0db1 0000 784e 0000 e26e 0080 324b 0080
00000180: c976 0080 8b53 0080 67a4 0000 3342 0000
00000190: fd68 0080 4854 0080 ac78 0080 931d 0000
000001a0: 761d 0000 1e44 0000 b697 0080 c597 0000
000001b0: f263 0080 8930 0000 d1b4 0000 0447 0080
000001c0: 2811 c539 f215 0236 19b8 1f39 1f59 71b7
000001d0: dcb3 0000 b071 0000 0930 1335 32f5 e33a
000001e0: 6d00 0100 cb75 7f3a 0991 0080 7b26 e439
000001f0: 1d95 0000 b216 0000 174c 0080 cad4 8b39
00000200: 9413 ad3c 9dee dc38 4ad2 433c 7c1c 11bb
00000210: 9098 0000 4415 0080 106a 14b7 496c 9f3d
00000220: 1f38 0000 985c 25ba 1a98 0080 f2e2 a03d
00000230: 28fe 8b1c 0c13 0180 4d6b 0080 ea8b 983c
00000240: d782 2238 7c07 40b3 4450 0938 ee5f 09b7
00000250: 9a37 0100 e158 0080 d7b5 beb5 e098 0b3b
00000260: 068c 0080 fa8b 1bb8 6a2a 0000 afee 95b9
00000270: f919 0080 38bd 0000 315c 0080 1eb0 5e38
00000280: fb98 0000 a44b 0000 c887 0000 101b 0180
00000290: 619c 0080 1e19 0080 089a 0000 3438 0080
000002a0: 8f3e 0000 2f49 0000 9828 0000 a55c 0080
000002b0: cf1c 0100 1330 0080 07c1 0000 1073 0080
000002c0: f38f 0080 a84a 0000 4847 0000 181b 0080
000002d0: d338 0080 7f51 0080 2bee 0080 2094 0000
000002e0: ba53 0000 636c 0000 e34c 0000 016b 0080
000002f0: 168f 0000 925c 0000 9b52 0080 e14a 0000
00000300: 7031 0833 90f9 248d 20b8 ba17 013c ae9f
00000310: 138a 0080 8864 0000 bb14 1b96 b92d 99b4
00000320: e222 0080 906b 6b34 1994 0080 0377 0bb4
00000330: 763e 0000 a37f 0100 4e20 0000 0333 2fa8
00000340: 80aa e43c 3cfe a239 17df 963c 536f 60bb
00000350: a73e 0000 4e26 0080 2c8e c639 73ab 263d
00000360: 099b 0080 842b af3d 1d0d 0000 f448 963d
00000370: b4f6 ab1c b30d 0080 b430 0000 3292 153d
00000380: e07e 0080 8231 0000 c597 0000 d852 0080
00000390: a87e 0080 421a 0080 ab2f 0080 b336 0000
000003a0: 723b 0080 634a 0000 b3e5 0000 fe1c 0000
000003b0: cd03 0000 741b 0000 a185 0080 cd0d 0000
000003c0: 44d1 4239 4bd4 aeb3 2701 0338 5dcd f9b6
000003d0: 37ab 0080 daa4 0000 5ed1 b2b5 619a 163b
000003e0: 19b4 0000 3977 97ba 1585 0000 0a64 b639
000003f0: 2151 0000 9f38 0080 0b21 0000 f054 7038

mlp.6.bias f4 [32]
-6.2705e-41 0.0015103153 0.0056869523 0.0021862604 -6.439019e-07 4.6773e-41 9.68e-42 1.3147697e-05
0.0012903918 3.5758733e-06 -5.8427e-41 5.9468e-41 2.3933e-41 0.0018962704 -9.473e-42 3.9875654e-06
0.005335921 8.881e-42 -6.283e-41 -8.502e-41 1.9756e-41 -8.1128564e-07 0.00054418773 0.000747169
3.0375177e-06 0.0012313419 -7.3551e-41 -8.5653014e-20 5.6521e-41 7.3588946e-10 -6.6423e-41 0.00018040117
00000000: ccae 0080 c6f5 c53a 9d59 ba3b 5d47 0f3b
00000010: 9ad8 2cb5 6282 0000 fc1a 0000 ee94 5c37
00000020: 5d22 a93a 09f9 6f36 dfa2 0080 c6a5 0000
00000030: b742 0000 478c f83a 681a 0080 edcc 8536
00000040: f3d8 ae3b c218 0000 25af 0080 00ed 0080
00000050: 1237 0000 20c7 59b5 d2a7 0e3a aadd 433a
00000060: 28d8 4b36 fa64 a13a 08cd 0080 123e ca9f
00000070: 8f9d 0000 9e47 4a30 29b9 0080 122a 3d39

mlp.9.weight f4 [64, 32]
-8.108e-42 3.5607143e-15 -4.3104084e-13 1.0382756e-17 1.271e-42 -2.42e-41 2.2505e-41 3.4944e-41
2.6323e-41 3.9052826e-36 -7.3823e-41 1.9037e-41 3.0031e-41 -3.0505771e-27 2.4331e-40 5.3493e-41
-1.0395039e-20 -7.2538e-41 6.0543e-41 9.6363e-41 4.2361e-41 1.1037e-41 4.0353174e-21 1.592797e-35
6.1702e-41 -5.2536e-41 -2.7628e-41 -6.2637e-41 3.5132e-41 -1.1814e-40 -3.2869e-41 4.5083e-41
1.6987e-41 -3.6130696e-05 -0.00015644984 -1.6374619e-05 2.983848e-26 -2.7379e-41 4.4567e-41 -1.5275864e-10
1.0054229e-08 -8.9511806e-14 -3.726e-42 7.8578e-41 3.2179968e-16 4.7612757e-06 -8.1834e-41 -2.3075742e-14
8.048312e-06 -8.745e-41 1.12932e-40 -1.4429e-41 4.917e-41 -8.564935e-24 6.5451663e-06 2.9785027e-10
1.852754e-21 2.283502e-10 -2.766e-41 -5.4794e-41 4.9792e-41 -6.2944e-41 4.3009e-41 7.146674e-11
9.169e-42 0.045482095 0.14539422 0.062385183 -1.741742e-05 7.0841e-41 -5.9093e-41 0.0008911057
0.039782524 0.00029009103 6.329e-41 4.8478e-41 -8.1228954e-08 0.0675711 -5.5868e-41 0.00025278796
0.14917007 -5.7508e-41 -1.1946e-40 -5.047e-42 -6.619e-41 -1.6909302e-05 0.0229617 0.030287016
0.0002896568 0.041312546 4.7559e-41 -1.1025e-41 -4.2225e-41 1.5774665e-07 7.75128e-40 0.009769797
-2.98e-43 0.0018747108 0.015911406 0.0061107697 -4.3348277e-06 2.2536e-41 -1.4897e-41 5.8137808e-05
0.003428278 1.7043274e-05 1.03217e-40 2.7147e-41 1.935674e-09 0.0059100874 7.0167e-41 1.2668889e-05
0.01851821 1.56043e-40 5.0454e-41 2.7e-42 1.0678e-41 -4.3264413e-06 0.0035510145 0.0021538052
2.1188165e-05 0.003144916 8.568e-42 1.10316e-40 -5.6632e-41 1.5058507e-08 -7.166e-41 0.0006595927
-2.085e-42 0.0017234202 0.0052445526 0.0010381092 -1.6335081e-06 3.4497e-41 -8.1096e-41 5.599238e-06
0.000645052 1.5553226e-06 -1.3808e-41 9.2498e-41 -1.6602441e-17 0.0010818151 1.1018e-41 9.705468e-07
0.0043789507 -5.8807e-41 -5.441e-41 1.49186e-40 2.8158e-41 -1.6740706e-06 0.00039856043 0.0003821362
4.0801656e-06 0.0005935533 5.6401e-41 2.0895e-41 1.04729e-40 3.4413643e-09 2.5918e-41 0.00010281403
6.627e-41 -5.957365e-25 3.3281886e-25 -7.5361904e-26 -1.5761838e-29 -1.7254e-41 -2.2307e-41 -2.7398094e-28
-1.3912921e-26 -1.357296e-28 -4.801e-42 -1.40556e-40 -4.5094e-41 -2.505113e-26 2.6487e-41 -9.3681247e-29
-8.29426e-26 -3.4399e-41 -5.1522e-41 4.4851e-41 -4.1e-41 -1.7257641e-29 -2.5466488e-26 -8.891529e-27
-5.9585516e-29 -1.1314115e-26 3.5062e-41 -2.8312e-41 -3.4905e-41 -1.0795781e-32 1.7523e-41 -3.321897e-27
-2.177e-41 7.5037e-41 -1.66173e-40 -6.0016e-41 -2.1207e-41 -4.358e-42 -1.4711e-41 4.3365e-41
7.8712e-41 -2.1545e-41 1.1395e-41 -1.43674e-40 2.0428e-41 -2.38756e-40 6.2958e-41 5.5465e-41
-1.73643e-40 1.4995e-41 -2.9017e-41 -3.65728e-40 -2.91e-41 -2.05593e-40 -2.6124e-41 -2.0362e-41
4.2255e-41 9.3737e-41 6.6539e-41 2.70826e-40 -3.835e-42 -3.3431e-41 1.4513e-41 4.6716e-41
-1.5459e-41 0.00092989445 0.0029816793 0.0005523023 -8.067726e-07 4.874e-41 -7.1989e-41 2.2657248e-06
0.0002764971 6.3046105e-07 3.5175e-41 -9.4076e-41 -4.524976e-15 0.00048827074 -4.85e-42 3.3130803e-07
0.0015999002 9.5462e-41 -2.1279e-41 -3.7708e-41 -1.6415e-41 -8.241425e-07 0.0001385982 0.00016321521
1.7758257e-06 0.00025165814 -1.0992e-41 6.5216e-41 5.2203e-41 1.6215446e-09 -9.651e-42 4.268059e-05
00000000: 9a16 0080 cb49 8027 88a7 f2aa 2e87 3f23
00000010: 8b03 0000 7643 0080 bc3e 0000 6961 0000
00000020: 6149 0000 c31c a604 cacd 0080 1135 0000
00000030: b753 0000 0eb1 7193 40a6 0200 1e95 0000
00000040: 535b 449e 35ca 0080 c5a8 0000 9f0c 0100
00000050: 1676 0000 c41e 0000 3273 981d 0f60 a905
00000060: 00ac 0000 7392 0080 044d 0080 9bae 0080
00000070: ef61 0000 5449 0180 a05b 0080 ac7d 0000
00000080: 5a2f 0000 0a8b 17b8 af0c 24b9 3a5c 89b7
00000090: c4c0 1315 524c 0080 3c7c 0000 bcf5 27af
000000a0: f7ba 2c32 0b90 c9a9 630a 0080 0bdb 0000
000000b0: 4081 b925 0cc3 9f36 1fe4 0080 0ad9 cfa8
000000c0: 3d07 0737 c6f3 0080 cf3a 0100 3928 0080
000000d0: 1189 0000 81ab 2599 8d9e db36 b3be a32f
000000e0: 79fd 0b1d de12 7b2f 1b4d 0080 be98 0080
000000f0: cd8a 0000 76af 0080 e477 0000 3328 9d2e
00000100: 8f19 0000 6f4b 3a3d 39e2 143e 9b87 7f3d
00000110: a01b 92b7 7ac5 0000 baa4 0080 1799 693a
00000120: 00f3 223d 5c17 9839 6db0 0000 2387 0000
00000130: 1770 aeb3 b862 8a3d bd9b 0080 a088 8439
00000140: 0ac0 183e 4fa0 0080 024d 0180 120e 0080
00000150: 83b8 0080 73d8 8db7 2d1a bc3c 7a1c f83c
00000160: 14dd 9739 5837 293d 9384 0000 bc1e 0080
00000170: b575 0080 1261 2934 be70 0800 8011 203c
00000180: d500 0080 dbb8 f53a a358 823c da3c c83b
00000190: e373 91b6 d23e 0000 8729 0080 ffd8 7338
000001a0: f6ac 603b 27f8 8e37 ba1f 0100 ad4b 0000
000001b0: bd04 0531 68a9 c13b 99c3 0000 778c 5437
000001c0: 80b3 973c fcb2 0100 a58c 0000 8707 0000
000001d0: c41d 0000 d92b 91b6 23b8 683b db26 0d3b
000001e0: 3dbd b137 ef1a 4e3b e217 0000 8433 0100
000001f0: de9d 0080 025a 8132 c2c7 0080 84e8 2c3a
00000200: d005 0080 63e4 e13a 7fda ab3b 2a11 883a
00000210: e93e dbb5 2a60 0000 10e2 0080 17e1 bb36
00000220: b518 293a 7ac0 d035 7e26 0080 d901 0100
00000230: 6821 99a3 b1cb 8d3a b71e 0000 bc43 8235
00000240: 4d7d 8f3b eea3 0080 ac97 0080 df9f 0100
00000250: 7e4e 0000 a1b0 e0b5 e0f5 d039 7459 c839
00000260: 5be8 8836 b098 1b3a 399d 0000 3f3a 0000
00000270: f123 0100 1f7d 6c31 4048 0000 dd9d d738
00000280: bcb8 0000 1c5f 3897 4101 ce16 4896 ba95
00000290: 12d8 9f8f 1930 0080 2f3e 0080 f3a7 ad91
000002a0: 72c9 8994 c60e 2c91 620d 0080 d087 0180
000002b0: b47d 0080 2918 f894 d649 0000 9b82 ed90
000002c0: 1e5b cd95 e45f 0080 9f8f 0080 077d 0000
000002d0: 4b72 0080 6603 af8f 3835 fc94 691d 3094
000002e0: 3611 9790 6119 6094 bd61 0000 ec4e 0080
000002f0: 4d61 0080 3838 608a d930 0000 0a98 8393
00000300: b03c 0080 2cd1 0000 39cf 0180 4da7 0080
00000310: 1e3b 0080 260c 0080 0229 0080 e278 0000
00000320: 6bdb 0000 0f3c 0080 c41f 0000 8190 0180
00000330: f238 0000 8e99 0280 80af 0000 9d9a 0000
00000340: 0ce4 0180 cd29 0000 e350 0080 80fb 0380
00000350: 1e51 0080 1c3d 0280 d348 0080 c338 0080
00000360: ca75 0000 4d05 0100 7cb9 0000 f4f2 0200
00000370: b10a 0080 315d 0080 7528 0000 3a82 0000
00000380: 182b 0080 29c4 733a 4768 433b 61c8 103a
00000390: fe90 58b5 de87 0000 adc8 0080 db0c 1836
000003a0: d0f6 9039 f43c 2935 0e62 0000 3f06 0180
000003b0: 8907 a3a7 97fe ff39 850d 0080 a1de b134
000003c0: beb3 d13a 1c0a 0100 513b 0080 1d69 0080
000003d0: c22d 0080 a43a 5db5 ac54 1139 c024 2b39
000003e0: e858 ee35 fcf0 8339 a41e 0080 ccb5 0000
000003f0: 8591 0000 07dd de30 e71a 0080 ef03 3338

mlp.9.bias f4 [64]
1.2218e-41 -2.6e-43 0.008051096 0.00065623183 0.0001384209 -1.4526136e-27 -5.8157e-41 5.9244776e-05
1.6064896e-05 0.005981464 5.464092e-07 1.6874e-41 4.1726e-41 5.1824e-41 1.2268355e-07 0.004950806
5.717e-41 0.0019975337 1.092e-42 9.812e-42 2.5247e-41 0.0024963352 9.094e-42 6.5756984e-07
4.7682847e-06 -1.6702e-41 6.262e-42 7.459031e-08 2.829e-42 -2.1443e-41 -5.7581e-41 0.0003433159
-7.849712e-09 -3.5505e-41 0.0013417627 1.1690287e-05 0.0042564995 0.008377845 -7.6e-43 -8.769319e-13
-4.0625e-41 -4.3534547e-12 -4.263319e-11 -2.11471e-40 -6.7537e-41 -3.229e-41 2.6836e-41 8.378e-42
-3.223e-42 3.5200121e-06 -3.1399e-41 0.0011681867 0.0048948 3.9414e-41 0.00097263354 6.4363e-41
0.0037497052 0.0031618283 -9.582665e-32 -1.2655781e-13 -2.801e-42 -2.14e-42 -4.9670836e-09 0.0040166574
00000000: 0f22 0000 ba00 0080 bfe8 033c f906 2c3a
00000010: 1425 1139 022d e692 1ea2 0080 987d 7838
00000020: 1ac3 8637 2800 c43b f4ac 1235 0a2f 0000
00000030: 5174 0000 7790 0000 ffba 0334 5f3a a23b
00000040: 5e9f 0000 0ee9 023b 0b03 0000 5a1b 0000
00000050: 6146 0000 8e99 233b 5a19 0000 db83 3035
00000060: 41ff 9f36 8f2e 0080 7511 0000 752e a033
00000070: e307 0000 c63b 0080 83a0 0080 15ff b339
00000080: 66db 06b2 f962 0080 16de af3a 6621 4437
00000090: 1b7a 8b3b 3b43 093c 1e02 0080 9ad5 76ab
000000a0: 3f71 0080 6f2c 99ac b480 3bae 7f4d 0280
000000b0: 44bc 0080 035a 0080 cf4a 0000 5b17 0000
000000c0: fc08 0080 5939 6c36 8757 0080 d71d 993a
000000d0: 8f64 a03b df6d 0000 55f8 7e3a 6bb3 0000
000000e0: 9dbd 753b ad36 4f3b bcc7 f88b ce7d 0eaa
000000f0: cf07 0080 f705 0080 eeaa aab1 2a9e 833b

mlp.12.weight f4 [128, 64]
-6.7988e-41 -2.3693e-41 -8.94115e-40 -3.808e-41 -4.2891e-41 1.32435e-40 -3.8666e-41 -6.0165e-41
-7.4429e-41 -2.863901e-39 2.6033e-41 -1.8762e-41 -4.0612e-41 5.8681e-41 7.2652e-41 -5.74134e-40
-3.1264e-41 -2.64558e-40 -4.692e-42 -1.128e-40 -6.3738e-41 -7.3175e-40 1.4845e-41 -5.2826e-41
6.0773e-41 1.6075e-40 -1.86177e-40 1.8957e-40 -8.0283e-41 -2.6186e-41 -1.74878e-40 -3.2137e-41
2.6951e-41 -1.2093e-41 -2.055158e-39 4.72e-42 -5.836366e-39 -6.46036e-40 1.20583e-40 4.6306e-41
-5.8522e-41 -8.5712e-41 -1.05619e-40 6.367e-41 1.36519e-40 1.4969e-41 -1.7878e-41 7.4064e-41
-5.8763e-41 1.6785e-41 7e-41 -9.08678e-40 -4.556944e-39 -1.4438e-41 -1.086418e-39 1.513e-41
-3.43625e-40 -2.2279e-40 5.4114e-41 7.6776e-41 -1.20222e-40 -3.0824e-41 5.1089e-41 -8.57941e-40
4.5326e-41 1.7359058e-35 -1.3436324e-08 -1.5875102e-09 -3.383042e-11 -2.485e-41 7.785e-41 -1.04822956e-10
-8.743998e-11 -2.6082477e-08 -1.8311175e-12 3.8042e-41 1.68e-41 -4.146e-41 -2.7017874e-14 -2.145585e-08
-2.4425e-41 -8.854314e-09 1.31515e-40 8.9572e-41 -4.7343e-41 -1.0937832e-08 -6.248e-42 -1.1337598e-14
-7.2264052e-12 9.5916e-41 8.928e-42 -1.1195147e-13 -1.6709e-41 1.773e-41 1.1508e-40 -3.3692238e-10
-1.2849506e-14 -1.66829e-40 -1.4034095e-09 -6.3782646e-11 -1.123263e-08 1.4185853e-08 -9.0713e-41 -3.0165417e-25
3.3158e-41 -1.2048273e-23 -2.4600253e-20 -6.1915e-41 -6.2683e-41 3.06826e-40 1.239e-42 4.411e-42
4.8328614e-23 -3.775052e-14 6.037e-41 -6.450134e-09 -1.3092533e-08 -3.0159e-41 -9.865967e-10 6.1329e-41
-1.2684413e-08 -1.2659425e-08 3.3024e-41 6.4363e-40 -6.1022e-41 -1.17401e-40 -3.462654e-15 -1.2896724e-08
4.1418e-41 -5.9781e-41 -5.050997e-39 -5.40789e-40 -1.67384e-40 -1.0958e-40 3.0414e-41 -1.04495e-40
4.7221e-41 -1.1947789e-38 -5.1454e-41 1.8482e-41 1.63e-43 6.4586e-41 -7.9145e-41 1.821898e-39
3.2039e-41 2.868152e-39 3.061e-41 6.3908e-41 -8.8255e-41 -1.857944e-39 2.2519e-41 6.8568e-41
1.5424e-41 7.0086e-41 9.5513e-41 -2.4256e-41 7.6138e-41 4.4141e-41 -1.03353e-40 -3.20424e-40
-1.6715e-41 1.12e-41 -1.068085e-39 5.1756e-41 -1.843166e-39 -5.30023e-39 -8.339e-41 6.583e-41
2.4762e-41 2.8856e-41 1.7253e-41 4.2521e-41 1.8966e-40 6.6698e-41 -2.4262e-41 -6.3071e-41
2.5006e-41 1.307e-42 1.5699e-41 -1.068522e-39 -3.486855e-39 -4.0088e-41 -8.49682e-40 7.4948e-41
-2.80513e-39 4.127796e-39 -1.13337e-40 1.05048e-40 -6.7754e-41 -4.4198e-40 -2.9737e-41 5.314195e-39
3.2907e-41 4.3372e-41 -9.79471e-40 -3.0621e-41 6.6608e-41 -7.1791e-41 3.4333e-41 5.363e-41
5.708e-41 -7.53694e-40 3.7999e-41 1.023e-41 -5.5197e-41 3.6173e-41 -6.5806e-41 -8.29067e-40
2.4612e-41 -1.37421e-40 1.7582e-40 5.026e-41 -2.3837e-41 -1.17687e-40 3.751e-42 -6.135e-41
-5.581e-41 -6.6714e-41 -6.9122e-41 -6.819e-41 2.375e-42 -4.438e-41 1.2735e-41 -5.443e-42
7.76e-42 -7.9955e-41 8.097e-42 3.4769e-41 -1.31272e-40 3.054789e-39 -3.5122e-41 8.656e-42
2.6462e-41 -6.7467e-41 -5.2057e-41 -2.3587e-41 -2.074e-42 4.9415e-41 -2.4132e-41 -2.2993e-41
6.3776e-41 5.1837e-41 -2.0542e-41 -4.3314e-40 -1.9307e-40 -8.4581e-41 -7.8817e-41 -1.668e-41
-2.18397e-40 -1.58431e-40 -2.9329e-41 2.0899e-41 4.7512e-41 3.7493e-41 -2.4975e-41 -6.8005e-41
00000000: 86bd 0080 0c42 0080 6ebc 0980 276a 0080
00000010: 9077 0080 2d71 0100 c96b 0080 b7a7 0080
00000020: 7acf 0080 642f 1f80 9248 0000 4d34 0080
00000030: 3671 0080 94a3 0000 86ca 0000 7440 0680
00000040: 2757 0080 7be1 0280 140d 0080 713a 0180
00000050: adb1 0080 d2f7 0780 6229 0000 4293 0080
00000060: 69a9 0000 1bc0 0100 fc06 0280 7210 0200
00000070: ccdf 0080 ff48 0080 7de7 0180 9659 0080
00000080: 214b 0000 b621 0080 f260 1680 280d 0000
00000090: 6a8d 3f80 e308 0780 2350 0100 1581 0000
000000a0: 23a3 0080 eeee 0080 6c26 0180 7cb1 0000
000000b0: 8f7c 0100 ba29 0000 d631 0080 76ce 0000
000000c0: cfa3 0080 ca2e 0000 22c3 0000 06e5 0980
000000d0: e89e 3180 3f28 0080 7ed4 0b80 2d2a 0000
000000e0: e3bd 0380 0c6d 0280 d996 0000 05d6 0000
000000f0: 214f 0180 ed55 0080 6a8e 0000 9757 0980
00000100: 5a7e 0000 da97 b805 94d5 66b2 8d2f dab0
00000110: abc9 14ae 4645 0080 04d9 0000 1482 e6ae
00000120: 5548 c0ae f90b e0b2 7bda 00ac 0c6a 0000
00000130: d52e 0000 9373 0080 fa5a f3a8 ea4d b8b2
00000140: 1644 0080 af1d 18b2 9c6e 0100 b1f9 0000
00000150: f983 0080 18e9 3bb2 6b11 0080 713d 4ca8
00000160: ac41 feac 600b 0100 e318 0000 a117 fca9
00000170: 942e 0080 6d31 0000 cc40 0100 9c39 b9af
00000180: e379 67a8 0dd1 0180 15e2 c0b0 7042 8cae
00000190: a1f9 40b2 0bb6 7332 dffc 0080 03b7 ba96
000001a0: 6e5c 0000 290c 6999 c357 e89e 98ac 0080
000001b0: bcae 0080 4e57 0300 7403 0000 4c0c 0000
000001c0: edb3 691a 6303 2aa9 49a8 0000 fb9f ddb1
000001d0: 92ed 60b2 1254 0080 c998 87b0 f6aa 0000
000001e0: a3ea 59b2 bd7c 59b2 0f5c 0000 2e02 0700
000001f0: 1baa 0080 4447 0180 b182 79a7 6490 5db2
00000200: 7573 0000 a5a6 0080 2000 3780 80e3 0580
00000210: 99d2 0180 7731 0180 c854 0000 4a23 0180
00000220: a283 0000 9319 8280 6f8f 0080 8533 0000
00000230: 7400 0000 0ab4 0000 a0dc 0080 b6d6 1300
00000240: 5059 0000 3e3b 1f00 5455 0000 26b2 0000
00000250: 05f6 0080 313b 1480 c63e 0000 24bf 0000
00000260: ff2a 0000 5fc3 0000 400a 0100 9e43 0080
00000270: 3ed4 0000 0c7b 0000 1b20 0180 367d 0380
00000280: 982e 0080 391f 0000 63a1 0b80 4690 0000
00000290: ff11 1480 e3b6 3980 75e8 0080 82b7 0000
000002a0: 0745 0000 7050 0000 1830 0000 8876 0000
000002b0: b210 0200 edb9 0000 a243 0080 d1af 0080
000002c0: b545 0000 a503 0000 c32b 0000 9ba2 0b80
000002d0: eff7 2580 c06f 0080 9140 0980 edd0 0000
000002e0: 908b 1e80 9ef2 2c00 f03b 0180 d524 0100
000002f0: dfbc 0080 0fd0 0480 e552 0080 d0dd 3900
00000300: bb5b 0000 e778 0000 5eaa 0a80 5c55 0080
00000310: adb9 0000 20c8 0080 b55f 0000 8095 0000
00000320: 1e9f 0000 fe34 0880 ed69 0000 841c 0000
00000330: de99 0080 d664 0000 71b7 0080 1a07 0980
00000340: 9c44 0000 137f 0180 1dea 0100 1b8c 0000
00000350: 7342 0080 1048 0180 750a 0000 05ab 0080
00000360: 939b 0080 f9b9 0080 afc0 0080 16be 0080
00000370: 9f06 0000 b77b 0080 8023 0000 2c0f 0080
00000380: a215 0000 e2de 0080 9216 0000 ec60 0000
00000390: ef6d 0180 8243 2100 e861 0080 2118 0000
000003a0: c449 0000 12bc 0080 1d91 0080 c041 0080
000003b0: c805 0080 c089 0000 4543 0080 1840 0080
000003c0: c8b1 0000 8090 0000 4339 0080 6bb7 0480
000003d0: 331a 0280 c7eb 0080 b6db 0080 7f2e 0080
000003e0: cd60 0280 a4b9 0180 c251 0080 423a 0000
000003f0: 7284 0000 8468 0000 9f45 0080 92bd 0080

mlp.12.bias f4 [128]
2.648e-42 -6.82172e-19 -4.19906e-40 5.4333e-41 0.0004873402 -7.5554e-41 0.0063608545 0.007738106
-1.72512e-40 0.007912203 -5.6406143e-25 -4.834e-42 2.0006e-41 0.0070781214 -3.3672582e-11 0.010621054
5.4728e-41 -3.6921334e-12 -2.8960243e-09 -6.768825e-31 1.3532356e-10 -5.779e-42 -6.2963e-41 -1.3242251e-12
-1.7888e-41 0.008854636 -2.801657e-20 -5.3799e-41 3.1730173e-07 0.00041603958 0.00060424756 -2.0635188e-38
-4.3398e-41 0.0050384235 -2.5302e-41 3.043644e-06 -4.9749e-41 0.0044388487 3.6877e-41 -3.728e-41
-5.2062e-41 -7.6906e-41 8.763827e-08 -2.3200938e-37 0.0005587933 0.003190954 1.9460131e-07 -3.9705538e-15
-1.5158e-41 5.656e-41 -7.000036e-18 6.5336e-41 -1.35e-42 -1.510439e-39 0.010260797 3.9646533e-05
7.2562e-41 5.569e-42 0.007169248 -1.2333e-41 -5.7767253e-33 1.7279281e-06 -3.8055e-41 1.0888849e-05
0.0012252146 -6.785e-41 0.0090219155 4.5565e-41 -3.8983e-41 0.0028645534 0.012550843 -5.124e-41
6.9008e-41 2.9371e-41 5.3199e-41 7.3617e-41 -5.3067138e-31 0.00045458964 1.754e-41 -4.2466e-41
0.0040273983 -2.1971e-41 -3.3645e-41 1.53397e-40 -4.3592e-41 -3.98e-42 -3.947178e-15 0.000689564
-1.405e-40 0.00542705 0.010523801 -1.7289523e-10 -1.4206e-41 3.0592e-41 7.127e-42 -5.720565e-16
-4.016e-42 5.1592e-41 -1.468283e-39 -1.31993e-40 4.3482e-41 -6.127332e-12 -3.822e-41 0.00015953992
2.416883e-39 -3.383e-42 6.97175e-40 -8.899055e-39 8.994e-42 0.003335596 -3.1477967e-13 6.3329e-11
-6.2648e-41 -2.8329e-41 -5.469e-42 0.0023163727 -1.69652e-40 5.9419e-41 6.344942e-05 0.009957422
9.796518e-38 -4.057156e-39 5.823e-41 0.008624723 5.0817e-41 5.606404e-34 -2.8710007e-24 -5.7292e-41
00000000: 6207 0000 7657 49a1 8792 0480 7597 0000
00000010: b281 ff39 9dd2 0080 b76e d03b f08f fd3b
00000020: e5e0 0180 2fa2 013c 8d91 2e97 7a0d 0080
00000030: c537 0000 96ef e73b f517 14ae ee03 2e3c
00000040: 8f98 0000 c8e7 81ac 6603 47b1 33a9 5b8d
00000050: 32ca 142f 1c10 0080 84af 0080 3d5e baab
00000060: dd31 0080 0913 113c f44d 049f f895 0080
00000070: 9e59 aa34 e31f da39 5e66 1e3a 82b2 e080
00000080: fa78 0080 5c19 a53b 8846 0080 6841 4c36
00000090: ae8a 0080 c373 913b cc66 0000 ec67 0080
000000a0: 2191 0080 62d6 0080 a633 bc33 bce5 9d82
000000b0: fc7b 123a 531f 513b 9af3 5034 e50d 8fa7
000000c0: 412a 0080 ab9d 0000 bc20 01a3 21b6 0000
000000d0: c303 0080 7d72 1080 e71c 283c 244a 2638
000000e0: 46ca 0000 860f 0000 03ec ea3b 6122 0080
000000f0: aef4 ef89 28eb e735 156a 0080 40af 3637
00000100: 6197 a03a 23bd 0080 a8d0 133c 047f 0000
00000110: ab6c 0080 3bbb 3b3b 0da2 4d3c d68e 0080
00000120: 5ec0 0000 e051 0000 4c94 0000 37cd 0000
00000130: 7436 2c8d fd55 ee39 e530 0000 6176 0080
00000140: 44f8 833b 3f3d 0080 ca5d 0080 9cab 0100
00000150: 8479 0080 180b 0080 4b36 8ea7 dbc3 343a
00000160: a887 0180 65d5 b13b 056c 2c3c ae19 3eaf
00000170: 9a27 0080 4755 0000 de13 0000 52e2 24a6
00000180: 320b 0080 d18f 0000 fafc 0f80 f16f 0180
00000190: 3679 0000 1a96 d7ac 8b6a 0080 2c4a 2739
000001a0: 4951 1a00 6e09 0080 7197 0700 f2e6 6080
000001b0: 1219 0000 049a 5a3b 8834 b1aa 0f43 8b2e
000001c0: a3ae 0080 f84e 0080 3f0f 0080 49ce 173b
000001d0: ecd8 0180 a3a5 0000 2610 8538 7424 233c
000001e0: e257 0502 b32d 2c80 52a2 0000 b64e 0d3c
000001f0: a88d 0000 034e 3a08 0722 5e98 b59f 0080

mlp.15.weight f4 [64, 128]
-3.76656e-40 1.0223099e-08 6.35241e-40 -3.2519e-41 0.0023294194 2.082e-41 0.027010314 0.032137424
-1.64333e-40 0.033427313 -1.4595853e-25 -4.5196e-41 -2.2726e-41 0.030451506 1.7798195e-10 0.042896748
5.0473e-41 8.358428e-15 6.6069714e-09 -3.53862e-30 -5.7030464e-10 -6.9059e-41 6.1587e-41 2.1428558e-12
1.8095e-41 0.037160087 -1.5525862e-20 -4.5335e-41 1.5707881e-06 0.0020819902 0.0029824085 -4.638499e-38
-3.11517e-40 0.022392476 -3.97369e-24 1.2879995e-05 -6.2561e-41 0.019398924 -3.6882e-41 6.1405e-41
1.9960597e-31 -1.4707e-41 4.4176295e-07 -2.9985316e-37 0.002732946 0.014324496 1.3525682e-06 6.82137e-15
3.1135e-41 1.4205e-41 2.4234864e-18 -4.8394e-41 -2.4018e-41 9.4443e-40 0.04284072 0.00017897101
2.3822e-41 -2.1049e-41 0.030221228 -9.289e-42 -4.8133456e-33 8.245872e-06 2.5729848e-15 4.26119e-05
0.0058388165 2.663e-41 0.037648536 -1.32665e-40 -6.2284e-41 0.012972985 0.051155865 2.8383e-41
1.2748e-41 -2.912e-41 -3.7504e-41 -7.528e-42 2.945711e-32 0.0022389265 -1.1728748e-11 2.90206e-40
0.017947325 -7.216e-41 -3.669083e-22 -7.3829e-41 6.0205e-41 -2.00068e-40 3.1100665e-15 0.0032297769
-4.969e-41 0.023828229 0.0447483 1.1446826e-10 -5.2652e-41 6.7926816e-15 -1.5713e-41 -2.4133015e-15
6.881255e-23 1.5553e-41 -2.3759e-38 9.9268e-41 7.3086e-41 7.1620457e-12 -6.948e-41 0.00078342727
-1.0946848e-38 9.2602e-41 2.886e-41 -3.2486655e-38 3.2111e-41 0.015155844 3.2415084e-13 -3.0513214e-10
3.2598e-41 1.15535e-21 1.40214e-40 0.010438844 -3.2027e-40 5.727e-42 0.00033311636 0.04162346
-3.7062052e-38 -9.346054e-39 4.026748e-21 0.036387313 4.4878e-41 3.2887085e-32 2.4770043e-25 1.29914e-40
-5.0416e-41 -4.3118e-41 2.02e-43 2.3647e-41 -3.605e-41 -1.34167e-40 3.9599e-41 2.2658e-41
6.0054e-41 5.103e-41 -2.2006e-41 6.3822e-41 -3.992e-41 -3.7706e-41 4.5502e-41 1.7096e-41
5.8535e-41 -6.348e-42 5.4002e-41 -8.0195e-41 7.1039e-41 1.77114e-40 3.3314e-41 -1.7083e-41
6.6085e-41 2.6221e-41 -5.036e-41 -1.8266e-41 3.1409e-41 2.97e-41 9.163e-42 -2.3844e-41
-4.2148e-41 -5.8339e-41 5.9166e-41 5.4331e-41 -2.6524e-41 -3.0878e-41 3.5991e-41 6.8835e-41
6.5947e-41 8.0276e-41 2.522e-41 7.6594e-41 4.5289e-41 6.527e-42 -7.3045e-41 5.5361e-41
-1.7467e-41 -1.67543e-40 -3.1678e-41 -2.06362e-40 -4.2717e-41 1.2504e-41 1.6083e-41 7.5642e-41
-7.595e-42 -8.7967e-41 -3.73e-42 6.725e-42 7.1518e-41 -7.01e-41 1.877e-41 2.6342e-41
1.4722e-41 -8.719e-42 -1.6614e-41 9.8185e-41 7.1438e-41 -5.8707e-41 2.4497e-41 9.8221e-41
-6.6003e-41 7.2165e-41 5.8096e-41 -3.6584e-41 7.5372e-41 3.3435e-41 -6.9552e-41 -4.9005e-41
-7.3904e-41 -2.11837e-40 -2.74e-41 2.9877e-41 4.337e-41 1.19996e-40 -6.3808e-41 -5.0371e-41
8.4252e-41 5.595e-42 2.0068e-41 4.3744e-41 6.9576e-41 2.2531e-41 3.1836e-41 1.19032e-40
3.013e-41 -6.1625e-41 6.9863e-41 -6.4338e-41 3.2825e-41 -7.4294e-41 2.5591e-40 6.7224e-41
-8.541e-41 2.9864e-41 -1.27587e-40 4.5451e-41 -4.0325e-41 -7.5482e-41 7.357e-41 1.32494e-40
-1.47038e-40 -1.4812e-41 6.2365e-41 -3.652e-42 2.6173e-41 -1.65308e-40 -7.0683e-41 -5.023e-41
3.7245e-41 -6.3849e-41 7.7702e-41 3.0711e-41 -2.6486e-41 -1.9215e-41 -4.7337e-41 4.4886e-41
00000000: f719 0480 aaa1 2f32 cbea 0600 a65a 0080
00000010: 2ca9 183b 0a3a 0000 bc44 dd3c 88a2 033d
00000020: 18ca 0180 14eb 083d 1bb0 3496 fd7d 0080
00000030: 5a3f 0080 7075 f93c 77b1 432f 80b4 2f3d
00000040: b38c 0000 7292 1628 8903 e331 228b 8f8e
00000050: 9fc3 1cb0 82c0 0080 aeab 0000 42ca 162c
00000060: 7132 0000 2d35 183d 3ba3 929e 607e 0080
00000070: ded3 d235 0072 083b 8374 433b 3d8b 7c81
00000080: 6264 0380 6d70 b73c 85b9 9998 2817 5837
00000090: 65ae 0080 7eea 9e3c d066 0080 2cab 0000
000000a0: 3b8d 810c ff28 0080 702b ed34 ca11 cc82
000000b0: 3a1b 333b 4ab1 6a3c e489 b535 09c4 f527
000000c0: cb56 0000 9927 0000 5dd2 3222 e786 0080
000000d0: f442 0080 b048 0a00 c079 2f3d 2aaa 3b39
000000e0: 6842 0000 ad3a 0080 8292 f73c e519 0080
000000f0: 45f0 c789 c057 0a37 3167 3927 2eba 3238
00000100: 8b53 bf3b 3c4a 0000 5a35 1a3d d171 0180
00000110: 9fad 0080 a58c 543c d088 513d 1f4f 0000
00000120: 8923 0000 2d51 0080 8c68 0080 fc14 0080
00000130: 37f3 180b f4ba 123b 9655 4ead fa28 0300
00000140: 4506 933c 27c9 0080 4fc8 dd9b cecd 0080
00000150: d4a7 0000 b52d 0280 9a1a 6027 aaaa 533b
00000160: 848a 0080 6b33 c33c fe49 373d e7b7 fb2e
00000170: c692 0080 6ebb f427 cd2b 0080 8ee5 2da7
00000180: e860 a61a 5b2b 0000 365b 0181 b814 0100
00000190: bccb 0000 f9fd fb2c afc1 0080 ea5e 4d3a
000001a0: 5c33 7780 2302 0100 7350 0000 cadf 3081
000001b0: 8359 0000 3850 783c 0f7b b62a 88bf a7af
000001c0: df5a 0000 7097 ae1c dc86 0100 af07 2b3c
000001d0: c87c 0380 f70f 0000 1fa6 ae39 5c7d 2a3d
000001e0: f6c8 4981 ffc4 6580 5120 981d dd0a 153d
000001f0: 1a7d 0000 6fc2 2a0b b351 9916 266a 0100
00000200: 8a8c 0080 3278 0080 9000 0000 eb41 0000
00000210: 7e64 0080 0176 0180 636e 0000 293f 0000
00000220: 68a7 0000 408e 0000 583d 0080 e9b1 0000
00000230: 486f 0080 1c69 0080 d77e 0000 a82f 0000
00000240: 2ca3 0000 b211 0080 8996 0000 8ddf 0080
00000250: 07c6 0000 b9ed 0100 de5c 0000 9f2f 0080
00000260: 38b8 0000 1849 0000 628c 0080 eb32 0080
00000270: 8e57 0000 cb52 0000 8b19 0000 7842 0080
00000280: 7e75 0080 a0a2 0080 eea4 0000 7497 0000
00000290: f049 0080 1356 0080 5464 0000 e2bf 0000
000002a0: d5b7 0000 c7df 0000 4e46 0000 83d5 0000
000002b0: 3f7e 0000 3212 0000 9fcb 0080 539a 0000
000002c0: b130 0080 0bd3 0180 4e58 0080 413f 0280
000002d0: 1477 0080 db22 0000 d52c 0000 dcd2 0000
000002e0: 2c15 0080 37f5 0080 660a 0080 bf12 0000
000002f0: 5dc7 0000 69c3 0080 5334 0000 6e49 0000
00000300: 0a29 0000 4e18 0080 502e 0080 b311 0100
00000310: 24c7 0000 a7a3 0080 4a44 0000 cd11 0100
00000320: fdb7 0080 2bc9 0000 f3a1 0000 fb65 0080
00000330: 1bd2 0000 345d 0000 e2c1 0080 9b88 0080
00000340: 04ce 0080 844e 0280 614c 0080 4953 0000
00000350: e678 0000 804e 0100 dfb1 0080 6a8c 0080
00000360: dcea 0000 990f 0000 f137 0000 f179 0000
00000370: f3c1 0000 cf3e 0000 bf58 0000 d04b 0100
00000380: fd53 0000 c9ab 0080 c0c2 0000 59b3 0080
00000390: 815b 0000 1acf 0080 5fc9 0200 65bb 0000
000003a0: 17ee 0080 4053 0000 a963 0180 b37e 0000
000003b0: 6970 0080 6ad2 0080 15cd 0000 5771 0100
000003c0: e299 0180 4a29 0080 d9ad 0000 2e0a 0080
000003d0: f648 0000 d0cc 0180 09c5 0080 058c 0080
000003e0: d367 0000 fcb1 0080 9ad8 0000 9c55 0000
000003f0: d549 0080 9035 0080 f583 0080 207d 0000

mlp.15.bias f4 [64]
0.018699253 7.367e-42 0.013020544 0.0012882084 -8.7755e-41 0.01253985 -3.7384e-41 -4.5647e-41
5.6433e-41 -3.8716e-41 -4.086303e-35 -4.7155146e-10 6.000374e-05 -4.262e-41 2.25758e-09 0.023213
-3.227e-41 0.008335938 -1.837e-42 -1.791e-42 -5.309e-41 -1.6881645e-24 1.5862393e-32 -1.7265932e-11
-3.548765e-10 1.33604e-40 -1.4157e-41 0.026144547 7.8565e-41 -1.4501197e-28 -3.6578e-41 -9.63e-43
-3.001e-41 7.9389e-41 -3.5098292e-29 -3.5365872e-19 -1.7069369e-28 3.4965e-41 -6.4353e-41 -9.329e-41
6.511e-41 -3.1283e-41 0.024047319 0.018139357 -4.4804e-41 1.6097e-41 0.013331447 -1.0290703e-37
2.4671053e-06 0.0033060887 8.2203e-41 1.357e-41 -3.775628e-10 -3.039e-41 0.020582935 9.513036e-26
-7.1930654e-19 0.0034080232 0.033549074 3.7808e-41 1.4617765e-38 0.00014132042 1.7677e-41 0.016679693
00000000: 2d2f 993c 8914 0000 1f54 553c 1ad9 a83a
00000010: a0f4 0080 f173 4d3c 3668 0080 3f7f 0080
00000020: 509d 0000 ed6b 0080 e043 5986 7c9e 01b0
00000030: 86ac 7b38 cf76 0080 c423 1b31 3029 be3c
00000040: f559 0080 7593 083c 1f05 0080 fe04 0080
00000050: fe93 0080 8b9d 0298 79b9 a40a 6cdf 97ad
00000060: 6d18 c3af 6f74 0100 7727 0080 172d d63c
00000070: 02db 0000 13d3 3791 f765 0080 af02 0080
00000080: a853 0080 4edd 0000 30f8 3190 65c3 d0a0
00000090: 4561 5891 7861 0000 64b3 0080 0e04 0180
000000a0: 80b5 0000 3457 0080 e2fe c43c fd98 943c
000000b0: e57c 0080 df2c 0000 246c 5a3c de11 0c82
000000c0: 8c90 2536 f7aa 583b 26e5 0000 d425 0000
000000d0: 3d91 cfaf b754 0080 8b9d a83c 0788 eb15
000000e0: 444d 54a1 2459 5f3b c16a 093d 6569 0000
000000f0: 622c 9f00 692f 1439 4731 0000 daa3 883c

mlp.18.weight f4 [8, 64]
-7.478881e-28 -1.716e-41 -2.7682376e-28 -5.928051e-29 1.72336e-40 -3.0942807e-28 -5.403e-41 1.7431e-41
1.29853e-40 5.3151e-41 -2.304e-41 1.3945598e-36 4.0091305e-30 -7.7873e-41 9.1195e-41 -9.960425e-28
-9.0815e-41 3.444125e-28 -5.5693e-41 6.3746e-41 4.7711e-41 -6.0585e-41 6.5204e-41 2.3353462e-37
-4.3821076e-36 7.54e-42 -2.2742e-41 -4.8905e-28 1.37664e-40 4.579e-41 4.4554e-41 -4.58e-43
-9.0888e-41 -5.366e-42 2.7398e-41 6.6274e-41 -1.88336e-40 -1.6055e-41 5.079e-41 4.3915e-41
-7.5632e-41 2.902e-42 -8.137943e-28 5.208275e-28 7.1148e-41 -1.742e-41 5.188534e-28 2.3856e-41
-1.0752969e-31 -1.6051703e-28 -3.0225e-41 -4.3852e-41 -2.009654e-36 -1.50336e-40 -3.6484761e-28 -6.098e-42
-6.0284e-41 1.4437601e-28 -1.0939444e-26 -7.3607e-41 6.5704e-41 5.17431e-30 -6.3668e-41 5.4271594e-28
0.05488928 -4.014e-41 0.064798035 0.01264916 -2.565e-41 0.05235132 1.0018e-41 1.4797616e-14
-6.7309e-41 5.6758e-41 2.1065611e-07 -5.6506605e-10 -0.00095843134 -1.4560619e-22 -2.248578e-10 0.09167286
-1.4915152e-25 0.036815174 -7.7811045e-19 -5.361e-42 6.3632e-41 -4.422563e-23 -1.1890721e-30 -6.465864e-12
-1.37225e-10 8.58836e-40 -2.494e-41 0.12075241 -2.8375e-41 -6.647034e-25 -2.1171204e-13 5.968466e-34
-0.00071273855 7.668576e-18 1.9478834e-28 -2.8929652e-19 5.992883e-29 7.735e-42 -6.1447e-41 3.9232e-41
-1.4377218e-05 -1.6216174e-34 0.09253492 0.0655259 1.8428e-41 4.1595e-41 0.087766506 -6.495499e-36
-2.9530638e-05 0.008185431 -2.2519e-41 6.7041e-41 1.3916048e-09 -7.6430036e-11 0.1143673 1.0400613e-23
-6.930085e-19 0.014875385 0.16257301 2.069e-41 -1.2832669e-12 -0.0012909923 -2.0287407e-23 0.0753109
-8.6851924e-07 -3.7097e-41 -2.3415971e-07 -6.0117905e-08 5.4712e-41 -2.6068932e-07 -9.54e-43 3.5749e-41
-2.5054e-41 5.8742e-41 1.6669363e-08 -1.9723768e-15 -1.7367499e-09 4.0328e-41 -8.5992e-17 -7.181693e-07
-8.797e-41 2.7141412e-05 3.4312e-41 3.9259e-41 -1.7348e-41 -3.248564e-30 3.9738e-41 1.3321659e-13
3.3237296e-13 6.9602e-41 -2.6935466e-31 -4.6913243e-07 6.3487e-41 -3.7040353e-34 1.4241e-41 6.177473e-15
4.35556e-06 -8.164e-42 3.8862687e-36 -1.2085841e-24 -2.2155956e-34 -3.3176e-41 1.60611e-40 5.7551e-41
6.432425e-15 4.1426914e-11 -6.333051e-07 -4.783457e-07 -1.8080715e-30 2.347871e-21 -4.885507e-07 -6.536e-41
-2.7096928e-07 -6.322868e-08 -7.0733e-41 1.308864e-28 2.6636333e-09 -1.71379e-40 -1.0090159e-06 7.5405104e-35
-1.9152813e-24 -1.0007269e-07 -1.4022963e-06 1.8066e-41 4.4078186e-09 -5.293768e-05 -7.0296e-41 -3.9311115e-07
0.020315396 1.2702e-40 0.014483194 0.0010145421 3.0347e-41 0.013924975 -8.351e-41 5.8974545e-22
1.524e-41 3.0773e-41 6.7761e-41 -8.035323e-10 -6.3576656e-05 -1.8371e-41 -3.2660592e-09 0.022993112
-5.2719676e-32 0.0072619636 -1.450468e-29 -4.9726e-41 2.5069e-41 7.151866e-24 6.1483e-41 -3.0752078e-11
-9.964075e-10 2.40931e-40 5.207e-41 0.031546973 6.556e-41 -2.6342783e-26 -3.492974e-27 7.243e-41
-5.0379955e-23 6.406783e-34 2.1332229e-29 -2.1143294e-19 5.367907e-29 -6.6686e-41 4.3446e-41 1.473e-42
6.336771e-11 2.6005e-41 0.028249847 0.021152033 -1.04715e-40 -7.2223e-41 0.01693141 1.88909e-40
-5.012061e-06 0.002391941 2.7317e-41 3.8796e-41 -6.742683e-10 3.5452774e-26 0.02515319 1.4129501e-27
-4.779802e-19 0.0027991568 0.04105819 1.9552e-41 -5.1435e-41 -7.1978524e-05 -2.58e-43 0.018358411
00000000: e403 6d92 d62f 0080 3975 af91 404b 9690
00000010: 67e0 0100 931f c491 9d96 0080 9730 0000
00000020: fa69 0100 2a94 0000 3a40 0080 a545 ed03
00000030: 31a1 a20e 14d9 0080 37fe 0000 49d4 9d92
00000040: 28fd 0080 204c da11 409b 0080 b3b1 0000
00000050: 0085 0000 e3a8 0080 c3b5 0000 78ef 9e02
00000060: ed64 ba84 0515 0000 653f 0080 73fc 1a92
00000070: c07f 0100 a57f 0000 337c 0000 4701 0080
00000080: 5cfd 0080 f50e 0080 604c 0000 bfb8 0000
00000090: 010d 0280 c12c 0080 958d 0000 6b7a 0000
000000a0: d5d2 0080 1708 0000 6bf3 8092 8c0e 2512
000000b0: 55c6 0000 8f30 0080 646e 2412 8042 0000
000000c0: de94 0b8c c17a 4b91 4154 0080 3e7a 0080
000000d0: 63f6 2a84 13a3 0180 e93f e791 0011 0080
000000e0: 0ca8 0080 b204 3711 92ad 5894 30cd 0080
000000f0: 28b7 0000 1be5 d10e 7bb1 0080 59fe 2b12
00000100: 95d3 603d e56f 0080 d5b4 843d 6c3e 4f3c
00000110: 8047 0080 566e 563d ed1b 0000 fb48 8528
00000120: a1bb 0080 389e 0000 b630 6234 fd52 1bb0
00000130: 3d3f 7bba ef06 309b d83b 77af fbbe bb3d
00000140: 01a4 3896 82cb 163d 5da8 65a1 f20e 0080
00000150: 61b1 0000 aedc 559a 1ff0 c08d 537f e3ac
00000160: 67e1 16af 165a 0900 8645 0080 0a4d f73d
00000170: 194f 0080 3bb7 4d97 d75d 6eaa 1856 4608
00000180: 13d7 3aba d475 0d23 6eec 7611 41c5 aaa0
00000190: 09f0 9710 9015 0000 4aab 0080 5d6d 0000
000001a0: ae35 71b7 c88c 5787 f382 bd3d 7132 863d
000001b0: 5f33 0000 f373 0000 edbe b33d dc24 0a85
000001c0: 90b8 f7b7 301c 063c c63e 0080 e2ba 0000
000001d0: be42 bf30 4912 a8ae 6739 ea3d 572d 4919
000001e0: 3e8a 4ca1 e3b7 733c 8a79 263e ad39 0000
000001f0: 909a b4ab 8336 a9ba 3035 c499 9a3c 9a3d
00000200: 3024 69b5 6967 0080 556d 7bb4 2b1a 81b3
00000210: 8498 0000 def4 8bb4 a902 0080 a763 0000
00000220: d745 0080 c0a3 0000 5130 8f32 ee1f 0ea7
00000230: 74b2 eeb0 6b70 0000 b848 c6a4 38c8 40b5
00000240: 39f5 0080 bdad e337 a65f 0000 706d 0000
00000250: 5c30 0080 04c7 838e c66e 0000 11fd 152a
00000260: fe1b bb2a 06c2 0000 38d2 ae8c 12dd fbb4
00000270: fab0 0000 e52c f687 b327 0000 2291 de27
00000280: fa25 9236 c216 0080 b84d a504 f304 bb97
00000290: 6840 9387 7b5c 0080 b8bf 0100 6ea0 0000
000002a0: a6c0 e727 8f32 362e 6500 2ab5 ab67 00b5
000002b0: 2db0 128e 6e66 311d f324 03b5 32b6 0080
000002c0: bc79 91b4 56c8 87b3 2dc5 0080 11eb 2511
000002d0: 220b 3731 bcdd 0180 866d 87b5 0e76 c806
000002e0: 0e30 1498 8be7 d6b3 8936 bcb5 5c32 0000
000002f0: 9573 9731 6709 5eb8 f5c3 0080 c90c d3b4
00000300: 796c a63c 1562 0100 eb4a 6d3c 62fa 843a
00000310: 9854 0000 9425 643c cbe8 0080 583d 321c
00000320: 7c2a 0000 c855 0000 e4bc 0000 8fdf 5cb0
00000330: 7554 85b8 3633 0080 1f71 60b1 0d5c bc3c
00000340: 3cde 888b c4f5 ed3b 4d18 938f 9e8a 0080
00000350: e245 0000 5356 0a19 64ab 0000 c33f 07ae
00000360: f9f1 88b0 9e9f 0200 2691 0000 6637 013d
00000370: c1b6 0000 7271 0295 f75e 8a93 e8c9 0000
00000380: 5d9f 739a e2e6 5408 a255 d80f af9d 79a0
00000390: b517 8810 e5b9 0080 1c79 0000 1b04 0000
000003a0: d958 8b2e 7e48 0000 396c e73c 0747 ad3c
000003b0: e723 0180 54c9 0080 beb3 8a3c 9a0e 0200
000003c0: 472d a8b6 1cc2 1c3b 264c 0000 266c 0000
000003d0: 6a57 39b0 bb8d 2f15 100e ce3c 11e4 df12
000003e0: 2a13 0da1 0f72 373b a22c 283d 8136 0000
000003f0: 618f 0080 2df3 96b8 b800 0080 6164 963c

mlp.18.bias f4 [8]
-6.8650827e-28 0.076478854 -4.351646e-07 0.021645924 0.10363701 4.2322912e-07 -7.2461e-41 0.0004072512
00000000: 2b90 5992 f2a0 9c3d 91a0 e9b4 cb52 b13c
00000010: a43f d43d 2b38 e334 fec9 0080 5584 d539

mlp.21.weight f4 [1, 8]
2.4221442e-23 -0.278877 5.5204743e-09 -0.07859208 -0.38625535 0.009637422 4.8908e-41 -0.0018689228
00000000: 6341 ea19 f7c8 8ebe 9bae bd31 e2f4 a0bd
00000010: 43c3 c5be 47e6 1d3c 5688 0000 a5f6 f4ba
