model_saved/2024-01-25-07-49-50/model_2024-01-25-07-50-28_epoch_6000_train_mse_2.03e-02_val_mse_2.00e-02.pt (torch, 88323 bytes, 15 tensors)

mlp.0.weight f4 [8, 8]
0	0x80008a11	-4.9529e-41
1	0x8000791f	-4.345e-41
2	0x00007530	4.2039e-41
3	0x000097d9	5.4473e-41
4	0x0000d6ff	7.7126e-41
5	0x0000a76a	6.0057e-41
6	0x800052c1	-2.9687e-41
7	0x0000a294	5.8322e-41
8	0x3cd75fd7	0.026290817
9	0xbc91c66c	-0.01779481
10	0x3994766a	0.00028316985
11	0x387eee40	6.0780207e-05
12	0x3843d893	4.6693323e-05
13	0x37e86b14	2.7706417e-05
14	0x36195cf9	2.2852894e-06
15	0x380b04f7	3.3144806e-05
16	0xbd6564cd	-0.056004334
17	0x3da0ac3f	0.07845353
18	0x3c95d4f8	0.018290028
19	0xba8dd82d	-0.0010821872
20	0xba002dac	-0.0004889618
21	0xb8e9f57a	-0.00011156029
22	0x3aa9cfc7	0.0012955599
23	0xb9eddf81	-0.00045370686
24	0xbd23b4c0	-0.0399673
25	0x3d65bdb9	0.056089137
26	0x3c4f22ac	0.012642544
27	0xba449ed9	-0.0007500477
28	0xb9b48447	-0.0003443083
29	0xb89fda2b	-7.622348e-05
30	0x3a726336	0.0009246351
31	0xb9cb8482	-0.00038817903
32	0x3e3f3a1d	0.18674512
33	0xbdd0ab5a	-0.10188933
34	0x3c6fb6df	0.014631002
35	0x3a50a125	0.0007958583
36	0x3a2656ea	0.00063453487
37	0x39e3e1d2	0.00043465063
38	0x399b7ce1	0.00029656946
39	0x39d8b01c	0.00041329942
40	0xbe0baec3	-0.13640885
41	0x3e404fee	0.18780491
42	0x3d70d029	0.058792267
43	0xbb29501f	-0.002583511
44	0xba965ccb	-0.0011471746
45	0xb98b657b	-0.00026587755
46	0x3b691235	0.003556383
47	0xbacb06a0	-0.0015489645
48	0x3df18e64	0.11794737
49	0x3ea32d6c	0.31870592
50	0x3e44abe6	0.19206199
51	0xbb848306	-0.0040439395
52	0xba909452	-0.0011030531
53	0x3955cd58	0.0002038976
54	0x3c25a979	0.010111206
55	0xbb3b51bb	-0.002858265
56	0xbc84da1e	-0.016217288
57	0x3db30a4e	0.087422
58	0x3d0e5889	0.034752402
59	0xba7e4bc9	-0.0009700624
60	0xb9a9b3bd	-0.00032368107
61	0x382339da	3.8916107e-05
62	0x3b09461c	0.002094633
63	0xba2860fd	-0.0006423144

mlp.0.bias f4 [8]
0	0x8000989e	-5.4749e-41
1	0xb615a9a4	-2.2301474e-06
2	0x39cec8c2	0.00039440958
3	0x397a6be2	0.00023882047
4	0xb79ef47f	-1.894892e-05
5	0x3a5e79c2	0.0008486771
6	0x3b036e6d	0.0020054833
7	0x39e1db82	0.0004307889

mlp.3.weight f4 [16, 8]
0	0x80003438	-1.8733e-41
1	0xb9fcd30e	-0.00048222434
2	0x3c224343	0.009903732
3	0x3be981bf	0.0071260626
4	0xbb8be9ad	-0.0042697997
5	0x3cd885e1	0.026431026
6	0x3d76a332	0.06021423
7	0x3c3c855a	0.011506403
8	0x0000643c	3.5957e-41
9	0xb74a0c46	-1.2042996e-05
10	0x3989e32d	0.00026299935
11	0x39294d3d	0.0001614587
12	0xb9235e49	-0.00015580015
13	0x3a1a21b7	0.00058796577
14	0x3ad20e2e	0.0016025954
15	0x3989cb42	0.00026282115
16	0x00007263	4.1034e-41
17	0xba3bb5d5	-0.0007160579
18	0x3c3badbb	0.011454995
19	0x3c08e652	0.008355694
20	0xbc20b7b2	-0.009809421
21	0x3d004cb6	0.031323157
22	0x3d8ec8ce	0.06971894
23	0x3c5d2ee1	0.013499946
24	0x00000fff	5.738e-42
25	0x3877d25f	5.9085312e-05
26	0xba732eb9	-0.00092766766
27	0xba33facd	-0.00068656803
28	0x3c6f418d	0.014603031
29	0xbb2f692e	-0.0026765573
30	0x3b0b26af	0.0021232774
31	0xbb0f6e77	-0.002188591
32	0x00008c71	5.0381e-41
33	0x80002beb	-1.5755e-41
34	0x000063ce	3.5803e-41
35	0x8000bc3b	-6.7524e-41
36	0x00003975	2.0612e-41
37	0x80008b0f	-4.9885e-41
38	0x800080d1	-4.621e-41
39	0x80007117	-4.0569e-41
40	0x800098cb	-5.4812e-41
41	0x000074c1	4.1883e-41
42	0x000049bd	2.6452e-41
43	0x00007e3d	4.5286e-41
44	0x00000e3a	5.104e-42
45	0x80005a6f	-3.2441e-41
46	0x800046fa	-2.5462e-41
47	0x80002a8c	-1.5263e-41
48	0x00007fc2	4.5831e-41
49	0xb7da7ac1	-2.6044787e-05
50	0x39c18fb1	0.00036918887
51	0x39ed093c	0.00045211043
52	0xb952efa9	-0.00020116441
53	0x3a8df656	0.001083086
54	0x3b6b6adc	0.0035921847
55	0x39b44f20	0.00034391228
56	0x80007a44	-4.386e-41
57	0xbabb48bc	-0.0014288644
58	0x3cfd8fcc	0.030952357
59	0x3cb534b8	0.022119865
60	0xbbf2554d	-0.0073954226
61	0x3da65370	0.08121383
62	0x3e40f706	0.18844232
63	0x3d1099c1	0.03530288
64	0x8000480a	-2.5843e-41
65	0x0000a1f4	5.8098e-41
66	0x80003b8f	-2.1366e-41
67	0x0000833d	4.708e-41
68	0x800081bf	-4.6544e-41
69	0x80007f05	-4.5566e-41
70	0x8000c25e	-6.9726e-41
71	0x0000c002	6.888e-41
72	0x800071c5	-4.0813e-41
73	0xbb23e90d	-0.0025010735
74	0x3d5723df	0.052524444
75	0x3d19445a	0.0374187
76	0xbc3be62c	-0.0114684515
77	0x3e0d9cbe	0.13829324
78	0x3e888693	0.26665172
79	0x3d85a4f2	0.065256014
80	0x8000333a	-1.8377e-41
81	0x000084ea	4.768e-41
82	0x8000a797	-6.012e-41
83	0x00006f52	3.9934e-41
84	0x00008b8c	5.006e-41
85	0x00007d6a	4.499e-41
86	0x00004ff8	2.8687e-41
87	0x00008ba3	5.0092e-41
88	0x8000194a	-9.072e-42
89	0xbba41a1d	-0.0050079958
90	0x3d69811b	0.05700789
91	0x3d265941	0.040612463
92	0xbd89d266	-0.067295834
93	0x3e1a78f1	0.15085198
94	0x3e96df3f	0.29467198
95	0x3d7dfba4	0.06200756
96	0x8000358a	-1.9206e-41
97	0x80006eb9	-3.972e-41
98	0x0301674d	3.8028276e-37
99	0x80007082	-4.036e-41
100	0x00008daa	5.082e-41
101	0x255299e8	1.8266742e-16
102	0xb52ab98b	-6.3599936e-07
103	0x2c28ffe0	2.4016275e-12
104	0x00008445	4.745e-41
105	0x80006583	-3.6416e-41
106	0x80011180	-9.8113e-41
107	0x00000708	2.522e-42
108	0x80009b96	-5.5814e-41
109	0x00007831	4.3117e-41
110	0x80009196	-5.2226e-41
111	0x800032f2	-1.8276e-41
112	0x00001efc	1.1115e-41
113	0x80006d2f	-3.9168e-41
114	0x8000a61d	-5.959e-41
115	0x800009f2	-3.568e-42
116	0x00008a02	4.9508e-41
117	0x00006e0a	3.9475e-41
118	0xa9ee6304	-1.05865e-13
119	0x80006841	-3.7399e-41
120	0x0000aa23	6.1034e-41
121	0xba89844a	-0.0010491696
122	0x3ca39f36	0.019973379
123	0x3c6b38a5	0.014356767
124	0xbc26b45b	-0.010174836
125	0x3d5a9d8b	0.0533729
126	0x3dedd1a5	0.11612252
127	0x3cb06d9c	0.02153664

mlp.3.bias f4 [16]
0	0x3a0c3e71	0.00053498807
1	0x37547f41	1.2665813e-05
2	0x3a1c72ee	0.00059680536
3	0xb8556d84	-5.088515e-05
4	0x80008bc1	-5.0134e-41
5	0x80004379	-2.4205e-41
6	0x37a8f219	2.0139896e-05
7	0x3ad2aca7	0.0016073183
8	0x80005f42	-3.4172e-41
9	0x3b2c2a90	0.0026270486
10	0x80003911	-2.0472e-41
11	0x3b38de00	0.0028208494
12	0x00005cb6	3.3258e-41
13	0x000092eb	5.2704e-41
14	0x000038b4	2.0341e-41
15	0x3a88a989	0.0010426502

mlp.6.weight f4 [32, 16]
0	0x8000227d	-1.2372e-41
1	0x800059b4	-3.218e-41
2	0x80001b9c	-9.904e-42
3	0x8000b5ef	-6.5265e-41
4	0x0000ba4e	6.6834e-41
5	0x000040e9	2.3285e-41
6	0x800070c2	-4.045e-41
7	0x80000541	-1.885e-42
8	0x8000c1d9	-6.954e-41
9	0x000088fe	4.9144e-41
10	0x8000b427	-6.4626e-41
11	0x000084b7	4.7609e-41
12	0x000082c0	4.6904e-41
13	0x000048bd	2.6094e-41
14	0x8000c75a	-7.1514e-41
15	0x00008bf6	5.0209e-41
16	0x3c63ff0d	0.013915789
17	0x396cf068	0.00022596272
18	0x3c4e5c15	0.012595196
19	0xb935d5d6	-0.00017341165
20	0x000089e4	4.9466e-41
21	0x80006687	-3.678e-41
22	0x39c4f9ae	0.0003757006
23	0x3d2ce364	0.042209044
24	0x0000732d	4.1317e-41
25	0x3d5f2a21	0.054483537
26	0x000028f6	1.4694e-41
27	0x3d655bc3	0.055995714
28	0x8000734c	-4.1361e-41
29	0x00007cbe	4.4749e-41
30	0x8000bdb1	-6.8048e-41
31	0x3cb45d5c	0.022017173
32	0x3d623b3e	0.05523228
33	0x3a987a39	0.0011633105
34	0x3d4f65fd	0.050634373
35	0xbb1258ff	-0.0022330878
36	0x00002b95	1.5634e-41
37	0x800002c4	-9.92e-43
38	0x3b1f171a	0.0024275244
39	0x3da43bbf	0.08019208
40	0x80002c41	-1.5875e-41
41	0x3e5e24ac	0.21693677
42	0x80008f28	-5.1355e-41
43	0x3e4fdf39	0.20299996
44	0x1e0301f6	6.935488e-21
45	0x80005fa2	-3.4307e-41
46	0x800047c3	-2.5743e-41
47	0x3dbe8f61	0.09304691
48	0x3c862171	0.016373368
49	0x39ac5f6f	0.000328775
50	0x3c966b25	0.018361637
51	0xb99b0ed0	-0.0002957494
52	0x0000b1fb	6.3847e-41
53	0x800131f0	-1.0975e-40
54	0x3a0e019c	0.000541711
55	0x3d85d673	0.065350436
56	0x0000b073	6.3298e-41
57	0x3d98d40d	0.074623205
58	0x00001868	8.755e-42
59	0x3daee5e4	0.08539942
60	0x80007e08	-4.5211e-41
61	0x00009a11	5.5269e-41
62	0x00003aa2	2.1033e-41
63	0x3d0061b5	0.03134318
64	0x38796850	5.9463375e-05
65	0xb3c848a3	-9.326438e-08
66	0xb5eb5a36	-1.7535119e-06
67	0xb5025f18	-4.8567153e-07
68	0x00001d46	1.0501e-41
69	0x0000be55	6.8278e-41
70	0xb486f76b	-2.5139465e-07
71	0x3a9f0c36	0.0012134376
72	0x00020b64	1.87757e-40
73	0xba002add	-0.00048891996
74	0x800090f8	-5.2005e-41
75	0xb956f8ac	-0.00020501268
76	0x80002042	-1.1572e-41
77	0x00003e59	2.2366e-41
78	0x800049d7	-2.6489e-41
79	0xb6e863ec	-6.9257712e-06
80	0x0000077b	2.683e-42
81	0x0000373a	1.9812e-41
82	0x80002474	-1.3077e-41
83	0x000005fc	2.147e-42
84	0x000012cf	6.747e-42
85	0x80007c52	-4.4598e-41
86	0x80005438	-3.0212e-41
87	0x00005aa0	3.251e-41
88	0x00002b87	1.5615e-41
89	0x00006a10	3.8048e-41
90	0x00002285	1.2383e-41
91	0x8000235d	-1.2686e-41
92	0x0000a4c1	5.9103e-41
93	0x00001991	9.171e-42
94	0x80008a5f	-4.9638e-41
95	0x0000570d	3.1228e-41
96	0x000069f4	3.8009e-41
97	0x00001667	8.036e-42
98	0x0000533c	2.9859e-41
99	0x0000558c	3.0688e-41
100	0x0000933e	5.282e-41
101	0x8000923c	-5.2459e-41
102	0x00000022	4.8e-44
103	0x80009948	-5.4987e-41
104	0x8000ffbc	-9.174e-41
105	0x000022a7	1.2431e-41
106	0x80009dec	-5.6652e-41
107	0x0000b1f7	6.3842e-41
108	0x00006544	3.6327e-41
109	0x8000587d	-3.1744e-41
110	0x80003d7e	-2.2059e-41
111	0x80002674	-1.3794e-41
112	0x38bb743a	8.938504e-05
113	0x35b9a4cc	1.3831536e-06
114	0x38aebf12	8.332556e-05
115	0xb617ff3f	-2.2649326e-06
116	0x00001d5d	1.0534e-41
117	0x800012cd	-6.744e-42
118	0x36106608	2.1517062e-06
119	0x39dd4367	0.00042202623
120	0x0000e4ff	8.2148e-41
121	0x39eb1891	0.00044840996
122	0x80007e83	-4.5384e-41
123	0x39e26efb	0.00043188766
124	0x00005023	2.8748e-41
125	0x80009a7c	-5.5419e-41
126	0x80005114	-2.9085e-41
127	0x3917ca77	0.00014475906
128	0x3c5ff3ba	0.013668949
129	0x3937141c	0.00017459731
130	0x3c21f8fc	0.009886023
131	0xba0b9326	-0.0005324356
132	0x80005dec	-3.3693e-41
133	0x00000e02	5.025e-42
134	0x3987cc77	0.00025901545
135	0x3d672b6e	0.056437902
136	0x00003b55	2.1284e-41
137	0x3c8de3ec	0.017320596
138	0x0000d909	7.7858e-41
139	0x3d78e3cf	0.06076413
140	0x051c1eb9	7.3407276e-36
141	0x8000f384	-8.7357e-41
142	0x80007d6e	-4.4996e-41
143	0x3c8a4969	0.016880708
144	0x37c81912	2.3853532e-05
145	0x34dfa0de	4.1654033e-07
146	0x37de840c	2.6525951e-05
147	0xb586e0c5	-1.0049195e-06
148	0x80014b40	-1.1883e-40
149	0x80009bda	-5.5909e-41
150	0x3517cfc7	5.655424e-07
151	0x39be4fe3	0.00036299144
152	0x000077b9	4.2948e-41
153	0x38d58958	0.00010182214
154	0x8000c685	-7.1215e-41
155	0x38e6980f	0.00010995578
156	0x00006b50	3.8496e-41
157	0x0000ad3c	6.2145e-41
158	0x80009f17	-5.707e-41
159	0x383f2dda	4.558065e-05
160	0x80010d87	-9.6688e-41
161	0x80008363	-4.7133e-41
162	0x0000a349	5.8576e-41
163	0x80002f43	-1.6954e-41
164	0x8000a5f7	-5.9537e-41
165	0x0000673f	3.7038e-41
166	0x8000d425	-7.6103e-41
167	0x800096d2	-5.4104e-41
168	0x800078bb	-4.331e-41
169	0x00006c5f	3.8876e-41
170	0x80009693	-5.4016e-41
171	0x80006cc8	-3.9023e-41
172	0x8001cda6	-1.65608e-40
173	0x80003952	-2.0563e-41
174	0x80001588	-7.724e-42
175	0x80002e16	-1.6533e-41
176	0x8000ad30	-6.2128e-41
177	0x80003fda	-2.2906e-41
178	0x00000ff6	5.726e-42
179	0x00000c14	4.333e-42
180	0x80006bf0	-3.872e-41
181	0x80003018	-1.7253e-41
182	0x0000d764	7.7268e-41
183	0x00001843	8.703e-42
184	0x8000a73c	-5.9992e-41
185	0x00003b61	2.1301e-41
186	0x00002de8	1.6468e-41
187	0x800065de	-3.6543e-41
188	0x00008809	4.88e-41
189	0x00008d14	5.0609e-41
190	0x00005803	3.1573e-41
191	0x80003c27	-2.1579e-41
192	0x2de98fd7	2.6552911e-11
193	0x80006c66	-3.8886e-41
194	0x0614a296	2.7955156e-35
195	0x9177e7a4	-1.9556244e-28
196	0x0000069f	2.375e-42
197	0x80009541	-5.3542e-41
198	0x83b4bca5	-1.062276e-36
199	0xb0ed7e04	-1.7279835e-09
200	0x80005819	-3.1603e-41
201	0x3085ebba	9.744021e-10
202	0x80001d4a	-1.0507e-41
203	0xaf88dbe0	-2.4894486e-10
204	0x80008ee4	-5.126e-41
205	0x00015387	1.218e-40
206	0x80003213	-1.7963e-41
207	0x9e0fed8b	-7.61948e-21
208	0x3c97d76c	0.018535338
209	0x3991a5bf	0.00027780046
210	0x3c7a6f14	0.015285272
211	0xba4b10f9	-0.00077463646
212	0x0000b3a1	6.4439e-41
213	0x8000b290	-6.4056e-41
214	0x39e7d370	0.00044217287
215	0x3d26ee6b	0.040754717
216	0x00004ab7	2.6803e-41
217	0x3d997ae0	0.0749414
218	0x000038a1	2.0315e-41
219	0x3d90a7ec	0.070632786
220	0x052eee12	8.225167e-36
221	0x00002b06	1.5434e-41
222	0x00002319	1.259e-41
223	0x3ce39384	0.027780302
224	0x00002369	1.2703e-41
225	0x00000df4	5.005e-42
226	0x800040b6	-2.3214e-41
227	0x8000adf9	-6.241e-41
228	0x80004160	-2.3452e-41
229	0x8000a475	-5.8996e-41
230	0x8000368f	-1.9572e-41
231	0x80007861	-4.3184e-41
232	0x00001079	5.909e-42
233	0x00006ae3	3.8344e-41
234	0x000110f2	9.7914e-41
235	0x80001dc9	-1.0685e-41
236	0x000055ac	3.0733e-41
237	0x800078a2	-4.3275e-41
238	0x000063ea	3.5842e-41
239	0x0000a466	5.8975e-41
240	0x37aeef99	2.0853988e-05
241	0x34655e5f	2.1361619e-07
242	0x37700e26	1.4308409e-05
243	0xb51bc347	-5.8026166e-07
244	0x0000971b	5.4206e-41
245	0x80001881	-8.79e-42
246	0x34955269	2.7813374e-07
247	0x399c1eb1	0.00029777506
248	0x000069c2	3.7939e-41
249	0xb85722d2	-5.1292423e-05
250	0x00008222	4.6683e-41
251	0x38ca2800	9.639561e-05
252	0x00005f86	3.4267e-41
253	0x80003cd3	-2.182e-41
254	0x0000250f	1.3294e-41
255	0x37d2647c	2.5080742e-05

mlp.6.bias f4 [32]
0	0x0000ddbf	7.9548e-41
1	0x3acc6803	0.0015594963
2	0x3bb5148d	0.0055261315
3	0x3b1407c8	0.0022587646
4	0x34b6d540	3.4055302e-07
5	0x0000182e	8.674e-42
6	0x00000277	8.84e-43
7	0x37470318	1.1862045e-05
8	0x3aa45584	0.0012537693
9	0x368d329b	4.2080187e-06
10	0x00008fe8	5.1624e-41
11	0x80004a13	-2.6573e-41
12	0x80002f02	-1.6863e-41
13	0x3af90efc	0.0019001658
14	0x0000847f	4.753e-41
15	0x3614fb7b	2.22001e-06
16	0x3bb131d5	0.005407552
17	0x80005eb3	-3.3972e-41
18	0x80004cd1	-2.7557e-41
19	0x0000f1a0	8.6679e-41
20	0x000036c4	1.9646e-41
21	0x3527754c	6.238304e-07
22	0x3a227a77	0.0006198058
23	0x3a47b6a1	0.00076184614
24	0x35c255ed	1.4479134e-06
25	0x3a9d2ad1	0.001199091
26	0x0000c479	7.0481e-41
27	0x800003db	-1.383e-42
28	0x800059c0	-3.2196e-41
29	0x2dc7771e	2.267658e-11
30	0x80005a00	-3.2286e-41
31	0x393c5825	0.00017961914

mlp.9.weight f4 [64, 32]
0	0x800041cf	-2.3608e-41
1	0x1d39f48c	2.4610974e-21
2	0xa22de335	-2.3566154e-18
3	0x16b19587	2.8690257e-25
4	0x8000cdbd	-7.3805e-41
5	0x80001e48	-1.0863e-41
6	0x00008e65	5.1082e-41
7	0x80009f2f	-5.7104e-41
8	0x00009e75	5.6844e-41
9	0x80009db4	-5.6573e-41
10	0x00009a63	5.5384e-41
11	0x8000c7f2	-7.1727e-41
12	0x800016a7	-8.126e-42
13	0x80255fac	-3.432234e-39
14	0x000257c5	2.15157e-40
15	0x8000486f	-2.5984e-41
16	0x8f8b001b	-1.3706499e-29
17	0x8000c290	-6.9796e-41
18	0x00001780	8.43e-42
19	0x0000eb37	8.4379e-41
20	0x00009caf	5.6207e-41
21	0x000012b4	6.71e-42
22	0x0f43a570	9.6461044e-30
23	0x00008d8f	5.0782e-41
24	0x0000b444	6.4667e-41
25	0x00008dff	5.0939e-41
26	0x80006368	-3.566e-41
27	0x0000ca39	7.2544e-41
28	0x00006201	3.5157e-41
29	0x8000c82e	-7.1811e-41
30	0x800026ac	-1.3873e-41
31	0x800075ab	-4.2211e-41
32	0x000094e2	5.3409e-41
33	0xb5d31f8e	-1.5729909e-06
34	0xb774b57a	-1.4585787e-05
35	0xb4c23b4f	-3.6178469e-07
36	0x00b861b9	1.6932788e-38
37	0x0000615a	3.4923e-41
38	0x80005556	-3.0613e-41
39	0xa872b3f6	-1.3472721e-14
40	0x2c940fe3	4.2081768e-12
41	0xa08f4ea5	-2.4277185e-19
42	0x0000d5b3	7.6661e-41
43	0x00008f19	5.1334e-41
44	0x1a483b2a	4.1406823e-23
45	0x330bcbd2	3.2548833e-08
46	0x80004ca5	-2.7495e-41
47	0x9ed22cb7	-2.2253108e-20
48	0x3484d90d	2.474484e-07
49	0x00000e2e	5.087e-42
50	0x80007fc0	-4.5828e-41
51	0x00009af6	5.559e-41
52	0x00001bcb	9.97e-42
53	0x86b8fc98	-6.958426e-35
54	0x33be343c	8.857066e-08
55	0x29080d72	3.0209728e-14
56	0x0c24b3ac	1.2688168e-31
57	0x2860ce04	1.247917e-14
58	0x800015b7	-7.79e-42
59	0x00001243	6.551e-42
60	0x80004673	-2.5272e-41
61	0x80002164	-1.1978e-41
62	0x80008ec0	-5.1209e-41
63	0x27aaaa14	4.7368878e-15
64	0x00058bf8	5.09389e-40
65	0x3d30dbc3	0.04317833
66	0x3e176cb6	0.14787564
67	0x3d7f45e2	0.062322505
68	0x37b37217	2.139159e-05
69	0x800079b6	-4.3662e-41
70	0x0000d72a	7.7186e-41
71	0x39c3c7ca	0.00037342153
72	0x3d187906	0.037224792
73	0x390ccf08	0.00013428566
74	0x00002a92	1.5271e-41
75	0x8000b3ba	-6.4474e-41
76	0xaefb7c79	-1.1436269e-10
77	0x3d6df3a1	0.05809367
78	0x80006932	-3.7737e-41
79	0x389fc29a	7.617958e-05
80	0x3e193427	0.14961301
81	0x0000fc83	9.0584e-41
82	0x0000de41	7.973e-41
83	0x000054b2	3.0383e-41
84	0x0000c7b3	7.1639e-41
85	0x37ef7e4b	2.854983e-05
86	0x3c94a045	0.018142829
87	0x3cc175e5	0.023615787
88	0x38667ba7	5.4951433e-05
89	0x3d1549de	0.0364474
90	0x00007d1f	4.4885e-41
91	0x0000151a	7.57e-42
92	0x0000a4cc	5.9118e-41
93	0x309aa773	1.1252567e-09
94	0x8002625a	-2.18953e-40
95	0x3bb7a6ea	0.0056046145
96	0x000086d9	4.8374e-41
97	0x3b1f74ef	0.0024331172
98	0x3c3d5eb0	0.01155822
99	0x3b881e60	0.0041540116
100	0x358a6c33	1.0313291e-06
101	0x00002ee5	1.6823e-41
102	0x00002704	1.3996e-41
103	0x379c9dfb	1.8670215e-05
104	0x3b0ebd2f	0.0021780243
105	0x36e7f167	6.9124394e-06
106	0x0000cbc8	7.3103e-41
107	0x80004aeb	-2.6876e-41
108	0x2ae1def9	4.0122747e-13
109	0x3b61f8d9	0.00344806
110	0x8000228c	-1.2393e-41
111	0x367d0144	3.7700675e-06
112	0x3c377f80	0.011199832
113	0x000079d0	4.3698e-41
114	0x8000c362	-7.009e-41
115	0x00000f89	5.573e-42
116	0x800030ec	-1.755e-41
117	0x35c288ec	1.4493976e-06
118	0x3aa1b526	0.0012337312
119	0x3aa85de4	0.0012845364
120	0x36497a1b	3.0022409e-06
121	0x3b04f005	0.0020284664
122	0x000070e2	4.0495e-41
123	0x8001504a	-1.20638e-40
124	0x800039fd	-2.0802e-41
125	0x2eb18f0a	8.074437e-11
126	0x80006b71	-3.8543e-41
127	0x399900ae	0.0002918294
128	0x00004c53	2.738e-41
129	0x3a055ff4	0.00050878455
130	0x3b119db3	0.002221924
131	0x3a1bf720	0.0005949605
132	0x340056d4	1.1952517e-07
133	0x80001f5e	-1.1252e-41
134	0x80003ad4	-2.1104e-41
135	0x361af76c	2.3091807e-06
136	0x39a01f67	0.00030540975
137	0x35641c44	8.497775e-07
138	0x8000a7ef	-6.0243e-41
139	0x0000bd31	6.7869e-41
140	0x977f40ed	-8.247689e-25
141	0x3a00102f	0.0004885224
142	0x8000b891	-6.621e-41
143	0x34f9c916	4.6526173e-07
144	0x3adfd0b2	0.0017075746
145	0x0000b008	6.3148e-41
146	0x00006f87	4.0008e-41
147	0x0000fcd5	9.0699e-41
148	0x00009589	5.3643e-41
149	0x34406ebc	1.7921678e-07
150	0x391929a7	0.00014606734
151	0x3938bac8	0.00017617189
152	0x34dea4d4	4.147065e-07
153	0x39950c69	0.0002842874
154	0x80003e6a	-2.239e-41
155	0x8000ae80	-6.2599e-41
156	0x8000f70b	-8.8622e-41
157	0x2d7eedaf	1.4491005e-11
158	0x0000b768	6.5794e-41
159	0x3820d1da	3.8342412e-05
160	0x8000d24f	-7.5445e-41
161	0x8559b103	-1.0235803e-35
162	0x04e1c4f6	5.3078126e-36
163	0x83b73b18	-1.0769341e-36
164	0x8001eb09	-1.7615e-40
165	0x0000dc52	7.9036e-41
166	0x000069b3	3.7918e-41
167	0x80109d63	-1.525828e-39
168	0x8253d59f	-1.5563138e-37
169	0x80081276	-7.41307e-40
170	0x8000a060	-5.7532e-41
171	0x00016414	1.27737e-40
172	0x00007909	4.3419e-41
173	0x82dbc9a7	-3.22949e-37
174	0x00004955	2.6307e-41
175	0x8003d2c0	-3.5111e-40
176	0x83cf6c53	-1.2191237e-36
177	0x00002555	1.3392e-41
178	0x800073eb	-4.1584e-41
179	0x0000aa09	6.0997e-41
180	0x0000cb90	7.3024e-41
181	0x80019403	-1.44932e-40
182	0x82d0975d	-3.0649731e-37
183	0x81e87d54	-8.540318e-38
184	0x80017a61	-1.35737e-40
185	0x8218ef37	-1.1235848e-37
186	0x00000010	2.2e-44
187	0x0000670e	3.6969e-41
188	0x800089e7	-4.947e-41
189	0x00003d05	2.189e-41
190	0x00005c52	3.3118e-41
191	0x810a706d	-2.5427258e-38
192	0x80003427	-1.8709e-41
193	0x00004180	2.3497e-41
194	0x80004821	-2.5875e-41
195	0x0000148b	7.37e-42
196	0x00002c0f	1.5805e-41
197	0x000037f6	2.0075e-41
198	0x8000ba3e	-6.6811e-41
199	0x00000d87	4.853e-42
200	0x00008384	4.7179e-41
201	0x00005722	3.1257e-41
202	0x00007b37	4.4201e-41
203	0x8001629b	-1.27208e-40
204	0x0000422a	2.3735e-41
205	0x0000c5fd	7.1025e-41
206	0x0000e866	8.3369e-41
207	0x80001a21	-9.373e-42
208	0x800024de	-1.3225e-41
209	0x000063aa	3.5753e-41
210	0x8000846a	-4.7501e-41
211	0x00036767	3.126e-40
212	0x0000d68d	7.6966e-41
213	0x000125b7	1.05365e-40
214	0x80003317	-1.8328e-41
215	0x8000432d	-2.4098e-41
216	0x8000a6ea	-5.9877e-41
217	0x8000a9cd	-6.0913e-41
218	0x80007a31	-4.3834e-41
219	0x80034f27	-3.03901e-40
220	0x8000c86b	-7.1896e-41
221	0x000069c2	3.7939e-41
222	0x0000065a	2.279e-42
223	0x0000b35a	6.4339e-41
224	0x00005087	2.8888e-41
225	0x39582d68	0.0002061628
226	0x3a758e33	0.00093671976
227	0x39762737	0.00023474997
228	0x333f6ec9	4.457141e-08
229	0x00001834	8.682e-42
230	0x00005555	3.0611e-41
231	0x356a6082	8.731223e-07
232	0x38f381d8	0.00011611328
233	0x34b05245	3.2842414e-07
234	0x800036c2	-1.9643e-41
235	0x0000eed5	8.5677e-41
236	0x9d4b3c47	-2.6897989e-21
237	0x394287d7	0.00018551886
238	0x80003bb3	-2.1416e-41
239	0x343e2474	1.770839e-07
240	0x3a21e990	0.0006176466
241	0x000017b4	8.503e-42
242	0x00010051	9.1949e-41
243	0x0000efc0	8.6006e-41
244	0x00000d9c	4.882e-42
245	0x338fd414	6.697533e-08
246	0x3864706b	5.4464133e-05
247	0x388ccb74	6.713616e-05
248	0x34280238	1.5647026e-07
249	0x38e28363	0.000108009925
250	0x00006e3c	3.9545e-41
251	0x00000a6b	3.737e-42
252	0x0000e0a6	8.0589e-41
253	0x2cc57d16	5.612964e-12
254	0x00008776	4.8594e-41
255	0x3773cd8d	1.4531787e-05

mlp.9.bias f4 [64]
0	0x00002ee9	1.6828e-41
1	0x80006185	-3.4983e-41
2	0x3c08d62e	0.008351846
3	0x3a0a7bc4	0.0005282725
4	0x38ab0b7e	8.156056e-05
5	0x80fa544f	-2.2989118e-38
6	0x8000ac0a	-6.1716e-41
7	0x38066bdd	3.2048545e-05
8	0x36ef7a37	7.1369827e-06
9	0x3bcbf06b	0.0062237284
10	0x342c3577	1.6038199e-07
11	0x80000ec1	-5.293e-42
12	0x8000aeb4	-6.2672e-41
13	0x80002d7f	-1.6321e-41
14	0x328ed654	1.662844e-08
15	0x3ba6c306	0.0050891666
16	0x00001c95	1.0253e-41
17	0x3afce522	0.0019294361
18	0x8000a462	-5.897e-41
19	0x00004881	2.601e-41
20	0x00002a03	1.5071e-41
21	0x3b21c415	0.0024683524
22	0x00005d01	3.3364e-41
23	0x345f92c2	2.0821884e-07
24	0x35ee6c5e	1.7763921e-06
25	0x000054d2	3.0428e-41
26	0x8000a857	-6.0389e-41
27	0x33194fa7	3.5695532e-08
28	0x800009fa	-3.579e-42
29	0x80002bf1	-1.5763e-41
30	0x800018e3	-8.928e-42
31	0x3977460c	0.0002358185
32	0x318301b4	3.8127954e-09
33	0x80006f40	-3.9909e-41
34	0x3a9e0d17	0.0012058344
35	0x369ee13f	4.734989e-06
36	0x3b904902	0.0044032345
37	0x3c0df39f	0.008664041
38	0x0000afd8	6.3081e-41
39	0xa3382b00	-9.983766e-18
40	0x80006a7f	-3.8204e-41
41	0xa5b0d6ce	-3.067669e-16
42	0x284c15f2	1.13290335e-14
43	0x8000739c	-4.1473e-41
44	0x80001feb	-1.145e-41
45	0x800051ea	-2.9385e-41
46	0x80001659	-8.017e-42
47	0x84e12c61	-5.2938e-36
48	0x00000ba4	4.176e-42
49	0x35850bd3	9.912713e-07
50	0x80004842	-2.5921e-41
51	0x3a8cc0f3	0.0010738656
52	0x3ba6e753	0.005093494
53	0x8000a846	-6.0365e-41
54	0x3a5b0c90	0.0008356059
55	0x80000c57	-4.427e-42
56	0x3b7b2981	0.0038324299
57	0x3b522d81	0.003207058
58	0x80000380	-1.256e-42
59	0xa28cfc93	-3.82145e-18
60	0x00001825	8.661e-42
61	0x8000b359	-6.4338e-41
62	0x2f91ffbe	2.6557062e-10
63	0x3b87baa7	0.0041421237

mlp.12.weight f4 [128, 64]
0	0x00001af4	9.669e-42
1	0x80004faa	-2.8578e-41
2	0x00007e22	4.5248e-41
3	0x0000c4cf	7.0602e-41
4	0x00003af0	2.1143e-41
5	0x800077f4	-4.3031e-41
6	0x8000b444	-6.4667e-41
7	0x000020b9	1.1739e-41
8	0x000014b9	7.434e-42
9	0x0000d4ef	7.6386e-41
10	0x80004be3	-2.7223e-41
11	0x80008bb2	-5.0113e-41
12	0x000097c6	5.4446e-41
13	0x8000957b	-5.3623e-41
14	0x00007dd0	4.5133e-41
15	0x00006d13	3.9128e-41
16	0x0000d562	7.6547e-41
17	0x80003219	-1.7972e-41
18	0x80003eb3	-2.2492e-41
19	0x8000240c	-1.2931e-41
20	0x0000c277	6.9761e-41
21	0x0000077b	2.683e-42
22	0x8000a4ab	-5.9072e-41
23	0x80005a67	-3.243e-41
24	0x00009ad2	5.5539e-41
25	0x00018cb9	1.42317e-40
26	0x00006f6a	3.9968e-41
27	0x00000c15	4.334e-42
28	0x8000c60a	-7.1043e-41
29	0x800094cb	-5.3377e-41
30	0x8000cc50	-7.3294e-41
31	0x000035bb	1.9275e-41
32	0x0000b5a0	6.5155e-41
33	0x8000474c	-2.5576e-41
34	0x8000fa36	-8.9759e-41
35	0x000073ff	4.1612e-41
36	0x000138a0	1.12149e-40
37	0x800049e5	-2.6508e-41
38	0x0000cd11	7.3564e-41
39	0x80008ffa	-5.1649e-41
40	0x0000b3e1	6.4528e-41
41	0x800099d6	-5.5186e-41
42	0x0000b1da	6.3801e-41
43	0x8000aec4	-6.2694e-41
44	0x00015402	1.21972e-40
45	0x8000bdb6	-6.8055e-41
46	0x00002a99	1.5281e-41
47	0x8000cfab	-7.4497e-41
48	0x00009855	5.4646e-41
49	0x8000652f	-3.6298e-41
50	0x00003f12	2.2625e-41
51	0x8000b9f2	-6.6705e-41
52	0x0000c2cf	6.9884e-41
53	0x800093dc	-5.3042e-41
54	0x00014adb	1.18689e-40
55	0x0000021a	7.54e-43
56	0x000031d3	1.7874e-41
57	0x80008aea	-4.9833e-41
58	0x80006c1e	-3.8785e-41
59	0x800054a8	-3.0369e-41
60	0x8001171c	-1.00126e-40
61	0x00001f3c	1.1205e-41
62	0x0000d654	7.6886e-41
63	0x0001060a	9.4002e-41
64	0x000062ad	3.5398e-41
65	0x000046a0	2.5335e-41
66	0xb0465266	-7.2149076e-10
67	0xaeae333c	-7.921705e-11
68	0xad6031ec	-1.2744011e-11
69	0x00009e91	5.6883e-41
70	0x80005bd5	-3.2943e-41
71	0xacc7f0e3	-5.682664e-12
72	0xaba465d6	-1.1681166e-12
73	0xb02b6902	-6.235866e-10
74	0xa917c186	-3.369659e-14
75	0x800035a3	-1.9241e-41
76	0x0000a959	6.075e-41
77	0x00006738	3.7028e-41
78	0xa74253ec	-2.6968402e-15
79	0xb0129f72	-5.3341076e-10
80	0x800019bc	-9.232e-42
81	0xaf7efb40	-2.3190427e-10
82	0x800206d7	-1.86125e-40
83	0x8000c8b1	-7.1995e-41
84	0x8002020c	-1.84405e-40
85	0xaf9e70b0	-2.8820102e-10
86	0x80001466	-7.318e-42
87	0xa8dadae1	-2.4297786e-14
88	0xaac85f42	-3.5593235e-13
89	0x80013cf1	-1.13697e-40
90	0x80003930	-2.0515e-41
91	0xa7f2f9c8	-6.7439306e-15
92	0x80000bda	-4.252e-42
93	0x0000bd64	6.794e-41
94	0x800038b5	-2.0343e-41
95	0xae29c7c9	-3.8603596e-11
96	0xa657f0c5	-7.4919413e-16
97	0x00006fce	4.0108e-41
98	0xaf49afc6	-1.8343291e-10
99	0xab58dc81	-7.7044626e-13
100	0xb017bc75	-5.5201294e-10
101	0xb04204e7	-7.0583756e-10
102	0x0000d9c9	7.8127e-41
103	0x978d10d1	-9.116156e-25
104	0x80004935	-2.6262e-41
105	0x99dbfc1a	-2.2745892e-23
106	0x9d4c2144	-2.7016373e-21
107	0x00005dd8	3.3665e-41
108	0x00002879	1.4519e-41
109	0x000018bc	8.873e-42
110	0x0000c090	6.9078e-41
111	0x800033d8	-1.8598e-41
112	0x0a2cedbf	8.326214e-33
113	0xa9eb122b	-1.0439248e-13
114	0x00009574	5.3614e-41
115	0xaf0c309f	-1.27502e-10
116	0xb02c6a1a	-6.2724015e-10
117	0x0000739d	4.1474e-41
118	0xaf0ce936	-1.2815779e-10
119	0x00000177	5.25e-43
120	0xaffb23b3	-4.5682e-10
121	0xafce1f81	-3.7493567e-10
122	0x80005b54	-3.2762e-41
123	0x0d16dff9	4.6491916e-31
124	0x00004317	2.4067e-41
125	0x8001207b	-1.03487e-40
126	0xa48831db	-5.9065057e-17
127	0xb008fbd7	-4.98344e-10
128	0x8000829a	-4.6851e-41
129	0x00007386	4.1442e-41
130	0x8000b3fa	-6.4563e-41
131	0x8000558f	-3.0693e-41
132	0x00000779	2.68e-42
133	0x00008b3d	4.9949e-41
134	0x80009202	-5.2378e-41
135	0x00009526	5.3504e-41
136	0x0001395a	1.1241e-40
137	0x00012a88	1.07093e-40
138	0x000193d7	1.4487e-40
139	0x80002184	-1.2023e-41
140	0x00008dc9	5.0863e-41
141	0x00006f53	3.9936e-41
142	0x0000a10c	5.7773e-41
143	0x80000362	-1.214e-42
144	0x0000a9fb	6.0978e-41
145	0x0000ecf8	8.5008e-41
146	0x8000b7ce	-6.5937e-41
147	0x80005819	-3.1603e-41
148	0x0000b400	6.4572e-41
149	0x80006fb6	-4.0074e-41
150	0x80008009	-4.593e-41
151	0x80000899	-3.084e-42
152	0x00000f08	5.392e-42
153	0x800072d6	-4.1195e-41
154	0x0000ece6	8.4983e-41
155	0x800066d9	-3.6895e-41
156	0x0000acd0	6.1993e-41
157	0x800016d3	-8.188e-42
158	0x00007fd9	4.5863e-41
159	0x00007b5b	4.4252e-41
160	0x0000a6ee	5.9883e-41
161	0x000033d3	1.8591e-41
162	0x80009d89	-5.6513e-41
163	0x800072dc	-4.1204e-41
164	0x0000a62e	5.9614e-41
165	0x00001558	7.657e-42
166	0x0000662b	3.6651e-41
167	0x8000cacc	-7.275e-41
168	0x80009253	-5.2491e-41
169	0x80001f85	-1.1307e-41
170	0x0000b202	6.3857e-41
171	0x00009a47	5.5344e-41
172	0x0001d675	1.68768e-40
173	0x00001698	8.105e-42
174	0x00007ccf	4.4773e-41
175	0x000031d6	1.7878e-41
176	0x0000c905	7.2112e-41
177	0x00002c44	1.588e-41
178	0x00009fa2	5.7265e-41
179	0x0000878d	4.8626e-41
180	0x0000678e	3.7148e-41
181	0x00001cd9	1.0349e-41
182	0x0000bf66	6.8661e-41
183	0x8000a161	-5.7892e-41
184	0x800048cb	-2.6113e-41
185	0x80010b2c	-9.5843e-41
186	0x80022442	-1.96678e-40
187	0x800045f9	-2.5101e-41
188	0x0000a120	5.7801e-41
189	0x00008cac	5.0464e-41
190	0x0000947d	5.3268e-41
191	0x80012523	-1.05158e-40
192	0x8000218f	-1.2039e-41
193	0x80006ebc	-3.9724e-41
194	0x8000b172	-6.3655e-41
195	0x0000a286	5.8302e-41
196	0x00005c56	3.3124e-41
197	0x00000fb5	5.635e-42
198	0x8000215f	-1.1971e-41
199	0x00003284	1.8122e-41
200	0x800029f4	-1.505e-41
201	0x80007e90	-4.5402e-41
202	0x00004a88	2.6737e-41
203	0x8000c5c6	-7.0948e-41
204	0x000053b2	3.0024e-41
205	0x0000479f	2.5693e-41
206	0x0000617f	3.4975e-41
207	0x0000a3c8	5.8754e-41
208	0x80007a25	-4.3817e-41
209	0x80006c59	-3.8868e-41
210	0x0001afd0	1.54905e-40
211	0x0000bd31	6.7869e-41
212	0x80007a1c	-4.3805e-41
213	0x00006a70	3.8183e-41
214	0x00009cb9	5.6221e-41
215	0x00004294	2.3884e-41
216	0x800015ef	-7.868e-42
217	0x00002183	1.2022e-41
218	0x8000adbe	-6.2327e-41
219	0x8000562a	-3.091e-41
220	0x80005181	-2.9238e-41
221	0x0000ac7d	6.1877e-41
222	0x0000c9a2	7.2332e-41
223	0x8000102b	-5.8e-42
224	0x8000b204	-6.386e-41
225	0x0000cfc7	7.4536e-41
226	0x00004741	2.5561e-41
227	0x80000088	-1.9e-43
228	0x00005806	3.1577e-41
229	0x0000a59f	5.9414e-41
230	0x0001c980	1.6412e-40
231	0x0000a760	6.0043e-41
232	0x80010122	-9.2242e-41
233	0x80001281	-6.638e-42
234	0x80002f57	-1.6982e-41
235	0x0000533d	2.986e-41
236	0x0000cd61	7.3676e-41
237	0x00000b4b	4.051e-42
238	0x800029ec	-1.5039e-41
239	0x8000afb0	-6.3025e-41
240	0x000034c6	1.8932e-41
241	0x8000cb7a	-7.2994e-41
242	0x000080c9	4.62e-41
243	0x800065d9	-3.6536e-41
244	0x00004550	2.4865e-41
245	0x000009d8	3.531e-42
246	0x0000b0fa	6.3487e-41
247	0x80003247	-1.8036e-41
248	0x80000a10	-3.61e-42
249	0x80002e28	-1.6558e-41
250	0x00005a39	3.2366e-41
251	0x00008b25	4.9916e-41
252	0x80002177	-1.2005e-41
253	0x000039ac	2.0689e-41
254	0x000043fa	2.4385e-41
255	0x00008f27	5.1353e-41

mlp.12.bias f4 [128]
0	0x80003ec2	-2.2513e-41
1	0xac717dd0	-3.4318e-12
2	0x8000ad22	-6.2108e-41
3	0x8000b564	-6.507e-41
4	0x399d57bf	0.0003001075
5	0x00021889	1.92473e-40
6	0x3bd1a37f	0.006397664
7	0x3c02453c	0.007951077
8	0x00006cf5	3.9086e-41
9	0x3c05d941	0.008169473
10	0x86cf60f7	-7.800722e-35
11	0x80005b08	-3.2656e-41
12	0x80009e3f	-5.6768e-41
13	0x3bed1611	0.0072352965
14	0x294d317c	4.5562065e-14
15	0x3c390dab	0.011294763
16	0x00013680	1.11386e-40
17	0xaa5f22df	-1.9818477e-13
18	0x80008a06	-4.9513e-41
19	0x800070e6	-4.05e-41
20	0x2b8b79bc	9.910332e-13
21	0x8000bb2b	-6.7143e-41
22	0x00002bd0	1.5717e-41
23	0xa2ba90ab	-5.0568574e-18
24	0x00000542	1.886e-42
25	0x3c17d66d	0.009267432
26	0x91f019b6	-3.788117e-28
27	0x8005943c	-5.12354e-40
28	0x32f0bc24	2.8025234e-08
29	0x3975d969	0.00023446012
30	0x39c668f8	0.0003784371
31	0x80010cf3	-9.6481e-41
32	0x0000ddef	7.9615e-41
33	0x3ba19cf9	0.0049320427
34	0x800062d0	-3.5447e-41
35	0x350192a8	4.826966e-07
36	0x0000a3b7	5.873e-41
37	0x3b90446d	0.0044026882
38	0x0000043a	1.516e-42
39	0x800078fd	-4.3402e-41
40	0x80008cae	-5.0466e-41
41	0x00002c99	1.5999e-41
42	0x3191d1b5	4.2438963e-09
43	0x8005897a	-5.08495e-40
44	0x39ae6042	0.00033259584
45	0x3b3ac78e	0.0028500292
46	0x325a94df	1.27231194e-08
47	0x1f27d046	3.5535905e-20
48	0x800099fc	-5.5239e-41
49	0x000078e4	4.3367e-41
50	0x97a61169	-1.0731894e-24
51	0x80004ed5	-2.828e-41
52	0x0000c9d8	7.2408e-41
53	0x8003b5c0	-3.40706e-40
54	0x3c31a7e6	0.010843253
55	0x3772b030	1.4465346e-05
56	0x8000a021	-5.7443e-41
57	0x00001928	9.024e-42
58	0x3bf0c254	0.0073473845
59	0x000086cf	4.836e-41
60	0x00007da0	4.5066e-41
61	0x3483e859	2.4569707e-07
62	0x0000345c	1.8783e-41
63	0x362f3e08	2.611314e-06
64	0x3a6ba539	0.00089891587
65	0x800055f0	-3.0829e-41
66	0x3c1ae08a	0.009452948
67	0x8000a496	-5.9042e-41
68	0x800069a4	-3.7897e-41
69	0x3b23c314	0.0024988102
70	0x3c5d816f	0.013519629
71	0x80006b57	-3.8506e-41
72	0x00002b1c	1.5465e-41
73	0x80000408	-1.446e-42
74	0x80009c74	-5.6125e-41
75	0x0000b09a	6.3353e-41
76	0x80000a80	-3.767e-42
77	0x3984f210	0.00025357353
78	0x000091e5	5.2337e-41
79	0x80002c1d	-1.5825e-41
80	0x3b766881	0.003759891
81	0x000033f4	1.8637e-41
82	0x80007a3d	-4.3851e-41
83	0x800162b1	-1.2724e-40
84	0x00005cee	3.3337e-41
85	0x8000053f	-1.882e-42
86	0x9e42fdb3	-1.0322738e-20
87	0x39f27959	0.00046248248
88	0x80000799	-2.726e-42
89	0x3bb00383	0.0053715124
90	0x3c37c5ab	0.011216561
91	0xa1e75b26	-1.5677296e-18
92	0x000097f9	5.4518e-41
93	0x00000c2b	4.365e-42
94	0x000026ff	1.3989e-41
95	0x8b1213d7	-2.8133503e-32
96	0x80003b4f	-2.1276e-41
97	0x000054ab	3.0373e-41
98	0x80006d5d	-3.9232e-41
99	0x800a7641	-9.60776e-40
100	0x00002bd4	1.5723e-41
101	0xa6b6b7e8	-1.2678635e-15
102	0x0000daa0	7.8428e-41
103	0x3890cf55	6.905074e-05
104	0x8015917e	-1.980738e-39
105	0x0000dbe6	7.8885e-41
106	0x0003a810	3.35796e-40
107	0x800077d2	-4.2983e-41
108	0x800026bc	-1.3895e-41
109	0x3b4b580e	0.0031027826
110	0xa3787968	-1.3469816e-17
111	0x2a92e02a	2.6090355e-13
112	0x00001f14	1.1149e-41
113	0x0000b476	6.4737e-41
114	0x8000736e	-4.1408e-41
115	0x3b02e1be	0.0019970979
116	0x8001d313	-1.67555e-40
117	0x800043d4	-2.4332e-41
118	0x37adbba1	2.0710579e-05
119	0x3c2c0541	0.0104992995
120	0x0000c362	7.009e-41
121	0x00006fe4	4.0139e-41
122	0x80004bd5	-2.7203e-41
123	0x3c13b599	0.009015464
124	0x000078a7	4.3282e-41
125	0x8000e436	-8.1867e-41
126	0x88ca3e70	-1.2172112e-33
127	0x80007f3b	-4.5642e-41

mlp.15.weight f4 [64, 128]
0	0x8000bfbc	-6.8781e-41
1	0x2afeae86	4.5240564e-13
2	0x000078ac	4.3289e-41
3	0x80000052	-1.15e-43
4	0x3a9510e4	0.0011372832
5	0x80002106	-1.1847e-41
6	0x3ccb495b	0.024815252
7	0x3cfba9ef	0.03072068
8	0x80006c57	-3.8865e-41
9	0x3d01a5f9	0.031652424
10	0x077f3b34	1.9201466e-34
11	0x00006e5c	3.959e-41
12	0x8000a2d6	-5.8415e-41
13	0x3ce61732	0.028087232
14	0x2b28657b	5.982642e-13
15	0x3d3171a8	0.04332128
16	0x00007594	4.2179e-41
17	0x24c20e56	8.4158375e-17
18	0x00001978	9.136e-42
19	0x8000781a	-4.3084e-41
20	0x2bb9d318	1.3203631e-12
21	0x00009033	5.1729e-41
22	0x00008c67	5.0367e-41
23	0x263d181e	6.560523e-16
24	0x80001c28	-1.01e-41
25	0x3d12ecb6	0.035870276
26	0x1300ced2	1.6257842e-27
27	0x000c8892	1.151018e-39
28	0x33ce4ea3	9.6069265e-08
29	0x3a71a193	0.0009217497
30	0x3ac20d68	0.0014805021
31	0x0000fac2	8.9955e-41
32	0x8002a1ef	-2.41762e-40
33	0x3c9d606e	0.01921102
34	0x87b23d11	-2.6818355e-34
35	0x35c8ec6e	1.4969971e-06
36	0x800059a1	-3.2153e-41
37	0x3c8949c3	0.016758805
38	0x8000af82	-6.296e-41
39	0x80003ac4	-2.1081e-41
40	0x000054c7	3.0412e-41
41	0x80005489	-3.0326e-41
42	0x328153b9	1.505565e-08
43	0x8003e2f7	-3.56926e-40
44	0x3aab8bd0	0.0013087932
45	0x3c367f06	0.011138683
46	0x3370da7a	5.6078058e-08
47	0x208db994	2.4009134e-19
48	0x800098ed	-5.486e-41
49	0x00005dcc	3.3648e-41
50	0x18985dfc	3.938598e-24
51	0x80011ac1	-1.01433e-40
52	0x0000bfc7	6.8797e-41
53	0x80124014	-1.676026e-39
54	0x3d2b8b09	0.04188064
55	0x384b63d5	4.8491947e-05
56	0x8000b56c	-6.5082e-41
57	0x0000af29	6.2836e-41
58	0x3ce94511	0.028475316
59	0x00009aff	5.5602e-41
60	0x80005602	-3.0854e-41
61	0x355e9f68	8.293341e-07
62	0x1d057597	1.7663196e-21
63	0x3702229b	7.756661e-06
64	0x3b685e84	0.0035456726
65	0x80001f2f	-1.1187e-41
66	0x3d15822f	0.036501106
67	0x00018772	1.40424e-40
68	0x00008237	4.6712e-41
69	0x3c20afed	0.009807569
70	0x3d54d6cc	0.05196266
71	0x00009648	5.3911e-41
72	0x00008297	4.6847e-41
73	0x800043aa	-2.4273e-41
74	0x0000903d	5.1743e-41
75	0x885ef874	-6.709775e-34
76	0x00002477	1.3081e-41
77	0x3a81ae73	0.0009893909
78	0xa5fb8dba	-4.3637597e-16
79	0x800083f3	-4.7334e-41
80	0x3c724281	0.014786364
81	0x0000aea4	6.2649e-41
82	0x8ba8c4bf	-6.5007277e-32
83	0x00002da3	1.6371e-41
84	0x00003b1d	2.1206e-41
85	0x0002d72a	2.60857e-40
86	0x1f839745	5.573091e-20
87	0x3ae6970d	0.0017592624
88	0x8000912a	-5.2075e-41
89	0x3cab7a9d	0.02093249
90	0x3d325063	0.043533694
91	0x26b2a717	1.2396521e-15
92	0x800012ce	-6.746e-42
93	0x1dd38c77	5.5996472e-21
94	0x00000024	5e-44
95	0x8bc78c04	-7.6862684e-32
96	0x0a54a01a	1.02375405e-32
97	0x8000302d	-1.7282e-41
98	0x8001dfd9	-1.72137e-40
99	0x000204a3	1.85334e-40
100	0x800070d3	-4.0474e-41
101	0x27fbbd51	6.987175e-15
102	0x0008c235	8.04352e-40
103	0x398967c9	0.00026208002
104	0x0038f04d	5.228991e-39
105	0x8006b6bf	-6.1657e-40
106	0x0000855e	4.7843e-41
107	0x8000240a	-1.2928e-41
108	0x00001f18	1.1154e-41
109	0x3c455d9e	0.012046246
110	0x24a3d683	7.105338e-17
111	0x2ae15c6e	4.0032165e-13
112	0x8000ad10	-6.2083e-41
113	0x0d5d7c1d	6.825028e-31
114	0x0001dad5	1.70338e-40
115	0x3bfc3e8f	0.0076978873
116	0x801a5b50	-2.42048e-39
117	0x800071da	-4.0842e-41
118	0x38a65bd4	7.932601e-05
119	0x3d260c7c	0.04053925
120	0x000119a1	1.0103e-40
121	0x0002ad6c	2.45883e-40
122	0x0e8560e9	3.2880352e-30
123	0x3d0f151c	0.03493224
124	0x800016ad	-8.135e-42
125	0x0001726c	1.32882e-40
126	0x0a2c792a	8.304287e-33
127	0x00000733	2.583e-42
128	0x8000b5a3	-6.5159e-41
129	0x00005d86	3.355e-41
130	0x0000bcce	6.773e-41
131	0x00006d03	3.9106e-41
132	0x000006f4	2.494e-42
133	0x800111cb	-9.8218e-41
134	0x800013ac	-7.057e-42
135	0x8000943e	-5.3179e-41
136	0x00002474	1.3077e-41
137	0x8000b474	-6.4734e-41
138	0x00001406	7.183e-42
139	0x0000e2bc	8.1337e-41
140	0x80006782	-3.7132e-41
141	0x80001a5d	-9.457e-42
142	0x000055f2	3.0831e-41
143	0x80006cc3	-3.9016e-41
144	0x80006bbe	-3.865e-41
145	0x000026d9	1.3936e-41
146	0x00003649	1.9474e-41
147	0x8000c576	-7.0836e-41
148	0x80002fde	-1.7172e-41
149	0x800015fb	-7.885e-42
150	0x00008618	4.8104e-41
151	0x00004d8c	2.7819e-41
152	0x8000d678	-7.6937e-41
153	0x80004dd7	-2.7924e-41
154	0x8000c09e	-6.9098e-41
155	0x8000bff3	-6.8858e-41
156	0x0000b3f0	6.455e-41
157	0x00004330	2.4102e-41
158	0x00007a1f	4.3809e-41
159	0x8000665d	-3.6721e-41
160	0x800067d9	-3.7254e-41
161	0x000022c7	1.2476e-41
162	0x80000e2a	-5.081e-42
163	0x80001151	-6.212e-42
164	0x0000af8a	6.2972e-41
165	0x80005eab	-3.396e-41
166	0x00000507	1.803e-42
167	0x000070ad	4.042e-41
168	0x80000260	-8.52e-43
169	0x80006a97	-3.8237e-41
170	0x00005e72	3.388e-41
171	0x00005976	3.2093e-41
172	0x80005fed	-3.4412e-41
173	0x00005ea0	3.3945e-41
174	0x000062e8	3.5481e-41
175	0x00002b9d	1.5645e-41
176	0x00007a1c	4.3805e-41
177	0x0001c4ae	1.62391e-40
178	0x0000774f	4.28e-41
179	0x80005ed7	-3.4022e-41
180	0x80006868	-3.7454e-41
181	0x8000ddb3	-7.953e-41
182	0x80006df6	-3.9447e-41
183	0x0000201d	1.152e-41
184	0x0001424c	1.15618e-40
185	0x00008a6d	4.9658e-41
186	0x80009756	-5.4289e-41
187	0x00008496	4.7563e-41
188	0x00013303	1.10135e-40
189	0x00009087	5.1847e-41
190	0x8000154c	-7.64e-42
191	0x800054ed	-3.0466e-41
192	0x80002309	-1.2568e-41
193	0x8000d0cf	-7.4906e-41
194	0x80007efb	-4.5552e-41
195	0x8000ac5e	-6.1834e-41
196	0x800047fa	-2.582e-41
197	0x8000c47b	-7.0484e-41
198	0x8000a23a	-5.8196e-41
199	0x00009232	5.2445e-41
200	0x000080d2	4.6212e-41
201	0x80003cee	-2.1857e-41
202	0x000038f8	2.0437e-41
203	0x000010b0	5.986e-42
204	0x00006196	3.5007e-41
205	0x0000c9bf	7.2373e-41
206	0x80005193	-2.9263e-41
207	0x00000cc1	4.575e-42
208	0x00003c37	2.1601e-41
209	0x80020c6f	-1.88131e-40
210	0x00002c89	1.5976e-41
211	0x00008c6d	5.0375e-41
212	0x0000288b	1.4544e-41
213	0x000051b3	2.9308e-41
214	0x0000b85b	6.6134e-41
215	0x000046b7	2.5368e-41
216	0x00010033	9.1907e-41
217	0x8000bbdf	-6.7395e-41
218	0x8000716d	-4.069e-41
219	0x00000cbb	4.567e-42
220	0x80007a9f	-4.3988e-41
221	0x000085c9	4.7993e-41
222	0x800086df	-4.8383e-41
223	0x8002ceaf	-2.57815e-40
224	0x800042f4	-2.4018e-41
225	0x8000304d	-1.7327e-41
226	0x00004b0f	2.6926e-41
227	0x000060e3	3.4756e-41
228	0x0000ba49	6.6827e-41
229	0x8000c43d	-7.0397e-41
230	0x8001316c	-1.09565e-40
231	0x00003854	2.0207e-41
232	0x800017ff	-8.608e-42
233	0x800060cf	-3.4728e-41
234	0x00014caf	1.19344e-40
235	0x0000c034	6.895e-41
236	0x000054fa	3.0484e-41
237	0x000055a3	3.072e-41
238	0x00002fc1	1.7131e-41
239	0x0001229f	1.04255e-40
240	0x80016f5c	-1.31784e-40
241	0x80004d27	-2.7677e-41
242	0x000021b0	1.2085e-41
243	0x80005965	-3.2069e-41
244	0x80000bd7	-4.247e-42
245	0x00001023	5.789e-42
246	0x80009def	-5.6656e-41
247	0x80002716	-1.4021e-41
248	0x80010d94	-9.6706e-41
249	0x000087d0	4.872e-41
250	0x0000808a	4.6111e-41
251	0x8000b879	-6.6176e-41
252	0x0000ff52	9.1592e-41
253	0x00000a30	3.655e-42
254	0x8000c94b	-7.221e-41
255	0x00009c19	5.5997e-41

mlp.15.bias f4 [64]
0	0x3ca20641	0.019778373
1	0x80007943	-4.35e-41
2	0x3c55fbd7	0.013060532
3	0x3a6de032	0.000907424
4	0x800015f2	-7.872e-42
5	0x3c4f9194	0.012668986
6	0x80002603	-1.3636e-41
7	0x00008dd9	5.0885e-41
8	0x00009c79	5.6132e-41
9	0x00002e88	1.6692e-41
10	0x0000552d	3.0555e-41
11	0xac7cf8b7	-3.5949418e-12
12	0x37d8dcce	2.5852027e-05
13	0x00003723	1.978e-41
14	0x8000691f	-3.771e-41
15	0x3cca0615	0.024661103
16	0x80a2f99c	-1.4966893e-38
17	0x3c06bbdb	0.008223499
18	0x000068dd	3.7618e-41
19	0x00002b33	1.5497e-41
20	0x000007b4	2.763e-42
21	0x8000cda0	-7.3764e-41
22	0x800085f2	-4.805e-41
23	0xa809abc6	-7.642275e-15
24	0xab165858	-5.3413307e-13
25	0x8000c8e6	-7.2069e-41
26	0x80006331	-3.5583e-41
27	0x3ce29eea	0.027663667
28	0x0000dfd5	8.0296e-41
29	0x8000d3b2	-7.5942e-41
30	0x00007748	4.279e-41
31	0x80006f5a	-3.9945e-41
32	0x0000828b	4.683e-41
33	0x0000e785	8.3054e-41
34	0x000074b2	4.1862e-41
35	0x95bc7419	-7.6115765e-26
36	0x80018e38	-1.42854e-40
37	0x80008354	-4.7112e-41
38	0x80002d8b	-1.6338e-41
39	0x8000e520	-8.2195e-41
40	0x8000562f	-3.0917e-41
41	0x0000026c	8.69e-43
42	0x3cd14978	0.025547728
43	0x3c9ae07e	0.018905874
44	0x000018db	8.916e-42
45	0x80003411	-1.8678e-41
46	0x3c5bc393	0.013413328
47	0x0000eaff	8.4301e-41
48	0x3476c57b	2.2982378e-07
49	0x3b3213bd	0.002717241
50	0x80005041	-2.879e-41
51	0x80008e6a	-5.1089e-41
52	0xab315f87	-6.3015603e-13
53	0x0000b75f	6.5781e-41
54	0x3cb070b3	0.021538114
55	0x82165494	-1.1044532e-37
56	0x9646d5b8	-1.606175e-25
57	0x3b49b918	0.003078049
58	0x3d13adaa	0.03605429
59	0x00004d61	2.7758e-41
60	0x0000b1ae	6.374e-41
61	0x38b6af2e	8.711066e-05
62	0x80003aef	-2.1141e-41
63	0x3c8d415e	0.017243084

mlp.18.weight f4 [8, 64]
0	0x8004b82c	-4.3341e-40
1	0x80000508	-1.805e-42
2	0x8001f194	-1.78497e-40
3	0x80005c03	-3.3008e-41
4	0x80000711	-2.535e-42
5	0x00005000	2.8699e-41
6	0x0000937b	5.2906e-41
7	0x8000b242	-6.3947e-41
8	0x000140eb	1.15124e-40
9	0x0000ac10	6.1724e-41
10	0x00000e53	5.139e-42
11	0x00002e39	1.6582e-41
12	0x800024c7	-1.3193e-41
13	0x0000b2a2	6.4081e-41
14	0x0000fedd	9.1428e-41
15	0x8008c950	-8.06901e-40
16	0x00001495	7.383e-42
17	0x000023d4	1.2853e-41
18	0x0000d090	7.4818e-41
19	0x80002603	-1.3636e-41
20	0x8000abdd	-6.1653e-41
21	0x00005823	3.1617e-41
22	0x8000c897	-7.1958e-41
23	0x00012472	1.0491e-40
24	0x80008d7b	-5.0754e-41
25	0x80007f91	-4.5762e-41
26	0x00009e33	5.6751e-41
27	0x00029461	2.369e-40
28	0x8001e494	-1.73834e-40
29	0x8000131e	-6.858e-42
30	0x80009430	-5.316e-41
31	0x8000adeb	-6.239e-41
32	0x8000fc9d	-9.062e-41
33	0x8000251a	-1.331e-41
34	0x00004392	2.424e-41
35	0x0000ad6c	6.2212e-41
36	0x8001d477	-1.68054e-40
37	0x8000bb87	-6.7272e-41
38	0x00003aaf	2.1052e-41
39	0x80008fd2	-5.1593e-41
40	0x0000a769	6.0055e-41
41	0x00006eeb	3.979e-41
42	0x8006fdf2	-6.42111e-40
43	0x80047f73	-4.13062e-40
44	0x00003fe4	2.292e-41
45	0x00017e68	1.37182e-40
46	0x00021f02	1.94794e-40
47	0x00005c3b	3.3086e-41
48	0x0000d683	7.6952e-41
49	0x00001912	8.994e-42
50	0x0000a967	6.077e-41
51	0x0000932a	5.2793e-41
52	0x80006c98	-3.8956e-41
53	0x8001748e	-1.33647e-40
54	0x8000e139	-8.0795e-41
55	0x80004677	-2.5278e-41
56	0x00006fe3	4.0137e-41
57	0x00006ef7	3.9807e-41
58	0x8227f469	-1.2339365e-37
59	0x800050e0	-2.9012e-41
60	0x0000cae0	7.2778e-41
61	0x00001918	9.002e-42
62	0x000063bd	3.578e-41
63	0x00044760	3.92947e-40
64	0x3d7e637f	0.062106606
65	0x00003426	1.8707e-41
66	0x3d65ab60	0.05607164
67	0x3ba8bddb	0.0051495857
68	0x00002125	1.189e-41
69	0x3d48bf6c	0.04901068
70	0x8000583d	-3.1654e-41
71	0x1e11a433	7.710192e-21
72	0x80003dad	-2.2125e-41
73	0x00007603	4.2335e-41
74	0x2fb32eb1	3.2593087e-10
75	0x2c0bfac0	1.9892282e-12
76	0xb8cdb04d	-9.808e-05
77	0x8ab62a3a	-1.7541846e-32
78	0x0001bcb2	1.59527e-40
79	0x3dbe8911	0.09303487
80	0x84c67d91	-4.666489e-36
81	0x3d030528	0.03198734
82	0x9339a0bf	-2.3429537e-27
83	0x8000768d	-4.2528e-41
84	0x0000903f	5.1746e-41
85	0x8931bd4a	-2.1394603e-33
86	0x0064cf16	9.257838e-39
87	0x27fc80fc	7.0083896e-15
88	0x2a78c924	2.209661e-13
89	0x8000a958	-6.0749e-41
90	0x8000774e	-4.2798e-41
91	0x3dedfd1e	0.11620544
92	0x000080ab	4.6157e-41
93	0x028336ba	1.9280132e-37
94	0xa341df1e	-1.0509798e-17
95	0x00005b79	3.2814e-41
96	0xb8c6c208	-9.477517e-05
97	0x18d276fb	5.4403867e-24
98	0x00001d23	1.0452e-41
99	0x15b38fec	7.252459e-26
100	0x80000670	-2.31e-42
101	0x00009600	5.381e-41
102	0x80003ee8	-2.2567e-41
103	0x80001ee4	-1.1081e-41
104	0x3466f801	2.1510643e-07
105	0x0000298a	1.4901e-41
106	0x3dc28e30	0.09499776
107	0x3d8bd0a8	0.068269074
108	0x80007449	-4.1715e-41
109	0x80009da1	-5.6547e-41
110	0x3d919702	0.071088806
111	0x000011f7	6.445e-42
112	0xb53a8328	-6.9481257e-07
113	0x3c03aa8d	0.008036268
114	0x000053ba	3.0035e-41
115	0x8000392b	-2.0508e-41
116	0x2a4e737d	1.8336543e-13
117	0xa78f52d8	-3.9780293e-15
118	0x3dd47192	0.10373224
119	0x0786e270	2.0295167e-34
120	0x16505809	1.6829885e-25
121	0x3c37aa8e	0.011210097
122	0x3e21fb9a	0.15818635
123	0x0000c77e	7.1564e-41
124	0xa3401560	-1.0412867e-17
125	0xb95f1370	-0.00021274178
126	0x85383f1b	-8.663229e-36
127	0x3d90af96	0.0706474
128	0xb28a4556	-1.6096845e-08
129	0x000045a2	2.498e-41
130	0xb0dd61a8	-1.6107622e-09
131	0xb02d7ebc	-6.3117134e-10
132	0x80006b57	-3.8506e-41
133	0xb18e22f9	-4.13672e-09
134	0x0000b215	6.3884e-41
135	0x8000ccf2	-7.352e-41
136	0x0000102e	5.804e-42
137	0x8000d15f	-7.5108e-41
138	0x2dd973b4	2.4721426e-11
139	0xa1afa553	-1.1902222e-18
140	0xac1cac4d	-2.226458e-12
141	0x8000537f	-2.9953e-41
142	0x0000be95	6.8368e-41
143	0xb25a0aea	-1.2691752e-08
144	0x8000dec2	-7.991e-41
145	0x353e4e16	7.0894146e-07
146	0x000056c6	3.1128e-41
147	0x80000d18	-4.697e-42
148	0x8000171c	-8.29e-42
149	0x0000144c	7.281e-42
150	0x0001cfa4	1.66323e-40
151	0x20dfce3c	3.7914144e-19
152	0x21ae63c6	1.1817108e-18
153	0x00006fb5	4.0073e-41
154	0x80004ad4	-2.6843e-41
155	0xb19e9722	-4.615587e-09
156	0x8000c358	-7.0076e-41
157	0x80002b7c	-1.5599e-41
158	0x00013b64	1.13141e-40
159	0x1dd069f9	5.5166715e-21
160	0x347d03e4	2.3563877e-07
161	0x00002a12	1.5092e-41
162	0x800056cc	-3.1137e-41
163	0x89fa53bf	-6.0264065e-33
164	0x000064af	3.6118e-41
165	0x00008095	4.6127e-41
166	0x00018cf8	1.42406e-40
167	0x00002114	1.1866e-41
168	0xa4881771	-5.902031e-17
169	0x2710d00c	2.0096797e-15
170	0xb23e7e81	-1.1088219e-08
171	0xb20db67e	-8.248774e-09
172	0x00007e2b	4.526e-41
173	0x0e0352cc	1.6186862e-30
174	0xb20db614	-8.24868e-09
175	0x80004aec	-2.6877e-41
176	0xb041041e	-7.021884e-10
177	0xaf3db534	-1.7253826e-10
178	0x80001157	-6.22e-42
179	0x00003b21	2.1211e-41
180	0x2b941791	1.0522573e-12
181	0x0001080b	9.4721e-41
182	0xb29c6ef9	-1.8211255e-08
183	0x0001e509	1.73998e-40
184	0x8a2d0c67	-8.3319796e-33
185	0xb0c25994	-1.4140817e-09
186	0xb2defc1e	-2.5958851e-08
187	0x000073f2	4.1593e-41
188	0x2c482eb2	2.844763e-12
189	0xb69556bb	-4.450643e-06
190	0x8000b173	-6.3657e-41
191	0xb1e8da6b	-6.77692e-09
192	0x3ca01fa6	0.019546341
193	0x8000d730	-7.7195e-41
194	0x3c4f1914	0.012640256
195	0x3a30f70c	0.000675068
196	0x0000a946	6.0724e-41
197	0x3c45b870	0.012067899
198	0x8000480e	-2.5848e-41
199	0x80008743	-4.8523e-41
200	0x0000321f	1.798e-41
201	0x00008c70	5.038e-41
202	0x00003438	1.8733e-41
203	0x2c5b83e0	3.1194977e-12
204	0x34c4d2c1	3.6661189e-07
205	0x8000134e	-6.925e-42
206	0x00009386	5.2921e-41
207	0x3cc95a4a	0.024579186
208	0x000041ab	2.3557e-41
209	0x3be5e63e	0.0070159724
210	0x800081e0	-4.659e-41
211	0x0000940b	5.3108e-41
212	0x0000ef7d	8.5912e-41
213	0x00008f1c	5.1338e-41
214	0x001eee2e	2.840508e-39
215	0x283cea97	1.0486965e-14
216	0x2c880652	3.866054e-12
217	0x80000130	-4.26e-43
218	0x0000a136	5.7832e-41
219	0x3cef638d	0.029222274
220	0x800017fb	-8.603e-42
221	0x80005e64	-3.3861e-41
222	0x98253c81	-2.1356297e-24
223	0x0000b838	6.6085e-41
224	0xaf1268da	-1.3315873e-10
225	0x0e2dce9a	2.1423371e-30
226	0x00005ebf	3.3988e-41
227	0x152b43e5	3.4586734e-26
228	0x00004d0d	2.764e-41
229	0x800091d3	-5.2312e-41
230	0x800042c5	-2.3952e-41
231	0x80009d8d	-5.6519e-41
232	0x31391229	2.6931366e-09
233	0x8000336d	-1.8448e-41
234	0x3cd9ad86	0.026572
235	0x3c9b385e	0.018947776
236	0x800105fa	-9.398e-41
237	0x80009684	-5.3995e-41
238	0x3c5ec620	0.013597041
239	0x0000ae7d	6.2595e-41
240	0x3446821a	1.8487518e-07
241	0x3b031f42	0.0020007645
242	0x00007bd2	4.4418e-41
243	0x0000784d	4.3156e-41
244	0x2b9ec3e9	1.1280951e-12
245	0x026e9348	1.7527746e-37
246	0x3cba0a57	0.022710009
247	0x00d43462	1.9487917e-38
248	0x16190f14	1.2364e-25
249	0x3b17058e	0.0023044082
250	0x3d21d7e0	0.039512515
251	0x80003e3c	-2.2325e-41
252	0x0000993d	5.4972e-41
253	0x379051e4	1.7204271e-05
254	0x8004494c	-3.93636e-40
255	0x3c8c15ab	0.017100176

mlp.18.bias f4 [8]
0	0x000939cf	8.47257e-40
1	0x3da8886b	0.08229145
2	0xb2145b78	-8.635531e-09
3	0x3cb74242	0.022370461
4	0x3de59755	0.11210505
5	0x30b53a18	1.3185995e-09
6	0x000036f2	1.971e-41
7	0x398bfed5	0.0002670201

mlp.21.weight f4 [1, 8]
0	0x067200ed	4.551582e-35
1	0xbe919809	-0.28436306
2	0xb1ea8aff	-6.8260984e-09
3	0xbd9cc850	-0.07655394
4	0xbec89ebd	-0.39183608
5	0x3b50b6c5	0.003184722
6	0x80012050	-1.03427e-40
7	0xba76c2f3	-0.0009413205
