model_saved/2024-01-25-07-49-50/model_2024-01-25-07-51-21_epoch_13000_train_mse_2.05e-02_val_mse_2.00e-02.pt (torch, 88343 bytes, 15 tensors)

mlp.0.weight f4 [8, 8]
00000000: d67b 0080 343d 0080 7bb4 0000 6276 0080
00000010: ddcf 0000 002b 0080 c35c 0000 c181 0000
00000020: 56be a13b dccd 04bb 7e95 0a38 32e0 2f37
00000030: 0d1a 1737 3137 c536 e609 1336 4d92 a736
00000040: 375c cabc 9a69 6f3d 5df6 8e3c 44dd 9c38
00000050: a937 7339 eec5 9939 e93e a83a e759 09b9
00000060: 6e4c 9fbc 691a 2b3d de89 4a3c 727c aa38
00000070: 035f 3f39 d997 6139 ffbb 723a 9fde a2b8
00000080: 5252 e93d 4fa2 6ebd 6907 8d3b 3df4 7239
00000090: 4a69 5039 f77a 2839 d91b 1639 5513 e138
000000a0: 3ca9 adbd 5177 413e 6336 733d 184b 173a
000000b0: 0d1d 943a 6bf6 a43a 8203 973b 715c 7fb9
000000c0: 3c9d a23d 3e39 ac3e 077b 293e 284b b23a
000000d0: e8fe 233b 5c7f 323b 25ae 203c 16cf f5b9
000000e0: 3871 81bc 0880 b63d 9218 ea3c 844e 8239
000000f0: b0bc 033a e673 143a baa8 093b 3cd8 e1b8
-4.4424e-41 -2.1956e-41 6.4744e-41 -4.2468e-41 7.4567e-41 -1.5425e-41 3.3277e-41 4.6547e-41
0.00493602 -0.0020264303 3.304099e-05 1.0483012e-05 9.006367e-06 5.8774826e-06 2.1910469e-06 4.9940195e-06
-0.024702175 0.05845032 0.01745146 7.4798736e-05 0.00023195021 0.00029329903 0.0012836132 -0.0001309883
-0.019445624 0.041773234 0.012361972 8.1294114e-05 0.00018250574 0.0002151424 0.0009259581 -7.7662284e-05
0.113926545 -0.05826026 0.004303862 0.00023169904 0.00019875649 0.00016067536 0.00014315489 0.00010732437
-0.084795445 0.18893172 0.05937804 0.0005771383 0.0011300162 0.0012585645 0.0046085725 -0.00024353132
0.07940146 0.33637422 0.16550837 0.001360272 0.0025023762 0.0027236557 0.009807144 -0.00046884333
-0.015801057 0.08911139 0.02857617 0.0002485403 0.000502537 0.0005663022 0.002100511 -0.00010769113

mlp.0.bias f4 [8]
00000000: a542 0080 39a0 c2b3 f69a 9538 f456 b438
00000010: 9275 8936 260d 0b3a 4031 ac3a 0262 8839
-2.3908e-41 -9.062973e-08 7.1337374e-05 8.599265e-05 4.096605e-06 0.00053043885 0.0013137236 0.00026012963

mlp.3.weight f4 [16, 8]
00000000: 7864 0000 1125 4bb9 426c d73b ca1e 9b3b
00000010: bb14 8bbb ba80 b63c f2d8 323d ef33 273c
00000020: 6365 0000 3ad0 34b6 a18a 8b38 6ced 7e38
00000030: 2c6b 8db8 36bb 9939 42da 3c3a d09b 1a39
00000040: d53e 0080 0ba2 7bb9 fa01 f23b 224a b03b
00000050: 6471 adbb 954f cd3c ab55 633d 7dae 3d3c
00000060: 23a1 0000 df47 9036 dc1c c7b8 78f1 93b8
00000070: 5e54 bd3a 08ac b4b9 f192 9939 0678 c7b9
00000080: 8a4d 0000 738e 0000 5e28 0000 fb92 0080
00000090: 8fac 0080 faab 0080 9733 0080 023b 0080
000000a0: df52 0080 4cac 0080 e5a8 0000 3657 0080
000000b0: 9250 0080 9777 0000 504c 0080 590b 0000
000000c0: 156e 0080 27cf ccb6 e7ea 3539 4ce8 7e38
000000d0: 899b 14b9 e843 fb39 3ce1 ec3a 177f a239
000000e0: e7a2 0000 3548 37ba 89f2 b83c 2ba5 843c
000000f0: a5bf 5ebc 1bce 993d 3fdf 203e e002 0c3d
00000100: 1683 0000 7a2f 0080 a23a 0000 3d83 0000
00000110: 9a7e 0000 6d80 0000 6485 0000 bf94 0000
00000120: 8533 0000 730c afba abb2 1a3d 16f1 dd3c
00000130: 14ec a3bc 4e1e 003e d929 803e cbe0 6e3d
00000140: cc2f 0080 3384 0080 2a26 0080 7bfc 0000
00000150: 7a73 0080 864c 0080 189c 0080 274f 0080
00000160: 0557 0000 6517 cbba b59c 263d 7a38 ef3c
00000170: c765 17bd 8d1d 0a3e 5553 8d3e 4f01 7a3d
00000180: e874 0080 3741 0080 ae3c 0080 2d3f 0000
00000190: f21b 0080 2e1d bc10 dff4 14b2 30ab 171f
000001a0: b7a6 0080 610f 0000 0b0a 0000 5ecb 0080
000001b0: 6d18 0000 8426 0000 a37e 0080 7294 0000
000001c0: 0a74 0080 2b2b 0080 8714 0080 39b1 0080
000001d0: 2b3c 0080 031f 0080 66e6 9c9c 3212 0000
000001e0: 335d 0000 558b e3b9 7910 603c cf48 213c
000001f0: 983a 13bc ff31 3c3d 363c c53d 004f ac3c
3.6041e-41 -0.00019373397 0.0065741846 0.004733895 -0.0042444146 0.022278178 0.043663926 0.010205253
3.6371e-41 -2.6943294e-06 6.653858e-05 6.0779435e-05 -6.743366e-05 0.00029321917 0.0007204154 0.00014744629
-2.254e-41 -0.00023997591 0.0073854895 0.005379931 -0.005293058 0.025062362 0.05550162 0.011577246
5.7805e-41 4.2999013e-06 -9.494435e-05 -7.054483e-05 0.0014444699 -0.0003446045 0.00029291914 -0.00038045662
2.7816e-41 5.1101e-41 1.4481e-41 -5.2727e-41 -6.1902e-41 -6.1694e-41 -1.8507e-41 -2.1168e-41
-2.9729e-41 -6.1808e-41 6.0588e-41 -3.1285e-41 -2.8903e-41 4.2901e-41 -2.7376e-41 4.071e-42
-3.949e-41 -6.1037895e-06 0.00017349013 6.0774662e-05 -0.00014172321 0.00047925045 0.0018072496 0.00030993737
5.8438e-41 -0.00069916557 0.022576587 0.01619204 -0.013595496 0.075100146 0.15710162 0.03418243
4.7025e-41 -1.7031e-41 2.1033e-41 4.708e-41 4.5416e-41 4.607e-41 4.7852e-41 5.336e-41
1.8482e-41 -0.0013355151 0.037768047 0.027092498 -0.020010032 0.1251156 0.25031927 0.058319848
-1.7146e-41 -4.7424e-41 -1.369e-41 9.0573e-41 -4.1425e-41 -2.7451e-41 -5.5996e-41 -2.8395e-41
3.1217e-41 -0.0015494643 0.04067679 0.029201735 -0.036962297 0.13487835 0.2760264 0.061036404
-4.1938e-41 -2.3395e-41 -2.1768e-41 2.2663e-41 -1.0025e-41 7.4197884e-29 -8.670411e-09 3.2117097e-20
-5.9806e-41 5.517e-42 3.603e-42 -7.2954e-41 8.762e-42 1.3817e-41 -4.5429e-41 5.3252e-41
-4.1627e-41 -1.5486e-41 -7.364e-42 -6.3576e-41 -2.1584e-41 -1.1125e-41 -1.0382771e-21 6.527e-42
3.3434e-41 -0.00043400624 0.013675802 0.009844019 -0.008986138 0.045946117 0.09630625 0.021033764

mlp.3.bias f4 [16]
00000000: 5d54 9a39 440a 7336 e6f0 bb39 d7a6 9db6
00000010: 7c2b 0000 2731 0000 5f11 0a37 e9ce 8b3a
00000020: 3b3a 0080 8a05 f83a d6ab 0080 ffe8 053b
00000030: 6d0a 0080 1f6a 0000 d206 0080 6eeb 283a
0.00029436024 3.6215797e-06 0.00035846903 -4.6983873e-06 1.5599e-41 1.7633e-41 8.2294855e-06 0.0010666522
-2.0889e-41 0.0018922549 -6.1643e-41 0.0020433066 -3.74e-42 3.8069e-41 -2.447e-42 0.0006443773

mlp.6.weight f4 [32, 16]
00000000: b284 0080 695d 0080 8a50 0000 0f59 0000
00000010: 2355 0080 60b7 0000 4e68 0080 4687 0080
00000020: 454b 0080 a193 0080 7413 0080 300c 0080
00000030: 29b6 0080 ee73 0000 d513 0080 a657 0080
00000040: 8951 023c 1277 ea38 fb64 163c 8e1c 09b8
00000050: 730c 0080 918a 0000 08b6 7d39 aa3e f63c
00000060: cb29 0080 ca32 3b3d 2c19 0080 66da 493d
00000070: 645d 0000 c15d 0080 3015 0080 911c 883c
00000080: a553 203d 70f9 023a 9c62 1c3d 53ec e3b9
00000090: 2898 0000 0873 0080 8a2a 8b3a 494d bf3d
000000a0: e525 0080 91ef 473e e016 0080 66cd 473e
000000b0: d2b9 6402 1aa4 0000 9423 0080 629a 923d
000000c0: dc5f 413c 730e 3039 b923 623c a263 59b8
000000d0: 41b0 0080 8802 0180 8ade bd39 ff4e 3c3d
000000e0: 886e 0080 faa0 893d 3103 0080 3c0e 983d
000000f0: 9e6a 0080 987e 0000 921b 0000 a52e cc3c
00000100: a30e 3136 8536 1933 5b84 4036 f4f7 76b2
00000110: bf39 0080 0573 0080 819d a133 e6ab 5b38
00000120: c880 0080 0960 f934 56a7 0000 882d 6337
00000130: 2d6c 0000 1bc0 0000 d18f 0080 4e5a b036
00000140: 541e 0000 d47b 0080 6b4f 0080 9c04 0000
00000150: b023 0000 6cb2 0080 8b4f 0000 779e 0000
00000160: 9d93 0000 d635 0000 5b90 0080 9672 0080
00000170: ed0c 0000 d33a 0080 451f 0080 9941 0080
00000180: d101 0000 ed71 0080 4886 0000 7e5f 0000
00000190: 0f82 0000 7d24 0000 9aa0 0000 0639 0080
000001a0: 3331 0080 62b0 0000 c10e 0080 cf0d 0000
000001b0: c371 0080 2a7c 0080 ee53 0000 e68c 0080
000001c0: 4c80 d837 d214 ba34 a526 f137 f063 c1b3
000001d0: 682e 0080 2e32 0000 1925 4d35 d4dd cd38
000001e0: f2f8 0080 807f 2139 3b9b 0000 be58 2c39
000001f0: 0a72 0000 6c0b 0000 ac4e 0080 c473 5c38
00000200: ccd6 ee3b 3e72 c238 e463 ef3b 4dc3 2bb8
00000210: fc75 0000 833d 0080 0b22 4e39 37d7 033d
00000220: 135f 0000 b74a f93c 13a8 0080 f1dd 2e3d
00000230: 104d 0000 2768 0000 012c 0000 d7c7 593c
00000240: 3e9c 0737 799a e533 7594 1337 9f88 f7b2
00000250: 4401 0000 d62a 0000 51f3 7f34 d1b7 0f38
00000260: 5c56 0000 7201 4d38 3ba7 0080 4e71 5638
00000270: 1896 0080 5bb2 0080 6890 0000 9079 8837
00000280: d7f6 0000 d95c 0080 e620 0000 8375 0080
00000290: 754c 0080 0296 0000 f07b 0080 7e10 0000
000002a0: 5962 0080 0463 0080 ffa0 0080 392d 0000
000002b0: 9462 0180 fb84 0000 2352 0000 2419 0000
000002c0: a9aa 0000 77a9 0080 fc54 0000 c59d 0000
000002d0: 0c3e 0080 451b 0080 2903 0080 734e 0000
000002e0: db21 0080 fa2f 0000 3c37 0080 ae4a 0080
000002f0: 2a83 0080 059e 0080 9036 0080 ee8b 0080
00000300: ecfb 4422 a369 0000 4217 0000 e065 0000
00000310: 662d 0080 ae3c 0000 645a 0000 a634 8ba8
00000320: 6729 0000 4f82 9b27 ae6d 0000 9a97 3ca5
00000330: c229 0000 02d8 0180 6132 0000 5f76 1387
00000340: ac4a 313c 54f0 1839 bfbf 3e3c b90e 81b8
00000350: 3e2a 0080 f67b 0000 b5ed a239 27fa 153d
00000360: 1f7e 0080 e57d 783d c60b 0080 6072 803d
00000370: 7443 0000 907d 0000 a06a 0000 d28f ad3c
00000380: 9732 0000 91a1 0080 2291 0000 9a58 0080
00000390: 0b2a 0080 0e73 0000 f064 0080 dc7c 0080
000003a0: 2f7e 0000 166c 0000 9382 0080 c16a 0000
000003b0: f985 0000 ac96 0080 df36 0080 2555 0080
000003c0: 3c03 6936 9546 4133 b80c 7e36 8231 50b2
000003d0: e895 0080 b45e 0080 d715 d533 cfbe 7b37
000003e0: 9c3b 0080 6dc3 aa37 0010 0000 d8cd ba37
000003f0: c4a8 0000 3c43 0080 8813 0000 252c e936
-4.7602e-41 -3.3509e-41 2.8892e-41 3.1948e-41 -3.0541e-41 6.5783e-41 -3.7417e-41 -4.8527e-41
-2.7002e-41 -5.2959e-41 -6.978e-42 -4.372e-42 -6.5347e-41 4.1588e-41 -7.114e-42 -3.1442e-41
0.00795401 0.00011180168 0.009179349 -3.268994e-05 -4.466e-42 4.9708e-41 0.00024195772 0.030059177
-1.4992e-41 0.045702733 -9.03e-42 0.049280547 3.3502e-41 -3.3633e-41 -7.6e-42 0.016615184
0.03914227 0.00049962755 0.03817998 -0.0004347289 5.4583e-41 -4.1265e-41 0.0010617536 0.09340913
-1.3594e-41 0.19524981 -8.206e-42 0.19511947 1.6804122e-37 5.8869e-41 -1.2763e-41 0.071583524
0.01180264 0.0001679005 0.013802462 -5.1829622e-05 -6.3228e-41 -9.2744e-41 0.00036214694 0.045973774
-3.9651e-41 0.06720157 -1.145e-42 0.0742459 -3.8247e-41 4.5413e-41 9.89e-42 0.024924586
2.6383575e-06 3.5672674e-08 2.868727e-06 -1.4375463e-08 -2.0715e-41 -4.1261e-41 7.5257965e-08 5.237376e-05
-4.6198e-41 4.644974e-07 6.0029e-41 1.3540855e-05 3.8806e-41 6.8914e-41 -5.1592e-41 5.2557216e-06
1.088e-41 -4.4421e-41 -2.849e-41 1.654e-42 1.2802e-41 -6.4006e-41 2.8535e-41 5.6846e-41
5.2954e-41 1.9313e-41 -5.1785e-41 -4.1106e-41 4.637e-42 -2.1102e-41 -1.1217e-41 -2.3532e-41
6.52e-43 -4.0869e-41 4.8171e-41 3.4256e-41 4.6656e-41 1.309e-41 5.7613e-41 -2.0456e-41
-1.765e-41 6.3274e-41 -5.293e-42 4.954e-42 -4.081e-41 -4.4542e-41 3.0108e-41 -5.0545e-41
2.580895e-05 3.4660349e-07 2.8747434e-05 -9.0054414e-08 -1.6647e-41 1.8001e-41 7.6422435e-07 9.8164805e-05
-8.9305e-41 0.00015401654 5.5686e-41 0.00016436257 4.091e-41 4.097e-42 -2.8222e-41 5.2559903e-05
0.0072887894 9.27192e-05 0.007305609 -4.0951465e-05 4.2325e-41 -2.2066e-41 0.00019658373 0.032187667
3.4106e-41 0.030431135 -6.0294e-41 0.04269213 2.7645e-41 3.7363e-41 1.5786e-41 0.013292274
8.083005e-06 1.0691742e-07 8.796448e-06 -2.8816713e-08 4.54e-43 1.5367e-41 2.3837244e-07 3.426505e-05
3.098e-41 4.8877155e-05 -5.9991e-41 5.11271e-05 -5.3843e-41 -6.3982e-41 5.1803e-41 1.626907e-05
8.855e-41 -3.3307e-41 1.1802e-41 -4.2155e-41 -2.7428e-41 5.3813e-41 -4.446e-41 5.916e-42
-3.528e-41 -3.552e-41 -5.7755e-41 1.6223e-41 -1.27199e-40 4.7704e-41 2.9465e-41 9.019e-42
6.1221e-41 -6.0793e-41 3.0487e-41 5.6597e-41 -2.2258e-41 -9.782e-42 -1.134e-42 2.8142e-41
-1.2145e-41 1.7211e-41 -1.9814e-41 -2.679e-41 -4.7053e-41 -5.6687e-41 -1.9573e-41 -5.0197e-41
2.669632e-18 3.7895e-41 8.343e-42 3.6546e-41 -1.6286e-41 2.1768e-41 3.2426e-41 -1.5454933e-14
1.4852e-41 4.3162423e-15 3.9346e-41 -1.6357765e-16 1.498e-41 -1.69324e-40 1.8073e-41 -1.1093837e-34
0.010821026 0.00014585379 0.0116423955 -6.153942e-05 -1.5154e-41 4.4469e-41 0.00031076153 0.036615517
-4.5244e-41 0.060666937 -4.224e-42 0.06271815 2.4198e-41 4.5043e-41 3.825e-41 0.021186743
1.8148e-41 -5.7959e-41 5.2064e-41 -3.1784e-41 -1.5082e-41 4.1274e-41 -3.621e-41 -4.4791e-41
4.5266e-41 3.8774e-41 -4.6841e-41 3.8296e-41 4.806e-41 -5.4051e-41 -1.9684e-41 -3.0544e-41
3.4721588e-06 4.5000508e-08 3.7856353e-06 -1.211845e-08 -5.3776e-41 -3.3973e-41 9.922558e-08 1.5005192e-05
-2.1384e-41 2.0356581e-05 5.74e-42 2.2268781e-05 6.0542e-41 -2.4119e-41 7.006e-42 6.94908e-06

mlp.6.bias f4 [32]
00000000: f355 0080 14fe 873a f805 913b f687 ce3a
00000010: 315c a534 ca49 0000 f99c 0080 62a4 3c36
00000020: d9b0 603a a376 6435 cc42 0080 556a 0000
00000030: 2aa2 0000 6b06 b23a 56b0 0000 2315 d534
00000040: 7c8f 8e3b 0586 0000 2a43 0080 df34 0000
00000050: 961b 0080 6225 df34 b559 9f39 9bd8 da39
00000060: 40e6 c333 174a 4b3a 5393 0080 7e2e 0080
00000070: 8171 0080 4340 0625 c86a 0000 ff9f 7c38
-3.0833e-41 0.0010375404 0.0044257604 0.0015757072 3.0800723e-07 2.647e-41 -5.6311e-41 2.8109866e-06
0.0008571274 8.510926e-07 -2.3962e-41 3.8145e-41 5.8174e-41 0.0013582235 6.3257e-41 3.968972e-07
0.0043506008 4.8077e-41 -2.4094e-41 1.8967e-41 -9.896e-42 4.1564186e-07 0.0003039368 0.00041741584
9.122277e-08 0.00077548757 -5.285e-41 -1.6678e-41 -4.0718e-41 1.164442e-16 3.8306e-41 6.023049e-05

mlp.9.weight f4 [64, 32]
00000000: 3c98 0080 85b8 0f06 c737 5d8e 545f 0000
00000010: 2c56 0080 3e4c 0080 201f 0000 0921 0000
00000020: f580 0080 a149 0000 55bb 0080 bf60 0080
00000030: 9662 0000 4eaa 0000 20f8 0100 bb89 0000
00000040: 97a6 0000 b54c 0080 ae28 0000 efe3 0000
00000050: 6d93 0000 c56e 0000 8326 0080 1a43 0000
00000060: 4010 0080 ec6f 0000 65ac 0000 571b 0000
00000070: 27a0 0080 c47f 0000 1c5f 0000 7811 0000
00000080: 5472 0080 c525 abb0 614c 8cb3 a2ab 86ae
00000090: 88a8 0080 2c89 0080 2c39 0000 d7a0 2099
000000a0: 1ea5 cf1f ff3c 968b f18a 0080 6789 0080
000000b0: 7327 7100 12c3 d72a dea4 0000 75d3 2b88
000000c0: c042 c32e 5ad1 0000 0ba7 0000 d799 0000
000000d0: 2849 0000 72a7 0000 a118 ad2c 6304 f719
000000e0: 4d78 0000 a2ba 4918 2f3b 0080 b386 0080
000000f0: 2403 0000 5a57 0000 af60 0000 11de ec17
00000100: 1422 0080 69f8 173d ac83 143e cc1f 633d
00000110: 85e2 6837 e666 0080 3b92 0080 8383 0239
00000120: 7327 f73c 8364 2338 3272 0000 af5e 0080
00000130: ce2d 2ca4 374c 433d 9a93 0080 0e05 8c37
00000140: 2840 143e c1eb 0000 1c0e 0080 1f0e 0000
00000150: 1055 0080 e33a 9b37 b4a6 493c e02e 823c
00000160: be36 9236 e763 e33c 8446 0080 e102 0080
00000170: bf0e 0080 6978 3b28 be9c 0000 42ac 283b
00000180: 56af 0000 ebc0 d13a 9a2b dc3b b0df 1a3b
00000190: b75c 1835 ac1f 0080 6902 0000 0dc6 a836
000001a0: d1c0 a13a f324 d535 f52c 0080 89a3 0080
000001b0: 4819 011d d244 013b 5c1e 0080 094b 3535
000001c0: ba9b ce3b d5ed 0080 7ebe 0000 590c 0000
000001d0: 1c71 0000 6775 4b35 94af 053a 808a 273a
000001e0: 47bb 3b34 18c1 913a 4662 0000 24ad 0080
000001f0: deb2 0000 a44e e425 4b06 0000 bd8a d938
00000200: ef37 0080 eebf 1e39 f311 2d3a a746 6839
00000210: 29c1 5c33 1e59 0080 b408 0000 1139 f534
00000220: 17ab ef38 5146 1834 020d 0000 65af 0080
00000230: 2052 0000 f9fd 4039 170a 0080 54df 8233
00000240: 46a0 1b3a c937 0080 e628 0080 4f25 0000
00000250: 0268 0000 f141 9333 1a67 4538 96ca 7638
00000260: 9d00 8832 18c2 d738 b00a 0000 1711 0000
00000270: 96cd 0000 3062 1d24 f927 0000 1f51 1f37
00000280: 14bf 0000 c31a 0080 2283 0080 b074 0000
00000290: 155d 0080 bf2d 0000 6f4e 0000 1460 0000
000002a0: 8b5e 0000 e267 0000 2a77 0000 d1c8 0080
000002b0: 8120 0080 4f72 0000 ef25 0000 a836 0080
000002c0: 787d 0080 f32a 0080 6359 0080 0529 0080
000002d0: 85c2 0080 dc1a 0000 db14 0000 de29 0000
000002e0: 2db4 0000 2061 0000 8e81 0080 fe6c 0000
000002f0: b6a8 0000 7911 0080 3a14 0080 e515 0080
00000300: 251c 0180 b31f 0000 c33e 0080 b07f 0000
00000310: 6e7d 0000 b90a 0000 a2b2 0000 5419 0000
00000320: 6884 0000 5431 0000 b435 0000 bb02 0180
00000330: 07aa 0000 e5d9 0100 7c00 0000 09fb 0000
00000340: 7941 0080 c574 0000 7996 0000 33f5 0000
00000350: 336d 0000 8422 0180 141e 0080 5190 0080
00000360: 9d65 0080 96a6 0000 c386 0000 b064 0080
00000370: 4e9c 0000 744f 0080 74a5 0000 bb1f 0000
00000380: f990 0080 55bd 4238 8c9a 5239 c770 8d38
00000390: 367b 8532 8249 0080 a33c 0080 c578 1434
000003a0: 31d0 1038 a675 3b33 6832 0000 c053 0000
000003b0: 52cb df85 f3b3 6938 ffb2 0080 a45a 9f32
000003c0: fb7c 3c39 9c30 0080 f99f 0000 ca63 0080
000003d0: 458c 0080 81e8 b232 14f8 6f37 a939 9537
000003e0: 1e47 a231 c9ff 0138 d339 0000 b28f 0000
000003f0: 2551 0000 d122 4023 f73f 0080 c9a2 4036
-5.4611e-41 2.7030874e-35 -2.7267209e-30 3.4197e-41 -3.0913e-41 -2.735e-41 1.1166e-41 1.1851e-41
-4.6261e-41 2.6413e-41 -6.7202e-41 -3.4706e-41 3.5366e-41 6.1094e-41 1.80846e-40 4.9408e-41
5.9761e-41 -2.7517e-41 1.4593e-41 8.1767e-41 5.2886e-41 3.9737e-41 -1.3815e-41 2.4072e-41
-5.83e-42 4.015e-41 6.1844e-41 9.808e-42 -5.7452e-41 4.5834e-41 3.4119e-41 6.267e-42
-4.1013e-41 -1.2452622e-09 -6.533151e-08 -6.1241026e-11 -6.0458e-41 -4.9208e-41 2.051e-41 -8.3042875e-24
8.7941074e-20 -5.7869675e-32 -4.9843e-41 -4.929e-41 1.0391563e-38 3.832703e-13 5.9143e-41 -5.1707007e-34
8.8794305e-11 7.5101e-41 5.9924e-41 5.5187e-41 2.6244e-41 6.0068e-41 4.91969e-12 2.5540973e-23
4.3156e-41 2.6072867e-24 -2.1231e-41 -4.8321e-41 1.127e-42 3.1336e-41 3.4684e-41 1.53072e-24
-1.2225e-41 0.037102137 0.14503354 0.055450246 1.3881018e-05 -3.6913e-41 -5.2458e-41 0.00012446758
0.030170178 3.8955837e-05 4.0966e-41 -3.3966e-41 -3.7335353e-17 0.047680106 -5.295e-41 1.6691654e-05
0.14477599 8.4573e-41 -5.061e-42 5.066e-42 -3.0515e-41 1.8504861e-05 0.0123078115 0.015891492
4.357512e-06 0.027757598 -2.5296e-41 -1.033e-42 -5.29e-42 1.0406695e-14 5.6229e-41 0.002573744
6.2899e-41 0.0016002929 0.006719065 0.0023631863 5.675933e-07 -1.1362e-41 8.65e-43 5.0298463e-06
0.0012340789 1.588049e-06 -1.6128e-41 -5.8665e-41 1.7086078e-21 0.0019724858 -1.0891e-41 6.7536945e-07
0.006305185 -8.5318e-41 6.8336e-41 4.43e-42 4.0576e-41 7.5794236e-07 0.00050997105 0.00063911825
1.7483863e-07 0.0011120168 3.5254e-41 -6.2111e-41 6.4165e-41 3.9604984e-16 2.257e-42 0.00010373208
-2.0065e-41 0.00015139554 0.0006602101 0.00022151564 5.139842e-08 -3.1969e-41 3.122e-42 4.5676327e-07
0.00011428276 1.4181684e-07 4.666e-42 -6.292e-41 2.9461e-41 0.00018405159 -3.62e-42 6.09422e-08
0.00059366634 -2.0012e-41 -1.4672e-41 1.3384e-41 3.7311e-41 6.8572156e-08 4.706448e-05 5.8839643e-05
1.5832763e-08 0.00010288152 3.834e-42 6.13e-42 7.375e-41 3.4127116e-17 1.434e-41 9.496026e-06
6.8546e-41 -9.6e-42 -4.7042e-41 4.186e-41 -3.3392e-41 1.641e-41 2.8137e-41 3.4466e-41
3.3916e-41 3.7266e-41 4.2748e-41 -7.204e-41 -1.166e-41 4.1006e-41 1.3608e-41 -1.9607e-41
-4.501e-41 -1.5407e-41 -3.2066e-41 -1.4715e-41 -6.978e-41 9.635e-42 7.482e-42 1.5019e-41
6.4635e-41 3.4842e-41 -4.6475e-41 3.9099e-41 6.0522e-41 -6.268e-42 -7.256e-42 -7.854e-42
-1.01932e-40 1.1372e-41 -2.2515e-41 4.5806e-41 4.4996e-41 3.847e-42 6.4081e-41 9.086e-42
4.7498e-41 1.7696e-41 1.9265e-41 -9.2815e-41 6.0994e-41 1.70001e-40 1.74e-43 9.0054e-41
-2.3487e-41 4.1889e-41 5.398e-41 8.7961e-41 3.9173e-41 -1.04217e-40 -1.079e-41 -5.1771e-41
-3.6452e-41 5.976e-41 4.8343e-41 -3.612e-41 5.6072e-41 -2.8502e-41 5.9353e-41 1.1383e-41
-5.2006e-41 4.6429534e-05 0.00020084734 6.74441e-05 1.5539268e-08 -2.637e-41 -2.1752e-41 1.382751e-07
3.452617e-05 4.364633e-08 1.8082e-41 3.0044e-41 -2.1045507e-35 5.571912e-05 -6.4212e-41 1.8551255e-08
0.00017975636 -1.7438e-41 5.7387e-41 -3.5798e-41 -5.0319e-41 2.0827658e-08 1.430327e-05 1.7789034e-05
4.7229056e-09 3.0994215e-05 2.0743e-41 5.1548e-41 2.9109e-41 1.04157135e-17 -2.2946e-41 2.8704983e-06

mlp.9.bias f4 [64]
00000000: ba3c 0000 1a10 0000 c398 ef3b 11b8 9839
00000010: 0ef5 d937 4c11 0000 4d96 0000 5639 ff36
00000020: 82f1 4735 0dc4 ac3b 1630 2c32 fb42 0000
00000030: d664 0000 3bab 0080 38c4 1130 82df 883b
00000040: 6928 0000 5fe4 a73a ac45 0080 ad65 0000
00000050: d4ac 0000 d89d e43a a06e 0080 0c1b f531
00000060: a444 4b34 a960 0080 7e48 0080 c756 3f30
00000070: 932a 0080 9e5f 0080 ce06 0080 a306 b938
00000080: 890f aa2d 7818 0080 3496 4d3a 44ca fc34
00000090: 675e 663b c0c4 f83b 288c 0000 a5f3 bc94
000000a0: dc16 0000 6b2b ea19 9052 8c1e 118e 0000
000000b0: f77b 0080 c971 0000 8482 0000 f146 0080
000000c0: 1755 0000 ce8e 8133 fbb3 0080 873f 1d3a
000000d0: be19 893b 9004 0080 5af3 ec39 1691 0000
000000e0: 6d9c 443b a912 1d3b 232e 0080 91a9 4892
000000f0: c0a2 0000 8f74 0000 2b92 f32a c7af 573b
2.1785e-41 5.776e-42 0.007311912 0.0002912884 2.5982528e-05 6.205e-42 5.3918e-41 7.606267e-06
7.4484717e-07 0.0052723945 1.0022651e-08 2.4028e-41 3.6173e-41 -6.1426e-41 5.3029536e-10 0.004177035
1.4496e-41 0.0012809149 -2.4994e-41 3.6474e-41 6.1999e-41 0.0017442061 -3.9685e-41 7.1335133e-09
1.893082e-07 -3.4675e-41 -2.6005e-41 6.9608713e-10 -1.5273e-41 -3.4301e-41 -2.441e-42 8.8227236e-05
1.9333661e-11 -8.778e-42 0.00078425114 4.7085825e-07 0.0035151483 0.007591814 5.0279e-41 -1.907925e-26
8.2e-42 2.421257e-23 1.4857224e-20 5.0964e-41 -4.447e-41 4.0818e-41 4.682e-41 -2.5449e-41
3.0524e-41 6.0330066e-08 -6.4565e-41 0.0005998541 0.004183977 -1.637e-42 0.0004519474 5.2047e-41
0.0030000464 0.002396742 -1.6551e-41 -6.331788e-28 5.8384e-41 4.1813e-41 4.3266896e-13 0.0032911168

mlp.12.weight f4 [128, 64]
00000000: 238f 0000 f968 0000 a834 0a80 c70d 0180
00000010: c99b 0000 0d21 0180 3535 0080 6a6a 0080
00000020: 8ab4 0000 f9d9 1a80 7d7d 0080 1e44 0080
00000030: a522 0000 9a6b 0080 55b3 0080 bb9e 0580
00000040: ec0a 0080 2a3d 0280 af0c 0080 b1d8 0080
00000050: 8cac 0000 c4d4 0480 68b1 0000 747a 0080
00000060: 0c84 0080 8d6d 0000 b0e3 0000 b1d1 0000
00000070: c51c 0000 a108 0080 a72b 0180 4f24 0080
00000080: 5b8c 0080 9da0 0080 0248 0480 e077 0000
00000090: 69e9 1080 4cc7 0680 a081 0080 f211 0080
000000a0: 6298 0080 d178 0000 cc2a 0280 0e62 0000
000000b0: 2605 0080 1218 0080 029b 0000 3db2 0000
000000c0: a170 0080 3ca5 0000 9770 0080 7cd5 0380
000000d0: 5355 2080 2899 0080 f74c 0380 10ad 0000
000000e0: 015b 0380 9964 0180 f280 0080 456e 0000
000000f0: 2c36 0000 3f4e 0000 3a1d 0000 e032 0780
00000100: 9a20 0080 9a11 0000 e0c1 42a4 beee 0194
00000110: 6528 0000 1839 0000 d27c 0000 6a3e 5388
00000120: bfb4 9f8f f9f0 3ba1 c27c a482 b78b 0000
00000130: 4c32 0000 642b 0080 0887 0080 7d8c 1aa0
00000140: 7374 0000 fd21 259d a04a 0180 5581 0080
00000150: bfac 0000 25ba bf9d 7963 0080 5046 0000
00000160: d210 0480 430a 0180 8397 0080 333a 0080
00000170: d359 0000 010a 0000 fed1 0000 706d 3786
00000180: d96f 0000 812b 0000 de39 da8b bbf7 a98f
00000190: 1fea a899 2951 ada4 d039 0080 f238 0080
000001a0: aa8f 0080 3c91 0000 a6af 0000 5f2d 0000
000001b0: b426 0080 0d9a 0200 ce8b 0000 6080 0080
000001c0: 9280 0000 747a 0000 78a0 0080 7ed0 c49d
000001d0: 650d 369a 7a4c 0000 d599 038a 2f8c 0080
000001e0: 4cda 329c 1cbd 749d 0454 0000 a339 0080
000001f0: 47a2 0080 d783 0000 4a84 0080 61f5 c39b
00000200: 405c 0080 16b1 0080 3400 0080 613d 0000
00000210: 102c 0080 318a 0080 f172 0080 ca84 0080
00000220: 1344 0000 624b 0080 a192 0280 4b19 0080
00000230: 1c0e 0000 7002 0000 7c7b 0080 6b67 0000
00000240: 692d 0000 3ab6 0080 6d62 0080 8f67 0000
00000250: 6645 0000 5142 0080 2370 0000 1731 0080
00000260: 0721 0080 f06b 0080 13a9 0000 f79c 0080
00000270: e823 0000 7fa0 0000 597b 0080 cc69 0080
00000280: 65ad 0080 779a 0000 b330 0000 0ab7 0000
00000290: 79b0 0080 761a 0000 3d4c 0080 b5bd 0000
000002a0: f40b 0080 402b 0080 e354 0000 2ab0 0080
000002b0: f325 0100 c1aa 0080 2e56 0000 7500 0000
000002c0: 85ae 0000 dac0 0000 9c43 0000 a696 0000
000002d0: 2470 0000 8291 0080 1690 0000 01bf 0080
000002e0: bf4c 0000 40b9 0080 6138 0080 e050 0080
000002f0: 5463 0080 6cd9 0200 b10f 0080 2e57 0000
00000300: 7ba9 0080 9658 0080 3f90 0080 a598 0080
00000310: 830d 0080 af55 0000 f980 0000 7732 0080
00000320: 2166 0080 628a 0080 7c0b 0000 e73c 0000
00000330: ce81 0000 9d90 0080 56a7 0000 8042 0080
00000340: e11a 0000 756b 0000 7adc 0080 3b91 0080
00000350: 1051 0000 1c17 0080 9e17 0080 372c 0000
00000360: 4e41 0080 7543 0080 9912 0000 646b 0080
00000370: 9949 0000 309f 0080 a1bb 0080 f591 0000
00000380: eaa8 0080 be53 0080 bf07 0000 2864 0000
00000390: 3b49 0080 d6ad 0080 ec2a 0180 b0bb 0080
000003a0: 45d1 0000 0126 0000 a72b 0000 e929 0000
000003b0: 9007 0080 7c41 0080 4179 0080 cfb0 0000
000003c0: 4bb1 0000 782b 0000 e20a 0000 2374 0080
000003d0: 8d0d 0080 8897 0000 1f8c 0000 68b6 0000
000003e0: 8247 0000 7293 0080 f17d 0000 2a14 0000
000003f0: 088d 0080 f2b4 0000 bc8f 0080 2ea7 0080
5.1348e-41 3.7657e-41 -9.37244e-40 -9.6778e-41 5.5885e-41 -1.03692e-40 -1.9087e-41 -3.8174e-41
6.4765e-41 -2.465917e-39 -4.5017e-41 -2.4436e-41 1.2428e-41 -3.86e-41 -6.4332e-41 -5.16119e-40
-3.918e-42 -2.05613e-40 -4.55e-42 -7.7734e-41 6.1898e-41 -4.43668e-40 6.3641e-41 -4.3928e-41
-4.737e-41 3.93e-41 8.1679e-41 7.5223e-41 1.032e-41 -3.095e-42 -1.07495e-40 -1.3025e-41
-5.035e-41 -5.7617e-41 -3.93174e-40 4.3003e-41 -1.5531e-39 -6.22507e-40 -4.65e-41 -6.438e-42
-5.4665e-41 4.3341e-41 -1.99024e-40 3.5175e-41 -1.847e-42 -8.635e-42 5.5606e-41 6.394e-41
-4.0404e-41 5.9275e-41 -4.039e-41 -3.5209e-40 -2.969344e-39 -5.4942e-41 -3.03116e-40 6.2083e-41
-3.08153e-40 -1.27923e-40 -4.6257e-41 3.9557e-41 1.9433e-41 2.807e-41 1.0485e-41 -6.61099e-40
-1.1695e-41 6.314e-42 -4.2231263e-17 -6.559919e-27 1.4491e-41 2.0481e-41 4.4777e-41 -6.356887e-34
-1.5748231e-29 -6.367699e-19 -2.4169242e-37 5.012e-41 1.8043e-41 -1.5566e-41 -4.844e-41 -1.3090791e-19
4.1774e-41 -2.185514e-21 -1.18606e-40 -4.6396e-41 6.197e-41 -5.0749748e-21 -3.5684e-41 2.5223e-41
-3.73376e-40 -9.5517e-41 -5.4352e-41 -2.0878e-41 3.2223e-41 3.589e-42 7.5331e-41 -3.4498877e-35
4.0123e-41 1.5606e-41 -8.4057614e-32 -1.6760109e-29 -1.7465354e-23 -7.516428e-17 -2.0739e-41 -2.0428e-41
-5.1537e-41 5.21e-41 6.3011e-41 1.6276e-41 -1.3884e-41 2.38934e-40 5.0152e-41 -4.6052e-41
4.6122e-41 4.3928e-41 -5.7565e-41 -5.2096344e-21 -3.7647538e-23 2.7435e-41 -6.336353e-33 -5.0288e-41
-5.91774e-22 -3.2390898e-21 3.0139e-41 -2.0676e-41 -5.8214e-41 4.7295e-41 -4.7456e-41 -3.2418616e-22
-3.3093e-41 -6.3526e-41 -7.3e-44 2.2019e-41 -1.5807e-41 -4.9574e-41 -4.1233e-41 -4.7636e-41
2.442e-41 -2.7042e-41 -2.36272e-40 -9.073e-42 5.061e-42 8.74e-43 -4.4298e-41 3.71e-41
1.629e-41 -6.537e-41 -3.5309e-41 3.715e-41 2.4895e-41 -2.379e-41 4.0227e-41 -1.761e-41
-1.1848e-41 -3.872e-41 6.0652e-41 -5.6308e-41 1.2881e-41 5.7575e-41 -4.4249e-41 -3.7953e-41
-6.2202e-41 5.5412e-41 1.747e-41 6.5662e-41 -6.3306e-41 9.492e-42 -2.7349e-41 6.8054e-41
-4.288e-42 -1.5515e-41 3.0452e-41 -6.3196e-41 1.05449e-40 -6.1255e-41 3.0915e-41 1.64e-43
6.2606e-41 6.9182e-41 2.4254e-41 5.4042e-41 4.0228e-41 -5.2198e-41 5.1688e-41 -6.8519e-41
2.7531e-41 -6.6455e-41 -2.0225e-41 -2.9012e-41 -3.5632e-41 2.61667e-40 -5.629e-42 3.1274e-41
-6.0798e-41 -3.1779e-41 -5.1746e-41 -5.4759e-41 -4.847e-42 3.0737e-41 4.6267e-41 -1.8103e-41
-3.6637e-41 -4.9642e-41 4.12e-42 2.1848e-41 4.6565e-41 -5.1877e-41 6.0029e-41 -2.3856e-41
9.642e-42 3.8548e-41 -7.9092e-41 -5.2099e-41 2.908e-41 -8.29e-42 -8.472e-42 1.5861e-41
-2.3427e-41 -2.4199e-41 6.672e-42 -3.8524e-41 2.6402e-41 -5.7106e-41 -6.7309e-41 5.236e-41
-6.0595e-41 -3.0041e-41 2.779e-42 3.5929e-41 -2.627e-41 -6.236e-41 -1.07233e-40 -6.733e-41
7.5072e-41 1.3633e-41 1.566e-41 1.5035e-41 -2.713e-42 -2.3491e-41 -4.3498e-41 6.3427e-41
6.3601e-41 1.5594e-41 3.904e-42 -4.1662e-41 -4.861e-42 5.4359e-41 5.0266e-41 6.5435e-41
2.5652e-41 -5.2893e-41 4.5179e-41 7.234e-42 -5.0592e-41 6.4911e-41 -5.1562e-41 -5.9973e-41

mlp.12.bias f4 [128]
00000000: a66c 0080 9753 0000 3b94 0080 2521 0080
00000010: b44a dd38 34a0 0000 7521 af3b 119d e53b
00000020: bba5 0080 f7f5 ec3b 7297 0000 b213 0080
00000030: d014 0080 e1e6 cc3b baff 7622 ab7e 2f3c
00000040: cbb0 0080 3f4b 0080 121f 0000 c47a 0080
00000050: abe7 8f25 5081 0080 36a9 0000 5433 1f19
00000060: eb7e 0000 c2cd 0a3c 6e31 0080 1b90 0000
00000070: d1e3 0d30 e7bf 9d38 c2a9 1339 9841 0080
00000080: af5d 0000 4eda 7c3b d67f 0080 c17c 9732
00000090: fd81 0000 d042 613b 071e 0080 b939 0080
000000a0: 4c90 0000 5382 0080 35fc 1c2e 1627 0000
000000b0: 6298 f538 110a fa3a 62d2 562f 1e8c f410
000000c0: 8606 0000 8629 0080 1d65 0e01 c1c6 0000
000000d0: 2f2e 0000 4d4d 0000 9507 273c ea88 0d36
000000e0: f5a7 0080 de8f 0080 5cc1 d03b 6595 0080
000000f0: e5a1 0080 6e3b 2132 cc28 0000 6a19 4f34
00000100: 82cd e339 be78 0080 4c91 0d3c 5273 0000
00000110: 499d 0080 9c35 d33a 6ee8 573c 8579 0080
00000120: e857 0000 2b04 0000 5470 0000 0203 0080
00000130: 274a 0000 75d4 a738 3d2a 0080 9f63 0080
00000140: f9f4 323b 0db1 0080 43a5 0080 cfc0 0080
00000150: 8b0e 0080 8542 0080 1f34 3f0d ca3d 4439
00000160: fe7d 0080 a060 8d3b 1436 2e3c e7b5 9a9a
00000170: 3267 0080 29af 0000 b398 0000 2876 0080
00000180: 246f 0080 af12 0000 0279 0000 8d8e 0000
00000190: ddbd 0000 40e6 c21b 4a11 0080 8676 7637
000001a0: 9db8 0080 3daa 0000 cf07 0280 0468 0000
000001b0: 0966 0080 5b08 0f3b a13c d515 94fe 0f24
000001c0: 0b99 0080 601a 0080 022b 0000 e18e a03a
000001d0: 8fca 0000 a278 0080 a544 3f36 2fcb 203c
000001e0: 7d06 0000 cf37 0000 2777 0080 08b5 053c
000001f0: 258e 0080 9a52 0180 de09 0080 9435 0000
-3.8976e-41 2.9986e-41 -5.3175e-41 -1.189e-41 0.00010552016 5.747e-41 0.0053445646 0.007007249
-5.9453e-41 0.0072314697 5.4328e-41 -7.065e-42 -7.466e-42 0.006253109 3.3474597e-18 0.010711352
-6.3421e-41 -2.6993e-41 1.1146e-41 -4.404e-41 2.496353e-16 -4.6389e-41 6.0701e-41 8.230473e-24
4.553e-41 0.008471908 -1.7732e-41 5.1695e-41 5.161925e-10 7.522088e-05 0.00014082252 -2.353e-41
3.3607e-41 0.0038582268 -4.5859e-41 1.7635445e-08 4.6631e-41 0.0034372099 -1.0772e-41 -2.0707e-41
5.1764e-41 -4.6752e-41 3.5694298e-11 1.4021e-41 0.00011710894 0.0019076486 1.953793e-10 9.6456915e-29
2.34e-42 -1.4896e-41 2.6153826e-38 7.13e-41 1.6568e-41 2.773e-41 0.010194679 2.1090332e-06
-6.0252e-41 -5.161e-41 0.0063707065 -5.3593e-41 -5.8077e-41 9.384946e-09 1.4635e-41 1.9287623e-07
0.0004344993 -4.3314e-41 0.0086405985 4.1369e-41 -5.6423e-41 0.0016113999 0.013177974 -4.3593e-41
3.1535e-41 1.495e-42 4.0296e-41 -1.079e-42 2.6601e-41 8.002754e-05 -1.5152e-41 -3.5737e-41
0.002730666 -6.3514e-41 -5.9285e-41 -6.9167e-41 -5.217e-42 -2.3863e-41 5.8919158e-31 0.00018715035
-4.5197e-41 0.004314497 0.01063301 -6.3986786e-23 -3.702e-41 6.2836e-41 5.4778e-41 -4.2386e-41
-3.987e-41 6.702e-42 4.341e-41 5.1138e-41 6.811e-41 3.2243403e-22 -6.202e-42 1.46903385e-05
-6.6227e-41 6.107e-41 -1.86472e-40 3.7314e-41 -3.6603e-41 0.0021825049 8.612567e-26 3.1223818e-17
-5.4901e-41 -9.462e-42 1.5428e-41 0.0012249612 7.2664e-41 -4.3275e-41 2.8501174e-06 0.009814068
2.328e-42 2.002e-41 -4.2744e-41 0.008160837 -5.0992e-41 -1.21467e-40 -3.54e-42 1.922e-41

mlp.15.weight f4 [64, 128]
00000000: 69c9 0080 4cda 8d1a 7974 0080 172a 0000
00000010: c2e9 e139 1ea1 0180 8ba6 a53c 06a7 d73c
00000020: a5ba 0080 025b de3c 4684 0000 e7af 0000
00000030: 9cd7 0080 5bf8 c03c db15 9623 a415 233d
00000040: 2615 0180 0aa3 8f0a 33bb 0080 3736 0000
00000050: 9316 ac26 ad24 0000 2b75 0080 27cb 731a
00000060: 91bb 0080 41bd 013d 24a2 0000 fa43 0080
00000070: cd09 2731 a72d a239 8c81 163a 168d 0080
00000080: 6e99 0100 2e4e 713c 627d 7794 e984 b033
00000090: 5a23 0000 ced9 553c dc20 0000 2602 0080
000000a0: f108 0000 f7b8 0000 cb72 392f 00e4 0080
000000b0: 7251 fa39 7dfd f13b 548b 7730 b193 7312
000000c0: 8b4e 0080 c628 0000 b992 9702 ab2b 0080
000000d0: d08a 0080 7011 0100 d87c 1b3d 675b 1837
000000e0: f00d 0080 29fc 0080 1a80 c43c 1e83 0080
000000f0: 6a22 0000 9f8a 3733 62ea 7b1b 4ee0 6535
00000100: 925c e33a 6e4c 0080 5738 043d f69f 0080
00000110: 1569 0000 e94e cd3b c616 483d 03ba 0080
00000120: bb4f 0080 3a2f 0080 9e4f 0000 5faa 0080
00000130: de0c 0080 185f ac39 5d65 3d95 b6b5 0080
00000140: ba47 2c3c 9f39 0080 5c60 0000 ea78 0080
00000150: 8f55 0080 d172 0280 09e9 ad0e 0ae1 453a
00000160: 109b 0080 3c9a 863c 6007 223d 5a49 0913
00000170: e090 0000 d00a f306 05d8 0080 dac0 0080
00000180: be3c 930c 2398 0000 0e01 0100 f5a9 0000
00000190: 4a19 0000 abc0 2f1d e768 0080 902d 8138
000001a0: 6c50 0080 da5c 0080 2aed 0080 d067 0000
000001b0: f18f 0000 80f5 093c 0da1 8d17 39ee 2f25
000001c0: 2534 0000 6393 0080 40d5 0000 9b94 9c3b
000001d0: 9a51 0200 7686 0080 8eaf 4f37 01c2 153d
000001e0: 6009 0000 9f3b 0080 808d 0000 d334 fa3c
000001f0: b271 0080 c691 0080 6531 0080 919a 0080
00000200: 7e66 0000 9659 0000 b6a4 0000 ddda 0080
00000210: ea89 0000 fd3e 0080 07dd 0080 765b 0000
00000220: e19b 0000 4518 0000 ed81 0000 60a6 0080
00000230: a9a2 0000 660a 0080 7b4a 0000 f02e 0080
00000240: 0048 0000 ca60 0080 d1a0 0080 a324 0080
00000250: da20 0080 fa6e 0080 0eb8 0080 b96f 0000
00000260: 752b 0000 824f 0000 745a 0000 be65 0080
00000270: 2694 0000 9566 0000 fd4f 0000 a46a 0080
00000280: edb3 0080 2569 0080 aa1e 0000 0906 0000
00000290: 86b1 0080 5a19 0080 3338 0080 9301 0000
000002a0: d65c 0080 df48 0000 a28f 0080 2131 0000
000002b0: d602 0000 bab5 0000 7aaf 0000 0477 0080
000002c0: 2275 0000 1bfa 0000 9d2b 0080 c39f 0080
000002d0: af6e 0000 6899 0080 fe03 0080 7c52 0000
000002e0: 5556 0080 5514 0080 1d7b 0080 1b80 0080
000002f0: 3e4a 0080 1234 0080 a17c 0000 9650 0000
00000300: 622c 0080 0f33 0000 0c52 0000 e562 0080
00000310: ef38 0000 ea55 0000 472f 0080 5e88 0100
00000320: db7a 0080 a996 0000 a4b7 0000 fe5b 0000
00000330: df07 0080 9c16 0080 aa2a 0080 1283 0080
00000340: 626d 0080 ec5a 0000 6a99 0000 8f54 0080
00000350: 2647 0000 2e04 0080 2242 0000 4d35 0080
00000360: 5211 0080 3834 0000 501c 0080 ba7f 0000
00000370: 2d44 0000 067c 0000 dfb4 0080 f0e8 0000
00000380: 544f 0000 e6b3 0080 0c40 0080 5008 0000
00000390: 5904 0000 f569 0000 738d 0180 dd51 0080
000003a0: c0c4 0080 19a1 0080 2a4d 0080 5d97 0000
000003b0: 945a 0080 d64c 0080 5464 0000 e720 0000
000003c0: f6cb 0180 e795 0000 f742 0000 ceb4 0080
000003d0: 1e01 0000 ca13 0180 9585 0080 fd02 0080
000003e0: b5a2 0080 3c6b 0080 a947 0000 3b47 0080
000003f0: 20f7 0000 192e 0080 e478 0080 70b6 0000
-7.2252e-41 5.866891e-23 -4.1783e-41 1.5099e-41 0.00043089507 -1.49633e-40 0.020221015 0.02632476
-6.6955e-41 0.027143005 4.7451e-41 6.3102e-41 -7.7346e-41 0.023555925 1.6272289e-17 0.03981556
-9.9422e-41 1.3831728e-32 -6.7154e-41 1.9449e-41 1.1941016e-15 1.3157e-41 -4.2032e-41 5.0415327e-23
-6.7286e-41 0.031674627 5.8165e-41 -2.4385e-41 2.430727e-09 0.00030933061 0.000574135 -5.0612e-41
1.46876e-40 0.014728112 -1.24950406e-26 8.219815e-08 1.2682e-41 0.013052417 1.1788e-41 -7.71e-43
3.208e-42 6.6353e-41 1.6866435e-10 -8.1791e-41 0.00047744397 0.0073849545 9.0056074e-10 7.6859324e-28
-2.8176e-41 1.4627e-41 2.227167e-37 -1.5665e-41 -4.9797e-41 9.8091e-41 0.037960857 9.081187e-06
-5e-42 -9.0458e-41 0.023986865 -4.7036e-41 1.2345e-41 4.2734083e-08 2.0837967e-22 8.5635554e-07
0.0017346314 -2.7418e-41 0.032280292 -5.7383e-41 3.7696e-41 0.0062655103 0.048849843 -6.6728e-41
-2.8602e-41 -1.6942e-41 2.8561e-41 -6.1118e-41 -4.616e-42 0.00032877247 -3.8248208e-26 -6.5186e-41
0.010515148 -2.067e-41 3.4567e-41 -4.3376e-41 -3.0693e-41 -2.2486e-40 4.2872197e-30 0.0007548487
-5.5626e-41 0.016430967 0.039557815 1.7327996e-27 5.1971e-41 9.142233e-35 -7.7493e-41 -6.9182e-41
2.2685494e-31 5.4576e-41 9.2214e-41 6.0969e-41 9.072e-42 2.3260664e-21 -3.7632e-41 6.159686e-05
-2.885e-41 -3.3309e-41 -8.5078e-41 3.7241e-41 5.1636e-41 0.008420348 9.152566e-25 1.5259543e-16
1.8706e-41 -5.2872e-41 7.65e-41 0.0047784573 2.12944e-40 -4.8235e-41 1.2379036e-05 0.03656197
3.363e-42 -2.1388e-41 5.076e-41 0.030542767 -4.0786e-41 -5.2294e-41 -1.772e-41 -5.5448e-41
3.6767e-41 3.2137e-41 5.9087e-41 -7.8513e-41 4.9474e-41 -2.2596e-41 -7.929e-41 3.281e-41
5.5919e-41 8.706e-42 4.6609e-41 -5.9684e-41 5.8351e-41 -3.73e-42 2.6719e-41 -1.6838e-41
2.5829e-41 -3.4721e-41 -5.769e-41 -1.3143e-41 -1.1785e-41 -3.9811e-41 -6.6026e-41 4.0079e-41
1.559e-41 2.8522e-41 3.2448e-41 -3.6498e-41 5.3146e-41 3.68e-41 2.8694e-41 -3.8255e-41
-6.4545e-41 -3.7719e-41 1.1e-41 2.165e-42 -6.3683e-41 -9.094e-42 -2.016e-41 5.65e-43
-3.3303e-41 2.6141e-41 -5.1526e-41 1.7624e-41 1.017e-42 6.5191e-41 6.2949e-41 -4.2695e-41
4.202e-41 8.9721e-41 -1.5645e-41 -5.7312e-41 3.9706e-41 -5.5032e-41 -1.432e-42 2.959e-41
-3.097e-41 -7.294e-42 -4.4165e-41 -4.5956e-41 -2.6633e-41 -1.868e-41 4.4708e-41 2.8909e-41
-1.5922e-41 1.8316e-41 2.9433e-41 -3.5477e-41 2.0424e-41 3.082e-41 -1.696e-41 1.40755e-40
-4.4072e-41 5.4047e-41 6.5878e-41 3.3e-41 -2.824e-42 -8.111e-42 -1.5305e-41 -4.7019e-41
-3.9239e-41 3.2617e-41 5.5035e-41 -3.0334e-41 2.5523e-41 -1.5e-42 2.3724e-41 -1.9121e-41
-6.213e-42 1.8733e-41 -1.0157e-41 4.582e-41 2.4457e-41 4.4491e-41 -6.4884e-41 8.3562e-41
2.8458e-41 -6.4535e-41 -2.2976e-41 2.982e-42 1.56e-42 3.801e-41 -1.42578e-40 -2.9367e-41
-7.058e-41 -5.7791e-41 -2.7681e-41 5.4299e-41 -3.2493e-41 -2.7564e-41 3.5991e-41 1.1803e-41
-1.65003e-40 5.3775e-41 2.4022e-41 -6.486e-41 4.01e-43 -9.8934e-41 -4.792e-41 -1.072e-42
-5.8368e-41 -3.8468e-41 2.5707e-41 -2.5553e-41 8.8652e-41 -1.6537e-41 -4.3367e-41 6.5446e-41

mlp.15.bias f4 [64]
00000000: f17a a23c 952e 0080 9dc7 423c 823c f039
00000010: 39a7 0080 9149 3e3c 1361 0080 4c36 0000
00000020: 3e92 0000 5681 0080 9d17 0080 784c b822
00000030: 2330 6436 a942 0080 d493 0000 e99f cc3c
00000040: b699 0080 844e e83b 9d67 4f81 203b 0080
00000050: 2229 0000 3a4b 0080 7151 0000 7dea 981c
00000060: 8e7a 05a0 ab97 0000 5751 0000 fb5a e43c
00000070: c3c7 0000 2e91 0080 829e 0080 405d 0080
00000080: 2dfa c98f e64e 0080 a14b 0080 9cfe 0080
00000090: e9a2 0000 8f61 0080 53a0 0000 da90 0000
000000a0: 052c 0080 658b 0000 99db d43c dad2 963c
000000b0: 2f72 0000 b832 0080 71cc 4a3c c827 0080
000000c0: 33dc fb31 7598 d83a ac85 0080 756a 0000
000000d0: e718 6c22 9930 0080 41fa ae3c b73a 0080
000000e0: 6033 0280 2129 0c3b e554 193d a891 0080
000000f0: 6712 0080 7fb8 0638 9771 0000 9356 883c
0.019834014 -1.671e-41 0.011888412 0.0004582145 -5.9988e-41 0.011614219 -3.4824e-41 1.9478e-41
5.2462e-41 -4.6397e-41 -8.471e-42 4.9954264e-18 3.4002667e-06 -2.3913e-41 5.3031e-41 0.024978595
-5.5141e-41 0.007089438 -3.8094234e-38 -2.121e-41 1.4756e-41 -2.6986e-41 2.9216e-41 1.011913e-21
-1.1306088e-19 5.4408e-41 2.9179e-41 0.027875414 7.1661e-41 -5.208e-41 -5.6862e-41 -3.3452e-41
-1.9916494e-29 -2.8303e-41 -2.713e-41 -9.1337e-41 5.8441e-41 -3.4997e-41 5.7513e-41 5.1963e-41
-1.5791e-41 5.0005e-41 0.025983619 0.018411089 4.0961e-41 -1.8194e-41 0.012377844 -1.4271e-41
7.330095e-09 0.0016524928 -4.7952e-41 3.819e-41 3.1997147e-18 -1.7434e-41 0.021359565 -2.1063e-41
-2.02101e-40 0.002138682 0.037434477 -5.2252e-41 -6.602e-42 3.2119915e-05 4.0748e-41 0.016642844

mlp.18.weight f4 [8, 64]
00000000: b08c 0080 ea08 0080 ea26 0000 0325 0080
00000010: 217f 0000 757d 0080 a255 0000 3a30 0000
00000020: 64c6 0000 d57d 0000 a933 0080 258d 0000
00000030: 749f 0080 3ed7 0000 ba6c 0080 0ba4 0080
00000040: 10a9 0000 6969 0080 8a5e 0080 4e6e 0000
00000050: 575f 0080 c56c 0000 93a3 0000 8e7d 0080
00000060: 3da8 0000 7998 0000 be34 0080 9e8d 0080
00000070: bcbe 0000 3536 0080 392b 0080 f6ad 0080
00000080: 8dae 0000 d095 0000 8196 0080 7396 0000
00000090: 1916 0080 28b3 0000 2f93 0000 236a 0080
000000a0: e944 0080 a19f 0000 89af 0080 cb05 0000
000000b0: 192a 0000 8efc 0080 1425 0080 be5b 0080
000000c0: 6b75 0000 9356 0080 e51f 0000 171a 0000
000000d0: cb97 0080 10f5 0080 90b3 0080 7c0e 0080
000000e0: 432b 0080 158f 0000 0189 0080 b79c 0000
000000f0: 0c32 0080 2761 0000 3e2a 0000 af34 0080
00000100: 88f1 883d 39b7 0080 418c 373d 9626 f03a
00000110: 35ac 0080 da2a 2e3d fb43 0000 b060 aa0c
00000120: 9744 0000 e3ac 0000 9563 4429 f4c8 dd24
00000130: 6b18 5137 dc1c 0000 82b5 0080 c5a6 b83d
00000140: 3095 0000 dd24 d53c 4507 b884 2030 0080
00000150: 78a8 0000 1387 0000 a402 0000 cf74 a21d
00000160: 2fc2 5e21 6431 0080 3021 0000 951f d73d
00000170: 9a45 0000 3b61 0000 5a0a 4399 fa9d 0000
00000180: 88d3 6fb5 38ca ea00 2499 0000 5a85 0000
00000190: 6c4d 0000 dd5f 0080 742e 0080 b41c 0000
000001a0: 7f36 9b2f c72c 0080 0105 bf3d 4113 873d
000001b0: 936d 0080 ce71 0000 bb99 513d bf17 0000
000001c0: ab0b d732 ca7f c43b 018b 0000 b57c 0000
000001d0: 0fc6 6a23 dd60 6697 183d b13d aa7b 0000
000001e0: 4044 0080 7f32 013c c342 153e 6b89 0080
000001f0: 50d0 1490 e71d bf38 eb32 0000 bf0e 7e3d
00000200: 7447 942c 2d91 0080 e6ec 6e2b 9db4 c929
00000210: e25a 0000 af92 fa2b 748e 0080 2937 0080
00000220: 3c5b 0080 846f 0080 a082 2723 919b 1414
00000230: a0fb aea5 f89f 0000 2e38 0000 e816 af2c
00000240: e109 0000 bb25 492f ddfe 0000 8059 0000
00000250: c94c 0000 55bb 0080 ea0a 0000 de96 c60c
00000260: 68cc 3010 130f 0080 5108 0000 08e3 502c
00000270: 320c 0080 d87d 0080 5264 0000 e155 0f07
00000280: d91f a82f be7e 0000 4c10 0000 1d41 0000
00000290: 6694 0000 6b22 0080 e2dd 0000 a048 0080
000002a0: 01fe 8d8e f98e c616 5dc3 aa2c 12b8 6f2c
000002b0: 4e25 0000 3517 0080 479b 312c 3c42 0000
000002c0: db82 83a6 3e7f c0a9 a524 0080 4719 0000
000002d0: 1236 b61e 9fa3 0080 2bf3 a12c 560d 0080
000002e0: 165e 0000 bfb6 d02a c4ce 0f2d bc0f 0080
000002f0: 9c2b 3b20 094f 87b2 f351 0000 b4e4 4a2c
00000300: fa73 8a3c 9e47 0080 aecb 243c 26e6 c939
00000310: 1429 0080 7628 203c 0411 0180 96d1 ae06
00000320: 878d 0000 8c8c 0000 bd71 0000 4e4a 92a4
00000330: 56a1 4336 8420 0080 f124 0080 e7fa b03c
00000340: 38ae 0080 541c c03b 34e7 d883 c4a6 0080
00000350: 29c5 0000 f85a 0000 a46d 0080 8d23 8a9c
00000360: 7e57 9021 b7a9 0080 029a 0080 3ad8 c63c
00000370: 79e7 0080 8a00 0080 4b13 b491 c82b 0080
00000380: 8d4e eb89 a220 0400 b585 0080 5a10 0000
00000390: 5690 0080 4938 0000 4802 0080 1bb5 0000
000003a0: 0ebe df22 43b1 0000 81cb b83c 228a 803c
000003b0: 8ddd 0000 5b5f 0000 a788 2d3c b644 0000
000003c0: 7a5a 9a30 cc6e b23a af57 0080 5803 0000
000003d0: d0b7 30a3 20a9 0000 19a1 983c 8639 0080
000003e0: aa98 0280 d36e e73a 834d 093d a649 0000
000003f0: 763a 0000 1a58 b937 1f7d 0000 b7b4 683c
-5.0469e-41 -3.198e-42 1.396e-41 -1.3277e-41 4.5605e-41 -4.5006e-41 3.0719e-41 1.73e-41
7.1169e-41 4.514e-41 -1.8532e-41 5.0633e-41 -5.7201e-41 7.7214e-41 -3.9004e-41 -5.8848e-41
6.0648e-41 -3.7814e-41 -3.3914e-41 3.957e-41 -3.4201e-41 3.9019e-41 5.868e-41 -4.504e-41
6.0353e-41 5.4697e-41 -1.892e-41 -5.0803e-41 6.8423e-41 -1.9446e-41 -1.5505e-41 -6.2405e-41
6.2617e-41 5.3743e-41 -5.399e-41 5.3971e-41 -7.927e-42 6.4269e-41 5.28e-41 -3.8075e-41
-2.472e-41 5.7264e-41 -6.297e-41 2.078e-42 1.5102e-41 -9.06e-41 -1.3301e-41 -3.2911e-41
4.2122e-41 -3.1057e-41 1.1442e-41 9.359e-42 -5.4453e-41 -8.7912e-41 -6.4415e-41 -5.196e-42
-1.552e-41 5.1328e-41 -4.9148e-41 5.6219e-41 -1.7953e-41 3.4852e-41 1.5154e-41 -1.89e-41
0.066866934 -6.5728e-41 0.04481149 0.0018322046 -6.1776e-41 0.042521335 2.4387e-41 2.625084e-31
2.4605e-41 6.202e-41 4.3607116e-14 9.61839e-17 1.2463056e-05 1.0353e-41 -6.5113e-41 0.09016184
5.3518e-41 0.026018554 -4.3264868e-36 -1.7264e-41 6.0435e-41 4.8455e-41 9.47e-43 4.300182e-21
7.5473526e-19 -1.7718e-41 1.1905e-41 0.10504071 2.4968e-41 3.488e-41 -1.0083354e-23 5.6671e-41
-8.9342257e-07 2.1562049e-38 5.4937e-41 4.7838e-41 2.7774e-41 -3.4389e-41 -1.6664e-41 1.0297e-41
2.8233058e-10 -1.6063e-41 0.09327126 0.06595469 -3.9308e-41 4.0825e-41 0.051172 8.518e-42
2.50346e-08 0.005996679 4.9865e-41 4.4736e-41 1.2727106e-17 -7.4439267e-25 0.08654231 4.4362e-41
-2.4483e-41 0.007885574 0.14576249 -4.9296e-41 -2.9348332e-29 9.1131595e-05 1.8266e-41 0.06202578
4.214346e-12 -5.2079e-41 8.488335e-13 8.9575245e-14 3.2603e-41 1.7804281e-12 -5.1103e-41 -1.9788e-41
-3.2729e-41 -4.0004e-41 9.080749e-18 7.5027706e-27 -3.0354696e-16 5.7386e-41 2.0153e-41 4.9763423e-12
3.544e-42 1.8294248e-10 9.1428e-41 3.2107e-41 2.7545e-41 -6.7202e-41 3.915e-42 3.059753e-31
3.486735e-29 -5.408e-42 2.983e-42 2.9684605e-12 -4.375e-42 -4.5144e-41 3.5988e-41 1.0783362e-34
3.058165e-10 4.5467e-41 5.846e-42 2.3358e-41 5.3235e-41 -1.2347e-41 7.9597e-41 -2.6053e-41
-3.500378e-30 3.2078854e-25 4.8533803e-12 3.4066122e-12 1.3382e-41 -8.325e-42 2.523941e-12 2.376e-41
-9.125419e-16 -8.548586e-14 -1.3146e-41 9.068e-42 1.9292363e-20 -5.8696e-41 4.6028923e-12 -4.784e-42
3.3752e-41 3.7075028e-13 8.17452e-12 -5.644e-42 1.5853945e-19 -1.575201e-08 2.9398e-41 2.8832882e-12
0.016901005 -2.5691e-41 0.010058327 0.00038509181 -1.4736e-41 0.009775272 -9.794e-41 6.5759484e-35
5.077e-41 5.0419e-41 4.0802e-41 -6.3443284e-17 2.9151174e-06 -1.1664e-41 -1.3252e-41 0.021604015
-6.2498e-41 0.005862752 -1.2748421e-36 -5.9824e-41 7.0728e-41 3.2633e-41 -3.9332e-41 -9.141264e-22
9.780979e-19 -6.0882e-41 -5.5248e-41 0.024273027 -8.3037e-41 -1.93e-43 -2.8410883e-28 -1.5706e-41
-5.664806e-33 3.79048e-40 -4.7965e-41 5.866e-42 -5.1778e-41 2.0191e-41 -8.18e-43 6.4968e-41
6.06455e-18 6.359e-41 0.022557976 0.015690867 7.9477e-41 3.4207e-41 0.0105916625 2.4649e-41
1.123069e-09 0.0013613342 -3.1455e-41 1.2e-42 -9.579903e-18 6.067e-41 0.018631505 -2.0636e-41
-2.38437e-40 0.001765693 0.033521187 2.642e-41 2.0972e-41 2.2094744e-05 4.4885e-41 0.014203242

mlp.18.bias f4 [8]
00000000: 65ca 0080 9f0e b63d e0da ea2c aa58 b23c
00000010: 9313 f93d a4f6 3b27 1cb2 0080 5dbf e938
-7.2605e-41 0.088895075 6.67498e-12 0.021770794 0.121619366 2.6085167e-15 -6.3894e-41 0.0001114595

mlp.21.weight f4 [1, 8]
00000000: 5e73 0080 2233 92be cb71 abad 7dc5 8dbd
00000010: 4694 c9be d39a 8539 a74b 0080 2623 d4b9
-4.1386e-41 -0.28554636 -1.9490983e-11 -0.069224335 -0.39370936 0.0002548309 -2.7139e-41 -0.0004046198
