model_saved/2024-01-25-07-49-50/model_2024-01-25-07-50-09_epoch_3000_train_mse_2.03e-02_val_mse_1.99e-02.pt (torch, 88323 bytes, 15 tensors)

mlp.0.weight f4 [8, 8]
000000 7b 7e 00 00 c6 18 00 80 8f a7 00 00 11 a8 00 80
       4.5373e-41 -8.887e-42 6.0109e-41 -6.0291e-41
000010 7b 0e 00 80 aa 1a 00 00 c1 5c 00 00 07 99 00 80
       -5.195e-42 9.565e-42 3.3274e-41 -5.4896e-41
000020 6e b8 b5 3d 7f d5 9d bd a9 19 99 bb c7 d7 d6 39
       0.08873068 -0.07706737 -0.0046722484 0.00040978027
000030 ed 16 b8 39 2b e3 95 39 41 ec 20 39 7c b8 44 39
       0.00035112296 0.00028588748 0.000153468 0.00018760742
000040 47 08 bd bd d3 73 b9 3d 46 7a be 3c 3a 90 16 bb
       -0.092300944 0.09055295 0.023251664 -0.002297415
000050 71 e3 8d ba 4f c7 61 ba ed ca a6 3a 70 73 a7 ba
       -0.0010825229 -0.0008612768 0.0012725272 -0.0012775492
000060 fa 4d 4b bd 65 8f 89 3d 04 c4 76 3c 04 22 10 bb
       -0.04963491 0.067168035 0.015061382 -0.002199293
000070 16 b1 b3 ba 49 64 88 ba 22 f4 1a 3a d9 a8 8f ba
       -0.0013709392 -0.0010405864 0.00059110124 -0.0010960355
000080 9e a3 87 3e 7b 6e 1a be 75 6d 05 3d 56 2a 2f 3b
       0.26492018 -0.15081207 0.03257509 0.0026728115
000090 60 04 11 3b d7 10 e0 3a 83 50 e1 3a ac 0f a2 3a
       0.0022127852 0.0017094862 0.0017190132 0.001236429
0000a0 35 f6 11 be 89 e4 3b 3e 68 dd a4 3d 04 2d dd bb
       -0.14254077 0.18348898 0.080500424 -0.006749751
0000b0 dd cd 7f bb 59 44 34 bb 25 d5 59 3b 58 b2 53 bb
       -0.0039032616 -0.0027506559 0.0033238616 -0.0032302346
0000c0 8e a0 1c 3e 5f 14 96 3e 9b 7c 5d 3e 66 fb 4d bc
       0.15295622 0.29312417 0.21629564 -0.012572145
0000d0 2c a9 e2 bb a5 33 9f bb 60 bd 25 3c f3 cd d1 bb
       -0.0069171395 -0.0048584514 0.010115951 -0.006402725
0000e0 4a 66 40 bc d7 35 9c 3d 34 92 77 3d bd d6 35 bb
       -0.011743138 0.07627457 0.060442165 -0.0027746402
0000f0 9a cf cd ba 5f 35 95 ba 45 dd db 3a ba f3 b7 ba
       -0.0015702129 -0.0011383704 0.0016774317 -0.0014034428

mlp.0.bias f4 [8]
000000 73 14 00 00 5b 0e 15 b7 82 77 dc b7 2d b9 01 39
       7.336e-42 -8.8844345e-06 -2.6281694e-05 0.00012371382
000010 fc 4d 50 38 e7 ba 48 3a e2 70 27 3b bf 90 e9 39
       4.9663693e-05 0.0007657245 0.002554946 0.00044549067

mlp.3.weight f4 [16, 8]
000000 8d 31 00 80 06 f1 1c b9 ad 4a 6d 3c c1 ea 1e 3c
       -1.7775e-41 -0.00014967108 0.014483136 0.009699524
000010 2f 4e bd bb 6b 7b 04 3d f5 0a c4 3d 75 c2 46 3c
       -0.0057771425 0.032344263 0.095724024 0.012131323
000020 6c 41 00 80 c2 d2 13 b8 f1 fa 14 3a 9e 7d db 39
       -2.3469e-41 -3.5243815e-05 0.0005683145 0.00041864527
000030 2a a3 39 39 a3 25 be 3a cb 0f 65 3b 6f ef 22 3a
       0.00017703758 0.0014507066 0.003495204 0.0006215488
000040 15 28 00 80 91 b8 19 bb d8 b0 af 3c 32 38 6b 3c
       -1.4379e-41 -0.0023455957 0.02144663 0.01435666
000050 ac f4 27 bd 3d ce 4b 3d 69 b2 ad 3d d1 60 85 3c
       -0.04100482 0.04975723 0.08481295 0.016281517
000060 45 3d 00 00 a4 31 c8 3a f8 67 8d bb af 99 38 bb
       2.198e-41 0.0015273583 -0.0043153726 -0.0028167774
000070 36 9e 93 3d 60 8c 27 bc a3 c9 05 3c f4 a7 a2 bb
       0.07207911 -0.010226339 0.00816575 -0.004963869
000080 82 12 00 80 5b 2c 00 00 fc 15 7b 80 1a 35 00 80
       -6.64e-42 1.5912e-41 -1.1303653e-38 -1.9049e-41
000090 d0 99 00 80 e2 60 00 00 7b 96 0d 81 c0 68 00 00
       -5.5178e-41 3.4755e-41 -2.6005574e-38 3.7577e-41
0000a0 03 b4 00 80 c4 37 00 00 63 5a 00 80 3d 81 00 80
       -6.4576e-41 2.0005e-41 -3.2425e-41 -4.6362e-41
0000b0 f3 56 00 80 bc 9a 00 80 cb 95 00 80 55 39 00 80
       -3.1192e-41 -5.5508e-41 -5.3736e-41 -2.0567e-41
0000c0 ce b4 00 80 86 d5 3a b8 ba 1e 0d 3a d4 45 0e 38
       -6.486e-41 -4.4544715e-05 0.0005383302 3.392047e-05
0000d0 32 9e 6c 3b c8 e0 55 3a b9 7c ec 3b 67 00 1e bb
       0.0036105034 0.00081588 0.0072170165 -0.0024109127
0000e0 5c 19 00 80 d0 c8 44 bb 2e e8 2d 3d 6d 18 e3 3c
       -9.097e-42 -0.003002692 0.042457752 0.027721608
0000f0 d0 f1 72 3c 5b 73 b1 3d 4e 4f 69 3e fa 89 27 3d
       0.01482816 0.086645804 0.22784159 0.04090307
000100 d8 7d 00 80 b8 79 00 80 1b a1 00 00 3d 83 00 00
       -4.5144e-41 -4.3664e-41 5.7794e-41 4.708e-41
000110 c1 a6 00 00 5e 93 00 00 ab 21 00 00 18 4f 00 80
       5.982e-41 5.2865e-41 1.2078e-41 -2.8373e-41
000120 c0 0c 00 80 61 d7 d7 bb 3e 10 99 3d 26 fb 43 3d
       -4.574e-42 -0.0065869545 0.07473801 0.047846936
000130 35 a5 38 bb f7 78 1d 3e d7 b8 8f 3e f7 b2 a4 3d
       -0.0028174643 0.15378176 0.2807071 0.08041947
000140 27 27 00 80 cc bf 00 00 79 c0 97 05 4b b2 c1 87
       -1.4045e-41 6.8804e-41 1.4270675e-35 -2.9144204e-34
000150 40 23 b4 84 86 17 77 08 eb 37 b9 87 c6 8b d8 85
       -4.235017e-36 7.435651e-34 -2.7868572e-34 -2.0363887e-35
000160 e5 1f 00 00 52 5b f7 bc 07 8e a9 3d ac 59 57 3d
       1.1442e-41 -0.030194912 0.08279043 0.052575752
000170 91 3f 06 be 9f 23 2e 3e 41 e7 9e 3e a4 36 7e 3d
       -0.13110186 0.17005776 0.31035808 0.062063828
000180 41 b3 00 00 96 50 00 00 16 a9 67 29 6b 2e 00 00
       6.4304e-41 2.8909e-41 5.1438962e-14 1.6652e-41
000190 b7 0e 00 00 92 15 50 33 a3 7f 42 b7 56 b6 0c 35
       5.279e-42 4.8448392e-08 -1.1593019e-05 5.24194e-07
0001a0 4b 57 00 00 e8 34 00 80 f4 0f 01 00 60 de 00 80
       3.1315e-41 -1.8979e-41 9.7558e-41 -7.9773e-41
0001b0 50 38 00 00 59 24 00 80 6f 34 00 80 2d 02 00 00
       2.0201e-41 -1.3039e-41 -1.881e-41 7.8e-43
0001c0 26 37 00 80 d3 06 e1 07 35 6a 00 80 2e cd 00 00
       -1.9784e-41 3.3858248e-34 -3.81e-41 7.3605e-41
0001d0 6a 18 2e 80 f8 65 00 80 80 29 f5 b2 6e e3 24 1c
       -4.233191e-39 -3.658e-41 -2.8540626e-08 5.4556994e-22
0001e0 6f 5a 00 80 98 7b 36 bb 82 53 f9 3c 59 06 a4 3c
       -3.2441e-41 -0.0027844664 0.030435327 0.020022558
0001f0 91 fe a5 bc 71 28 86 3d b1 8b 0e 3e 75 61 3e 3c
       -0.020262988 0.06550682 0.13920476 0.011619915

mlp.3.bias f4 [16]
000000 e7 85 06 3a b3 c4 a6 37 e0 16 51 3a 44 08 69 b9
       0.00051316473 1.9880337e-05 0.0007976126 -0.00022223691
000010 61 97 00 80 9f 85 00 00 2c be 81 37 7c f9 d2 3a
       -5.4305e-41 4.7934e-41 1.5466554e-05 0.0016096081
000020 48 64 00 00 9a 90 46 3b 37 6e 81 02 17 bc 5a 3b
       3.5974e-41 0.0030298592 1.9018107e-37 0.003337627
000030 da 5b 00 00 6f 95 00 80 64 25 00 00 09 be 93 3a
       3.295e-41 -5.3607e-41 1.3413e-41 0.0011271845

mlp.6.weight f4 [32, 16]
000000 7c 8c 0d 80 7c 8b 00 80 51 76 0c 80 88 32 00 80
       -1.244258e-39 -5.0038e-41 -1.14447e-39 -1.8127e-41
000010 d6 b8 00 80 2e 18 00 80 30 96 01 80 7c 14 1d 00
       -6.6307e-41 -8.674e-42 -1.45713e-40 2.670578e-39
000020 32 7a 01 80 a0 08 0b 80 7d 18 00 00 75 f9 08 80
       -1.35671e-40 -1.013285e-39 8.785e-42 -8.24172e-40
000030 27 2d 00 00 28 45 00 00 c8 25 00 00 39 d1 14 80
       1.6198e-41 2.4809e-41 1.3553e-41 -1.911765e-39
000040 82 7f 20 3d 16 45 00 3a 6c 8f 97 3c 26 1a 54 3a
       0.0391841 0.0004893107 0.018501006 0.00080910546
000050 94 35 00 00 f0 17 00 80 48 b0 17 3a 5e b9 75 3d
       1.922e-41 -8.587e-42 0.0005786461 0.059991233
000060 2c 32 00 80 7e da 77 3d 5c 84 1e 86 97 0e 4e 3d
       -1.7998e-41 0.060511105 -2.981374e-35 0.050306883
000070 7c 73 a2 1d e3 71 00 80 ef bd 00 80 93 de 0f 3d
       4.300045e-21 -4.0855e-41 -6.8135e-41 0.035124373
000080 47 43 92 3d 1c b6 9b 3b 53 e0 a0 3d 1b 80 fd bb
       0.071417384 0.0047519337 0.078552864 -0.0077362186
000090 b1 33 00 00 b5 32 00 80 00 4a 3f 3c 36 e9 6b 3d
       1.8543e-41 -1.819e-41 0.011675358 0.057595454
0000a0 e9 1d 00 00 5f d4 71 3e 15 6f b4 06 9e 74 51 3e
       1.073e-41 0.2361617 6.7871695e-35 0.20454642
0000b0 8d 89 c8 30 37 6c 00 80 bd 30 00 80 d5 28 01 3e
       1.459101e-09 -3.882e-41 -1.7484e-41 0.12613232
0000c0 eb 44 9e 3c 5b 5e 21 3a 00 3d cb 3c ca 37 83 ba
       0.019319972 0.00061557227 0.02480936 -0.0010011133
0000d0 f1 3c 00 00 25 e8 00 80 c3 1c 43 3a 8c 90 c5 3d
       2.1862e-41 -8.3278e-41 0.00074429455 0.09646711
0000e0 15 34 00 80 03 6a 9b 3d 9e bc 18 06 e9 8d be 3d
       -1.8684e-41 0.075885795 2.8726597e-35 0.09304411
0000f0 b2 e1 0c 23 85 29 00 80 18 45 00 00 c4 31 1f 3d
       7.637208e-18 -1.4894e-41 2.4786e-41 0.03886582
000100 3e 8d 3d 3b 43 26 0c b3 ad a4 ef b6 b0 e8 8e 37
       0.0028923298 -3.263109e-08 -7.141926e-06 1.7036073e-05
000110 af 8a 00 00 0c 44 00 80 04 11 45 b6 c4 6f 3d 3c
       4.975e-41 -2.441e-41 -2.9365192e-06 0.0115622915
000120 05 59 01 00 28 a5 b0 bb ef 53 00 00 3c 40 98 bb
       1.2377e-40 -0.005390782 3.011e-41 -0.004646329
000130 01 57 00 00 e0 9e 00 80 77 38 00 00 14 12 88 b8
       3.1211e-41 -5.6994e-41 2.0256e-41 -6.488353e-05
000140 0e 45 00 80 b4 38 00 80 c3 91 00 00 45 2d 00 80
       -2.4772e-41 -2.0341e-41 5.229e-41 -1.624e-41
000150 4c 8e 00 00 9b 10 00 80 d2 a1 00 00 3c 88 00 80
       5.1047e-41 -5.957e-42 5.805e-41 -4.8872e-41
000160 4a 1a 00 00 b5 51 00 80 9c 9a 00 80 a4 17 00 00
       9.431e-42 -2.9311e-41 -5.5463e-41 8.48e-42
000170 82 c4 00 00 db 43 00 80 f8 37 00 80 43 1c 00 80
       7.0494e-41 -2.4342e-41 -2.0078e-41 -1.0138e-41
000180 2a 95 00 80 59 8b 00 00 ee 58 00 00 90 10 00 00
       -5.351e-41 4.9989e-41 3.1902e-41 5.942e-42
000190 69 7f 00 80 8e 4d 00 00 66 70 00 80 53 9c 00 00
       -4.5706e-41 2.7821e-41 -4.0321e-41 5.6079e-41
0001a0 f3 00 01 00 41 36 00 80 b0 c2 00 00 4f 2b 00 80
       9.2176e-41 -1.9463e-41 6.9841e-41 -1.5536e-41
0001b0 80 0a 00 80 2d 04 00 80 01 88 00 80 14 86 00 00
       -3.767e-42 -1.498e-42 -4.8789e-41 4.8098e-41
0001c0 d6 ad b2 3a ca 1f 74 36 67 6e 84 39 25 dd f5 b7
       0.0013632129 3.6377337e-06 0.00025259258 -2.9309254e-05
0001d0 ec 5f 00 00 6d 53 00 00 e8 7a e7 b5 5f 66 98 3b
       3.441e-41 2.9928e-41 -1.7246612e-06 0.0046508755
0001e0 bf 0a 01 00 b2 cb da 3a 6c 0a 31 03 85 12 4d ba
       9.569e-41 0.0016692786 5.202759e-37 -0.0007822889
0001f0 59 bb 00 80 69 20 00 80 89 bb 00 80 17 a2 c5 39
       -6.7208e-41 -1.1627e-41 -6.7275e-41 0.00037695534
000200 33 0a e2 3c 13 ce 12 ba ce 68 6b 3c 2f 4d b1 bb
       0.027592754 -0.00056001655 0.014368249 -0.0054108123
000210 28 49 00 00 d7 6a 00 80 7c f5 80 ba 32 ff c0 3d
       2.6244e-41 -3.8327e-41 -0.0009838785 0.09423675
000220 ae 12 00 80 b2 20 8a bc 7c e1 28 86 92 d5 bf 3d
       -6.701e-42 -0.016861293 -3.1762948e-35 0.09366907
000230 61 11 3f 29 65 53 00 00 67 20 00 00 1c 9e 9a 3c
       4.2425593e-14 2.9916e-41 1.1624e-41 0.01887422
000240 91 b0 ac 38 79 b1 a0 b5 ca 89 d7 37 84 39 b0 b7
       8.234487e-05 -1.197258e-06 2.569416e-05 -2.1007618e-05
000250 3a e2 01 80 be a5 00 80 f5 c5 c1 b6 db 6a c5 3b
       -1.7299e-40 -5.9457e-41 -5.7748935e-06 0.006024701
000260 9c 47 00 80 3c f2 e4 b9 03 31 84 83 ef 7b 00 bb
       -2.5689e-41 -0.00043668028 -7.769515e-37 -0.001960512
000270 89 35 00 00 9f c1 00 80 b9 8f 00 00 18 2f 59 b7
       1.9205e-41 -6.9458e-41 5.1558e-41 -1.2945173e-05
000280 89 c0 01 80 38 b3 00 80 22 4c 00 80 e0 09 00 00
       -1.60904e-40 -6.4292e-41 -2.7311e-41 3.542e-42
000290 cd 2a 00 00 42 25 00 00 43 bf 00 00 5e 45 00 80
       1.5354e-41 1.3366e-41 6.8612e-41 -2.4884e-41
0002a0 8a 39 00 80 79 07 00 00 81 5d 00 00 41 54 00 00
       -2.0641e-41 2.68e-42 3.3543e-41 3.0225e-41
0002b0 d8 b7 02 80 55 48 00 80 e7 5c 00 00 3c bb 00 80
       -2.49622e-40 -2.5948e-41 3.3327e-41 -6.7167e-41
0002c0 59 c5 00 80 62 19 00 00 ac 81 00 00 f7 9c 00 00
       -7.0795e-41 9.106e-42 4.6518e-41 5.6308e-41
0002d0 92 4f 00 80 1c ab 00 00 19 75 00 80 c4 41 00 80
       -2.8544e-41 6.1382e-41 -4.2007e-41 -2.3592e-41
0002e0 dd 0d 00 00 ab 14 00 00 c6 b8 00 00 b4 7d 00 80
       4.973e-42 7.414e-42 6.6284e-41 -4.5094e-41
0002f0 71 1e 00 80 86 b8 00 80 37 66 00 80 12 15 00 00
       -1.092e-41 -6.6195e-41 -3.6668e-41 7.559e-42
000300 03 08 c5 35 d0 21 c2 99 f4 0b 52 21 23 cc 6d a7
       1.4679975e-06 -2.0072787e-23 7.1166587e-19 -3.300102e-15
000310 95 48 00 00 0e 93 00 00 74 ce 16 a0 ee c4 97 b6
       2.6038e-41 5.2753e-41 -1.2773804e-19 -4.5230763e-06
000320 52 71 00 00 6f e8 89 36 6e 79 00 00 a0 d5 80 b6
       4.0652e-41 4.109977e-06 4.3561e-41 -3.8395665e-06
000330 5d 2c 00 80 e9 8f 01 00 fc a5 00 00 93 ea ad ad
       -1.5915e-41 1.43461e-40 5.9544e-41 -1.9771995e-11
000340 6f b7 14 3d 2e 87 05 b9 7f c3 ba 3c d0 b0 0d bc
       0.03630775 -0.00012734227 0.022798298 -0.008648112
000350 64 6c 00 80 38 0a 00 00 5e 0f e5 37 e2 1e 21 3d
       -3.8883e-41 3.666e-42 2.7306083e-05 0.039336093
000360 03 40 00 80 6a b7 be 3d b7 2a 0e 06 dd 35 98 3d
       -2.2963e-41 0.09312327 2.6738614e-35 0.074321486
000370 90 c9 76 29 59 06 00 80 99 87 00 00 c5 0b 43 3d
       5.47978e-14 -2.277e-42 4.8643e-41 0.047618646
000380 30 8b 00 80 90 1f 00 00 49 46 00 80 8b b5 00 80
       -4.9931e-41 1.1322e-41 -2.5214e-41 -6.5125e-41
000390 c6 69 00 00 0c 8b 00 80 bf 84 00 00 f0 9f 00 80
       3.7944e-41 -4.988e-41 4.762e-41 -5.7375e-41
0003a0 df ad 00 80 88 a8 00 00 a9 7f 00 80 b9 6d 00 00
       -6.2373e-41 6.0458e-41 -4.5796e-41 3.9361e-41
0003b0 83 7f 00 00 12 68 00 80 c9 8f 00 80 b6 b5 00 80
       4.5743e-41 -3.7333e-41 -5.158e-41 -6.5186e-41
0003c0 8a d6 60 3a 5d 59 fb b4 a2 ac a2 38 d0 ab c8 b7
       0.00085768907 -4.6817414e-07 7.756917e-05 -2.3921864e-05
0003d0 72 71 00 80 bd a3 00 00 96 62 bc b6 a4 75 ee 3b
       -4.0697e-41 5.8738e-41 -5.6143135e-06 0.0072772074
0003e0 f3 39 00 00 53 7c 91 bb c5 ad 3e 01 32 0e 63 3a
       2.0788e-41 -0.0044398694 3.5022162e-38 0.0008661478
0003f0 cc 88 00 00 54 1f 00 80 ca 84 00 00 aa 7c d8 38
       4.9073e-41 -1.1238e-41 4.7636e-41 0.00010322903

mlp.6.bias f4 [32]
000000 8e 7b 00 00 ab 51 e9 3a 64 0d ca 3b 32 6d 21 3b
       4.4323e-41 0.0017800828 0.006166147 0.0024631736
000010 72 83 12 b5 3a 15 00 80 45 75 00 00 be 77 cc 37
       -5.4580516e-07 -7.615e-42 4.2068e-41 2.4374454e-05
000020 af 77 c5 3a d3 23 99 36 c1 76 00 00 14 0e 00 00
       0.0015065576 4.563926e-06 4.2601e-41 5.05e-42
000030 c7 63 00 80 34 c7 0d 3b 4e b2 00 80 4c 41 24 37
       -3.5793e-41 0.0021633627 -6.3964e-41 9.790365e-06
000040 b2 fa b8 3b a6 19 00 80 fe 5d 00 00 39 40 01 80
       0.0056451196 -9.201e-42 3.3718e-41 -1.14874e-40
000050 f8 9f 00 80 1b 69 f4 b4 3a 12 3d 3a 72 dc 74 3a
       -5.7386e-41 -4.5525016e-07 0.0007212494 0.000934071
000060 cd 87 27 37 5b 0b be 3a a0 44 2c 85 3e d9 f0 82
       9.985594e-06 0.0014499234 -8.1000056e-36 -3.5389521e-37
000070 b1 9f 00 80 98 f5 d3 b2 5c a3 00 80 83 20 98 39
       -5.7286e-41 -2.4675316e-08 -5.8602e-41 0.00029015922

mlp.9.weight f4 [64, 32]
000000 9b be 00 00 4a 50 08 2d 53 d9 a7 af c7 2d 12 2a
       6.8376e-41 7.748533e-12 -3.053154e-10 1.2983287e-13
000010 81 03 00 00 57 8c 00 00 f0 b7 00 80 f0 53 83 8c
       1.257e-42 5.0344e-41 -6.5984e-41 -2.0234264e-31
000020 c7 69 5e 0a 7f 3e 23 13 46 1d 00 80 2b 1c 00 00
       1.0708806e-32 2.0604305e-27 -1.0501e-41 1.0105e-41
000030 ea 37 00 00 15 8d 30 9e ec 6c 01 00 0e b7 f5 80
       2.0058e-41 -9.3465375e-21 1.3091e-40 -2.2565364e-38
000040 80 df 43 a6 8b 77 00 00 55 ab 00 00 f2 18 01 00
       -6.7957115e-16 4.2884e-41 6.1462e-41 1.00784e-40
000050 dd 3a 00 00 92 b0 00 00 af 12 5c 25 65 24 e9 13
       2.1116e-41 6.3341e-41 1.9088288e-16 5.8853357e-27
000060 02 13 00 80 eb 42 00 80 7e b0 00 00 54 86 00 00
       -6.819e-42 -2.4006e-41 6.3313e-41 4.8188e-41
000070 18 41 00 00 4b c4 00 00 b3 40 00 00 61 63 09 87
       2.3351e-41 7.0417e-41 2.321e-41 -1.0335939e-34
000080 39 97 00 80 78 76 4e b9 e7 04 14 ba 34 13 07 b9
       -5.4248e-41 -0.00019689824 -0.00056464825 -0.00012881757
000090 c8 d2 1c 20 40 a0 00 00 6a 2b 00 00 c1 b6 cd b2
       1.3283456e-19 5.7487e-41 1.5574e-41 -2.3948248e-08
0000a0 fa ed 35 35 f1 f4 cb ae ed d1 00 00 0b a2 00 00
       6.7774056e-07 -9.2748816e-11 7.5307e-41 5.813e-41
0000b0 0e 8b f5 2b 6e 3e 94 38 67 43 00 80 81 52 38 ae
       1.7446892e-12 7.0688184e-05 -2.418e-41 -4.1910034e-11
0000c0 7b 12 5e 38 18 7c 00 80 84 0c 01 80 34 41 00 80
       5.2946136e-05 -4.4516e-41 -9.6325e-41 -2.339e-41
0000d0 ed 0c 00 80 c3 e7 24 a3 9a cd 8c 38 ee ea 39 33
       -4.637e-42 -8.939535e-18 6.7140165e-05 4.3287336e-08
0000e0 04 90 2e 26 f0 4e 47 33 09 0d 00 00 49 b8 00 00
       6.0563555e-16 4.640509e-08 4.676e-42 6.6109e-41
0000f0 93 64 00 00 10 9c 00 80 7e 73 00 80 66 b9 60 32
       3.6079e-41 -5.5985e-41 -4.1431e-41 1.3080671e-08
000100 39 1a 10 80 17 9b 40 3d 6d 2e 13 3e fa 8f 78 3d
       -1.478775e-39 0.047022905 0.14373179 0.06068418
000110 89 21 ba b6 70 b9 00 80 25 e0 01 80 c1 67 e9 3a
       -5.547136e-06 -6.6522e-41 -1.72243e-40 0.001780741
000120 1a 9c 22 3d e9 36 e5 39 00 56 00 00 f5 4a 00 00
       0.03969965 0.00043719195 3.0851e-41 2.689e-41
000130 47 72 3e b6 69 19 9e 3d 28 79 00 80 39 39 1d 3a
       -2.8378724e-06 0.0771969 -4.3463e-41 0.00059976015
000140 c6 35 19 3e 33 39 00 80 66 c1 00 80 0b b3 00 00
       0.14961919 -2.0519e-41 -6.9378e-41 6.4229e-41
000150 cf 3d 00 00 23 1d 8a b7 5a 29 da 3c e2 b2 14 3d
       2.2173e-41 -1.646445e-05 0.026631046 0.03630341
000160 46 23 3d 3a 2d ee 32 3d b2 f6 1f 85 5a 59 00 00
       0.0007215034 0.043684173 -7.521455e-36 3.2053e-41
000170 89 a6 00 80 6f 73 0e 36 ff 74 14 00 34 c6 68 3c
       -5.9742e-41 2.122684e-06 1.87868e-39 0.014207412
000180 c3 25 00 00 2b 2c 1a ba ab f9 96 3c 3f 04 f3 3b
       1.3546e-41 -0.00058812153 0.018429598 0.0074162777
000190 9a cb 53 b6 2e 3e 00 00 f4 ae 00 00 d1 58 58 39
       -3.1559962e-06 2.2306e-41 6.2761e-41 0.00020632452
0001a0 23 b2 a6 3b 2c 25 ee 37 c5 64 00 00 04 ba 00 00
       0.0050871535 2.838912e-05 3.6149e-41 6.673e-41
0001b0 2b 0a 4d 34 3b 12 1f 3c 2b 78 00 00 1f 71 e3 37
       1.9095812e-07 0.009708936 4.3108e-41 2.7113185e-05
0001c0 88 c9 da 3c 92 c5 01 00 ba 29 00 80 f1 90 00 00
       0.026707426 1.6271e-40 -1.4969e-41 5.1995e-41
0001d0 c7 61 00 00 d0 20 61 b6 91 cd 09 3c 1c 59 53 3b
       3.5076e-41 -3.3546712e-06 0.008410827 0.0032249158
0001e0 5b ae 98 38 e9 31 95 3b 5b 55 99 84 44 ef 01 00
       7.280401e-05 0.004553069 -3.6048514e-36 1.77668e-40
0001f0 c9 7b 00 00 40 99 89 34 71 9b 00 00 ab 74 a9 3a
       4.4406e-41 2.5629743e-07 5.5762e-41 0.0012928447
000200 62 4b 00 00 2d c9 8a 3b 24 fe 0c 3c 58 87 56 3a
       2.7042e-41 0.004235408 0.008605514 0.000818362
000210 fa 55 fa b5 df 69 00 00 e3 c3 00 80 62 02 20 36
       -1.8651474e-06 3.798e-41 -7.0271e-41 2.3843245e-06
000220 81 1f 95 3a 43 ce 89 34 1b 56 00 00 d6 55 00 00
       0.0011377187 2.5668314e-07 3.0889e-41 3.0792e-41
000230 76 f4 29 aa 19 a0 f5 3a bd 3d 00 80 6b c6 22 33
       -1.509503e-13 0.001873973 -2.2148e-41 3.7899024e-08
000240 de f0 0b 3c c4 d4 00 80 02 6d 00 00 60 e0 01 00
       0.008541314 -7.6326e-41 3.9105e-41 1.72326e-40
000250 f3 3b 00 80 b1 b9 d5 b5 f7 7b 6e 3a 40 3b 3d 3a
       -2.1506e-41 -1.592378e-06 0.00090974517 0.0007218607
000260 71 a2 9f 37 1f 27 90 3a 4f 14 f9 83 b6 57 00 00
       1.902992e-05 0.0010997987 -1.4639567e-36 3.1465e-41
000270 cd 75 01 80 15 5e a9 33 6c 4b 00 00 e1 87 76 39
       -1.34094e-40 7.886789e-08 2.7056e-41 0.00023511007
000280 5b ee 00 80 ab b7 e8 a0 77 30 8d 20 2c 22 8b 9f
       -8.5506e-41 -3.942387e-19 2.39184e-19 -5.892532e-20
000290 ca 68 19 9a 9d 8c 00 00 3c b9 00 80 d8 84 fb 9b
       -3.1724306e-23 5.0443e-41 -6.645e-41 -4.1610315e-22
0002a0 eb 8c 7e 9e a2 6c 6f 9b ec 74 00 80 32 3b 01 80
       -1.3475789e-20 -1.9804718e-22 -4.1944e-41 -1.13071e-40
0002b0 6e 0a 00 00 4b 88 ca 9e fc 5f 00 00 9f 9d 73 9b
       3.741e-42 -2.1443951e-20 3.4433e-41 -2.0151419e-22
0002c0 5b 47 95 9f be 90 00 00 15 b5 00 80 0f 0c 00 00
       -6.3222e-20 5.1924e-41 -6.496e-41 4.326e-42
0002d0 43 14 00 80 63 0f 81 99 b5 0a d3 9e 18 f5 36 9e
       -7.269e-42 -1.3344502e-23 -2.2344922e-20 -9.685684e-21
0002e0 65 c0 4e 9b 3d a1 89 9e d1 01 00 80 eb 5b 00 80
       -1.7102087e-22 -1.4572126e-20 -6.52e-43 -3.2974e-41
0002f0 53 9e 00 00 da fa 31 97 6c b6 00 00 8c 59 97 9d
       5.6796e-41 -5.7508404e-25 6.544e-41 -4.0061956e-21
000300 d3 3f 00 80 55 a1 e8 8e 7c 18 b8 90 d9 11 f3 8f
       -2.2896e-41 -5.7347773e-30 -7.261293e-29 -2.3968525e-29
000310 39 49 a8 8a 56 bd 00 80 a0 07 01 80 c8 c2 44 8d
       -1.6205355e-32 -6.7921e-41 -9.4571e-41 -6.0631622e-31
000320 9c 2d d7 8d 6a a7 43 8c a6 cc 00 80 96 a1 01 80
       -1.3261378e-30 -1.5072633e-31 -7.3414e-41 -1.49802e-40
000330 44 60 00 00 93 df 52 91 5c b7 00 00 a2 bf 4b 0d
       3.4534e-41 -1.6634973e-28 6.5777e-41 6.2784874e-31
000340 40 a0 b0 90 6c 2f 00 00 9f 73 00 00 75 26 04 80
       -6.9666664e-29 1.7012e-41 4.1477e-41 -3.81138e-40
000350 d3 df 00 00 1b a3 55 0b 44 03 28 8f 07 ac d3 8f
       8.0293e-41 4.1145015e-32 -8.2836684e-30 -2.0872469e-29
000360 85 17 51 8c fc c0 17 10 5e 5d 00 00 5d ed 00 80
       -1.6107852e-31 2.992817e-29 3.3494e-41 -8.515e-41
000370 ec 0b 00 00 0f f2 78 87 38 b6 00 80 87 64 b9 8e
       4.277e-42 -1.8728581e-34 -6.5368e-41 -4.5702825e-30
000380 42 85 00 00 96 99 36 3b ce 54 c5 3b 0a ef 44 3a
       4.7804e-41 0.002786254 0.0060220724 0.0007512426
000390 4a 11 8c b5 cb 15 00 00 06 91 00 80 6f 0c 54 36
       -1.0435845e-06 7.818e-42 -5.2025e-41 3.15977e-06
0003a0 3a e3 0b 3a 2f 71 85 b5 71 4d 00 80 3f 4c 00 00
       0.00053362886 -9.942213e-07 -2.7781e-41 2.7352e-41
0003b0 08 01 3c ad 2e 77 8e 3a 45 0e 00 80 42 f3 38 b5
       -1.0686792e-11 0.0010869259 -5.119e-42 -6.889933e-07
0003c0 59 cd 3a 3b 0c f8 00 00 6d 3d 00 80 7e 59 02 80
       0.0028503744 8.8982e-41 -2.2035e-41 -2.15775e-40
0003d0 81 2f 00 80 32 08 6e b5 0d c7 5b 39 84 fd b4 39
       -1.7041e-41 -8.8673835e-07 0.0002095962 0.0003452116
0003e0 57 69 18 37 3f 8d 09 3a 5e 52 a0 83 08 6e 00 00
       9.084432e-06 0.00052471826 -9.422865e-37 3.9472e-41
0003f0 9b d0 00 00 fb a4 30 33 78 bc 00 80 3a bb e4 38
       7.4834e-41 4.1128242e-08 -6.761e-41 0.00010906761

mlp.9.bias f4 [64]
000000 7a 2c 00 80 af b0 00 80 9a bf 04 3c eb 6b 69 3a
       -1.5955e-41 -6.3382e-41 0.008102322 0.00089043257
000010 2f 7b 82 39 b7 9e 8c 9d 1a af ee 8d 62 fe fa 38
       0.0002488731 -3.72218e-21 -1.4710037e-30 0.000119683114
000020 25 7e 53 38 6d d3 c8 3b 65 27 f7 35 47 a0 00 00
       5.04238e-05 0.0061287195 1.8414399e-06 5.7497e-41
000030 ef 2f 00 00 c1 8b 00 00 6d 0b 75 35 d3 5b aa 3b
       1.7195e-41 5.0134e-41 9.128624e-07 0.0051989346
000040 dd 33 00 00 6c 56 18 3b ff 5e 00 80 b3 35 00 00
       1.8605e-41 0.002324487 -3.4078e-41 1.9264e-41
000050 e7 51 00 80 56 f2 38 3b 4a ec 85 86 2d db 2d 36
       -2.9381e-41 0.0028220615 -5.0376235e-35 2.5906586e-06
000060 c9 71 72 37 f6 13 00 00 c9 6e 00 80 a7 10 0f 35
       1.4450817e-05 7.16e-42 -3.9742e-41 5.3295884e-07
000070 d9 6b 00 00 6a 43 00 00 78 09 00 80 d3 40 0e 3a
       3.8688e-41 2.4184e-41 -3.397e-42 0.00054265297
000080 1f ce c4 b3 d8 23 00 00 50 2d d5 3a 14 82 1f 38
       -9.1644544e-08 1.2858e-41 0.0016264115 3.80297e-05
000090 9c d9 92 3b d3 dc 09 3c 9c 90 00 80 dc 54 16 af
       0.0044815075 0.008414465 -5.1876e-41 -1.3672569e-10
0000a0 3c 59 00 80 d8 0b fd af d9 1b 13 b1 48 d0 05 80
       -3.2011e-41 -4.6028847e-10 -2.1407145e-09 -5.33895e-40
0000b0 f8 41 00 00 83 8f 00 80 12 a2 00 00 49 16 00 00
       2.3665e-41 -5.1482e-41 5.814e-41 7.994e-42
0000c0 f4 74 00 00 4b c8 58 37 e4 b6 00 80 0b 5f c2 3a
       4.1955e-41 1.2921238e-05 -6.5609e-41 0.001482935
0000d0 db 9c a6 3b 3d 68 00 00 ef 2d a7 3a be 47 00 00
       0.0050846166 3.7394e-41 0.0012754778 2.5736e-41
0000e0 27 fc 83 3b e1 f2 61 3b d4 66 00 00 5d b5 21 ae
       0.0040278616 0.0034477042 3.6888e-41 -3.6768245e-11
0000f0 3a 53 00 00 56 1b 00 00 13 7f 79 b3 d4 7d 8b 3b
       2.9856e-41 9.806e-42 -5.8090404e-08 0.0042569432

mlp.12.weight f4 [128, 64]
000000 90 0e 00 80 e7 2b 00 80 84 30 b3 9c b8 07 55 9b
       -5.224e-42 -1.5749e-41 -1.1857767e-21 -1.7621441e-22
000010 0b b4 a4 9a 4d e2 00 00 b3 bf 00 80 7f d9 9f 99
       -6.8119685e-23 8.1181e-41 -6.8769e-41 -1.652806e-23
000020 f6 9f 4b 99 21 ce 91 1c 3a 39 d8 97 1b c8 00 80
       -1.0527158e-23 9.648578e-22 -1.3973119e-24 -7.1784e-41
000030 0d 24 00 80 97 b5 00 80 80 bb ee 96 aa 34 6d 9c
       -1.2933e-41 -6.5142e-41 -3.8569303e-25 -7.848479e-22
000040 c6 ec 00 00 ac 1b f2 9b ea 82 00 00 a9 6e 00 00
       8.4938e-41 -4.0053424e-22 4.6963e-41 3.9697e-41
000050 f1 94 00 00 f1 23 f1 1a 28 24 00 80 65 b3 6e 98
       5.343e-41 9.973333e-23 -1.297e-41 -3.085135e-24
000060 05 2a 8b 19 3a d3 01 00 32 ee 01 00 5e 0a 68 18
       1.4389235e-23 1.6761e-40 1.77284e-40 2.9990531e-24
000070 f0 70 00 80 08 bb 00 80 33 fa 00 80 2d e0 19 9b
       -4.0514e-41 -6.7094e-41 -8.9755e-41 -1.2728298e-22
000080 7c 92 df 16 ee 74 00 80 c5 e0 b5 1c fb 2a 37 99
       3.6120038e-25 -4.1946e-41 1.2035677e-21 -9.469558e-24
000090 f1 bf 4c 1d 86 0e d9 9c 42 fd 00 80 50 ea 06 0f
       2.7098407e-21 -1.436361e-21 -9.0852e-41 6.651837e-30
0000a0 7e d4 00 80 29 af 59 90 1b 00 a4 92 d8 66 00 00
       -7.6228e-41 -4.2930643e-29 -1.0349881e-27 3.6893e-41
0000b0 1b 75 00 80 7a 2b 00 00 39 9a 00 80 99 d7 00 80
       -4.201e-41 1.5596e-41 -5.5325e-41 -7.7342e-41
0000c0 80 3c 00 00 ab 67 f2 16 b0 88 00 00 b2 74 25 9c
       2.1703e-41 3.9162632e-25 4.9034e-41 -5.4744746e-22
0000d0 4e ed 79 9d b2 29 00 80 c0 66 a4 9c 1a a3 00 80
       -3.307756e-21 -1.4957e-41 -1.087917e-21 -5.851e-41
0000e0 05 02 5a 9c 2f 86 71 9c d9 71 00 80 3a 65 a4 0c
       -7.213276e-22 -7.991364e-22 -4.0841e-41 2.5329124e-31
0000f0 8a 31 01 80 0b 02 00 80 0e ee 1b 16 74 d9 85 9b
       -1.09607e-40 -7.33e-43 1.2595917e-25 -2.214353e-22
000100 8d a3 00 80 85 65 a1 15 da 3e 01 36 ab c3 42 b3
       -5.8671e-41 6.518755e-26 1.9259082e-06 -4.5347104e-08
000110 89 ed d5 b2 d1 cf 37 95 99 98 18 06 0d ba 68 b2
       -2.4904482e-08 -3.7120494e-26 2.8700134e-35 -1.354648e-08
000120 fe c5 28 b2 66 e8 e9 34 ce 7c 0e b0 be 8c 00 00
       -9.823905e-09 4.3568724e-07 -5.1836657e-10 5.0489e-41
000130 f1 49 00 00 37 79 11 07 44 62 9e af a7 03 50 34
       2.6525e-41 1.0944209e-34 -2.8809855e-10 1.9372838e-07
000140 f6 b2 00 80 99 05 c4 b2 0e 04 01 80 e2 24 01 00
       -6.4199e-41 -2.2819949e-08 -9.329e-41 1.05067e-40
000150 69 0a 00 80 e0 5e f4 b1 8a 04 01 00 7c 70 b5 b0
       -3.734e-42 -7.1121207e-09 9.3464e-41 -1.3201453e-09
000160 9a 65 3e b1 e6 99 01 80 14 ca 00 80 08 f9 c8 af
       -2.7706393e-09 -1.47044e-40 -7.2492e-41 -3.6556735e-10
000170 dc 5e 00 80 e6 b9 00 80 73 ed 00 80 c5 f3 47 b3
       -3.4029e-41 -6.6688e-41 -8.5181e-41 -4.6555005e-08
000180 d0 23 2f af e0 74 01 00 0e 82 bb b3 33 46 05 b2
       -1.592888e-10 1.33762e-40 -8.731523e-08 -7.75758e-09
000190 fa 7a cc b3 df 23 51 36 63 7f 00 80 b3 0b f2 a7
       -9.5218596e-08 3.1164307e-06 -4.5698e-41 -6.7181177e-15
0001a0 dd a3 00 80 f9 23 d3 a8 88 bb 2d aa e0 48 00 00
       -5.8783e-41 -2.3441306e-14 -1.543055e-13 2.6143e-41
0001b0 b7 0e 00 00 6c 0c 01 80 9d c3 00 80 b9 56 00 00
       5.279e-42 -9.6292e-41 -7.0173e-41 3.111e-41
0001c0 60 5e 30 23 4c 97 5d b1 68 af 00 00 1e e0 db b2
       9.560964e-18 -3.2245735e-09 6.2924e-41 -2.5596872e-08
0001d0 91 68 b7 b3 3a 93 00 00 fe 75 b3 b3 82 bc 00 80
       -8.540622e-08 5.2815e-41 -8.3568e-08 -6.7624e-41
0001e0 f3 54 1e b3 86 05 20 b2 ae 4b 00 80 ab dd a8 a5
       -3.6864503e-08 -9.314482e-09 -2.7149e-41 -2.9293562e-16
0001f0 d9 35 00 80 9c 55 01 80 51 f6 fc ad 54 e5 3c b3
       -1.9317e-41 -1.22546e-40 -2.875847e-11 -4.3980734e-08
000200 74 78 00 00 af 2f 00 00 50 17 b4 9b e0 b4 47 9a
       4.321e-41 1.7106e-41 -2.9793567e-22 -4.1298345e-23
000210 c4 cc 91 99 fc 76 01 00 91 1e 00 00 4e 92 67 99
       -1.5075353e-23 1.34519e-40 1.0965e-41 -1.1971966e-23
000220 57 78 6b 19 03 e2 b4 9c 74 89 98 18 7b 08 00 80
       1.2173518e-23 -1.1969823e-21 3.942987e-24 -3.042e-42
000230 c2 13 00 00 f2 ba 00 80 5b eb 39 96 7e af 11 9b
       7.088e-42 -6.7063e-41 -1.5018446e-25 -1.2050823e-22
000240 64 14 00 80 53 b4 59 1b 45 aa 00 80 57 08 00 00
       -7.315e-42 1.8008085e-22 -6.1081e-41 2.992e-42
000250 13 27 00 00 8c 59 0e 9b 6e 1b 00 80 c0 4b 98 97
       1.4017e-41 -1.1774899e-22 -9.84e-42 -9.841892e-25
000260 b9 c2 e6 97 87 9c 00 80 19 29 01 80 4c 72 8e 96
       -1.4912557e-24 -5.6151e-41 -1.06579e-40 -2.301347e-25
000270 aa 3f 00 00 3a 9a 00 80 2d 5c 01 00 5c 23 53 9a
       2.2838e-41 -5.5326e-41 1.24902e-40 -4.366234e-23
000280 bb 2b ae 95 1c 7d 00 00 ba 89 ad 9a 9d c5 55 98
       -7.0347035e-26 4.4881e-41 -7.177363e-23 -2.7629374e-24
000290 d0 5e 83 9b ec 3e cc 9b 5a 78 00 00 84 2d 9e 8e
       -2.1733403e-22 -3.3789631e-22 4.3174e-41 -3.8993837e-30
0002a0 24 83 00 00 df ed 80 8f a5 37 9d 90 bb 82 00 00
       4.7044e-41 -1.2713399e-29 -6.2011315e-29 4.6897e-41
0002b0 41 26 02 00 c9 68 00 80 01 1f 00 00 a8 29 00 80
       1.97394e-40 -3.759e-41 1.1122e-41 -1.4943e-41
0002c0 fb c5 00 80 18 ca fa 17 cf 1b 00 00 bd e8 e4 9a
       -7.1022e-41 1.6206887e-24 9.976e-42 -9.46746e-23
0002d0 46 d7 9a 9b cf 50 00 00 6b cc bc 9a fa 65 00 00
       -2.561628e-22 2.8989e-41 -7.808523e-23 3.6582e-41
0002e0 31 8f 87 9b a0 d2 3d 1b 6e 4a 01 80 2b 47 d0 0c
       -2.2426412e-22 1.570177e-22 -1.18536e-40 3.2090307e-31
0002f0 cd 5e 00 80 7d eb 02 00 6d 1a a5 94 04 75 17 1c
       -3.4008e-41 2.68148e-40 -1.6671165e-26 5.011295e-22
000300 25 2e 00 80 10 2d 00 80 52 c1 8d 8e 43 b1 75 8c
       -1.6554e-41 -1.6165e-41 -3.4945344e-30 -1.8927456e-31
000310 62 16 d2 8b ab 03 00 80 87 39 00 00 30 78 44 8b
       -8.0922736e-32 -1.316e-42 2.0637e-41 -3.7838646e-32
000320 54 3d d0 8a a6 0c 5e 8e 18 19 be 88 b6 45 00 80
       -2.005274e-32 -2.7369703e-30 -1.1441109e-33 -2.5008e-41
000330 57 8b 00 00 46 69 00 00 4b b7 8a 88 20 9a 70 8e
       4.9986e-41 3.7765e-41 -8.348665e-34 -2.9656492e-30
000340 ac 1e 00 80 8a 88 48 8d 9e ff 01 00 5a d8 00 00
       -1.1003e-41 -6.179411e-31 1.83534e-40 7.7612e-41
000350 05 34 00 80 85 cd 41 8d 60 ec 00 80 64 66 c5 89
       -1.8661e-41 -5.97201e-31 -8.4795e-41 -4.7522313e-33
000360 49 e4 65 8a 8e 31 00 80 5e 5d 00 80 e8 b3 dd 88
       -1.10688846e-32 -1.7777e-41 -3.3494e-41 -1.3343249e-33
000370 0e 30 00 00 89 68 00 00 40 ca 00 00 f0 02 97 8c
       1.7239e-41 3.75e-41 7.2554e-41 -2.3267002e-31
000380 73 29 03 88 bb 00 01 80 67 2e d9 8c aa cb ab 8b
       -3.94701e-34 -9.2098e-41 -3.3462071e-31 -6.6173244e-32
000390 73 9b 82 8d 20 73 4f 0f a7 82 00 00 10 fd 57 81
       -8.049292e-31 1.022806e-29 4.6869e-41 -3.9670827e-38
0003a0 aa 01 01 80 3f 6d c1 81 9d 89 e0 82 99 5b 00 00
       -9.2432e-41 -7.1053763e-38 -3.2992828e-37 3.2859e-41
0003b0 14 99 00 80 b2 8f 00 00 89 5f 00 00 71 ce 00 00
       -5.4914e-41 5.1548e-41 3.4272e-41 7.4057e-41
0003c0 2b 5f 00 00 84 7a 08 8b 90 64 00 00 96 06 13 8e
       3.414e-41 -2.6284818e-32 3.6075e-41 -1.812232e-30
0003d0 e5 8c 9d 8d af 77 00 00 18 ff f4 8c b7 9c 00 00
       -9.709791e-31 4.2934e-41 -3.7747681e-31 5.6219e-41
0003e0 fb 4e 99 8d 4b 11 85 8d 80 0a 00 00 e0 1e 0e 80
       -9.448367e-31 -8.200921e-31 3.767e-42 -1.296773e-39
0003f0 3f 0b 00 00 36 4c 00 00 78 a5 98 86 06 b6 78 8d
       4.034e-42 2.734e-41 -5.741918e-35 -7.6640003e-31

mlp.12.bias f4 [128]
000000 9f 31 1d 9b 40 75 b5 b2 5a 87 d7 99 17 ed 41 8c
       -1.3002769e-22 -2.1124492e-08 -2.2285147e-23 -1.4939526e-31
000010 f6 4b 50 3a fd 5b 19 00 1c 38 d5 3b b2 b5 fc 3b
       0.00079458894 2.328887e-39 0.006506933 0.0077120895
000020 58 a5 12 83 71 fe ff 3b 4b d7 f7 9f da 5b 00 80
       -4.309535e-37 0.007812314 -1.0496474e-19 -3.295e-41
000030 4f 75 00 00 4c f3 e8 3b cb 59 c1 b0 c3 f1 25 3c
       4.2082e-41 0.0071090814 -1.4068119e-09 0.010128441
000040 32 49 01 80 ec e5 d7 ac 03 30 90 ad fb 13 b2 8e
       -1.18093e-40 -6.136194e-12 -1.6392226e-11 -4.389963e-30
000050 46 f2 a7 31 b8 01 00 00 e9 b7 00 00 fd 8c 65 af
       4.887883e-09 6.17e-43 6.5975e-41 -2.0877518e-10
000060 b6 21 00 00 64 97 0d 3c f2 cb be a5 11 4d 00 80
       1.2093e-41 0.008642051 -3.3097945e-16 -2.7646e-41
000070 17 26 1d 36 5b 3b 3a 3a 36 8a 7a 3a 64 61 00 00
       2.3416994e-06 0.00071041816 0.0009557338 3.4937e-41
000080 a3 5d 00 00 79 84 ae 3b 24 36 00 80 f1 ff 82 37
       3.359e-41 0.0053258506 -1.9422e-41 1.561639e-05
000090 e6 ff 33 a8 ec 9f 9a 3b 0c 83 00 80 dc 47 00 80
       -9.991985e-15 0.004718771 -4.7011e-41 -2.5778e-41
0000a0 5c 9e 00 80 ad 74 00 80 2c 51 7a 35 bd 44 93 90
       -5.6809e-41 -4.1855e-41 9.325038e-07 -5.8087185e-29
0000b0 e7 98 6e 3a b7 a5 70 3b cb d7 cd 35 ea bb 0a ac
       0.0009101764 0.0036719867 1.5336494e-06 -1.9715293e-12
0000c0 18 82 00 80 4f 98 00 80 a4 f7 d5 a8 a9 da 62 81
       -4.6669e-41 -5.4638e-41 -2.3755147e-14 -4.1666525e-38
0000d0 aa 56 00 80 d1 18 01 00 12 ce 21 3c db 3f da 38
       -3.1089e-41 1.00738e-40 0.009875791 0.00010406944
0000e0 8d 39 3e 80 20 72 00 80 16 f7 ea 3b 0c bc 00 80
       -5.714446e-39 -4.094e-41 0.007170568 -6.7459e-41
0000f0 a1 ff 32 96 3f 00 17 37 68 8c 00 00 05 05 2c 38
       -1.4459388e-25 9.000359e-06 5.0368e-41 4.101267e-05
000100 0d e7 dc 3a c5 6a 00 00 7d 3a 0f 3c 5e 83 00 00
       0.0016853526 3.8302e-41 0.008741972 4.7126e-41
000110 eb c3 66 11 c5 b2 5c 3b 18 de 40 3c 70 1a 00 00
       1.8204173e-28 0.003367589 0.011771701 9.484e-42
000120 fc bd 00 80 13 bd 00 80 ca 5c 00 80 72 ce 00 80
       -6.8154e-41 -6.7827e-41 -3.3286e-41 -7.4059e-41
000130 ae d4 85 98 c9 22 4d 3a 71 9e 00 80 dc 24 00 80
       -3.4594446e-24 0.0007825313 -5.6838e-41 -1.3223e-41
000140 9b bd 91 3b 42 4c 00 00 3d 02 00 00 58 2e 00 00
       0.0044476516 2.7356e-41 8.03e-43 1.6625e-41
000150 fb d4 18 22 27 df 03 80 41 fe 42 ac 48 9e 88 3a
       2.0712592e-18 -3.55558e-40 -2.7710197e-12 0.0010423148
000160 51 c3 00 80 d5 4b ba 3b 99 dc 23 3c 33 0f 3d b1
       -7.0066e-41 0.0056853094 0.010001325 -2.751176e-09
000170 a7 3c 00 00 02 b6 00 80 a3 a3 b8 96 45 96 8a af
       2.1758e-41 -6.5292e-41 -2.9830073e-25 -2.5208827e-10
000180 a6 ab 00 80 90 48 c7 86 22 20 1e 8c 70 3a 3a 0e
       -6.1576e-41 -7.49621e-35 -1.2181547e-31 2.2954407e-30
000190 68 58 01 00 6c 9e 0d b0 87 05 01 80 32 ee b0 39
       1.2355e-40 -5.152063e-10 -9.3818e-41 0.00033746805
0001a0 e8 b1 00 00 a7 7f 00 80 74 8a 71 85 cb 54 92 8e
       6.3821e-41 -4.5793e-41 -1.13571954e-35 -3.607343e-30
0001b0 40 23 00 80 e4 c6 75 3b 4b af 5d ae ee fd 6d 31
       -1.2645e-41 0.0037502581 -5.0405274e-11 3.4632381e-09
0001c0 f5 58 16 80 1b b8 00 80 b0 b7 00 80 f5 05 37 3b
       -2.052293e-39 -6.6045e-41 -6.5895e-41 0.0027927135
0001d0 74 9a 00 80 00 9b 00 80 01 63 31 39 e7 3f 1d 3c
       -5.5407e-41 -5.5604e-41 0.00016916917 0.009597755
0001e0 ba b6 00 00 8e 1d 00 80 31 97 00 80 eb 6f 09 3c
       6.555e-41 -1.0602e-41 -5.4237e-41 0.0083885
0001f0 f6 83 8f 84 37 5c 7e 27 cd 74 a6 a0 8c 78 00 80
       -3.3740325e-36 3.529957e-15 -2.8198786e-19 -4.3244e-41

mlp.15.weight f4 [64, 128]
000000 14 32 50 9c 52 ca a0 35 57 95 2c 9b 7e 05 29 8b
       -6.888615e-22 1.1979812e-06 -1.4275761e-22 -3.2552348e-32
000010 6f d3 70 3b 67 23 8b 80 9a a5 e5 3c eb 42 05 3d
       0.0036747118 -1.2777834e-38 0.028033067 0.03253452
000020 cf e2 65 83 a7 03 0e 3d 01 32 e9 9e b4 07 00 80
       -6.7557415e-37 0.034671452 -2.4690516e-20 -2.763e-42
000030 5e b8 00 00 48 4c 05 3d 5c d5 c9 31 0f 39 2a 3d
       6.6138e-41 0.03254345 5.874126e-09 0.04155832
000040 1a 6c 00 00 b2 56 7a 2a 91 cd 2c af 41 9e d7 0e
       3.878e-41 2.2234539e-13 -1.5716341e-10 5.3153985e-30
000050 a5 ad 9e b2 c7 36 00 00 8a aa 00 80 78 01 95 2f
       -1.8472585e-08 1.965e-41 -6.1178e-41 2.7103986e-10
000060 93 07 00 80 f7 d6 1b 3d e8 11 23 a5 8c 13 00 00
       -2.717e-42 0.038046803 -1.4144063e-16 7.012e-42
000070 12 ca 21 37 d2 bc 65 3b 26 3a 9a 3b 3b 37 01 80
       9.643396e-06 0.0035055173 0.004706639 -1.11648e-40
000080 13 a6 02 80 a0 17 ce 3c 1b 38 c1 a1 e2 be 56 38
       -2.43247e-40 0.02515775 -1.309304e-18 5.119935e-05
000090 21 5d 27 29 8a c2 b2 3c 3e 88 00 80 6b 85 00 80
       3.7162225e-14 0.02182128 -4.8874e-41 -4.7861e-41
0000a0 5e fd 42 18 e8 c2 00 00 cb 0e 83 36 c1 ff 34 11
       2.520183e-24 6.9919e-41 3.9058264e-06 1.4278307e-28
0000b0 cf 09 8d 3b ea 7e 88 3c 76 fa 2e 37 61 a2 5f 2c
       0.004304148 0.01666208 1.0429523e-05 3.1780344e-12
0000c0 71 56 00 00 e1 5a 00 80 d4 ab 54 27 56 4a 3b 82
       3.101e-41 -3.2601e-41 2.9514058e-15 -1.3759924e-37
0000d0 61 95 00 80 b0 a7 00 80 22 a2 34 3d aa 2e dc 39
       -5.3587e-41 -6.0155e-41 0.044099934 0.00041996437
0000e0 78 02 0c 81 ad 5f 00 80 a8 90 fa 3c 1c 21 01 80
       -2.571571e-38 -3.4322e-41 0.030586556 -1.03713e-40
0000f0 a3 07 b0 95 61 ed 1e 38 26 bb c5 2c 6a e0 09 39
       -7.109788e-26 3.7891212e-05 5.6198544e-12 0.00013148939
000100 e4 ed 02 3c a4 66 00 00 58 33 1d 3d 57 87 02 80
       0.007991288 3.682e-41 0.038379043 -2.32222e-40
000110 fb 44 95 93 04 7d 7b 3c bb 9b 4d 3d 06 99 00 00
       -3.7680908e-27 0.01534963 0.050197344 5.4894e-41
000120 77 7a 00 00 f7 6a 2a 00 db 82 00 00 d4 67 7f 87
       4.3932e-41 3.895463e-39 4.6942e-41 -1.921458e-34
000130 62 80 c9 97 51 8f 74 3b 4e c2 49 b1 ab 22 00 80
       -1.3021729e-24 0.0037316869 -2.93598e-09 -1.2437e-41
000140 e5 a5 a4 3c f3 0f 02 80 4f d7 a4 a4 a8 2c 00 80
       0.020098636 -1.89392e-40 -7.148841e-17 -1.602e-41
000150 6e 97 25 24 1b c6 a6 80 22 4a ce 2b 77 7a 9b 3b
       3.5906938e-17 -1.5315759e-38 1.4657756e-12 0.0047448236
000160 92 0f 03 00 dc 88 d6 3c 25 18 3d 3d 91 f8 f2 32
       2.81092e-40 0.026188307 0.046165604 2.8285543e-08
000170 52 5e 00 00 ac 51 6c 2d 33 fd 14 18 83 68 9b 30
       3.3836e-41 1.3433182e-11 1.9256385e-24 1.1307438e-09
000180 a1 ff 87 23 cc 7c 0b 87 53 e1 1f 8f f4 94 a4 8e
       1.4744992e-17 -1.0493872e-34 -7.882701e-30 -4.0572558e-30
000190 19 f7 00 80 0d 48 00 30 c2 06 05 00 5a 5c cc 3a
       -8.8642e-41 4.666852e-10 4.61602e-40 0.0015591488
0001a0 ab 6a 01 80 9a 0b 02 80 39 76 5c 04 0b a8 6f 0f
       -1.30101e-40 -1.87833e-40 2.5915161e-36 1.1815974e-29
0001b0 eb 9d 00 80 8f 5c 93 3c 20 64 4d 2e 3c 7c 92 b2
       -5.665e-41 0.017988471 4.6700532e-11 -1.7053132e-08
0001c0 0d 2b 20 80 85 c6 06 25 cf 57 01 80 6f 24 4d 3c
       -2.95418e-39 1.1689908e-16 -1.23335e-40 0.0125208935
0001d0 ab ee 02 00 aa be 00 00 6d 93 57 3a 2b d3 2f 3d
       2.69289e-40 6.8397e-41 0.0008223567 0.042925995
0001e0 91 10 01 80 18 a9 00 80 20 f1 c4 25 28 24 19 3d
       -9.7778e-41 -6.066e-41 3.4163973e-16 0.037387997
0001f0 c7 71 a2 07 24 b7 27 a9 6b df 47 9e a9 19 00 00
       2.4441923e-34 -3.7240298e-14 -1.0581174e-20 9.205e-42
000200 08 1f 00 80 a1 a0 00 80 fc 28 00 00 f5 05 01 00
       -1.1132e-41 -5.7623e-41 1.4702e-41 9.3972e-41
000210 07 96 00 00 04 86 01 80 43 f7 04 80 81 09 02 80
       5.382e-41 -1.39911e-40 -4.56043e-40 -1.8708e-40
000220 b2 c5 00 80 bb e0 01 80 13 9b 00 00 74 05 00 00
       -7.092e-41 -1.72454e-40 5.563e-41 1.956e-42
000230 9b b9 00 80 7d 78 03 80 3c be 00 00 d4 1d 02 80
       -6.6583e-41 -3.1873e-40 6.8243e-41 -1.94371e-40
000240 17 c3 00 80 b6 83 00 00 3c b9 00 00 3d d0 00 80
       -6.9985e-41 4.7249e-41 6.645e-41 -7.4702e-41
000250 fd 99 00 00 47 49 01 80 f4 a2 00 80 e5 c0 00 00
       5.524e-41 -1.18122e-40 -5.8457e-41 6.9198e-41
000260 0e c0 00 00 84 31 02 80 95 08 00 00 4a a4 00 00
       6.8896e-41 -2.01434e-40 3.079e-42 5.8936e-41
000270 f9 59 00 80 f2 62 00 80 5c 45 00 80 91 01 00 00
       -3.2276e-41 -3.5495e-41 -2.4881e-41 5.62e-43
000280 ef ea 00 00 24 6e 03 80 41 84 00 00 bd 1b 00 80
       8.4278e-41 -3.15017e-40 4.7444e-41 -9.95e-42
000290 fd 5e 00 80 2f 34 01 80 fe 54 00 00 3c d6 00 80
       -3.4075e-41 -1.10555e-40 3.049e-41 -7.6853e-41
0002a0 90 60 00 80 7a 44 00 00 ce 15 00 80 9e d4 00 80
       -3.464e-41 2.4565e-41 -7.822e-42 -7.6273e-41
0002b0 60 34 01 80 4e a8 02 80 5a d9 00 80 80 3f 00 00
       -1.10624e-40 -2.44047e-40 -7.7971e-41 2.278e-41
0002c0 7f a3 00 00 78 da 01 00 b0 77 00 00 de 4f 02 00
       5.8651e-41 1.70207e-40 4.2936e-41 2.12322e-40
0002d0 7d 7c 00 80 e0 15 01 00 75 dd 01 80 14 57 00 00
       -4.4658e-41 9.9683e-41 -1.7128e-40 3.1238e-41
0002e0 e2 16 00 80 6a e6 00 80 79 84 01 80 36 1e 00 80
       -8.209e-42 -8.2657e-41 -1.39358e-40 -1.0838e-41
0002f0 8e 2d 01 00 5c aa 00 00 82 03 00 80 3f 28 00 00
       1.08177e-40 6.1113e-41 -1.258e-42 1.4438e-41
000300 36 82 00 80 48 30 00 80 c5 3c 04 80 e8 87 00 80
       -4.6711e-41 -1.732e-41 -3.89142e-40 -4.8754e-41
000310 8c ad 00 00 a3 9a 01 80 c1 2d 02 80 c9 4e 03 80
       6.2257e-41 -1.47309e-40 -2.00084e-40 -3.03769e-40
000320 2d da 00 00 83 5b 00 80 b4 9c 00 80 08 98 00 80
       7.8267e-41 -3.2828e-41 -5.6214e-41 -5.4539e-41
000330 a5 16 00 00 f0 d0 00 80 8a 87 00 00 86 82 00 00
       8.123e-42 -7.4953e-41 4.8622e-41 4.6823e-41
000340 c9 14 03 80 64 1d 01 00 94 fc 00 80 10 c1 00 00
       -2.82963e-40 1.02379e-40 -9.0608e-41 6.9258e-41
000350 a8 b0 00 80 70 7c 00 80 ad ab 00 80 14 ba 00 80
       -6.3372e-41 -4.464e-41 -6.1586e-41 -6.6752e-41
000360 8e 39 01 80 4f 33 01 80 89 12 02 80 0b b5 00 80
       -1.12482e-40 -1.10242e-40 -1.9032e-40 -6.4946e-41
000370 a9 00 00 00 9d 1c 00 00 96 94 00 80 f9 5a 01 00
       2.37e-43 1.0265e-41 -5.3303e-41 1.2447e-40
000380 0f a2 00 80 d2 c2 00 00 91 84 00 80 34 72 00 00
       -5.8136e-41 6.9888e-41 -4.7556e-41 4.0968e-41
000390 92 46 00 80 ab 42 00 00 4f 68 02 80 80 bf 00 00
       -2.5316e-41 2.3916e-41 -2.2109e-40 6.8697e-41
0003a0 e9 f2 00 00 c6 61 00 00 0c f9 00 00 60 c0 00 00
       8.714e-41 3.5075e-41 8.9341e-41 6.9011e-41
0003b0 e7 b9 00 80 77 d2 02 80 e3 c0 00 00 d3 7f 01 00
       -6.6689e-41 -2.59172e-40 6.9195e-41 1.3769e-40
0003c0 94 a9 01 80 af 8c 00 00 21 5a 00 80 7d ae 00 80
       -1.52669e-40 5.0468e-41 -3.2332e-41 -6.2595e-41
0003d0 a2 67 00 80 0c 3b 02 80 7c bc 00 00 2e a0 03 80
       -3.7176e-41 -2.04853e-40 6.7615e-41 -3.32968e-40
0003e0 00 6c 00 00 cf 91 00 80 e5 e1 00 00 82 34 05 80
       3.8743e-41 -5.2306e-41 8.1036e-41 -4.78014e-40
0003f0 a5 4b 00 80 30 39 00 00 dd 46 00 80 d2 4c 00 00
       -2.7136e-41 2.0515e-41 -2.5421e-41 2.7558e-41

mlp.15.bias f4 [64]
000000 96 c4 8e 3c 7b a1 00 80 96 1d 4f 3c 32 99 ed 3a
       0.017427724 -5.7928e-41 0.012641331 0.0018127321
000010 29 45 02 80 a3 75 46 3c 8d 12 00 00 5f b9 00 00
       -2.08481e-40 0.012113008 6.655e-42 6.6499e-41
000020 34 30 1b 80 ef 18 00 00 59 a5 a2 a3 b1 21 b3 1c
       -2.49685e-39 8.944e-42 -1.7634103e-17 1.1853935e-21
000030 91 29 18 39 17 da 00 80 e6 94 55 a9 ef f5 b0 3c
       0.00014511334 -7.8236e-41 -4.742465e-14 0.021601645
000040 4c ba 96 13 ac 7c 08 3c 51 72 00 80 0f 17 00 00
       3.8049026e-27 0.008330505 -4.1009e-41 8.272e-42
000050 d2 66 00 80 bb fe 1e 1d 39 84 12 90 ad 24 9c b0
       -3.6885e-41 2.1042818e-21 -2.8895284e-29 -1.1360918e-09
000060 46 65 47 b2 01 c8 00 80 d6 51 00 80 01 4d c9 3c
       -1.1606351e-08 -7.1748e-41 -2.9357e-41 0.024572851
000070 6e 04 00 80 71 6a 06 80 c4 3c 00 80 3c 2b 5f 80
       -1.589e-42 -5.89197e-40 -2.1799e-41 -8.739882e-39
000080 82 2d 00 80 61 12 80 1a ca c9 17 1a e1 de ec a6
       -1.6325e-41 5.296925e-23 3.1389072e-23 -1.6436201e-15
000090 26 68 21 1e ce 66 7a 05 b0 99 00 00 6b ad 3c 91
       8.5448064e-21 1.1773826e-35 5.5133e-41 -1.4884024e-28
0000a0 95 0b 00 80 49 fe 20 82 3c 09 b8 3c 2b 08 8c 3c
       -4.155e-42 -1.182792e-37 0.02246534 0.017093739
0000b0 58 50 00 80 0c 3b 00 80 0c 29 54 3c 2b 47 b6 15
       -2.8822e-41 -2.1182e-41 0.012949239 7.36215e-26
0000c0 dd a3 33 37 fd 5a 7f 3b 9a 9d 01 80 0a 29 00 80
       1.0707384e-05 0.0038964145 -1.48372e-40 -1.4722e-41
0000d0 60 89 a5 b2 a0 0e 00 00 1d 83 9e 3c be 5f 88 1f
       -1.9270999e-08 5.246e-42 0.019349629 5.775663e-20
0000e0 12 1e 6d a7 5e d4 7c 3b 86 6c 00 3d f5 7b 00 80
       -3.2906658e-15 0.003857873 0.031353496 -4.4467e-41
0000f0 ca 2b f2 0f 21 78 57 39 e7 6f 41 a6 c6 9b 81 3c
       2.387991e-29 0.0002054875 -6.711198e-16 0.015821349
