model_saved/2024-01-25-07-56-26/model_2024-01-25-07-56-33_epoch_1000_train_mse_2.04e-02_val_mse_1.78e-02.pt (torch, 88323 bytes, 15 tensors)

mlp.0.weight f4 [8, 8]
0	0xbdeda71f	-0.116041414
1	0x3e3cd814	0.18441802
2	0x3e235629	0.15950836
3	0x3aefe556	0.00183026
4	0x3b052c65	0.002032065
5	0x3afcc209	0.0019283901
6	0x3bbb628b	0.0057185343
7	0x395cd0af	0.00021058576
8	0x8000212d	-1.1901e-41
9	0xaa9217ba	-2.5951273e-13
10	0x800065fe	-3.6588e-41
11	0x977bf57f	-8.1412334e-25
12	0x1188b3dc	2.1567864e-28
13	0x9cc4bde4	-1.3019278e-21
14	0x000023c3	1.2829e-41
15	0x800135e2	-1.11165e-40
16	0xbdad096f	-0.08449065
17	0x3da003ad	0.07813201
18	0x3e14acfa	0.1451911
19	0x3a7ccc97	0.00096435234
20	0x3a883a3b	0.0010393331
21	0x3a838762	0.0010034854
22	0x3b33cd19	0.002743548
23	0x387b6649	5.9938324e-05
24	0x3e208e70	0.15679336
25	0x3e83c90a	0.25739318
26	0x3e2884d0	0.16456914
27	0x3b290f8b	0.0025796618
28	0x3b3a03c0	0.0028383583
29	0x3b2b46f5	0.0026134823
30	0x3bd6a9a5	0.006550985
31	0x39ab1b49	0.0003263599
32	0x80005a05	-3.2293e-41
33	0x8000b267	-6.3999e-41
34	0x80008139	-4.6356e-41
35	0xa27037ad	-3.255554e-18
36	0x8000a3da	-5.8779e-41
37	0xac855767	-3.789791e-12
38	0x0000405c	2.3088e-41
39	0x99df553a	-2.3092082e-23
40	0x3d130f78	0.035903424
41	0x3d1f7ca4	0.038937226
42	0xb9d4a5ce	-0.00040559325
43	0xb81af4bf	-3.69444e-05
44	0xb8461fa4	-4.7236346e-05
45	0xb80ec93e	-3.404286e-05
46	0xb8a39bcb	-7.8014644e-05
47	0x394852a4	0.00019104272
48	0xbc45087b	-0.012025948
49	0xbcc031b8	-0.023461208
50	0x3d74cd1d	0.059765924
51	0x34dd8f08	4.1268527e-07
52	0x30b12aa0	1.289056e-09
53	0x30cb310c	1.4784134e-09
54	0x360b435e	2.0751827e-06
55	0xaba6987e	-1.1837334e-12
56	0x0000c710	7.141e-41
57	0x00003360	1.843e-41
58	0x8000a382	-5.8656e-41
59	0x000033a3	1.8524e-41
60	0x8000b22c	-6.3916e-41
61	0x800053fb	-3.0127e-41
62	0xae103126	-3.2785462e-11
63	0x8313ad99	-4.3398698e-37

mlp.0.bias f4 [8]
0	0x39e27af3	0.00043197683
1	0x238af7e9	1.5066984e-17
2	0x395a47cc	0.00020816847
3	0x3a13c538	0.0005636993
4	0x000014a2	7.402e-42
5	0xb71a8aaf	-9.211405e-06
6	0xabcd939a	-1.4607094e-12
7	0x8000fc7c	-9.0574e-41

mlp.3.weight f4 [16, 8]
0	0x3e02b723	0.12765174
1	0x80001aee	-9.66e-42
2	0x3da4ab9b	0.08040544
3	0x3e84f5e7	0.2596886
4	0x0000ce20	7.3944e-41
5	0xbd915489	-0.07096202
6	0x393f0e96	0.00018220613
7	0x00009d51	5.6434e-41
8	0x3df15cdd	0.117852904
9	0x8000bb5a	-6.7209e-41
10	0x3cba70b4	0.02275882
11	0xbd2d7ca9	-0.042355213
12	0x800060d6	-3.4738e-41
13	0x3dacbb4c	0.084341615
14	0x38f5e71e	0.00011725559
15	0xae0b47e3	-3.166879e-11
16	0xbb3291dd	-0.0027247586
17	0x00008075	4.6082e-41
18	0x3a06f0fb	0.0005147603
19	0x3dedf8b0	0.11619699
20	0x9fd08fa5	-8.8329066e-20
21	0xbbbf59c9	-0.0058395606
22	0x33b248b5	8.301996e-08
23	0x074ec827	1.5556537e-34
24	0x80009732	-5.4239e-41
25	0x1c9b1840	1.0263308e-21
26	0x9f2ffac4	-3.726512e-20
27	0x0000e077	8.0523e-41
28	0x0e1d6fb0	1.940552e-30
29	0x98b89673	-4.77148e-24
30	0x0000c10e	6.9255e-41
31	0x0000bb9e	6.7304e-41
32	0xbd026835	-0.03183766
33	0x96b2d168	-2.8889605e-25
34	0xbb64f03e	-0.0034933235
35	0x3d09781e	0.03356182
36	0x800099be	-5.5152e-41
37	0x3c87e85e	0.016590293
38	0xb6c59ad7	-5.8890832e-06
39	0x00002f6a	1.7009e-41
40	0x3e0867e2	0.13320878
41	0x0000dc93	7.9127e-41
42	0x3d337131	0.04380912
43	0x3e24628e	0.1605322
44	0x29d2ab51	9.355592e-14
45	0xbd751c06	-0.05984118
46	0x394919e8	0.00019178505
47	0x8000ada4	-6.229e-41
48	0xb87d9f2b	-6.0468137e-05
49	0x29925526	6.4984734e-14
50	0x9f521050	-4.4482723e-20
51	0xbbffd9ba	-0.0078079375
52	0x969eb664	-2.5641381e-25
53	0x3ae0c970	0.0017149877
54	0x9832583f	-2.3050514e-24
55	0x27d4da60	5.9078583e-15
56	0x3d6a2b1c	0.05717002
57	0x2a2a3bb1	1.5119743e-13
58	0x3cbb799c	0.022885136
59	0x3e31df9c	0.17370456
60	0xae44f847	-4.4785755e-11
61	0x3c054204	0.008133415
62	0x379b3831	1.8503606e-05
63	0x257d63ee	2.197811e-16
64	0x3e51a348	0.20472443
65	0x9e113683	-7.687509e-21
66	0x3db7eb8c	0.08980474
67	0x3db48079	0.08813567
68	0x00008e27	5.0995e-41
69	0xbcdd4983	-0.027012592
70	0x3b631352	0.0034648967
71	0x00003e5e	2.2373e-41
72	0x3cf17c0d	0.029478097
73	0x8000478b	-2.5665e-41
74	0x3ca9ad50	0.020712525
75	0x3e2423fc	0.16029352
76	0x1bcfe9e8	3.4396436e-22
77	0xbd006771	-0.03134865
78	0x36e6b625	6.8757386e-06
79	0xa699719f	-1.0647305e-15
80	0x3d81699c	0.063189715
81	0x800022cf	-1.2487e-41
82	0x3ca1a49d	0.019731814
83	0x3dba064d	0.09083233
84	0x00006dcc	3.9388e-41
85	0x3c84d204	0.016213425
86	0x38956c65	7.125064e-05
87	0x800052ee	-2.975e-41
88	0x9db54f51	-4.7992312e-21
89	0x221aaf1b	2.0963592e-18
90	0x9f3221f4	-3.772105e-20
91	0x9711af6c	-4.707344e-25
92	0x000035ae	1.9257e-41
93	0x16442392	1.5843978e-25
94	0x28ba5360	2.0686306e-14
95	0x90e1224b	-8.879969e-29
96	0xacaa9f95	-4.8494078e-12
97	0x800099a0	-5.511e-41
98	0xac30951a	-2.5093872e-12
99	0xade099eb	-2.5534205e-11
100	0x0000ee53	8.5495e-41
101	0x2f82d146	2.379556e-10
102	0x9c54b386	-7.0376945e-22
103	0x2bd4bc6b	1.5115802e-12
104	0xbcc1bfe8	-0.023651078
105	0x9cb8711e	-1.2205339e-21
106	0x3cc9eeb8	0.024649963
107	0x3e702f0d	0.23455448
108	0xa549eeab	-1.7514835e-16
109	0x3db2c841	0.08729602
110	0x38ca2e52	9.6407384e-05
111	0x800038eb	-2.0418e-41
112	0x3dbcf933	0.092272185
113	0x8000b4c7	-6.485e-41
114	0x3d0f833b	0.03503726
115	0x3df7ad14	0.12093559
116	0x00006412	3.5898e-41
117	0x3db738d7	0.08946388
118	0x388732d7	6.446771e-05
119	0x99698157	-1.2071938e-23
120	0x80003e66	-2.2384e-41
121	0x000071b4	4.0789e-41
122	0x80001bc7	-9.965e-42
123	0xa536d828	-1.585922e-16
124	0x89b57683	-4.3685613e-33
125	0x96228185	-1.3127125e-25
126	0x80004887	-2.6018e-41
127	0x901e13fd	-3.1175404e-29

mlp.3.bias f4 [16]
0	0x3a671979	0.00088157464
1	0x39a4a083	0.00031400108
2	0x36324d90	2.6569214e-06
3	0x80003d2e	-2.1947e-41
4	0xb88064d4	-6.122296e-05
5	0x3a0e3b96	0.0005425749
6	0x000008e8	3.195e-42
7	0x39d79e12	0.00041125767
8	0x3a4447aa	0.00074874854
9	0x39bf5ba1	0.00036498628
10	0x394c3222	0.00019473632
11	0x1594b6b1	6.006496e-26
12	0xaa8620bf	-2.3825904e-13
13	0x39e1b46c	0.0004304977
14	0x39f231ee	0.00046195037
15	0x000018f7	8.956e-42

mlp.6.weight f4 [32, 16]
0	0x3dfede1a	0.12444706
1	0x3cc5e310	0.024156123
2	0xbc424f3b	-0.01185971
3	0x8000d0af	-7.4862e-41
4	0xbb671721	-0.0035261589
5	0x3d5a9fae	0.05337494
6	0x9d60c394	-2.9747265e-21
7	0x3e0124da	0.12611714
8	0x3ddb407b	0.10705658
9	0x3db4333d	0.087988354
10	0x3c240f33	0.010013389
11	0x1ba016e2	2.6484567e-22
12	0xabbc0e48	-1.3362167e-12
13	0x3dabe0a2	0.08392455
14	0x3d414be4	0.047191516
15	0x80003f4e	-2.271e-41
16	0x0f4ce10b	1.0101318e-29
17	0x8e5ee81c	-2.747537e-30
18	0x8ee77308	-5.7056668e-30
19	0x80008e03	-5.0944e-41
20	0x8f637368	-1.12141905e-29
21	0x9076988c	-4.8632464e-29
22	0x8000d055	-7.4735e-41
23	0x91d928d3	-3.4261723e-28
24	0x9043fae3	-3.8650245e-29
25	0x902b0a3f	-3.3731697e-29
26	0x90101f83	-2.8423268e-29
27	0x86dc1133	-8.2780074e-35
28	0x0ad2af42	2.0288189e-32
29	0x90a868c7	-6.642575e-29
30	0x0edb0b90	5.3998802e-30
31	0x00002c1a	1.582e-41
32	0x3dcbd5d2	0.09952892
33	0x3cb48d1c	0.022039942
34	0xbcbf5cb5	-0.023359636
35	0x80002f5b	-1.6988e-41
36	0xbad8e4ef	-0.001654772
37	0xbda74ead	-0.08169303
38	0x8000bb04	-6.7089e-41
39	0x3d648e0f	0.05579954
40	0x3dd533b7	0.104102544
41	0x3dd5cff6	0.10440056
42	0xbca27724	-0.019832201
43	0x185a7065	2.8232584e-24
44	0xaba4d67b	-1.1712431e-12
45	0x3d1dad73	0.038495492
46	0xbcb0d3b5	-0.021585325
47	0x80012f82	-1.08878e-40
48	0x3dc02421	0.09381891
49	0x3bc0ec4a	0.005887543
50	0x3d9524bb	0.072823964
51	0x97615017	-7.280251e-25
52	0xba37e146	-0.00070144644
53	0x3d9bb9ee	0.07603823
54	0x2297bdaa	4.1129447e-18
55	0xbdd62001	-0.10455323
56	0x3bdc192a	0.006716867
57	0x3ce2c97b	0.027683964
58	0x3bea375a	0.0071477117
59	0x16b78e59	2.9655079e-25
60	0xab200fd6	-5.6865396e-13
61	0xbd98474c	-0.07435474
62	0xbccd1403	-0.025033956
63	0x0000105c	5.869e-42
64	0x80003bc6	-2.1443e-41
65	0x80007c00	-4.4483e-41
66	0x88d3ea34	-1.27541615e-33
67	0x8000610b	-3.4812e-41
68	0x9efedadd	-2.6983816e-20
69	0x80005328	-2.9831e-41
70	0x0000283b	1.4432e-41
71	0x800082a1	-4.6861e-41
72	0x8000d3ad	-7.5935e-41
73	0x1e0bfb10	7.410517e-21
74	0x9faa89b2	-7.22256e-20
75	0xa1485c67	-6.788493e-19
76	0x0fcd351f	2.0235022e-29
77	0x00000d49	4.766e-42
78	0x8000a654	-5.9667e-41
79	0x905887df	-4.270316e-29
80	0xa098d5f0	-2.5891374e-19
81	0x1ce57149	1.5183232e-21
82	0x9f088a13	-2.8913333e-20
83	0x00001dc4	1.0678e-41
84	0x9f1be9a6	-3.3015796e-20
85	0x9f319ae6	-3.7609337e-20
86	0x80007626	-4.2384e-41
87	0xa00498c4	-1.1231381e-19
88	0x9fa8265b	-7.121422e-20
89	0x21a98f62	1.1489839e-18
90	0x9facc09d	-7.3163485e-20
91	0x0001dd90	1.71317e-40
92	0x8eb94bff	-4.5679203e-30
93	0xa004506d	-1.1207446e-19
94	0x9faa2272	-7.2054786e-20
95	0x00007ee4	4.552e-41
96	0x3e1870b1	0.14886738
97	0x3c6d122b	0.014469664
98	0x3c4466ca	0.011987397
99	0x0e747668	3.0132333e-30
100	0xbb811474	-0.003939206
101	0xbbd9337f	-0.0066284533
102	0x950af902	-2.806531e-26
103	0xbdaa8693	-0.08326449
104	0x3dca2e7c	0.098721474
105	0xbd8f9817	-0.07011431
106	0x3cfc2a5c	0.030781917
107	0x187e7954	3.2889986e-24
108	0xabc30571	-1.3857094e-12
109	0x3de1363b	0.10996672
110	0x3d2af1af	0.041734394
111	0x8083677d	-1.2067575e-38
112	0x9e8e18a8	-1.5045032e-20
113	0x9c235dc5	-5.405337e-22
114	0x9e06088d	-7.095669e-21
115	0x800071dd	-4.0846e-41
116	0x9cfb734e	-1.6639592e-21
117	0x9e79800e	-1.3208431e-20
118	0x1b0ab1cc	1.1472542e-22
119	0x9e38cdb5	-9.783418e-21
120	0x9f02b9df	-2.768232e-20
121	0x206572f2	1.9435087e-19
122	0x9e0120a8	-6.835956e-21
123	0x14315474	8.952872e-27
124	0x0d5e0b72	6.842281e-31
125	0x9bcc578f	-3.3805552e-22
126	0x9fce5b46	-8.739539e-20
127	0x967f3aa8	-2.0617245e-25
128	0x3d2c5d90	0.042081416
129	0xbaaaf6fc	-0.0013043578
130	0xbcd26091	-0.025680812
131	0x80004824	-2.5879e-41
132	0x385bda69	5.241708e-05
133	0x3c2cac8a	0.010539183
134	0x80005e98	-3.3934e-41
135	0x3d12a68b	0.03580336
136	0xbd324e10	-0.043531477
137	0x3cb05389	0.021524208
138	0x3c261eab	0.010139148
139	0x16631389	1.8343078e-25
140	0xa945c69d	-4.3915057e-14
141	0x3d819b5b	0.0632846
142	0x3cff741c	0.031183295
143	0x00007ef8	4.5548e-41
144	0xbc8ba769	-0.0170476
145	0xba27d789	-0.00064026617
146	0x3c7cf93b	0.015440281
147	0x800116c8	-1.00008e-40
148	0xb623569b	-2.4339304e-06
149	0xbc87219d	-0.01649552
150	0x8000331c	-1.8335e-41
151	0x3cd6b1eb	0.026207885
152	0xbc0a94e1	-0.008458347
153	0xbb4103a4	-0.0029451633
154	0xbb940730	-0.0045174584
155	0x966d6328	-1.9175996e-25
156	0xa8552d89	-1.1833749e-14
157	0x3d21a26d	0.039461542
158	0xbc11ddab	-0.008902947
159	0x8001207d	-1.0349e-40
160	0x3c251e9b	0.010078098
161	0x3ada3ecf	0.0016650798
162	0x3c0a10e8	0.008426882
163	0x000065fd	3.6587e-41
164	0xb8943482	-7.06697e-05
165	0x3c10dca7	0.00884167
166	0x1d02caa1	1.7310113e-21
167	0x3ca39c26	0.019971918
168	0x3b3a6e36	0.0028447038
169	0x3c13ec0b	0.009028445
170	0xb95edb2f	-0.00021253222
171	0x16a23096	2.6203174e-25
172	0xaab7675d	-3.2579053e-13
173	0xbb1fbfd7	-0.002437582
174	0x3cab08d0	0.020878226
175	0x9d0897e9	-1.8077986e-21
176	0xbcda1538	-0.026621446
177	0xbb9c0d29	-0.004762311
178	0x3d6b74ef	0.057484563
179	0x8000a187	-5.7945e-41
180	0x3a589c62	0.0008263049
181	0xbcf53561	-0.02993268
182	0x20307af5	1.4948463e-19
183	0x3d803f11	0.06262029
184	0xbd852a2d	-0.06502185
185	0x3d895f76	0.06707661
186	0x3b8717c7	0.0041227075
187	0x96160fcc	-1.2121888e-25
188	0x2b7827cc	8.816253e-13
189	0x3c0f85b8	0.008759908
190	0xbc85b046	-0.016319405
191	0x80005084	-2.8884e-41
192	0xbcb85a5e	-0.022504028
193	0x39d7f211	0.0004118835
194	0x3d1506cf	0.036383446
195	0x8000a33a	-5.8555e-41
196	0xb8ba8f36	-8.895846e-05
197	0x3cde64d9	0.027147697
198	0x80000fdc	-5.689e-42
199	0xbd651aad	-0.055933643
200	0xbbb367a3	-0.005475001
201	0xbcdf14d2	-0.027231608
202	0xbb88ed16	-0.0041786535
203	0x1aa582ff	6.8454036e-23
204	0xab0b23f5	-4.943262e-13
205	0x3d8cba22	0.068714395
206	0x3d23e9ce	0.040017895
207	0x00006c26	3.8796e-41
208	0x3c440432	0.011963891
209	0x3bce2bd1	0.0062918444
210	0xbd434f1f	-0.047682878
211	0x00008acd	4.9792e-41
212	0xba53e221	-0.0008082707
213	0xbd063f38	-0.032775134
214	0x22207e82	2.1751016e-18
215	0x3d02af8d	0.0319057
216	0x3d7a826c	0.061159536
217	0xbd40bcb7	-0.047054972
218	0x3d366980	0.044534206
219	0x170f314b	4.626801e-25
220	0xad31fba3	-1.011716e-11
221	0x3d94737f	0.07248592
222	0x3d8f8df8	0.070095
223	0x8bb0383d	-6.787735e-32
224	0x1bee6a4b	3.9442487e-22
225	0x1a46ed5e	4.1137184e-23
226	0x9a895229	-5.679461e-23
227	0x20120150	1.2367115e-19
228	0x197b1ce1	1.2982228e-23
229	0x9bd01c87	-3.442915e-22
230	0x80018dfa	-1.42767e-40
231	0x9bf27b7b	-4.011534e-22
232	0x9bc4334e	-3.2458635e-22
233	0x1b90b009	2.3936562e-22
234	0x1b06c5a0	1.1148076e-22
235	0x8000069b	-2.37e-42
236	0x8c03bd77	-1.0148888e-31
237	0x9c64b13a	-7.566793e-22
238	0x9bc5a200	-3.2695606e-22
239	0x11bd9441	2.991031e-28
240	0x3d81656b	0.06318172
241	0x39e59c45	0.00043794714
242	0xbd8a8101	-0.06762887
243	0x00000643	2.246e-42
244	0xba211628	-0.0006144964
245	0xbc981dc9	-0.01856889
246	0x816103a6	-4.132859e-38
247	0xbdc03669	-0.09385378
248	0x3cbff342	0.023431424
249	0x3ccea5ae	0.025225487
250	0xbd0ccbdc	-0.034374103
251	0x9ed8e776	-2.296562e-20
252	0xab2b2778	-6.080618e-13
253	0x3d8f1c0e	0.06987773
254	0x3d534a93	0.05158479
255	0x8000aa53	-6.1101e-41

mlp.6.bias f4 [32]
0	0x3b02c5b5	0.0019954268
1	0x14a14e89	1.6287822e-26
2	0x3a445728	0.0007489794
3	0x3968d4e5	0.00022204554
4	0xa13384c8	-6.0823294e-19
5	0x9dc3d3a2	-5.1834893e-21
6	0x3a6acf0c	0.0008957244
7	0x9c1804ae	-5.029863e-22
8	0x379b5e58	1.8521372e-05
9	0xb824731f	-3.9207862e-05
10	0x38c2f113	9.2955444e-05
11	0xb7aa7d4b	-2.0323923e-05
12	0x384eefce	4.9337563e-05
13	0x39bf8f6f	0.00036537225
14	0x1f1a76e0	3.27091e-20
15	0x38883efa	6.496716e-05
16	0x3ae49102	0.0017438235
17	0x29870ecc	5.997771e-14
18	0x80009f35	-5.7113e-41
19	0x1b55c95d	1.7684011e-22
20	0x3a80f28a	0.0009837907
21	0x392e0ae4	0.0001659799
22	0x1da0448b	4.242252e-21
23	0xb9c39612	-0.0003730511
24	0x80004b19	-2.694e-41
25	0xb6bcf321	-5.6311405e-06
26	0x36023ab5	1.9405682e-06
27	0x976ad189	-7.587395e-25
28	0x3a599941	0.00083007297
29	0x39eaf2b3	0.00044812783
30	0x3aa287b3	0.0012400061
31	0x3a1a078a	0.0005875757

mlp.9.weight f4 [64, 32]
0	0x3dd2e71b	0.10297986
1	0x0f7a961b	1.2354861e-29
2	0x3d30be01	0.04314995
3	0x3c784987	0.015154249
4	0x0000794b	4.3512e-41
5	0x1dec527a	6.255396e-21
6	0x3d2b88f0	0.04187864
7	0x188b4c0b	3.600744e-24
8	0xbd10c9a1	-0.03534854
9	0xbb9a671c	-0.0047119986
10	0x3c957648	0.018244877
11	0xbca138c9	-0.019680398
12	0xbba89da3	-0.005145745
13	0x3d091abf	0.033472773
14	0x9ab250f1	-7.374984e-23
15	0x3c0e63cc	0.008690786
16	0x3c890a8d	0.016728664
17	0xab0e2082	-5.049365e-13
18	0x80009ad6	-5.5545e-41
19	0x19eaf434	2.4293666e-23
20	0x3d7347a3	0.05939449
21	0x3c466b65	0.012110566
22	0x1a9ad882	6.4042694e-23
23	0xbcce76c4	-0.025203116
24	0x80007a45	-4.3862e-41
25	0x3a06d522	0.00051434536
26	0x39d7ed25	0.00041184682
27	0x80002bed	-1.5758e-41
28	0x3d989681	0.07450581
29	0x3d07bd61	0.03313959
30	0x3dab18ff	0.08354377
31	0x3ccbdc00	0.024885178
32	0x3d518ce5	0.051159758
33	0x0d8291c7	8.046963e-31
34	0xbb9c28e6	-0.0047656177
35	0xb9a82dbb	-0.0003207753
36	0x8000089b	-3.087e-42
37	0x1cd2f147	1.3959003e-21
38	0xbba6f744	-0.0050953943
39	0x1ac4f0c5	8.1452684e-23
40	0x3ca00d9d	0.019537741
41	0x390ed896	0.0001362286
42	0xbbe4c5e5	-0.0069815987
43	0x3a9933bb	0.001168839
44	0xba13edaf	-0.00056430226
45	0x3b2d8fbe	0.0026483382
46	0x9a2697c4	-3.445059e-23
47	0xb9521ab5	-0.0002003711
48	0xbd3efcf0	-0.04662794
49	0x28d2e599	2.3414256e-14
50	0x00001bfa	1.0036e-41
51	0x93780e62	-3.1309092e-27
52	0xbd0840a7	-0.033264782
53	0xbaec9c0f	-0.001805188
54	0x966c00a6	-1.9064133e-25
55	0x3bf5d010	0.0075016096
56	0x80007194	-4.0744e-41
57	0xb71b2f5a	-9.249745e-06
58	0xb9702dc0	-0.00022905227
59	0x00009b59	5.5728e-41
60	0xbbc5ad40	-0.006032616
61	0x3c960b97	0.018316073
62	0x3c1cca97	0.009569786
63	0xbaf4a11a	-0.0018663735
64	0x800059df	-3.224e-41
65	0x80004029	-2.3016e-41
66	0x80001739	-8.331e-42
67	0x80001fcc	-1.1407e-41
68	0x0001160b	9.9743e-41
69	0x0000ca99	7.2678e-41
70	0x8000abca	-6.1626e-41
71	0x00009860	5.4662e-41
72	0x00012da5	1.0821e-40
73	0x80004ae0	-2.686e-41
74	0x8000644f	-3.5984e-41
75	0x0000e699	8.2723e-41
76	0x80003278	-1.8105e-41
77	0x80005145	-2.9154e-41
78	0x00007d68	4.4987e-41
79	0x80007550	-4.2084e-41
80	0x000051c0	2.9326e-41
81	0x80005c7d	-3.3179e-41
82	0x80000510	-1.816e-42
83	0x039532c2	8.769086e-37
84	0x0000ac87	6.1891e-41
85	0x000001cf	6.49e-43
86	0x8000df83	-8.0181e-41
87	0x800104fe	-9.3626e-41
88	0x8000ba51	-6.6838e-41
89	0x80007c25	-4.4535e-41
90	0x80003415	-1.8684e-41
91	0x80008be4	-5.0183e-41
92	0x0000a275	5.8279e-41
93	0x00004a8b	2.6741e-41
94	0x00008694	4.8278e-41
95	0x8604cb31	-2.4975722e-35
96	0xbdcd41ac	-0.100222915
97	0x8e10dc0e	-1.7855323e-30
98	0x3d614950	0.055001557
99	0x3bc99e1e	0.0061528822
100	0x80001cc8	-1.0325e-41
101	0x9c1ae0c6	-5.124484e-22
102	0x3d1b8875	0.037971932
103	0x1ab6499c	7.539236e-23
104	0x3d64cd4d	0.055859853
105	0x3b8b0619	0.0042426703
106	0x3a0ff6e4	0.00054918067
107	0x3c882fdb	0.016624382
108	0xbabaf6a7	-0.0014264182
109	0x3d1baa22	0.03800405
110	0x99d52b3a	-2.2041143e-23
111	0x3b60923e	0.0034266855
112	0x3cdc80dd	0.026916916
113	0xaa68096e	-2.0609011e-13
114	0x80000a0c	-3.604e-42
115	0x193ca709	9.753105e-24
116	0xbd034e7c	-0.03205727
117	0x3c504f26	0.012714183
118	0x1a3cee33	3.9069905e-23
119	0xbd005b2b	-0.031336945
120	0x80009e30	-5.6747e-41
121	0x3951534b	0.00019962822
122	0x3bfcf0ef	0.007719151
123	0x80006198	-3.501e-41
124	0x3d75f8ec	0.060051844
125	0xbd015854	-0.031578377
126	0x3dabe41c	0.08393118
127	0x3c8ddf18	0.017318293
128	0x3c854268	0.016267017
129	0x8e6f3d50	-2.9488545e-30
130	0x3b362c5d	0.0027797439
131	0x3a904d1e	0.0011009311
132	0x00053147	4.76855e-40
133	0x9da3ddd1	-4.3375094e-21
134	0x37ccbc56	2.4406396e-05
135	0x9c95ca7b	-9.912333e-22
136	0x3bfd8228	0.007736463
137	0xb9dfc425	-0.00042680014
138	0xbb50c76b	-0.0031857144
139	0xbb040c82	-0.0020149057
140	0xba70a49d	-0.0009179803
141	0x3b47dde9	0.003049726
142	0x1a159559	3.093312e-23
143	0x3a1ad670	0.00059065875
144	0x3c82c6e7	0.015963985
145	0xa9bd505a	-8.407225e-14
146	0x0000c712	7.1413e-41
147	0x9827a4fc	-2.166754e-24
148	0xbb6d2e7e	-0.0036191042
149	0x3ab3966e	0.0013701448
150	0x1792a643	9.476999e-25
151	0xbb8cc847	-0.004296336
152	0x8000bbc7	-6.7362e-41
153	0x381dd430	3.7629332e-05
154	0x385b2fa1	5.2258027e-05
155	0x000222ec	1.96199e-40
156	0x3bee4db8	0.0072724484
157	0xbc80dc88	-0.015730157
158	0x3c6b3987	0.014356977
159	0x3bb11d65	0.0054051154
160	0x00006026	3.4492e-41
161	0x0000bbdf	6.7395e-41
162	0x80006e30	-3.9528e-41
163	0x0000c9c2	7.2377e-41
164	0x800017f1	-8.589e-42
165	0x8000dfd8	-8.03e-41
166	0x80006226	-3.5209e-41
167	0x00001d98	1.0616e-41
168	0x86eb0c78	-8.8415496e-35
169	0x00008629	4.8128e-41
170	0x8000b9d8	-6.6668e-41
171	0x8000c87c	-7.192e-41
172	0x80003b36	-2.1241e-41
173	0x0000b210	6.3877e-41
174	0x00001b1f	9.729e-42
175	0x80006877	-3.7475e-41
176	0x0000825a	4.6761e-41
177	0x8000a4d6	-5.9132e-41
178	0x8001058a	-9.3823e-41
179	0x00003d97	2.2094e-41
180	0x80012c55	-1.07739e-40
181	0x00009c18	5.5996e-41
182	0x800099eb	-5.5215e-41
183	0x8000b70d	-6.5666e-41
184	0x0000af2b	6.2838e-41
185	0x0000ee30	8.5446e-41
186	0x80001ae3	-9.645e-42
187	0x000040ad	2.3201e-41
188	0x000081c7	4.6555e-41
189	0x00008619	4.8105e-41
190	0x8000abb3	-6.1594e-41
191	0x800016a0	-8.116e-42
192	0x8000935d	-5.2864e-41
193	0x0002ca69	2.56282e-40
194	0x800046b4	-2.5364e-41
195	0x80019d50	-1.48269e-40
196	0x80000158	-4.82e-43
197	0x00004cc1	2.7534e-41
198	0x80000809	-2.882e-42
199	0x031a2038	4.529352e-37
200	0x0000be51	6.8273e-41
201	0x8000f11e	-8.6497e-41
202	0x85142416	-6.9655545e-36
203	0x80006969	-3.7814e-41
204	0x00004ad4	2.6843e-41
205	0x8000b08c	-6.3333e-41
206	0x0000e777	8.3034e-41
207	0x000133f6	1.10476e-40
208	0x00001a1d	9.368e-42
209	0x80005da4	-3.3592e-41
210	0x0000c238	6.9673e-41
211	0x00485fe4	6.646555e-39
212	0x00008b39	4.9944e-41
213	0x00000a3f	3.676e-42
214	0x80009d31	-5.639e-41
215	0x00008a15	4.9534e-41
216	0x0000512c	2.9119e-41
217	0x8000addc	-6.2369e-41
218	0x80001c23	-1.0094e-41
219	0x000005de	2.105e-42
220	0x0000bc57	6.7564e-41
221	0x0001d22c	1.67231e-40
222	0x0001df60	1.71967e-40
223	0x00003928	2.0504e-41
224	0xbd9aa8c6	-0.07551722
225	0x80006bcb	-3.8669e-41
226	0xba8a7741	-0.0010564105
227	0x37a48dc0	1.9616331e-05
228	0x8000e822	-8.3274e-41
229	0x80866837	-1.2343342e-38
230	0xbc3e865b	-0.0116287125
231	0x8000b76c	-6.58e-41
232	0xbb20b300	-0.0024520755
233	0x3a47fea0	0.00076291896
234	0x3ce2c571	0.027682038
235	0x3c2c069d	0.010499624
236	0x3c73d215	0.01488163
237	0x3ca356b7	0.01993881
238	0x0000be00	6.8159e-41
239	0x382f4667	4.178882e-05
240	0x3d33658d	0.04379802
241	0x00009b55	5.5723e-41
242	0x00004fdc	2.8648e-41
243	0x0000e060	8.049e-41
244	0xbd637b50	-0.05553752
245	0xbb054eb5	-0.0020341102
246	0x00000e00	5.022e-42
247	0x3ce9dba5	0.028547117
248	0x000068e8	3.7633e-41
249	0x307aa74f	9.118723e-10
250	0xbaac07b6	-0.0013124857
251	0x00008474	4.7515e-41
252	0x3d06a7a3	0.032874715
253	0x3c54c435	0.0129862325
254	0x3cd6f69f	0.026240645
255	0xbc5d2f8e	-0.013500107

mlp.9.bias f4 [64]
0	0x3b832db6	0.004003252
1	0xb8910bcd	-6.916337e-05
2	0x800071c0	-4.0806e-41
3	0x3ac64e4d	0.0015129537
4	0x39824db1	0.00024853417
5	0x00008fbc	5.1562e-41
6	0x00003d38	2.1961e-41
7	0xa69ebfaf	-1.1015408e-15
8	0xb73dc3bc	-1.1310851e-05
9	0x3a1a2292	0.0005879785
10	0x3a1cd7fa	0.0005983111
11	0x00002f06	1.6869e-41
12	0x398ecb1f	0.00027235688
13	0x3a586ecf	0.0008256258
14	0x80006a7d	-3.8201e-41
15	0xb80bb8a4	-3.3312142e-05
16	0x3afda654	0.0019351938
17	0x000075c0	4.2241e-41
18	0x8000200b	-1.1495e-41
19	0x8000bd31	-6.7869e-41
20	0x3ad06aa7	0.0015900926
21	0x8000c60f	-7.105e-41
22	0x3a0ec905	0.00054468244
23	0x39804af6	0.00024469913
24	0x399974e5	0.00029269527
25	0x80007341	-4.1345e-41
26	0x3b9f8061	0.004867599
27	0xb8c48d35	-9.37231e-05
28	0x8000aebf	-6.2687e-41
29	0x3a9bc43c	0.0011884044
30	0x3aca490f	0.001543315
31	0x3b3e5f71	0.0029048587
32	0x0000b74b	6.5753e-41
33	0x82549f2d	-1.5620981e-37
34	0x38c71541	9.493018e-05
35	0x000019f0	9.305e-42
36	0x391b1fd8	0.00014793815
37	0xb59f07dc	-1.184871e-06
38	0x3ae3990b	0.0017364336
39	0x3a931dd7	0.0011224103
40	0x39874ac0	0.000258049
41	0x800056ca	-3.1134e-41
42	0x8000b924	-6.6416e-41
43	0xb83883ca	-4.3991757e-05
44	0xa5baaf86	-3.2384796e-16
45	0x3aef282e	0.0018246227
46	0x0000558c	3.0688e-41
47	0x3a13a55c	0.00056322454
48	0x80008aae	-4.9749e-41
49	0x3af4a515	0.0018664921
50	0x37bde8b0	2.263891e-05
51	0x3a6547c4	0.00087463506
52	0x8000763b	-4.2413e-41
53	0x3a578660	0.00082216226
54	0x3a9d4118	0.0011997549
55	0x3ac79c28	0.0015229033
56	0xb647697a	-2.9714706e-06
57	0x00006509	3.6245e-41
58	0x13f855a6	6.2688457e-27
59	0x000061d9	3.5101e-41
60	0x060b8203	2.6238512e-35
61	0x80007883	-4.3231e-41
62	0x3b090ee7	0.0020913424
63	0x000007f9	2.86e-42

mlp.12.weight f4 [128, 64]
0	0x000205e7	1.85788e-40
1	0x00007866	4.3191e-41
2	0x0000659a	3.6448e-41
3	0x8000c017	-6.8909e-41
4	0x8000c598	-7.0883e-41
5	0x80009a2f	-5.531e-41
6	0x800096e6	-5.4132e-41
7	0x0000bd71	6.7959e-41
8	0x00007bf9	4.4473e-41
9	0x0000e020	8.0401e-41
10	0x80009f99	-5.7253e-41
11	0x800026f3	-1.3972e-41
12	0x800061af	-3.5042e-41
13	0x0002a865	2.4408e-40
14	0x8000ad64	-6.2201e-41
15	0x80007c48	-4.4584e-41
16	0x8001360a	-1.11221e-40
17	0x8000c6d6	-7.1329e-41
18	0x0000ee3c	8.5462e-41
19	0x000003ac	1.317e-42
20	0x800107b1	-9.4595e-41
21	0x80004208	-2.3688e-41
22	0x0000bf45	6.8615e-41
23	0x80006d0e	-3.9121e-41
24	0x80006b7a	-3.8555e-41
25	0x8000ca9e	-7.2685e-41
26	0x8003a379	-3.3415e-40
27	0x00009ae7	5.5568e-41
28	0x80007806	-4.3056e-41
29	0x8000fd9f	-9.0982e-41
30	0x8000c945	-7.2202e-41
31	0x8002825c	-2.30435e-40
32	0x8000856c	-4.7863e-41
33	0x00000269	8.65e-43
34	0x800079c8	-4.3687e-41
35	0x0000bd70	6.7957e-41
36	0x00004a56	2.6667e-41
37	0x8000bcc9	-6.7723e-41
38	0x8001cef5	-1.66078e-40
39	0x800074f8	-4.196e-41
40	0x80007f7f	-4.5737e-41
41	0x00004d17	2.7655e-41
42	0x8000c909	-7.2118e-41
43	0x0000de05	7.9646e-41
44	0x00004766	2.5613e-41
45	0x800199ea	-1.4705e-40
46	0x000131a7	1.09647e-40
47	0x80008eae	-5.1184e-41
48	0x800144fa	-1.1658e-40
49	0x0001e925	1.75472e-40
50	0x0000de4c	7.9745e-41
51	0x8000ba10	-6.6747e-41
52	0x8000cc8b	-7.3376e-41
53	0x80013a9f	-1.12865e-40
54	0x8003b627	-3.4085e-40
55	0x8000dc1d	-7.8962e-41
56	0x000018b6	8.865e-42
57	0x00009ce1	5.6278e-41
58	0x80009cfe	-5.6318e-41
59	0x800067eb	-3.7279e-41
60	0x00005a2e	3.235e-41
61	0x0000733c	4.1338e-41
62	0x8001b252	-1.55805e-40
63	0x00008ae2	4.9822e-41
64	0xbc8aeabb	-0.016957631
65	0xba3dc3b8	-0.0007238942
66	0x80007685	-4.2517e-41
67	0x3a3263a2	0.00068050076
68	0x2eb4836e	8.208799e-11
69	0x800048ab	-2.6068e-41
70	0x8001447d	-1.16404e-40
71	0x39e8f118	0.00044430117
72	0x2e9e2b20	7.192669e-11
73	0xbaee35e1	-0.0018174016
74	0x3c6c6d2e	0.014430327
75	0x00011dc0	1.02508e-40
76	0xafa07cb3	-2.9192435e-10
77	0x3a8e042b	0.0010834982
78	0x80009762	-5.4306e-41
79	0xb9283617	-0.00016041879
80	0x3b248887	0.002510579
81	0x000089ec	4.9477e-41
82	0x80008eba	-5.12e-41
83	0x000030cb	1.7504e-41
84	0x3bb4bb78	0.005515512
85	0x80011e4e	-1.02707e-40
86	0x38b9bf94	8.8571716e-05
87	0xba1027e4	-0.0005499108
88	0x373e17c3	1.1330415e-05
89	0x8000245a	-1.304e-41
90	0x3bcd95ad	0.0062739463
91	0xb81d3ad3	-3.74865e-05
92	0x00008139	4.6356e-41
93	0xb9e38eb8	-0.00043403148
94	0xb8251eed	-3.9367867e-05
95	0x39aa31a2	0.00032461906
96	0x800058d4	-3.1866e-41
97	0x8000c545	-7.0767e-41
98	0x3a88cf2b	0.0010437717
99	0x800025ac	-1.3514e-41
100	0x3a9894fb	0.0011641079
101	0x30af2bec	1.2745409e-09
102	0x368e73f7	4.24543e-06
103	0x39e75c36	0.00044128456
104	0x3be339e0	0.0069343895
105	0x80001d90	-1.0605e-41
106	0x800082d8	-4.6938e-41
107	0xb713c01f	-8.8066145e-06
108	0x00003d7c	2.2056e-41
109	0xbc878709	-0.016543882
110	0x0000aa55	6.1104e-41
111	0xb40d1f72	-1.3143088e-07
112	0xb9fd66e4	-0.0004833258
113	0xbb11e08a	-0.002225908
114	0xba80954c	-0.0009810119
115	0xba1bf5a6	-0.0005949385
116	0x0000aede	6.273e-41
117	0x347c30f6	2.3487141e-07
118	0xbbc025b4	-0.0058638696
119	0x3abba6c4	0.0014316668
120	0x80016281	-1.27172e-40
121	0x00007d59	4.4966e-41
122	0xb2d315b4	-2.4573502e-08
123	0x0000be87	6.8348e-41
124	0xbaf33795	-0.0018555993
125	0x0000a4e4	5.9152e-41
126	0x39ad1c6b	0.00033018304
127	0x00007d5c	4.497e-41
128	0xab8e4fbc	-1.0111838e-12
129	0xa68213f3	-9.025969e-16
130	0x8001f934	-1.81233e-40
131	0xaa7b8a92	-2.2341355e-13
132	0xaa54aa4d	-1.8888467e-13
133	0x8000bb5e	-6.7215e-41
134	0x80007c04	-4.4488e-41
135	0x0000ecbd	8.4926e-41
136	0x28430c10	1.082729e-14
137	0xaa221347	-1.4395179e-13
138	0xaa6ed566	-2.1212684e-13
139	0x0000bf92	6.8722e-41
140	0x24b5f4fd	7.8911264e-17
141	0x2acd3665	3.645306e-13
142	0x000020a2	1.1706e-41
143	0x2b057072	4.740714e-13
144	0xab5d391e	-7.859424e-13
145	0x800033d1	-1.8588e-41
146	0x800118bf	-1.00713e-40
147	0x8000a07d	-5.7572e-41
148	0xaab779b0	-3.2591768e-13
149	0x80003bf9	-2.1514e-41
150	0xaa623987	-2.0092791e-13
151	0xa837fd26	-1.02134335e-14
152	0x2b22581a	5.7676227e-13
153	0x80002a7f	-1.5245e-41
154	0xac04176f	-1.8771336e-12
155	0xa71c455d	-2.168695e-15
156	0x0000324a	1.804e-41
157	0x2ba892dc	1.197788e-12
158	0xa80852f1	-7.567502e-15
159	0xab65bbf0	-8.161796e-13
160	0x0000c00e	6.8896e-41
161	0x80003595	-1.9222e-41
162	0xaa53289b	-1.8754653e-13
163	0x000036ef	1.9706e-41
164	0xa9a54c2e	-7.340687e-14
165	0xa6dcc480	-1.5318828e-15
166	0xaa410e34	-1.7146771e-13
167	0xab3e6c16	-6.765156e-13
168	0xaa0402c3	-1.1724913e-13
169	0x800086cf	-4.836e-41
170	0x8000f54e	-8.7999e-41
171	0xa786c823	-3.740946e-15
172	0x94471f30	-1.0053083e-26
173	0xab5932b5	-7.7164257e-13
174	0x0000f476	8.7696e-41
175	0xaa73a819	-2.1641056e-13
176	0x80005c48	-3.3104e-41
177	0x29d0e8c8	9.277437e-14
178	0xa9b359c2	-7.9647674e-14
179	0x2b4a7878	7.1932e-13
180	0x0000549f	3.0356e-41
181	0x2c1da7b5	2.2404138e-12
182	0xaae48b01	-4.059739e-13
183	0xab28953e	-5.9892705e-13
184	0xa694c662	-1.0323335e-15
185	0x8000726a	-4.1044e-41
186	0x800001ee	-6.92e-43
187	0x8000e1ef	-8.105e-41
188	0x800024c6	-1.3192e-41
189	0x8000c20f	-6.9615e-41
190	0xab4cd5ae	-7.27719e-13
191	0x0000abc2	6.1615e-41
192	0x2f37c144	1.6712415e-10
193	0xa592f927	-2.5495795e-16
194	0x0000b81b	6.6045e-41
195	0x2f1c916e	1.4239784e-10
196	0x2c83ce16	3.746124e-12
197	0x8000b8df	-6.6319e-41
198	0x80001421	-7.221e-42
199	0x800063cf	-3.5805e-41
200	0xac0397f1	-1.8700564e-12
201	0xae474171	-4.5305485e-11
202	0xaed9db5b	-9.906983e-11
203	0x80004de9	-2.7949e-41
204	0xadaaa1ad	-1.9398561e-11
205	0xae670931	-5.2531483e-11
206	0x8000829c	-4.6854e-41
207	0x2f072a9a	1.2293314e-10
208	0xafd3d23e	-3.8530062e-10
209	0x0000655f	3.6365e-41
210	0x8001735a	-1.33216e-40
211	0x00001424	7.225e-42
212	0xafd6145b	-3.8940837e-10
213	0x00000d87	4.853e-42
214	0xaf08865a	-1.2416859e-10
215	0xac760635	-3.4962148e-12
216	0xae8aedb3	-6.317737e-11
217	0x80004c2b	-2.7324e-41
218	0xae5a8b6a	-4.9691286e-11
219	0xab22c105	-5.782183e-13
220	0x00004db8	2.788e-41
221	0xaedab260	-9.945178e-11
222	0xaeed18c4	-1.07819115e-10
223	0xaf0cd688	-1.2809143e-10
224	0x000029f3	1.5049e-41
225	0x0000f315	8.7201e-41
226	0x2ca42968	4.6657574e-12
227	0x000090db	5.1964e-41
228	0x2c7e4807	3.6135554e-12
229	0xaa4e2421	-1.830901e-13
230	0x2d023f52	7.403704e-12
231	0xaf571ce4	-1.95644e-10
232	0xad03ce69	-7.49232e-12
233	0x00003398	1.8508e-41
234	0x00006fc0	4.0088e-41
235	0xad05bb2a	-7.6017335e-12
236	0x996fb32c	-1.2392194e-23
237	0xae1ea7d8	-3.6074116e-11
238	0x8000253c	-1.3357e-41
239	0xad8bdaba	-1.5899605e-11
240	0x8001076d	-9.45e-41
241	0xb03f717b	-6.964666e-10
242	0xad0a41a5	-7.858968e-12
243	0x2c527594	2.9908064e-12
244	0x000033f2	1.8634e-41
245	0xaf822e33	-2.367969e-10
246	0xae46e7d3	-4.522589e-11
247	0xae9802d3	-6.9126614e-11
248	0xa9ff59c0	-1.1339844e-13
249	0x00003155	1.7697e-41
250	0x0000388e	2.0288e-41
251	0x8000cf4c	-7.4364e-41
252	0x80049ff3	-4.24721e-40
253	0x80009c04	-5.5968e-41
254	0xae1478ea	-3.3758697e-11
255	0x0000edc6	8.5297e-41

mlp.12.bias f4 [128]
0	0x000113e2	9.8968e-41
1	0x1f9a0d1a	6.524321e-20
2	0x2a2a4468	1.5122766e-13
3	0x2ee4d266	1.0405614e-10
4	0x2b4b0a37	7.2134264e-13
5	0xac49623f	-2.8618356e-12
6	0x3a0369d6	0.0005013024
7	0x801a54f9	-2.418205e-39
8	0x38d4a592	0.000101397876
9	0x9b687aef	-1.9230312e-22
10	0x9ff2ef2b	-1.0288666e-19
11	0x87c4ccb0	-2.9611107e-34
12	0x3b1fe9da	0.002440086
13	0x93dd2836	-5.5827894e-27
14	0x3b827bd4	0.0039820466
15	0xaace701e	-3.6670748e-13
16	0x9198bf7e	-2.4099388e-28
17	0x8e468ffa	-2.4474706e-30
18	0x3ade3586	0.0016953207
19	0x171e189e	5.1083625e-25
20	0x80036e6c	-3.15118e-40
21	0x21c34511	1.3231996e-18
22	0x398a0441	0.0002632458
23	0x3b62e48a	0.0034621083
24	0xb27db393	-1.4767369e-08
25	0xb85fc71b	-5.3352775e-05
26	0x2340d281	1.0452917e-17
27	0xb6fc223e	-7.5141716e-06
28	0xa3710c0a	-1.30671855e-17
29	0xb8be594c	-9.076539e-05
30	0xb8e154ab	-0.00010744607
31	0x2d9a4d68	1.7542148e-11
32	0x3b090454	0.002090712
33	0x391bdad3	0.0001486347
34	0x07d02fa9	3.1324374e-34
35	0x3c0a541d	0.008442906
36	0x80005ca6	-3.3236e-41
37	0x320dee41	8.261453e-09
38	0x3b4d052e	0.0031283605
39	0x8000aa4c	-6.1091e-41
40	0x8000d95e	-7.7977e-41
41	0x392fd68d	0.00016769227
42	0xb3ae3605	-8.1123325e-08
43	0x0000b151	6.3609e-41
44	0xba655d00	-0.0008749515
45	0x393c2aa4	0.00017944962
46	0x3ad87313	0.0016513787
47	0x80006184	-3.4982e-41
48	0x8000a338	-5.8552e-41
49	0x81826af0	-4.7907906e-38
50	0x89940883	-3.563771e-33
51	0x38acda42	8.242253e-05
52	0x2aa919a5	3.0038225e-13
53	0x3c477383	0.012173536
54	0x3c068fa6	0.008212959
55	0x800076df	-4.2643e-41
56	0x80005a41	-3.2377e-41
57	0x8517f5fd	-7.145167e-36
58	0x3b9cb748	0.004782591
59	0x3b40bd74	0.0029409798
60	0x3b975dbb	0.004619328
61	0x800029cd	-1.4995e-41
62	0x3b3d6c43	0.002890364
63	0xb495f213	-2.7929545e-07
64	0x3bd55575	0.0065104314
65	0x000097b9	5.4428e-41
66	0x0000d2f2	7.5673e-41
67	0x87a80805	-2.5282544e-34
68	0x000304bc	2.77205e-40
69	0x88b65d9b	-1.0975733e-33
70	0x96d7b883	-3.4851567e-25
71	0x0000a206	5.8123e-41
72	0xacff9734	-7.264323e-12
73	0x3ba78c73	0.0051131784
74	0x0d7299eb	7.475728e-31
75	0x3a0db536	0.00054057257
76	0x02ac3015	2.5300726e-37
77	0x0647bf9f	3.756852e-35
78	0x31286e7a	2.4510016e-09
79	0x36cf857b	6.18462e-06
80	0x3b705c5c	0.0036676144
81	0x9da66c61	-4.4051895e-21
82	0xb7b09c24	-2.1053544e-05
83	0x00004761	2.5606e-41
84	0x3a2d1cea	0.0006603735
85	0x8c250c5b	-1.2714856e-31
86	0x3ab97353	0.0014148749
87	0x80004a57	-2.6668e-41
88	0x3ae4344b	0.0017410604
89	0x3bc5c5b6	0.006035532
90	0x80003280	-1.8116e-41
91	0x80005bef	-3.298e-41
92	0x00002a55	1.5186e-41
93	0x3b8ba76f	0.004261903
94	0x8e240984	-2.0219142e-30
95	0xaeb4e372	-8.225855e-11
96	0x99015350	-6.6859685e-24
97	0x0002b243	2.47619e-40
98	0x23b0aa55	1.9154097e-17
99	0xacb2b5a4	-5.0792304e-12
100	0x86774662	-4.6507246e-35
101	0x39c3695f	0.00037271806
102	0x80004631	-2.518e-41
103	0xba3b8ac3	-0.0007154161
104	0x36dd41b5	6.5939626e-06
105	0xb3f44c0f	-1.13759704e-07
106	0xa5f61c90	-4.2693552e-16
107	0x39d26b5d	0.00040134313
108	0x39ce3eb1	0.0003933809
109	0x3b6f0ce6	0.0036476194
110	0x3ba8cb34	0.005151177
111	0xa1a65c37	-1.1273007e-18
112	0x2ffe5b5b	4.6267243e-10
113	0xb94c289c	-0.00019470084
114	0xac9e910f	-4.506735e-12
115	0x1bdb3214	3.6262873e-22
116	0x3ba7afbd	0.005117385
117	0xb9ab11e3	-0.00032628988
118	0xa6a6287a	-1.1529535e-15
119	0x3a7890ae	0.0009482008
120	0x3b7018b8	0.0036635827
121	0x39738d2a	0.00023226874
122	0x37931756	1.7534632e-05
123	0x3af473f8	0.0018650284
124	0x3bca332a	0.00617065
125	0x882cf4dc	-5.20472e-34
126	0x91ffd382	-4.0362258e-28
127	0x20374198	1.5522406e-19

mlp.15.weight f4 [64, 128]
0	0x00019ae9	1.47407e-40
1	0x00009f7e	5.7215e-41
2	0x00007a0d	4.3784e-41
3	0x0001a822	1.5215e-40
4	0x821967d3	-1.1270461e-37
5	0x80002b32	-1.5496e-41
6	0x0cd3a479	3.2608686e-31
7	0x0000c31e	6.9995e-41
8	0x8bf62c8a	-9.482277e-32
9	0x8000113d	-6.184e-42
10	0x8000a907	-6.0636e-41
11	0x00022ef7	2.00519e-40
12	0x8c66a768	-1.7768932e-31
13	0x0000523e	2.9503e-41
14	0x8c180301	-1.1710558e-31
15	0x81cf0c16	-7.6057133e-38
16	0x00000055	1.19e-43
17	0x80001a32	-9.397e-42
18	0x8c5da571	-1.7075006e-31
19	0x800026f3	-1.3972e-41
20	0x80006722	-3.6997e-41
21	0x80006b74	-3.8547e-41
22	0x8abd3ca3	-1.8222847e-32
23	0x0d172e56	4.658624e-31
24	0x0216f164	1.1089535e-37
25	0x8b14a526	-2.8628007e-32
26	0x00007001	4.018e-41
27	0x8864a57a	-6.880577e-34
28	0x000112c4	9.8567e-41
29	0x832a3a79	-5.0025633e-37
30	0x8b9983b7	-5.913164e-32
31	0x0001734b	1.33195e-40
32	0x8c230511	-1.2558588e-31
33	0x89f15cc8	-5.810589e-33
34	0x00017a32	1.35671e-40
35	0x8d81da09	-8.002729e-31
36	0x00002e15	1.6531e-41
37	0x0000212b	1.1898e-41
38	0x0c342c1a	1.3879967e-31
39	0x80016253	-1.27108e-40
40	0x0000838c	4.719e-41
41	0x8bf2ebd5	-9.356985e-32
42	0x8041ddd6	-6.048887e-39
43	0x80016397	-1.27562e-40
44	0x83df1cc9	-1.3113371e-36
45	0x8b8f8042	-5.527458e-32
46	0x8c4dd1e8	-1.5855792e-31
47	0x0000b0a7	6.3371e-41
48	0x80007ec3	-4.5474e-41
49	0x00001853	8.726e-42
50	0x80003050	-1.7331e-41
51	0x8b377798	-3.533449e-32
52	0x00001aca	9.61e-42
53	0x0d7c204b	7.7692367e-31
54	0x8cbe08f8	-2.9279533e-31
55	0x8000b92d	-6.6429e-41
56	0x8000c5ac	-7.0911e-41
57	0x0000bd04	6.7806e-41
58	0x8d325379	-5.495096e-31
59	0x8c2ff03a	-1.35538e-31
60	0x0cfa146e	3.8530895e-31
61	0x0000d626	7.6822e-41
62	0x8c7eba4c	-1.962351e-31
63	0x86cb44da	-7.646128e-35
64	0x8caf97b6	-2.7054327e-31
65	0x0000984c	5.4634e-41
66	0x8000d95d	-7.7975e-41
67	0x8000beac	-6.84e-41
68	0x8000be4a	-6.8263e-41
69	0x0000b48a	6.4765e-41
70	0x00009f44	5.7134e-41
71	0x8000fa82	-8.9865e-41
72	0x0000ccc0	7.345e-41
73	0x0d2e2ced	5.3671967e-31
74	0x0000b794	6.5855e-41
75	0x8c0bf727	-1.0782545e-31
76	0x0000a36c	5.8625e-41
77	0x8000c4e0	-7.0625e-41
78	0x00012e00	1.08337e-40
79	0x00ec34c6	2.1692109e-38
80	0x8c885838	-2.1007213e-31
81	0x0001204d	1.03423e-40
82	0x8aa8250a	-1.6191744e-32
83	0x8000ae4f	-6.253e-41
84	0x8b5f5c12	-4.3017504e-32
85	0x8001c65b	-1.62992e-40
86	0x0bb4aaf0	6.9590676e-32
87	0x0001fd55	1.82714e-40
88	0x8c33722b	-1.3824015e-31
89	0x8cb5182b	-2.790201e-31
90	0x8000b7dc	-6.5956e-41
91	0x80004ce7	-2.7587e-41
92	0x80009aab	-5.5484e-41
93	0x0d964ea3	9.263395e-31
94	0x00004a1a	2.6583e-41
95	0x80000601	-2.154e-42
96	0x00004978	2.6356e-41
97	0x0000a482	5.9014e-41
98	0x8000227b	-1.2369e-41
99	0x000178f3	1.35224e-40
100	0x8000c4ae	-7.0555e-41
101	0x8b012a8b	-2.4876502e-32
102	0x8000a79b	-6.0126e-41
103	0x8c9a1ca0	-2.3744685e-31
104	0x04c237a7	4.566029e-36
105	0x80009563	-5.359e-41
106	0x0000a56a	5.934e-41
107	0x8b98199b	-5.85868e-32
108	0x0a2c5c36	8.298842e-33
109	0x8c5c4a19	-1.6970481e-31
110	0x8ca04230	-2.4691738e-31
111	0x80005966	-3.207e-41
112	0x800701f5	-6.4355e-40
113	0x8607d675	-2.5548236e-35
114	0x8002fe55	-2.74908e-40
115	0x00008e9e	5.1161e-41
116	0x8cc1ab6a	-2.9839524e-31
117	0x038ea66e	8.38422e-37
118	0x0000812b	4.6337e-41
119	0x8c058583	-1.0286125e-31
120	0x0cc37bad	3.0118942e-31
121	0x8ac65087	-1.9096997e-32
122	0x88bcb7f9	-1.135809e-33
123	0x8c29658e	-1.3049847e-31
124	0x8d77d4d4	-7.6368934e-31
125	0x8000067d	-2.328e-42
126	0x800668a6	-5.88554e-40
127	0x8001720a	-1.32745e-40
128	0x800050bd	-2.8963e-41
129	0x8001d3da	-1.67834e-40
130	0x80012b9b	-1.07478e-40
131	0x0002944c	2.3687e-40
132	0x001025b4	1.482893e-39
133	0x0000147b	7.347e-42
134	0x86f32185	-9.1455693e-35
135	0x0000a23c	5.8199e-41
136	0x866367bc	-4.2770167e-35
137	0x80007b16	-4.4155e-41
138	0x00031fe2	2.86944e-40
139	0x0000ad7d	6.2236e-41
140	0x8826e8cd	-5.0227464e-34
141	0x8000b7e1	-6.5963e-41
142	0x081623c0	4.5181007e-34
143	0x8000505a	-2.8825e-41
144	0x00000565	1.935e-42
145	0x8000275a	-1.4117e-41
146	0x87716a71	-1.8162105e-34
147	0x0001682a	1.29203e-40
148	0x80013cca	-1.13643e-40
149	0x000042b1	2.3924e-41
150	0x0709f887	1.037977e-34
151	0x88a7bbe2	-1.0095118e-33
152	0x8008b1d5	-7.98478e-40
153	0x8631bb2c	-3.3427512e-35
154	0x00003679	1.9541e-41
155	0x82cd1602	-3.0134675e-37
156	0x00000efa	5.373e-42
157	0x8000dbfb	-7.8914e-41
158	0x05f97a34	2.3460738e-35
159	0x80012589	-1.053e-40
160	0x88146b7f	-4.466349e-34
161	0x8623ca0d	-3.0805336e-35
162	0x00008d5e	5.0713e-41
163	0x07e220ec	3.402405e-34
164	0x80009192	-5.2221e-41
165	0x8000ba3c	-6.6808e-41
166	0x882662fc	-5.0070164e-34
167	0x0000110c	6.115e-42
168	0x00000a20	3.632e-42
169	0x87d5ee7d	-3.2188849e-34
170	0x801caabe	-2.632645e-39
171	0x800072a1	-4.1121e-41
172	0x823d92f5	-1.3927702e-37
173	0x86a4f981	-6.2056557e-35
174	0x06320919	3.3484763e-35
175	0x0000ad89	6.2253e-41
176	0x0000c183	6.9419e-41
177	0x0000cad8	7.2767e-41
178	0x0000d77c	7.7301e-41
179	0x06467e50	3.733246e-35
180	0x00005547	3.0592e-41
181	0x88f7cee8	-1.4914415e-33
182	0x8884fe44	-8.004239e-34
183	0x80000711	-2.535e-42
184	0x8000a07b	-5.757e-41
185	0x800050aa	-2.8937e-41
186	0x073002d4	1.32416e-34
187	0x064f757c	3.9018687e-35
188	0x06e78934	8.7094144e-35
189	0x8002c5a2	-2.54568e-40
190	0x87ce962f	-3.1083705e-34
191	0x01d6f773	7.8966257e-38
192	0x87d0778c	-3.1366625e-34
193	0x80001f32	-1.1191e-41
194	0x8000aa93	-6.119e-41
195	0x800170bb	-1.32276e-40
196	0x80007116	-4.0568e-41
197	0x0000c9df	7.2418e-41
198	0x0000859b	4.7929e-41
199	0x000173f6	1.33434e-40
200	0x00012969	1.0669e-40
201	0x063309ff	3.3673502e-35
202	0x800052c4	-2.9691e-41
203	0x861086f8	-2.718255e-35
204	0x000128cd	1.06472e-40
205	0x8000eeb8	-8.5636e-41
206	0x8000a140	-5.7846e-41
207	0x0000f376	8.7337e-41
208	0x88a3e24d	-9.863409e-34
209	0x80015484	-1.22154e-40
210	0x04bc7110	4.430242e-36
211	0x8000e0cf	-8.0646e-41
212	0x868cbc7b	-5.2939094e-35
213	0x00001352	6.931e-42
214	0x060aea71	2.6127156e-35
215	0x0000ba97	6.6936e-41
216	0x07c84976	3.0135832e-34
217	0x88088347	-4.1080327e-34
218	0x0000131f	6.86e-42
219	0x00005d68	3.3508e-41
220	0x80008d08	-5.0592e-41
221	0x07c82afd	3.0117922e-34
222	0x0000c73d	7.1473e-41
223	0x8001308d	-1.09252e-40
224	0x80007dfb	-4.5193e-41
225	0x00000e28	5.078e-42
226	0x00002385	1.2742e-41
227	0x00001de9	1.073e-41
228	0x0000478f	2.567e-41
229	0x0712a26e	1.1031553e-34
230	0x0000a5c6	5.9468e-41
231	0x85bd7b16	-1.7818689e-35
232	0x0001f502	1.79728e-40
233	0x80003961	-2.0584e-41
234	0x800073af	-4.15e-41
235	0x8709cbc2	-1.0366614e-34
236	0x04e92ca6	5.481904e-36
237	0x86bef2bf	-7.182674e-35
238	0x076d8179	1.7867947e-34
239	0x8000b2b8	-6.4112e-41
240	0x00007330	4.1321e-41
241	0x00234665	3.239495e-39
242	0x00029db1	2.4024e-40
243	0x00009539	5.3531e-41
244	0x0774450b	1.837681e-34
245	0x80293ce1	-3.787095e-39
246	0x0000d83a	7.7567e-41
247	0x0671bb1a	4.5464523e-35
248	0x077215df	1.8212484e-34
249	0x05d832b8	2.0331174e-35
250	0x8490b0c2	-3.4016564e-36
251	0x081237ac	4.400072e-34
252	0x867481ea	-4.5986745e-35
253	0x00008365	4.7135e-41
254	0x0000b3c5	6.4489e-41
255	0x8000d3e4	-7.6012e-41

mlp.15.bias f4 [64]
0	0x8de9fe9d	-1.442103e-30
1	0x871693da	-1.1328195e-34
2	0x8c7c0424	-1.941462e-31
3	0xaef5158d	-1.1145138e-10
4	0xbb2211c6	-0.0024729832
5	0xb7e4caa1	-2.7274074e-05
6	0x9a31fd3d	-3.6807306e-23
7	0xab31b57e	-6.3134903e-13
8	0x800097e0	-5.4482e-41
9	0xbb11f277	-0.0022269764
10	0x2e07fd90	3.0920655e-11
11	0x25e8fafb	4.0415656e-16
12	0x9fec0a26	-9.996668e-20
13	0x3bdb5906	0.006693962
14	0x3a8e9eeb	0.0010881101
15	0xbbbaa83f	-0.005696326
16	0xb1179c57	-2.206226e-09
17	0xad1cd6e6	-8.91529e-12
18	0x000013a6	7.049e-42
19	0xa4e903c6	-1.01054035e-16
20	0x000046f3	2.5452e-41
21	0xb029eeb6	-6.182107e-10
22	0x00002bfe	1.5781e-41
23	0xb87d5fb1	-6.040902e-05
24	0xaa6d1ba3	-2.1059417e-13
25	0x3d109869	0.0353016
26	0x80002f5c	-1.699e-41
27	0x00004098	2.3172e-41
28	0x3cf5e3cc	0.030015849
29	0x28884f00	1.5133294e-14
30	0x17292473	5.465285e-25
31	0x2a0b5d9e	1.237816e-13
32	0xa88409a7	-1.465913e-14
33	0xbc3a9fe3	-0.011390659
34	0x3bab7522	0.005232469
35	0x124aba47	6.3969566e-28
36	0xac3d046c	-2.686097e-12
37	0x3ce1169d	0.027476603
38	0xb87eaf7c	-6.072175e-05
39	0xa9d0d122	-9.273334e-14
40	0xbadedfed	-0.0017003991
41	0x3b41fdc2	0.0029600714
42	0x80003057	-1.7341e-41
43	0x13fca29e	6.3774096e-27
44	0xa867c07d	-1.2864815e-14
45	0x3cfcb02a	0.03084572
46	0x3b966ce5	0.004590618
47	0xa76312b1	-3.151271e-15
48	0xaae2f2e2	-4.0314198e-13
49	0x93a6ef2e	-4.214014e-27
50	0x3b6bf587	0.00360045
51	0xb867cab0	-5.526346e-05
52	0x8000bacd	-6.7011e-41
53	0x0000d24d	7.5442e-41
54	0x800585eb	-5.07218e-40
55	0xaf534f0b	-1.921842e-10
56	0x8000bb4f	-6.7194e-41
57	0x8000cfcf	-7.4548e-41
58	0x13cef8d7	5.2247086e-27
59	0x3c48f47d	0.012265322
60	0x3cd12ab3	0.025533056
61	0xb5cbb490	-1.5177229e-06
62	0xb6f613ce	-7.333677e-06
63	0xbbc72c1f	-0.0060782577

mlp.18.weight f4 [8, 64]
0	0x80007213	-4.0922e-41
1	0x8001d404	-1.67892e-40
2	0x8000c066	-6.902e-41
3	0x0000439a	2.4251e-41
4	0x8000aad5	-6.1283e-41
5	0x00003b87	2.1354e-41
6	0x80003f49	-2.2702e-41
7	0x00004297	2.3888e-41
8	0x80013b4c	-1.13107e-40
9	0x80002524	-1.3324e-41
10	0x00008f08	5.131e-41
11	0x00019650	1.45757e-40
12	0x00042b33	3.82839e-40
13	0x80002b8e	-1.5624e-41
14	0x80005f5a	-3.4206e-41
15	0x8000215d	-1.1968e-41
16	0x80003260	-1.8071e-41
17	0x0000c714	7.1416e-41
18	0x00003ea4	2.2471e-41
19	0x8000444b	-2.4499e-41
20	0x0004070d	3.69871e-40
21	0x00002995	1.4917e-41
22	0x0000bc92	6.7646e-41
23	0x0001242c	1.04812e-40
24	0x8000fc4d	-9.0508e-41
25	0x829ed411	-2.3337734e-37
26	0x0000e736	8.2943e-41
27	0x00013006	1.09063e-40
28	0xad45da4f	-1.1246628e-11
29	0x0000bf6f	6.8673e-41
30	0x000179dc	1.3555e-40
31	0x8000bf30	-6.8585e-41
32	0x80001f95	-1.133e-41
33	0x00007446	4.1711e-41
34	0x84327e4d	-2.0981794e-36
35	0x8000b96d	-6.6518e-41
36	0x00003c38	2.1602e-41
37	0x8005f88c	-5.4834e-40
38	0x00004eb1	2.8229e-41
39	0x8000c3af	-7.0198e-41
40	0x8000ca46	-7.2562e-41
41	0x0000011f	4.02e-43
42	0x000094f0	5.3429e-41
43	0x00011cc2	1.02152e-40
44	0x0000244e	1.3024e-41
45	0xa3d928a3	-2.3544397e-17
46	0x0000a4b3	5.9083e-41
47	0x00001dc9	1.0685e-41
48	0x0000a9e6	6.0948e-41
49	0x00002d6c	1.6294e-41
50	0x80009679	-5.398e-41
51	0x0000a06c	5.7549e-41
52	0x80001363	-6.955e-42
53	0x00000fa1	5.607e-42
54	0x8000537c	-2.9949e-41
55	0x8001442b	-1.1629e-40
56	0x0001b85e	1.57974e-40
57	0x8000b60d	-6.5308e-41
58	0x00001b98	9.899e-42
59	0x0000e610	8.2531e-41
60	0x80004e2c	-2.8043e-41
61	0x8000b1b1	-6.3744e-41
62	0x8000b660	-6.5424e-41
63	0x8000155a	-7.66e-42
64	0x8cda5aa5	-3.3642773e-31
65	0x0351d40d	6.1663e-37
66	0x0ae50dcf	2.2057092e-32
67	0xaf27f828	-1.5276724e-10
68	0xbc365da0	-0.01113072
69	0x380246a4	3.1060204e-05
70	0x179ed5c8	1.0264477e-24
71	0xa9fe4969	-1.12926006e-13
72	0x33375224	4.2682714e-08
73	0xbb5fe281	-0.0034162106
74	0xbb1f1266	-0.002427244
75	0xa6b3a5b9	-1.2465539e-15
76	0x20a670f2	2.8196235e-19
77	0x3d77bb29	0.060481224
78	0xbc18150a	-0.00928236
79	0x3c90be59	0.01766889
80	0xafc213af	-3.530238e-10
81	0xacf8c56e	-7.070503e-12
82	0x8000ac40	-6.1792e-41
83	0x26addae9	1.2063622e-15
84	0xb310d3ee	-3.372036e-08
85	0x2d637c97	1.2931121e-11
86	0x31b3cd4c	5.232925e-09
87	0x3bb1f32c	0.0054305997
88	0x2848e297	1.1151364e-14
89	0x3db9546b	0.090493046
90	0x2baeb395	1.2413288e-12
91	0x800066bb	-3.6853e-41
92	0x3ca6a58a	0.020342607
93	0x2a649e80	2.0305459e-13
94	0x170b1887	4.494428e-25
95	0x2adec7b2	3.9573688e-13
96	0x272b8d01	2.3807456e-15
97	0x3cacac40	0.021078229
98	0xbd51bd7d	-0.0512061
99	0x123a3e63	5.876815e-28
100	0xab1f2c85	-5.654993e-13
101	0x3dc81c77	0.09771054
102	0xb9e6b893	-0.00044006537
103	0xab790929	-8.8475283e-13
104	0x3d89c63c	0.06727263
105	0xbbd604dd	-0.0065313415
106	0xb41409ce	-1.3787141e-07
107	0x940f94af	-7.248978e-27
108	0xa8d32f89	-2.3446321e-14
109	0x3d9286f7	0.07154649
110	0x3c79ebcd	0.015253973
111	0x27f59b95	6.8169843e-15
112	0xab335719	-6.3714447e-13
113	0x9bc2c05f	-3.2218925e-22
114	0x3a56867b	0.00081834913
115	0x36969b67	4.4884396e-06
116	0x35822d9b	9.699028e-07
117	0xb406f285	-1.256795e-07
118	0x0001b2f0	1.56026e-40
119	0x91a6faa1	-2.6344644e-28
120	0x8000712c	-4.0598e-41
121	0xb3a56421	-7.7016246e-08
122	0x151f67af	3.2191586e-26
123	0x3ca36e63	0.019950097
124	0x3dc782a4	0.097417146
125	0xbc4b70cf	-0.012417032
126	0x3776b5ab	1.47050405e-05
127	0x3ca78d41	0.020453097
128	0x8000a29a	-5.833e-41
129	0x000084a2	4.758e-41
130	0x80001b2f	-9.752e-42
131	0x8000018f	-5.59e-43
132	0x3d0761cb	0.033052247
133	0x80009209	-5.2388e-41
134	0x8000cef3	-7.424e-41
135	0x00007df7	4.5188e-41
136	0x80000483	-1.618e-42
137	0xbbadd48e	-0.0053048795
138	0xbab6a1d3	-0.0013933725
139	0x8000703b	-4.0261e-41
140	0x8000a07c	-5.7571e-41
141	0xbcd87a81	-0.026425602
142	0xbafe80a6	-0.0019417002
143	0xbd60335a	-0.054736473
144	0x000002c4	9.92e-43
145	0x800087aa	-4.8667e-41
146	0x8000c6ac	-7.127e-41
147	0x80006d8b	-3.9297e-41
148	0x0000bef7	6.8505e-41
149	0x000064b7	3.613e-41
150	0x80003928	-2.0504e-41
151	0xbc1cdabf	-0.0095736375
152	0x80011d71	-1.02397e-40
153	0xba2294df	-0.0006201993
154	0x000108bc	9.4969e-41
155	0x00000e6f	5.178e-42
156	0xbd12b15c	-0.035813674
157	0x80007f22	-4.5607e-41
158	0x0001557e	1.22504e-40
159	0x8000ed58	-8.5143e-41
160	0x8000700f	-4.0199e-41
161	0x3d82ad4f	0.06380712
162	0xbc321973	-0.010870325
163	0x0000c697	7.124e-41
164	0x8000989b	-5.4745e-41
165	0x3bb411a1	0.0054952656
166	0x3aab933a	0.0013090142
167	0x8002fc5d	-2.74202e-40
168	0xb929f396	-0.00016207839
169	0x3c96e045	0.018417487
170	0x000009e0	3.542e-42
171	0x000059a9	3.2164e-41
172	0x8000094a	-3.332e-42
173	0xbcc1d04a	-0.02365889
174	0xbbda341a	-0.006659043
175	0x0000d5b4	7.6662e-41
176	0x8001d67f	-1.68782e-40
177	0x8000df21	-8.0044e-41
178	0x3c56f887	0.013120777
179	0x00001511	7.557e-42
180	0x0000d275	7.5498e-41
181	0x00001cbd	1.031e-41
182	0x00009b4c	5.571e-41
183	0xaaf43201	-4.3377804e-13
184	0x882c417d	-5.183635e-34
185	0x8000ceea	-7.4227e-41
186	0x000059db	3.2234e-41
187	0xbcc109b7	-0.023564203
188	0x3c68045a	0.014161194
189	0x3c9b241f	0.018938122
190	0x0000c8f7	7.2093e-41
191	0xb9f8367b	-0.00047342837
192	0x8dc1cf2c	-1.1944418e-30
193	0x076b5163	1.7703352e-34
194	0x8c75e8ea	-1.8944203e-31
195	0xaf661415	-2.0925513e-10
196	0xbcb440cc	-0.022003554
197	0x3822bfcd	3.880244e-05
198	0x180c4694	1.8130209e-24
199	0xaad11113	-3.7137706e-13
200	0x34f83ccb	4.6237832e-07
201	0x3c5c6e9e	0.013454108
202	0x3b2ab563	0.0026048056
203	0xa6cf600e	-1.4389546e-15
204	0xa0a0d67f	-2.7246996e-19
205	0xbd4f4364	-0.050601378
206	0x3bd2a448	0.0064282753
207	0x3d7a0ebc	0.061049208
208	0xafa0e995	-2.92698e-10
209	0xac793971	-3.5416915e-12
210	0x800036f4	-1.9713e-41
211	0x26b48c9a	1.2528119e-15
212	0xb50cf941	-5.2516776e-07
213	0xb086c9a5	-9.807094e-10
214	0x33d58266	9.942305e-08
215	0xbd1cdef7	-0.038298573
216	0x288c677c	1.5588002e-14
217	0x3d60b3b1	0.054858867
218	0x2ec0f39a	8.7744215e-11
219	0x80005c19	-3.3038e-41
220	0x3df8c21c	0.121463984
221	0xaa638cac	-2.0210455e-13
222	0x179c4780	1.0099313e-24
223	0x2ab06cf5	3.1339485e-13
224	0xa8cbe039	-2.2634768e-14
225	0xbcbb175d	-0.022838289
226	0x3c014442	0.007889809
227	0x12f519d3	1.546804e-27
228	0xac516f9d	-2.9762644e-12
229	0x3da2ce61	0.0794952
230	0x39a9e76a	0.0003240661
231	0x2ac08e23	3.4204678e-13
232	0xbd39b264	-0.045336142
233	0xbbeec04e	-0.007286108
234	0xb684f14d	-3.9619977e-06
235	0x94613d3f	-1.1371676e-26
236	0x2934b061	4.0121013e-14
237	0x3dfe444a	0.12415369
238	0x3d95bcc5	0.073113956
239	0xa728d01a	-2.3427496e-15
240	0xab39d3fa	-6.601938e-13
241	0x9dc5523e	-5.2230502e-21
242	0xbb2a4464	-0.0025980705
243	0x371d9bd4	9.394211e-06
244	0x368e108c	4.233856e-06
245	0xb539f63f	-6.9276206e-07
246	0x000592ed	5.11885e-40
247	0x9115d4a4	-1.1819552e-28
248	0x00004c86	2.7451e-41
249	0xb5507ed4	-7.76706e-07
250	0x95ebd5fa	-9.525334e-26
251	0xbc8abe1d	-0.016936356
252	0x3d3372d6	0.043810688
253	0x3cf42697	0.029803557
254	0x38250929	3.9347597e-05
255	0xbd664f07	-0.05622771

mlp.18.bias f4 [8]
0	0x00008444	4.7448e-41
1	0x3db6ae61	0.08919979
2	0xbb148268	-0.0022660736
3	0x3d4f0ae4	0.050547495
4	0x3d6c9adb	0.05776487
5	0x3d9ef352	0.077612534
6	0xa3403928	-1.0420444e-17
7	0x3d61dfd8	0.055145115

mlp.21.weight f4 [1, 8]
0	0x3a1e7ccf	0.00060458196
1	0xbde44cd6	-0.11147468
2	0x3ab7044c	0.0013963073
3	0xbe09c14c	-0.13452643
4	0xbe0c7d56	-0.13719687
5	0xbe57ea31	-0.2108543
6	0x23b98f31	2.0118384e-17
7	0xbd65eefd	-0.05613612
