model_saved/2024-01-25-07-56-26/model_2024-01-25-07-56-26_epoch_0_train_mse_2.25e-02_val_mse_1.81e-02.pt (torch, 87495 bytes, 15 tensors)

mlp.0.weight f4 [8, 8]
00000000: 514f 8cbd eabe 293e dd15 4b3e 9adc a53e
00000010: 3fe3 9e3e 6d3c 85be 5e8f 0a3e bb5e 4bbe
00000020: ef3c a63d 79a0 9cbe 7443 1abe 117b 52be
00000030: 5253 433e 3060 64be c491 023e 4c50 a73b
00000040: e777 b6bd 3591 b33c 6885 413e 6318 f53d
00000050: 43ff 2ebe 433f 87be 89cf 94be ea9e cb3d
00000060: f3dc 9b3e 1d3d 863e 075d 6a3e 68c2 aabe
00000070: d700 ac3e dc23 113e e8d6 42bc 0d20 9fbe
00000080: eba0 e53c 7908 1bbe cf22 193e f618 7ebe
00000090: 45db 20be 4afc a6be 621d 60bd 36fd 59be
000000a0: 75af 933d b66e 433e c1ec 6c3c ae91 22be
000000b0: 4c3a 363e 5bd3 b0be cbaa 3bbe 8d46 aebc
000000c0: cb5d 05bd 1887 68bd 8edb a73e 303a 8ebe
000000d0: 6ccc d33c 0c27 44bd dd7c c73d b3e4 8f3d
000000e0: af12 f0bc 23f5 06be a4d6 893d 9c63 c6bd
000000f0: 68a4 e4bc ac0e 20be 17cf b0be 7689 2bbe
-0.06851066 0.16576734 0.19832559 0.32394868 0.3103275 -0.26022664 0.13531253 -0.19860356
0.08117091 -0.3059118 -0.15064794 -0.20554759 0.19074753 -0.22302318 0.12750918 0.0051060077
-0.08909588 0.021919826 0.18898547 0.11967542 -0.17089562 -0.26415452 -0.29064587 0.0994242
0.30442008 0.262185 0.2288705 -0.33351445 0.3359439 0.14173836 -0.011892058 -0.3107914
0.028030833 -0.15139951 0.14954685 -0.2481421 -0.15708645 -0.32614356 -0.05471552 -0.21287999
0.072112 0.19085202 0.014460743 -0.15875885 0.17795676 -0.3453625 -0.18326871 -0.021273876
-0.03256015 -0.05676946 0.32784694 -0.2777877 0.025854312 -0.0478888 0.09740613 0.07026043
-0.029305784 -0.1317945 0.067303926 -0.09686968 -0.027910426 -0.15630597 -0.34532997 -0.16751656

mlp.0.bias f4 [8]
00000000: d970 02be 8421 823e 115d 95bd c832 0d3c
00000010: 287b 113e acad a03e ab12 1f3d dff1 9fbc
-0.1273836 0.25416195 -0.07293142 0.008618064 0.14207137 0.313825 0.038836163 -0.019524513

mlp.3.weight f4 [16, 8]
00000000: 91c6 fa3d af16 a53d b57e 173e fd24 a53e
00000010: 5791 8abd 0f30 03be b6bc 80be 0854 973d
00000020: a837 923e efc0 093e 1720 9b3d 17b2 e7bd
00000030: 12db af3c 2eca 543e 8daa 083e 83a3 b0be
00000040: 6116 31bd 03d3 b53d 614b fdbd cb68 963e
00000050: e02b 71be ce70 4dbd 518d ae3d d812 313e
00000060: 046d f13d 92b7 633e 3d5e 6ebe 5609 d33c
00000070: 1755 3c3e 1756 56be b234 693d d752 273d
00000080: ac96 1bbe fa54 50be cd65 4cbc cf88 423d
00000090: 63ee 53bd dfa2 703d 2560 4bbe c9eb ddbd
000000a0: 68ae 943e bc00 463d b82d af3e 19f9 753e
000000b0: 5f20 993e c074 43be 94c3 64be c88d c73d
000000c0: 7ec9 90bd 8ded 973e 7ae3 85bd eade 87bd
000000d0: e516 50be 1384 503e ca4f fbbd a8a5 903e
000000e0: 268a 973e 03bf 9a3e 0229 b43d f1a9 b03e
000000f0: 465c b2be a509 173d 2144 3dbe b919 883e
00000100: 31e1 8c3e d77e 69be 740d 903e 900c df3d
00000110: c18a 87bd b528 53bd f94c 8b3e 7e4c 4b3d
00000120: 1ee0 b3bd 7bdf dc3c ffbe 46bd 22ae b23e
00000130: 87c4 603e f3c7 72be 3ecc 323e f802 8cbe
00000140: e502 eb3d 1922 1cbe e0a2 963e 9532 093e
00000150: 6855 bebc 6e36 153d 7f47 aebe 4bea 62bd
00000160: d7e5 30be fa67 7c3e bf3b 44be 11aa 99bd
00000170: f48c 0cbe 11e3 bbbd 8b59 943e 2aed 41be
00000180: ae62 1fbd 57f3 0f3e cdd3 383e 7cb9 4ebe
00000190: b13e e9bc 4355 b33e 33ee 393d 493a a33e
000001a0: d8d5 52be 4232 64be 6627 f33c 8448 ae3e
000001b0: 4490 87be 0bf5 5d3e 21a5 51be 050f 82bd
000001c0: 0c92 453e 9802 233e b445 b03a a909 4a3e
000001d0: c2d5 d8bd e85e 993e fc3f bf3d 0476 58be
000001e0: 46df acbd 30c4 263c 5ede e9bd a054 87be
000001f0: feaf 34be 47bf 4ebe 9db0 223d 9d53 40be
0.12244905 0.08060967 0.14794429 0.32254782 -0.067660026 -0.12811302 -0.25143975 0.073890746
0.28558087 0.13452505 0.0757448 -0.11313265 0.021466766 0.2078025 0.1334631 -0.3449975
-0.043234233 0.08878138 -0.12367893 0.29376826 -0.23551893 -0.050156407 0.08523048 0.17292345
0.11788371 0.22237995 -0.23278137 0.025761288 0.18391834 -0.20931278 0.05693502 0.040850487
-0.15194196 -0.20344916 -0.012475443 0.047493752 -0.051741015 0.058749076 -0.19860895 -0.10835988
0.2903931 0.048340544 0.34214568 0.24020804 0.2990751 -0.19087505 -0.22340232 0.097438395
-0.070696816 0.29673424 -0.06537528 -0.06634314 -0.20321234 0.20362882 -0.12271078 0.28251386
0.29597586 0.30223855 0.08796884 0.34504655 -0.34836024 0.036874432 -0.1848302 0.26582125
0.27515557 -0.22802292 0.28135264 0.10891068 -0.06618262 -0.051552493 0.27207163 0.049633496
-0.08782981 0.026962033 -0.04852199 0.34898478 0.21949969 -0.23709087 0.17460725 -0.27346015
0.114751615 -0.15247382 0.2942114 0.13398202 -0.023234084 0.03642886 -0.34038922 -0.05539922
-0.17275177 0.24649039 -0.19163416 -0.07503141 -0.13725644 -0.09174169 0.28974566 -0.18938127
-0.038912468 0.1405767 0.18049546 -0.20187944 -0.028472276 0.35025987 0.04539318 0.31880406
-0.20589387 -0.22284797 0.029681873 0.340397 -0.26477253 0.21675508 -0.20473148 -0.06350521
0.19293994 0.15918958 0.0013448508 0.19730248 -0.10587646 0.2995522 0.09338376 -0.2113877
-0.084410235 0.010178611 -0.11419366 -0.2643175 -0.1764526 -0.20190154 0.039719213 -0.18781896

mlp.3.bias f4 [16]
00000000: e788 643e d0ce 8abd 2b3e 25bd 5fd1 233e
00000010: 399c ab3e d000 93be 647b 33bd 8be5 5abe
00000020: af24 42be 0890 9a3e 13f8 d43d 96bc 5dbd
00000030: e29e 89be 089c aebe 46c2 4f3e 1ef0 e0bd
0.22317849 -0.067777276 -0.04034249 0.15997837 0.33517626 -0.28711557 -0.043818846 -0.21376626
-0.18959306 0.30188012 0.10398879 -0.054134928 -0.2687903 -0.34103417 0.20288953 -0.10983299

mlp.6.weight f4 [32, 16]
00000000: 46d3 593e a437 2abe 021d 12bd 75d8 73bd
00000010: 23f3 d6bd 70b1 703d fe1e 5abe 90c1 533e
00000020: dd05 523e 74e1 713e 169c 15bd d9c5 313e
00000030: e2b6 66be 727b 303e 873f 7f3d bed2 133e
00000040: ad59 9c3d 1462 dbbd c96d b93d 209f e63d
00000050: 126f 213e 8e74 03be 3369 33bd 3611 42be
00000060: c39c 04be 57e9 efbd a63b 03be 3c6e 30be
00000070: dd7a 363e 0e64 08be 3c55 4cbd e944 683d
00000080: 18a7 283e b6f2 363e c2d6 3abd a9f0 19be
00000090: 66cd fcbd cbcd 4cbe 2f68 dfbd af88 9e3d
000000a0: f653 653e 500d 653e 8b6b a3bd 90b1 00be
000000b0: 7854 e33d 8324 893d b6dc 37bd 18e3 7c3c
000000c0: 995e 5d3e 0ea3 15bc 35e3 5d3e bf3e 52be
000000d0: 59cb cdbd 1e48 473e da7e 793e e4ad 48be
000000e0: 5fde b5bc 7d4f c33d 0b27 3e3c 4af4 123e
000000f0: 265a d0bd 0d17 1abe 93b4 6fbd 095c 533d
00000100: 34d4 b63d dded 1e3e 6c4f 33be 11a4 dcbd
00000110: 6958 6dbe 64e2 62bd d064 05be b25c a7bd
00000120: 5249 ea3c c762 693e 1e82 70be 7439 78be
00000130: 7aae 3f3e 5007 17be bb9f 0bbe 4bcd 40be
00000140: ad90 313e 8127 b23c b538 01bd c984 a4bd
00000150: 2c50 593e 7fb1 e73c 7e8b 61bd 83de cfbd
00000160: 4cde 1bbe 0eca 733e e6dc 34be 5d69 ad3c
00000170: 4e62 88bc 526a b0bd d14f c4bd 4cee 8e3c
00000180: d929 7b3e 9ea0 94bd 75ae d63c 3df1 3c3e
00000190: a7e6 48be f25b 46bd d855 29be 6e9f 0bbe
000001a0: af5a 393e 5011 1bbe 5c04 543d 7a7c 253d
000001b0: 6158 ea3d 5297 403e 106e 5a3d e3a1 28be
000001c0: 2baa 55bd e3d0 cf3d b7c2 f6bd 0d1c c0bd
000001d0: 9cd1 fcbd 89a8 0f3e aaed 5d3e d21a a33d
000001e0: 86b7 48be f7c0 7a3e 85aa ecbd dea9 493e
000001f0: a363 0dba 2e43 9c3c 7d7c 62be 1aa6 4fbe
00000200: 3897 123e a976 20bd 5a06 c4bd 4182 fe3d
00000210: 7f52 793e 2627 853d 0481 813d 6f95 b53d
00000220: b095 54be 7574 c43d 3786 b63d 22b1 55bc
00000230: c69e 5a3e 7bb2 293e 8584 bc3d ebbd 83bd
00000240: b9c4 f4bd 6b0c b9bd fd8c 603e a36a 92bc
00000250: 5e1e 4f3e fdb7 48be d709 cbbd 9761 103e
00000260: 1f77 2fbe c2f9 16bd 3cf2 e2bd 7088 833d
00000270: 2e9a 7c3e 869d 7c3e e28f 27bd 9c45 4d3c
00000280: 2cec 643d 4cf0 503e 7938 bb3d aca9 053e
00000290: d9ad 8a3d 81b6 b63d b90a 653e 1d22 b13d
000002a0: e330 96bd e340 e53d 9cb6 03be 3f44 8fbd
000002b0: e53d a9bd 57b4 01bd e903 eb3d 884b 65be
000002c0: 26a0 5cbd edf4 40bd 276f 433e a965 e63d
000002d0: 7c8c 75be 343f 80bd 2384 6b3e ed7a 0c3e
000002e0: ffdd 69be de95 763e ebee 4a3d 7c7d 9e3d
000002f0: cfe3 863d e265 303c b2c7 bdbc 6aa2 07be
00000300: c791 c2bd acfe 2b3d ce83 503e 0ffb 4bbd
00000310: 856b b03d 80c5 3f3e de7d 88bd 968e 1abe
00000320: 35d4 4bbd a211 3dbe 969c 3cbd bf5f 35be
00000330: 7090 25bd 9201 723e 5583 0c3e 0376 c7bc
00000340: 0459 5e3c a587 11be bf23 2fbe 6a4d f2bd
00000350: af50 db3d cb4b 21be 4a6e 783e 5253 813d
00000360: 509a 753e d2e2 43be 8c07 663e 3f8c fdbc
00000370: f526 d2bc 00b8 463e fb75 253e 34f3 37be
00000380: 241a 8bbd 07b5 b1bc 3ec4 253d f74a 723e
00000390: d1ad c63c 6d9f 013e 575c 853b bc3b 12be
000003a0: 7bb2 0fbe 1d66 873d ea0b 96bd 3fd2 0cbe
000003b0: 4397 b5bb 2096 49be 47ae 0b3e e2d9 433e
000003c0: 1f17 3c3e b45c d1bd 9696 64be 3af8 1b3e
000003d0: 95ce 34be 7944 4bbd 5961 1fbe 044c 3abe
000003e0: 9589 0a3e 2b4a c93d 8d49 35be 05af 56be
000003f0: ad06 95bd 1338 2e3e 4538 023e a73d 163e
0.21272 -0.16622788 -0.035672195 -0.0595326 -0.104955934 0.058762968 -0.21300885 0.20679307
0.20510049 0.2362116 -0.03652581 0.17360629 -0.22530702 0.1723459 0.062316444 0.1443586
0.07634292 -0.10712066 0.09054143 0.112608194 0.15765026 -0.12837431 -0.043801498 -0.18951878
-0.12950425 -0.11714428 -0.12815723 -0.17229551 0.17820306 -0.13319418 -0.049885973 0.056706343
0.16469991 0.17866024 -0.045614965 -0.15033211 -0.12343864 -0.20000379 -0.10908543 0.07740914
0.2239531 0.2236836 -0.079794966 -0.12567735 0.111000955 0.06696417 -0.04488822 0.015435003
0.21618117 -0.009133114 0.21668704 -0.20531748 -0.10048551 0.19461104 0.24364796 -0.19597584
-0.022200761 0.095366456 0.011605988 0.14351001 -0.101734444 -0.15047856 -0.05852182 0.051601443
0.08927193 0.15520425 -0.17510766 -0.10773481 -0.23178257 -0.055391684 -0.13026738 -0.08171977
0.028599415 0.22791587 -0.23487136 -0.24240667 0.18718901 -0.14748883 -0.13635151 -0.18828313
0.17340346 0.021747353 -0.03154822 -0.08033139 0.2122199 0.028282879 -0.05506467 -0.101498626
-0.15221518 0.23807546 -0.17662391 0.021168405 -0.016648438 -0.08614029 -0.09585536 0.017447613
0.24527682 -0.07257198 0.026206234 0.184514 -0.19619237 -0.04842753 -0.16536653 -0.13635036
0.18101 -0.15143323 0.05176197 0.040401913 0.11442638 0.18807724 0.05332762 -0.16468005
-0.052164238 0.10147264 -0.12048858 -0.0938035 -0.12344667 0.14029135 0.21672693 0.079641
-0.19601259 0.24487673 -0.115559615 0.19693705 -0.000539357 0.019075003 -0.22117801 -0.20278206
0.14315498 -0.039175663 -0.09571524 0.12427188 0.24347876 0.065016076 0.06323436 0.08866393
-0.20760226 0.09592525 0.08912318 -0.01304272 0.2134963 0.16571991 0.092049636 -0.06432708
-0.11951584 -0.09035572 0.21928783 -0.017873114 0.20226428 -0.19601436 -0.09913986 0.14099728
-0.17135285 -0.03685928 -0.11081359 0.06422508 0.2466819 0.24669465 -0.0409087 0.012528803
0.055889294 0.20404166 0.09141631 0.13053006 0.0677144 0.089215286 0.22367372 0.08649085
-0.07333543 0.11194017 -0.12862629 -0.06995439 -0.082637586 -0.031666126 0.11475355 -0.22392094
-0.053863667 -0.04710858 0.1908537 0.11249859 -0.23979372 -0.06262055 0.22999625 0.13718767
-0.22838591 0.24080607 0.049544256 0.07738778 0.0658642 0.010766478 -0.023166511 -0.1324555
-0.09500461 0.04199092 0.2036278 -0.049799975 0.08614258 0.18727684 -0.06664632 -0.15093455
-0.049762923 -0.18463758 -0.04604777 -0.17712305 -0.04042095 0.23633412 0.13721974 -0.024348265
0.013571028 -0.142119 -0.1710348 -0.11831172 0.107087485 -0.15751569 0.24260822 0.0631472
0.23984647 -0.19129494 0.22463816 -0.030950664 -0.025653342 0.19406128 0.16158287 -0.17963868
-0.06792095 -0.021692766 0.040470354 0.2366141 0.024252804 0.12658472 0.0040698457 -0.142806
-0.14032929 0.066112734 -0.07326491 -0.13752078 -0.0055417134 -0.19686174 0.136407 0.19126084
0.18368195 -0.1022276 -0.22323069 0.1523141 -0.1765693 -0.049625847 -0.15564479 -0.1819306
0.13529046 0.098285995 -0.17703839 -0.20965202 -0.07276664 0.17013578 0.12716778 0.14671956

mlp.6.bias f4 [32]
00000000: c090 8abd 0ec2 4a3e fd9f 43be 20b7 0f3e
00000010: 05d4 77be c2c1 42be 8580 0bbe e785 18be
00000020: 83b5 64be 2001 bc3d 783f 9cbd ed8b 123c
00000030: 64fa e7bd 29de 343d 77f6 6d3e 8794 2e3e
00000040: 96d0 14be 4caa e6bc e225 603d f0b9 5f3e
00000050: f8b8 8f3d 9ce4 103d a731 683e 1a4c 263e
00000060: c28b acbd a90c 873d 8423 debc f270 4a3e
00000070: b405 d1bd 4dbf 49bd f3d6 c5bd b7ed 59be
-0.0676589 0.19800588 -0.19104 0.140347 -0.24201973 -0.19019225 -0.13623245 -0.1489483
-0.22334866 0.09179902 -0.07629293 0.008944494 -0.11327055 0.04415718 0.2323855 0.17048846
-0.14532694 -0.028157376 0.054723628 0.21848273 0.07017702 0.03537427 0.22675191 0.16239968
-0.08425094 0.065942116 -0.027116545 0.19769648 -0.10206166 -0.049254704 -0.09660139 -0.21282087

mlp.9.weight f4 [64, 32]
00000000: f092 0a3e 5431 763d 61a1 a73d 6a6e e43d
00000010: 61bb 47bc 3c37 ccbd 783a 823d 6164 22be
00000020: 2b54 e8bd 26a6 83bc 3360 4b3d 2729 bbbd
00000030: 12c7 94bd 6591 9b3d b656 1d3e 09d6 b83d
00000040: 0339 19bc 53d4 d53d c6d3 e0bc fd1f f9bd
00000050: e948 aa3d 6ede 1abd e4e6 fb3d 5a87 8bbd
00000060: 039b 9d3d 4a8e a2bd 6458 32be 2771 1b3e
00000070: 37c1 133e bd4b 5f3d b9c6 093e f944 b93c
00000080: 61ce 213e 7962 29be 47a1 00bd c333 c93d
00000090: 41c3 a53d 0985 8fbc 15da 89bd 18a4 60bd
000000a0: e741 103e 8ca8 1b3c 6b95 83bd 9a10 d43c
000000b0: 80e1 a5bc 58dd b93d 4a91 7939 bcee 1fbd
000000c0: d017 e5bd 106a d2bd 1cc8 9b3c 1484 993d
000000d0: 0d6c a3bd 6a36 46bd ec78 b93c 475f fc3d
000000e0: f2a9 0c3e 41d4 873d 6438 1bbe 0759 e63d
000000f0: 2d4b 9dbc 6107 be3d 55b9 af3d 42b6 253c
00000100: 2d32 653d 2578 07be c1f1 c3bd 436e 24be
00000110: bec0 af3c d374 61bd 24f0 f4bd 61cf d2bd
00000120: 4e3e 11ba fe24 15be 60da 0f3e 61b4 0abd
00000130: 110b bfbd 26bb 00be 5207 1d3e 632b 5c3d
00000140: 2409 ccbd 0d8b 74bd 90e5 e33d ad25 2c3e
00000150: e4d8 ccbd 9e2b 243e 7b29 263d 1023 cc3c
00000160: dd2e 18be e754 a13d 65c2 123e 1ef1 fb3b
00000170: 39a5 6d3d 0d98 fd3d 92db e5bd 2c3e 2fbe
00000180: 81de 32be cf2a b0bd 3730 233e 07bd 263e
00000190: 4fa5 6fbc daae cebd 10af f43d 41c6 1dbe
000001a0: 3df4 023e 1e3a fe3d f817 ffbb 57f9 ed3d
000001b0: a4c9 0cbc 3dc9 df3d cea5 e83d d4ed 0dbe
000001c0: 5ccb e33c 0b8b 303e e36b 7fbd ba8b 2f3e
000001d0: d17b 6dbd ad07 263d 38a9 d5bd cc59 aebd
000001e0: 36d2 1abe e27f dc3c f2e9 d43d c2b9 2f3d
000001f0: 6145 1a3e d8fc 8bbd 703f 213e 212c 003d
00000200: 5f06 4b3d 9c98 13be 15e2 233c 986a 593d
00000210: a3bb 4cba 8fc6 843d 27b0 2dbe 6546 333d
00000220: db90 d03d 7902 9bbd b6d6 d6bd 0b62 c5bd
00000230: f764 1abe bd11 533d e15c cab7 68a5 223e
00000240: 5370 503d 8d2f 1c3e 2f85 4c3d b049 8cbd
00000250: 8d34 9bbc 864c 2e3c 6b9f 0cbe 14c0 aebd
00000260: 9493 3cbd 9a57 8ebd 8203 dd3d f567 d2bb
00000270: aa66 853d bc29 03be 2033 ba3d 3910 183e
00000280: 0110 1ebe da34 ecbd 37c0 e2bd f864 3f3d
00000290: a9e7 a6bd 642f 223d a3b7 2cbd 910b c6bd
000002a0: 417f 30be 273f febd 48ef eb3d 04e1 9abd
000002b0: 8ab1 52bb ed0f 23be e2ca 023e 73ce 803d
000002c0: b4fc 173e 63de 223e 20fa 063d 08a0 243e
000002d0: 61e9 b6bc 8056 dc3d efd1 08be 04ce fbbd
000002e0: f450 b53d 3a83 90bc b5e0 5bbd 00cd 173e
000002f0: 550d b13d cae8 ba3d 09dd a0bc 408f 05be
00000300: e8ce 62bd eb6c d0ba 8a23 a8bd 5583 25be
00000310: 1a95 1fbe b03c edbd 9d08 51bd d992 2b3e
00000320: ca70 ecbd 68f3 fc3c 4b06 2ebe 5300 0a3e
00000330: 3a1e 1a3e 5eb7 4abd 5446 f83c 1e08 813c
00000340: 5d8d c93d 5418 bb3c 6c78 a9bd 162e 283e
00000350: e4c9 1ebe 6fcd b8bd 663a 94bd dc6c 9b3d
00000360: f80c 33bd e003 163e a896 17be c130 11be
00000370: 0cc4 bf3d 4217 a03b cefc e83a 2e34 db3d
00000380: f92f 0abe 7dad df3d e910 2dbb 8076 923d
00000390: a554 633c ba5a 18be 9b0b b1bd 93f3 bbbd
000003a0: fbff 10bc 70d8 9f3c b5ca e03d d7fc a83d
000003b0: 02a1 0e3e b8e5 dd3d fa83 c73d 60e8 f63d
000003c0: 3ba6 a53d 7913 523d bb56 2d3d 7536 01bd
000003d0: fe91 c4bd f95d a8bc 9d2a 23bd f154 0b3e
000003e0: c988 02bd d1d2 223e d987 09bd 0a79 6d3d
000003f0: 31c5 223e 0f15 fc3c 39d5 9a3d b00c 94bd
0.13532615 0.060105637 0.081850775 0.11153872 -0.012190671 -0.099714726 0.06358808 -0.15858604
-0.11344179 -0.016070437 0.04965229 -0.091387086 -0.07264532 0.07596091 0.15365109 0.09025199
-0.009351972 0.10440888 -0.027444731 -0.121643044 0.08314688 -0.03780978 0.12299898 -0.06812926
0.07695582 -0.07937296 -0.17416531 0.15179883 0.14429174 0.05451559 0.13454713 0.022615897
0.15801384 -0.1654147 -0.031403806 0.09824326 0.08093882 -0.01751949 -0.06731049 -0.054843992
0.1408764 0.009500634 -0.064249836 0.025886822 -0.020249128 0.09075421 0.00023800615 -0.039046034
-0.111861825 -0.10274136 0.019016318 0.07495895 -0.079795934 -0.048391737 0.022640668 0.1232286
0.13736704 0.06632281 -0.1515823 0.11247449 -0.019200886 0.09278751 0.08580271 0.010114254
0.055956054 -0.13229425 -0.09567595 -0.16057687 0.021454211 -0.055043053 -0.11959866 -0.10293461
-0.0005540595 -0.14564893 0.14048147 -0.03386343 -0.093282826 -0.12571391 0.15334824 0.053752314
-0.09962681 -0.05970292 0.1112777 0.16811247 -0.10002306 0.16032264 0.040566903 0.024919063
-0.14861627 0.07877522 0.14331968 0.0076886555 0.058018897 0.12382517 -0.1122352 -0.1711356
-0.17467691 -0.08601915 0.15936361 0.16283046 -0.014626815 -0.10091944 0.11947453 -0.15407659
0.12788482 0.12413429 -0.0077848397 0.116198234 -0.008592997 0.10927055 0.1135975 -0.13860255
0.02780693 0.1724054 -0.06235875 0.17143145 -0.05797941 0.040534664 -0.104326665 -0.08513221
-0.15119252 0.026916448 0.10396184 0.04290176 0.15065528 -0.068353355 0.15746856 0.031292085
0.049566623 -0.14413685 0.010002633 0.05308017 -0.00078099425 0.064831845 -0.16961728 0.043768305
0.10183879 -0.07568831 -0.104901716 -0.09637841 -0.15077578 0.05153059 -2.4123527e-05 0.1588341
0.05088837 0.15252514 0.0499317 -0.06849992 -0.018945957 0.010638362 -0.13732688 -0.0853273
-0.04603918 -0.069503024 0.10791685 -0.006421084 0.06513722 -0.12808889 0.090917826 0.14849938
-0.15435793 -0.11533518 -0.11071818 0.04672715 -0.081496544 0.039595976 -0.042167317 -0.09670175
-0.17236044 -0.12414389 0.11520249 -0.075624496 -0.0032149279 -0.15924044 0.12772706 0.06289377
0.14842492 0.15905146 0.03295338 0.16076672 -0.02232808 0.10758686 -0.13361333 -0.12295154
0.08853331 -0.017640699 -0.053681094 0.14824295 0.08645121 0.09126432 -0.019636648 -0.13042927
-0.055373102 -0.0015901601 -0.082099035 -0.1616338 -0.15584221 -0.11583841 -0.051033605 0.16755237
-0.1154495 0.030877784 -0.16994588 0.13476686 0.15050593 -0.04949128 0.030306973 0.01575094
0.09841416 0.022838749 -0.08274922 0.1642383 -0.15506703 -0.09023558 -0.07237701 0.07589123
-0.04371354 0.14649916 -0.14803565 -0.14178754 0.09363565 0.004885585 0.0017775537 0.10703312
-0.13494863 0.10921762 -0.0026407784 0.07151508 0.013875161 -0.1487836 -0.08644792 -0.091773175
-0.008850093 0.019512385 0.10976163 0.082513504 0.13928607 0.10834831 0.097419694 0.12056041
0.080883466 0.0512881 0.04231904 -0.031546075 -0.09598158 -0.020552622 -0.03983556 0.13606621
-0.03186873 0.15900733 -0.03357682 0.05797676 0.15895535 0.03077176 0.075602 -0.072289824

mlp.9.bias f4 [64]
00000000: 0c43 083e f16f 323e 3d9d 133e aac4 ca3d
00000010: d790 e73d ce9d 043e 133f 1fbe 516a 03bd
00000020: 1493 9c3d 50b9 103d a6ec 2fbe ad7f d13d
00000030: 2b7c 36b9 c07b f83c b3dd 04bd 5045 5a3d
00000040: 9dcd 263e ff84 d53d 2a56 043e ba71 f13d
00000050: 1025 6e3b 8cdc 37bd 2e7f 02be b37b a73d
00000060: a599 a6bd 6597 abbd 2962 b13d a979 c1bd
00000070: c236 eb3d 6c8e 033e 7ae0 fc3c 01ae edbd
00000080: fef5 ccbd b9e9 11bd bd04 093e 87d2 cfbd
00000090: 71b8 0c3e 5184 b03c f856 253e d88c 673d
000000a0: 6b48 c5bd f729 1abe e2ce 933d b380 903d
000000b0: 41f3 013d 80a3 963c 4395 84bd 88b4 fe3d
000000c0: e49a 68bc c8ed 1d3d 55b2 ffbc 324a 31be
000000d0: 6941 933d a81e 233e 563d 813c d649 24be
000000e0: ebb7 bdbd e8a4 923d 3fb6 1ebe 4601 debd
000000f0: eae9 a33d 850f 01be 204c 9a3c e36a da3c
0.13306826 0.17425515 0.1441545 0.09900792 0.11306923 0.12950823 -0.15551405 -0.032083813
0.076452404 0.035332978 -0.17180118 0.1022943 -0.00017403129 0.030332446 -0.03243799 0.053288758
0.16289373 0.104257576 0.12923494 0.1178927 0.003633801 -0.044888064 -0.12743828 0.08177891
-0.08134774 -0.083784856 0.08661301 -0.09447033 0.114850536 0.12847298 0.030868758 -0.11605454
-0.10007857 -0.035623286 0.13380714 -0.10147577 0.13742234 0.021547468 0.16146457 0.056530803
-0.09632953 -0.15055071 0.07217194 0.070557974 0.031726126 0.01838851 -0.06473782 0.12436777
-0.014197085 0.038556844 -0.031212965 -0.1731346 0.0719021 0.15929663 0.015776318 -0.16043791
-0.09263595 0.071603596 -0.15499209 -0.10840087 0.080036 -0.12603576 0.018835127 0.026662296

mlp.12.weight f4 [128, 64]
00000000: 916c 04bd 4d14 6e3c 1f7e 7f3d 9a90 d3bd
00000010: 04d3 babd ebe0 b23d 9713 bd3d 81be bebd
00000020: e5be ddbd 05ee 85bc 351c f93d 59a5 1bbd
00000030: b044 973d 4697 b53c c500 a63c a06f b6bd
00000040: 5156 3fbd 257b a7bd 3ba9 92bc 4c26 e1bd
00000050: 28d6 eebd 72dd 563d 2272 7c3c 7203 f2bd
00000060: 124b c93d ce49 143d 359d c2bd 713d 893d
00000070: 3ab5 8c3d 355e e2bd 98cf d8bd 6596 8bbd
00000080: 3450 3e3d 3717 d7bd 93a8 7cbd 8a9e ee3d
00000090: bb9e b8bd 24d0 f1bd 5ca4 bbbd 8cd3 833d
000000a0: 4dad b33d fd62 dfbd 8716 693d 3ec1 0cbd
000000b0: 0999 dc3d 97b8 833d 99c9 303c a115 e53d
000000c0: 99e7 91b9 0480 ea3c 1e63 273d c140 ed3d
000000d0: c1d5 533d 64d8 c73d 63c0 263c 0d34 3dbd
000000e0: f042 99bd 3217 933d c9a3 593d 303f 15bc
000000f0: df89 943d 05f1 9cbd 8f79 6ebd 451e f3bd
00000100: 7192 e6bd e394 5ebd df58 c73c 3b73 813d
00000110: 9418 ae3d 7ca2 ea3d b45c 903c 342e d03d
00000120: b5ca 0a3d 5164 08bc 12f8 a53d fb58 01bc
00000130: 1438 43bd 947d b83c 84c9 d23d 71cc fbbd
00000140: 41f3 443d b647 07bd be81 0f3d 8930 aabd
00000150: 9880 bc3d 8552 a23c e522 d73c 903e abbd
00000160: 5276 023d a189 8bbd 1f47 b53c 33c5 93bd
00000170: 681f 443b 5f4c a6bd 24d7 f9bd 5b3c a43b
00000180: 8ce8 0ebd 1e7b 193d 9441 8a3c 4fd3 7cbc
00000190: 28f7 cd3d b188 3d3d 2ff2 ba3c 3404 f63d
000001a0: c5cf b73d de7c a83d a1e3 e7bd dbf1 22bd
000001b0: 06bf b03d c26f c5bd 45d3 8dbd ba43 98bd
000001c0: 16a8 42bc 9d9e 73bd 4fc5 44bc ef6d 60bb
000001d0: 5f85 cabd b4ca 893b 3928 efbd 2ba2 333d
000001e0: 7ab3 81bc 593a e0bd 669e d7bd 2bf2 80bd
000001f0: 0cf1 16bc 4dbf 49bd 0b87 f43b 0d5b 6fbd
00000200: 4dbd debd 0fc0 f0bd 315e 0a3a ed5b 833d
00000210: 118b 8ebd 5cc5 2d3d ce73 803d 9fbf 9cbc
00000220: 4f83 c6bc f1c6 123d c376 4abd c4ab 183d
00000230: 7241 04bd dec6 dd3c 8c76 f03d 987e 93bc
00000240: 31a9 853d e44e bfbd b838 cabc c60b 913d
00000250: 4575 1abd 32e6 88bd 90c5 753d 0c11 203d
00000260: 3c39 81bc 2634 ad3d 084f 643d bc0a 813b
00000270: 985c 10bd a1ee 61bc 89a4 04bd 8071 eebd
00000280: 5613 8c3d e6a1 4e3d e846 c03d b8a0 d7bd
00000290: 084b acbd a6c3 8bbd aa2f 2c3c 2f1a 98bb
000002a0: cd73 353d 45e7 d8bc ded3 053d 71ae 10bd
000002b0: 6e01 ae3d 41d8 8ebd 853a e4bc 8cfa 77bd
000002c0: 4d4c 1fbd ee01 003d bcce e03d 1e16 9abc
000002d0: 1514 6dbd d800 f939 abb1 3dbd bf3b 82bd
000002e0: ddc1 99bd 111e 223d 9085 f23d 2746 cabc
000002f0: 56f0 4cbd e704 e03c 209b ac3d 9252 bbbd
00000300: 185f 45bd ce3d 5e3d 8a2e e03c e6df 23bd
00000310: a0bc 8fbd b3b5 4bbd f662 753d 7c31 b13d
00000320: 4f10 7e3c 6823 d5bd 886f e6bb 1132 2fbd
00000330: 2e49 acbd 208b cdbd aa5c 34bd 69ed 1bbd
00000340: 8f85 d03b 8fd6 17bd d3e4 8cbc 9cdd 1d3d
00000350: ce3f f43c 6b10 a03d 98cc eb3c 8c51 eebd
00000360: fba5 893c 30fe d13d 5fd7 783d 36f6 a73d
00000370: dc1b 40ba 0e9a e63d ce12 ecbd 8bc3 d6bd
00000380: e708 773d ee24 be3b 5524 88bd 2269 b03d
00000390: 94fa 6e3b e769 abbd 747c 84bd 9f41 dd3c
000003a0: 8da1 6ebd 9377 923d f8af e23d 6c3c c3bc
000003b0: 9034 52bd 31fd a33d 50d6 b8bc 12a1 623d
000003c0: 48c1 f8bc f3ce 19bc 30f1 643d 49ad 943d
000003d0: e23c ebbd 7d33 debb 6024 bc3d feaf 8ebc
000003e0: b6bb c13d 1435 843c 4fe8 4abd b13e 653d
000003f0: 3385 31ba a972 71bd a33f 7f3b dd2d ea3c
-0.0323301 0.014531207 0.062376138 -0.10330315 -0.09122279 0.08734306 0.09232252 -0.093136795
-0.10827426 -0.016348848 0.12163583 -0.037999485 0.07386148 0.02216686 0.020264039 -0.089080095
-0.046713177 -0.08177785 -0.017902961 -0.10993633 -0.11661941 0.05245728 0.015408071 -0.118170634
0.09828772 0.036203198 -0.09502641 0.06701172 0.06870504 -0.11053125 -0.1058647 -0.06815795
0.046463206 -0.10502475 -0.061684202 0.11651333 -0.090146504 -0.11807278 -0.091622084 0.06436834
0.08773289 -0.109075524 0.05690625 -0.034363978 0.10771377 0.06431692 0.010790252 0.11185766
-0.0002782911 0.028625496 0.04086601 0.115846165 0.051717523 0.0975807 0.0101777045 -0.046192218
-0.074834704 0.071821585 0.053134713 -0.009109303 0.07252859 -0.07663158 -0.058221396 -0.11871008
-0.112584 -0.05434121 0.02433437 0.063208066 0.08500782 0.11456773 0.01762233 0.101650625
0.033884723 -0.008324699 0.08103956 -0.00789475 -0.047660902 0.022520818 0.10292342 -0.122948535
0.048083548 -0.033027373 0.03503584 -0.083100386 0.09204215 0.019814739 0.026261756 -0.08361542
0.03185112 -0.0681336 0.02212864 -0.07215347 0.0029925946 -0.081200354 -0.12199238 0.0050120777
-0.034889743 0.03747093 0.016876973 -0.015431239 0.10056907 0.046272937 0.02282056 0.120125204
0.08975176 0.082269415 -0.11322714 -0.039781433 0.08630185 -0.09640457 -0.06925062 -0.07434793
-0.011880895 -0.059477437 -0.012009933 -0.0034245213 -0.0988872 0.0042050723 -0.11677594 0.043855827
-0.015832651 -0.10948629 -0.10528259 -0.0629619 -0.0092127435 -0.049254704 0.0074623874 -0.058436442
-0.1087595 -0.11755382 0.0005278318 0.06414018 -0.069601186 0.042424545 0.06272088 -0.01913434
-0.024232535 0.035834257 -0.049429666 0.037273183 -0.032288976 0.027072366 0.11741361 -0.0180047
0.06526411 -0.09341219 -0.024685249 0.07082324 -0.037709493 -0.06684531 0.060002863 0.039078757
-0.015774362 0.08457212 0.055739433 0.003938047 -0.035244554 -0.013789804 -0.032383475 -0.11642742
0.068396255 0.050447367 0.09388524 -0.105287015 -0.084127486 -0.06824426 0.010509411 -0.004641793
0.04429989 -0.026477465 0.032672755 -0.03532261 0.084963664 -0.06974841 -0.027859936 -0.060541674
-0.038891125 0.03125184 0.109769315 -0.018809374 -0.05788048 0.0004749361 -0.046312016 -0.06359052
-0.075076796 0.039579455 0.11841881 -0.024691654 -0.05003389 0.027346088 0.08428025 -0.091466084
-0.04818639 0.05425816 0.027365942 -0.040008448 -0.07018399 -0.04973383 0.05990883 0.086520165
0.015506818 -0.10407144 -0.0070323385 -0.042772356 -0.084123954 -0.100363016 -0.044033684 -0.03806821
0.0063635777 -0.037069853 -0.017198956 0.03854142 0.02981558 0.078156315 0.028784081 -0.116366476
0.016802778 0.102535605 0.06075227 0.08201258 -0.000732837 0.11259852 -0.11527024 -0.104865156
0.060311224 0.005802742 -0.06647555 0.086138025 0.0036465274 -0.08369809 -0.0646905 0.02700883
-0.058259536 0.07151713 0.110687196 -0.023832522 -0.05131966 0.08007277 -0.02256313 0.05532939
-0.030365601 -0.009387719 0.055894077 0.07259614 -0.11486222 -0.00678104 0.091866255 -0.017417904
0.09459631 0.01613859 -0.049537953 0.05596799 -0.00067718624 -0.05894724 0.0038947843 0.028586322

mlp.12.bias f4 [128]
00000000: 0902 c0bc eef9 ed3d 8208 e33c 1d59 16bd
00000010: ee2a a73c 91fb 5abd c301 11bd 879c 87bd
00000020: 9602 06bd 9a7c 14bd 6a05 c63d acb5 febc
00000030: ddaa 543c 07a7 d9bd af53 e3bc d8f5 97bd
00000040: c54b 82bd 42dd 893d 7832 a0bd 032b f83b
00000050: 110f 623c f9ee ac3d 01eb c0bd a8cc c53d
00000060: ebb4 c23d f1d9 cbbd bec5 1fbd 15f3 bf3d
00000070: 7562 9dbd b1f2 bcbd c5db 46bc e28a 8b3d
00000080: 6855 14bd 8b0e dc3d 24db 46bd 411e bdbd
00000090: 155b 98bc 344f fcbd 1f6e 733d 4323 233d
000000a0: 9291 4cbd a504 b5bd 26aa 173d eb1b 4dbd
000000b0: 9183 9fbd 6365 ed3d bc56 7abc ae7e 963d
000000c0: 266d 3f3d 3bf4 bfbd d53d b1bc 33f9 6abd
000000d0: cbc1 04bd 2243 b63d defe 79bb cf2a 23bb
000000e0: 1a27 813c 9661 38bd fa11 ddbd 6d17 9dbd
000000f0: d0bd dfbd 907d 493d 3620 bebd 2082 7bbd
00000100: ba43 07bd d836 333a 1740 563d 2ff2 54bc
00000110: cd6f ceb9 1562 843c 5a47 ea3c fbfe b7bd
00000120: 409b 3d3d 2ff5 23bd 41f7 8ebc 9646 45bd
00000130: 0c0d ccbc 2695 d23d a01e 12bd 9cc0 b3bd
00000140: f9a3 073d 646b 84bd 2847 43bd 853d debd
00000150: db43 88bc c96f da3d 922f 5abd dabe 93bd
00000160: b972 1ebd 610f d13c 3384 e5bd 2d64 f53d
00000170: 119c f8bd d458 37bd 421a 903d 0049 f0bc
00000180: aa61 a63d a5d6 d2bc 5ef7 ea3c 6e13 4fbc
00000190: 8741 29bd ff13 cf3d 0f14 973d 9aa6 a5bd
000001a0: 4368 26bc 46e3 dfbd 2604 593d af5a 27bd
000001b0: 28a6 fa3d fd0e 00bd b71f f7bd 3f5e cdbb
000001c0: 9082 85bc c51a 1dbd 0f49 d13d 68bd 073c
000001d0: dc7d 393d 38fd 89bb a7c5 903b 1168 8cbd
000001e0: ab3f fc3d 598b 66bc 15bf d73d 12fb 9abc
000001f0: b6d2 9a3d e9b7 b53d e4da f7bd 8f96 05bd
-0.02343847 0.11619936 0.027714018 -0.03670608 0.020406213 -0.05346257 -0.03540207 -0.06621652
-0.03271731 -0.03625164 0.096690014 -0.031092487 0.01298019 -0.10627561 -0.027749864 -0.07419938
-0.06362108 0.06731655 -0.07822126 0.007573487 0.013797537 0.08444018 -0.094198234 0.09658176
0.095071636 -0.099536784 -0.03900694 0.09372536 -0.07684795 -0.09225977 -0.012137358 0.06813599
-0.036214262 0.10744961 -0.048548833 -0.09234286 -0.018598119 -0.12319794 0.05943119 0.03982855
-0.049943514 -0.088387765 0.0370275 -0.050075453 -0.07788766 0.115916036 -0.015279468 0.07348381
0.04673495 -0.09372755 -0.02163593 -0.05736656 -0.032411378 0.08899523 -0.0038146297 -0.0024897342
0.015765715 -0.04501494 -0.107944444 -0.07670484 -0.10924876 0.04919201 -0.092834875 -0.061403394
-0.033023573 0.00068364805 0.052307215 -0.012997194 -0.0003937468 0.01616005 0.028598476 -0.089841805
0.046290636 -0.040028747 -0.017451884 -0.04816302 -0.024908565 0.10282354 -0.035673738 -0.08776972
0.03311536 -0.06465796 -0.04767528 -0.10851578 -0.016633919 0.106658526 -0.053268023 -0.072141364
-0.038683627 0.025520029 -0.112068556 0.11981998 -0.12139142 -0.044762447 0.07036258 -0.029331684
0.08124097 -0.025737116 0.028682407 -0.01263891 -0.041322257 0.10111236 0.07376873 -0.08088417
-0.010156694 -0.10932021 0.052982472 -0.040857967 0.12238723 -0.031264294 -0.12066596 -0.0062673385
-0.016297609 -0.038355608 0.10219013 0.008284904 0.045286044 -0.004211094 0.0044180932 -0.068557866
0.12316831 -0.014071309 0.10534493 -0.018918548 0.07559721 0.08872969 -0.12102297 -0.032614287

mlp.15.weight f4 [64, 128]
00000000: 0a96 143c 2703 8c3d 72e0 47bd 1413 05bd
00000010: daeb 83bd 97ff 3abd 7f57 63b9 1d0c 5f3d
00000020: 18fb 743b eeb9 723d f222 953d 9c12 44ba
00000030: 5341 5cbd 9afb 3e3c 1043 a8bd 6c41 683c
00000040: bf43 923d 4ecb 373d 18b3 493d be6c 3ebd
00000050: 399e 8f3d 3369 2d3d 9304 013d 2d6a c2bc
00000060: 3f13 febc 5821 52bd a826 04bd 2eba 8a3d
00000070: 39fa 85bc 2691 84bc c74d 41bd bc01 b4b9
00000080: 11fe 50ba 2df9 a5bd a2cc 963b dadf 3c3d
00000090: f992 49bd 1a7c 8b3d 11ee e23c 82b6 64bb
000000a0: 9372 5ebc 4580 8bbd b7f7 c73c d83f 983c
000000b0: 3aa3 953d 8abd 9ebd 91c3 43bd 59ae e23c
000000c0: 9eb9 2cbd 6c3d aa3d 4412 603d a4f5 79bd
000000d0: 0c62 393d 466b 1f3a 811d 933d 42da 8d3d
000000e0: 214d e9bc 38ca 813d 37c9 13bd 8188 90bd
000000f0: 5fba a93c 9bcf 3dbd d3eb 89bd 9b81 a3bb
00000100: 9a50 853d 0b16 8c3d 0605 90bc ef5e 893d
00000110: 0ce0 22bd cc41 a2bb 44de 8b3c 95cd c33c
00000120: e4dd 61bd 5bfd 24ba 79de 613d b0a9 3a3d
00000130: 7233 4b3d 3032 503d b702 9f3c 0895 4c3d
00000140: 34c6 a5bd 306f b4bc 886e 75bb 2ecc 45bd
00000150: 12d0 a2bd 1a69 05bc 6a89 91bb df97 15bb
00000160: 17b6 52bd 26f3 943d f94e 9dbd 8f82 503d
00000170: f906 14bd db43 12bc 8064 1ebd f771 aabb
00000180: 33f0 2e3d bf72 80bd 9c0f 83bd cec5 4ebd
00000190: 702f 943d 7e91 75bd 9800 c2bc 384a 123d
000001a0: de29 4fbd 6686 893d 0dfb 8abd 08b4 15bd
000001b0: 32e0 f33c a6bd 84bd 6504 80bd 6133 38bd
000001c0: c5f6 90bd cf2e 16bc c6c5 9ebd 5f7a 62bd
000001d0: 704b a7bd 8365 3e3c 3b54 46bd 17ad 4bbd
000001e0: 07cd 94bc fe6d 8e3d 8108 973d 5587 6f3d
000001f0: 815d 26bd 8e9b 3ebd c459 5837 3d61 55bb
00000200: 9f13 493d 2f09 efb9 219f a13c 360f 583a
00000210: c323 c53c 7348 6fbd 6ef0 8a3d 0677 693d
00000220: 12ec 54bd 0484 60bd 9b6e 50ba f6b3 6cbb
00000230: 0312 133d 8c8c 283c d038 d0bb 155c 903d
00000240: 3a43 a5bd 15c7 103d 6850 8e3d 82c0 553c
00000250: 6bf0 24bc 3770 9a3d cc4a 113d d1b7 283b
00000260: 2f41 9bbd f043 06bc c12f 3a3c 96c2 9ebd
00000270: 26c2 c23b c909 f13c 46dd 1dbd 60ce 87bc
00000280: 7b99 13bd 4b05 15bd 821e e6bc ab27 5d3b
00000290: eac5 68bd ac89 9fbd 954e 5cbc e922 ab3d
000002a0: 7aed 813c 8b85 3abd ffae 98bd 9e44 44bd
000002b0: 9080 94bd abda 94bd 86f7 a53d 43fc 073d
000002c0: db05 16bd 4f98 69bc 7bd3 283d 773a a23d
000002d0: 2042 c83c 4107 02bc e189 a7bc 39b7 ee3c
000002e0: 4cc7 843d 7136 893d e72b 893d 0b94 18bd
000002f0: fee2 983d 5575 63bb 0b4a 56bd 1531 b53c
00000300: 0b8a 933d bf39 e5bc 5ffe 90bd 84a7 3f3c
00000310: 3e68 4abc ec62 783d 10ac a4bd 0dd0 2dbc
00000320: ef6e d4bc ca70 373d 546e 963d 87a4 b7bc
00000330: 2d51 243c 5eac c3bc 6752 6f3d 8760 32bd
00000340: 212f 83bd 4b29 d23b 31b3 30bd e122 063d
00000350: 9afb 1cbd d73b d1bc 87ac 8abd 5a51 8c3c
00000360: 0782 0fbd 2758 ae3d 208e 483d ca2d be3c
00000370: 603e 9fbd 2827 643d fe1e 90bd 53f4 1539
00000380: 2b6d da3c 1e47 a9bd f4b8 76bd 33b2 8fbd
00000390: 3cd3 923d 8c7a 4ebc 1f16 723d bd9a 5e3d
000003a0: 73c9 abbd 041f a5bd 4f96 1b3d 466b 4e3d
000003b0: 1c25 593d a391 d23c 7d1b a0bd 325b 8e3d
000003c0: 04f2 6bbd 5572 773d 5f75 4e3b 4a77 9b3d
000003d0: c61d 133c 4437 9abd f3c5 41bd 96d9 b5bc
000003e0: 1f2f c4bc 03f6 35bd 4ebc 8dbd f989 e2bb
000003f0: a5af 7b3d 3371 aebd 1dfb 48bd db29 bebc
0.009068975 0.06836539 -0.048798032 -0.032488897 -0.064414695 -0.045653906 -0.00021681002 0.05445491
0.003738111 0.059259348 0.07282056 -0.00074795797 -0.053773236 0.011656666 -0.08215916 0.014175754
0.07141828 0.04487162 0.049243063 -0.046490423 0.070126005 0.042336654 0.031498503 -0.02373227
-0.031015037 -0.05130133 -0.032263428 0.06773792 -0.016354667 -0.016182493 -0.047193315 -0.00034333568
-0.0007972429 -0.08104167 0.004602031 0.04611192 -0.04921243 0.0681078 0.02770141 -0.0034898822
-0.013577121 -0.06811575 0.024410112 0.01858513 0.073065236 -0.077509955 -0.04779393 0.027671026
-0.042169206 0.083124965 0.05470492 -0.061025277 0.04525952 0.00060813536 0.07183362 0.06926395
-0.02847916 0.06337398 -0.036080565 -0.07057286 0.020718751 -0.046340566 -0.06734433 -0.0049898154
0.06509514 0.06840142 -0.01758052 0.0670756 -0.03976445 -0.0049516913 0.017073758 0.02390174
-0.055143252 -0.00062938564 0.055143807 0.045571983 0.04960961 0.050829113 0.019410474 0.049946815
-0.08094445 -0.022025675 -0.0037449915 -0.048290424 -0.079498425 -0.008142734 -0.00444143 -0.0022826118
-0.051443186 0.072729394 -0.076810785 0.05090576 -0.036139462 -0.008927311 -0.038670063 -0.005201574
0.04270954 -0.06271886 -0.063994616 -0.05048161 0.072356105 -0.059953205 -0.023681924 0.03571531
-0.050577037 0.067150876 -0.067861654 -0.036548644 0.02976999 -0.06481485 -0.06250838 -0.044970874
-0.070783176 -0.0091664335 -0.07752566 -0.055292483 -0.081686854 0.011620882 -0.048420172 -0.04972562
-0.01816417 0.06954573 0.07374669 0.058478672 -0.040616516 -0.046535067 1.28955035e-05 -0.003255918
0.049090978 -0.00045592475 0.019729199 0.00082420127 0.024064904 -0.058418702 0.067841396 0.056998275
-0.051982947 -0.0548134 -0.0007951052 -0.0036118007 0.03590585 0.010287415 -0.006354429 0.07048813
-0.08069463 0.03534611 0.0694893 0.013046386 -0.010067086 0.075409345 0.035471722 0.0025744329
-0.07580792 -0.0081949085 0.0113639245 -0.07751958 0.0059435545 0.029423611 -0.0385411 -0.0165779
-0.036035042 -0.036382 -0.02809072 0.0033745568 -0.05682937 -0.07789931 -0.01344647 0.08356268
0.015860308 -0.045537513 -0.07455253 -0.047917 -0.07251084 -0.0726827 0.08103852 0.03319956
-0.036626678 -0.014257505 0.04121731 0.079213075 0.024445593 -0.0079363 -0.020451488 0.029140102
0.06483325 0.06699837 0.06697827 -0.03725056 0.0746517 -0.0034707387 -0.052316707 0.02211813
0.07204064 -0.027981637 -0.070797674 0.011697654 -0.012353955 0.060641214 -0.08040631 -0.010608685
-0.025931804 0.0447853 0.07345262 -0.02241732 0.010029119 -0.023885902 0.058428194 -0.043549087
-0.064054735 0.006413614 -0.04313964 0.032748107 -0.038325883 -0.02554123 -0.06771188 0.017128635
-0.035036113 0.085129075 0.048963666 0.023215193 -0.07775569 0.055701405 -0.07037161 0.00014300765
0.026663383 -0.08265518 -0.06023498 -0.07016411 0.07169196 -0.01260246 0.059103128 0.05434679
-0.08388033 -0.080625564 0.037985142 0.050395273 0.053013906 0.02570421 -0.07817743 0.06950988
-0.05760385 0.06041177 0.0031503064 0.07591112 0.0089792665 -0.07530072 -0.04730792 -0.02219848
-0.02394825 -0.04442407 -0.06920682 -0.0069134203 0.061446805 -0.08517685 -0.049067605 -0.023213318

mlp.15.bias f4 [64]
00000000: 258f a5bb e789 9ebd 7d84 73ba 8d64 72bd
00000010: 561a 3b3d 0d5f 983d 6596 29ba 1824 1cba
00000020: ca66 ab3d d808 9abd 9363 8a3d 69a6 0bba
00000030: ad74 5e3d a153 323d 540c 893d 84bd 1a3d
00000040: 1ecb 9eb9 2301 6d3d 5be6 463d d09a 99bd
00000050: 46b6 da3c d156 5c3c c057 70bd c1cd 6bbc
00000060: f0ee 82bc 5445 853d 86d4 a3bd c9e4 4fbd
00000070: 5491 073d 0ca0 8bbd 6d8a 683d 20a6 01bd
00000080: 42e1 a33d 0fe3 653c ddef 24bb 1a7b ce3b
00000090: d777 243d 9334 963d cde2 9dbd 9b73 50bd
000000a0: 0ded cc3c 7fd5 cb3c b196 723c f4a8 e43c
000000b0: 06f0 493d 8143 99bd 32de 44bd 80c5 283d
000000c0: 236a 5b3d e216 49bd c271 50bd a5c6 96bd
000000d0: 568e 59bd 1df1 203d 7936 9ebd 5d4b aabd
000000e0: 8721 083d 62c0 3ebd 2d9b 7b3d a03d a3bd
000000f0: 7a01 34bd 5679 85bd 0f50 b13d f9ff a5bc
-0.0050524645 -0.077411465 -0.00092894566 -0.059177924 0.045679413 0.074400045 -0.0006469249 -0.0005956306
0.08369215 -0.07521218 0.067572735 -0.0005327226 0.05431049 0.043536786 0.066918045 0.037778392
-0.00030287442 0.057862412 0.048559528 -0.07500231 0.026698243 0.013448433 -0.058677435 -0.014392317
-0.015983075 0.06507364 -0.0799952 -0.050755296 0.03309758 -0.06817636 0.056772638 -0.03165257
0.08001949 0.014031186 -0.0025167384 0.006301296 0.04015335 0.073342465 -0.077092744 -0.0508915
0.025015378 0.024882076 0.014806435 0.027912594 0.04930117 -0.074835785 -0.048063464 0.041203976
0.053568017 -0.04909409 -0.050889738 -0.07362107 -0.053114258 0.039292444 -0.077252336 -0.08315156
0.0332351 -0.04657019 0.061427284 -0.079707384 -0.04394672 -0.065172836 0.08657848 -0.020263659

mlp.18.weight f4 [8, 64]
00000000: b6b8 563d f099 093c fdc9 babd 753e edbd
00000010: 0bd6 d5bd 033f 143d 6d6b 81bb cda7 cbbd
00000020: fd7e f63b 2c85 dbbd c23e f2bd 9303 e7b9
00000030: 26e1 45ba 0bf5 edbc 6d53 e03d 6e96 60bd
00000040: 7f8d 693d 17d3 923d e9b0 b43d 4e02 f3bd
00000050: 7f83 62b9 3986 873d cb1c 17bd 4632 893c
00000060: c44a 96bc 7dce bb3c 5151 8ebb 9cb2 8ebc
00000070: bb06 51bd 7225 d03d 2aa7 8dbc ab85 983d
00000080: 2f0b 8a3d 79ee f6bd 6d45 2c3d 819a bc3d
00000090: ec13 c1bd 743c 593d 0f95 e4bd d9a1 8b3d
000000a0: 28ee 0ebd 42fe aabd a625 58bc da6f dfbc
000000b0: 5b07 cfbd 0333 8bbc 9006 1a3d d6bd 39bd
000000c0: 95bd 823d 89ff 4a3d 238f 4ebb bc18 a43d
000000d0: 3a18 eabd e5ae 313d 1190 b5bd 575c 0d3c
000000e0: ca67 46bc 9a14 f5bd 43af ddbd bf3f e53c
000000f0: cea4 3a3d d899 563d 2cd5 c13d 6eac a1bd
00000100: 812c 41bc cc3e 1f3a b5c9 77bd 0601 3a3d
00000110: 0363 8ebd 2d80 c33b 9aa1 82bd 82a2 4ebd
00000120: 9963 46bd eaa5 e6bc 658f 8dbd d3a3 c43d
00000130: b9d4 99bd 9830 9f3d c437 76bd 4186 f93b
00000140: dd53 223d 1efd a93d d639 ac3c f9e3 3b3d
00000150: 931e 933c 7b11 b43d 6ab8 953c aec1 423c
00000160: 97ec 653c be2c c53d bb6d f63d a1a6 91bc
00000170: 3635 2ebc 81af 3fbd fa4d 9b3d a0d2 4cbd
00000180: b237 32bc e584 e2ba 3904 bbbd cbf2 ba3d
00000190: 2780 ba3d dce0 ef3d c8cc 5dbd 9803 bc3d
000001a0: 2357 e43d c60a dfbd 8cd3 443c 1f44 df3d
000001b0: 3779 a0bd a3eb 613d 1625 41bb a6f4 46bd
000001c0: 393d 513d d2e2 e93d 7b7b a33c 0196 8ebd
000001d0: a712 193c 68ba 0bbd 5674 6dbd 98f4 f4bd
000001e0: 8334 eabd a78b 39bc eb4e c1bd f3b5 2b3d
000001f0: ed71 e23d e835 9bbd 27ef 563d 3a53 bd3c
00000200: 8d66 b23d e92c 48bd 5d73 503d 9936 6d3d
00000210: dfa3 b83d 8ad0 693b 2c16 873d e0b5 543d
00000220: 4f7f 0e3d 0586 fabc b72e 0ebc e771 e53d
00000230: 77e0 27bd 1bda b6bd 1b45 b9bb 2c10 d6bd
00000240: 864d b63d f2bb a2bd 3f3d 4dbd cfd8 6cbd
00000250: f781 ca3d 006f 1c3d ef0b 2dbd 07b6 68bc
00000260: bd74 af3c 0e2e 12bd 4f36 edbc 5c12 8f3d
00000270: 428d b0bd d267 39bd 8342 853c f22c e03c
00000280: daa1 b23d 42f5 f83d 212b 33bd 8afc 90bd
00000290: 4eba c13d dc4c 683d 1ce3 253d 4bb3 02ba
000002a0: aaa9 c2bd b20d da3d b08b b6bd d747 713d
000002b0: 6052 0d3d 523e 28bd baeb cebc 485b 733d
000002c0: e42e 0a3c 5e12 bd3c 55b4 c43d 41f8 90bc
000002d0: ccfa 5cbd b607 a03d aa71 ee3d b6ab 8cbc
000002e0: 63de a1bd 72e7 3fbd abcc 703c cc01 7ebd
000002f0: 928c c33c a657 a43d 6e09 553d eb28 3b3b
00000300: 7b70 58bd 25e0 843d e62b 563b c6e0 03bc
00000310: 58c2 b0bd 9300 93bc 8dce 5dbd dc24 ab3d
00000320: 1b59 7f3c 4ecd de3b 27eb 123d 197c 04bc
00000330: d32c eb3b bd93 bebd 6a22 003d b269 793d
00000340: c6fa a9bd 8556 9cbd 9bae 323d 9190 95bd
00000350: 5ea5 a73d 2d7f 823c ca21 fd3c 5691 92bd
00000360: d3df 063d 6b05 e83c 00d1 3f3d 99ae c0bb
00000370: b5f8 d73d 9415 dc3d e6f4 ebbd 8a86 b4bd
00000380: 3b14 bfbd 4de1 a2bd 475a ebbb 622e 0e3d
00000390: e86a f0bd 183f 983d ccae 103d 78fd 9abd
000003a0: 64b8 adbd 13fe 73bd 0d67 b7bd ecb1 313c
000003b0: 8ddd f9bc 88ec ef3d 1830 b13d 8944 ebbd
000003c0: 8750 6dbd 447b e7bc 9758 76bc 6190 bf3c
000003d0: 6098 f2bd 1d07 0dbd 7d8e 9abd 17e8 04bd
000003e0: 45dd 893d a3fd cabd 3acc fdbc a001 0dbd
000003f0: fc5a 193d 7bf8 f63d a0d8 313d c8b2 d7bd
0.052422248 0.008398518 -0.091205575 -0.11584178 -0.10441216 0.036192905 -0.0039495737 -0.09944115
0.0075224624 -0.1071876 -0.11828376 -0.00044062416 -0.00075485033 -0.02904751 0.10953412 -0.05483096
0.057019707 0.071691684 0.088228054 -0.11865674 -0.00021602026 0.06617398 -0.036892693 0.016747605
-0.018346198 0.02292561 -0.0043431898 -0.017419152 -0.05103181 0.10163392 -0.017291624 0.0744737
0.06740414 -0.12057204 0.042058397 0.09209157 -0.09427628 0.05303617 -0.11161243 0.06817979
-0.034895092 -0.08349277 -0.01319257 -0.027275015 -0.10108825 -0.016992098 0.037603915 -0.045347057
0.06383816 0.049560104 -0.0031518422 0.0801253 -0.11430402 0.043379683 -0.08865369 0.008627973
-0.012109706 -0.1196682 -0.10824444 0.027984498 0.045567326 0.05239281 0.094644874 -0.078942165
-0.011790396 0.0006074726 -0.060495097 0.045411132 -0.06952479 0.0059662075 -0.06378479 -0.05044795
-0.048434827 -0.028155286 -0.06912116 0.096015595 -0.07511277 0.077729404 -0.060111776 0.0076148813
0.03963076 0.083002314 0.021023672 0.04587171 0.017958915 0.08792397 0.018276412 0.011886997
0.014033458 0.096276745 0.12032648 -0.01777965 -0.010632804 -0.046798233 0.07583232 -0.050005555
-0.010877537 -0.0017282037 -0.09131665 0.0912834 0.09106474 0.117128104 -0.054150373 0.09180373
0.111494325 -0.10890727 0.012013327 0.10901665 -0.0783562 0.05515636 -0.0029471568 -0.04857316
0.051083777 0.11420216 0.019956341 -0.06962205 0.009342826 -0.034113318 -0.057972275 -0.11960715
-0.11435797 -0.0113248 -0.094388805 0.041921567 0.11056886 -0.07578641 0.052474167 0.023110975
0.08710966 -0.048870955 0.05089127 0.057913397 0.09015631 0.0035677277 0.06596026 0.051931262
0.03478938 -0.030581484 -0.00867813 0.11203366 -0.04098555 -0.08928319 -0.00565399 -0.10452303
0.08901505 -0.07946004 -0.050107237 -0.057823952 0.0988807 0.038191795 -0.04224771 -0.014203555
0.02141797 -0.035688452 -0.02895656 0.06985924 -0.08620693 -0.045265026 0.016267067 0.027365182
0.08722277 0.12156154 -0.043742303 -0.07079418 0.09459363 0.056713924 0.04049979 -0.0004985823
-0.09505017 0.106471434 -0.08913362 0.058906402 0.034502387 -0.04107506 -0.025258888 0.059413224
0.008434031 0.023080047 0.09604708 -0.017696502 -0.053950116 0.07813971 0.116427734 -0.017171722
-0.07903745 -0.046851583 0.014697234 -0.062013432 0.02387074 0.0802453 0.052010946 0.0028558325
-0.052841645 0.06488065 0.0032679974 -0.008049196 -0.08630818 -0.01794461 -0.05415206 0.0835664
0.015585209 0.0067993766 0.03586879 -0.008086228 0.0071769743 -0.093055226 0.03128282 0.060891815
-0.08299784 -0.0763369 0.043623548 -0.073029645 0.08185838 0.015929783 0.030899901 -0.07156627
0.0329283 0.028322896 0.046830177 -0.0058801887 0.10545484 0.10746303 -0.1152132 -0.08814724
-0.093300305 -0.07953129 -0.0071823928 0.034712203 -0.11739141 0.07433909 0.03532295 -0.075678766
-0.08482435 -0.059568476 -0.08955202 0.010845643 -0.030501151 0.11715037 0.08651751 -0.114876814
-0.057938125 -0.02825702 -0.01503577 0.023384275 -0.118454695 -0.034430612 -0.07546709 -0.0324479
0.06731657 -0.099116586 -0.030981172 -0.034425378 0.037440285 0.12059113 0.04341948 -0.10532147

mlp.18.bias f4 [8]
00000000: 9a8b b43d ed40 563d 85b2 42bc 8eaf 1abd
00000010: 9c28 c0bc d80c d23d 7209 a6bc bc15 db3d
0.088156894 0.05230801 -0.011883383 -0.03776508 -0.023456864 0.10256356 -0.020268176 0.10697505

mlp.21.weight f4 [1, 8]
00000000: 8f8b aebe 9504 afbd 4486 7c3e e84e e7bd
00000010: fcc6 f1bd ea4b 97be c905 47be 30b4 a7bc
-0.3409085 -0.08545796 0.24660593 -0.11294347 -0.118055314 -0.29550105 -0.194358 -0.020471662
