model_saved/2024-01-25-07-56-26/model_2024-01-25-07-56-41_epoch_2000_train_mse_1.97e-02_val_mse_1.78e-02.pt (torch, 88323 bytes, 15 tensors)

mlp.0.weight f4 [8, 8]
-0.09246168 0.16625498 0.10411802 0.00011271942 0.00011916001 0.00011265703 0.0005117542 4.9106798e-06
6.879e-42 -3.4524268e-28 -5.7052e-41 -3.695e-42 6.4639e-41 5.3112e-41 -3.4388e-41 1.32075e-40
-0.058649592 0.067545146 0.074895866 1.4083853e-05 1.6285729e-05 1.7454911e-05 9.213628e-05 -2.3937935e-06
0.12106101 0.23288453 0.10695471 0.00027135116 0.0002894687 0.00024113113 0.0009728867 4.3836368e-05
-3.2519e-41 -4.285e-42 -5.296e-41 -3.040124e-39 -4.7592e-41 -1.3702127e-25 -4.8775e-41 -5.1718e-41
0.004728807 0.0033884475 -0.00049067696 5.1210327e-06 2.7712683e-06 -5.659755e-06 6.292917e-06 -7.4179325e-06
-0.0053262464 -0.011295179 0.0068986616 5.6039356e-22 8.263e-42 5.2488e-41 4.8467924e-19 -4.2119e-41
-5.0454e-41 1.8517e-41 6.6817e-41 -6.8078e-41 3.3438e-41 -4.1893e-41 -1.65981e-23 4.5511e-41
00000000: 8d5c bdbd bf3e 2a3e d43b d53d c763 ec38
00000010: 8be5 f938 4842 ec38 3e27 063a 6bc6 a436
00000020: 2d13 0000 d4d2 da91 0a9f 0080 4d0a 0080
00000030: 30b4 0000 0e94 0000 dc5f 0080 2c70 0100
00000040: 8e3a 70bd 1c55 8a3d 0163 993d b049 6c37
00000050: 569d 8837 236c 9237 4a39 c138 0fa5 20b6
00000060: d6ee f73d 4879 6e3e 120b db3d 2344 8e39
00000070: d5c3 9739 25d8 7c39 5209 7f3a f1dc 3738
00000080: a65a 0080 f20b 0080 a293 0080 a11a 2180
00000090: ab84 0080 c69f 2996 f787 0080 2b90 0080
000000a0: 1cf4 9a3b b710 5e3b c6a0 00ba 56d5 ab36
000000b0: 07fa 3936 ede8 bdb6 bf27 d336 8ee7 f8b6
000000c0: cb87 aebb 6a0f 39bc 2b0e e23b 5a5e 291c
000000d0: 0917 0000 5192 0000 540d 0f21 6975 0080
000000e0: a58c 0080 9e33 0000 42ba 0000 c6bd 0080
000000f0: 365d 0000 c874 0080 e886 a099 de7e 0000

mlp.0.bias f4 [8]
-1.595776e-05 9.873069e-38 -5.3124113e-06 -8.277954e-05 -6.5564e-41 -3.9311627e-07 4.9798e-41 3.0348e-41
00000000: 07dd 85b7 a062 0602 4441 b2b6 ed99 adb8
00000010: c4b6 0080 7d0d d3b4 d18a 0000 9954 0000

mlp.3.weight f4 [16, 8]
0.07522289 5.8636e-41 0.015887262 0.21355751 4.2869e-41 -0.035492003 4.0559e-07 -5.0426e-41
0.025680453 5.7219e-41 0.00040306995 -0.02109462 -1.08853e-40 0.022570487 5.3648336e-10 -1.5369375e-23
0.0011988047 1.6587e-41 0.00012847324 0.04071666 -4.0513e-41 -0.00027197125 1.4113113e-20 4.4163e-41
-2.5205e-41 -3.319e-41 -1.6213e-41 5.9693e-41 -4.2635e-41 3.3981e-41 -4.6452e-41 -4.0066e-41
-0.002594946 4.6554e-41 5.4803026e-05 0.017954445 -2.0165e-41 0.0032962612 -2.2394184e-14 -3.9929e-41
0.041890632 7.9576e-41 0.0045090183 0.11084668 3.5196288e-29 -0.01576308 1.5652496e-09 -4.2527e-41
-1.5038779e-08 1.5557531e-29 -5.4941e-41 -0.0008332334 3.2373e-41 5.68418e-06 -1.3157e-41 7.1449444e-32
0.014520468 1.030981e-28 0.0018295662 0.0883045 -3.3159295e-23 0.0019652278 3.250832e-14 4.27531e-35
0.10876607 -2.979e-41 0.014611534 0.07859207 -3.3858e-41 -0.01363553 7.998906e-06 2.2526e-41
0.008463274 -9.8232e-41 0.0012527036 0.07468391 5.329e-41 -0.0019730376 5.4808332e-17 -1.5067993e-33
0.01962747 -1.7208e-41 0.0013713967 0.062241714 -1.651e-42 0.005559344 4.985686e-09 2.145e-42
-5.6456e-41 1.114209e-39 3.7324e-41 -5.7124e-41 2.307e-41 5.6867e-41 1.2050802e-30 6.125e-42
-9.639465e-25 5.772e-41 -8.5948355e-26 -8.572477e-25 -2.907e-41 3.151275e-21 -4.021e-41 1.7666976e-26
0.009584538 4.7278e-41 0.0022476364 0.16190384 -2.5590874e-35 0.030240808 4.8415755e-10 -6.3015e-41
0.028373068 2.0247e-41 0.0035066782 0.08242684 -5.6363e-41 0.022513624 6.0797942e-12 8.712e-42
-5.0925e-41 9.226e-41 -4.6899e-41 -2.0443912e-35 -2.483e-42 -2.8571e-41 -2.6088e-41 3.2172e-41
00000000: 750e 9a3d 74a3 0000 0126 823c d2ae 5a3e
00000010: 8077 0000 1060 11bd ddbf d934 918c 0080
00000020: d05f d23c 819f 0000 2253 d339 a0ce acbc
00000030: 702f 0180 bee5 b83c a977 1330 bba4 9499
00000040: 3621 9d3a 3d2e 0000 c6b6 0639 83c6 263d
00000050: ef70 0080 5d97 8eb9 6a4b 851e 1c7b 0000
00000060: 4346 0080 855c 0080 322d 0080 66a6 0000
00000070: d976 0080 ba5e 0000 7d81 0080 b06f 0080
00000080: f80f 2abb c681 0000 4ddc 6538 3315 933c
00000090: 3638 0080 1606 583b 79b5 c9a8 4e6f 0080
000000a0: 8395 2b3d d3dd 0000 63c0 933b 9603 e33d
000000b0: 6577 3210 9321 81bc 5320 d730 8c76 0080
000000c0: a02e 81b2 a9c5 9d0f 2799 0080 596d 5aba
000000d0: 3e5a 0000 bcba be36 ad24 0080 4d7e b90b
000000e0: 42e7 6d3c 3fb1 0211 0ece ef3a fdd8 b43d
000000f0: 3859 209a 0dcb 003b 8b67 1229 8150 6306
00000100: bfc0 de3d 0b53 0080 3765 6f3c e1f4 a03d
00000110: 625e 0080 8f67 5fbc 0a33 0637 cb3e 0000
00000120: 8ba9 0a3c d511 0180 c231 a43a e1f3 983d
00000130: 8d94 0000 144e 01bb 42c2 7c24 275c fa88
00000140: cac9 a03c f82f 0080 70c0 b33a 2bf1 7e3d
00000150: 9a04 0080 282b b63b 8f4e ab31 fb05 0000
00000160: 609d 0080 f621 0c00 0b68 0000 3d9f 0080
00000170: 4f40 0000 869e 0000 1389 c30d 1311 0000
00000180: db29 9597 e6a0 0000 3ecc d495 14a7 8497
00000190: 0951 0080 861a 6e1d 1770 0080 1bf7 ae14
000001a0: 7708 1d3c cb83 0000 154d 133b 1fca 253e
000001b0: 7e10 0886 92bb f73c 8f15 0530 a9af 0080
000001c0: a36e e83c 7138 0000 4cd0 653b 67cf a83d
000001d0: 1e9d 0080 7e6e b83c ebe9 d52c 4918 0000
000001e0: f58d 0080 2f01 0100 bc82 0080 9f65 d985
000001f0: ec06 0080 a54f 0080 b948 0080 af59 0000

mlp.3.bias f4 [16]
-1.0102448e-06 -2.326919e-13 -2.9706594e-05 -5.5273e-41 4.3908574e-07 5.0433464e-06 2.1646e-41 -4.023518e-05
-5.071723e-06 7.0542214e-06 -3.5188958e-05 6.3255e-41 -9.2683006e-27 2.640665e-05 -3.6700218e-05 8.942e-42
00000000: bf97 87b5 70fe 82aa 6d32 f9b7 149a 0080
00000010: 7cbb eb34 043a a936 573c 0000 32c2 28b8
00000020: c52d aab6 4db3 ec36 db97 13b8 54b0 0000
00000030: de93 3794 d983 dd37 8fee 19b8 ed18 0000

mlp.6.weight f4 [32, 16]
0.08301996 0.00053142826 0.0040796963 2.4971e-41 0.0013422961 0.038092565 -1.4394e-41 0.07564994
0.048126765 0.03995227 0.014031904 1.8672e-41 1.1369679e-24 0.055260867 0.034095436 2.6777e-41
-5.6214e-41 -1.6901e-41 2.6513e-41 5.9229e-41 1.8293e-41 6.38e-42 -3.7378e-41 2.6021e-41
-3.4351e-41 -1.9946e-41 3.4458e-41 9.254e-42 3.613e-42 1.8424e-41 -6.8211e-41 9.718e-42
0.05695452 0.00086625677 -0.0077688233 -6.1462e-41 0.00037460987 -0.02648004 5.1383e-41 0.037433613
0.03850972 0.045482602 -0.0017134999 3.3853e-41 -3.3746424e-24 0.026242683 -0.008256372 4.1424e-41
0.03426857 9.629489e-05 0.02047863 6.5265e-41 2.3359284e-05 0.02275954 5.261354e-39 -0.04892536
0.0028957103 0.0076210015 0.0020005293 5.2141e-41 -2.545949e-25 -0.028084397 -0.009507035 -7.5789e-41
-1.1624e-41 -5.8234e-41 5.5274e-41 6.7213e-41 3.1864e-41 2.113e-42 -6.1898e-41 -2.1119e-41
-3.3034e-41 3.185e-41 -5.9498e-41 -4.6128e-41 6.66e-43 6.5861e-41 4.176e-42 6.3166e-41
2.1608e-41 -5.7921e-41 6.3822e-41 1.467e-41 -3.5601e-41 -1.3678e-41 6.7579e-41 -2.5595e-41
5.5982e-41 1.062676e-39 -3.9179e-41 9.1198e-41 1.11585e-40 1.8578e-41 6.635e-41 4.5754e-41
0.08447849 0.0006384689 0.0077922875 5.8356e-41 0.00053522113 0.0045363484 1.3717e-41 -0.046030935
0.040670346 -0.022447957 0.014061415 -3.686e-41 -3.795599e-24 0.06598788 0.027570767 4.4622e-41
-9.103e-42 -5.6999e-41 3.7027e-41 -5.6245e-41 4.2877e-41 -4.414e-42 -5.323e-41 -3.6149e-41
6.1853e-41 -4.1746e-41 -4.051e-42 1.319e-41 -9.8902e-41 -5.733e-42 -6.4374e-41 1.2991e-41
0.013087628 1.0089085e-05 -0.00451701 -6.3922e-41 6.71141e-05 0.0034020788 6.152e-42 0.014695018
-0.0038413715 0.0045520794 0.0018113253 1.00138e-40 -2.0601381e-26 0.021194583 0.010957199 7.4499e-41
-0.0010786644 4.6686925e-08 0.00066763605 1.06057e-40 3.6988781e-06 -0.0005175408 4.7634e-41 0.0038161445
2.0248854e-06 -3.8790386e-05 1.8064633e-06 -5.0332e-41 2.2021861e-26 0.004368941 -0.00083248067 -1.03903e-40
0.003339263 1.1404533e-06 0.00092437706 -2.3248e-41 1.2784326e-05 0.0017618949 -4.5217e-41 0.0044357767
0.0012216484 0.0012626982 0.0006323618 6.0493e-41 -8.219207e-25 0.0016086085 0.0036702068 4.295e-41
-0.008978572 -1.3380965e-05 0.013276515 -5.551e-41 -2.4867743e-06 -0.007902421 -2.0842e-41 0.026601305
-0.011040435 0.0139741 0.00045781943 -4.593e-41 5.0298178e-26 0.0029448236 -0.0061203926 -5.7048e-41
-0.0020584264 2.821341e-06 0.004852217 -1.141e-41 2.0828767e-05 0.0037034838 -4.6555e-41 -0.015226472
0.00060588185 -0.0020264352 0.00027837142 -2.7618e-41 1.5749464e-25 0.016270097 0.010153917 3.8998e-41
0.009734935 4.704338e-05 -0.008232318 -4.2455e-41 0.00014755192 -0.0028522862 1.226713e-39 0.015539486
0.012210854 -0.005698164 0.0075127906 2.7289e-41 2.3336397e-24 0.027792765 0.026354391 5.096e-41
-1.2837e-41 -5.0635e-41 -7.4986e-41 2.99e-42 -3.9227e-41 -6.4715e-41 -1.43102e-40 -4.8041e-41
-6.115e-41 -6.2774e-41 -5.5545e-41 -1.6422e-41 -1.98875e-40 -9.711e-42 6.789e-42 3.2544e-41
0.020262256 1.7656825e-05 -0.014999059 -4.7943e-41 3.214859e-05 -0.0029319583 -4.3335e-41 -0.038949344
0.0046481416 0.0058767325 -0.003626415 -2.0947e-41 -3.8640483e-25 0.025455115 0.019695984 3.9871e-41
00000000: 5e06 aa3d 8c4f 0b3a f9ae 853b 9c45 0000
00000010: fcef af3a f306 1c3d 2028 0080 5bee 9a3d
00000020: 9220 453d fea4 233d 12e6 653c 0d34 0000
00000030: f0ef af17 3859 623d a8a7 0b3d a54a 0000
00000040: b49c 0080 1d2f 0080 e849 0000 1ba5 0000
00000050: fe32 0000 c911 0000 3268 0080 8948 0000
00000060: c25f 0080 9a37 0080 0e60 0000 cc19 0000
00000070: 120a 0000 5c33 0000 25be 0080 171b 0000
00000080: 2549 693d 8215 633a 9d91 febb 55ab 0080
00000090: 4967 c439 abec d8bc 3c8f 0000 fd53 193d
000000a0: 5ebc 1d3d f74b 3a3d 8497 e0ba 5e5e 0000
000000b0: d78c 8298 e5fa d63c bc45 07bc 7973 0000
000000c0: 335d 0c3d edf1 c938 cdc2 a73c efb5 0000
000000d0: aef3 c337 3772 ba3c 844a 3900 f565 48bd
000000e0: f5c5 3d3b 98b9 f93b 501b 033b 5991 0000
000000f0: 2c96 9d96 4011 e6bc 65c3 1bbc 45d3 0080
00000100: 6720 0080 55a2 0080 159a 0000 5dbb 0000
00000110: d358 0000 e405 0000 8cac 0080 df3a 0080
00000120: 165c 0080 c958 0000 dba5 0080 9680 0080
00000130: db01 0000 98b7 0000 a40b 0000 15b0 0000
00000140: 3c3c 0000 76a1 0080 e9b1 0000 e528 0000
00000150: 3e63 0080 2126 0080 62bc 0000 5947 0080
00000160: 0e9c 0000 4f92 0b00 376d 0080 39fe 0000
00000170: 0e37 0100 ca33 0000 f5b8 0000 8b7f 0000
00000180: 0f03 ad3d ec5e 273a 7256 ff3b aca2 0000
00000190: 154e 0c3a a6a5 943b 3d26 0000 ef8a 3cbd
000001a0: f395 263d c7e4 b7bc d961 663c c066 0080
000001b0: cbd5 9298 a724 873d 17dc e13c 637c 0000
000001c0: 6019 0080 e49e 0080 3767 0000 ca9c 0080
000001d0: 8677 0000 4e0c 0080 6294 0080 c564 0080
000001e0: 6cac 0000 5f74 0080 4b0b 0080 c524 0000
000001f0: b313 0180 fb0f 0080 73b3 0080 3724 0000
00000200: 7e6d 563c 4a44 2937 6d03 94bb 30b2 0080
00000210: 9cbf 8c38 69f5 5e3b 2611 0000 5fc3 703c
00000220: 85bf 7bbb 9c29 953b fe69 ed3a 2517 0100
00000230: b506 cc94 43a0 ad3c d385 333c accf 0000
00000240: f961 8dba d184 4833 4c04 2f3a a527 0100
00000250: 3e3a 7836 93ab 07ba c984 0000 4818 7a3b
00000260: 44e3 0736 dcb2 22b8 9b75 f235 4e8c 0080
00000270: 0d18 da14 5529 8f3b d53a 5aba a421 0180
00000280: 89d7 5a3b ad11 9935 e551 723a ce40 0080
00000290: 437c 5637 62ef e63a 0c7e 0080 fe59 913b
000002a0: b81f a03a 1f81 a53a 15c5 253a a1a8 0000
000002b0: 445f 7e97 f2d7 d23a da87 703b ba77 0000
000002c0: dc1a 13bc cf7e 60b7 bd85 593c bd9a 0080
000002d0: 75e2 26b6 2879 01bc 193a 0080 fbea d93c
000002e0: f1e2 34bc a0f3 643c 7c07 f039 0980 0080
000002f0: 8410 7915 f1fd 403b 938d c8bb 079f 0080
00000300: aae6 06bb 4556 3d36 59ff 9e3b ce1f 0080
00000310: 70b9 ae37 26b6 723b c781 0080 7478 79bc
00000320: 0bd4 1e3a f1cd 04bb 61f2 9139 fd4c 0080
00000330: 0bf8 4216 de48 853c 9d5c 263c b66c 0000
00000340: 477f 1f3c 7250 4538 d8e0 06bc 5976 0080
00000350: 2bb8 1a39 6ced 3abb 945b 0d00 5499 7e3c
00000360: 0910 483c aab7 babb db2d f63b 124c 0000
00000370: 7f8e 3418 a7ad e33c 2ae5 d73c 0e8e 0000
00000380: c923 0080 268d 0080 08d1 0080 5608 0000
00000390: 596d 0080 66b4 0080 e98e 0180 eb85 0080
000003a0: 76aa 0080 fdae 0080 d69a 0080 c72d 0080
000003b0: 622a 0280 121b 0080 ed12 0000 b85a 0000
000003c0: 08fd a53c be1d 9437 9dbe 75bc a585 0080
000003d0: 49d7 0638 1926 40bb cd78 0080 5989 1fbd
000003e0: 704f 983b 9b91 c03b 26a9 6dbb 643a 0080
000003f0: 4a2c ef96 3f87 d03c 7959 a13c 256f 0000

mlp.6.bias f4 [32]
-0.00012292003 -4.443e-41 9.576924e-06 -5.1512507e-06 -3.2538e-41 1.1102e-41 -1.1286002e-05 -4.7413e-41
-8.315852e-06 -6.8860854e-06 -8.080341e-05 2.7507751e-06 -2.6516105e-05 -8.861156e-05 -1.1325e-41 -7.879178e-06
-0.00010135907 -6.813369e-26 7.5019e-41 -4.8235e-41 -0.00029788847 -4.8144204e-05 3.8948e-41 5.9657573e-06
-5.5602e-41 -6.890673e-07 -1.21140635e-08 -6.42e-41 -0.00012202945 -0.00024225787 -2.6176454e-05 -1.5046242e-05
00000000: 18e4 00b9 da7b 0080 93ac 2037 e8d8 acb6
00000010: b45a 0080 f31e 0000 0259 3db7 2b84 0080
00000020: 5084 0bb7 060f e7b6 0075 a9b8 f599 3836
00000030: e76e deb7 f8d4 b9b8 921f 0080 d030 04b7
00000040: bd90 d4b8 dbb0 a895 1fd1 0000 7686 0080
00000050: ea2d 9cb9 72ee 49b8 926c 0000 772d c836
00000060: ff9a 0080 58f8 38b5 371e 50b2 f7b2 0080
00000070: 10ea ffb8 9a06 7eb9 8295 dbb7 1e6f 7cb7

mlp.9.weight f4 [64, 32]
0.073324695 -7.5255e-41 0.020789806 0.0014002384 -1.38949e-40 -4.321e-41 0.023348087 -7.459e-42
-0.006031575 0.00021780575 0.0048816274 -0.0014495893 0.00081133546 0.0112646585 2.9541e-41 0.0020399261
0.023299467 -1.7159655e-24 -7.6696e-41 -1.6598e-41 0.0371447 0.0054978435 4.5112e-41 -0.0035668635
3.2877e-41 2.5096158e-05 2.067219e-07 1.5023e-41 0.028622385 0.016277766 0.041428454 0.013081665
0.014663007 -4.9788e-41 -0.0003015304 -6.557785e-06 2.3395e-41 6.901e-41 -0.0002522944 2.734e-41
0.0018600626 -2.594807e-06 -0.0003719492 8.967153e-06 -1.6515947e-05 3.4820243e-06 4.07414e-40 -1.0878353e-05
-0.013770473 2.9399364e-26 -6.9158e-41 -5.5374e-41 -0.009811837 -5.3506745e-05 -2.8668e-41 0.00020473734
-4.4476e-41 -9.60121e-08 -5.7292358e-08 -4.0458e-41 -0.00039619132 0.002947362 0.0009957037 -0.0001496392
6.2768e-41 -4.3935e-41 -6.911e-41 2.1248e-41 -9.3247e-41 -7.2868e-41 4.924e-42 6.82e-42
3.84665e-40 3.907e-42 3.3923e-41 -4.926e-41 -1.5035e-41 6.1085e-41 -3.7803e-41 5.8388e-41
1.5438e-41 -3.3449e-41 -2.3536e-41 -3.4165e-41 -4.718e-42 2.5044e-41 -4.3503e-41 -9.4143e-41
-6.602e-42 4.5203e-41 -3.2336e-41 -1.65226e-40 1.635e-41 -4.6962e-41 -1.027e-42 4.9718e-41
-0.053348813 6.8057e-41 0.014181902 0.000110982146 -1.0361e-41 1.6888e-41 0.008555117 -1.0409e-41
0.02071484 0.00019173771 0.0006029366 0.0021907124 7.566873e-05 0.009147145 9.578e-42 0.00016842473
0.018557843 1.7012127e-30 -3.0886e-41 6.2688e-41 -0.016980343 0.0019413704 3.291e-41 -0.006981708
-3.687e-41 5.0232717e-07 0.0002731665 -7.873e-41 0.01582227 -0.01323011 0.034290414 0.0052975304
0.004918574 -6.5289e-41 0.00047685407 1.0964659e-05 3.25341e-40 -5.046e-41 0.00049917086 6.1869e-41
0.000623971 4.1008284e-06 1.6639691e-05 -5.689648e-06 2.4876554e-05 0.00023643704 -3.12345e-40 1.5647867e-05
0.0044191764 -2.9396603e-26 7.1863e-41 1.4213e-41 4.4234148e-05 0.00010197162 5.062e-41 -3.962379e-05
-4.2835e-41 7.5204385e-09 1.5904363e-09 -2.18432e-40 0.0005964183 -0.0009904007 0.0016745597 0.00035269707
-5.8099e-41 -3.7834e-41 -3.9667e-41 3.4183e-41 -5.725e-41 -8.0733e-41 1.1457e-41 -4.4807e-41
2.948e-42 -2.7226e-41 -4.975e-42 6.9731e-41 1.51876e-40 -1.6073e-41 -1.787e-41 7.1148e-41
-3.575e-42 2.528e-41 2.9989e-41 -3.2895e-41 -3.7936e-41 1.6136e-41 3.6502e-41 -2.407e-42
-3.9445e-41 8.5939e-41 -5.6799e-41 -3.3832e-41 -1.4838e-41 -1.8315e-41 -3.6488e-41 -7.64e-42
3.0369e-41 2.56274e-40 5.9419e-41 3.9602e-41 2.8958e-41 -1.0745e-41 7.47e-41 -4.0697e-41
-9.665e-42 -2.6354e-41 -4.2162e-41 3.3118e-41 5.1967e-41 6.4223e-41 -2.2506e-41 1.11036e-40
5.5197e-41 -1.02192e-40 3.6375e-41 -3.8397e-41 1.2892e-41 -2.205e-41 -6.5571e-41 -3.697e-41
7.8397e-41 5.6813e-41 5.9816e-41 6.7198e-41 -3.6872e-41 1.67607e-40 1.7201e-40 3.0963e-41
-0.03691281 1.7598e-41 -0.00014683559 9.024151e-10 -4.6024e-41 5.0228e-41 -0.0009790568 8.667e-42
-0.0006356488 7.718087e-06 0.0052951765 0.00077718677 0.0009683061 0.0026344096 -2.157e-42 2.288037e-09
0.021271627 8.342e-42 8.34e-43 2.2027e-41 -0.028104039 -8.6060565e-05 5.119e-42 0.0040163673
-7.1609e-41 7.795839e-20 -1.996833e-05 -4.8694e-41 0.005059234 0.004776529 0.007668556 -0.0016727676
00000000: 422b 963d c8d1 0080 624f aa3c 3488 b73a
00000010: 5583 0180 7478 0080 7d44 bf3c cb14 0080
00000020: 85a4 c5bb c962 6439 0ff6 9f3b 2500 beba
00000030: cdaf 543a 678f 383c 5952 0000 48b0 053b
00000040: 86de be3c 33c4 0498 ccd5 0080 452e 0080
00000050: 0a25 183d 4127 b43b c17d 0000 0ac2 69bb
00000060: a65b 0000 9785 d237 48f7 5d34 e129 0000
00000070: 7e79 ea3c f358 853c e2b0 293d 7b54 563c
00000080: 1c3d 703c ca8a 0080 ba16 9eb9 f20a dcb6
00000090: 3741 0000 5fc0 0000 6246 84b9 364c 0000
000000a0: 58cd f33a 7222 2eb6 2d02 c3b9 a171 1637
000000b0: ba8b 8ab7 b9ac 6936 b46f 0400 2c82 36b7
000000c0: 8d9d 61bc 1f94 1115 c9c0 0080 5c9a 0080
000000d0: d4c1 20bc 6e6c 60b8 ea4f 0080 c3ae 5639
000000e0: fb7b 0080 362f ceb3 9d11 76b3 c870 0080
000000f0: e6b7 cfb9 8728 413b 4682 823a 78e8 1cb9
00000100: f9ae 0000 797a 0080 a7c0 0080 3b3b 0000
00000110: ef03 0180 20cb 0080 ba0d 0000 0313 0000
00000120: 4a30 0400 e40a 0000 905e 0000 5189 0080
00000130: e929 0080 48aa 0000 6169 0080 c3a2 0000
00000140: 092b 0000 3e5d 0080 9c41 0080 3d5f 0080
00000150: 270d 0080 d045 0000 4579 0080 6f06 0180
00000160: 6712 0080 027e 0000 245a 0080 95cc 0180
00000170: 942d 0000 e982 0080 dd02 0080 988a 0000
00000180: 4984 5abd b7bd 0000 355b 683c 16bf e838
00000190: e21c 0080 142f 0000 c32a 0c3c 041d 0080
000001a0: 2bb2 a93c 330d 4939 640e 1e3a 0e92 0f3b
000001b0: 57b0 9e38 e8dd 153c b31a 0000 2b9b 3039
000001c0: 9e06 983c ce04 0a0e 1956 0080 c0ae 0000
000001d0: 5c1a 8bbc 9575 fe3a bd5b 0000 d0c6 e4bb
000001e0: c766 0080 a9d7 0635 c937 8f39 78db 0080
000001f0: b59d 813c 1ac3 58bc 1b74 0c3d e896 ad3b
00000200: fd2b a13b 00b6 0080 4502 fa39 daf4 3737
00000210: eb8a 0300 a98c 0080 cada 023a 77ac 0000
00000220: fc91 233a d999 8936 7795 8b37 b4e9 beb6
00000230: fead d037 16ec 7739 b166 0380 8a43 8337
00000240: bdce 903b 9f90 1195 53c8 0000 9f27 0000
00000250: 0e88 3938 99d9 d538 1c8d 0000 b831 26b8
00000260: 6877 0080 3d33 0132 8196 da30 e660 0280
00000270: f458 1c3a 55d0 81ba e67c db3a 33ea b839
00000280: f5a1 0080 7769 0080 936e 0080 4a5f 0000
00000290: 979f 0080 0de1 0080 f01f 0000 e77c 0080
000002a0: 3808 0000 e54b 0080 de0d 0080 62c2 0000
000002b0: 5ea7 0100 ce2c 0080 d031 0080 55c6 0000
000002c0: f709 0080 7846 0000 9953 0000 b35b 0080
000002d0: c069 0080 fb2c 0000 c165 0000 b606 0080
000002e0: f56d 0080 90ef 0000 559e 0080 4f5e 0080
000002f0: 5d29 0080 0e33 0080 b765 0080 4c15 0080
00000300: a854 0000 63ca 0200 a3a5 0000 656e 0000
00000310: b950 0000 f41d 0080 3cd0 0000 7271 0080
00000320: f11a 0080 7749 0080 8875 0080 525c 0000
00000330: dd90 0000 07b3 0000 bd3e 0080 8635 0100
00000340: de99 0000 df1c 0180 6665 0000 096b 0080
00000350: f023 0000 773d 0080 c9b6 0080 0f67 0080
00000360: 8ada 0000 5f9e 0000 bea6 0000 52bb 0000
00000370: c966 0080 38d3 0100 7edf 0100 5056 0000
00000380: e331 17bd 0e31 0000 e1f7 19b9 d10d 7830
00000390: 4c80 0080 048c 0000 b253 80ba 2918 0000
000003a0: aba1 26ba ee7c 0137 2983 ad3b 1fbc 4b3a
000003b0: ecd5 7d3a 0fa6 2c3b 0306 0080 933b 1d31
000003c0: d641 ae3c 4117 0000 5302 0000 673d 0000
000003d0: 713a e6bc 6a7b b4b8 450e 0000 bb9b 833b
000003e0: 9ec7 0080 f512 b81f aa81 a7b7 bd87 0080
000003f0: eec7 a53b 6e84 9c3b 8348 fb3b c440 dbba

mlp.9.bias f4 [64]
0.0006242163 8.273293e-06 8.523e-42 6.651069e-07 -4.207983e-05 -3.8589e-41 5.7753e-41 -7.741964e-38
1.6071629e-18 -0.00058841537 -0.00033556632 -7.392e-42 -0.00025613076 -0.00032201418 6.8495e-41 1.293276e-05
0.00031102516 4.0098e-41 8.07e-43 -5.4742e-41 -0.00040010698 -6.75e-42 -7.461733e-05 -1.1702067e-05
-0.00010561639 -5.2453e-41 0.0010565387 -1.4510481e-06 -1.5081e-41 -8.67709e-05 -1.4021829e-05 4.545379e-05
-2.2799e-41 -2.7276e-41 3.7596434e-05 -6.9873e-41 -5.318292e-05 -1.4831642e-06 -0.0001860642 -0.00014617648
-0.00018034237 -4.485e-41 2.4611e-41 4.2552875e-07 -5.7410704e-30 -0.00046084775 -1.5637e-41 -4.698762e-05
-2.351e-42 -9.232393e-05 3.8078567e-06 -0.0003098836 -6.9221e-41 -6.53495e-05 -0.0002961099 -0.000100810925
-2.500165e-08 1.4013e-41 -5.9327e-41 -5.6507e-41 -1.7725e-41 -7.64e-42 -7.719986e-05 8.0676e-41
00000000: 72a2 233a 86cd 0a37 c217 0000 cc89 3235
00000010: e07e 30b8 926b 0080 fea0 0000 9dc1 d281
00000020: e62c ed21 e33f 1aba f3ee afb9 9b14 0080
00000030: 4a49 86b9 03d4 a8b9 f0be 0000 c8f9 5837
00000040: 1711 a339 c76f 0000 4002 0000 9998 0080
00000050: 73c5 d1b9 d112 0080 e07b 9cb8 ff53 44b7
00000060: 5e7e ddb8 3892 0080 8e7b 8a3a a2c1 c2b5
00000070: 0a2a 0080 c6f8 b5b8 4c3f 6bb7 a3a5 3e38
00000080: 8e3f 0080 094c 0080 ddb0 1d38 c7c2 0080
00000090: ba10 5fb8 2211 c7b5 3a1a 43b9 f346 19b9
000000a0: 491a 3db9 067d 0080 9b44 0000 3a74 e434
000000b0: afe2 e88e f09d f1b9 972b 0080 9314 45b8
000000c0: 8e06 0080 089e c1b8 7b8a 7f36 df77 a2b9
000000d0: f6c0 0080 3f0c 89b8 333f 9bb9 746a d3b8
000000e0: 36c3 d6b2 1027 0000 61a5 0080 859d 0080
000000f0: 6931 0080 4c15 0080 5ce6 a1b8 e4e0 0000

mlp.12.weight f4 [128, 64]
2.576e-42 7.9152e-41 -1.417e-42 2.409e-42 -3.7034e-41 6.607e-41 -1.9939e-41 5.0518e-41
-4.687e-42 1.28279e-40 -1.3977e-41 -1.4076e-41 3.332e-41 8.714e-41 -1.23616e-40 4.3031e-41
2.4797e-41 -6.8144e-41 8.5939e-41 1.335e-42 -5.8082e-41 -4.467e-41 -1.07272e-40 1.9411e-41
6.3259e-41 -8.7508e-41 -5.204e-42 -1.3148e-41 -7.303e-41 -1.0095e-41 -5.9701e-41 4.1244e-41
-5.6405e-41 6.6427e-41 7.2266e-41 -8.782e-42 6.5497e-41 -1.4296e-41 -5.792e-41 6.7234e-41
-3.4934e-41 8.03e-43 -5.87e-42 -5.9056e-41 -1.9324e-41 3.2233e-41 1.10107e-40 5.0583e-41
-1.164e-40 2.6944e-41 7.7818e-41 1.9833e-41 2.197e-42 6.2544e-41 4.2073e-41 -8.3513e-41
-2.0498e-41 -1.413e-42 -8.835e-42 -3.737e-41 -7.084e-41 -2.7514e-41 7.2907e-41 5.8705e-41
-0.0016119342 -3.3803472e-06 -4.2747e-41 2.9201835e-06 -2.9249e-08 -3.285e-42 -1.17015e-40 6.1206623e-07
1.7322844e-21 -0.0001724906 0.0018768182 1.0287e-40 -4.5587548e-08 3.4413606e-05 5.2187e-41 -7.185077e-08
7.655454e-05 2.3676e-41 -5.1508e-41 -1.8655e-41 0.0001882907 5.3616e-41 9.699272e-08 -1.1169396e-06
-2.7107795e-08 2.5277e-41 0.0017416836 -4.486165e-09 -2.22233e-40 -7.248635e-07 -6.670209e-08 0.000105329025
8.3199e-41 -7.1263e-41 4.9599315e-05 -1.3619e-41 5.288987e-06 -7.0412987e-10 -5.672243e-08 4.72792e-07
0.00032329906 2.9807e-41 8.856e-42 -5.1214843e-10 -2.8876727e-32 -0.0018300966 5.6793e-41 -1.6325588e-08
-6.6993503e-06 -3.717065e-05 -3.192984e-05 -2.6518426e-05 -6.7188e-41 -2.471274e-08 -0.00014588334 2.4821578e-05
1.0213249e-10 4.5155e-41 -1.6458886e-16 -5.8793e-41 -0.00016675117 5.9491e-41 2.0219664e-05 -2.0404e-41
-6.4028e-41 6.4755e-41 3.2918e-40 -1.9098e-41 6.2244e-41 1.6137e-41 6.3158e-41 8.5406e-41
1.06623e-40 -8.5416e-41 2.5743e-41 8.2954e-41 -8.1364e-41 5.6733e-41 3.3938e-41 -8.282e-41
6.735e-41 -1.5744e-41 -1.01272e-40 1.242e-42 -8.3072e-41 -6.1221e-41 4.6679e-41 2.8525e-41
-1.19234e-40 1.3038e-41 -7.159e-41 -2.9127e-41 -8.057e-41 1.22382e-40 8.952e-41 5.2239e-41
6.5745e-41 -4.874e-41 -1.0166e-41 3.2737e-41 4.5974e-41 6.7494e-41 -1.3257e-40 -2.22288e-40
-7.0754e-41 -4.867e-41 -1.569e-41 8.1806e-41 -3.9784e-41 7.3137e-41 6.7885e-41 5.444e-41
-3.3355e-41 -7.1822e-41 -1.568e-42 -8.054e-41 4.8719e-41 4.8336e-40 -5.9394e-41 2.5205e-41
4.6379e-41 7.1274e-41 2.133e-41 -9.958e-42 -1.324e-41 -6.9989e-41 -6.7478e-41 -1.41e-41
2.712943e-38 -1.77622e-40 6.6479e-41 7.1127e-41 -2.1152784e-38 -6.6811e-41 -7.217e-42 -4.9676e-41
9.1666e-41 -7.5722116e-38 3.302953e-38 5.4698e-41 -4.0223306e-38 -1.0796121e-37 2.3508e-41 3.8507825e-38
1.0563811e-36 1.4177e-41 8.8739e-41 7.255e-42 2.9084405e-37 -7.008e-42 5.7864473e-38 -1.960093e-39
-9.397736e-38 5.3164e-41 -3.424923e-37 -3.410651e-39 -1.13841e-40 -2.0058446e-37 -1.9973734e-37 -2.9046195e-37
1.5169e-41 -7.498e-41 -7.433427e-39 -5.12e-41 -7.874077e-39 -6.6118e-40 -1.1305479e-37 1.3575698e-37
-1.0515523e-38 3.2181e-41 3.5534e-41 1.44497e-39 3.773e-41 -1.8026816e-37 -9.3542e-41 -7.580079e-39
-3.307e-41 -1.4419729e-37 -1.497031e-39 -4.9245866e-38 6.776e-41 3.0651343e-37 -7.6807383e-38 -7.994338e-38
-4.1598e-41 1.7822e-41 2.0432e-41 6.7901e-41 1.7962e-41 -5.6348e-41 -3.748801e-38 -3.661e-41
00000000: 2e07 0000 a5dc 0000 f303 0080 b706 0000
00000010: 3c67 0080 2db8 0000 9537 0080 d38c 0000
00000020: 110d 0080 9765 0100 f626 0080 3d27 0080
00000030: e25c 0000 e9f2 0000 9758 0180 f477 0000
00000040: 2045 0000 f5bd 0080 90ef 0000 b903 0000
00000050: e9a1 0080 867c 0080 082b 0180 1c36 0000
00000060: 57b0 0000 f0f3 0080 820e 0080 a724 0080
00000070: 94cb 0080 241c 0080 6ca6 0080 f972 0000
00000080: 3c9d 0080 2cb9 0000 73c9 0000 7b18 0080
00000090: 94b6 0000 da27 0080 75a1 0080 6cbb 0000
000000a0: 6261 0080 3d02 0000 5d10 0080 a0a4 0080
000000b0: de35 0080 da59 0000 ef32 0100 018d 0000
000000c0: 7a44 0180 1c4b 0000 edd8 0000 4937 0000
000000d0: 2006 0000 59ae 0000 4875 0000 cde8 0080
000000e0: 2439 0080 f003 0080 a118 0080 2c68 0080
000000f0: 79c5 0080 b34c 0080 3ccb 0000 a5a3 0000
00000100: 8947 d3ba ecd9 62b6 2977 0080 5ff8 4336
00000110: 3b3f fbb2 2809 0080 3146 0180 df4c 2435
00000120: 41e3 021d 98de 34b9 92ff f53a c21e 0100
00000130: 0acc 43b3 5457 1038 7a91 0000 614c 9ab3
00000140: e88b a038 0042 0000 958f 0080 0134 0080
00000150: e66f 4539 7695 0000 504a d033 c1e9 95b5
00000160: acda e8b2 7646 0000 3449 e43a ba24 9ab1
00000170: 7f6b 0280 3e94 42b5 dd3d 8fb3 17e4 dc38
00000180: ede7 0000 a7c6 0080 dc08 5038 f725 0080
00000190: 0d78 b136 bc8c 41b0 f99e 73b3 0ad4 fd34
000001a0: 7780 a939 1753 0000 b018 0000 3ec7 0cb0
000001b0: c1ef 158b dadf efba 519e 0000 593c 8cb2
000001c0: fbca e0b6 aee7 1bb8 68ec 05b8 e373 deb7
000001d0: 4bbb 0080 e447 d4b2 43f8 18b9 ef37 d037
000001e0: 7b97 e02e e07d 0000 0fc2 3da5 e4a3 0080
000001f0: edd9 2eb9 d6a5 0000 669d a937 e138 0080
00000200: 7cb2 0080 83b4 0000 9f95 0300 3d35 0080
00000210: 83ad 0000 fc2c 0000 0fb0 0000 14ee 0000
00000220: 3929 0100 1bee 0080 c347 0000 3ee7 0000
00000230: cfe2 0080 269e 0000 9b5e 0000 dee6 0080
00000240: bfbb 0000 e32b 0080 4e1a 0180 7603 0000
00000250: 92e7 0080 a9aa 0080 1f82 0000 844f 0000
00000260: 604c 0180 5824 0000 90c7 0080 3251 0080
00000270: 99e0 0080 2755 0100 8cf9 0000 9f91 0000
00000280: 45b7 0000 de87 0080 571c 0080 425b 0000
00000290: 2880 0000 25bc 0000 8d71 0180 a66b 0280
000002a0: 3cc5 0080 ac87 0080 bd2b 0080 0be4 0000
000002b0: e76e 0080 e0cb 0000 3cbd 0000 c297 0000
000002c0: fb5c 0080 36c8 0080 5f04 0080 83e0 0080
000002d0: cf87 0000 6943 0500 91a5 0080 4346 0000
000002e0: 4981 0000 afc6 0000 763b 0000 c21b 0080
000002f0: e824 0080 1ac3 0080 1abc 0080 4e27 0080
00000300: e8b4 1301 23ef 0180 51b9 0000 46c6 0000
00000310: 5b55 e680 3eba 0080 1e14 0080 7a8a 0080
00000320: 87ff 0000 9d22 ce81 72d4 3301 7a98 0000
00000330: 1bff 5a81 fef2 1282 8841 0000 13a8 5101
00000340: e3bb b303 8527 0000 5ef7 0000 3914 0000
00000350: 2ef0 c502 8913 0080 a785 9d01 f157 1580
00000360: a9d4 ff81 3394 0000 9316 e982 8223 2580
00000370: 583d 0180 be82 8882 27ef 8782 9cad c582
00000380: 492a 0000 04d1 0080 5ff1 5080 ba8e 0080
00000390: b9bd 5580 1a33 0780 d8e1 1982 67c8 3802
000003a0: 0081 7280 b559 0000 0e63 0000 fdbb 0f00
000003b0: 2d69 0000 495e 7582 c204 0180 2d8a 5280
000003c0: 305c 0080 6c45 4482 1d4d 1080 5c0f 8681
000003d0: e3bc 0000 2c9a d002 ef16 d181 68a0 d981
000003e0: f573 0080 ae31 0000 f538 0000 48bd 0000
000003f0: 1232 0000 139d 0080 a91a 4c81 0e66 0080

mlp.12.bias f4 [128]
6.3873e-41 -1.2058081e-06 6.2617e-41 1.9408717e-37 -4.7636e-41 1.4292e-41 -5.0084127e-05 3.9281e-41
-2.9579105e-05 4.694e-41 -4.9125e-41 7.3104e-41 -7.372996e-05 -3.956e-41 0.0003304855 -2.8039221e-07
5.735e-41 7.3879e-41 4.0430523e-06 1.79073e-40 1.279e-40 5.7829e-41 -8.5420936e-05 0.00059078005
-5.2921e-41 -1.718859e-05 -1.4722497e-38 -3.590291e-07 -6.9252e-41 -1.2239134e-05 0.00015126055 4.7493595e-29
-0.00036836302 0.00044926273 8.0545e-41 0.003692162 9.1367e-41 9.7741884e-20 0.0005737874 -1.2972e-41
-7.4706e-41 6.38125e-05 2.7514e-41 6.217e-41 -0.0005721595 0.00018856273 -5.077798e-05 -3.5185e-41
4.4345e-41 5.503e-42 8.4397e-41 -5.0964572e-05 -4.0855e-41 0.0060702907 0.003259813 2.6262e-41
-9.805e-41 7.1082e-41 0.0012834237 0.00031809532 0.0010576377 -1.5084e-41 0.0004881829 -3.2328272e-11
0.0019025095 -1.2429e-40 6.375e-41 -6.2903e-41 2.76047e-40 -7.643e-41 -2.2282e-41 4.5981e-41
-1.1712e-41 0.0015083777 7.4925e-41 -0.0002818155 9.5094e-41 -2.9661e-41 6.190514e-21 1.5879425e-14
0.00066988624 7.1124e-41 -1.3337814e-06 -2.2889e-41 -0.0005851134 -2.8313e-41 -8.518251e-05 -3.4427e-41
-0.0005142963 0.0025926612 -6.7824e-41 1.9601e-41 -6.0743e-41 0.0015008018 -6.5316e-41 -1.0589602e-21
-2.6007e-41 -7.643e-41 2.2275912e-36 9.182e-41 -7.2593e-41 -0.00028153902 4.592e-41 8.706221e-05
3.6679737e-21 -5.5166737e-22 1.8064e-41 -0.0003270733 -0.00016919989 0.0005466009 0.0013331783 -1.8192776e-38
4.588e-42 -1.7960802e-14 -3.7034e-41 -4.3136e-41 0.002081442 4.6102272e-07 7.1007e-41 -0.0013989753
0.00062557467 -4.4225555e-05 -1.74843e-40 -0.00033330914 0.002313005 -6.7666e-41 -4.4993e-41 8.9991e-41
00000000: 0db2 0000 40d7 a1b5 8dae 0000 c116 8402
00000010: ca84 0080 d727 0000 6c11 52b8 806d 0000
00000020: a520 f8b7 da82 0000 f188 0080 c9cb 0000
00000030: 799f 9ab8 476e 0080 0345 ad39 d088 96b4
00000040: de9f 0000 f2cd 0000 8ea9 8736 2ff3 0100
00000050: 8864 0100 34a1 0000 0424 b3b8 94de 1a3a
00000060: 8693 0080 3730 90b7 5550 a080 95c0 c0b4
00000070: 0cc1 0080 ae56 4db7 b29b 1e39 36d2 7010
00000080: d920 c1b9 068b eb39 87e0 0000 33f8 713b
00000090: b2fe 0000 58c9 e61f 386a 163a 2924 0080
000000a0: 40d0 0080 13d3 8538 b34c 0000 4ead 0000
000000b0: f9fc 15ba ecb8 4539 71fa 54b8 1562 0080
000000c0: 9e7b 0000 570f 0000 44eb 0000 cbc2 55b8
000000d0: e371 0080 4ae9 c63b 96a2 553b 3549 0000
000000e0: 5311 0180 26c6 0000 8e38 a83a 08c6 a639
000000f0: 6fa0 8a3a 0c2a 0080 cdf2 ff39 662e 0eae
00000100: a05d f93a 785a 0180 b6b1 0000 59af 0080
00000110: 8201 0300 0ed5 0080 1d3e 0080 2d80 0000
00000120: a620 0080 c2b4 c53a dcd0 0000 a3c0 93b9
00000130: 1509 0100 af52 0080 fade e91d 7607 8f28
00000140: 4e9b 2f3a 44c6 0000 6104 b3b5 ce3f 0080
00000150: 4c62 19ba ed4e 0080 03a4 b2b8 f85f 0080
00000160: d7d1 06ba a3e9 293b 11bd 0080 a436 0000
00000170: 54a9 0080 8db6 c43a 13b6 0080 8a06 a09c
00000180: 7f48 0080 0ed5 0080 a480 3d04 f5ff 0000
00000190: 5cca 0080 879b 93b9 0280 0000 2b95 b638
000001a0: 7792 8a1d 32bb 269c 5b32 0000 097b abb9
000001b0: 406b 31b9 c449 0f3a 0abe ae3a 0f1a c680
000001c0: ca0c 0000 cac6 a1a8 3c67 0080 3f78 0080
000001d0: cd68 083b 7b82 f734 f0c5 0000 d25d b7ba
000001e0: 9bfd 233a d47e 39b8 64e7 0180 ffbf aeb9
000001f0: c995 173b a0bc 0080 6c7d 0080 dcfa 0000

mlp.15.weight f4 [64, 128]
1.48026e-40 6.234e-41 -2.5065e-41 8.6295e-41 6.7439e-41 -6.0165e-41 -2.45268e-40 -5.3153e-41
2.05066e-40 -6.9115e-41 4.8474e-41 2.00255e-40 -5.1714e-41 -1.61317e-40 -3.4438e-41 1.02941e-40
6.3127e-41 7.4555e-41 3.967e-42 3.508e-41 8.86e-42 6.3878e-41 -2.5547e-41 -1.8772e-41
5.5887e-41 -5.7969e-41 -6.7304e-41 -3.4539e-41 9.9107e-41 6.0441e-41 2.6462e-41 2.79472e-40
1.17589e-40 1.7837e-41 1.35988e-40 2.8788e-41 1.666e-41 5.0347e-41 3.7438e-41 -2.10322e-40
-1.16085e-40 7.226e-41 1.03151e-40 7.5283e-41 -2.2544e-41 -7.2726e-41 -8.0939e-41 6.3811e-41
7.3899e-41 4.1537e-41 2.8402e-41 1.4062e-41 8.1986e-41 -5.381e-41 -1.4886e-41 -5.2763e-41
-5.5434e-41 3.09e-41 -1.878e-42 -7.0254e-41 -9.0786e-41 9.73e-43 5.7237e-41 1.77694e-40
3.6602e-41 1.6825e-41 -7.8359e-41 1.3454e-41 -1.0274e-41 1.10051e-40 -1.29679e-40 -2.5813e-41
-7.4951e-41 -4.9462e-41 -3.0819e-41 7.888e-42 5.8978e-41 -7.0979e-41 -8.413e-41 -2.8037e-41
-5.4681e-41 7.1018e-41 1.61455e-40 -8.2452e-41 3.4885e-41 -1.16759e-40 1.3916e-41 2.83298e-40
-2.0002e-41 -1.226e-42 6.9635e-41 -2.769e-41 -3.2668e-41 -5.9936e-41 2.6759e-41 -1.33374e-40
-5.6478e-41 -6.8941e-41 -5.4543e-41 5.9219e-41 2.3864e-41 7.0696e-41 -6.0421e-41 3.4668e-41
-3.3979e-41 3.9402e-41 2.0956e-41 1.8555e-41 -1.766e-42 -7.4912e-41 -3.9592e-41 -7.3083e-41
-2.236e-41 -2.8769e-41 6.7793e-41 -3.2359e-41 -1.3968e-41 4.718e-42 4.6715e-41 -9e-42
8.876e-42 -9.97e-42 -1.3011e-41 3.003e-41 1.9429e-41 1.72e-42 3.6929e-40 -2.18968e-40
-2.9143e-41 -1.67106e-40 1.00147e-40 2.36591e-40 5.612e-41 7.1546e-41 5.9733e-41 -7.4332e-41
-5.4428e-41 2.7402e-41 -9.699e-41 2.52525e-40 -7.4417e-41 -6.632e-41 1.4443e-41 5.011e-41
-6.9083e-41 -3.8019e-41 -3.0174e-41 -9.0688e-41 1.70619e-40 4.2671e-41 -4.2954e-41 -4.517e-41
6.654e-41 -8.4543e-41 1.9643e-41 -2.6468e-41 5.412e-42 -1.3797e-41 6.1699e-41 -5.3203e-41
-7.3676e-41 3.3e-43 6.7234e-41 3.3988e-41 2.8186e-41 6.0592e-41 -6.756e-41 4.2304e-41
3.685e-42 4.1403e-41 6.915e-41 4.5211e-41 6.3533e-41 7.414e-42 -1.118e-42 -8.3234e-41
8.3955e-41 -1.27776e-40 -7.9465e-41 4.9896e-41 9.3521e-41 -5.2388e-41 4.476e-41 -8.7312e-41
4.513e-41 4.4704e-41 3.0777e-41 2.2083e-41 2.862e-41 1.05756e-40 4.2962e-41 -1.11665e-40
3.8716e-41 9.435e-41 6.736e-42 1.47159e-40 1.39454e-40 7.2824e-41 -6.8575e-41 -1.505e-42
4.4585e-41 -3.7722e-41 4.367e-41 5.7075e-41 5.4944e-41 -7.7329e-41 -5.8155e-41 -1.1272e-41
-6.3218e-41 1.0412e-40 -7.7153e-41 7.98e-42 -5.0344e-41 6.897e-42 -3.192e-42 6.7313e-41
-5.3974e-41 -4.432e-42 1.2701e-41 1.00699e-40 -5.8855e-41 -6.0126e-41 3.2901e-41 -1.09758e-40
-6.2746e-41 -6.9028e-41 1.2938e-41 1.5438e-41 -7.0474e-41 1.1555e-41 1.8712e-41 -3.225e-41
-5.8e-41 2.4974e-41 2.3065e-41 4.7144e-41 -5.3291e-41 -2.4768e-41 1.9264e-41 -1.7775e-41
3.5513e-41 6.756e-42 9.4921e-41 -4.11e-41 5.9202e-41 6.5109e-41 -7.81e-41 7.0763e-41
4.3437e-41 2.6455e-41 -5.9906e-41 8.827e-41 -7.1371e-41 7.0197e-41 -6.455e-41 6.021e-42
00000000: a39c 0100 c7ad 0000 df45 0080 8ef0 0000
00000010: febb 0000 b7a7 0080 b5ab 0280 2b94 0080
00000020: a43b 0200 aac0 0080 2087 0000 3b2e 0200
00000030: 2890 0080 b0c1 0180 0060 0080 f51e 0100
00000040: f9af 0000 d4cf 0000 0f0b 0000 ca61 0000
00000050: b318 0000 11b2 0000 3747 0080 5434 0080
00000060: ca9b 0000 98a1 0080 9ebb 0080 4860 0080
00000070: 4514 0100 7ca8 0000 c449 0000 0e0b 0300
00000080: ca47 0100 b931 0000 147b 0100 4050 0000
00000090: 712e 0000 598c 0000 5d68 0000 4b4a 0280
000000a0: 9943 0180 6ec9 0000 8b1f 0100 dcd1 0000
000000b0: d83e 0080 bbca 0080 a0e1 0080 e1b1 0000
000000c0: 00ce 0000 ca73 0000 2c4f 0000 3327 0000
000000d0: 8be4 0000 0096 0080 7f29 0080 1593 0080
000000e0: 879a 0080 2356 0000 3c05 0080 d7c3 0080
000000f0: 13fd 0080 b602 0000 8e9f 0000 57ef 0100
00000100: 0866 0000 e72e 0000 6fda 0080 8125 0000
00000110: a41c 0080 c732 0100 7e69 0180 f547 0080
00000120: efd0 0080 e189 0080 e955 0080 fd15 0000
00000130: 68a4 0000 dcc5 0080 85ea 0080 284e 0080
00000140: 6e98 0080 f8c5 0000 12c2 0100 d8e5 0080
00000150: 3f61 0000 7a45 0180 cb26 0000 b815 0300
00000160: c237 0080 6b03 0080 1dc2 0000 304d 0080
00000170: 115b 0080 14a7 0080 984a 0000 cb73 0180
00000180: 709d 0080 2ec0 0080 0b98 0080 14a5 0000
00000190: 8642 0000 12c5 0000 6ea8 0080 a460 0000
000001a0: b85e 0080 d66d 0000 6b3a 0000 b933 0000
000001b0: ec04 0080 d3d0 0080 5e6e 0080 bacb 0080
000001c0: 553e 0080 3250 0080 fbbc 0000 345a 0080
000001d0: f026 0080 270d 0000 3982 0000 1719 0080
000001e0: be18 0000 cb1b 0080 4524 0080 b653 0000
000001f0: 2936 0000 cb04 0000 6e05 0400 6562 0280
00000200: 3d51 0080 d3d1 0180 2b17 0100 8593 0200
00000210: 719c 0000 71c7 0000 83a6 0000 35cf 0080
00000220: b997 0080 634c 0000 5e0e 0180 f0bf 0200
00000230: 72cf 0080 e0b8 0080 4328 0000 b08b 0000
00000240: 93c0 0080 fb69 0080 1d54 0080 cdfc 0080
00000250: 9edb 0100 f376 0000 bd77 0080 ea7d 0080
00000260: 7db9 0000 aceb 0080 c236 0000 c849 0080
00000270: 160f 0000 7626 0080 feab 0000 4f94 0080
00000280: 61cd 0080 eb00 0000 6cbb 0000 bf5e 0000
00000290: 924e 0000 e8a8 0000 54bc 0080 ed75 0000
000002a0: 460a 0000 6a73 0000 c3c0 0000 087e 0000
000002b0: 1bb1 0000 ab14 0000 1e03 0080 06e8 0080
000002c0: 08ea 0000 3064 0180 84dd 0080 178b 0000
000002d0: b304 0100 0992 0080 c67c 0000 64f3 0080
000002e0: ce7d 0000 9e7c 0000 cb55 0000 8f3d 0000
000002f0: c84f 0000 ce26 0100 c377 0000 4737 0180
00000300: ed6b 0000 0207 0100 c712 0000 389a 0100
00000310: be84 0100 01cb 0000 29bf 0080 3204 0080
00000320: 497c 0000 2769 0080 bc79 0000 1a9f 0000
00000330: 2999 0000 90d7 0080 1da2 0080 6c1f 0080
00000340: 3ab0 0080 3f22 0100 12d7 0080 3f16 0000
00000350: 578c 0080 3a13 0000 e608 0080 a4bb 0000
00000360: 7596 0080 5b0c 0080 6823 0000 b518 0100
00000370: 10a4 0080 9ba7 0080 b75b 0000 f631 0180
00000380: e9ae 0080 6cc0 0080 1124 0000 092b 0000
00000390: 74c4 0080 3620 0000 2934 0000 e659 0080
000003a0: aea1 0080 9e45 0000 4c40 0000 6b83 0000
000003b0: 8e94 0080 0b45 0080 b335 0000 8d31 0080
000003c0: ff62 0000 d512 0000 9a08 0100 9272 0080
000003d0: 08a5 0000 7fb5 0000 b6d9 0080 42c5 0000
000003e0: 1679 0000 bf49 0000 fea6 0080 10f6 0000
000003f0: f4c6 0080 aec3 0000 f0b3 0080 c910 0000

mlp.15.bias f4 [64]
-1.79963e-40 6.739e-41 -3.405e-40 7.0878e-41 -0.0013013408 -2.174362e-07 2.7531343e-20 -2.3774423e-32
1.5702093e-38 0.0006143453 -1.5208587e-05 -8.6895e-41 -2.9821e-41 0.003221783 -1.6115579e-05 -6.081065e-06
5.367352e-12 8.7e-43 4.2578e-41 -1.4975633e-32 -3.9745e-41 3.388266e-26 -7.844886e-38 -0.00012279103
2.1577e-41 0.030195653 4.309875e-35 7.5388e-41 0.018961072 1.5856159e-33 7.1983e-41 -2.2504935e-25
-1.0885e-41 -0.0030847134 0.003097476 3.5025e-41 2.1408888e-31 0.021884581 -9.2559435e-07 1.1427422e-30
0.0032484448 0.00022026335 -5.1356e-41 -9.3666e-41 -6.1656e-41 0.036543354 0.0026452963 -4.0799e-41
-5.999e-41 3.19982e-40 0.00072129216 -3.572042e-07 -6.1874e-41 -1.3101e-41 -1.1817e-41 -4.0883054e-21
-5.9901e-41 -5.4887003e-13 -2.965e-41 0.009159906 0.023782283 -2.2973292e-12 -2.871982e-06 -0.0012691951
00000000: aaf5 0180 dbbb 0000 2db5 0380 94c5 0000
00000010: c091 aaba 6878 69b4 5a03 021f 42e3 f68a
00000020: 0cfb aa00 040c 213a 6228 7fb7 3af2 0080
00000030: 2153 0080 8d24 533b f12f 87b7 f30b ccb6
00000040: cfd8 bc2c 6d02 0000 b176 0000 1084 9b8a
00000050: cb6e 0080 60c7 2715 e08e d581 77c1 00b9
00000060: 263c 0000 e05c f73c fb26 6506 27d2 0000
00000070: 4054 9b3c 52ba 0309 a9c8 0000 7e4c 8b96
00000080: 581e 0080 e728 4abb 06ff 4a3b a361 0000
00000090: 9ef3 8a0c 4b47 b33c 5c76 78b5 a76b b90d
000000a0: dce3 543b 7ef6 6639 298f 0080 1a05 0180
000000b0: dfab 0080 7cae 153d b55c 2d3b bb71 0080
000000c0: 3aa7 0080 fb7b 0300 1915 3d3a c5c5 bfb4
000000d0: 7bac 0080 8524 0080 f120 0080 aa73 9a9d
000000e0: fba6 0080 417e 1aab a752 0080 6e13 163c
000000f0: 10d3 c23c 01a9 21ac 46bc 40b6 1f5b a6ba

mlp.18.weight f4 [8, 64]
5.6044e-41 -1.68607e-40 -1.145e-42 -5.4742e-41 -2.2508e-41 4.4543e-41 2.10137e-40 3.886e-41
1.36994e-40 6.7411e-41 1.4282e-41 2.8986e-40 -3.40368e-40 4.3226e-41 1.226e-41 4.0605e-41
7.6034e-41 -2.8872e-41 1.2662e-41 -6.1555e-41 2.521e-41 -4.5e-44 8.2095e-41 1.05343e-40
-9.0999e-41 -3.89e-41 -2.35232e-40 -1.31754e-40 -5.198024e-25 -3.839e-41 -8.5013e-41 6.1465e-41
-5.0358e-41 5.0384e-41 4.4529e-41 7.7e-42 -5.605e-42 -6.4562e-41 -2.452e-42 -2.3762e-41
-8.8202e-41 -3.585e-41 -1.14831e-40 -6.37e-42 -5.2624e-41 -1.725563e-39 -3.979e-41 8.2926e-41
1.903e-41 1.6377e-41 -2.57913e-40 -2.9989e-41 4.8429e-41 7.5589e-41 1.2851e-41 -1.16744e-40
-1.22635e-40 1.3485e-41 -3.2279e-41 8.299e-41 -4.478e-41 -1.607e-42 6.9709e-41 -6.7394e-41
2.10356e-40 -4.685e-41 -6.5166e-41 -3.156e-41 -0.0012326792 3.9189504e-07 -2.1713842e-21 1.0464891e-32
1.9576126e-17 -0.0003095446 -3.8662274e-05 -5.1557e-41 4.2892e-41 0.03740972 -0.00049572147 0.012645184
2.203782e-14 2.4335e-41 3.4052e-41 3.6515817e-33 -1.6143604e-15 3.9154655e-25 8.881362e-17 0.0021183472
-2.6005e-41 0.06534421 2.0215743e-27 2.6265e-41 0.025042068 3.3933673e-34 -2.1141e-41 6.2611175e-26
2.1202e-41 0.009996265 -0.031529307 3.4043e-41 3.1023628e-31 0.064606 -4.6380097e-07 -3.964063e-31
0.03239842 0.00064961304 -2.6405733e-13 2.7066e-41 -2.7007e-41 0.064977184 0.01153877 2.668e-41
1.8103e-41 -5.9524e-41 0.0012868706 -4.9893333e-07 1.8397226e-11 -1.7081556e-12 -7.835e-42 -3.237e-41
4.5652e-41 5.5977954e-14 2.4164e-41 0.012799031 0.0768255 -0.0013164623 1.5741553e-07 0.009692003
4.3065e-41 -7.2747e-41 -6.0549e-41 7.3505e-41 0.010249483 -2.2492e-41 5.7471e-41 2.4462e-41
2.2677e-41 -0.0005428893 -9.606619e-05 6.5424e-41 2.9895e-41 -0.005692002 -0.0002817715 -0.023820443
-3.5238e-41 7.1758e-41 -7.172e-41 6.3437e-41 -6.5584e-41 3.6396e-41 -1.124e-41 -0.004434782
-1.7379e-41 -3.8857893e-06 -1.7085e-41 5.154e-41 -0.011645434 -2.8804e-41 1.23159e-40 -8.5654e-41
6.1077e-41 0.030231722 -0.0017980164 -2.6246e-41 -5.5015e-41 0.00034680474 2.2380138e-05 -2.73692e-40
-6.369056e-08 0.0022653902 -1.6158e-41 3.2343e-41 -3.29e-42 -0.01084355 -0.0011044749 7.7105e-41
-1.69397e-40 -9.0943e-41 0.0012157541 7.633e-42 -7.2512e-41 -9.494e-42 -5.6056e-41 -2.6235754e-26
9.233e-42 -2.3867e-41 -1.17865e-40 -0.0067368574 0.009255031 0.0034542962 -3.8079e-41 -0.00020509209
-1.01624e-40 1.897e-42 4.36649e-40 6.7314e-41 -0.0043177134 8.212623e-07 -3.1236798e-21 2.0094625e-31
1.435303e-14 0.007522226 0.00011806685 -2.679e-42 -5.9569e-41 -0.02809152 0.0016231048 0.04689996
-1.4708225e-12 1.72e-41 -2.8982e-41 1.3259565e-31 -7.757497e-13 1.6086196e-24 6.818056e-14 -0.017877916
6.2034e-41 0.04999174 8.5126624e-23 7.473e-42 0.11182499 7.127398e-33 4.2499e-41 5.531991e-25
3.7918e-41 -0.010690401 0.007850608 1.7565e-41 -1.3017482e-30 0.061012015 2.735933e-06 -6.0429926e-30
-0.025307838 0.000657462 -1.14361694e-10 3.0307e-41 -4.4951e-41 0.109226435 0.046983223 -1.568e-42
6.6126e-41 3.5967e-41 0.0014891378 -3.878079e-07 7.8627727e-10 -1.1647305e-10 5.739e-41 -3.6865e-41
2.7733e-41 -8.631997e-13 -2.4059e-41 -0.0021657837 0.04088866 0.005554773 2.3183735e-07 -0.031224916
00000000: 3a9c 0000 02d6 0180 3103 0080 9998 0080
00000010: be3e 0080 2b7c 0000 c749 0200 536c 0000
00000020: e27d 0100 eabb 0000 d027 0000 0328 0300
00000030: cfb4 0380 7f78 0000 2d22 0000 3171 0000
00000040: f4d3 0000 7c50 0080 4c23 0000 97ab 0080
00000050: 4646 0000 2000 0080 d9e4 0000 a725 0100
00000060: abfd 0080 706c 0080 bb8f 0280 476f 0180
00000070: fdde 2097 046b 0080 fbec 0080 57ab 0000
00000080: 618c 0080 738c 0000 217c 0000 7715 0000
00000090: a00f 0080 f9b3 0080 d606 0080 3d42 0080
000000a0: dff5 0080 ef63 0080 1a40 0180 c211 0080
000000b0: b292 0080 2bca 1280 eb6e 0080 2ae7 0000
000000c0: 0c35 0000 a72d 0000 f5ce 0280 9953 0080
000000d0: 0087 0000 b6d2 0000 d323 0000 6f45 0180
000000e0: db55 0180 9725 0000 fb59 0080 58e7 0000
000000f0: d47c 0080 7b04 0080 52c2 0000 debb 0080
00000100: 634a 0200 9982 0080 a8b5 0080 fa57 0080
00000110: da91 a1ba a565 d234 ae10 249d e858 590a
00000120: d28e b423 5f4a a2b9 4d29 22b8 b88f 0080
00000130: 9177 0000 ef3a 193d 4ef3 01ba bf2d 4f3c
00000140: c17f c628 d643 0000 ec5e 0000 47ae 9709
00000150: 63a7 e8a6 075b f216 4fca cc24 f8d3 0a3b
00000160: 7e48 0080 2fd3 853d 662a 2013 3749 0000
00000170: 0625 cd3c 2787 e107 ef3a 0080 8c04 9b15
00000180: 1a3b 0000 60c7 233c e024 01bd e65e 0000
00000190: d85a c90c 2750 843d 5200 f9b4 26a4 008d
000001a0: 35b4 043d cb4a 2a3a aca6 94aa 734b 0000
000001b0: 494b 0080 c212 853d 1c0d 3d3c 5f4a 0000
000001c0: 7732 0000 eea5 0080 36ac a83a 70ee 05b5
000001d0: dfd2 a12d cb66 f0ab d715 0080 3c5a 0080
000001e0: 427f 0000 301a 7c29 5c43 0000 07b3 513c
000001f0: b056 9d3d 258d acba 0d06 2934 35cb 1e3c
00000200: 0c78 0000 caca 0080 c9a8 0080 e7cc 0000
00000210: 73ed 273c b33e 0080 35a0 0000 3144 0000
00000220: 373f 0000 af50 0eba 2577 c9b8 60b6 0000
00000230: 5653 0000 f983 babb bbba 93b9 1723 c3bc
00000240: 3b62 0080 08c8 0000 edc7 0080 d6b0 0000
00000250: d2b6 0080 7565 0000 551f 0080 a651 91bb
00000260: 7230 0080 ad62 82b6 a02f 0080 ac8f 0000
00000270: 7ecc 3ebc 4b50 0080 5157 0100 c5ee 0080
00000280: 42aa 0000 84a8 f73c 6bab ebba 2a49 0080
00000290: 5c99 0080 58d3 b539 fbbc bb37 f1fa 0280
000002a0: 41c6 88b3 f176 143b 0b2d 0080 295a 0000
000002b0: 2c09 0080 25a9 31bc 07c4 90ba f0d6 0000
000002c0: 36d8 0180 83fd 0080 f059 9f3a 4715 0000
000002d0: 22ca 0080 771a 0080 439c 0080 c5e9 0195
000002e0: bd19 0000 8842 0080 8f48 0180 dbc0 dcbb
000002f0: 6aa2 173c 7961 623b 266a 0080 fd0d 57b9
00000300: 491b 0180 4a05 0000 33c1 0400 a5bb 0000
00000310: 9b7b 8dbb b774 5c35 c104 6c9d ec6b 820c
00000320: d547 8128 017d f63b a89a f738 7807 0080
00000330: 0ea6 0080 3020 e6bc 5cbe d43a 2c1a 403d
00000340: f7ff ceab f22f 0000 ca50 0080 761e 2c0c
00000350: a85a 5aab fdeb f817 6b87 9929 b574 92bc
00000360: edac 0000 24c4 4c3d d4d2 cd1a d514 0000
00000370: 8004 e53d bf07 140a 7876 0000 f334 2b17
00000380: b369 0000 cb26 2fbc d69f 003c f730 0000
00000390: 8138 d38d bce7 793d f99a 3736 0622 f58e
000003a0: 6252 cfbc 8759 2c3a e97b fbae 7c54 0000
000003b0: 4e7d 0080 1cb2 df3d 7b71 403d 5f04 0080
000003c0: 55b8 0000 4364 0000 2c2f c33a e933 d0b4
000003d0: 5821 5830 4010 00af fb9f 0000 c466 0080
000003e0: 4f4d 0000 18f8 72ab 1143 0080 d2ef 0dbb
000003f0: de7a 273d d004 b63b f7ee 7834 65cb ffbc

mlp.18.bias f4 [8]
-5.7794e-41 0.090183645 -0.00021403404 0.0814459 0.08540831 0.11548861 7.700976e-37 0.046455167
00000000: 1ba1 0080 34b2 b83d 536e 60b9 1ccd a63d
00000010: 8dea ae3d 4b85 ec3d 7b06 8303 c647 3e3d

mlp.21.weight f4 [1, 8]
7.751904e-06 -0.11872683 2.5568024e-06 -0.14020328 -0.14208208 -0.18562096 7.552651e-36 -0.06343004
00000000: 2d0e 0237 0d27 f3bd 8895 2b36 7391 0fbe
00000010: f77d 11be 6c13 3ebe 8ba0 2005 9ce7 81bd
